trained_models/CNN_Zscore_CF8_pred_0.pth (torch, 37564 bytes, 10 tensors)

conv2d.weight f4 [16, 1, 4, 40]
0	0xbdd36cc6	-0.10323481
1	0xbe0a89f8	-0.13529193
2	0xbd4c5d46	-0.04989364
3	0x3cdd66e1	0.027026596
4	0xbd9d2acd	-0.07674179
5	0xbd896987	-0.06709581
6	0xbcb11911	-0.021618398
7	0xbc9452d7	-0.018105907
8	0x3cd35f51	0.025802286
9	0x3dc0ba80	0.09410572
10	0xbdc7d733	-0.09757843
11	0xbbe5232b	-0.0069927177
12	0xbd9aee97	-0.07565039
13	0x3d49f353	0.049304318
14	0x3d0e0a7a	0.03467796
15	0xbd8f0068	-0.06982499
16	0xbd09ada5	-0.033612866
17	0x3dc5e48d	0.09662733
18	0xbd723b43	-0.059138548
19	0x3cdef633	0.027217006
20	0xbdc7ff03	-0.097654365
21	0x3c968e86	0.018378507
22	0xbd00b61f	-0.031423684
23	0xbd1b9829	-0.037986908
24	0xbd66c78b	-0.056342643
25	0x3d058e0c	0.03260617
26	0x3c053d31	0.008132265
27	0x3d76cb65	0.060252566
28	0xba9c441a	-0.0011922151
29	0x3d52720d	0.0513783
30	0xbd8475ef	-0.064678065
31	0xbac93c28	-0.0015353011
32	0x3b5f21ac	0.003404717
33	0x3d3160e9	0.04330531
34	0xbd0195f9	-0.031637166
35	0x3d5f55db	0.054525238
36	0xbcded1d4	-0.027199663
37	0x3d687272	0.05674977
38	0x3cefafac	0.029258572
39	0xbd44f244	-0.048082605
40	0x3cbd7552	0.023127232
41	0xbdf403f9	-0.1191482
42	0xbc8c76a7	-0.017146422
43	0x3b4d0dfc	0.0031288853
44	0x3d3cf2f9	0.046130154
45	0xbc10059a	-0.008790398
46	0x3c26c80e	0.010179533
47	0x3d52b273	0.051439714
48	0xbd773135	-0.06034966
49	0x3d726542	0.0591786
50	0xbbc1def3	-0.00591647
51	0x3c63c7a4	0.0139025785
52	0x3ccfa2dc	0.025346212
53	0x3d2858e2	0.04110039
54	0xbd826f00	-0.06368828
55	0xbd576728	-0.05258861
56	0xbcfe94c7	-0.031076802
57	0x3d04e16e	0.03244155
58	0x3c882ddb	0.016623428
59	0xbd59ce15	-0.05317505
60	0xbd1f7d94	-0.03893812
61	0xbd70f450	-0.058826745
62	0xbdd6c5b0	-0.10486925
63	0x3d497ed8	0.049193233
64	0xbce1421d	-0.027497346
65	0x3c1a29e4	0.009409402
66	0xbd7f9041	-0.06239343
67	0xbd7d0b9c	-0.06177865
68	0xbd2fa63b	-0.04288314
69	0xbd871c95	-0.065972485
70	0xbd3324bf	-0.043736216
71	0x3d23923f	0.039934393
72	0xbaa7315a	-0.0012755797
73	0x3d943229	0.0723613
74	0x3cc0a6af	0.02351698
75	0x3c08a5b6	0.00834029
76	0xbd6ecabb	-0.058298808
77	0x3d2d896d	0.042367388
78	0xbd4a50ca	-0.049393453
79	0xbdce352a	-0.10068734
80	0xbdd64261	-0.104618795
81	0x3c9d417a	0.01919626
82	0x3c4a4702	0.012346031
83	0xbd93aaea	-0.07210334
84	0x3d131fc6	0.035918973
85	0xbc949219	-0.018136071
86	0x3d1a6106	0.037690185
87	0x3de677d2	0.11253323
88	0xbdc9bb21	-0.09850145
89	0x3e151590	0.14559007
90	0xbca582f8	-0.020204052
91	0x3ccfbf55	0.025359789
92	0xbdd5db1e	-0.10442184
93	0x3d9e90ba	0.07742448
94	0x3d27c2b7	0.04095718
95	0xbaa89dd8	-0.0012864424
96	0xbcec0425	-0.02881057
97	0x3d85e5f8	0.06538004
98	0xbd676acb	-0.05649833
99	0x3d96922c	0.07352099
100	0xbda39d24	-0.079889566
101	0x3d04e9d1	0.032449547
102	0xbd87c374	-0.066290766
103	0x3de28165	0.11059836
104	0x3a9cff29	0.0011977899
105	0x3d8cc550	0.06873572
106	0xbc52fb58	-0.012877308
107	0xbc097f66	-0.008392191
108	0x3ce7007a	0.02819847
109	0x3adac9d5	0.0016692231
110	0xbd96f6dd	-0.07371304
111	0xbd664e2c	-0.056226894
112	0x3c9730b9	0.01845585
113	0xbb38d609	-0.0028203747
114	0xbc9807a2	-0.018558327
115	0x3ca46af0	0.020070523
116	0xbcc1f63a	-0.02367698
117	0xbd359ad8	-0.044337124
118	0xbdc2bb09	-0.095083304
119	0xbdf6176c	-0.12016186
120	0xbca22fee	-0.019798245
121	0x3c8a93c7	0.016916169
122	0xbd386aa6	-0.045023583
123	0xbd782fb4	-0.06059237
124	0x3c91f348	0.0178162
125	0xbb583467	-0.0032990219
126	0x3cef5830	0.029216856
127	0x3db132c9	0.086522646
128	0xbb8110be	-0.0039387634
129	0x3e36ea15	0.17862733
130	0xbd6a9bd4	-0.057277516
131	0x3ca57586	0.020197641
132	0xbdd0dc8c	-0.10198316
133	0x3d5e8c0c	0.054332778
134	0xbcd3040d	-0.025758768
135	0xbd2026b0	-0.039099395
136	0xbd9c4372	-0.07630052
137	0xbccd8831	-0.025089355
138	0xbcf33b82	-0.029691461
139	0x39a20430	0.00030902168
140	0xbd19f0ca	-0.03758315
141	0x3c7d28ef	0.015451654
142	0xbb1a4fc3	-0.0023546077
143	0xbc1353e8	-0.008992173
144	0x3d082ae6	0.033244036
145	0x3dde266e	0.10847174
146	0xbdd26693	-0.10273471
147	0xbca4710b	-0.020073434
148	0xbb1cdc0c	-0.002393487
149	0xbd036b35	-0.032084662
150	0xbdc4895f	-0.09596514
151	0xbd72a014	-0.059234694
152	0x3c403fd0	0.011733964
153	0x3cf7aedd	0.030234748
154	0x3bb2a16e	0.005451373
155	0x3d107cd2	0.035275288
156	0xbd7f172b	-0.062277954
157	0x3bd5f524	0.006529467
158	0xbd284199	-0.041078184
159	0xbdcef118	-0.10104579
160	0x3d533719	0.051566217
161	0x3d02bc42	0.031917818
162	0x3c0de7b5	0.0086612
163	0x3d6c6b70	0.057719648
164	0x3d18ca03	0.03730203
165	0xbccaa537	-0.024736984
166	0x3d9e9184	0.07742599
167	0x3d14f953	0.036370587
168	0x3d6cb498	0.057789415
169	0x3c9b8786	0.018985521
170	0x3d3d7edd	0.046263564
171	0xbd36b16d	-0.0446028
172	0x3d57a5b3	0.052648257
173	0x3d7d9d5e	0.061917655
174	0x3d22c470	0.03973812
175	0x3dbe68a2	0.09297301
176	0xba3e0884	-0.0007249194
177	0x3d87f147	0.06637817
178	0x3d4af37d	0.049548615
179	0x3d85a5bb	0.06525751
180	0x3d44acdc	0.048016414
181	0xbd951da8	-0.07281047
182	0x3d8df95d	0.06932328
183	0xbd3d23b2	-0.04617662
184	0x3ce99fdb	0.028518608
185	0xbd989e18	-0.07452029
186	0x3c3c5e81	0.011497141
187	0xbcf66e64	-0.030081935
188	0x3d219325	0.03944697
189	0xbdbb41e9	-0.09143431
190	0x3dc167ab	0.09443601
191	0x3d919d41	0.07110072
192	0xbd5278dd	-0.051384795
193	0xb8730d66	-5.7948193e-05
194	0xbc6aeb7f	-0.014338373
195	0xbc4db969	-0.012556412
196	0x3cd7a93a	0.02632581
197	0x3d596916	0.053078733
198	0x3cb669cb	0.022267243
199	0x3cb3d05e	0.021949943
200	0xbd1878fb	-0.03722475
201	0x3d37b4ae	0.044850044
202	0x3c923031	0.017845245
203	0x3dc1646e	0.094429836
204	0x3d40500b	0.046951335
205	0xbd844e0e	-0.064602
206	0xbcee238a	-0.02906968
207	0x3d68b4f1	0.056813184
208	0x3d5e7bbb	0.054317217
209	0x3d25d438	0.04048559
210	0x3dd82e3f	0.10555696
211	0xbc495efe	-0.012290714
212	0x3d3d6e17	0.046247568
213	0xbd1c6c29	-0.038189087
214	0x3af8b0b9	0.0018973566
215	0xbd18b91d	-0.037285913
216	0x3c2d0da9	0.010562339
217	0xbd5adf1e	-0.053435437
218	0x3dcc7758	0.099837005
219	0xbd8968e8	-0.067094624
220	0x3d3bb16f	0.04582351
221	0x3c24986c	0.010046106
222	0x3cc206cd	0.023684883
223	0xbc1ce852	-0.009576874
224	0xbc8b4ece	-0.01700535
225	0xbd9e4297	-0.07727545
226	0x3d8daf7a	0.06918235
227	0xbd34d229	-0.044145737
228	0x3d28a530	0.04117316
229	0xbd28e025	-0.041229386
230	0x3de30973	0.11085787
231	0x3c11d5bc	0.008901056
232	0x3d80fb6f	0.06297957
233	0x3c1dd7bf	0.009633957
234	0x3dae4234	0.08508721
235	0xbce2f61e	-0.027705248
236	0xbd023886	-0.031792186
237	0x3d52a815	0.051429827
238	0x3de9d5b0	0.11417711
239	0xbd1de53f	-0.038548704
240	0x3dce3ef4	0.10070601
241	0xbd67688e	-0.056496195
242	0xbd021ddc	-0.031766757
243	0xbc746660	-0.014916986
244	0x3dc0298b	0.09382924
245	0x3c20ca74	0.009813894
246	0x3d19bd0a	0.037533797
247	0x3d4b1746	0.049582742
248	0xbca5fa53	-0.020260965
249	0x3d9609fa	0.07326122
250	0x3dc586a2	0.0964482
251	0x3d847207	0.064670615
252	0x3dd40024	0.10351589
253	0xbd1949ee	-0.03742402
254	0xbcf18abf	-0.029485105
255	0x3d8ff359	0.07028837

conv2d.bias f4 [16]
0	0x3d21825b	0.039430957
1	0xbd37b810	-0.04485327
2	0xbd93a76f	-0.0720967
3	0x3d032887	0.03202107
4	0xbda3d7fb	-0.080001794
5	0x3daec9ef	0.085346095
6	0x3c37e5f8	0.011224262
7	0xbd8e6e63	-0.06954648
8	0x3d83c74a	0.06434496
9	0x3d102953	0.03519566
10	0x3db9eb25	0.090780534
11	0xbd93b9e8	-0.07213193
12	0x3dbc9586	0.09208207
13	0x3bac0eff	0.005250811
14	0xbd206f11	-0.03916842
15	0xbab3e713	-0.0013725482

conv1d_1.weight f4 [16, 16, 4]
0	0x3d8c2d3d	0.06844566
1	0xbd6a3230	-0.05717677
2	0xbbc2ea07	-0.0059483084
3	0x3d24cd1d	0.040234674
4	0x3cee07e4	0.029056497
5	0x3d397711	0.045279566
6	0xbc788a5f	-0.015169709
7	0xbd26d9cc	-0.04073505
8	0xbe2a7f64	-0.16650158
9	0xbe0e4147	-0.13892089
10	0xbde5b412	-0.11215986
11	0xbe4ad5f8	-0.19808185
12	0x3d0058a8	0.03133455
13	0xbde2b628	-0.110699
14	0xbdd754b2	-0.10514201
15	0xbddf9805	-0.10917667
16	0xbdd808ab	-0.10548528
17	0xbe258137	-0.16162573
18	0xbe3baa13	-0.18326597
19	0xbd725eac	-0.059172317
20	0xbccd5fad	-0.025070036
21	0xbe0af43f	-0.13569735
22	0xbc933ecb	-0.017974278
23	0x3dc0a4fe	0.0940647
24	0x3da05c59	0.07830114
25	0xbe00f827	-0.12594663
26	0x3dc6030f	0.09668552
27	0x3da29b33	0.07939758
28	0xbc07acac	-0.008280914
29	0x3d98362e	0.07432209
30	0xbd806754	-0.06269708
31	0xbde48c29	-0.11159546
32	0x3d4e68f0	0.050393045
33	0x3dc2a5d9	0.09504289
34	0x3e206ac6	0.15665731
35	0x3cc56720	0.024097025
36	0xbd88c362	-0.06677891
37	0x3d8cd9cf	0.06877481
38	0x3d855cc8	0.06511837
39	0x3ccdc145	0.025116572
40	0xbe021c79	-0.12706174
41	0xbcb6e250	-0.022324711
42	0xbdb5f186	-0.088839576
43	0x3d8dbdfb	0.069210015
44	0x3c8476de	0.016169962
45	0x3d5a3136	0.053269587
46	0x3c8b4364	0.016999908
47	0xbd9df52d	-0.07712779
48	0xbd161bcc	-0.036647603
49	0xbdbed518	-0.09317988
50	0xbd08ecd6	-0.03342899
51	0xbbae2ab2	-0.0053151483
52	0xbdb2f3eb	-0.0873793
53	0xbd6189af	-0.055062946
54	0x3dbac85d	0.091202475
55	0x3d9ce6bd	0.07661197
56	0x3c715060	0.014728636
57	0xbd81e9ee	-0.06343447
58	0xbdcb0ad8	-0.09914178
59	0xbdfe303b	-0.12411543
60	0xbd93a0b3	-0.07208385
61	0xbd3329a1	-0.043740872
62	0xbd5517a6	-0.052024506
63	0xbe48ea02	-0.19620517
64	0x3d735f43	0.05941702
65	0x3d4e1305	0.050311107
66	0x3db8444a	0.089974
67	0x3d9fe8cc	0.07808074
68	0xbe03bb6b	-0.12864463
69	0x3cd4125b	0.025887659
70	0xbdc2f631	-0.095196135
71	0xbe168f18	-0.14703023
72	0xbd8743dc	-0.0660474
73	0x3da52387	0.08063417
74	0xbdfede66	-0.12444763
75	0x3cb0b13a	0.021568883
76	0xbd612ec5	-0.054976244
77	0xbe10b401	-0.14131166
78	0x3cb231e5	0.021752307
79	0xbe083bbd	-0.13304038
80	0xbe01ce98	-0.12676466
81	0x3aba6a26	0.0014222309
82	0xbe0425a4	-0.12904984
83	0x3da4c473	0.08045282
84	0xbce1d1df	-0.027565895
85	0x3c0c9109	0.008579501
86	0x3dabfb9b	0.08397599
87	0x3e07a415	0.13246186
88	0x3bd2dbd4	0.006434897
89	0xbe323119	-0.17401542
90	0xbe0a1493	-0.13484411
91	0x3c2dc7e0	0.010606736
92	0xbdba9856	-0.09111087
93	0x3d701302	0.058611877
94	0x3dcc5700	0.099775314
95	0x3e1843e0	0.14869642
96	0x3dc06f92	0.0939628
97	0x3e277151	0.1635182
98	0x3d53338d	0.051562835
99	0x3d9cb315	0.07651345
100	0xbd1571e8	-0.036485583
101	0x3d621c45	0.05520274
102	0x3be5ee3a	0.007016924
103	0xbd5d5a5b	-0.054041248
104	0x3df3a49b	0.118966304
105	0xbcdfc46a	-0.027315337
106	0x3d290666	0.041265868
107	0xbdae1caa	-0.08501561
108	0xbd77c815	-0.060493547
109	0xbbe1419b	-0.006874276
110	0x3dc80412	0.09766401
111	0x3d648b33	0.055796813
112	0x3dbbcde2	0.091701284
113	0x3e2b6932	0.16739348
114	0xbc8e624c	-0.017380856
115	0x3dac70f0	0.084199786
116	0xbd7864d2	-0.060643025
117	0x3d4084e1	0.047001723
118	0x3cd5c4be	0.02609479
119	0xbc31c2c6	-0.01084966
120	0xbd8fcd40	-0.0702157
121	0xbd2be10b	-0.041962665
122	0x3cf36591	0.029711517
123	0x3bd3ba9d	0.006461455
124	0x3b27e5f5	0.0025619243
125	0xbd172873	-0.03690381
126	0xbe07740c	-0.13227862
127	0xbd7d55c5	-0.061849374
128	0xbd02338a	-0.031787433
129	0x3df73eb9	0.1207251
130	0x3df1cd43	0.11806729
131	0x3e0e1c4e	0.13877985
132	0x3e18e6a1	0.14931728
133	0x3c94a71d	0.018146092
134	0xbd09c977	-0.033639397
135	0x3dd5f4d8	0.10447091
136	0x3e06d9b7	0.13168989
137	0x3dedea6f	0.1161698
138	0x3dc5e1fe	0.09662245
139	0xbc3fbbf8	-0.01170253
140	0x3d539070	0.05165142
141	0xbb4432c5	-0.0029937488
142	0x3d93e1b4	0.07220784
143	0x3ca8770f	0.020564584
144	0xbd3a64fc	-0.045506462
145	0x3d24e3e0	0.04025638
146	0x3e1c4223	0.15259604
147	0xbd919fe3	-0.07110574
148	0x3d25e715	0.04050358
149	0xbccc2bb5	-0.024923185
150	0x3e06600b	0.13122575
151	0x3ca97243	0.020684367
152	0x3cb5e506	0.022203933
153	0x3ce4c53e	0.027926084
154	0xbc9bd3c3	-0.019021874
155	0x3c322521	0.01087311
156	0xbe0ae50e	-0.1356394
157	0xbe03e82a	-0.12881532
158	0xbcad9b98	-0.021192357
159	0xbde02165	-0.109438695
160	0x3d87c9b0	0.06630266
161	0xbc3ae484	-0.011407021
162	0x3e11a620	0.14223528
163	0xbb056db4	-0.0020359578
164	0x3c8d13db	0.017221382
165	0x3d8413d4	0.064490944
166	0x3d87898a	0.0661803
167	0x3e0f822e	0.14014503
168	0xbdd9cd38	-0.106348455
169	0x3d4188fc	0.04724978
170	0x3c06add9	0.008220159
171	0x3d41e0a9	0.047333393
172	0xbcea67b1	-0.028613897
173	0xbe07fefb	-0.13280861
174	0xbd8a91bb	-0.06766077
175	0xbe282df0	-0.16423774
176	0x3ca28c97	0.01984243
177	0x3da4d1bc	0.08047816
178	0x3d8c9a2a	0.06865342
179	0xbdb40892	-0.08790697
180	0x3dd5f24d	0.10446606
181	0x3da62593	0.081126355
182	0x3df2aeb2	0.11849727
183	0xbd5ba090	-0.05361992
184	0x3dd197d6	0.102340385
185	0x3d68c8cb	0.056832116
186	0x3c3ea9f2	0.011637198
187	0xbd7f22d3	-0.06228907
188	0x3e1b6227	0.15174161
189	0x3d846cc8	0.06466061
190	0x3d6101c5	0.05493333
191	0x3d838292	0.06421389
192	0x3dae8bc2	0.085227504
193	0xbcab53af	-0.020913927
194	0x3e2ef2b4	0.17084771
195	0xbd38855c	-0.045049056
196	0x3dad4180	0.08459759
197	0x3ddda297	0.10822027
198	0x3d2a7cea	0.041623034
199	0xbcb00c42	-0.02149022
200	0x3e33f4ef	0.17573904
201	0x3d020651	0.031744305
202	0x3ba22dbe	0.0049493005
203	0xbcd3918f	-0.025826244
204	0xbd1bf532	-0.038075633
205	0xbcb7d391	-0.02243975
206	0xbd5c9b70	-0.053859174
207	0x3dbbcd14	0.09169975
208	0xbd364963	-0.04450358
209	0x3dbd17fd	0.09233091
210	0xbd04ee92	-0.03245408
211	0x3d343619	0.043996904
212	0x3d1d8c51	0.038463894
213	0x3c680589	0.014161476
214	0xbd8789e5	-0.06618098
215	0x3d96eb12	0.07369055
216	0x3b975fb8	0.004619565
217	0x3de760cd	0.1129776
218	0xbca64db3	-0.020300722
219	0x3e215595	0.15755303
220	0xbe19c471	-0.15016343
221	0xbe0fdc40	-0.14048862
222	0xbd392a11	-0.045206133
223	0xbc2b3ecb	-0.010451983
224	0x3d0c1a8b	0.034205
225	0x3d40217c	0.046906933
226	0x3e2331f6	0.15937027
227	0x3cb17a7e	0.021664854
228	0x3d7bcd2f	0.061474975
229	0xbc9542a6	-0.018220257
230	0x3cd5e12b	0.026108345
231	0xbcb348a2	-0.02188522
232	0xbd171b97	-0.036891546
233	0xbd6c05c4	-0.057622686
234	0xbd8230e1	-0.06356979
235	0x3e01a01a	0.1265873
236	0xbd7860e8	-0.060639292
237	0xbe147101	-0.14496233
238	0xbdd5b942	-0.10435726
239	0xbcc0377c	-0.023463957
240	0x3a25c497	0.00063235447
241	0x3d71dc08	0.05904773
242	0x3c319d99	0.010840797
243	0xbd66c115	-0.05633648
244	0xbd53cf59	-0.051711414
245	0x3db219f3	0.08696356
246	0x3de3820f	0.11108791
247	0x3c80d627	0.015727116
248	0x3d590821	0.052986268
249	0x3e168dc4	0.14702517
250	0x3d8b042c	0.06787905
251	0x3df86015	0.12127701
252	0x3e242d75	0.16032965
253	0x3d9882ab	0.07446798
254	0x3de5c571	0.112192996
255	0x3d05fbdc	0.032710895

conv1d_1.bias f4 [16]
0	0x3da4a1b0	0.08038652
1	0x3d504054	0.050842598
2	0xbd031428	-0.032001644
3	0xbca21076	-0.01978324
4	0xbd11efde	-0.035629146
5	0xbe0e5ac0	-0.13901806
6	0xbd848138	-0.06469959
7	0x3d8487c5	0.064712085
8	0xbc1a5ddf	-0.009421795
9	0xbd52cba3	-0.051463734
10	0x3e082a93	0.13297491
11	0x3c41826c	0.01181088
12	0xbca7ffe7	-0.020507766
13	0xbd442105	-0.047883052
14	0xbccd2dbc	-0.025046222
15	0xbd9d4442	-0.07679035

conv1d_2.weight f4 [32, 16, 3]
0	0xbdeb011d	-0.11474822
1	0xbe2b0c29	-0.16703857
2	0xbe82bd96	-0.25535268
3	0xbdca206f	-0.098694675
4	0xbcda50e6	-0.026649904
5	0xbc255f0d	-0.010093463
6	0xbd845ae8	-0.064626515
7	0x3d98fa9d	0.07469676
8	0x3bfb2af3	0.007665032
9	0x3d044b9f	0.03229868
10	0xbd7cac86	-0.06168797
11	0x3da723b6	0.08161108
12	0xbdcae10e	-0.09906207
13	0xbe1717e6	-0.1475521
14	0x3de0f51f	0.10984253
15	0x3d0c1a26	0.034204625
16	0xbdc7a8b0	-0.097489715
17	0xbdcb9b11	-0.09941686
18	0x3d70c62d	0.058782745
19	0x3dbec7c2	0.093154445
20	0x3d5e6e78	0.05430457
21	0x3c18733d	0.009304819
22	0xbcb2145d	-0.021738226
23	0xbc96b78f	-0.018398074
24	0x3ce2fb28	0.027707651
25	0x3e10a998	0.14127195
26	0x3e05ba18	0.1305927
27	0x3dae97b9	0.085250326
28	0x3caf29c8	0.021382228
29	0xbaa93962	-0.0012910778
30	0xbd8b09b3	-0.06788959
31	0x3e17ab45	0.14811428
32	0xbb34ed4e	-0.0027607265
33	0x3e123b42	0.14280418
34	0x3d82a949	0.06379945
35	0x3e336387	0.17518435
36	0x3dd11093	0.102082394
37	0x3dfe9737	0.12431186
38	0xbd95935a	-0.07303496
39	0x3d4bf73b	0.049796324
40	0x3df85946	0.121264026
41	0x3db881f0	0.090091586
42	0x3d2770bc	0.040878996
43	0x3de3bccc	0.111199945
44	0xbdb15bb0	-0.08660066
45	0x3d8ec4c5	0.069711246
46	0x3e27dadd	0.16392083
47	0xbc584ce9	-0.013201931
48	0xbdaaaf0b	-0.08334168
49	0x3ce2588d	0.027630115
50	0xbe07fee6	-0.1328083
51	0x3bbcb911	0.0057593663
52	0x3def7927	0.1169303
53	0x3e0207c3	0.12698273
54	0xbd805e19	-0.06267948
55	0x3dfea8da	0.1243455
56	0x3e5936dc	0.21212333
57	0x3d254a9b	0.040354352
58	0x3d9519a0	0.07280278
59	0x3d8b29d7	0.0679509
60	0xbd54c238	-0.051943034
61	0x3d72ee44	0.05930926
62	0xbe395338	-0.18098152
63	0x3dc07eda	0.09399195
64	0xbdef699a	-0.11690064
65	0xbbcf4b20	-0.0063260943
66	0xbcd72bb2	-0.026265953
67	0xbd335d32	-0.04379005
68	0x3cc04ebc	0.023475043
69	0x3dd6d770	0.1049031
70	0x3e397828	0.18112242
71	0x3e44e472	0.1922777
72	0xbdf02a45	-0.11726812
73	0x3dea5bf8	0.11443323
74	0xbdfcf0cf	-0.12350618
75	0x3d2c744f	0.042103108
76	0xbe4a012c	-0.1972701
77	0xbe169957	-0.14706932
78	0xbdbc15bf	-0.09183835
79	0x3e360b62	0.1777778
80	0xbd247819	-0.040153597
81	0xbd27a85f	-0.040932056
82	0x3e0846e3	0.13308291
83	0x3e361e32	0.17784956
84	0x3b32d86a	0.0027289637
85	0x3e3ea691	0.18618228
86	0xbd9e9787	-0.07743745
87	0x3b60bf38	0.0034293663
88	0x3d51c72e	0.051215343
89	0xbc8415c7	-0.016123665
90	0x3c086094	0.008323807
91	0x3a48773d	0.00076471624
92	0xbcd2c6cd	-0.025729561
93	0x3dbbd970	0.09172332
94	0x3c069402	0.008213999
95	0x3ca58620	0.020205557
96	0x3c982426	0.018571924
97	0xbd90faf0	-0.070791125
98	0xbe467d1b	-0.19383661
99	0x3d8180d0	0.06323397
100	0x3db1828e	0.086674795
101	0xbd2fa8a2	-0.04288543
102	0xbdd1f0d7	-0.10251015
103	0xbdd83fa8	-0.105590165
104	0x3e24d7c8	0.16097939
105	0x3e43b8d9	0.19113483
106	0x3e34436f	0.17603849
107	0x3bed1059	0.007234615
108	0xba4804e1	-0.00076301215
109	0x3e2a7be0	0.16648817
110	0x3d45ad35	0.048260886
111	0xbd1c26bb	-0.038122874
112	0xbddb8751	-0.10719169
113	0x3d9f1118	0.07766932
114	0x3ded361c	0.11582586
115	0xbd8924f5	-0.06696502
116	0xbe0219ef	-0.12705205
117	0xbd805a4d	-0.062672235
118	0xbc5d0fb9	-0.013492518
119	0x3d419944	0.047265306
120	0x3e145a79	0.14487638
121	0xbdd794b4	-0.1052641
122	0x3e0f3bba	0.13987628
123	0xbd4530c3	-0.048142206
124	0xbca71816	-0.020397227
125	0xbd714aa5	-0.058909077
126	0xbdb1ec6a	-0.086876705
127	0x3de2c534	0.1107277
128	0xbb1a32f6	-0.002352891
129	0x3da9d021	0.082916506
130	0x3df045d0	0.11732066
131	0x3a729283	0.00092533993
132	0x3e219958	0.15781152
133	0x3dd2f164	0.10299948
134	0x3d20f8ce	0.03929978
135	0xbdb6e535	-0.089304365
136	0x3ddc266a	0.107495144
137	0xbd08b6ca	-0.033377446
138	0x3daa7f61	0.08325077
139	0x3dca9ae2	0.09892823
140	0xbdbee133	-0.09320297
141	0x3dcf6163	0.10125997
142	0x3cb2dae5	0.021832893
143	0x3de4d0ce	0.11172639
144	0xbe38f19d	-0.18060918
145	0xbe799bf1	-0.24375893
146	0xbe7dd781	-0.2478924
147	0x3d8be2bb	0.06830355
148	0x3d2ac756	0.041694008
149	0xbdab60cb	-0.08368071
150	0x3d429879	0.04750869
151	0x3e42cc3c	0.19023222
152	0x3dd31240	0.10306215
153	0x3c20483c	0.009782847
154	0x3defda0d	0.11711512
155	0x3e0c0d50	0.13676953
156	0x3a627691	0.00086388836
157	0xbde6e923	-0.11274936
158	0x3b848f46	0.0040454
159	0xbb029642	-0.0019925986
160	0xbdeb57dc	-0.11491367
161	0xbd9b7717	-0.07591074
162	0x3c9673fc	0.018365853
163	0xbd50d64b	-0.050985616
164	0x3d66697c	0.05625294
165	0x3d34206b	0.04397623
166	0x3c877683	0.016536003
167	0x3c91f67c	0.017817728
168	0xbda0d130	-0.07852399
169	0xbd82c7ae	-0.06385742
170	0x3e0b9968	0.13632739
171	0xbd714834	-0.05890675
172	0xbe368c68	-0.17826998
173	0xbded78af	-0.11595284
174	0x3e372870	0.1788652
175	0x3d60137e	0.05470609
176	0x3de005d7	0.10938614
177	0x3db061df	0.086124174
178	0xbd63c90f	-0.055611666
179	0xbd35a33a	-0.044345118
180	0xbd38f4ef	-0.045155462
181	0x3c6827c6	0.014169639
182	0x3e4df95c	0.20114654
183	0xbdbfe8a7	-0.09370547
184	0xbca78f21	-0.020453991
185	0xbd7c7997	-0.061639395
186	0x3d73da39	0.059534285
187	0xbdbc625b	-0.09198447
188	0x3db74ff7	0.08950799
189	0x3cddf2df	0.027093349
190	0x3d20790e	0.039177947
191	0x3dd2e0f0	0.1029681
192	0xbd47cfa3	-0.048782002
193	0xbe4c8402	-0.19972232
194	0xbd9e1fc0	-0.077208996
195	0x3e1ef325	0.1552244
196	0xbd11fc1f	-0.035640832
197	0x3d400bf9	0.046886418
198	0xbc12cd78	-0.00896012
199	0x3c7ebcaf	0.015547915
200	0x3e044dff	0.12920378
201	0x3e0f8eb5	0.14019282
202	0x3d7b1e53	0.061308216
203	0x3bfebde5	0.007774102
204	0x3e167f7b	0.14697067
205	0x3e4b39d7	0.19846283
206	0x3e046885	0.12930496
207	0x3c56c6fa	0.013108963
208	0x3d8af84d	0.06785641
209	0xbdf92298	-0.12164801
210	0xbc99ea80	-0.018788576
211	0x3dafe9a9	0.08589489
212	0x3d820c13	0.06349959
213	0x3dfc3f28	0.123167336
214	0x3dc7fa19	0.09764499
215	0xbd680245	-0.05664279
216	0x3df4bc5d	0.1194999
217	0xbd8b592b	-0.06804117
218	0xbd20052d	-0.039067436
219	0x3e155e08	0.14586651
220	0x3e06cefd	0.13164897
221	0x3d9d97ed	0.07694993
222	0x3de3d0c1	0.11123801
223	0x3d6232ab	0.055224102
224	0xbccff539	-0.025385486
225	0x3dd4de7b	0.10393997
226	0x3d8977bc	0.06712291
227	0x3ddda9de	0.10823415
228	0xba91c338	-0.0011120802
229	0xbdb77bc6	-0.08959155
230	0xbcafe372	-0.021470759
231	0xbcd8deff	-0.02647352
232	0x3dfbba2f	0.12291371
233	0x3d25931d	0.0404235
234	0x3d9d675b	0.07685729
235	0xbdccbbac	-0.09996733
236	0x3d025de6	0.03182783
237	0xbca93334	-0.020654298
238	0xbdd97234	-0.10617486
239	0xbd12511a	-0.035721876
240	0xbe5b06e8	-0.21389353
241	0xbd071c20	-0.032985806
242	0xbdb629ff	-0.08894729
243	0x3d27d109	0.040970836
244	0xbdad484e	-0.08461057
245	0xbd2694c5	-0.04066922
246	0xbd076b55	-0.033061344
247	0x3df27d65	0.11840323
248	0x3e233983	0.15939908
249	0x3e44d292	0.19220951
250	0x3e392ce9	0.18083538
251	0xbcd9c3fa	-0.026582707
252	0x3da45cee	0.080255374
253	0xbd1840c3	-0.037171137
254	0xbdf26621	-0.11835886
255	0xbb3c51bc	-0.002873524

conv1d_2.bias f4 [32]
0	0x3de8ed00	0.11373329
1	0xbbba4389	-0.0056843203
2	0xbcb21cfc	-0.021742336
3	0x3d4e481f	0.05036175
4	0x3c460e1f	0.012088328
5	0x3dff2641	0.12458468
6	0xbc4034f9	-0.01173138
7	0xbd4fbcb3	-0.050717067
8	0xbdb6c53d	-0.08924339
9	0x3da8c8bc	0.08241412
10	0xbe40c13e	-0.18823716
11	0xbd9df910	-0.077135205
12	0x3dd60e87	0.104519896
13	0x3dbe6a24	0.092975885
14	0xbd327f90	-0.043578684
15	0x3d6935c2	0.056936033
16	0x3d9887d3	0.074477814
17	0xbbfa52e1	-0.0076392745
18	0xbd81db7c	-0.063406914
19	0xbdd965e8	-0.1061514
20	0x3cc70de7	0.024298621
21	0xbda816a3	-0.082074426
22	0x3d37ce5a	0.044874527
23	0x3da53442	0.08066608
24	0xbdb08993	-0.0861999
25	0xbda1a477	-0.07892697
26	0xbbe04ecc	-0.006845331
27	0xbd753307	-0.059863117
28	0xbd9cda23	-0.07658794
29	0x3e3997f8	0.18124378
30	0xbd12661e	-0.035741918
31	0xbdb88d9a	-0.09011383

conv1d_3.weight f4 [32, 32, 3]
0	0xbdf15bd0	-0.1178509
1	0xbd65b58e	-0.056081347
2	0xbddc754d	-0.10764561
3	0x3db7629d	0.08954356
4	0xbd6c2e8c	-0.057661578
5	0x3d044da7	0.032300618
6	0xbd2c73ad	-0.042102505
7	0x3dc2da63	0.0951431
8	0xbd83ff80	-0.06445217
9	0xbe04388b	-0.12912194
10	0xbdcd0db0	-0.10012376
11	0xbde958ec	-0.113939136
12	0xbd8ab21f	-0.06772255
13	0x3cbeec1f	0.02330595
14	0xbd1071b3	-0.035264682
15	0xbd94ef60	-0.0727222
16	0xbe306cd2	-0.17229012
17	0xbdae74eb	-0.08518394
18	0x3c15c6eb	0.009141664
19	0x3d284145	0.04107787
20	0x3defdd76	0.11712162
21	0xbcc16761	-0.023608865
22	0xb9dc160a	-0.0004197809
23	0xbb07e8b4	-0.0020738067
24	0x3dc977e2	0.09837319
25	0x3da1580a	0.0787812
26	0xbd8d4625	-0.06898145
27	0x3d0954c5	0.03352811
28	0xbd9ce30a	-0.07660492
29	0xbdbb3eb7	-0.09142821
30	0x3cdbf935	0.02685223
31	0xbdac4989	-0.08412463
32	0xbd646293	-0.05575807
33	0x3dc25b82	0.0949011
34	0xbd697e26	-0.05700507
35	0xbd897e96	-0.067135975
36	0x3e35ad35	0.17741854
37	0x3cb05616	0.021525424
38	0x3e07fb66	0.13279495
39	0x3d04586e	0.032310896
40	0xbe1e47e1	-0.15457107
41	0xbd7cb096	-0.061691843
42	0x3cec077b	0.02881216
43	0x3c00b252	0.007855015
44	0xbe211e71	-0.15734269
45	0xbe10c083	-0.14135937
46	0xbdccc083	-0.09997656
47	0xbcc300bf	-0.023804067
48	0x3ce70c58	0.028204128
49	0x3e4d5710	0.20052743
50	0x3d026473	0.031834077
51	0x3d9a42ed	0.07532296
52	0x3d89a548	0.06720978
53	0x3e4e62a1	0.20154811
54	0x3d993f22	0.07482745
55	0x3d1785ef	0.036992963
56	0x3c814e25	0.015784333
57	0x3ca32ba2	0.019918267
58	0xbd540923	-0.051766526
59	0xbd8739af	-0.06602799
60	0x3e394fa1	0.18096782
61	0x3dc3c78c	0.09559545
62	0x3dc4c994	0.096087605
63	0xbd6f1a6a	-0.0583748
64	0xbe227fb8	-0.15869033
65	0xbca768b6	-0.020435672
66	0x3e20e3b1	0.15711857
67	0x3e715efc	0.2357139
68	0x3d98e4d2	0.07465519
69	0xbd6f49c8	-0.058419973
70	0x3dae6752	0.085158005
71	0x3ce49664	0.027903743
72	0xbd8e81a6	-0.06958322
73	0xbe0dfb2b	-0.13865344
74	0xbdef15e2	-0.11674096
75	0xbdaf6649	-0.08564431
76	0x3ba70d27	0.0050980034
77	0x3ce4339e	0.027856644
78	0xbda836c7	-0.08213573
79	0xbde75c35	-0.11296884
80	0x3c2682a7	0.010162986
81	0xbd756c4f	-0.059917744
82	0xbdc71809	-0.09721381
83	0x3d8b3253	0.06796708
84	0xbe07a12f	-0.1324508
85	0xbe06582b	-0.13119571
86	0x3d25e80f	0.04050451
87	0xbe0d7289	-0.13813223
88	0xbdfe15df	-0.12406515
89	0xbd01125b	-0.031511646
90	0x3d1859d0	0.037195027
91	0xbe10fd23	-0.14159064
92	0xbd958f81	-0.07302762
93	0xbd3322ab	-0.043734234
94	0xbde05571	-0.10953797
95	0xbe209843	-0.15683083
96	0xbd24347c	-0.040089116
97	0x3d9f84e0	0.07789016
98	0x3db36abb	0.087605916
99	0x3d8eb3c1	0.06967879
100	0xbd06157f	-0.032735344
101	0x3dc4e14e	0.09613286
102	0x3dd9a9fc	0.10628125
103	0xbd2ded63	-0.042462718
104	0x3cf5a46e	0.029985633
105	0x3deb646c	0.11493763
106	0x3ddaef64	0.106901914
107	0x3d983a32	0.07432975
108	0x3e065a05	0.13120277
109	0x3df68755	0.12037531
110	0xbb83d2db	-0.0040229387
111	0x3d6cfd06	0.05785849
112	0x3d453400	0.048145294
113	0x3d6e40ae	0.058167152
114	0xbd085918	-0.03328809
115	0xbdbdcb7f	-0.092673294
116	0xbd2b1378	-0.041766614
117	0x3d267e69	0.040647898
118	0xbd745fb2	-0.059661575
119	0x3d1e68f0	0.038674295
120	0x3e043151	0.12909438
121	0xbd0d1470	-0.03444332
122	0x3dd62630	0.104565024
123	0x3da9c366	0.082892224
124	0x3e206a0e	0.15665457
125	0xbbd8dcf9	-0.006618139
126	0xbd8e7d81	-0.06957532
127	0xbe109066	-0.14117584
128	0xbdcb848d	-0.099373914
129	0x3d5a4dec	0.05329697
130	0x3dc0cc52	0.09413971
131	0x3cddf82e	0.02709588
132	0xbd7477f0	-0.059684694
133	0x3d3e0cd3	0.04639895
134	0x3cfa4299	0.030549334
135	0x3d6d4a9c	0.05793248
136	0xbcf1f3a0	-0.029535115
137	0x3d46939c	0.048480615
138	0x3db6925b	0.08914634
139	0x3d47b69f	0.048758145
140	0x3c1eeb1b	0.009699608
141	0x3e05327d	0.13007541
142	0xbc8b0ae0	-0.016972959
143	0xbbc58d6c	-0.0060288217
144	0xbd1d9e22	-0.038480885
145	0x3e0d257a	0.13783827
146	0x3c08fa1c	0.008360412
147	0x3d000a65	0.031259913
148	0xbbc643f4	-0.006050581
149	0xbdeaae93	-0.11459079
150	0x3d82a558	0.06379193
151	0xbda463b8	-0.08026832
152	0x3d834904	0.06410411
153	0x3d6889f7	0.0567722
154	0xbdabe1ea	-0.08392699
155	0x3d89d7e9	0.06730635
156	0xbdf7e399	-0.12103958
157	0xbddc58fa	-0.107591584
158	0xbd481f7e	-0.04885816
159	0xbc4da0cc	-0.012550544
160	0xbcd22686	-0.025653135
161	0xbcfe426c	-0.031037532
162	0xbe07d5d0	-0.13265157
163	0x3d4f45e7	0.050603773
164	0x3b85a9c7	0.004079077
165	0xbcb44930	-0.022007555
166	0x3d861d0f	0.06548511
167	0x3ce1ef3e	0.0275799
168	0xbd8cec08	-0.06880957
169	0x3ca4d0c9	0.020119088
170	0x3d198088	0.037476093
171	0xbd9dbb78	-0.077017725
172	0x3dbc5025	0.09194974
173	0x3def14a6	0.1167386
174	0x3d5db9ec	0.054132387
175	0x3dc8a31f	0.09796738
176	0x3b1410bb	0.002259298
177	0xbd4f9cac	-0.050686523
178	0x3d407d33	0.0469944
179	0x3d75f0d6	0.060044132
180	0xbd811a82	-0.06303884
181	0xbcbfb987	-0.023403896
182	0x3dc76d7e	0.09737681
183	0x3df34eb3	0.11880245
184	0x3df9b28c	0.12192258
185	0xbbc9d55d	-0.006159468
186	0xbd9a2ab3	-0.075276755
187	0x3d425470	0.047443807
188	0x3dc58cba	0.09645982
189	0x3d69d7c9	0.057090554
190	0x3dd983f5	0.10620872
191	0x3d63ac89	0.055584464
192	0x3db4c036	0.08825724
193	0xbdc58e55	-0.09646288
194	0xbd817da2	-0.06322791
195	0x3d288f5b	0.04115234
196	0x3e06b5dd	0.13155313
197	0x3d5f8ba6	0.05457654
198	0x3d34d98a	0.044152774
199	0xbd94efd7	-0.07272308
200	0x3dc69470	0.09696281
201	0x3daffce8	0.0859316
202	0x3c84253e	0.01613104
203	0xbc9dfa80	-0.019284487
204	0x3d570580	0.05249548
205	0x3cb206a8	0.02173169
206	0x3d9ecdfe	0.07754134
207	0x3d70d21e	0.058794133
208	0x3ddf045c	0.10889503
209	0xbd7b7112	-0.06138713
210	0xbd33891d	-0.043831933
211	0x3c86bf6e	0.016448703
212	0xbd865ce2	-0.06560685
213	0xbbf08284	-0.0073397774
214	0x3822612a	3.87143e-05
215	0x3e045060	0.12921286
216	0x3d10d157	0.035355892
217	0x3d9da21c	0.076969355
218	0x3dd36287	0.10321527
219	0x3d8b02d9	0.067876525
220	0x3cfe59ef	0.031048743
221	0x3c980cfe	0.018560883
222	0xbda8fd12	-0.08251394
223	0xbd82c27c	-0.06384751
224	0xb8e6fc1e	-0.00011014215
225	0x3d37f2d1	0.044909302
226	0xbcf91a2a	-0.030407984
227	0x3d1ff5f7	0.03905293
228	0xbda56aa2	-0.08076979
229	0x3c426a12	0.011866109
230	0xbd99b2b9	-0.07504792
231	0x3c6da5f9	0.014504903
232	0x3cf0ca70	0.029393405
233	0xbd10d310	-0.035357535
234	0xbb4beebb	-0.0031117636
235	0x3caa79de	0.020810064
236	0x3c600240	0.013672411
237	0xbd1f97ec	-0.038963243
238	0x3d084b48	0.03327492
239	0x3d856534	0.065134436
240	0x3dd7e174	0.10541049
241	0x3cd500a4	0.026001282
242	0x3dde2484	0.108468086
243	0xbdbc6433	-0.09198799
244	0x3d65275f	0.05594575
245	0xbd94241a	-0.07233448
246	0x3dce4392	0.10071482
247	0xbd692c9f	-0.05692732
248	0x3d05faec	0.03271
249	0xbc7fccbe	-0.015612779
250	0x3d3124e5	0.043248076
251	0xbcaa27e9	-0.020770984
252	0xbd53d073	-0.051712465
253	0xbcfb7f26	-0.030700278
254	0xbc5c53f2	-0.0134477485
255	0x3c6eec13	0.014582652

conv1d_3.bias f4 [32]
0	0x3d833d74	0.06408206
1	0x3dff3c25	0.124626435
2	0x3d46a1f8	0.04849431
3	0x3cf13ed3	0.029448902
4	0xbd5c4ec3	-0.05378605
5	0xbde81887	-0.11332803
6	0xbcf3294b	-0.029682776
7	0xbd794f43	-0.060866605
8	0x3d7e3c58	0.062069267
9	0x3de5a7a5	0.11213616
10	0xbd6c1099	-0.057633016
11	0xbd6b3dd7	-0.057432022
12	0x3c382867	0.011240101
13	0x3d711a8e	0.058863215
14	0x39828747	0.00024896322
15	0xbcb39e37	-0.021926029
16	0x3c960ad3	0.018315708
17	0x3c937334	0.017999269
18	0x3ca3a706	0.019977104
19	0xbc57da6a	-0.013174633
20	0xbd322cb9	-0.043499682
21	0xbd09a567	-0.033605006
22	0xbc8a4dc8	-0.016882792
23	0x3d0a6d8b	0.033795875
24	0x3d762871	0.06009716
25	0x3d3c0050	0.045898736
26	0xbcf3ad6b	-0.029745778
27	0xbd759cae	-0.059963875
28	0x3d06662b	0.03281228
29	0xbdd04078	-0.101685464
30	0xbd0ca7f9	-0.03433988
31	0x3c821eb6	0.015883785

fc.weight f4 [3, 32]
0	0x3e426504	0.18983847
1	0x3c408dd2	0.011752563
2	0xbca5d09d	-0.020241076
3	0x3e5f68da	0.21817341
4	0xbe2c5ae3	-0.16831546
5	0xbe6ca41e	-0.2310948
6	0x3e35aa2a	0.17740694
7	0x3dcd8aed	0.100362636
8	0x3e1e1cef	0.15440725
9	0x3e484f63	0.19561534
10	0x3d775faa	0.060393967
11	0x3e1685de	0.14699504
12	0x3e2f6fc1	0.17132474
13	0xbe0dbaeb	-0.13840835
14	0xbdec3811	-0.11534131
15	0xbd6976ba	-0.056997992
16	0xbe11f902	-0.14255145
17	0xbe09096f	-0.13382505
18	0x3dee6037	0.11639445
19	0xbddaa73f	-0.10676431
20	0x3e4a44dc	0.1975283
21	0xbd802951	-0.062578805
22	0x3e22fb57	0.15916191
23	0xbddaf204	-0.10690692
24	0x3dd64bdc	0.10463688
25	0x3decdd65	0.11565665
26	0x3e2448fa	0.16043463
27	0xba577051	-0.00082183356
28	0x3e27de86	0.1639348
29	0xbe222d9d	-0.15837713
30	0x3d2357b1	0.03987855
31	0x3d4d684a	0.050148286
32	0xbe54645c	-0.20741409
33	0x3d06820c	0.032838866
34	0x3e40dd01	0.18834306
35	0xbdbc3564	-0.09189871
36	0x3e236aee	0.15958759
37	0x3e59afaa	0.21258417
38	0xbd0eda82	-0.034876354
39	0xbe93dd77	-0.28879902
40	0x3e3bc11c	0.18335384
41	0x3d35741a	0.044300176
42	0xbd2bfd2b	-0.041989487
43	0xbe94df18	-0.29076457
44	0xbe02df53	-0.12780504
45	0xbe48db89	-0.19614996
46	0xbe10a404	-0.14125067
47	0x3e1a8eca	0.15093532
48	0x3dac382b	0.08409151
49	0x3df4188f	0.11918747
50	0xbce00b59	-0.027349161
51	0xbd5c8f20	-0.053847432
52	0xbd0d7d7e	-0.034543507
53	0x3e31663b	0.17324154
54	0xbe4efda3	-0.20213942
55	0xbe54d75c	-0.20785278
56	0x3d9c994b	0.07646426
57	0xbe313af0	-0.17307639
58	0xbe1a9fa9	-0.15099968
59	0x3e491de8	0.19640315
60	0xbe2d1b2d	-0.16904898
61	0x3e0bad69	0.1364037
62	0xbe92f9fb	-0.28706345
63	0xbde574d8	-0.11203927
64	0x3e95acda	0.29233438
65	0xbe49d8a6	-0.19711551
66	0x3daa8d00	0.08327675
67	0xbdb22cfb	-0.086999856
68	0x3db29d26	0.0872138
69	0x3e0160bb	0.12634556
70	0xbc928796	-0.017886918
71	0x3e2e57c9	0.17025675
72	0xbdb662fd	-0.08905599
73	0x3d3d04f7	0.046147313
74	0x3e9c1c0f	0.30490157
75	0x3e922df3	0.2855068
76	0x3e5eb4d3	0.21748666
77	0x3e25e95b	0.162023
78	0x3e07dd6a	0.13268057
79	0xbda2578f	-0.07926857
80	0x3d90e685	0.07075218
81	0x3da761f7	0.08172982
82	0x3e265cf3	0.16246395
83	0x3e769f14	0.24084121
84	0xbba988a8	-0.0051737614
85	0xbd87524a	-0.06607492
86	0xbdf77ee4	-0.12084749
87	0x3e679fb9	0.22619523
88	0xbdded8f6	-0.10881226
89	0xbdbe4c03	-0.09291842
90	0x3e808c40	0.25107002
91	0x3ca7f3f3	0.020502066
92	0x3dfde2ef	0.123968
93	0xbe1560db	-0.14587729
94	0x3e4fd6a6	0.20296726
95	0x3c3c7be9	0.011504152

fc.bias f4 [3]
0	0x3d2ede22	0.04269231
1	0x3e19a309	0.15003599
2	0x3daec199	0.085330196
