trained_models/CNN_Zscore_CF8_pred_4.pth (torch, 37564 bytes, 10 tensors)

conv2d.weight f4 [16, 1, 4, 40]
000000 34 cf 17 3d e1 9d 3f be 2a 16 95 bd 6c fe 81 3d
       0.03706284 -0.1871257 -0.07279618 0.06347355
000010 dd 16 7b bd f7 96 af be 98 72 74 3d 82 c3 f3 3c
       -0.0613011 -0.34294865 0.059679598 0.029756311
000020 19 65 99 3d a3 b5 03 3e df c8 92 3d 68 aa f1 bd
       0.07489986 0.12862258 0.07167219 -0.118000805
000030 4c 43 0b bc ad 53 31 3d 78 19 18 bd 4a 26 c6 bc
       -0.008499932 0.04329269 -0.037133664 -0.02418818
000040 05 e5 31 bc 7d a1 04 be bd 58 a8 3c e1 8b 8f 3b
       -0.010857825 -0.12952228 0.020550126 0.0043806885
000050 1a 6e 8f 3c 1c 63 3d 3d 69 75 76 3d e7 8c 25 3e
       0.017508555 0.046237096 0.060170565 0.16167031
000060 4a 4a 95 3c ef 86 ff bc d8 16 83 bd 08 71 a7 3d
       0.0182239 -0.031192271 -0.064008415 0.08175856
000070 69 94 48 3d 56 27 91 bd 8d df 42 bd f9 19 07 bd
       0.04896966 -0.07087581 -0.047576476 -0.032983754
000080 69 9d 69 bc 6f da 9a 3c 03 90 41 3d b7 6d 80 bd
       -0.014258721 0.018902985 0.04725648 -0.062709264
000090 4f 4f 3d bd 79 65 ad bd f1 bc 35 3d f1 60 47 3d
       -0.046218213 -0.0846662 0.04436964 0.048676435
0000a0 41 43 10 bd 51 3c dd be 22 b7 36 bc fa 59 c8 3d
       -0.03522039 -0.4321008 -0.011152061 0.09782787
0000b0 f3 af 93 bd 85 c3 20 be a2 ed 8b bd c8 ac 4a 3d
       -0.07211294 -0.15699585 -0.06832434 0.049481183
0000c0 a8 d8 4b 3c ef 20 11 3e e4 b6 96 3d 4c 95 23 be
       0.012441792 0.1417272 0.07359102 -0.15974921
0000d0 ba 06 8d bd 82 08 21 be 4c 58 3b bd 0a 15 29 3d
       -0.068860486 -0.15725902 -0.045738503 0.04127983
0000e0 c6 8b 38 3d f9 7d 02 be 28 69 91 3d 5f 72 07 3d
       0.045055173 -0.12743367 0.07100135 0.033068057
0000f0 93 11 56 3d a4 7a 87 bc 3c d3 81 3d 69 cb 38 3e
       0.052262854 -0.016537972 0.06339118 0.18046345
000100 ba 2b c6 3b 44 05 92 bd aa be 80 bd dc d8 33 3d
       0.006047693 -0.071299106 -0.06286366 0.043907985
000110 dd b5 e6 3c f2 21 34 bd a0 b1 60 3d 71 58 60 3d
       0.028162891 -0.043977685 0.054856896 0.054771844
000120 01 d7 8c bc 86 12 88 3d 5e cc 80 bd 49 ed da 3b
       -0.017192366 0.06644158 -0.0628898 0.0066811186
000130 17 c0 3d 3d 28 c3 a9 bd bf 50 8c 3c d7 ae 33 bd
       0.04632577 -0.08289176 0.017128346 -0.043867912
000140 61 af 05 bd 60 b9 09 bf 57 db 35 bd 14 8f cb bd
       -0.032637957 -0.53798485 -0.044398632 -0.09939399
000150 be 8b 75 3d 5d a4 67 3e 9d 83 fe 3c 4f cc 99 bb
       0.05994772 0.22621293 0.031068617 -0.004693545
000160 2d f2 2b bd 86 4c 1d bd 5a 0d 24 bb 80 3e 9f bd
       -0.041979004 -0.038403057 -0.0025032372 -0.07775593
000170 2a d3 87 3d 19 72 2c be 45 44 75 bb 10 25 a3 bd
       0.06632073 -0.168404 -0.0037424725 -0.079660535
000180 5e be ab 3c 54 8f 2d be f0 0f 8f bd 40 b8 f3 3d
       0.020964798 -0.16949207 -0.06985462 0.11900377
000190 d6 0f 96 bd 20 94 21 3d 8f 8b 2c bd 2a af aa 3d
       -0.07327239 0.039447904 -0.04212528 0.08334191
0001a0 00 ee a3 bc 65 7c de 3d d1 fd 6e bd 63 3c db 3c
       -0.020010948 0.1086357 -0.058347527 0.026762193
0001b0 73 b9 cb 3c f2 d0 eb bc 41 01 06 3d db 4d 96 bc
       0.024868703 -0.028786156 0.03271604 -0.018347671
0001c0 8e 6a 91 bd c6 ef be 3d f7 83 52 3d c1 b9 e2 bc
       -0.07100402 0.09323077 0.051395383 -0.027676465
0001d0 11 96 90 3d 9b 3c 0a be 3b 04 1b 3d a7 05 49 bc
       0.07059873 -0.13499682 0.03784583 -0.012269414
0001e0 55 41 4c 3c f5 44 a5 be 41 f1 f0 3c c9 81 7b bd
       0.012466748 -0.32279173 0.029411914 -0.06140307
0001f0 17 40 9f bd 3e b6 ca 3e 81 b4 5b 3d c1 c0 51 3c
       -0.07775896 0.39592165 0.05363894 0.012802304
000200 c5 de 4a 3c e8 35 33 3d a6 74 1e 3d 02 0f e5 bc
       0.012382214 0.04375258 0.038685463 -0.027961258
000210 dc 26 0e bd af b2 09 be 8c fc ed 3c 73 10 84 3c
       -0.034705028 -0.13447069 0.029051088 0.016121125
000220 30 cb 7d bd ef 84 5b be 9e 8d f5 3c 98 01 95 3d
       -0.061961353 -0.21437429 0.029974755 0.072756946
000230 cd bb 66 bd c7 9f 04 be 10 ae 86 bd 45 6c 26 3e
       -0.056331445 -0.12951575 -0.065761685 0.16252239
000240 8e d8 35 bd 62 ba 85 3d c1 45 79 bd f7 15 7c 3d
       -0.044395976 0.0652969 -0.060857538 0.061544385
000250 1f 5e 30 bd c4 1c 59 bd 6b 7e 34 3d 57 d5 98 3b
       -0.04305851 -0.05300595 0.044065874 0.004664104
000260 b2 99 8b bd 8c 7a 8b 3d bd ea 3c 3d 70 cd 2a bc
       -0.068164244 0.06810483 0.0461223 -0.010424957
000270 a8 bf 70 3d d6 a8 cf 3c 4c eb 0b 3c d7 21 57 bd
       0.058776528 0.025349062 0.008539986 -0.052522507
000280 86 fe 4b bb 44 e4 af bd 60 20 e1 bc c7 23 1d 3e
       -0.003112705 -0.0858846 -0.027481258 0.15345679
000290 f8 3a ef bc 7d 33 02 be 7b ba d6 bd 48 61 e8 3d
       -0.029202923 -0.12714954 -0.10484787 0.1134668
0002a0 fc 08 18 bc 44 80 02 bd 52 aa 2a 3d d0 e1 6d 3d
       -0.009279486 -0.031860605 0.041666336 0.05807668
0002b0 34 92 c6 3c 9d 12 39 bc ff 4e cf bd d0 84 e1 bc
       0.024239637 -0.011295942 -0.10122489 -0.02752915
0002c0 9a db 98 bd 34 f5 fb bc 02 41 32 bc 4a 90 7a 3d
       -0.07463761 -0.03075657 -0.010879757 0.06117276
0002d0 4b 2e 7b bd ca b7 2a 3d 10 7a b6 bd c0 60 a3 3d
       -0.061323445 0.04167918 -0.0891 0.07977438
0002e0 13 3a f2 b9 46 4a b8 bd 0a ed c6 bd 6f 83 9c bd
       -0.00046201106 -0.089985415 -0.0971318 -0.076422565
0002f0 40 5d 08 bd 97 44 94 bd ef 12 a7 bd 3a 6b 96 bc
       -0.033292055 -0.07239645 -0.08157908 -0.018361676
000300 66 bd 5e bb 48 1c f4 3c 9d 9c 23 bd 98 b0 d0 3d
       -0.0033987402 0.029798642 -0.03994428 0.101899326
000310 70 97 b5 bd 1c 93 b5 3d 25 7c 11 bd 53 2b ed ba
       -0.08866775 0.088659495 -0.035518784 -0.0018094577
000320 b6 2b 26 bd 63 47 57 be c0 90 79 bd 51 26 ba 3d
       -0.04056903 -0.21023326 -0.06092906 0.090893395
000330 12 53 e9 bc 82 50 17 3b 45 ef 89 bd a8 90 41 bd
       -0.028481994 0.0023088758 -0.0673509 -0.047257096
000340 51 92 4a bd 8b 6c 1d be bf cc 00 bd 7f 8e 9a 3d
       -0.049455944 -0.15373437 -0.03144526 0.0754671
000350 79 57 90 bd ad fa c4 bc 29 1c 99 3c 95 fc 88 3d
       -0.07047934 -0.024045313 0.018690186 0.06688801
000360 de e4 56 bd 49 0f 21 bb f0 26 28 3c cf aa 1a 3e
       -0.05246436 -0.002457576 0.01026319 0.15104221
000370 d1 a3 ec 3a bd eb bb bd 65 62 d1 bd c6 48 01 3e
       0.0018054192 -0.09175823 -0.102238454 0.12625417
000380 ff 5c 9b 3b ad 15 5c bc 01 3f 09 3d 0c f0 50 3b
       0.0047413106 -0.013432902 0.03350735 0.003188136
000390 7f d1 8d bd 3b 59 90 b9 fb b3 7b bb ae 94 a9 3c
       -0.06924724 -0.00027532302 -0.0038406837 0.020700779
0003a0 b9 a7 cc bc 2e f7 a0 3d d9 3c e9 bb bd 63 20 3d
       -0.02498232 0.07859646 -0.0071178493 0.039157618
0003b0 43 54 95 bd 5a 82 f2 3d 42 08 01 3d 1b 02 19 bd
       -0.07291462 0.11841269 0.031502016 -0.037355524
0003c0 62 0e 66 bd db c3 41 be 7c 25 a6 bb 97 16 45 3e
       -0.05616606 -0.18922369 -0.0050703865 0.19246899
0003d0 61 66 ae bd 30 7f 5c 3d 3c 04 f3 bc e1 23 17 3d
       -0.08515621 0.053832233 -0.029665105 0.03689945
0003e0 38 ad 8d bc 8f 03 4d 3c 39 a9 8f bd 2c 00 9b bc
       -0.017294511 0.0125130555 -0.070146985 -0.01892098
0003f0 f6 44 fd 3c 60 a0 4f bd 27 48 1c 3d 56 88 c0 3d
       0.030916672 -0.050690055 0.038154747 0.09401004

conv2d.bias f4 [16]
000000 df 1b d4 ba a0 54 24 bd ee ad ab 3d 2c f1 68 3d
       -0.0016182623 -0.040119767 0.08382784 0.056870624
000010 fc 59 0a 3e cc 5f 65 3d 19 4f 6c 3d 02 f1 c2 3d
       0.13510889 0.055999562 0.05769262 0.09518625
000020 01 a7 b1 bc cb c5 82 bc 5f a3 a3 bd 8e c7 49 3c
       -0.021686079 -0.015963456 -0.07990145 0.012315644
000030 d0 b4 63 3d 28 d4 97 3d 03 26 b2 3c 60 db 60 3d
       0.055592358 0.074135125 0.021746641 0.054896712

conv1d_1.weight f4 [16, 16, 4]
000000 54 19 5f 3d 8f fb b1 3d 80 42 22 3e 57 da 21 3e
       0.054467514 0.08690559 0.1584568 0.15805946
000010 4d f2 0e 3e 11 e2 b4 3d 52 6c 25 3e eb f7 10 3e
       0.13959618 0.08832181 0.16154602 0.14157073
000020 23 50 bc 3d 63 d9 34 3d 9f 7e e4 3d be 46 fb bc
       0.09194972 0.04415263 0.111569636 -0.030673381
000030 c8 56 2e bd 01 bf ef 3d db ef e6 3d 17 ca ec 3c
       -0.04256323 0.11706353 0.112762176 0.028904958
000040 60 ac f9 3d 3f ac 7d 3d 36 f4 18 3d d6 21 3e 3e
       0.12191081 0.061931845 0.037342273 0.18567595
000050 2f e8 34 3d 5b ba a3 bd c6 f4 95 3d 01 73 19 bd
       0.04416674 -0.07994529 0.073220775 -0.037463192
000060 37 43 c2 bc 2e f2 c6 bb 3f 88 05 3e 43 1e 19 3e
       -0.023713691 -0.0060713505 0.13040255 0.1495295
000070 fd 3c b9 bd 7d e3 70 3c 77 05 bb bc 60 14 c2 3d
       -0.09044836 0.014702675 -0.022829754 0.094765425
000080 b1 fa e2 3d c7 6e 77 3d f4 7a 9b bd c7 18 86 bd
       0.11082972 0.06040838 -0.07591811 -0.06547695
000090 7f 94 2b 3d 23 86 84 3d dc 3f af 3c 82 9c 05 3e
       0.041889664 0.06470897 0.021392755 0.13047984
0000a0 c0 c3 48 bd 03 a1 88 3c 41 27 77 bd ab a8 9c bd
       -0.049014807 0.016678339 -0.06034017 -0.07649358
0000b0 64 3c a2 3d 37 44 35 3c cf 8a f6 3c 52 7b 39 3d
       0.07921675 0.011063627 0.030095486 0.045283623
0000c0 af 8e 85 3d b1 3c 05 be 78 4a 40 3d a0 af 74 3d
       0.06521355 -0.13011433 0.04694602 0.0597378
0000d0 f3 92 bf 3c ce c5 19 3d a3 38 1b 3e 9c 47 68 3d
       0.0233855 0.037542157 0.15158324 0.056708917
0000e0 3a ba 20 be e6 fd 25 be 19 d3 57 bd 2c b1 b6 bd
       -0.1569604 -0.16210136 -0.052691553 -0.089205116
0000f0 8c da 60 3d 4e 70 a5 bd 94 46 a5 3c 06 ac 10 3e
       0.054895923 -0.08078061 0.020175256 0.14128122
000100 bb 4a 2d be a4 88 c7 bb 23 39 10 be f3 86 ad bc
       -0.16923039 -0.006089287 -0.14084296 -0.021182513
000110 99 e3 d4 3c a4 37 36 bc 5b 60 27 bd c5 7b 5b bd
       0.025987433 -0.011121664 -0.040863376 -0.053584833
000120 07 95 fb 3d d1 a6 f4 bc d5 c8 bf bd 2f a1 3a bc
       0.12284284 -0.0298647 -0.093644775 -0.011390968
000130 4d 79 90 bd 00 e0 ab bd 1c e8 e8 3c 3f 7d 26 bd
       -0.07054386 -0.08392334 0.02843099 -0.040646788
000140 7f 24 e9 3d 8d b3 6c 3d a6 7f a1 3b 87 61 95 3d
       0.11383914 0.05778842 0.004928547 0.072939925
000150 95 c2 dd bd 51 62 01 3e f7 b6 d8 3d da bc 86 bd
       -0.10828129 0.12635161 0.10581773 -0.06578989
000160 c0 dc 3a bd d6 67 2e bd 49 80 24 bd e6 62 33 bd
       -0.04562068 -0.042579494 -0.040161405 -0.04379549
000170 7a 97 05 3e 3e e6 8f bd ff c8 1d be 3a 15 14 be
       0.13046065 -0.07026337 -0.15408705 -0.14461222
000180 94 81 fd bd 66 b6 56 bd 7b 1c 1c 3e d6 9c 37 3e
       -0.12378231 -0.052420042 0.1524524 0.17930922
000190 47 71 e0 3c 73 2d 0f 3d 3a 02 af 3d d8 9e 31 bd
       0.027397765 0.034955453 0.085453466 -0.043364376
0001a0 6f 6a fd bc c5 43 93 bd 93 df 7c bd 87 44 03 bd
       -0.03093454 -0.071906604 -0.061736654 -0.032047775
0001b0 c2 29 4c 3d d6 e3 e8 3c 0f 38 3f be c4 5b 89 3d
       0.04984451 0.028428953 -0.18673728 0.06706956
0001c0 18 35 b9 bd 70 dc e9 3c 4e 2a 04 be 0a 1f d2 bd
       -0.0904333 0.028547496 -0.12906763 -0.102598265
0001d0 fe fd 54 3d 7f e5 d2 3d 97 ae 2c 3d a1 05 af 3d
       0.05200004 0.10297679 0.04215869 0.085459955
0001e0 95 f5 1b bd d5 5d c1 bd b9 c2 e6 bc 13 13 19 3e
       -0.038076002 -0.09441725 -0.028169023 0.14948682
0001f0 a0 79 b7 3d 0f 23 1c bd f6 d8 8d 3d d0 02 df 3d
       0.08958745 -0.038119372 0.06926148 0.10889208
000200 46 4f b4 bd 85 37 dd 3b a6 5d 1e 3e 30 8c e1 bc
       -0.08804183 0.006751003 0.15465412 -0.027532667
000210 7c 86 91 be 11 23 83 be 2c 70 64 be d4 a3 5f bd
       -0.28422916 -0.2561269 -0.22308415 -0.054599598
000220 56 8d c8 bd b7 b8 1d be 5b 62 8b bb 80 8f b6 3d
       -0.09792583 -0.15402494 -0.0042536682 0.08914089
000230 dd b6 b2 bd a0 dd 08 bd 5d 02 07 bd 56 b0 d6 bc
       -0.08726285 -0.033414483 -0.03296124 -0.02620713
000240 6f c8 ca bd 05 7e 1f 3b b1 73 f3 3d 0b 3d 85 3d
       -0.09901511 0.0024336588 0.11887301 0.06505784
000250 b2 e5 7b 3e cc c2 27 3e 12 10 13 3e 94 fd 98 3e
       0.2459934 0.16382903 0.14361599 0.29880965
000260 96 3a 97 bc 1b d3 85 3c 6e 7a a4 3e fa de 96 3e
       -0.018460553 0.016336014 0.32124656 0.29466993
000270 97 d5 2f 3e 3f 0f f5 3d 5d 33 73 3e 20 60 a1 3e
       0.17171322 0.119657986 0.23750062 0.3151865
000280 70 c7 be 3d 81 8f ff 3d 7b 64 88 bd 5f bc a5 bc
       0.093153834 0.12478543 -0.0665979 -0.020231424
000290 89 0b 1a be 42 f1 24 be 76 e8 0b 3c 5c 30 f6 bd
       -0.15043463 -0.16107658 0.00853931 -0.120209426
0002a0 a7 2e c3 bc 93 33 75 bc f5 b1 ea bd 38 96 9e bd
       -0.023825957 -0.0149659095 -0.11459724 -0.07743496
0002b0 87 f7 b2 3c bc 91 8a 3d f2 8f f2 3d d1 96 69 bd
       0.021846546 0.06766078 0.11843862 -0.057028595
0002c0 53 ed 05 3e 2d 6c 11 3e d0 57 f1 3d 77 f8 d3 bd
       0.13078813 0.14201422 0.11784327 -0.10350125
0002d0 e5 64 a7 3c 70 50 31 be fd 2b 20 be e3 f6 60 3d
       0.020433852 -0.1731584 -0.1564178 0.05492295
0002e0 9c ea c3 bd 38 1e de 3d 8c 54 b3 bd 57 c0 41 be
       -0.095662326 0.108456075 -0.087563604 -0.18921028
0002f0 aa 1e c5 bd 2d 0a ba bb 8d c2 b8 bd d6 b8 80 bd
       -0.09624989 -0.0056774826 -0.090214826 -0.06285255
000300 37 dc 80 bc d8 45 8b 3d 3d d1 4b 3c 32 56 ec bd
       -0.015730007 0.06800431 0.012440023 -0.11539878
000310 31 2f 09 3e 60 e2 eb 3d d7 e4 14 3e 22 e3 03 3e
       0.13396908 0.11517787 0.1454042 0.12879613
000320 44 62 fb 3d ad 3b 28 bd ac 7c 3c 3e cd d0 8f 3e
       0.12274602 -0.041072536 0.18406934 0.2808899
000330 d6 c4 5d 3e 70 aa a2 3e d3 c5 b3 3e 42 bb 9c 3e
       0.21657118 0.31770658 0.35111865 0.30611616
000340 98 2d 9b 3e 0c 76 ae 3e f5 d9 a6 3e c3 ad d5 3d
       0.30308223 0.34074438 0.32588163 0.10433533
000350 97 67 17 3e 24 17 44 3e 4e 93 91 3d a6 05 68 bd
       0.1478561 0.19149452 0.07108174 -0.05664601
000360 d1 a2 90 3e e7 64 98 3e 6d 2a 85 3e 76 3a 59 3e
       0.2824922 0.29764482 0.2600893 0.21213707
000370 22 a4 c0 bb c3 97 b6 bc c5 4d 23 3c c7 c6 08 3d
       -0.005878941 -0.022289163 0.009967272 0.033392694
000380 d1 f8 e0 3d d0 5b a4 3d 3f 06 13 3c 38 60 11 3d
       0.10984958 0.08025324 0.008973657 0.035492152
000390 3a 39 62 3d e5 d2 70 3e 38 51 08 bc 88 64 02 3c
       0.055230357 0.2351795 -0.008320145 0.007958539
0003a0 05 7a 6d 3b c9 e1 e4 bc 27 bf 00 3c 2a f9 6c bd
       0.003623606 -0.027939694 0.007858074 -0.05785481
0003b0 bc 36 41 3d 4e 0c 3a 3d a1 8b d3 3d 70 70 c1 bd
       0.04717134 0.04542189 0.103293665 -0.09445274
0003c0 40 fd e7 3d 7e aa eb 3c 1d 40 a9 3c 23 6a aa bd
       0.113276005 0.02876782 0.020660454 -0.08321025
0003d0 d6 f4 aa 3b ab 48 2c 3e 7f a6 e9 3d 9a 44 81 3e
       0.005217175 0.16824596 0.1140871 0.2524765
0003e0 40 bf e0 bd ba 92 a5 be 6b 7a 93 be 5d ec 06 be
       -0.10973978 -0.32338506 -0.28804335 -0.13176103
0003f0 c2 e8 79 3e ae 0a 15 3d e0 eb 4d 3e e6 a5 14 3e
       0.24405196 0.036387138 0.2010951 0.1451641

conv1d_1.bias f4 [16]
000000 6c c7 b2 3d 09 2f b5 bd dd 32 8b 38 8f 06 8d 3c
       0.08729443 -0.08846862 6.6375105e-05 0.017215041
000010 5b da b9 3d e6 af 3b 3d ed 0e 86 3d 30 65 e7 3d
       0.09074851 0.045822047 0.065458156 0.11298597
000020 bd f2 20 3e f9 61 d4 ba 65 d3 c5 3c a8 8a 8b bd
       0.15717597 -0.0016203515 0.024148652 -0.06813556
000030 6a 7c 1a 3e eb 1c d9 bb 89 aa 1e 3e 3d 45 a6 bd
       0.15086523 -0.0066257617 0.15494741 -0.08118675

conv1d_2.weight f4 [32, 16, 3]
000000 38 de f4 bc 01 d8 25 be 2f df 88 bb c9 d9 18 bd
       -0.029891118 -0.1619568 -0.004176996 -0.03731707
000010 fe a8 7b bd d6 7c d5 bd 3d 34 0c 3b 4a a5 b4 3d
       -0.06144046 -0.10424201 0.002139344 0.08820589
000020 39 53 93 3c 5f 99 ff bd 06 8a 95 bd a7 3e 2e bc
       0.01798402 -0.12480425 -0.073017165 -0.010635055
000030 3f c9 c6 bd e0 1e 41 bc b7 0c 0b 3d 12 80 a5 bd
       -0.097063534 -0.011787146 0.033947673 -0.08081068
000040 9d c7 2d bc f5 99 29 bd 90 88 95 3d c8 3f 1a 3d
       -0.010606674 -0.04140659 0.07301438 0.037658483
000050 2b 2d 99 bd 5b dd 23 bd c6 86 0f be a2 75 3c be
       -0.07479318 -0.040006023 -0.14016256 -0.18404248
000060 a6 17 23 3c fd 87 06 3e 8b b2 9f bc 7a f4 43 3c
       0.009954369 0.13137813 -0.019494316 0.011960143
000070 be 89 13 3e 61 d0 28 3e 23 2c 80 bd 43 82 97 3d
       0.14408013 0.1648574 -0.062584184 0.07397892
000080 78 04 99 3d c5 7f e0 3d 31 15 d9 bc 88 ba 26 3e
       0.074715555 0.1096187 -0.026499363 0.16282094
000090 bf 3d 22 3d 29 8a a8 3d 3e 51 09 3d 57 dd 42 3e
       0.039609667 0.08229477 0.033524744 0.19029747
0000a0 f9 d0 a2 3d ef e9 17 3e 37 34 ed 3c 2d 6a f3 3d
       0.079500146 0.14835332 0.028955562 0.11885486
0000b0 9f 2e 92 3d 70 08 1f 3e 33 fa d7 3a e4 e7 9e bc
       0.071377985 0.15530562 0.0016477763 -0.019397683
0000c0 cd a6 83 3d ec e9 d1 3d d1 ea 4f 3e fe 20 1e be
       0.06428299 0.10249695 0.20304419 -0.15442273
0000d0 6c a8 89 3d db 3d a0 bd da a5 4f 3d be a0 99 3c
       0.06721577 -0.07824298 0.050695278 0.018753406
0000e0 8e ad 24 bd d4 9b c8 bc e2 90 32 3e fd b6 48 3b
       -0.040204577 -0.024488367 0.17438081 0.0030626648
0000f0 22 92 d4 3d 9a cb 6c 3d fa 8f 22 bd b5 b2 22 bd
       0.10379435 0.057811357 -0.039688088 -0.03972121
000100 74 3a 33 3e c8 08 1e 3e 42 c3 16 3d fa fa 5f bb
       0.17502767 0.15433037 0.036807306 -0.0034176693
000110 a2 ec 38 3e 46 7c 9d 3c ef f4 12 3e 96 39 9a bd
       0.18059018 0.019224297 0.14351247 -0.07530515
000120 62 69 34 bd 5a f3 0d 3d 09 ed 2f 3d 42 35 27 bd
       -0.044045813 0.034655906 0.042950664 -0.040822275
000130 aa 62 dc bc dc 60 20 3d a1 43 91 3b 63 36 30 3e
       -0.026902515 0.039154872 0.004433111 0.17208247
000140 52 d9 4f 3e 1f 28 05 3e 9f 9f 05 3e d5 70 1a 3e
       0.20297745 0.13003586 0.13049172 0.15082105
000150 68 bb 30 bd 22 d2 f2 3c ca ee 5f 3e 18 1a 89 3d
       -0.043147475 0.029641215 0.21868435 0.0669443
000160 e7 e0 ca bb 54 ad 6c bd 96 d9 cb bd 23 d5 a1 3d
       -0.006191361 -0.057782486 -0.099536106 0.07901981
000170 8a 8a 48 3e cb 2e ad bd d3 f4 6f 3c 45 74 d3 3d
       0.19584098 -0.08456191 0.014645773 0.10324911
000180 ab 7a 0c bc 3e 4f 8e 3d 2c 5f 00 3e f0 9d 41 bd
       -0.008574168 0.06948708 0.12536305 -0.04726976
000190 8a e2 36 3d be 2b 41 bd 6b ed 19 be 31 54 20 be
       0.04464964 -0.047160856 -0.15031974 -0.15657116
0001a0 fc 8e 5d be 9e 74 d4 bd f0 d6 02 be 0e 8d 25 bd
       -0.21636575 -0.103738055 -0.12777305 -0.040417723
0001b0 31 bf 1c 3e 9b d9 0b 3e cd 1a 10 3e 56 c8 30 be
       0.15307309 0.13657229 0.14072724 -0.17263922
0001c0 35 23 aa 3c de 96 c9 bd 35 c5 94 3d 8d ae af bd
       0.020768741 -0.09843229 0.07264177 -0.08578215
0001d0 c9 c8 19 3e 81 c7 be 3c 41 9e f5 3d ba da b5 bd
       0.15018 0.02328849 0.11993075 -0.088796094
0001e0 78 38 2d be ad eb 42 be 54 f6 ae be 1c b2 a1 bc
       -0.16916072 -0.19035216 -0.34172308 -0.01973825
0001f0 56 c2 9d bd 17 26 a4 bd 84 d5 1b 3d a3 37 c2 3c
       -0.07703082 -0.080150776 0.03804542 0.02370817
000200 5b 93 ea 3d c2 46 b3 3d 93 87 3e 3d 69 98 8a bd
       0.11453887 0.0875373 0.046516012 -0.06767351
000210 9f 00 ed bd e6 72 a3 3c d8 83 fd 3d 57 3e 47 bd
       -0.11572384 0.019952249 0.12378663 -0.048643436
000220 62 91 19 3e 5c 97 ff 3d ed 86 c7 bd 34 69 2e be
       0.14996865 0.124800414 -0.09742532 -0.1703232
000230 82 8f 4a be ff 77 33 3e f0 86 7b bd 09 7c a6 bd
       -0.19781306 0.17526244 -0.061407983 -0.081291266
000240 fc 53 33 3d 1f ec 87 bd d0 b6 29 3e 0a 98 1a bd
       0.043781266 -0.066368334 0.16573644 -0.037742652
000250 d0 ea 16 3c 5f 76 aa bd df 5f 36 3e 69 d4 4f 3e
       0.009211257 -0.08323359 0.1781001 0.20295872
000260 b6 22 56 3e fd 62 98 3d 19 26 8e bd d5 2d 77 b9
       0.20911679 0.074407555 -0.0694086 -0.0002357283
000270 6d 58 02 bd eb aa 6b 3c b5 ee b6 3c 0d c1 c4 3c
       -0.03182261 0.014384012 0.022330621 0.024017835
000280 e8 04 dc 3d 4f 30 c6 bd 4b 89 df 3d 16 a3 ad 3c
       0.10743123 -0.09677183 0.109148584 0.02119593
000290 31 f0 f8 3d 82 c3 cc bc b6 cb 9d bd ee e9 6e bc
       0.12155188 -0.02499557 -0.077048704 -0.01458214
0002a0 52 a1 91 bb 15 2c 2d 3e 7a 54 51 3e 3c e0 68 3d
       -0.0044442797 0.16911347 0.20442382 0.05685447
0002b0 75 c6 87 bc a1 71 1c be e4 b8 0b 3e 24 db c7 3b
       -0.016574124 -0.15277721 0.13644749 0.0060991216
0002c0 05 e8 d3 bc 12 83 09 3e 2f 35 07 3e ed 7b 56 3e
       -0.025867471 0.13428906 0.13203882 0.20945711
0002d0 35 c4 22 3e bf f9 80 bd 3d 45 64 bd d2 7e f3 bd
       0.1589516 -0.06297635 -0.055730093 -0.118894234
0002e0 9d 00 1d bb 3a c0 56 3d ce c4 5d 3e b6 50 4a 3d
       -0.0023956664 0.052429415 0.21657106 0.04939338
0002f0 8b 01 38 3e a8 a8 75 bd 84 ea 33 bd 57 e6 5b 3d
       0.17969339 -0.059975296 -0.043924823 0.053686466
000300 ed ee 8d 3c 0b e0 fb 3d 6b 73 05 be af ad 04 3e
       0.017325843 0.12298592 -0.1303231 0.1295688
000310 07 76 55 3b cf 1c 12 be e2 3c 4b bc 54 6e 28 3e
       0.003257157 -0.14268802 -0.012404652 0.16448337
000320 52 db 46 3e 74 51 8c bd 92 ab b4 bd 90 53 d6 3d
       0.19419602 -0.068514735 -0.08821787 0.10465157
000330 df 4c 3a bd e7 99 ec 3d 99 e4 82 bb 90 dc 01 be
       -0.045483466 0.11552792 -0.003994536 -0.12681794
000340 85 7d 0c 3d 85 cb 28 be 75 29 0e 3e d2 c7 31 bd
       0.034299392 -0.16483887 0.13883002 -0.043403454
000350 c0 86 95 3d 02 1e 3b 3e c9 a1 d3 3d 7a b1 cb bb
       0.07301092 0.18273166 0.103335924 -0.006216225
000360 ab 71 6a bd 76 69 51 3e 6e bb 48 3e 52 a2 cf bd
       -0.05723731 0.20450386 0.19602749 -0.10138382
000370 1b 5a 55 bd 58 99 81 3b fa 2f 79 bc ab d3 8f bc
       -0.052087884 0.0039550476 -0.015209192 -0.017556986
000380 69 29 f4 bc f8 9b c7 bd 13 35 e6 3d 6d 03 64 3e
       -0.029804902 -0.097465456 0.11240592 0.22266932
000390 6a 77 61 bd 5c ca a3 bd 66 48 45 bd 73 4a d2 3d
       -0.055045523 -0.07997581 -0.048164748 0.10268106
0003a0 3f 24 6c 3d 9e 61 ed 3d 5c f9 2e bc a2 ef a7 3d
       0.057651754 0.115908846 -0.010679569 0.08200003
0003b0 dc ad a8 bd 0c e9 51 bd d8 c9 1f bd 20 a7 ee bd
       -0.08236286 -0.05124764 -0.039010853 -0.1165297
0003c0 ec 91 f9 3b 4d d0 50 3d 3d 57 10 3e cd 9d 3f be
       0.007616272 0.0509799 0.14095779 -0.1871254
0003d0 bf f2 09 3d 25 f4 50 3d 70 39 f9 bd ec 1d 41 bd
       0.033678766 0.051014084 -0.121691585 -0.047147676
0003e0 f5 90 04 3a 2b 4f 09 be 29 7e 44 bd 58 78 05 be
       0.00050570007 -0.13409106 -0.04797188 -0.13034189
0003f0 75 64 41 be a9 79 26 be f8 10 d7 3c 30 de 0e 3e
       -0.18885978 -0.16257347 0.026253209 0.13951945

conv1d_2.bias f4 [32]
000000 43 33 36 3e 98 c6 d6 3c 2f 6d c2 bd d7 07 5c bd
       0.17792992 0.026217744 -0.09493481 -0.053718414
000010 c2 35 a8 3d 94 45 24 bd ce ad 00 ba 02 ec c3 bd
       0.082133785 -0.040105417 -0.00049087114 -0.09566499
000020 66 37 96 bd e4 f3 b0 3c 4b 0c a3 bc 26 37 19 3e
       -0.07334785 0.021600671 -0.019903323 0.14962444
000030 a0 19 b8 3c 65 db a3 3d ff 51 b3 3d 4e 58 07 3e
       0.022473156 0.080008306 0.08755874 0.1321728
000040 66 73 9c 3d 14 12 30 3e fd 53 04 3e 26 ed b8 3d
       0.07639198 0.17194396 0.12922664 0.090296075
000050 6c 0d eb 3d a9 ba 29 3e ea ce 2a 3e 3f 5c 83 bd
       0.114771694 0.16575111 0.16680494 -0.06414079
000060 a4 67 ad bc 96 bd 2b 3d 83 10 9f 3d 68 a6 6d bd
       -0.021167584 0.04192885 0.07766821 -0.058020025
000070 57 4b 1b bd 88 22 a3 3c 16 e9 5d bc 69 5d 25 bc
       -0.037913647 0.019913927 -0.013544342 -0.0100930715

conv1d_3.weight f4 [32, 32, 3]
000000 6f 7e ff 3d f1 fa e6 3d 90 c1 22 3d 4f 3f 1a 3d
       0.12475287 0.11278332 0.039735377 0.037658032
000010 26 16 02 bd 89 e3 9f 3d f7 d3 91 3d 5c e0 b2 3d
       -0.031759404 0.07807071 0.07120507 0.087341994
000020 4b 00 9c 3d c5 36 5b 3d d4 a0 a4 3c 9b bb 96 bd
       0.076172434 0.05351903 0.02009622 -0.07360002
000030 e7 75 c0 bd c5 4c 87 bd 4c 25 80 bd cd b4 e7 3d
       -0.09397488 -0.066064395 -0.06257114 0.11313782
000040 5c 93 b6 3d 03 23 24 3e 3f 1a c0 bd 79 e7 e3 bd
       0.08914825 0.16028981 -0.09380006 -0.11128134
000050 0e 67 42 bd 08 02 1e 3a d8 d0 77 bd ad b1 12 be
       -0.04746156 0.00060275244 -0.060501903 -0.1432559
000060 ad f5 89 be 2c 1f 92 be 79 4a c3 be 54 b0 0e 3e
       -0.26945248 -0.28539407 -0.38142756 0.13934451
000070 7c d4 b4 3c ac 12 fe bc c3 cf 78 3c f8 68 2f bc
       0.022073977 -0.031014763 0.015186253 -0.010706179
000080 c2 ea ad 3d ef b5 c8 bc 69 28 ad 3d 38 c4 1d bd
       0.08492042 -0.024500815 0.08454973 -0.038517207
000090 2c f4 a2 bd d8 47 2c bd 49 e2 15 be b5 d7 75 3d
       -0.07956728 -0.042060703 -0.14637102 0.060020167
0000a0 cc a9 30 3e 84 7f 72 3d e6 4c 87 bd c0 d9 7f bd
       0.17252272 0.05920364 -0.06606464 -0.062463522
0000b0 cb 62 8e bd 0a a5 25 3e ba 94 86 3d c2 6b d8 3c
       -0.06952437 0.16176239 0.06571336 0.02641857
0000c0 5c 44 a3 bd f6 f4 1b bc ae 87 bb bd 93 66 ac bd
       -0.07972023 -0.009518852 -0.09156738 -0.08418002
0000d0 53 ac 5f be 72 e9 90 be 5d b0 7a bd 7c ad d3 3c
       -0.2184308 -0.28303105 -0.06120335 0.02583956
0000e0 c6 0f 3b bd 4f be 8b 3a f4 7f 02 be 33 76 69 be
       -0.04566934 0.0010661575 -0.12744123 -0.22798996
0000f0 21 7b 9d bc d2 38 90 3c ad ac 35 bd 7d c1 86 bd
       -0.019223752 0.017605219 -0.04435413 -0.06579874
000100 c1 16 48 bd 43 58 11 be 6a de a0 3c 96 43 c0 bd
       -0.048849825 -0.14193825 0.019637305 -0.09387891
000110 2f 49 a5 ba 85 dd 91 bc f2 b0 5d bc ef ef 0d bc
       -0.0012610311 -0.017805824 -0.013530957 -0.008663162
000120 37 bb 94 3d c7 a9 12 3e 72 b2 dc 3d 6e e3 5b 3e
       0.07262271 0.14322577 0.10776223 0.21473476
000130 c1 2e c8 3d 0f 34 f9 3d ca 54 dd bd 56 31 75 3c
       0.097745426 0.121681325 -0.10807188 0.014965376
000140 cb e3 df bd ea a2 cb 3d de e5 f5 3d 07 26 1c 3e
       -0.1093212 0.09943183 0.12006734 0.15248881
000150 70 0a 9b 3c 05 a5 c4 3b 48 7d ba bd 34 18 b1 bb
       0.018925875 0.006001117 -0.09105927 -0.0054044966
000160 7e 99 8b bd c7 b7 23 3d 47 c8 7e bd 3b 6e f0 3b
       -0.06816386 0.039970186 -0.062202718 0.0073373592
000170 2f 83 81 bd 71 cb 45 bb 02 9d b3 bd 7d 08 ee 3c
       -0.063238494 -0.0030181075 -0.08770181 0.029056782
000180 45 1b 00 3d 65 ba 6e 3c 7b 73 08 3d b9 bf bc 3d
       0.031276006 0.014570807 0.033313256 0.09216256
000190 4e 35 27 bd 28 17 93 bc cb ca 4c 3d 5d 43 94 bc
       -0.04082232 -0.017955378 0.049998086 -0.018098528
0001a0 2e 10 1d bd 83 4d e4 3a 4a 05 b3 3d fd 72 3f 3d
       -0.03834551 0.001741812 0.08741243 0.04674052
0001b0 47 3b 6f 3d 17 69 86 bd a2 b7 6d 3b 59 81 96 bd
       0.05840614 -0.06563013 0.0036272784 -0.0734889
0001c0 83 ea 65 3d 02 f0 40 bd f4 07 9f 3d aa 3d 83 bd
       0.05613185 -0.04710389 0.07765189 -0.06408246
0001d0 fd 67 06 bc 2e 03 7a bd de b5 be ba 99 a6 e6 bc
       -0.008203504 -0.06103819 -0.001455005 -0.028155612
0001e0 cd 97 80 bd 44 ee cc 3d b7 62 3a bd 03 08 9c 3c
       -0.06278954 0.10006383 -0.045504298 0.019046789
0001f0 d6 ea 49 3d 72 01 0f 3d c4 35 d5 3c 25 b4 cf 3d
       0.049296223 0.034913488 0.026026614 0.10141782
000200 0b f5 0f 3e ec 67 38 3d 94 d3 80 3d 00 d3 e9 3d
       0.1405832 0.045020983 0.06290355 0.11417198
000210 95 af ba 3d 78 59 91 bd 83 fa 62 3d 78 c8 da bd
       0.09115521 -0.07097143 0.055414688 -0.10682768
000220 60 ac 4c bd 2a d7 53 bd 2c 70 1d bd ba b2 cb 3d
       -0.049969077 -0.05171887 -0.038437054 0.09946199
000230 53 0a e6 3d 2b 64 63 bd f2 88 2c 3d 3e d8 93 bd
       0.11232438 -0.05551545 0.04212279 -0.07218979
000240 b0 47 ea 3c 2c 74 f8 bb 57 69 3b 3e 31 5e c4 3d
       0.028598636 -0.007582208 0.18301903 0.09588278
000250 94 6d 8f 3d 6c ab f1 3c 7d 67 e5 3d 65 fa 02 3d
       0.07003322 0.029500686 0.112013794 0.031977076
000260 66 e1 a4 3b 6f e9 99 3d 8a 71 6d bc 3d 62 12 bd
       0.0050317524 0.07515227 -0.014492402 -0.03573822
000270 37 d3 a6 3c 49 96 f7 3d 52 84 9b 3d 2e bc 90 3d
       0.020364387 0.120892115 0.075935975 0.070671424
000280 2f 98 bd 3c 03 9b f0 3d 99 0a c0 bd f9 62 73 3d
       0.023143856 0.11748316 -0.09377021 0.05942056
000290 35 6e fd 3c af 0e b2 bd f2 40 2d bd 17 1d 65 3d
       0.03093634 -0.08694207 -0.042298265 0.055935945
0002a0 6e 80 88 bd e0 d8 10 bd 85 55 f3 bd 75 af 70 bc
       -0.06665121 -0.035363078 -0.11881546 -0.01469027
0002b0 9e 66 29 be e1 b9 fc bd 2e 3a 42 3d 4f e0 2b bd
       -0.16543052 -0.12340141 0.047418766 -0.041961964
0002c0 1e 8b 5e 3d f0 fb 9f bd 2f f3 a8 3b 04 a6 df 38
       0.05433189 -0.07811725 0.005155943 0.000106643914
0002d0 02 10 35 3d d5 f6 da bd d3 44 c2 bd dd 6d 9a bd
       0.04420472 -0.10691611 -0.094857834 -0.07540486
0002e0 a9 c7 42 bb 6f 66 a6 bc cc 72 28 bd 08 77 f6 bc
       -0.0029721058 -0.020312516 -0.041125104 -0.030086055
0002f0 f3 09 00 3d c6 fc 67 3d ef 8e 0c 3d 88 ad 02 3c
       0.03125949 0.056637548 0.034316 0.007975943
000300 21 aa b6 bd 80 b4 c7 bc 5c cc 80 bd 37 6d 7e bd
       -0.08919168 -0.024378061 -0.062889785 -0.062115874
000310 9b f9 f9 3d 14 93 08 3e 27 d4 1f 3e b5 13 95 3b
       0.122058116 0.13337356 0.15608273 0.0045494684
000320 05 e8 00 bc 8e 85 a8 3d 30 97 d6 3c 2f 2e 02 bd
       -0.007867818 0.082285985 0.026195139 -0.031782325
000330 99 fe 3c 3d 6a 4c e8 bc 34 3b 9d ba 53 a0 5c 3d
       0.04614124 -0.02835675 -0.0011995793 0.053863835
000340 a8 bb 56 3d 7b b4 6c b9 b9 69 95 3c 1c 5c a7 bd
       0.052425057 -0.00022573948 0.018238889 -0.08171865
000350 3b 70 df 3d 70 1a 91 bd e5 4f 97 bd 3f 72 ae bd
       0.10910078 -0.07085121 -0.073882855 -0.085178845
000360 98 20 55 3b ea c9 d0 3d 46 49 c2 bc de a0 c2 3d
       0.0032520648 0.10194762 -0.02371658 0.09503339
000370 ac 66 70 bd 57 a5 ab 3d f8 a3 9b 3d 52 07 9f 3d
       -0.058691666 0.083811454 0.07599634 0.07765068
000380 3d 6d 0f 3e 42 93 c6 bd 09 02 ff bc db 4c 0f 3e
       0.14006515 -0.09696056 -0.0311289 0.13994162
000390 66 54 b4 3c 7c 37 5c bd 10 2f 85 3d 70 5a e3 ba
       0.0220129 -0.05376385 0.06503117 -0.0017345678
0003a0 1c ca 6e 3d e1 62 1f 3d 7f 5f a0 3d be e3 9d 3d
       0.058298215 0.038912658 0.078307144 0.07709454
0003b0 c4 1a 6b 3d dc c0 82 3d 11 0f 5d bc 11 6c aa ba
       0.057398573 0.06384441 -0.013492362 -0.0013002177
0003c0 dd 44 d2 3d 30 ba 3b 3e bc 30 96 3c ca 4f 20 bd
       0.10267041 0.18332744 0.018333785 -0.039138593
0003d0 5e a9 38 3d 44 be be bc 55 0c 00 3e e7 60 8d 3d
       0.045083396 -0.023284085 0.12504704 0.06903248
0003e0 a7 aa 1b 3e 1d c1 fc bb c1 6c 16 3c 72 2c ed bb
       0.15201817 -0.0077134506 0.009181202 -0.0072379643
0003f0 17 cf a8 bd 06 7d 54 bd 39 2e 1f bc 81 94 17 3d
       -0.08242624 -0.051877044 -0.00971561 0.03700686

conv1d_3.bias f4 [32]
000000 7f 98 85 3d 3b bb a7 3d a9 a1 a9 3d 9d be 02 3e
       0.06523227 0.08190008 0.08282787 0.12768026
000010 df 29 ce bb 3d e0 c9 3b b0 87 01 bc 36 a8 c1 3d
       -0.0062916125 0.0061607645 -0.007905886 0.09455912
000020 92 34 92 bd d7 b8 13 bc 50 eb 43 bd 96 c7 ca 3d
       -0.07138933 -0.009016237 -0.047831833 0.09901349
000030 5c 4c ee 3c 23 da 21 bd 60 0d 7a bd b5 11 93 bc
       0.029089145 -0.039514672 -0.06104791 -0.01795278
000040 4a 4d a3 bb 41 56 59 bd fc 0e 93 3d 78 2e 8f bd
       -0.004983579 -0.053060774 0.071805924 -0.06991285
000050 a5 04 40 bc 83 ab 8d 3d c2 a6 96 3c 58 6e 3d bd
       -0.011719857 0.06917479 0.018390063 -0.04624781
000060 34 3c 12 bd df d3 b2 bc a8 d7 8c 3d e7 21 12 bd
       -0.035701945 -0.021829544 0.06877071 -0.035676863
000070 7c cb 7a bd af 94 4a bc ee 25 ae bc ba a4 97 3d
       -0.061229214 -0.0123645505 -0.02125832 0.07404466

fc.weight f4 [3, 32]
000000 16 24 a6 bd 75 a3 13 3e 49 63 4d 3d 7f f8 46 3e
       -0.081123516 0.14417823 0.050143514 0.19430731
000010 cf 60 91 3c 79 a4 e4 3d f9 54 17 be eb a5 6e be
       0.017746357 0.11164183 -0.14778508 -0.2330548
000020 e0 64 4d bd 59 9d b7 3d 99 97 17 3e bc a9 60 be
       -0.05014503 0.089655586 0.14803924 -0.21939749
000030 59 d9 a8 3c 49 a8 53 be 2a a2 31 be 3d 03 15 bd
       0.020611452 -0.20669664 -0.17347017 -0.03638004
000040 90 32 fd 3d 25 d6 3e be e2 07 05 bd eb 66 2b be
       0.1236316 -0.18636377 -0.03247822 -0.16738479
000050 d1 89 4e be f6 0e 02 3e 8e 86 45 bd ad 8a 85 bc
       -0.2016976 0.1270102 -0.048224024 -0.016301477
000060 8e f3 3c 3d 52 6a a6 3d 9b 2c 15 3e 55 0c 0d 3e
       0.04613071 0.08125748 0.14567797 0.13774236
000070 46 de 83 3e 76 ac 66 be 82 79 f9 3d 14 90 2c 3d
       0.2575552 -0.22526726 0.12181379 0.04212959
000080 c0 20 63 3e d5 26 51 be 76 9b 3b be 1c 46 84 be
       0.22180462 -0.2042497 -0.18321022 -0.2583474
000090 a9 06 86 be 06 bb 9e be 50 97 b0 3e ca db ff 3d
       -0.26176956 -0.31002063 0.34490442 0.12493093
0000a0 c5 78 4c 3e 5b b7 64 be 86 c9 8b be 71 9d b8 be
       0.19967945 -0.2233557 -0.27302188 -0.36057618
0000b0 46 a9 0d 3e 61 63 aa be f0 0d aa 3d af 9b 15 be
       0.13834104 -0.33278945 0.083034396 -0.1461017
0000c0 04 02 c8 ba 24 4e f6 3d 17 20 ab 3e 9a a1 d5 3d
       -0.001525939 0.12026623 0.3342292 0.10431214
0000d0 35 aa e7 3d c5 68 6f 3e 31 9b 73 3e 98 2c 62 be
       0.11311761 0.2337981 0.2378967 -0.22087324
0000e0 d2 99 8b be 66 12 9c be 90 d4 99 be d9 c4 64 3e
       -0.27265793 -0.30482787 -0.30044985 0.22340716
0000f0 b7 e9 01 bf 48 5e a9 3e c4 99 93 be f5 1f 95 be
       -0.50747246 0.33079743 -0.2882825 -0.29125944
000100 d3 62 06 bd 73 48 be bc 49 16 d8 bd 75 2b 98 bd
       -0.03280909 -0.023227906 -0.105511256 -0.07430164
000110 86 0c 0b 3e 4b 30 8d bc 5e d0 ef 3b 79 ed d5 bd
       0.13578996 -0.017234942 0.0073185405 -0.10445685
000120 fc f3 ba bd d0 9a 79 bc 87 27 dc 3d 7c c5 e9 3d
       -0.091285676 -0.015234664 0.10749727 0.1141462
000130 b0 c2 54 be d3 49 52 3e ea be a8 bd 0f 7e b8 3d
       -0.20777392 0.20535974 -0.08239539 0.09008419
000140 97 04 00 3d f6 c4 18 3d d2 3f 80 be 4a 6c 7e be
       0.031254377 0.03729721 -0.2504869 -0.24845996
000150 e1 60 fa 3d 9a 50 3b bd 0f b5 64 3d 17 15 ad bc
       0.122255094 -0.045731165 0.055836733 -0.02112822
000160 4b 27 4e 3d 76 5b 1b 3e 2b e7 29 3e 35 69 d4 bd
       0.05033044 0.15171608 0.1659209 -0.10371629
000170 3f 2f 08 be e8 32 79 be 66 56 a1 3c 18 1f a5 3d
       -0.13299273 -0.24335825 0.019694518 0.08062571

fc.bias f4 [3]
000000 1b 25 a5 bd 05 51 c5 3d fe ac 16 3d
       -0.08063718 0.09634594 0.036786072
