trained_models/Archive/LSTM/LSTM_Zscore_CF5_pred_4.pth (torch, 661823 bytes, 23 tensors)

lstm.weight_ih_l0 f4 [256, 40]
00000000: 245c af3d 554d a83d eea5 ebbd 5683 f93d
00000010: 4cc8 623c 7d77 a13d c96f 90bb 5cb3 453c
00000020: 02f2 44bd 0134 e53d 8e65 b1bb c504 933d
00000030: d805 e7bd 71ec c7bd 0ef2 c4bd e2ee e03d
00000040: 1d29 d3bd 2b16 13bd 03ec 93bd 6de3 72bd
00000050: 55f4 1dbe ac5b 0e3e f428 d8bc afa5 cc3c
00000060: d697 09be 10a1 35bc 31c4 15be a027 ab3d
00000070: 08f5 c5bd e501 debb 38f5 ebbd 9c4c 823c
00000080: ce28 5dbd 6678 9f3c fa22 1abd 2fc3 78bd
00000090: 9c4e fabd 086e da3b b7ea 3f3d 95b8 333c
000000a0: 0136 313d 654b 99bc 8ab7 40bd 67cb b63d
000000b0: fee6 7abd 411a fa3d b1f2 08be 1713 183a
000000c0: e619 0a3c d338 49bc a048 85bd e232 473e
000000d0: c924 543d 415c 5fbd e15d 553c 7c32 3d3e
000000e0: aa9c b8bd 5ae6 27bd d6ed 473d d464 c33b
000000f0: 9ec2 673c ba72 be3d fbdf 2a3d 97c1 643d
00000100: 00e7 7a3d 5be0 bbbc ba5c 0c3d ff70 f7bd
00000110: 962e 60bd 9af2 a73c fab7 6abd cfb6 513d
00000120: 73ab 283d 36b4 263b f5ed 243d 350a 963d
00000130: 8676 313d 18b0 8e3d 08ca 98bc 6cb8 5c3d
00000140: 00b4 cf3d 32fa 54bd 932b 9bbd 0a8e f23c
00000150: cd4a 0a3e 4f49 77bd 59f3 ec3c f4c4 e7bc
00000160: f59e 7dbd 7d4f 7a3d 87fd b0bc 8532 3bbe
00000170: 2ec0 ea3d 1b82 1cbe b28c ad3d 73d1 83bc
00000180: ca19 f53c 77ca b2bb 73e5 ddbd c769 b7bd
00000190: faec 9ebd fe6e e8bc 85b6 44bd 039a a33d
000001a0: ceb5 ce3d d9e6 de3a 1d66 18bb 0f2a 02bc
000001b0: deb4 d03b c35a a8bd f35c a4bc aec3 23bd
000001c0: 3555 47bc 215a 193e 626a c0bd 9a84 d53d
000001d0: 2bf8 9cbb ae87 49bd 46fd 6a3d e656 c3bd
000001e0: b2a3 ab3d 5c8a e23d fb7f af3d 4609 473c
000001f0: 1ce8 853d 126a 1b3d 5e77 fcbc 62b8 f93d
00000200: 80ff 9cbd afe4 e9bd 93d0 113e dd7f 893d
00000210: 467c 0a3e 8694 d83d d22d d33d ec48 13be
00000220: d1b1 abbd b557 ccbc c703 88bd 8824 06bd
00000230: a98e 033e 1b32 acbc 7877 1c3e ed3a 113d
00000240: e907 aebb bbac d0bc f293 84bd 5886 0fbe
00000250: 9b63 f43d 4824 c1bd c5ef 163e f4f0 21bc
00000260: 18ea 5d3d 0c0b 73bd 0d46 b6bd 84d9 75bd
00000270: dac9 5f3d db71 dd3c 1e9c 8fbd 5f4b d3bd
00000280: ef72 bebc 81bb 02be a013 193e ae29 49bd
00000290: b59c 34bc a607 aa3d d5a5 2ebd 9892 27be
000002a0: 7120 0a3e b066 98bd bb72 b8bd bc2d 97bd
000002b0: 04f3 883d c410 103e a10d a9bd e41e 8e3d
000002c0: 3189 923d efe7 57bd a0e4 013e 5d0f cd39
000002d0: 7293 6a3d 0ac4 723d e95c 23bd 8a39 3abe
000002e0: 1c05 bf3d 8c19 59bd 6a03 a33d 1d3d 34be
000002f0: 9f7c 473d d402 0dbe 0104 123e ba32 e63c
00000300: 3dac eabc 0c5b a5bd 9225 c53d c564 893c
00000310: 66ad 983d 4d78 09be 335b 983d 1e03 ebbc
00000320: 626b 8bbd 9659 43bd dde9 98bd af0a 8f3d
00000330: fe7d 053d 1eb8 c8bd fbfa 81bd 2be0 ec3d
00000340: 10df 843d fabd 96bd 5f43 ac3c b0da 413d
00000350: 00e6 64bd 2077 c6bc e3c4 11bb 36fb 2d3b
00000360: 194a 23bd 47a6 19bd d926 9ebc 155f f73c
00000370: 2f07 f7ba 2b73 e43d fcf4 b73d ffb3 713b
00000380: 8d08 c2bd ea16 4d3d 1de2 df3c 3119 693d
00000390: 838c c6bd 02f8 8e3d 867b 353c 699e 87bc
000003a0: f07b b8bc 1ddc 3e3d 1598 f7bc 484e 4fbd
000003b0: 1675 c03d e866 7abd f188 0d3d 4c13 1d3c
000003c0: 9019 aebd c5c2 e93d 33b3 9e3c 261f 083b
000003d0: 9ae4 ee3a b0d2 023e 1f73 1f3d efd9 9e3d
000003e0: ccbe da3d ac97 7bbc 52a8 0ebe 6921 2f3e
000003f0: f1a3 8e3c 4573 b23d 3a04 7a3d e37c b3bd
0.08562496 0.08217875 -0.11506258 0.121832535 0.0138417 0.07884119 -0.004407857 0.012066688
-0.04808236 0.111915596 -0.0054137176 0.07178644 -0.112804115 -0.097618945 -0.09616481 0.10983063
-0.10310576 -0.035909813 -0.0722275 -0.05929892 -0.15425237 0.13902158 -0.026386715 0.024981348
-0.13436827 -0.011085764 -0.14625622 0.08357167 -0.096658766 -0.006775128 -0.11521381 0.01590567
-0.053993993 0.01946659 -0.037631012 -0.060733017 -0.12222025 0.006665949 0.0468547 0.010969301
0.043264393 -0.018712709 -0.047050036 0.08925515 -0.061255448 0.12212039 -0.1337383 0.00058011845
0.008429026 -0.012281614 -0.06507993 0.19453004 0.051792894 -0.05453134 0.013022871 0.1847629
-0.09014256 -0.040991165 0.048810802 0.0059629474 0.014145521 0.09299226 0.04171751 0.055848684
0.061255455 -0.02293413 0.03426812 -0.12082099 -0.054731928 0.020501424 -0.05730436 0.05119973
0.04117913 0.0025437004 0.040265996 0.073261656 0.043325923 0.06967181 -0.018651024 0.053886816
0.10141754 -0.051996417 -0.075766705 0.029608745 0.13505097 -0.060372647 0.028924631 -0.028292157
-0.06191917 0.061110962 -0.021605266 -0.1828099 0.114624366 -0.15284006 0.08474101 -0.016091084
0.029919524 -0.0054562646 -0.108347796 -0.08955722 -0.077600434 -0.028373238 -0.048025627 0.0798836
0.1009327 0.0017006054 -0.0023254224 -0.007944598 0.0063692173 -0.082204364 -0.020063853 -0.039981537
-0.012166311 0.14975788 -0.09395291 0.10425682 -0.004790326 -0.04920166 0.057370447 -0.09538059
0.08380832 0.11061546 0.08569332 0.012148207 0.06538412 0.037942953 -0.030818637 0.12193371
-0.0766592 -0.11420571 0.14239721 0.06713841 0.13523969 0.105752036 0.10311474 -0.14383286
-0.08383525 -0.024944166 -0.066413455 -0.032749683 0.1284739 -0.021019986 0.15279949 0.035456587
-0.0053110016 -0.02547299 -0.06473531 -0.14016092 0.11933061 -0.09430748 0.14739902 -0.009884108
0.054178327 -0.059336707 -0.0890008 -0.060021892 0.05463586 0.02703183 -0.07012199 -0.1031711
-0.023248164 -0.1276684 0.14948893 -0.049112014 -0.01102369 0.0830224 -0.04263862 -0.16364515
0.13488938 -0.07441461 -0.09006258 -0.0738177 0.066869766 0.14068896 -0.08254553 0.06939486
0.071550734 -0.052711423 0.1268487 0.00039112094 0.05726952 0.05926899 -0.039883528 -0.18186012
0.093271464 -0.05300288 0.079596356 -0.17601438 0.048702832 -0.1377061 0.1425934 0.02810036
-0.028646583 -0.080740064 0.096263066 0.016771683 0.07454948 -0.13424797 0.0743927 -0.02868801
-0.06807591 -0.047692858 -0.07466481 0.069844596 0.03259086 -0.098007426 -0.06346699 0.11566194
0.06487858 -0.07360454 0.021028219 0.047327697 -0.055883408 -0.024226725 -0.0022242598 0.0026547438
-0.039865587 -0.03751209 -0.019305633 0.030196706 -0.0018846745 0.11154779 0.08982274 0.0036880968
-0.09474287 0.05007068 0.027329499 0.05690879 -0.09694769 0.069808975 0.011076814 -0.016555028
-0.022520036 0.046596635 -0.030223886 -0.050611764 0.09397332 -0.061133295 0.034554426 0.00958712
-0.085009694 0.114141025 0.019372558 0.002077052 0.0018226088 0.12775683 0.038928147 0.07756411
0.10680923 -0.015355986 -0.13931397 0.17102589 0.017412158 0.08713392 0.061039187 -0.087640546

lstm.weight_hh_l0 f4 [256, 64]
00000000: 86f3 babd 8651 16be 2b46 d0bd f5bb 89bd
00000010: 47b2 b23d f19a f8bd e7c7 2dbd c703 423d
00000020: 6dd8 e6bd 2415 363e ea8b 323c 0dd3 4dbd
00000030: 1e49 36bd a43d 113d 28e1 883d bac3 03bd
00000040: ae73 50bd ceb5 f13d 0b57 2f3c f8e3 cf3b
00000050: 5350 393d ab8c fc3c 61e0 2bbc 7f62 e23d
00000060: a95e 943d d339 fd3c fdcb 073d 7a6f 4f3d
00000070: b172 c4bd e865 fd3d 5486 ae3d a127 9dbd
00000080: 4ff6 00bd 907d d33d a731 e9bd ee1c e0bd
00000090: 5520 07bd 8421 e5bd ceca 213e 4998 743d
000000a0: c59d 4abd 70f2 3d3d 100b 14bd 7837 9b3d
000000b0: 0a78 a73d 8a83 94bb dacb 9e3c 811f b03c
000000c0: ca6d 33be 3871 93bb c5f5 b83d b510 a7bc
000000d0: b0c0 3b3b ffb9 9ebd 6799 f33d add8 b83d
000000e0: fcb5 ebbc 8fe2 9ebc 32f7 44be e927 f5bc
000000f0: f990 a0bd 5edd 3cbd 0b04 0cbe a0bb 1d3e
00000100: a823 40bc 6c03 613c 9b9f 293d 8293 3b3d
00000110: 6ff6 b3bd 1023 bfbc 5c71 213e abc6 dfbb
00000120: ab84 1f3d 6e3c 333d d04f fbbd 78b6 05be
00000130: fcb9 cf3d b918 143e dad0 903d 640e dcbc
00000140: 989f 5ebd 580d a93d e5c4 78bd f6df 37bd
00000150: d640 253d 4ba1 a13d 9fa7 c7bd 44ba 8abc
00000160: e3e0 6f3d 41ef 003e 67ac 083e 5350 11be
00000170: a752 96bd 3c37 a33d 9022 203e acd8 c4bc
00000180: 9f2c 523d 43df 203e bc00 abbd cdfc be3b
00000190: 442b a2bd 3a18 3fbe ed89 813d 88e4 cf3d
000001a0: 24c8 87bd c8f6 0cbe 9afc a0bd 19ab b8bd
000001b0: 4d99 03be 7305 de3c 71ed 0fbd 274c caba
000001c0: f6e6 953c ed3a 1c3d 5951 a43d 3e39 0d3d
000001d0: 8fce c6bc 2fb5 7bbd a7ff cbbd 93f3 a0bd
000001e0: ac88 5fbc a61a d5bd 355d fdbd 9f59 283e
000001f0: f795 cdbc ffaa 6e3c 01a6 efbb 285e 043e
00000200: c8fd 423d 95ab cabd 0274 b9bd 3d8b f5bc
00000210: df88 ebbd 39dc 193e b999 90bc eaeb 77bd
00000220: 7d6c 443d 4c43 97bc e566 1c3e 2c87 673d
00000230: 9566 68bd d35a 0abe c260 273d ef2b 753d
00000240: e070 033d fad3 77bc 4b4f 84bd 29ad bfbd
00000250: 97c6 cfbd 8ba4 cdbb a91c 963d 3808 eb3d
00000260: 6f65 60bc 55b1 01be 5994 05be 175c 093d
00000270: 0330 a8bd 77ea b3bc 3095 c8bd 0db1 3bbd
00000280: 0550 403d 7fe8 96bd 4322 b7bd 51c3 17bd
00000290: cecd 99bd 3236 c83d 0a5b 253d 6474 87bc
000002a0: 122e 163d 7c60 18bd 4d78 63bd 94df 923d
000002b0: afe3 59bd e200 a43d 8f49 9abd a1b4 94bd
000002c0: c63a c63d 27be dfbd 7b62 2cbd fe15 d7bd
000002d0: 4bd2 45be ee43 043e d8bb a4bd db02 f3bd
000002e0: 23cb d83d e8c0 863d ecce 9d3d 4f55 273d
000002f0: 8856 2d3d 3e14 a1bd 439d 17bb d901 66bc
00000300: 1152 7dbd c4f7 02be 2a8b 883d ab3c e03d
00000310: f86f 89bc 6d5a 003d 135b df3d 822f d83d
00000320: 0601 1abe 95d5 e3bd 316b 7bbd ba28 05bd
00000330: 8558 92bd b791 8abd 7d2f e63c 577f b3bc
00000340: e3af a9bc 6e0a 903c 57b7 eebd efa4 3abe
00000350: 887a d8bd c88c 20bd f40a 97bd 51e4 313c
00000360: 3203 e9bd c552 b2bd 6cd8 0dbe 57fe 69bd
00000370: bb6d 3e3e fbd4 8abc 5b4e 28bd e408 2dbd
00000380: 8632 bb3d cf8c fcbd 23bb 433c d993 3f3d
00000390: 2fda b2bd 4ad0 dd3d 294e c0bd c591 b0bd
000003a0: 337f 03be 5c1b f2bd 04ae 48bd 722f 6bbc
000003b0: f065 d03d eb31 f2bb 352b 12be 35eb 363e
000003c0: f12a 033d 5a5d b1bd 0cf2 d2bd 6a3a febd
000003d0: 0689 d73d ca78 fe3d 65bd 283c ca67 d43d
000003e0: a3b7 143d c1b6 493d fef8 11bd a08f d5bd
000003f0: 0182 8c3d 7d25 8f3a 358f 9c3d c228 123c
-0.0912848 -0.14679536 -0.101696335 -0.06725303 0.0872541 -0.12138928 -0.04242697 0.047366884
-0.11271749 0.17781502 0.010897616 -0.0502501 -0.044503324 0.035459176 0.0668357 -0.03216908
-0.05089157 0.118022546 0.010701905 0.0063443147 0.04524262 0.030828794 -0.010490508 0.11053943
0.072446175 0.030911362 0.033153523 0.05064342 -0.09592188 0.12372953 0.08521715 -0.07673574
-0.0314849 0.103266835 -0.113864236 -0.10943018 -0.03298982 -0.11188033 0.1580002 0.059715543
-0.049466867 0.046373785 -0.036143363 0.07578939 0.081771925 -0.0045322822 0.019384313 0.021499397
-0.1752235 -0.0044995807 0.09031252 -0.020393709 0.0028648786 -0.0775032 0.118944936 0.090257026
-0.0287733 -0.01939514 -0.19234923 -0.029926257 -0.07840151 -0.04610955 -0.13673417 0.15403605
-0.011727251 0.013733726 0.041411977 0.04579497 -0.08787238 -0.023332149 0.157659 -0.006829103
0.03894488 0.043758802 -0.122710824 -0.13057888 0.101428956 0.14462556 0.07071085 -0.02686233
-0.05435142 0.08254498 -0.06073465 -0.04489132 0.040345035 0.07892092 -0.09748768 -0.016934521
0.058564078 0.12591268 0.13347016 -0.14190798 -0.073399834 0.079695195 0.15638185 -0.024029098
0.051312085 0.15710168 -0.083497494 0.005828476 -0.079184085 -0.18661585 0.063251354 0.10151011
-0.06629971 -0.13766015 -0.0786068 -0.09017009 -0.12851448 0.027102208 -0.03513855 -0.0015434072
0.018298607 0.038142134 0.08023328 0.03447842 -0.024268417 -0.061452087 -0.09960871 -0.07858958
-0.013643425 -0.104054734 -0.123712935 0.16440438 -0.025095923 0.014567136 -0.0073134904 0.12926543
0.047605306 -0.09896008 -0.0905533 -0.02997362 -0.115007155 0.15025415 -0.017651426 -0.06052772
0.047955025 -0.018464707 0.15273626 0.056525394 -0.056738455 -0.13511209 0.04086376 0.05985635
0.032090068 -0.015126223 -0.064604364 -0.093591996 -0.101453 -0.0062757186 0.07329685 0.11476177
-0.013696059 -0.12665303 -0.13044871 0.03353509 -0.082122825 -0.021962387 -0.0979408 -0.045823146
0.046951313 -0.07368564 -0.08942082 -0.037051503 -0.07509957 0.09775962 0.040370025 -0.016534992
0.03666503 -0.03720139 -0.05553465 0.071715504 -0.05319565 0.08007981 -0.075335614 -0.07261015
0.09679179 -0.109249406 -0.042086106 -0.105022416 -0.19318502 0.12916538 -0.08043641 -0.11865779
0.1058562 0.06579763 0.07705483 0.04085284 0.04231885 -0.07865189 -0.0023134507 -0.014038526
-0.061845843 -0.12789828 0.066671684 0.109490715 -0.016777024 0.031336237 0.10906043 0.105559364
-0.15039453 -0.11124722 -0.061381523 -0.032509543 -0.0714579 -0.06766074 0.028098816 -0.021911306
-0.020713752 0.017583098 -0.11656063 -0.1822698 -0.10570246 -0.03919676 -0.07375136 0.0108576575
-0.113775626 -0.08707193 -0.1385209 -0.057127323 0.18596546 -0.01694726 -0.04109035 -0.042244807
0.09140496 -0.123315446 0.011946472 0.046771858 -0.087330215 0.108307436 -0.09389908 -0.08621553
-0.12841491 -0.11821625 -0.04899408 -0.014354574 0.10175693 -0.0073912046 -0.14274295 0.17863162
0.032023374 -0.086603835 -0.10300073 -0.12413485 0.10524182 0.124253824 0.010299061 0.10371359
0.036307942 0.049246553 -0.035637848 -0.10427785 0.06860734 0.0010921207 0.07644502 0.00892085

lstm.bias_ih_l0 f4 [256]
00000000: 2b41 9ebd 4617 abbc 9861 173e 4ef4 983d
00000010: 0d51 e0bd a4c9 5abd 977c c5bd d5ab ddbc
00000020: 8a5e e2bd d336 33bc baf7 ac3d bae2 763d
00000030: 0108 5a3b 5fd5 8bba 8295 bfbd a56a 233e
00000040: 3252 f43d f4ab a2ba 5afb 96bd c25a 3ebd
00000050: 1f7c 01bd 209f e7bd 2ca1 cfbd b6ca 813c
00000060: 39a1 453d 5e61 393d 0b0e d73d d833 ef3c
00000070: 79e7 85bd b097 78bd d602 75bd 4686 e13d
00000080: 06ef c33c 98fd 533c 9c00 403d 5613 febb
00000090: f8af e23b 25d6 983d 568d 1e3d 310b a2bd
000000a0: 4320 88bd cebd 183e 3e5c 8dbd 1c49 b7bc
000000b0: 9e94 babd 6641 583d 8b82 3abd c074 fb3d
000000c0: b01c 093e 8d46 123d 5ef2 1fbd b3ca 1ebb
000000d0: 6f8b f73b aa2e 323d a989 b9bd fb1d c23d
000000e0: 3fd6 03bd 9af1 84bd f4ad 1b3d 119f f8bd
000000f0: 95ae 063e 3f55 f7b8 ad0d ef3d b9f7 c73d
00000100: 86de 10bd c025 28bd c00b d03d 8b26 7fbd
00000110: 80c0 093d c2bd 4ebd 9c28 82bc bcce 09bd
00000120: b266 3abd 841a 033e dd53 c43d 016a 99bd
00000130: cf92 e1bd 9d24 efbc e9b2 993d 82f3 d43d
00000140: ae32 bd3d 2bef 0c3d 9f9f b53c d4a9 4dbd
00000150: 222e 8c3d 4004 003b 7216 b23d 5f12 363e
00000160: 6638 dfbb 5227 c33d 8c76 ce3d 3f0f 8d3d
00000170: b254 9a3d be42 dabb 38b9 7dbd b1bc 013e
00000180: be77 033e 31dc 6b3d d2c5 0a3e 41d7 20bd
00000190: 3ac5 95bd be52 91bc 17f8 29bc 53af 183e
000001a0: 4aa3 283e b40f d43d 9796 1b3c 00ab 343d
000001b0: eb85 bfbd 3024 843b 3308 67bd fb74 4bbb
000001c0: 4a16 813d 2c67 9fbd 8421 1e3e f7ee df3d
000001d0: 8b77 9fbc af85 093e 148b b93d 40ad 82bb
000001e0: ea55 cc3d a09d 4ebd fa38 ca3c 014d 05bd
000001f0: cb2b d93d 53e2 67bd 81d1 043d ee26 cabc
00000200: 13bf 6c3c 06e5 973a f772 51bd d895 043e
00000210: 139b f7bd 8f8f db3d 12b3 fa3c 07b6 513d
00000220: 4bc7 6d3d e817 7b3d eee7 c2ba 7b46 f5bd
00000230: fbe6 e93d f434 793d 186f fcbb dac0 36bd
00000240: ff4c a1bd 3dd5 4e3d 3597 03bd 965d 3b3b
00000250: 7e7b efbc 6546 92bd 3e05 a73d cbee 563d
00000260: b46b 02be 9f8f 00bd 283f 4fbd bd4b 0fbe
00000270: 3442 d53d 106f be3d 465a af3d 66e7 b7bd
00000280: c095 dbbd 9e4e 10be 1642 cc3d ddcd dfbb
00000290: e70e 523b 53c4 103e e6a1 5dbc 8b60 3c3d
000002a0: d758 aebd 6f8f e83d d0b5 28bd 73b3 91bd
000002b0: 358f a83c 5ff1 1b3d f45d 23bd 9f1b 813d
000002c0: 9987 a3bc 1194 133e 345b 9bbd f3a4 edbd
000002d0: 4d66 9dbb d33d 0d3c 03ce 193d 2a2d eb3d
000002e0: 7baa bbbc 59d3 c63d 2e27 043d 2b6b 6e3d
000002f0: f6bc e83d b56f 70bd 007d 4b3c fac2 2a3c
00000300: ed11 c63d d89b ab3d 4033 9b3d 9d2b d0bd
00000310: 09a4 f23c 2a4a 023e 0efb 523d 2fa6 dc3d
00000320: f947 8e3d 0d32 233e 2de0 b8ba 3df8 56bd
00000330: b338 2abd 18ce 0fbd 43d3 05bd 0969 c4bc
00000340: 3a4d e93c 2e2e 273b 9eef f63d a217 c4bc
00000350: 05ee e03d 623c 9dbd 25fe a3bd ec61 d23d
00000360: 48db 573d 7a1b d7bc 8684 253d eb91 28bd
00000370: 44a1 023e a645 f6bb 3688 e63d bb7c 8a3d
00000380: 550a d6bb c51b 073e e26a ccbb b210 133e
00000390: 15b0 0d3e d1dc 1c3e 0389 49bd 1963 86bd
000003a0: 2116 a4bb bdb4 b13d ee4e 063e 5fdd 79bc
000003b0: 4d89 2b3d 304c 95bc 576b 133e 5dad 35bd
000003c0: f5ff 073e 982e 5ebd 01d1 383e 852b 0a3c
000003d0: 8300 fe3d 3a98 0ebd 8862 d9bc 5552 a33d
000003e0: 6db2 5ebd feed 43bd 0d7a 13bc cda9 cebd
000003f0: 9a90 123e a43a 903d 6e02 f33d dc9b 253e
-0.077272736 -0.020885121 0.14783323 0.074684724 -0.10952959 -0.053414956 -0.09642904 -0.027059475
-0.11053188 -0.010938364 0.084456876 0.060274817 0.003326893 -0.0010668448 -0.09354688 0.1595865
0.1192974 -0.0012410865 -0.0737216 -0.046473272 -0.03161251 -0.113096476 -0.10138163 0.01584373
0.048249457 0.045258872 0.10500725 0.029199526 -0.065382905 -0.060691535 -0.059817158 0.11011939
0.023917686 0.012938879 0.04687558 -0.00775377 0.0069179498 0.0746272 0.038709007 -0.07912291
-0.066467784 0.14916155 -0.069023594 -0.022373728 -0.09110378 0.052796744 -0.04553465 0.12278128
0.1338985 0.035711814 -0.0390495 -0.0024229705 0.0075544636 0.043501534 -0.0905946 0.094783746
-0.032186743 -0.06491394 0.03800769 -0.121397145 0.13152535 -0.00011793756 0.1167253 0.09764046
-0.035368465 -0.041051626 0.10158491 -0.062292617 0.033630848 -0.050473936 -0.015888505 -0.033644423
-0.045508094 0.12803084 0.09586308 -0.07490922 -0.1101433 -0.029192263 0.075048275 0.10398008
0.09238182 0.034407776 0.02217084 -0.05021079 0.06844737 0.0019533783 0.08695687 0.17780446
-0.006812143 0.09528984 0.10081205 0.068876736 0.075356856 -0.0066607883 -0.061944216 0.12669636
0.12838647 0.057583038 0.13552025 -0.039267782 -0.073130086 -0.01773965 -0.010374091 0.14910631
0.1646854 0.10354558 0.009496353 0.04410839 -0.09351715 0.004032634 -0.056404304 -0.0031045068
0.063030794 -0.0778335 0.15442473 0.10934251 -0.019466182 0.13429902 0.0905973 -0.003987938
0.09977324 -0.05044329 0.024685372 -0.03254414 0.10604056 -0.056612324 0.03242636 -0.024676766
0.0144498525 0.001158864 -0.05113503 0.12947786 -0.12090125 0.10720741 0.030602966 0.051198985
0.05805139 0.061302096 -0.0014870146 -0.11976334 0.11421009 0.060841516 -0.007703673 -0.04461751
-0.07876014 0.05049633 -0.032126624 0.0028589717 -0.02923369 -0.07142333 0.08155297 0.052473824
-0.12736398 -0.031386968 -0.05059734 -0.13993736 0.10413018 0.09298527 0.0856214 -0.089796826
-0.10721922 -0.1409249 0.099735424 -0.0068299607 0.003205234 0.14137392 -0.013527369 0.045990508
-0.085130386 0.11355483 -0.041189015 -0.07114305 0.020576099 0.038071986 -0.039884523 0.063040964
-0.019962119 0.14411952 -0.07585755 -0.11603727 -0.004803455 0.008620697 0.037549984 0.11483224
-0.02290844 0.0970828 0.032263927 0.058207672 0.113641664 -0.058700282 0.012419939 0.010422463
0.09671388 0.08379334 0.075781345 -0.101645686 0.029619234 0.12723604 0.051508956 0.107738845
0.069473214 0.15937062 -0.0014104896 -0.052482832 -0.04155798 -0.035108656 -0.032672178 -0.023975866
0.028479207 0.0025509703 0.12057422 -0.02393705 0.109828986 -0.07677533 -0.080074586 0.10272583
0.052699357 -0.026258219 0.040409587 -0.041154783 0.1275683 -0.007515627 0.11256449 0.06762072
-0.0065319934 0.13194187 -0.0062383274 0.14361838 0.13836701 0.1531861 -0.04920293 -0.0656187
-0.005007521 0.08677051 0.13116047 -0.015250533 0.041878987 -0.018224806 0.14396416 -0.044354785
0.13281234 -0.054243654 0.18048479 0.008433227 0.12402441 -0.034813143 -0.026536241 0.07974688
-0.05436938 -0.04783439 -0.009001267 -0.10090981 0.14312974 0.07042435 0.11865698 0.16172737

lstm.bias_hh_l0 f4 [256]
00000000: 47b4 b3bd 0cd5 0e3e c70c adbd b0e9 6f3c
00000010: 783e 983d 061c 75bd d0d9 0c3b d075 f63d
00000020: b9f5 843b 2bfe 2e3d a100 413c 1a32 d13d
00000030: a8ba a73d d2c0 1ebd 774e d23c f08a 03bd
00000040: 1777 0c3e 2fd0 83bc 41cf 063e 58d5 fa3c
00000050: 469f b3bd 6226 0dbe 418a abbd c0f8 083e
00000060: 2d0a e83c a321 973d 3f63 d93d 3ece 03bd
00000070: c349 db3d 89fc 623c d190 463d c51b 433d
00000080: c008 063d 8308 fcba da29 823d f698 bc3d
00000090: 145e a63d 2334 de3d 06ac 4dbb 98ba 0b3d
000000a0: 33a2 7b3c cdb8 08bc 512a 87bd 6fad e23d
000000b0: f27e 1a3e 2434 bfbc 92fb fc3c 743e 0e3e
000000c0: f83f e73d 8be8 203d df9c 103e deda aa3c
000000d0: b59c 0abd 7310 0e3e 6e46 653c d141 5fbd
000000e0: b8c9 19bc 43e5 cb3d 9c06 083e dd73 843d
000000f0: 3d9c 233d d391 19bc 707c a4bc 6a5c a13c
00000100: 27dd ed3a 8a87 093d 9594 103e 5444 cd3b
00000110: d775 9ebd 803f c43d d23f 813d 13a3 023e
00000120: 36d2 34bd 40fb cbbc dff9 103d 1591 963d
00000130: deea a53d c38b c03d 8646 dd3d 7d13 593c
00000140: cd63 743d c267 f73a 710f 813c d016 593d
00000150: 953f c43c 9a62 423d 840a 00bd b618 963d
00000160: 4e5e 19bd 4e0e cd3d 256a 9a3d 2e70 20bd
00000170: bbd5 223e 534d 2ebb 2106 c13d a9e0 e5bc
00000180: aeb8 a5bd 0bdf 1abd 8122 8ebd d974 b13d
00000190: 1c9d d63d 53a7 95bd 42de 1c3e a98b da3c
000001a0: 4e51 c6bc 2e0b 69bd d4d5 e43c 4aa6 3b3d
000001b0: 4aa5 8a3c d217 773c 7de0 233e 0fbb 0dbd
000001c0: a234 063e 62a3 d4bb c1c4 c93d fdfd abbd
000001d0: 4e78 fd3d 1b1f 623d b3a0 a6bc acee 51bd
000001e0: 2c99 023e ce34 e03d 869d 113e e889 8abd
000001f0: 8bec 28bb 8fd5 06bd 5e47 d83d 6497 1b3e
00000200: 1224 b23b 9465 cebd a957 c4bc 20cd 013e
00000210: 7f8d f9bd c0a4 3c3d ce4c df3d 3539 863c
00000220: 82f7 f1bd 4f65 9abb 54c9 d9bb 20fa 50bd
00000230: 056c a73d afcc 883d 5b1b c6bc f6fd 1a3e
00000240: 3c2a f5bd 3da5 543d b635 ba3d 56cc 0ebe
00000250: af7a d9bd 73ed eabd 23be a0bd c30a 013e
00000260: dc07 513d 5f22 083e 56f9 3d3c 625f 20bd
00000270: 0ca6 f23d 4321 9cbc 8a36 c93d dd47 32bd
00000280: 9644 2ebd aa53 b43d bb97 6e3d e672 3b3d
00000290: a3d9 70bd 4a37 20bd 620f db3d a407 643d
000002a0: a5c4 333c 01ee b1bd cf23 d9bd e921 d93c
000002b0: 84fd a63d 6809 3d3d 4d3d 183b ba30 133d
000002c0: c143 c83c d200 48bd 7277 c6bd 558b 673b
000002d0: a560 263d 895f ccbd 8f35 c2bd 00f7 8dbc
000002e0: 6b35 8c3d d5ee a03a 6e51 053d fd7f 05be
000002f0: 361e b63c f6f1 f2bd 763c d13d bb8c dbbd
00000300: d967 0bbd 876b ef3c 5e12 aabc 73fa 0f3e
00000310: 631f 683d ae7c 333e 3263 95bd 392c 9dbd
00000320: 0d1c db3d 22b2 4abd a3b0 26bc 1ed2 7cbc
00000330: 4b77 8dbd 4bf7 2f3d 0d39 f83d 6635 d73d
00000340: e99c 2dbd f6d5 8f3d a03c f3bc 424f 13bd
00000350: 06ae 96bc e43a 26bc a8d1 b0bc 6484 df3d
00000360: 746e a03d 7653 853d bffb 6ebd 677b 013e
00000370: ee6f d53d 31e9 ad3d 020b f83c 28fc c93d
00000380: 4ee8 023d 2130 16bd 0e92 97bd 506f 663d
00000390: 52d9 a8bd a0b6 fe3d 8010 bb3d 1fd2 c73d
000003a0: a52a 72bd e0af 713d 32b6 b43c 7dde 56bd
000003b0: 82f8 273d bd0a cc3c b0d6 bc3d 96a1 cd3c
000003c0: 7b64 59bd 3ab1 0cbd 387a 793d 52cc 9a3d
000003d0: 2481 63bd e84e 33bd e696 b33c 80bc 6dbd
000003e0: 18a4 1e3e 58a9 81bd d8c1 d13d 349a 7ebd
000003f0: 3aeb 473d e27d 92bd d913 8f3d fd7b 983d
-0.087746195 0.13948458 -0.08449703 0.014643118 0.0743379 -0.05984118 0.002149213 0.1203419
0.0040576127 0.042722862 0.011779935 0.10214634 0.08189899 -0.038758107 0.02567218 -0.032114923
0.13717304 -0.01609048 0.13164999 0.030619308 -0.08770613 -0.13784173 -0.08375979 0.1337614
0.028325165 0.073794626 0.10614633 -0.03217911 0.10707428 0.013854154 0.04847795 0.047633905
0.03272319 -0.0019228611 0.06355639 0.092088625 0.08123413 0.10849788 -0.0031383052 0.034113497
0.0153584955 -0.008344841 -0.06599868 0.11068236 0.15087488 -0.023340292 0.030881677 0.13891011
0.11291498 0.03928427 0.14122342 0.020856317 -0.033840854 0.13873462 0.0139938425 -0.054506127
-0.009386472 0.099558376 0.13283771 0.06467412 0.039943922 -0.009373146 -0.020078868 0.019697387
0.0018147574 0.033576526 0.1411918 0.006264249 -0.0773732 0.09582424 0.06311001 0.1275752
-0.044145785 -0.024900079 0.035394546 0.07351891 0.08101438 0.094016574 0.10804467 0.013249275
0.05966549 0.0018875527 0.015754433 0.05300027 0.0239561 0.047457315 -0.03126003 0.07328932
-0.03744345 0.10012494 0.07539777 -0.039169483 0.15901844 -0.0026596382 0.09424997 -0.028061228
-0.080918655 -0.037810367 -0.06940175 0.08664865 0.10479185 -0.07307305 0.1531916 0.026677923
-0.024208691 -0.056895427 0.027933992 0.045812882 0.01692452 0.015081363 0.16003604 -0.03460222
0.13106015 -0.0064892033 0.09851981 -0.08398054 0.12376462 0.055205446 -0.0203403 -0.051253006
0.12753743 0.10947572 0.14220247 -0.06764585 -0.0025775756 -0.03291851 0.10560487 0.1519447
0.005436429 -0.10077968 -0.02396758 0.12675905 -0.12185191 0.046055555 0.10903321 0.0163847
-0.118147865 -0.004711784 -0.0066463146 -0.051019788 0.081749 0.06679665 -0.024182966 0.15135941
-0.11970946 0.051915396 0.09092276 -0.13945135 -0.10619103 -0.11471071 -0.07848766 0.12601762
0.051032886 0.13294362 0.011595091 -0.039153464 0.11848077 -0.01905883 0.098248556 -0.043525565
-0.042545877 0.0880502 0.05825017 0.045763873 -0.058801305 -0.039115228 0.106962934 0.05567135
0.010972177 -0.08687974 -0.10602533 0.026505427 0.08153823 0.04615155 0.0023229897 0.03593514
0.02444637 -0.048828907 -0.09690751 0.003533085 0.04061951 -0.099791594 -0.09482872 -0.017329693
0.06846126 0.0012278209 0.03254836 -0.13037105 0.022231203 -0.11862557 0.1021661 -0.107202016
-0.034034584 0.029226078 -0.020760711 0.14060383 0.056670558 0.1752803 -0.07294311 -0.076744504
0.1069871 -0.049486287 -0.010173949 -0.015430955 -0.06907519 0.042960446 0.121202566 0.10508232
-0.04238597 0.07023232 -0.029691994 -0.035964258 -0.018393528 -0.010145877 -0.021584347 0.109139234
0.07833567 0.065100595 -0.058345553 0.1264473 0.104217395 0.08491743 0.030278686 0.09862548
0.031959824 -0.036666993 -0.074009046 0.0562585 -0.082445756 0.12437177 0.091340065 0.09756874
-0.0591227 0.059005618 0.022059534 -0.052458275 0.04100848 0.024907464 0.09220636 0.025101464
-0.05307434 -0.034348704 0.060907573 0.07558502 -0.05554308 -0.043776423 0.02192254 -0.058041096
0.15492284 -0.06331128 0.10242051 -0.06215878 0.048808314 -0.071529165 0.069862075 0.07445524

lstm.weight_ih_l0_reverse f4 [256, 40]
00000000: fcdd 81bd 4e21 033e e075 8839 4c4b 0ebe
00000010: 8a6a 7ebd 4eba 0f3c af01 6a3d a70b 3d3d
00000020: d1a7 be3d 2929 b93c 794b b5bd d9be 0a3e
00000030: a128 bb3d c6c4 ccbc 8525 73ba aa81 623e
00000040: 14b9 3c3d 6d97 33bd d021 113d e0f6 b1bd
00000050: aa54 c4bb 79a7 f13d a984 9b3d 0965 c4bd
00000060: da4a 4f3c 9abb 633c 8544 8f3c 8687 3e3c
00000070: 41d1 87bd ef53 423d d271 fabd 5211 91bd
00000080: 1104 b53b d6f3 62bd 2fc4 0abe dbe2 fc3b
00000090: e031 b8bb 2635 6e3c eb71 e0bc 93e5 943d
000000a0: 33b5 26bc 340d b9bd 7402 0abe 11c4 923c
000000b0: bc9c c03d b83c 17be 6783 01be 0762 10bd
000000c0: 6f87 1dbd 32a2 543d 1760 1fbd e61c 7f3c
000000d0: 1cf1 45bd beb0 e0bd 172b a13c 7877 6dbd
000000e0: 12fe fbbd 887b 2cbd c408 a23d 5079 a0bc
000000f0: 8d32 31bd 76ca a93d ba06 de3b 8c37 21bd
00000100: d7c4 8cbd cc9c a43d 0516 3b3d 57f4 a9bc
00000110: fe2c 773d 26e9 cc3d ad30 fbbd b70c b33d
00000120: 2bbe 0f3c 147c ca3c cf23 0dbe d82c 2fbd
00000130: 056d 3a3d c0f8 afbd 78c8 91ba 46fd df3d
00000140: 5453 14be 7354 3abc fe93 543d 691e 8ebd
00000150: dc28 a43c da66 9a3a 6bc4 973d 691f 9f3d
00000160: 1320 813d e9c0 4bbd e030 57bd 9773 203d
00000170: 7cfc 27bd 143b 0bbd b4d8 cbbd 6e60 52ba
00000180: ea1f f8bd af2b 8e3d f6b5 03bd 6d5a 95bd
00000190: 5dd1 9fbd d227 54bc 5cef 123d 1fda 743d
000001a0: 2c1d 2e3d c052 8a3c 55b3 00be 9f01 36bd
000001b0: 6e22 d9bd 3e7e b83d 8079 82bc 1923 a5bc
000001c0: 8465 59bd fe34 12bd c4dc 78bd 0a4f 403d
000001d0: 9fd8 c13c 03cb b73b 676a 4e3d bac7 2b3d
000001e0: ea53 97bd 7386 8f3d 01e6 f2bc bd61 5b3d
000001f0: 80ba 15bd bca0 873d 007a 633d 65fc 89bc
00000200: 540a 1b3d 4919 da3d 8268 30bc eccd c0bc
00000210: 5eca 33bc 21b0 e73d d5c5 d9bd c908 70bc
00000220: 4bce 9cbd 36dd 9cbd bbb2 563b f799 36bd
00000230: 4464 bd3d c397 ca3d c7c0 c0bd d3d0 12bd
00000240: 4384 a4bd 7415 bebd a1d6 19bd efed 083e
00000250: f9ef 07bd b709 683d 588e 0abc 85a2 873d
00000260: 9400 fbbd cc41 be3c b7c1 aabd 28b2 283d
00000270: cb14 173a b7ef a63d e70d 16bc 0359 8a3d
00000280: 1d35 923d 2ac3 b5bd 5469 9a3c 2666 603d
00000290: cd13 103d 0cc9 65bc 153f e33d b432 353d
000002a0: a59b ccbc 9158 dd3d 21b8 89bd 5e92 c0bd
000002b0: c5a4 413d d0a2 9f3d 0a2f 3bbd 8f3d f1bb
000002c0: 4fca d53d 7a49 ce3d 081f 543d 6bae a7bd
000002d0: 8a2d ccbd 503d 1ebe edbe a33d e1b8 6ebd
000002e0: 1691 f0bd 3304 00be d5ea d7bc b12f c9bd
000002f0: 9a8a 0b3d 877b 00be f130 893d d9eb 22bd
00000300: 58be dbbd bbe4 64bd dec4 973d c392 263e
00000310: ce38 f539 7b85 0c3e aa5e 45bd e5d5 da3c
00000320: 8cb5 4b3d f9bb 5fbd 1734 243c dc7d d93d
00000330: 5779 86bd 6b7f 213d c1d1 b6bc 302c 4ebc
00000340: be1d 2cbd 1fc1 963d dff9 edbd 2208 a6bd
00000350: 6c17 a23d 46fa bcbd 63f4 203d 90a8 34bd
00000360: 2ef3 01be dbaf bfbd 644e 86bc 2cb3 383d
00000370: 93c4 b9bd 54b3 953b aa0a 693d c868 563d
00000380: 8ac3 cabc 9167 a8bd d17c e1bc 9914 60bc
00000390: b792 573c 77ea dabc 9d81 483d 1cfa b63c
000003a0: a6f6 ccbd c013 373d 0b3f 913d f2f3 43bd
000003b0: 2c16 703d 0b4a 4fbd e0fb 383d 2abd 133e
000003c0: b4d4 02bb 315d b23d 7bc8 cabd c3ed 90bd
000003d0: a5e7 4b3d 7236 243e 71e6 bfbd 3c95 1f3c
000003e0: 5464 a7bc 3697 adbd ba44 2e3d 3d04 0a3d
000003f0: c261 d0bd 98ea b93a 663d 71bd c641 b73d
-0.06341168 0.12805673 0.00026027765 -0.13895911 -0.062113322 0.008772446 0.05713051 0.04615369
0.09309352 0.022602635 -0.08852286 0.13549365 0.09138609 -0.024996173 -0.0009275305 0.22119775
0.04607494 -0.043845583 0.035432637 -0.08689666 -0.005991538 0.11799521 0.07593662 -0.095895834
0.012652123 0.013899708 0.017488727 0.011628991 -0.06631709 0.047443327 -0.12228741 -0.07083382
0.0055241664 -0.05540832 -0.135514 0.007717473 -0.00562118 0.014539039 -0.02739807 0.0727035
-0.010175037 -0.090357214 -0.13477498 0.017915757 0.09404895 -0.14769256 -0.12647782 -0.035249736
-0.038459238 0.051912494 -0.038909998 0.015570855 -0.048325643 -0.10971211 0.019673867 -0.057975262
-0.123043194 -0.042109996 0.07911828 -0.019589096 -0.0432611 0.082905695 0.006775704 -0.039359614
-0.06873482 0.08037719 0.045675296 -0.020746393 0.060345642 0.10005407 -0.122651435 0.087426595
0.008773367 0.024717368 -0.13783191 -0.042767376 0.045514125 -0.08592367 -0.0011122366 0.1093698
-0.14484912 -0.011372673 0.05189895 -0.06939394 0.020039015 0.001177992 0.07410511 0.07769663
0.06304946 -0.04974452 -0.052536845 0.039172735 -0.041012272 -0.03399189 -0.09953442 -0.00080252334
-0.12115462 0.06941926 -0.032155953 -0.07292638 -0.07803605 -0.012948947 0.035872802 0.05977833
0.04250829 0.016885161 -0.1256841 -0.04443514 -0.1060227 0.09008454 -0.015927076 -0.020158337
-0.05307533 -0.03569507 -0.060757414 0.046950378 0.023662863 0.0056089177 0.050394442 0.04193852
-0.07389052 0.07008066 -0.02965069 0.053560007 -0.036554813 0.066224545 0.05553627 -0.016843984
0.037851647 0.10649354 -0.010767104 -0.023535691 -0.010973541 0.11312891 -0.106334366 -0.014650532
-0.07656535 -0.0765938 0.003276034 -0.044580426 0.0924764 0.098922275 -0.09411769 -0.03584368
-0.080330394 -0.092814356 -0.0375582 0.13372014 -0.03318784 0.05664989 -0.008456789 0.06622795
-0.1225597 0.023224734 -0.083377294 0.041185528 0.0005763291 0.08151191 -0.009158588 0.06755259
0.07139037 -0.08875115 0.018849052 0.054784916 0.035175133 -0.014024984 0.11096016 0.044237807
-0.02497656 0.10807908 -0.06724573 -0.09402917 0.047276277 0.07794726 -0.045699157 -0.0073620747
0.10438978 0.10072608 0.051787406 -0.081875645 -0.099696234 -0.15453076 0.079954006 -0.058281783
-0.11746423 -0.12501602 -0.026357094 -0.098235495 0.034067728 -0.12547122 0.06698788 -0.039775703
-0.107296646 -0.055882197 0.07410596 0.16266923 0.00046772364 0.13722794 -0.04818598 0.026713321
0.049733683 -0.054622624 0.010022185 0.10619709 -0.065661125 0.039428156 -0.022316815 -0.012583777
-0.04202055 0.07361054 -0.11619925 -0.0810702 0.079146236 -0.09227423 0.039295565 -0.044106066
-0.12690422 -0.09359714 -0.016394801 0.045092747 -0.09070697 0.0045684967 0.056894936 0.05234602
-0.024751443 -0.08222879 -0.027525337 -0.013676786 0.013157538 -0.02672313 0.048951734 0.022336058
-0.10007982 0.04469657 0.070921026 -0.047840066 0.058614895 -0.050607722 0.04516208 0.14427629
-0.0019963207 0.08709181 -0.0990152 -0.070765994 0.04978146 0.16036394 -0.09370125 0.00974017
-0.020433582 -0.08476107 0.04254601 0.03369545 -0.10174896 0.0014184294 -0.058896445 0.08948092

lstm.weight_hh_l0_reverse f4 [256, 64]
00000000: 9437 e03c 984c 49bd 985d a83d e69b 7b3d
00000010: 7215 7a3d 048c e6bd 50e3 ff3c 35d3 cc3c
00000020: 31e7 0fbe 5649 5a3d 8c78 a13d 7dfe 143e
00000030: 58d8 073d c634 403c 5c76 94bd 4d3b 653d
00000040: e20c b4bd f79f 3b3e 44ad 8cbb de22 45bc
00000050: 05a7 e4bc 885e 653d 5cd0 0d3e d92a 7e3d
00000060: 590e fb3c 7896 923c 083b 9e3d a0b3 493d
00000070: 6336 b7bb f20a 01be 1155 b33d 670c 933d
00000080: a85d da3d bc10 043e 5ced fbbd 4113 18be
00000090: a520 2abe 2b1e e03d 0341 343d 3fd4 1cbd
000000a0: d4c2 3e3d ce51 9cbd 4915 a5bd a02c 333d
000000b0: 7e15 7f3d 262b b93d 62dd dbbd 6184 f3bc
000000c0: e6df 2b3c d335 d83d 74cb b03d acca 1ebd
000000d0: b828 27bd 0dc6 8f3d b683 19bc ed07 253e
000000e0: ba53 903c 9fb1 0b3e 9dc8 8fbc d0f7 83bc
000000f0: 7eeb 293d 3fc0 84bd 25eb babd 81da 96bd
00000100: aa26 913c 1230 50bd e821 dabc dd85 6e3c
00000110: f6bc a3bc fe64 9d3c f560 823d 4506 79bd
00000120: 309d a93d ce82 c33c f015 6c3c e078 653d
00000130: 0bcf 8ebd 9a72 743d 79e2 a5bd 3b17 6bbc
00000140: 6b2a c5bc afa7 dabc 968c d03d a356 013e
00000150: 49da 02bd 8349 b83c cbe9 1f3c dddd 8dbd
00000160: 66a0 cfbc 84a8 fd3c c11a 04bc 22f0 403d
00000170: 5e64 253e 262a 683d 41be bfbc 2285 7abd
00000180: 7be6 d3bc 73dc 873c 4ca5 25be 5321 973d
00000190: 4d54 c03d be5c e53d 9c32 d83c 6682 3abc
000001a0: c09a 16be 3081 fbbc d530 d73d 2e56 993d
000001b0: 7042 bc3b 15fe a03d a953 8bbd 8945 0d3b
000001c0: 1abb 0dbd 279f 023e 80d5 c43c 6422 6bbd
000001d0: 7484 903d bc46 7a3d 3323 143e 4adf 873c
000001e0: 2fc8 99bd c364 58bd 9a97 c23d fddc 3cbd
000001f0: 72cc c9bd 5fd6 aabd bbfe c4bc c6cb 7f3d
00000200: bf7c bd3d 1152 bebd c4f3 3abd efe9 a33b
00000210: b098 0bbe 377b 443d 8ded 1c3e 7dc0 af3d
00000220: 0011 cebd 2a74 ddbd cd93 bd3d 0f75 7fbd
00000230: fcd8 68bd 62ac 253d 0087 e3bd 76a7 ec3d
00000240: 57e6 17bc 0a73 8cbd c6cc 163e de14 a93c
00000250: 22a5 2d3e 3a9c c83c 0813 34bd 3277 383c
00000260: 9ec7 f0bd 3baa 2abd fc05 ac3b bc5a a6ba
00000270: 93e6 9ebd e380 06be 5021 21be 94da c8bd
00000280: 1d18 19be 4270 e83d c5be 2ebd bbf3 f63c
00000290: a9db 1c3c 32d4 1f3e 570e c3bd d220 aabd
000002a0: c0dc cdbd a1bf 553d 7736 523d 6541 ccbb
000002b0: f4fb 84bd edee c43d 1f7d 70bd 9753 f0bd
000002c0: 7142 9abd 2953 c43d 1374 3a3d ff51 00be
000002d0: 91bc 35bd b7c0 093b af81 afbd 484a 343d
000002e0: a028 92ba e8af 683d 5512 183e ffe5 abbd
000002f0: 7c4c 6e3c 0d74 aabc de00 663c f5f4 93bd
00000300: bb36 773d aa49 df3d d9e0 e93d de84 813d
00000310: 8d74 6fbd dac3 43bc ba99 21bd 387d 383d
00000320: b43e ef3c c695 073e 9a17 37bd c42d dd3d
00000330: 20ea c3bd 7d00 5c3d 6447 5fbd 225f 293d
00000340: 4ae6 bdbd 927c 0abe cdd4 efbd 15a2 c83d
00000350: 04ba 8f3c 4364 f23c 059e 8c3d 38a0 b13d
00000360: bae8 6e3d cb36 1dbd 4f8e 973d d90c 063d
00000370: 4f3c 0ebb 70c0 e93c 4f8a e73d d3b5 603d
00000380: a778 f1bb 49a0 1abc a417 9abd 73cb 033e
00000390: 72df 9f3d 4fd4 b43d 4618 3f3d 3888 b0bd
000003a0: 28c6 273d b3e9 b03d 8ed2 c13c 148d 783d
000003b0: 33a6 c1bd 3091 81bd 7f86 c13d 4b30 433d
000003c0: d9c9 58bd 3152 3dbd 5d4f babc b983 113c
000003d0: a36c ccbb 0d2e dfbc 7855 083e 7bee 9abd
000003e0: b638 dfbc 8250 133e 0c90 afbd 5e6f 2738
000003f0: 4985 8d3d b750 b1bc baa8 f1bd 1d33 dbbd
0.027370252 -0.04914531 0.082209766 0.061427973 0.061055608 -0.112571746 0.03123632 0.025003055
-0.14053036 0.053292595 0.078843206 0.14550205 0.033165306 0.011731332 -0.07249138 0.055964757
-0.0879152 0.1832274 -0.004293116 -0.012032239 -0.027911672 0.055998355 0.13849014 0.06205258
0.03064649 0.017894015 0.07726103 0.04924357 -0.0055912 -0.12601832 0.087564595 0.071801
0.10662395 0.12897009 -0.12301132 -0.14851095 -0.16614015 0.10943254 0.044007313 -0.03828835
0.04657252 -0.076327905 -0.080607004 0.04374373 0.062276356 0.09041433 -0.10735585 -0.02972621
0.010490393 0.10557141 0.086325556 -0.0387675 -0.040810317 0.07020197 -0.009369781 0.16116305
0.017618049 0.13641976 -0.017551715 -0.016109377 0.04148435 -0.064819805 -0.091268815 -0.07365895
0.017718632 -0.050827093 -0.026627496 0.014558283 -0.019987565 0.019213196 0.06366149 -0.060796995
0.08281934 0.023866083 0.014409527 0.05602348 -0.06973084 0.059679605 -0.08099837 -0.0143488
-0.024068078 -0.026691286 0.10183065 0.12630706 -0.031946454 0.02249599 0.00976033 -0.06927083
-0.025345039 0.030964144 -0.008063019 0.04710401 0.16151568 0.05668082 -0.02340615 -0.06116212
-0.025866738 0.01658461 -0.16176337 0.07379403 0.09391079 0.1119933 0.02639132 -0.0113836285
-0.1470747 -0.03070125 0.10507361 0.074871406 0.0057452247 0.07860962 -0.06803066 0.0021556339
-0.034602262 0.12756024 0.024027586 -0.057405844 0.070565134 0.061102614 0.14466552 0.016585965
-0.07508885 -0.05283047 0.09501572 -0.04610919 -0.09853448 -0.08341669 -0.024047246 0.062450193
0.09252309 -0.09292997 -0.04564263 0.0050022523 -0.13632464 0.04796907 0.15324993 0.08581636
-0.10061836 -0.10813172 0.092567064 -0.062367495 -0.056847557 0.0404476 -0.111097336 0.11555378
-0.009271226 -0.068578795 0.14726552 0.020639833 0.16957524 0.024488557 -0.043963462 0.011258887
-0.11756824 -0.04166625 0.005249737 -0.0012691836 -0.07758822 -0.13135104 -0.15735364 -0.098073155
-0.14950605 0.113495365 -0.0426624 0.030145517 0.009573855 0.1560829 -0.095242195 -0.08307041
-0.1005187 0.052184705 0.051321473 -0.0062333816 -0.06493369 0.09615884 -0.058713075 -0.117346935
-0.07532204 0.09586174 0.045520853 -0.12531279 -0.044369284 0.0021019408 -0.08569657 0.044016153
-0.0011151023 0.056808382 0.14850743 -0.08393478 0.0145446025 -0.02080729 0.014038293 -0.07224456
0.06035493 0.10902722 0.114198394 0.063241705 -0.05846076 -0.01194855 -0.039453246 0.045041293
0.029204704 0.13240728 -0.044700243 0.10799745 -0.0956614 0.053711403 -0.054511443 0.04135049
-0.0927244 -0.13524082 -0.117105104 0.0979654 0.017544754 0.029588824 0.06866077 0.086731374
0.058327414 -0.038382333 0.0740019 0.032727096 -0.0021703427 0.028534144 0.11305677 0.0548609
-0.007369119 -0.009437629 -0.0752404 0.12870578 0.07806291 0.08829557 0.04665401 -0.08619732
0.04096046 0.086383246 0.02365997 0.060681418 -0.09455528 -0.063265204 0.09449481 0.047653478
-0.052926872 -0.046220962 -0.022742921 0.008881503 -0.0062385364 -0.027243638 0.13313854 -0.07565018
-0.027248722 0.1438618 -0.08572397 3.991962e-05 0.06910188 -0.021644933 -0.1179976 -0.107031085

lstm.bias_ih_l0_reverse f4 [256]
00000000: 9786 2d3d 1e35 f93d bf4d f1bc fdf6 003e
00000010: 6815 e7bd 2660 3bbd c529 eabd cc57 b53d
00000020: 880b b1bd 6549 b43b e52f 993d e526 96bd
00000030: e641 933d 8ef6 ef3d 3f68 cc3d 99d4 b5bd
00000040: 0b3a 163e b30b ca3c 185f e83c c30c da3d
00000050: b8b5 06bd 5264 a0bd fd91 cb3d a8eb bcbd
00000060: 3ae0 81bd 9942 67bd b633 0dbd f2df 3bbc
00000070: 27e5 89bd a372 3abd 1fb1 a5bd 4d9b cdbd
00000080: 1986 d3bd d345 c4bd 9e1a b03d ab19 85bb
00000090: aebd f83b 6bb3 a8bc 3d22 44bd 0d34 a33d
000000a0: 7efd b9bd f875 143d c197 8dbd fee7 37bc
000000b0: fe09 9ebd 1008 cbbd 428e 99bc 6573 5abd
000000c0: e60e a5bd 2c14 883d 21fb 86bc 3e3b 993d
000000d0: e6bd 87bc 675a bebd 4c45 7bbd 0a99 b93d
000000e0: 7759 8ebd 7d48 a73d 228a a13d d680 283b
000000f0: 775d cfbd 1a70 ac3b 6859 e93d a734 e13d
00000100: 2fdc 24bd 81be 18bd dd2e cd3d 5883 cd3c
00000110: fb43 c83d f89e cf3d 3663 ff3d a08e 743d
00000120: bb2f bcbd 7382 993d 2a4e f03d 0acb e13d
00000130: 76f6 b33d 5037 fdbb ba89 0b3d da61 c43d
00000140: 9217 adbd b50c 1b3c 6764 fd3d 4bea 6ebc
00000150: 7d83 5b3e 9380 90bd 88ba 8abc ccfd 5c3d
00000160: 0b87 6cbd 487b fb3b 3635 c53d da2e 423d
00000170: c3b7 813d b900 a9bc b279 8ebc f78b a53c
00000180: 0570 513b db62 093e d38f 91bd cacc 90bd
00000190: 0d81 08bc 3389 2c3d 1695 b3bc 5113 1cbc
000001a0: de10 803c 687c 053e 4dd3 3ebb 7000 87bd
000001b0: 45a3 84bc 736c 133e 26b1 863c 6254 803d
000001c0: ce53 9739 78fc 7c3d 283e 4cbd d343 9a3d
000001d0: 9e77 bfbc 393f 2fbd f88b 4cbd 5e46 e73d
000001e0: 7105 943d 94c7 c6bc d27f 143e 3983 c6bd
000001f0: 185a 78bd 5639 b0bb e16b 1a3e 40af 3e3d
00000200: 6cf9 913d 9b0e cbbd 3fdf b33d e90b 9cbd
00000210: 65a0 103b edf8 003e dfb1 d8bd d104 a2bb
00000220: 5ea9 b0bd 5c72 963c 1ef8 dabd 0096 cc3c
00000230: fe47 7ebd f8d8 0fbe 1cb5 573c 0f55 a93d
00000240: 151c ebbd b933 dc3d e40c a03d dc70 d53d
00000250: 7334 e83d db28 efbd 2f15 6f3c 73ef 0abd
00000260: bd8a 89bc b7ef ae3d 9d28 80bd 2404 5abd
00000270: 48e9 273d 4714 e0bd 1577 e1bd e6ee 063d
00000280: e52f 99bd 296a 6a3c 15ac e9bd e726 f1bd
00000290: 4cb3 d1bd 32d5 573d 4871 adbd 0e7d 38bd
000002a0: 7297 fdbd 4c82 a93d 718a 803d 18d6 693c
000002b0: 9b0e 4c3d 3c28 873d 3317 393d 70b7 583b
000002c0: 2753 bebd 8208 353d 4e7f 8dbd 3517 f8bd
000002d0: 5385 d3bd d1a6 003e 226e 0dbd c9a1 f4bc
000002e0: d6f3 2bbd 07ae 80ba 5210 64bd 6b11 ebbc
000002f0: b1af a63d 78dc 10be ba4c d73b 9a60 063e
00000300: c257 f43d 3778 a2bd 4c31 cf3d e55d d0bd
00000310: 1803 813d f351 cb3d 4a24 fe3d 420d 9d3d
00000320: 7cb4 50bc 730e 73bd e407 a53d 05ad 023e
00000330: eb8c 063e aa5e 84bd 310c fd3d 84af 3cbd
00000340: e62a 59bd 8daa fa3b 7269 383e 4976 0b3e
00000350: 7775 1a3e 5542 9abd e4fc d6bd 0a59 333b
00000360: 172b d43d 13f6 50bd 7d3e d6bd 7b48 ce3d
00000370: 2272 95bd 02fe 62bc 9033 b2bd 6481 bebd
00000380: acb7 f8bd fc1c f13d 5ed2 ebbc d6eb 893d
00000390: 757f a7bd 3fcf 8ebd 0e0f c3bd 76a0 22bd
000003a0: 906d 9abd a7cc 123e 8d3a babd 6ab1 1a3d
000003b0: 4766 84bc 24ed eb3d 2f67 203e c30e 99bd
000003c0: 1d66 e8bb a82b a9bd f83d bdbd 18ad bebd
000003d0: edd6 43bd cb4f b0bd 6897 75bd f439 c03d
000003e0: 15b9 763d 1f7f ec3d 770e a73d 7a2a 41bd
000003f0: e930 61bd c501 1cbd 4d2e f0bd 0a53 053e
0.042364683 0.121683344 -0.029456018 0.12594219 -0.1128338 -0.04574599 -0.11433748 0.088546365
-0.086447775 0.0055019134 0.07479838 -0.07331637 0.071903035 0.117169484 0.09980821 -0.088784404
0.14670579 0.024663782 0.028365657 0.10646965 -0.032888144 -0.078316346 0.099399544 -0.09224635
-0.06341596 -0.056459997 -0.034473144 -0.011466967 -0.067331605 -0.045519482 -0.08090424 -0.10039387
-0.103283115 -0.095836304 0.08598827 -0.0040618978 0.007590971 -0.020593366 -0.047884215 0.07968912
-0.09081553 0.036245316 -0.069137104 -0.011224745 -0.077167496 -0.09913647 -0.018744592 -0.053332705
-0.08059482 0.066444725 -0.01647717 0.07482003 -0.016570043 -0.09294587 -0.061345384 0.09062393
-0.06950658 0.08168123 0.07887675 0.0025711558 -0.10125249 0.005262387 0.11394006 0.10996371
-0.040249046 -0.037291054 0.10018704 0.025087044 0.09778591 0.10137743 0.12470095 0.05970633
-0.09188791 0.07495584 0.117336586 0.11025055 0.08787243 -0.007727541 0.034066893 0.09588976
-0.08451761 0.009463479 0.12372666 -0.014582227 0.21436878 -0.070557736 -0.016934648 0.053952977
-0.057745975 0.0076746084 0.0962929 0.047407962 0.06333878 -0.020630227 -0.017392013 0.020208342
0.0031957638 0.13416617 -0.071075104 -0.070703104 -0.008331549 0.04212303 -0.021921676 -0.00952609
0.015633043 0.13035738 -0.0029117644 -0.0659188 -0.016191134 0.14396839 0.016441893 0.06266095
0.00028863404 0.06176421 -0.049863964 0.07532468 -0.023372468 -0.042784903 -0.049938172 0.11292718
0.072276 -0.024265088 0.14501885 -0.096929975 -0.060632795 -0.0053779287 0.15080215 0.04655385
0.071276516 -0.09914895 0.08782815 -0.07619459 0.002206826 0.12594958 -0.10580801 -0.004944422
-0.08626054 0.018365078 -0.10691856 0.02497387 -0.062080376 -0.14047611 0.013165738 0.08268177
-0.114799656 0.10752053 0.07814959 0.10421917 0.11338129 -0.116777144 0.014592453 -0.033919763
-0.016789788 0.08541816 -0.06257746 -0.053226605 0.04099396 -0.109413676 -0.11009041 0.032942675
-0.07479838 0.014307537 -0.11409775 -0.11774998 -0.10239276 0.052693553 -0.08468872 -0.045041136
-0.123824015 0.08276805 0.062764056 0.014272235 0.049818616 0.06599471 0.04518814 0.0033068322
-0.09293204 0.044197567 -0.06909047 -0.121138014 -0.10328164 0.12563635 -0.03452886 -0.029862301
-0.041980587 -0.0009817489 -0.055679627 -0.028694829 0.08138979 -0.14146602 0.006570426 0.13122788
0.11930801 -0.079330854 0.101168245 -0.10174159 0.06299418 0.0992774 0.12409265 0.07668544
-0.012738343 -0.05933995 0.08058146 0.12761314 0.13139693 -0.06463368 0.12355841 -0.046065822
-0.053019427 0.007649726 0.18008974 0.13619341 0.15083872 -0.07532183 -0.10497454 0.0027366304
0.10359781 -0.051015925 -0.104611374 0.10072418 -0.0729716 -0.0138545055 -0.08701241 -0.09302023
-0.12144408 0.117731065 -0.028786834 0.06734435 -0.081786074 -0.06973123 -0.09524356 -0.03970381
-0.07540429 0.14335881 -0.09093199 0.03776685 -0.01616205 0.1151984 0.15664361 -0.07473519
-0.007092251 -0.0826028 -0.09240335 -0.09310359 -0.04781239 -0.08608969 -0.059958845 0.09386054
0.0602351 0.11547684 0.08157056 -0.04715965 -0.054978285 -0.038087625 -0.11727581 0.13019958
