trained_models/Archive/LSTM/LSTM_Zscore_CF5_pred_0.pth (torch, 661823 bytes, 23 tensors)

lstm.weight_ih_l0 f4 [256, 40]
000000 d6 fb 19 3e 3c a1 2b 3c 5a 89 8f bd 69 87 c7 bd
       0.15037474 0.010475453 -0.070086196 -0.09742624
000010 c4 e5 23 bd ef b2 d0 bd b2 14 09 3e 9b e6 1f 3d
       -0.040014043 -0.10190379 0.13386801 0.039038282
000020 87 4b 95 bd 1f 86 26 be d8 43 b2 bc b6 7b c2 bc
       -0.07289796 -0.162621 -0.021760866 -0.02374063
000030 0a 8f 0a 3d db 38 af bd 8a 8b e5 3d 58 b3 00 3c
       0.03382782 -0.08555766 0.112082556 0.007855259
000040 32 6c 24 bd d7 bf 04 bc d7 b5 3f bd b9 27 2a be
       -0.040142246 -0.008102379 -0.046804275 -0.16616715
000050 da e6 17 3e 5b 76 05 bd 7d a6 41 3d 6f 27 fd bd
       0.14834157 -0.032583576 0.047277916 -0.12361037
000060 4a b4 d8 3b c2 6b 1c 3d 62 de fd 3b b6 23 c7 bd
       0.006613289 0.038188703 0.0077474574 -0.09723608
000070 c9 c1 ac bd 19 dd 8e bd b9 8e 66 3d 1d 0f 52 3d
       -0.08435399 -0.06975765 0.056288455 0.051283944
000080 98 35 62 bd fd f5 92 bd ac 97 ed 3d ba f9 61 bd
       -0.055226892 -0.07175825 0.11601195 -0.0551698
000090 f8 67 dc bb 80 2d c9 bb d5 7a b2 3c ff 08 6b bd
       -0.006726261 -0.006139457 0.021787087 -0.057381626
0000a0 db d7 ae 3c da a9 a6 bc f7 ec 83 bb e3 8d 8d bd
       0.021343162 -0.020344663 -0.004026051 -0.06911828
0000b0 f9 e7 f2 3c e7 c8 e4 bd 1d 8c 9c 3d 84 20 79 bc
       0.029651629 -0.111711316 0.07643912 -0.015205506
0000c0 65 88 14 3d 47 11 09 be 3d e8 c3 3d 19 38 02 be
       0.03626289 -0.13385497 0.0956578 -0.12716712
0000d0 70 38 3e 3d ae d6 49 3b 65 ae 2a 3d f2 23 29 be
       0.04644054 0.0030798125 0.04167022 -0.16517618
0000e0 99 f3 e7 3c cb 5f 14 be a2 3a e6 bb 00 d8 ff bd
       0.028314399 -0.14489667 -0.0070260325 -0.124923706
0000f0 b6 48 06 3e f7 9a 27 be f8 2c 36 3d 12 94 a9 bd
       0.13113675 -0.16367708 0.04447648 -0.08280195
000100 79 e6 1c 3d 1a 8e 74 3d 64 e0 ab bc d5 29 a9 bc
       0.038305733 0.05970583 -0.020981021 -0.02064983
000110 f3 4b 3f bd 9c f5 1c 3d 58 e7 3a bd dd 8c 67 3c
       -0.04670329 0.03832017 -0.045630783 0.0141327055
000120 d5 d5 9f 3c 8e e7 1b bc ea 1c 53 3d f9 c5 be 3d
       0.019511143 -0.009515656 0.051541246 0.09315104
000130 cd ff a8 bb 25 78 bc bd f5 a4 47 3d b5 08 c6 bd
       -0.005157447 -0.09202603 0.0487413 -0.096696295
000140 dd f0 4b 3d 45 11 89 bc 1b 1e a3 3b 5b d7 4c 3d
       0.049790252 -0.016731868 0.004977954 0.050010066
000150 d6 3a f7 3d 85 5b 89 bd 49 83 c4 3d 68 02 77 3d
       0.12071769 -0.06706909 0.09595353 0.06030503
000160 a8 04 db 3d 71 a1 7e bd 7d 02 e3 3d fd ea b4 3d
       0.106942475 -0.06216568 0.11084459 0.08833883
000170 cd 5a 9e bd e8 0e 13 3d af b8 45 3d 4d d1 e8 bc
       -0.077321626 0.035902888 0.04827183 -0.028420115
000180 9b 34 6c bd d5 d6 59 bd 01 ec 0d 3c 75 99 a2 3d
       -0.057667356 -0.053183395 0.008662225 0.07939426
000190 0b eb a9 3d f5 cc dc bd 91 14 99 bb d3 05 89 bd
       0.08296784 -0.1078128 -0.004671641 -0.06690564
0001a0 af 7a 94 bc be a2 a4 bd 11 22 7a 3c 5d 97 d5 bc
       -0.018124906 -0.08038853 0.015266911 -0.026073152
0001b0 3c 21 8c bd 2f 94 c9 3d 57 6d cb bc ac 1a 02 3e
       -0.068422765 0.09842717 -0.02483241 0.12705487
0001c0 db 71 e6 bd 0c 41 95 3d 61 ac 3b 3d 98 5c ae bb
       -0.11252185 0.07287797 0.04581869 -0.0053210966
0001d0 f7 fb 29 bd b3 14 63 bc ca 02 21 bd bf c8 9e 3d
       -0.041500058 -0.013859916 -0.0393093 0.07753133
0001e0 fc 9b 50 bd 1f 08 28 3d 94 30 60 3d 9f 2c 18 bd
       -0.05093001 0.04102337 0.054733828 -0.03715193
0001f0 f7 8a d6 3c 1d e6 8a 3d 01 47 ab 3d 8a 21 b7 bd
       0.02618931 0.06782172 0.08363152 -0.08941944
000200 6c a2 86 3d 59 10 7a bc 7c 82 cf bd 8c 7c c3 bb
       0.06573948 -0.015262687 -0.1013231 -0.005965775
000210 79 02 39 bd 23 46 c8 3d 7a f5 03 be 86 52 87 bd
       -0.045168374 0.097790025 -0.1288661 -0.06607537
000220 4f 3c 51 3c d4 37 95 3d 24 14 18 bd 4d a3 76 3d
       0.012770726 0.07286039 -0.037128583 0.06021433
000230 98 b7 08 bd 86 61 dc 3d de 1c a3 bd ec b9 ad 3d
       -0.033378214 0.107607886 -0.0796449 0.084827274
000240 cc 7a f2 3c 6e 69 83 bd 1b c6 50 3d b1 3b a5 bc
       0.02959957 -0.064165935 0.050970178 -0.020170065
000250 d8 a8 0d 3d fa c8 14 3e 94 93 54 3d d8 52 37 3d
       0.03458485 0.14529791 0.051898554 0.04475674
000260 8f b5 2d 3d 46 2e 95 3d f9 f6 4b 3d 92 2e 32 3d
       0.042409476 0.072842166 0.04979608 0.043501444
000270 73 21 87 3d 30 c0 cb 3d 2b 8e a3 bd dc b5 fc 3d
       0.06598177 0.09948766 -0.07986101 0.123393744
000280 e2 29 ec bd b1 47 7e bd d4 ef a7 bd a8 f7 c7 3d
       -0.11531426 -0.06208009 -0.082000405 0.097640336
000290 cf dc 65 bc e8 23 5a 3d a1 31 ba 3a c2 a3 ad bd
       -0.014029696 0.0532569 0.0014205464 -0.084785
0002a0 43 41 90 bd 2c 09 7f bb f7 30 91 bd 54 ed f3 3d
       -0.07043698 -0.003891538 -0.070894174 0.11910501
0002b0 18 15 c8 3d c8 79 01 3e 48 43 61 bd 16 65 9f 3b
       0.09769648 0.12644112 -0.054995805 0.0048643453
0002c0 e4 4a a7 3d 3e 53 bd bb af 7a 38 bd 51 8b d5 3d
       0.08168581 -0.0057777455 -0.045038875 0.10426963
0002d0 e0 7d a2 3d 7d 50 bc bd 1f fc 92 3c a5 f5 6f 3d
       0.07934165 -0.091950394 0.017942486 0.058583874
0002e0 b1 62 44 bd 13 1e 3d bd 51 f5 79 3d f7 6e 61 bb
       -0.047945682 -0.04617126 0.061024968 -0.0034398416
0002f0 04 2a e1 3d 42 35 03 3c d3 b7 61 3d 90 a3 bc bd
       0.10994342 0.008008303 0.05510695 -0.092108846
000300 24 ae 89 3d 83 1f d7 3d 3c 37 d2 bc 15 2e 5c bd
       0.06722668 0.10504057 -0.025661103 -0.053754885
000310 34 2c ab bc 6f 55 6d bd 26 f4 b7 bd a3 dd dd bd
       -0.020895101 -0.057942804 -0.089821145 -0.108332895
000320 f0 73 41 bd b6 5f bf bd 71 e1 45 bd 36 f4 7b bc
       -0.047229707 -0.09344427 -0.0483107 -0.015378049
000330 43 b8 89 bd 01 be 80 bd bb 4c df bd b5 c2 b5 bb
       -0.06724598 -0.0628624 -0.10903307 -0.0055468925
000340 a7 b1 94 bd 56 a0 8e 3d 16 c8 a8 3d 87 91 98 3b
       -0.07260447 0.069641754 0.08241288 0.00465602
000350 03 32 87 3d 8b e2 e5 3d 4e 23 cd 3d 23 49 86 3d
       0.06601336 0.1122485 0.100164995 0.065569185
000360 27 0d cd bd 58 e2 46 3c 31 43 e7 ba 29 54 ba bd
       -0.10012274 0.0121389255 -0.0017643926 -0.090980835
000370 54 88 35 bc 67 d4 c6 3d c9 4f 6d 3d 8c e0 89 3d
       -0.011079866 0.09708481 0.057937417 0.06732282
000380 bc 32 e5 bd 55 7f 8d 3d fb 15 9c 3d 24 94 f6 3d
       -0.111913174 0.06909052 0.0762138 0.12039974
000390 07 31 81 3d a0 c6 55 bb 15 8b ef 3c 93 c5 63 bd
       0.06308179 -0.003261961 0.029241124 -0.055608343
0003a0 20 0d 47 3c f0 29 cb bd 37 c7 4b bd 68 75 09 3d
       0.012149125 -0.09920108 -0.049750533 0.033559233
0003b0 b6 70 d9 bd 57 5a 83 3d dc d7 75 bd 12 55 03 3c
       -0.10617201 0.06413715 -0.060020313 0.008015888
0003c0 9a 69 5b bd 6a 93 0c 3e 18 c3 82 3d 8b af 35 3d
       -0.053567506 0.13728109 0.063848674 0.044356864
0003d0 ef 74 b9 bd 68 05 64 3c aa 0b c7 3d f9 29 13 be
       -0.090555064 0.013917305 0.097190216 -0.1437148
0003e0 2a 81 b1 bd 05 12 28 3d 04 96 9a bd 1a 47 01 3e
       -0.08667214 0.04103281 -0.075481445 0.1262478
0003f0 0e 8d 7f bd d3 0c a6 bc 88 28 d6 3d 8c 88 e1 3d
       -0.06239038 -0.020269787 0.104569495 0.110123724

lstm.weight_hh_l0 f4 [256, 64]
000000 3e 7f c2 bd 02 cc 55 bd 91 45 a0 bd 5a fa cf bc
       -0.09496926 -0.05219651 -0.07825769 -0.025387932
000010 17 c2 07 3e d7 da d5 3d 9a 51 45 3d a6 e3 cc bd
       0.13257633 0.10442131 0.048173524 -0.10004358
000020 b9 c1 1c 3e 79 09 2e 3c 3a 91 b0 3c a5 87 ca bc
       0.15308274 0.010622376 0.021553624 -0.024722883
000030 d4 cd 0e 3d 1a 2d b8 bd 1c 84 60 3c 83 2b 94 3d
       0.03486426 -0.089929774 0.013703372 0.07234862
000040 fa 68 78 bd bb af ad 3d 34 42 02 bc 1f 0b 23 bd
       -0.06064699 0.084807836 -0.007950354 -0.039805528
000050 92 58 fb bc 7a a3 05 3d 06 3e fc 3c 6a 7b 08 be
       -0.030681882 0.032626607 0.030791294 -0.13328329
000060 ac 9f 00 be a3 0b cf bd 11 0d 99 3c c2 e6 65 3d
       -0.1256091 -0.101096414 0.018682988 0.05612827
000070 41 33 ad 3d 16 09 0e 3e 53 8b c0 bd 82 20 ac 3b
       0.084570415 0.13870654 -0.09401574 0.0052528987
000080 0e 55 bf 3c fd e1 51 bd 5f 23 de 3d 02 ed c8 3d
       0.023355987 -0.05124091 0.1084659 0.09810831
000090 ed d6 e0 3d cb 1a ed 3d 23 74 1e 3e 85 7b b3 3d
       0.10978494 0.11577376 0.1547399 0.08763794
0000a0 ab c4 f6 3c ad 6e 30 bd 33 e7 39 3c 72 09 d9 3c
       0.030123075 -0.0430743 0.011346626 0.026493762
0000b0 51 4c 14 be dc a7 c2 3c 97 fa 14 3e fd 29 d7 bd
       -0.14482237 0.023761682 0.14548717 -0.105060555
0000c0 b9 af 91 bd d6 39 f5 3d 6d 58 91 bd db 92 bf ba
       -0.071135946 0.11973922 -0.07096944 -0.001461591
0000d0 97 5d 08 3c bf 67 f4 bc 73 86 57 3d 51 46 0a be
       0.008323095 -0.029834626 0.052618455 -0.13503386
0000e0 5f 4f ed bd a1 a8 17 3e 88 06 b9 3d 5e ff 0c 3e
       -0.115874045 0.1481042 0.09034449 0.1376929
0000f0 f4 b5 7b 3d 64 84 12 be 2d ef 92 bd 25 86 90 3d
       0.06145282 -0.14308316 -0.071745254 0.07056836
000100 96 f2 ec 3d d3 af ff bd 65 2d 32 be 53 5c 8e 3c
       0.11569707 -0.12484708 -0.17400129 0.017378008
000110 b3 78 1d 3e 32 51 22 3d 4f 98 b1 bd 42 43 fd bc
       0.15378074 0.039628215 -0.08671629 -0.03091586
000120 0b 2b 1d bd 2e 19 25 3d ec 24 03 be 19 27 a5 bc
       -0.038371127 0.040307216 -0.12807053 -0.020160245
000130 e7 aa 16 3c 40 e4 37 be f6 15 f2 3c bf 6e 05 bd
       0.00919602 -0.17958164 0.029551487 -0.03257632
000140 2c 1c d3 bc 83 0d e0 3c 26 f0 0e be df 0b c7 3d
       -0.02577027 0.027350193 -0.13958797 0.09719061
000150 a3 4f e1 3d 02 b8 48 bd ac f3 e0 3c 60 72 aa 3c
       0.110015176 -0.04900361 0.027459942 0.020806491
000160 bc 81 a6 3d 62 17 0c be c7 4b 0d be 13 08 c7 3d
       0.081302136 -0.13680795 -0.13798438 0.09718337
000170 e8 ff 2b 3d 08 ab 8b bd 05 51 c4 3c 5b c5 17 3e
       0.041992098 -0.06819731 0.023964414 0.14821379
000180 d1 da 02 bd 95 c0 30 3e 43 ba 18 3e be 85 91 3b
       -0.03194696 0.17260964 0.14914803 0.004440992
000190 3e 52 7a bd a3 99 29 3c 70 24 8d 3d 84 a6 d1 bc
       -0.06111359 0.010351571 0.068917155 -0.025592096
0001a0 67 c9 6d bd 35 91 c2 bc dd e1 81 3c ac 45 d7 bd
       -0.0580534 -0.02375088 0.01585477 -0.10511336
0001b0 58 4f 63 3d 0f f2 0f be d8 79 61 3c a2 a6 69 bd
       0.05549559 -0.14057182 0.01376196 -0.05704368
0001c0 7a 8c 8c 3c 40 d8 14 3d 48 c3 01 3e 54 46 0f 3d
       0.017156828 0.036339045 0.1267215 0.03497918
0001d0 5d c5 28 3e 64 ee 8d bc cb bb bb bd 66 0d 5c 3d
       0.16481538 -0.017325588 -0.09166678 0.053723715
0001e0 a7 6d b5 bc 76 1a d5 3d e3 c8 10 3e 44 94 ad 3c
       -0.022147013 0.10405438 0.14139132 0.021188863
0001f0 ac e7 e4 bd f8 1c 28 bd 9e 90 19 be 7a 86 16 3c
       -0.111770004 -0.04104325 -0.14996573 0.009187335
000200 20 78 be 3c c5 54 03 be 3a 22 4b bd 61 1a b6 3d
       0.02325064 -0.12825306 -0.049593188 0.0889175
000210 dd 60 8e bb 50 cd d2 3d 92 88 bb 3c cf 12 a7 3d
       -0.004345043 0.102930665 0.02289227 0.08157884
000220 49 de 7e bc 64 58 e0 3d 9a 37 fe ba 8e a1 68 bd
       -0.015555927 0.10954359 -0.0019395233 -0.056794696
000230 a0 06 f4 3c c9 db 8d bd 3b 8d 0a 3e d7 73 20 bd
       0.029788315 -0.06926686 0.13530438 -0.039172973
000240 b1 99 3a 3d f4 31 f7 bd af a8 ed bd a8 52 dc bd
       0.045556728 -0.12070075 -0.116044395 -0.10757953
000250 03 4e 88 3d 13 eb aa bc 0b dd 24 3c d0 90 d0 bd
       0.066555046 -0.020864045 0.010062466 -0.10183871
000260 57 49 36 bd 2c eb 52 3d 40 3a 9f 3d e3 0e 6a 3d
       -0.044503536 0.05149381 0.07774782 0.057143103
000270 04 d5 e6 3d 89 0c 1f bc aa 99 29 3d dd d9 3f bc
       0.11271098 -0.009707578 0.04140631 -0.0117096575
000280 66 77 87 bd 97 00 aa bd 52 c0 a9 bd f6 c7 2f bc
       -0.0661457 -0.08300894 -0.08288635 -0.010728827
000290 1d 3b 50 bd a1 96 4e bc c9 de a4 bd 54 5c 7f bd
       -0.050837625 -0.012609155 -0.080503054 -0.06234391
0002a0 da 5d 1c bd d6 4d d1 bd 6b a7 a7 3d 39 71 f2 bc
       -0.03817544 -0.10219924 0.08186229 -0.029595004
0002b0 12 c6 e6 bd cb 73 d7 bd be ea b4 bd 52 e9 a9 3d
       -0.11268248 -0.10520133 -0.08833836 0.082964554
0002c0 48 f2 ae 3d 32 c7 ea 3c a0 a0 0b 3e d7 52 4e bd
       0.08542305 0.028659437 0.13635492 -0.05037197
0002d0 0f 73 23 bd 09 82 26 be 9f dc 75 bb 39 04 0c be
       -0.03990465 -0.16260542 -0.0037515534 -0.13673486
0002e0 09 63 15 bc 02 38 81 bd 2a 9a 42 3d 22 03 bd 3c
       -0.00911785 -0.06309511 0.047510304 0.023072783
0002f0 a0 9b a8 bd f6 02 c1 3d 67 da bf 3d 23 2a d3 bd
       -0.08232808 0.09424393 0.09367829 -0.10310771
000300 17 4e 06 be 9f 4b 72 3b 06 2d a3 3c 4c af 45 bc
       -0.13115726 0.0036971343 0.01991893 -0.01206572
000310 2a 3f ae bd fb 57 ca 3c 0a 21 d3 bd 0a 48 44 bd
       -0.08508141 0.024700155 -0.10309036 -0.047920264
000320 f2 cc 56 bd 2c 8a 8a 3c 28 4f 73 3d bb 84 8a bd
       -0.052441545 0.016911589 0.05940166 -0.067635976
000330 cd e4 28 3d c9 6c af bc 9b f4 1d 3c 15 71 2a 3e
       0.041233826 -0.021414177 0.009640838 0.166447
000340 64 c0 04 bd a1 51 4b 3d 9d f5 05 3d ad 19 a2 3c
       -0.03241004 0.049638394 0.03270494 0.019787634
000350 fd 6c 79 3b 4f b3 0d 3d fc f7 10 bd c7 9c c3 3d
       0.0038059347 0.03459483 -0.035392746 0.09551387
000360 5e a4 4a bd 1a 18 3d bd 00 a5 03 3e 8c f0 b5 bc
       -0.04947316 -0.046165563 0.12855911 -0.022209428
000370 97 8a 89 3d 9a 35 c5 bd 8d e9 a7 bd 91 ad 10 3e
       0.06715887 -0.09629364 -0.08198843 0.1412871
000380 92 94 d1 bd a0 53 ab 3d 8e 1c 7c 3d 82 9e a0 bd
       -0.10233416 0.083655596 0.06155067 -0.07842733
000390 78 3e 20 3d 73 93 de bd b9 a6 8e bc fb 36 0b bd
       0.039122075 -0.108679675 -0.017413484 -0.03398798
0003a0 b0 87 99 3c d5 b3 2d 3d e8 6f 00 bd 4e 6c 05 3e
       0.018741459 0.04240783 -0.031356722 0.13029596
0003b0 87 fc 8e 3d 66 57 f8 3d 8b 15 8c 3d 36 3f 2d bd
       0.069817595 0.12126045 0.068400465 -0.04229661
0003c0 59 be d4 bd 71 47 95 3d e5 29 9f bc ec c2 ab 3d
       -0.103878684 0.07289017 -0.019429157 0.08386788
0003d0 d7 cb 61 3c b1 0f ac bd 1d 97 a7 3d 58 fe 16 3b
       0.013781509 -0.084014304 0.081831194 0.0023039784
0003e0 41 c2 ae 3b 82 41 b1 3d fc ab d4 bd 53 3d 9c 3d
       0.0053332155 0.08655073 -0.10384366 0.07628884
0003f0 7c 5b 0f bd 68 39 6e 3d 24 f8 8d bd 42 b5 27 3d
       -0.034999356 0.058160216 -0.06932095 0.040944345

lstm.bias_ih_l0 f4 [256]
000000 80 4b c8 bc 91 b7 ee 3c 01 05 a7 bd b0 b0 d5 3d
       -0.024450064 0.029140266 -0.08155251 0.10434091
000010 0c 69 86 bd 32 69 0e 3e ec 73 b8 3d 69 ab 38 3a
       -0.06563005 0.13907316 0.09006485 0.0007044585
000020 b0 40 f2 bd f1 ba bb 3c 38 bf 1c bd be 56 f0 3c
       -0.118287444 0.022916289 -0.038268298 0.029338237
000030 f5 b7 47 3d ea b5 9a 3d 96 80 d6 3d c2 b0 f2 3d
       0.04875942 0.075542286 0.104737446 0.1185012
000040 c5 47 b4 3c a9 c7 8a bd eb d9 7a 3d 6f af c6 bc
       0.022006879 -0.067763634 0.06124298 -0.024253575
000050 1b d5 d1 3d e7 01 1b 3d ce d0 89 bd 88 34 0e 3d
       0.10245725 0.03784361 -0.067292795 0.034718066
000060 02 46 98 3d 65 34 8e 3d 38 bb ea 3d 5a 21 d5 bd
       0.07435228 0.06943587 0.114614904 -0.10406752
000070 3f cf 42 bd 80 1a ba 3d 1e bd a4 bd 58 25 72 bd
       -0.047560927 0.09087086 -0.08043884 -0.059117645
000080 50 ce e0 bd 20 7a e3 bd 27 bc 08 be f8 3b 0b bd
       -0.10976851 -0.11107278 -0.13353024 -0.033992738
000090 e8 ad 0a 3e 62 5a d3 3c f8 8a da bd 9f ba 57 3c
       0.13542902 0.025799934 -0.106710374 0.0131670525
0000a0 95 30 84 bd cc 68 b9 bd a1 dc 88 3d 73 b0 d5 bc
       -0.06454579 -0.090531915 0.066827066 -0.026085114
0000b0 9a 1e ff bd 87 7c 88 bd 8f 14 4d 3d 4d 0c 1f 3d
       -0.12457009 -0.06664377 0.050068434 0.03883009
0000c0 bf 6d bb 3d 46 d8 e4 bd 87 9d e9 3d b0 8a 4d bd
       0.09151792 -0.111740634 0.11406999 -0.05018109
0000d0 d2 58 c2 3d 08 dd aa bd f9 b7 7f 3d 15 42 89 39
       0.094895974 -0.083429396 0.06243131 0.0002617991
0000e0 0d b8 77 bd 3f 53 43 bd 10 eb 94 bd 35 17 85 bd
       -0.06047826 -0.04768681 -0.07271397 -0.06498567
0000f0 a0 41 50 bd 37 16 1e bd b8 50 94 bd ba bf 2d 3d
       -0.050843835 -0.038595404 -0.072419584 0.042419173
000100 09 03 2e 3d 9e a1 a6 bd f9 da 08 bd 1b 42 ce 3c
       0.042483363 -0.08136295 -0.033411954 0.025178006
000110 ed 94 d8 bd f8 49 b2 3c 4b 2b 81 bd 69 ab ca 3c
       -0.1057528 0.021763787 -0.063070856 0.024739938
000120 d6 34 e2 3d 11 d7 ae 3d 1b 47 78 bd e6 38 8c bc
       0.11045234 0.085371144 -0.060614686 -0.017116975
000130 7c ea f1 3d ea 24 e3 3d fa 25 b6 3d f5 4b d7 3d
       0.118123025 0.11091025 0.08893962 0.105125345
000140 f9 24 d6 bd d9 53 e8 bb d7 2e 29 bd c9 14 cd 3d
       -0.10456271 -0.0070900735 -0.041304436 0.1001373
000150 15 1f 15 bd 2f 15 d7 3c 6c ff 12 3e 32 3d d5 3d
       -0.036406595 0.026255218 0.14355248 0.10412063
000160 b1 64 8c 3c 39 2a f3 3c ea 39 b2 3d 94 8c 9d 3d
       0.017137857 0.02968322 0.087024525 0.07692829
000170 b5 6f 28 bd 47 60 af 3d 22 66 17 3d a8 ff 96 bd
       -0.041122157 0.08563285 0.036962636 -0.07372981
000180 0b 52 1f bd 16 34 85 bd 81 08 4b 3d 63 6f 5e bc
       -0.0388966 -0.06504075 0.049568657 -0.013576361
000190 5c 88 0a 3d 09 46 54 bd e2 df 83 bd 77 ac a4 bd
       0.03382145 -0.051824603 -0.06439187 -0.080407076
0001a0 c1 76 88 bd 56 6b a7 bd 58 e8 f3 bd 30 e6 63 bd
       -0.066632755 -0.081747696 -0.119095504 -0.055639446
0001b0 e5 c6 1d 3d 8a 41 97 3d 47 80 bb 3d 77 4f f0 bd
       0.03851976 0.073855475 0.09155326 -0.11733907
0001c0 82 b2 5a 3d 1a 84 af 3d 8f 1d b8 bc dd c5 b5 bd
       0.053392895 0.08570118 -0.022475032 -0.0887563
0001d0 61 80 b4 bd 1f fb a5 bd fd 42 26 bd 07 bf 71 bd
       -0.08813549 -0.08104538 -0.04059123 -0.05902007
0001e0 61 cb 25 bd 92 5c 88 bd 41 20 18 3e a2 86 43 bd
       -0.04047716 -0.066582814 0.14856054 -0.047735818
0001f0 ca 7b 39 3d 25 a8 e8 3d c2 69 87 bd 8a 98 19 bd
       0.04528407 0.11360196 -0.066119686 -0.03749899
000200 57 0d c3 bd 92 41 a8 bd c2 67 60 3d fa 1c 1c bd
       -0.09524029 -0.082156315 0.05478645 -0.03811357
000210 8e 44 80 bc 05 9e 07 be 8b c5 1d bd 0b a7 7b bd
       -0.01565769 -0.13243873 -0.03851847 -0.0614386
000220 d0 9f 30 3d 98 0d 8e bd b9 db b2 bd 5a a5 97 bd
       0.04312116 -0.069361866 -0.08733315 -0.07404585
000230 dd 0e d5 bd 95 95 ea bc cc 7e fa 3c ca 8f 2a 3b
       -0.104032256 -0.02863578 0.03057804 0.0026025646
000240 84 93 8b bb 57 31 ed 3d 2f a4 d9 3d 84 35 f8 bd
       -0.0042595286 0.115816765 0.10627019 -0.12119582
000250 9e fc ea bd 14 93 f7 bd 3d 13 58 bd 09 ad 10 bb
       -0.11473964 -0.120886 -0.052752722 -0.0022075793
000260 b7 ee 02 3e 83 8d 17 3d d9 65 ee 3d 16 b9 06 3e
       0.12786375 0.03700019 0.1164052 0.13156542
000270 0c 13 c5 3d b3 d0 20 bd d0 23 ff 3d 09 cb 9c bc
       0.096227735 -0.03926153 0.124580026 -0.019139783
000280 bd 2b 5c 3d f9 42 af bb e8 06 03 3b f1 52 ae 3b
       0.05375265 -0.00534856 0.001999313 0.005319946
000290 59 87 09 bd 2d 9b 89 3d 6f 45 db 3b dc a6 39 bd
       -0.033576343 0.067190506 0.0066916267 -0.045325145
0002a0 d1 b4 a4 3c 23 38 db 3d 78 35 22 bd df 28 ef 3d
       0.020105751 0.107040666 -0.039601773 0.116777174
0002b0 21 02 b2 bd 5a ed 9f 3d 3a 60 85 3d 2f 61 64 3d
       -0.08691812 0.07808943 0.065124944 0.055756744
0002c0 0f d1 60 bd 3f 6d 0b bc 80 9e 06 3d 17 f9 98 39
       -0.054886874 -0.008509933 0.032866 0.00029177286
0002d0 e8 62 d9 bc ed 9c fc 3d 44 7e 00 3d 56 32 88 bd
       -0.02653642 0.12334619 0.031370416 -0.06650226
0002e0 2a d6 f9 3d f7 52 78 3d c1 66 e8 bd a2 d6 83 bb
       0.12199052 0.060625996 -0.11347724 -0.004023389
0002f0 df b1 ae bc 72 10 7e 3d a4 2a 33 bd f1 b7 7e bd
       -0.02132505 0.062027402 -0.043741837 -0.06218714
000300 fe ab 7d 3d 3e d1 92 bc 65 b9 6d bd 9f 39 3d 3d
       0.061931603 -0.01792204 -0.058038134 0.04619753
000310 d0 17 c7 3d cd 0c b0 bd d8 f8 96 bd d2 00 27 3e
       0.09721339 -0.085961916 -0.07371682 0.16308907
000320 b7 ee 56 3b 18 7e be 3d 58 e6 92 bd 98 45 9a 3d
       0.0032796094 0.09301394 -0.07172841 0.07532805
000330 b7 44 bd bc 32 7a b9 bd 95 05 14 3d dd b1 47 3d
       -0.023104055 -0.0905651 0.036138136 0.048753608
000340 9e 1e da 3d 81 86 64 bd 4a 52 9c bd be 3c 3e 3c
       0.10650371 -0.055792335 -0.07632883 0.011611162
000350 b7 28 0a 3d bc 84 a6 bd ec 70 ec 3d 00 9e 93 3d
       0.033730235 -0.08130786 0.11544976 0.072078705
000360 65 af 3c bd 55 2f 21 3d b6 52 32 3d f5 32 ec bd
       -0.046065707 0.03935178 0.04353591 -0.11533157
000370 0e 0f 89 bd 92 5f ba 3c da fb 60 bd c9 be 6f 3c
       -0.066923246 0.02275065 -0.054927684 0.014632889
000380 bd 5d 09 3e fc 72 81 bd ff f4 b6 3d 5d 96 b6 3d
       0.13414665 -0.0632076 0.08933448 0.08915398
000390 d8 b5 d0 3b 5f 90 03 3d 22 62 95 bc 97 df f5 bc
       0.0063693337 0.032120105 -0.01823527 -0.030013843
0003a0 10 7d cf 3c e5 2f 0f 3d 45 18 fa 3d c0 60 e6 bd
       0.02532819 0.034957785 0.1221166 -0.11248922
0003b0 f0 5f 5a 3d 55 51 f7 3c 45 42 eb 3d 2b 74 c7 3d
       0.05331415 0.03019015 0.11487249 0.09738954
0003c0 ea 72 99 3d b5 bc 10 bd 04 ec b2 bd 27 9d e8 bd
       0.07492621 -0.035336215 -0.08736423 -0.113580994
0003d0 dc 69 16 3e 23 92 58 bd a0 49 90 3d e9 8b 95 3c
       0.1468882 -0.05287374 0.07045293 0.01825519
0003e0 bd 06 33 bc 47 74 a4 bc 35 74 f3 3d b4 21 a4 bd
       -0.0109268995 -0.020074977 0.11887399 -0.08014241
0003f0 14 8b b6 39 0d f4 a8 3c 9b b1 f5 bd 65 41 80 3d
       0.00034817366 0.020624185 -0.11996766 0.06262473

lstm.bias_hh_l0 f4 [256]
000000 af 0e 84 3c 1a 6b 05 bd 50 d1 3f 3d e5 43 7e 3d
       0.016120283 -0.032572843 0.046830475 0.062076468
000010 8f e5 d2 bd a1 8a 26 3d 78 9a 9a bd 13 9c 96 3d
       -0.10297691 0.04065955 -0.07548994 0.073539875
000020 18 cf 16 bc 40 bc a3 bc 1f 10 02 3e 76 e0 a8 bd
       -0.009204648 -0.019987226 0.12701462 -0.082459375
000030 88 f5 00 bd 67 cc 0f bc 2a db dd 3d 40 e1 94 3d
       -0.031484157 -0.008776761 0.10832818 0.072695255
000040 a8 3b 4b bc fe 13 5c bd 87 c5 f5 3d 83 97 1b 3e
       -0.01240436 -0.053730004 0.12000566 0.15194516
000050 64 72 c5 bb 68 0a ee 3c a3 25 17 3d 95 ec c8 bd
       -0.0060255993 0.029057696 0.036901128 -0.098107494
000060 4d 6e d9 3d 9b 33 de bd e3 30 3e 3d 63 a0 68 3d
       0.10616741 -0.10849687 0.04643334 0.05679358
000070 14 70 b0 3c a6 fd 46 3d 66 02 a7 3c 62 db 39 bb
       0.021537818 0.04858174 0.020386886 -0.0028359522
000080 e3 27 ff 3d 80 04 84 bc 05 82 7b 3d aa 4e f4 3d
       0.1245878 -0.016115427 0.061403293 0.119290665
000090 53 af ac 3c e2 24 fe 3c 1e f4 15 bd f9 05 89 3c
       0.021079695 0.031023446 -0.03660976 0.01672648
0000a0 fa 8a fe bb 0e d9 c0 bd 02 64 6b bc 5e 09 c8 bb
       -0.007768032 -0.094164 -0.014367105 -0.0061046323
0000b0 a4 81 89 bc 9e aa 1b 3e 81 51 a5 3d db 80 68 bd
       -0.01678545 0.15201804 0.08072186 -0.05676351
0000c0 6b 80 4a 3c 6b e8 42 bd a8 5f 27 bd d2 73 ca bd
       0.012359719 -0.047584932 -0.04086271 -0.09885372
0000d0 6c 84 87 bd 54 04 cb bd 90 a8 01 3e 60 d1 97 3d
       -0.06617054 -0.09912935 0.12661958 0.07412982
0000e0 82 94 3c 3d 92 2b 69 3d 0c 7a c0 3d 6e 7c ca bd
       0.046040066 0.056926318 0.093982786 -0.09887014
0000f0 11 60 9a 3d 32 ce 37 3d 69 cd 29 3d 58 d2 ab bd
       0.075378545 0.044874378 0.04145566 -0.08389729
000100 b9 53 00 3e 35 66 22 bd 42 16 8f bd 7b 6c de bc
       0.12531938 -0.039648253 -0.06986667 -0.027151337
000110 a7 86 ff 38 08 98 13 3e 44 82 7e bb 22 e7 96 3d
       0.000121844285 0.14413464 -0.0038834969 0.07368304
000120 e9 57 fc 3c c8 2f 7a 3d f8 20 71 bd cd 2c 0b 3e
       0.030803638 0.061080724 -0.058869332 0.13591309
000130 be 59 3f bd f3 c3 06 bd 70 f4 e1 3d 14 8a 8d 3d
       -0.046716444 -0.032901715 0.11032951 0.06911102
000140 c9 57 34 3d 3e d6 cf 3c bd 9c cb 3c 15 b2 31 3d
       0.04402903 0.025370713 0.024855012 0.043382723
000150 1c 51 e8 bc 02 88 69 bc dc fd ae bc d1 c4 f7 3d
       -0.028358988 -0.014253618 -0.021361284 0.120980866
000160 21 71 27 3d d6 0c ca bc ef a1 ae bc 30 39 01 bc
       0.040879373 -0.024664324 -0.02131745 -0.00788717
000170 df e2 43 bd 45 61 15 3d 78 49 02 be 8d 9f 96 bd
       -0.047823783 0.036469717 -0.12723339 -0.07354651
000180 52 58 66 3d c8 6f 81 3a fa 6c 53 bd fe 68 1d 3d
       0.056236573 0.0009875232 -0.0516176 0.038430206
000190 59 11 ca bd ef 33 a2 bc 70 18 c6 3d 71 bd 8f 3d
       -0.0986659 -0.019800154 0.0967263 0.07018555
0001a0 68 0a 77 bc 58 f4 a0 3c 6a 47 6a bd cf 50 82 bd
       -0.015078165 0.019647762 -0.057197012 -0.06363069
0001b0 51 85 3f 3c 8b 61 09 3e df 3c 7f bd c8 c5 6a 3d
       0.0116895 0.13416116 -0.06231391 0.057317525
0001c0 7e 88 26 bd ac d1 11 3d 08 2f 84 3d 1b 86 aa 3d
       -0.040657513 0.03560035 0.06454283 0.0832636
0001d0 e6 09 a8 3d 38 79 c5 bd f0 75 0c 3d 8b b0 34 bd
       0.08205013 -0.09642261 0.03429216 -0.044113677
0001e0 31 65 1a 3e 07 17 ee bd 19 4c f4 3d 02 8e 47 bd
       0.15077664 -0.11625486 0.11928577 -0.048719414
0001f0 4a b8 2c 3e db 29 4b 3d fe 11 af bc 19 e5 d4 bc
       0.16867176 0.049600463 -0.021370884 -0.025988149
000200 82 00 5c bd 0e 14 de bc 37 4d 01 bc ad 71 23 bc
       -0.05371142 -0.027109172 -0.007891945 -0.009975833
000210 3b 0e a4 bd 11 b1 8e 3d 34 08 d8 3d 4c 19 a5 bd
       -0.08010527 0.069673665 0.105484396 -0.080614656
000220 e2 8f b1 bc 31 ce 24 bd e5 d7 f8 bd 8d 2c 92 3d
       -0.021675054 -0.040235702 -0.121505536 0.07137404
000230 26 d4 02 be d0 b4 f2 bd 26 00 12 3e b3 10 e1 3d
       -0.1277624 -0.118508935 0.14257869 0.10989513
000240 85 ca 83 3c 16 4e d2 3c 36 0b 95 3d 07 37 4d bd
       0.01608778 0.025672 0.07277529 -0.050101306
000250 f8 bb 90 3d c9 11 f2 bd 73 72 2f 3d 7e 3a ef 3d
       0.07067102 -0.118197985 0.042833757 0.116810784
000260 4a 30 d0 3c d0 a8 f3 3d 49 dd 66 3b 58 5b 08 3e
       0.025413651 0.11897433 0.003522711 0.13316095
000270 e6 38 3a 3d 44 f0 c4 bc a8 ba 23 bd 21 f7 9c bc
       0.04546442 -0.024040349 -0.03997293 -0.019160809
000280 1d 47 c7 3d 5f f9 09 3e 3c 49 ab 3b a2 1f 40 bd
       0.09730361 0.13474034 0.005227236 -0.046905167
000290 c0 21 9b bb eb 9b a5 3d fb da 3e 3a 9e 9a db bd
       -0.004734248 0.080863796 0.00072805554 -0.1072285
0002a0 ad ef 5f 3d 33 e8 dd bd 08 be 0f bd 1b 91 21 bd
       0.054671932 -0.10835304 -0.035093337 -0.039445024
0002b0 7b 42 df 3d f2 d4 3e 3d 48 a7 c2 3d 5c 76 09 3d
       0.10901352 0.0465898 0.095045626 0.033560142
0002c0 7a 5a 23 bd 12 10 0d 3d 91 8c 86 bd 2f bb c3 3d
       -0.039881207 0.034439154 -0.0656978 0.09557187
0002d0 85 d9 27 3c ac 25 be bd ad 67 bb bc bc 04 ac bd
       0.010244732 -0.09284529 -0.022876585 -0.083993405
0002e0 a8 97 ad 3d 9d 04 b9 bd ab 85 fd bd e3 88 4c 3c
       0.08476192 -0.09034083 -0.12379011 0.012483808
0002f0 4a e0 1e 3d e7 fa ef 38 98 36 4a 3d 34 5e 88 3d
       0.038788117 0.00011443142 0.04936847 0.06658593
000300 56 9f 67 3b 4f d9 14 3e 4f d1 d9 bd 9b 81 ce 3d
       0.0035342774 0.14536022 -0.106356256 0.10083314
000310 7c d1 08 3b 5b 00 87 3c 78 f0 8d bd a8 34 26 3e
       0.0020876816 0.016479662 -0.069306314 0.16231024
000320 41 22 f3 bd d6 0b b4 bd fe 84 1d 3e 4e 19 fb bb
       -0.11871768 -0.0879132 0.15382764 -0.0076629287
000330 80 df f5 3d 0e 3f f7 3d 49 d3 c1 bc 10 e5 eb bb
       0.1200552 0.120725736 -0.023660319 -0.0071989372
000340 9f 6c 56 bd e6 16 3c 3d d5 1c 80 bc ed b2 39 bb
       -0.052349683 0.045920275 -0.015638748 -0.0028335408
000350 ff 33 4e 3d 0e 44 e6 bd 39 5e ed 3d bc 8b 6a 3d
       0.050342556 -0.11243449 0.11590237 0.057262167
000360 5a 10 d0 3d 02 64 68 3d 96 78 33 3d 02 31 e5 3d
       0.10159369 0.056736 0.04381617 0.11190988
000370 54 80 7a bd fe 50 30 bd 1b 54 8e 3d 5d af 4a bd
       -0.06115754 -0.04304599 0.069496356 -0.049483646
000380 a9 ed d6 3d a7 df 03 3d 8c 3c 6f bd 69 95 c3 3d
       0.10494549 0.032195713 -0.05840735 0.09549982
000390 a6 d7 bc bd ca 08 c5 bc 1f f6 de bd 66 68 9f 3d
       -0.09220819 -0.024052043 -0.108867876 0.07783584
0003a0 0b 67 34 bd 69 d1 4b bb 10 4c 5c bd 93 ae da bc
       -0.044043582 -0.003110016 -0.053783476 -0.026694572
0003b0 64 9a 0d bd ee f9 14 3d 1a f1 88 bd 13 90 1f 3d
       -0.034571066 0.036371164 -0.066866115 0.03895576
0003c0 8a 83 0c 3e 82 07 ab bd f3 91 81 3d 02 d8 22 3d
       0.13722053 -0.083510414 0.06326666 0.039756782
0003d0 fb 1a 86 bd f3 cf f3 bc 9b 4b 1f 3e 6b ec a7 bd
       -0.06548115 -0.029762244 0.15556185 -0.0819939
0003e0 13 00 19 3e 1f 28 9c bd d9 14 05 3e cb 38 d4 bc
       0.14941435 -0.0762484 0.12996234 -0.025905987
0003f0 31 bc 24 3d 64 9e 06 3e b5 1f 99 bc 67 73 d3 bd
       0.040218536 0.13146359 -0.018691877 -0.103247456

lstm.weight_ih_l0_reverse f4 [256, 40]
000000 d1 3d 1b bd a3 b4 0c 3e 75 5d 32 bc e3 a6 45 be
       -0.03790075 0.13740782 -0.01088654 -0.19301943
000010 57 78 4c bd ca 96 ea bd fc ee 02 3e 55 5c 9e 3d
       -0.049919453 -0.11454542 0.12786478 0.07732455
000020 ab 5f 04 3d 0a 36 83 3c 15 0a b0 bc 27 42 2f 3c
       0.0323178 0.016016979 -0.021489182 0.010696924
000030 8d 72 8a 3d f7 7d 86 3d 32 cc a8 bd 96 da 02 bd
       0.0676013 0.06566995 -0.08242072 -0.03194674
000040 09 4d 46 3d ef 41 f0 3b f2 1d b8 3d 24 1d a5 3d
       0.04841331 0.0073320786 0.089900866 0.08062199
000050 3c 39 03 3e 17 9a 02 3d 98 09 41 bd 7e 60 a0 3d
       0.12814802 0.031885233 -0.04712829 0.078309044
000060 88 0c 43 bc a0 7f 3a 3d ff c8 05 3d de 97 30 bd
       -0.011904843 0.04553187 0.032662388 -0.04311358
000070 5e 41 0c 3e 49 be c5 bc 54 84 66 bd d3 db ce 3c
       0.1369681 -0.024138587 -0.05627854 0.025251305
000080 e4 64 13 3e 2c 39 ec bd d9 63 bc 3d e4 7b 8f 3d
       0.14393955 -0.11534342 0.09198732 0.07006052
000090 a2 74 e9 3a 64 1f 81 3c 6d d8 93 3d a1 f4 86 3d
       0.0017811249 0.015762039 0.07219014 0.06589628
0000a0 9c 65 40 bb a1 6a 69 3d 72 72 aa 3d e0 cf bc bd
       -0.002935744 0.056986455 0.0832261 -0.092193365
0000b0 37 12 93 bd 69 07 c4 bd f0 f1 27 3d 77 c5 6a bc
       -0.071812086 -0.09571726 0.041002214 -0.014329306
0000c0 d2 c4 03 bd d7 e1 b2 3d 7e 82 93 bd a7 f1 95 bd
       -0.032170124 0.08734482 -0.07202624 -0.07321482
0000d0 10 d3 47 bd 51 c9 cb 3c 3f 42 ec 3d 60 45 41 3d
       -0.04878527 0.024876269 0.11536073 0.0471853
0000e0 e4 1d fe 3d 8f e1 9d 3d 29 f6 1a 3b 4a 49 df 3d
       0.12408045 0.077090375 0.0023645258 0.10902651
0000f0 a6 0f d1 3d 6b 3a d6 3d 53 7b 61 b9 fe 21 f3 3c
       0.10208063 0.10460361 -0.00021503614 0.029679295
000100 51 dc a5 3d 25 30 85 bd 87 d9 62 3d 74 a3 84 3c
       0.08098663 -0.065033235 0.05538323 0.016191222
000110 e6 cd 05 bd bb 3e bb 3c 06 42 91 bd f4 a3 71 3d
       -0.032667063 0.02285706 -0.07092671 0.05899425
000120 1f 37 99 3d 5f 3f da 3d d4 db 8d bd a9 02 c8 bd
       0.07481217 0.10656618 -0.069266945 -0.097661324
000130 c1 21 a2 bd a3 a9 03 be bd 7f a5 3d c7 64 af bd
       -0.07916594 -0.1285768 0.08081005 -0.08564144
000140 55 46 9f 3d 21 d9 1e 3d 6b d5 3c 3d 43 ac 53 bd
       0.07777087 0.03878129 0.04610197 -0.051677953
000150 4a 2b 3d bd d5 d3 9f bd ec d2 8f 3d 52 25 26 be
       -0.04618386 -0.07804076 0.07022652 -0.16225174
000160 1e e7 f9 3c 53 6a 12 3c 19 8b 99 bd 71 5b a2 3d
       0.030505713 0.0089364825 -0.07497234 0.07927597
000170 26 e3 be bd d5 b8 54 3b b2 b8 2a 3d 4a c4 09 be
       -0.09320669 0.0032458801 0.041680045 -0.13453785
000180 ca 2b 44 bd 1e 24 22 bc 4c d9 b7 bc ad cd f0 bd
       -0.047893323 -0.009896306 -0.022442482 -0.117579795
000190 b7 2a 97 3c 64 ee e6 bb cc 1e 8e 3d dd 24 b7 bd
       0.018452985 -0.0070474613 0.06939468 -0.08942578
0001a0 75 c5 d1 3d 8e ff 10 be 01 e5 06 3c 7d 0e 84 3d
       0.1024274 -0.14159986 0.00823331 0.06448076
0001b0 15 f3 78 bc db ec f4 bd 7f c3 86 3c 5d aa d7 bc
       -0.015194674 -0.11959239 0.016450642 -0.026326353
0001c0 cd ca 03 3e 57 3f 0b be 2d ce 21 3d 47 64 aa 39
       0.12870331 -0.13598381 0.039503265 0.0003249964
0001d0 0d 5c 81 bd 48 d8 dd bc ff aa e1 3d 57 d5 61 3d
       -0.063163854 -0.02708067 0.11018943 0.055135097
0001e0 98 24 ed 3c 49 3a 1f bd 3b c8 cb 3c 1b 90 82 3b
       0.028948113 -0.038873944 0.02487575 0.003984464
0001f0 9c fc 60 bd b1 44 09 3c 17 b8 0b 3e 61 ba 5c bd
       -0.054928407 0.008378194 0.13644443 -0.053888682
000200 1e 69 93 bd fb e9 63 bd 52 ee e1 bb f6 b4 bb 3d
       -0.07197784 -0.055643063 -0.006894865 0.09165375
000210 93 54 94 bd c5 f1 d8 3d 38 39 cf 3c 2f b4 a5 bc
       -0.07242694 0.10592989 0.025295839 -0.02022752
000220 7b 4b 95 bd fc e0 fa bd a2 23 f0 3d 36 f3 53 3d
       -0.072897874 -0.122499436 0.117255464 0.051745616
000230 50 5a f4 bc d5 14 95 b9 7c 12 bd 3c 0d 85 a2 bd
       -0.02982822 -0.00028435016 0.023080103 -0.07935534
000240 6c 96 a4 bd 5c 5b 2f bd 91 00 d2 3d e8 98 94 bd
       -0.08036503 -0.042811736 0.10254014 -0.07255727
000250 23 0c d8 bd 45 09 ef bd e0 10 2d 3d f7 da 4c 3c
       -0.1054919 -0.1167169 0.04225242 0.012503377
000260 41 a4 85 3d dd 80 de 3a 93 25 c7 3d 4d 42 53 3d
       0.065254696 0.001697566 0.097239636 0.0515769
000270 06 54 05 3e ba 8c 1b 3d dd e6 7f 3d 78 38 92 3d
       0.13020334 0.037976004 0.062476028 0.07139677
000280 f9 ee 5b 3d 4b 44 f4 bd 10 61 82 bd d3 90 d0 bd
       0.0536947 -0.11927088 -0.063661695 -0.10183873
000290 2c db b2 bd 81 3a 33 bc a5 99 54 3d 77 a3 bb bd
       -0.0873321 -0.010939241 0.05190434 -0.09162038
0002a0 15 d7 c8 3d d2 d2 1b be 05 eb 4d bd 4f b8 ee bc
       0.09806649 -0.1521714 -0.05027296 -0.02914062
0002b0 14 c8 4c bc cb 62 db bd 1d ff 5b 3d 38 17 31 3d
       -0.012498874 -0.10712203 0.05371009 0.043235034
0002c0 29 5d 85 3d 20 b0 7c 3d 38 2e d9 bd 3b 6e 7b 3b
       0.065119095 0.061691403 -0.10604519 0.0038365263
0002d0 9f df 90 3d ce 8f bc 3a 03 28 c8 bd 17 d2 11 bc
       0.07073902 0.0014386119 -0.09773257 -0.008900187
0002e0 c6 7c 89 3d 3d e0 bc 3d 13 c8 f8 bc a7 61 87 3d
       0.06713252 0.092224576 -0.03036884 0.066104226
0002f0 d0 89 b6 3d f4 09 1f be 86 a7 f0 3d 7b a4 92 bd
       0.089130044 -0.1553114 0.117507026 -0.071602784
000300 8c 78 b7 3d 42 49 3a bd 0c b9 46 3d 20 7c 87 ba
       0.08958539 -0.04548002 0.04851632 -0.0010336675
000310 d0 68 91 bd c0 23 02 3d ff 5e a8 bb 46 de c1 bd
       -0.071000695 0.031772375 -0.0051382775 -0.094662234
000320 90 c4 fd 3d ea 1b 0f be 79 84 cc bd bb 78 ac 3d
       0.12391007 -0.13975492 -0.09986205 0.08421465
000330 18 d4 60 bd 29 85 f4 bd 96 55 cb 3b c8 53 59 3c
       -0.05488977 -0.11939461 0.006205271 0.013264604
000340 c9 2b a1 bc 4c f5 b2 bd 16 4d 89 bc 6e 14 90 bc
       -0.019674199 -0.08738193 -0.01676039 -0.017587867
000350 91 02 3a 3d 49 6a e2 3d 82 58 74 bd 9e cf d2 3b
       0.045412604 0.110554285 -0.05965472 0.0064334413
000360 91 e9 41 3d 3e ea ad 3d 75 2e 7a 3d f7 f4 a6 3c
       0.047341887 0.08491944 0.06107946 0.02038048
000370 5b 60 1b 3d 19 f1 98 3d eb 87 78 3d ec ba 43 bd
       0.03793369 0.07467861 0.060676496 -0.047785684
000380 11 fe f8 3d fd bb 9e bd c7 ea 94 3d d8 03 6f bc
       0.12157834 -0.077507 0.07271343 -0.014588319
000390 d1 21 5b bc f4 e7 05 3d b6 f4 77 bd d0 60 10 3c
       -0.013374762 0.03269191 -0.06053611 0.008812144
0003a0 47 ae 47 3d 0e d7 41 3d 15 17 4a bb 91 48 1f be
       0.04875019 0.047324233 -0.0030836512 -0.15555026
0003b0 9a ab cc 3d 3e 2c fb 3d da 1a 54 3c 18 dd 95 bd
       0.09993668 0.12264298 0.012945855 -0.07317561
0003c0 e0 d9 d5 3d 6c ab 0d 3d 8d 44 47 bd f4 4a 37 3d
       0.10441947 0.03458731 -0.04864936 0.044749215
0003d0 68 d5 cd bd 54 e2 ab bc 7c ef f7 3a b2 5d c8 3d
       -0.1005047 -0.020981945 0.0018915976 0.09783496
0003e0 d8 c6 7e 3d 77 29 05 bd 8d 90 bd bd 0f f3 a6 3d
       0.06220135 -0.032510247 -0.092560865 0.081518285
0003f0 f4 ec dd bd 97 c1 98 3d c6 09 63 bd d1 38 27 bd
       -0.10836211 0.07458799 -0.055429243 -0.04082567

lstm.weight_hh_l0_reverse f4 [256, 64]
000000 21 0a 0e be 00 d1 9e bd d8 0e 87 bd fd 6f db bd
       -0.13871051 -0.07754707 -0.06594628 -0.107147194
000010 56 87 c3 3d 88 86 f5 bc 3c 29 b8 bc fe b6 7d bd
       0.09547298 -0.029971376 -0.0224806 -0.061942093
000020 5f 75 76 bd b0 ee 9a 3c 58 92 c9 bd c1 07 4f 3b
       -0.060170528 0.018912643 -0.09842366 0.0031590315
000030 ec 09 72 3d f2 9a 01 3e 6c da 05 3e 13 10 56 3d
       0.059091493 0.12656763 0.13071603 0.052261423
000040 14 8d 50 3d 5d 8a c8 bd c0 fc bb 3c 09 60 96 3c
       0.050915793 -0.09792016 0.022947669 0.01835634
000050 a5 2b de 3c d4 b5 01 3e df 32 ab 3d cb b5 32 3d
       0.02712042 0.12667018 0.08359312 0.043630403
000060 00 46 e6 bb 92 09 08 bd c5 64 e2 3d 6a 51 e6 3d
       -0.0070273876 -0.033212252 0.110543765 0.11245997
000070 2d bc 89 bc c1 9b 25 3d 44 be 06 be 4a f8 5d bd
       -0.016813362 0.04043174 -0.13158518 -0.054191865
000080 b4 2d ee bd 1c 0c e3 bc c6 ab 14 3e 09 84 a0 bd
       -0.11629811 -0.027715735 0.14518651 -0.07837684
000090 47 ca f8 3c 8e 6a a9 3d 47 ee 8a 3d f6 94 4c bc
       0.03036989 0.08272277 0.06783729 -0.012486687
0000a0 56 1b 84 bd 46 02 55 bd 77 11 ce 3d 2b e6 6e bc
       -0.064505264 -0.05200412 0.10061925 -0.0145812435
0000b0 90 e2 93 3d 2e 7e 89 3d 29 a3 8d 3d e0 20 be bd
       0.07220948 0.0671352 0.06915886 -0.09283614
0000c0 69 e5 04 bd 26 8f 16 be f1 7b 7f 3d 38 f1 e8 ba
       -0.032445345 -0.14703044 0.06237406 -0.0017772084
0000d0 8b 39 bc bd 13 49 8a bc ff 99 4b bd ce 2a 1b 3d
       -0.09190663 -0.016880548 -0.04970741 0.03788262
0000e0 6d e7 1e 3d a5 d3 ba 3d 63 0e ef 3d f7 a0 e9 3c
       0.038794924 0.09122399 0.11672666 0.028519137
0000f0 85 e2 0b bd 9a b4 25 bd 2f 46 ab 3a 2d 2f 8c bd
       -0.034151573 -0.04045544 0.0013067181 -0.068449356
000100 bb 8a d3 3d 32 81 ac 3c c0 d0 b5 bd dd a7 b0 bd
       0.10329195 0.021057699 -0.088777065 -0.086257674
000110 b3 b0 93 bd f4 3a 37 3d ab da b4 3d a1 c0 93 3c
       -0.07211437 0.044733956 0.0883077 0.018036189
000120 20 13 ca 3d c6 e6 e2 bd 69 c5 22 3d b4 45 b7 bd
       0.09866929 -0.11079173 0.039739046 -0.08948842
000130 d5 d0 7a 3b 1e be 1d 3d 5e 2d 87 3d 37 1f 81 ba
       0.0038271446 0.038511388 0.0660045 -0.0009851222
000140 ae 24 f7 bc 23 f7 e5 3b 17 4f 99 bd 37 4e cb 3d
       -0.030168857 0.0070179864 -0.07485788 0.09927028
000150 95 49 3d bd 08 d6 97 bd 18 37 d1 3d 07 74 06 3d
       -0.04621275 -0.0741387 0.102155864 0.032825496
000160 b5 22 25 3e 0b 0d e9 bd fa 3d a7 bd dc 58 3e bd
       0.16126521 -0.11379441 -0.08166118 -0.04647146
000170 64 a9 49 bc 62 8d d4 3d 85 a2 b1 bd 45 d5 21 bc
       -0.012308452 0.10378529 -0.08673576 -0.009877508
000180 0d 25 c4 3d 71 b8 8e 3d 22 96 12 3d 0b 1d fb bd
       0.095773794 0.06968773 0.03578771 -0.12261399
000190 1a 57 73 3d b7 88 d2 3d 51 e1 21 3c 6c 32 bd 3d
       0.05940924 0.102799825 0.00988038 0.09238133
0001a0 01 bf 10 3e 05 e6 0e be 4f f1 44 3c 21 51 26 bd
       0.14135362 -0.13954933 0.012020423 -0.040604714
0001b0 25 8e 9b 3d 3e 44 86 bd ee f7 95 3c e2 bd 93 3d
       0.07595471 -0.06555985 0.018306699 0.07213952
0001c0 2e 7d 13 3d e2 2d e9 3b a1 b9 0d bb d5 f6 f6 3d
       0.036008053 0.0071160654 -0.0021625536 0.12058798
0001d0 82 a5 05 3d 41 3e 73 3c e3 3b 26 bc e5 2e a3 bb
       0.032628544 0.014846385 -0.010146114 -0.0049799555
0001e0 27 ca b2 3b b8 f0 be bc b5 0c 9d 3c e5 99 92 bb
       0.0054562273 -0.023308143 0.019171098 -0.004473912
0001f0 eb 96 e2 bd 13 f1 29 bd 7d f2 df bd 2c 0e 42 3c
       -0.110639416 -0.041489672 -0.10934923 0.011844199
000200 d4 85 23 bc 09 4c 49 bd 3e d7 3c bd 4a 58 48 bd
       -0.009980638 -0.04914478 -0.04610371 -0.048912324
000210 cc 07 ab 3c eb fa 40 3d 50 e2 f5 3c fc 08 f1 bc
       0.020877741 0.047114294 0.03001514 -0.02942323
000220 ee 51 57 3c 1e f7 a4 3d 0c 56 9d 3b a3 74 75 3d
       0.013142092 0.08054946 0.0048015174 0.059925687
000230 d6 d8 0e 3c 7b ab ee 3d 5e 13 cf 3c 69 f8 7b 3d
       0.00871869 0.11653801 0.02527779 0.0615162
000240 55 06 34 bd 3c 2a 4d bd 2d 33 91 bd c1 19 c9 3d
       -0.04395135 -0.050089106 -0.07089839 0.09819365
000250 f9 3b 79 3d da 68 93 3d 57 cb 95 bd e2 84 0c be
       0.06084821 0.07197733 -0.073141746 -0.13722566
000260 b8 e2 0a bc e6 56 42 bd d8 23 a4 bd 05 c0 14 bd
       -0.0084769055 -0.047446154 -0.08014649 -0.036315937
000270 73 ba e9 bd a8 d2 a1 3c 3a 4d d2 bb 30 60 bf 3d
       -0.114125155 0.019753769 -0.0064178975 0.09344518
000280 64 03 f0 bd 5f 42 6d bb 46 fc b8 3b 0f b0 ee 3b
       -0.11719397 -0.003620289 0.0056453077 0.0072841714
000290 de b8 14 3e ac 2b 6d bd 18 eb 4c bd 08 73 08 be
       0.14523646 -0.057902977 -0.05002889 -0.13325131
0002a0 03 a4 c1 3d 2e 2f 9c 3d b2 cf 39 bb cd 4e 5c bd
       0.09455111 0.07626186 -0.0028352556 -0.053786088
0002b0 91 0f 1b bc fc f1 76 bc a4 be 2d b9 0b ea d8 3d
       -0.009464161 -0.015072342 -0.00016569585 0.10591515
0002c0 b3 fb 4f bd a8 37 1e 3e 5f d9 ec 3d 94 67 de bc
       -0.05077715 0.15450919 0.11564898 -0.027149
0002d0 01 53 9e 3d 00 ca 72 bd 5a f4 75 3d fd a1 d1 3d
       0.077306755 -0.059274673 0.060047485 0.10235975
0002e0 8e a1 c2 3d 7c 45 c4 bd 00 02 2f bd 13 51 a2 3d
       0.0950347 -0.095835656 -0.042726517 0.0792562
0002f0 3d 44 b6 3d 72 11 77 3d 29 5d 2d bd 23 8c c7 3d
       0.08899734 0.06031937 -0.042325173 0.09743526
000300 4e b0 ce bc 77 dd f0 3d 8a cc 01 3e ac d9 06 bd
       -0.025230553 0.11760991 0.12675682 -0.03292243
000310 1e c5 98 bc b1 d2 13 3c da 64 cc 3d e2 0d 64 bd
       -0.01864868 0.009022401 0.099801734 -0.055677302
000320 95 63 30 3a 41 b7 01 3e 12 31 4d 3d ca d4 46 3d
       0.0006728706 0.12667562 0.050095625 0.048542775
000330 94 ae 6e bd 9a 9f 51 bd 64 19 97 3d eb 10 64 3d
       -0.05827196 -0.0511776 0.0737789 0.055680197
000340 80 7d 5f bd 9d a5 0a 3d 20 03 f3 bc 8e 24 8c bd
       -0.054563046 0.033849347 -0.029664576 -0.0684291
000350 ea 93 a4 ba 31 9b 39 bc c2 65 19 bd d2 ac 00 3e
       -0.0012556289 -0.011328504 -0.03745056 0.12565926
000360 c4 2e 5a bd 5f 3c bd bd 65 2b 93 3c f7 b8 97 bd
       -0.053267255 -0.092400305 0.017965028 -0.07408326
000370 d1 a1 18 3e ea b4 04 3d 38 50 91 bd 37 41 85 bd
       0.14905478 0.032399096 -0.07095379 -0.06506579
000380 b7 6d a4 bd b5 5f 01 be 1a 6d e9 3d 22 c7 a4 bc
       -0.08028739 -0.12634166 0.113977626 -0.020114485
000390 13 1c 1d bc 98 c8 d2 3d ab 9b 40 bd 96 83 a2 3d
       -0.009589213 0.102921665 -0.047023457 0.07935254
0003a0 74 41 aa 3b 95 f7 a8 3d 3e 52 18 bd 36 5b 0c bd
       0.005195791 0.082503475 -0.037187807 -0.034266673
0003b0 e8 ab ea bb 7b 85 c7 bd 64 5c aa 3d 0f e1 f6 3c
       -0.007161606 -0.09742256 0.08318403 0.030136613
0003c0 5f 12 a7 bd e4 6f 40 3c 3c 1b 9a 3d 67 04 95 bd
       -0.08157801 0.011745427 0.07524726 -0.0727623
0003d0 d0 31 12 3e 25 3e 77 3c 7d 30 c8 3d e1 0b e2 bd
       0.14276814 0.0150905 0.097748734 -0.11037422
0003e0 37 6a 6d 3d 32 74 cf bc b9 2f a4 bd 82 09 91 3d
       0.057962622 -0.02532396 -0.08016915 0.070818916
0003f0 5d 74 b9 bb b9 50 a9 bc 5c 64 64 3d 08 c0 2f bc
       -0.0056596235 -0.020668374 0.055759773 -0.010726936

lstm.bias_ih_l0_reverse f4 [256]
000000 3d 22 9e bd f3 e0 b4 bc df 75 34 3e 54 d8 eb 3c
       -0.07721374 -0.02207992 0.17623089 0.028789677
000010 d7 65 5a 3d 76 24 1c 3c 23 7a fa 3d 17 9d ca bd
       0.05331978 0.009530177 0.12230327 -0.09893244
000020 00 36 8a bc ed 59 97 bd 6f fb 3b 3d da 7d af 3d
       -0.016871452 -0.07390199 0.045894083 0.08568926
000030 50 b6 b9 3d ca 48 24 3d 53 d6 67 3d 00 f8 cc bd
       0.090679765 0.04010848 0.05660088 -0.1000824
000040 b2 cf 5c 3e dc b5 86 3d 51 73 ea 3d 51 74 a0 3d
       0.21563604 0.06577656 0.11447776 0.078346856
000050 5e a3 4a bd 0f cc 66 bd d7 2d 8c 3c e2 0c 67 3d
       -0.049472205 -0.05634695 0.017111702 0.05640877
000060 c3 d8 70 3c 4f 1e 24 bd f3 d1 b6 3d 8e 4f 86 bd
       0.0147001175 -0.040067967 0.089267634 -0.065581426
000070 4a 50 5e bd 15 81 8f 3d d8 13 8f 3c 74 a8 aa bb
       -0.05427579 0.07007042 0.017465517 -0.0052080695
000080 65 f3 47 bd 05 bf 6e 3d 9e 8e ab bd c8 28 d6 3d
       -0.048816103 0.05828764 -0.083768114 0.10456997
000090 da bb 31 3d a4 8b ab 3d 87 0c ac bd 38 d4 1f bd
       0.04339204 0.08376244 -0.08400827 -0.039020747
0000a0 9b ce d3 3d a3 88 d2 bd 30 db b4 bd 44 3d d6 3d
       0.10342141 -0.10279968 -0.08830869 0.10460904
0000b0 60 bb 76 3d 07 4e b0 3d a9 b2 cb 3d 76 6a 85 3b
       0.06023729 0.086086325 0.09946186 0.004071529
0000c0 33 30 80 3c 24 38 e5 3d c9 41 fc 3c 31 2f 1e bd
       0.015647983 0.111923486 0.030793088 -0.038619224
0000d0 31 ad 6a 3d 75 d7 9e bd 14 5a 9a bc b8 99 3f 3d
       0.057294074 -0.07755939 -0.01884178 0.046777457
0000e0 38 a9 df 3c 7d ae de bd 5d fe c5 bd b2 3b 9b 3d
       0.02730237 -0.10873125 -0.096676566 0.07579745
0000f0 6d d4 66 3d 37 52 fa 3c 0d 33 26 3c b6 67 47 3d
       0.05635493 0.030556781 0.010144007 0.04868289
000100 d8 f8 62 bd ae 42 20 3d 53 95 8c 3c 48 17 78 bd
       -0.055413097 0.03912609 0.017161047 -0.060569078
000110 90 13 da 3d 98 0c 9f 3d 2e c5 d2 bd 9b 66 a9 bc
       0.106482625 0.07766074 -0.10291515 -0.020678809
000120 90 66 07 bc e9 fd 2b bd 26 e8 08 3e 9a 64 20 3c
       -0.008264199 -0.041990194 0.13369808 0.00978961
000130 7a ea 02 3d 38 a7 44 3d 61 9d 21 3b 13 d5 9d bd
       0.031961896 0.048011035 0.0024660456 -0.07706656
000140 1d c9 18 3e 21 a3 91 3d 75 22 da 3d 5c 3e 5c bc
       0.14920469 0.071111925 0.106511034 -0.013442602
000150 df b6 d6 bd c6 ba 98 3d 2b 70 28 bd fa b3 f7 3c
       -0.10484099 0.07457499 -0.041122597 0.030237187
000160 b1 b2 b3 bd ff e0 44 3d 27 6a 8a 3d 83 72 10 3d
       -0.08774317 0.048066135 0.06758528 0.035265457
000170 4a 45 23 bd e8 40 c8 bc e9 46 f3 3d 3a e7 fa 3d
       -0.039861 -0.024445012 0.118787594 0.12251134
000180 60 74 ac 3d eb d9 82 bb c9 8a 76 3d 0e 1a b8 bd
       0.08420634 -0.003993263 0.06019095 -0.089893445
000190 35 1c d9 bc 26 d9 42 bd 1f 64 1a 3e d2 b0 ee 3b
       -0.026502708 -0.04757037 0.15077256 0.007284262
0001a0 a0 8f c3 3d 6f 30 cd bd 57 ad a0 bc cd 06 a7 3c
       0.09548879 -0.100190036 -0.019613905 0.020388985
0001b0 f4 97 92 bc 10 64 5f 3c ac 41 c3 3d 55 d0 f0 bd
       -0.017894723 0.013634697 0.0953401 -0.11758486
0001c0 5d b2 b7 bd ca 57 86 bc f3 d6 c3 3d 18 f8 f2 3c
       -0.08969567 -0.016399283 0.09562483 0.029659316
0001d0 86 3a 6f bd cc 84 27 3d f2 a3 aa bc 54 6e 49 bd
       -0.05840542 0.04089813 -0.020830128 -0.049177483
0001e0 70 ca 4b bd 71 c2 dd 3c 73 50 88 bd 41 aa d6 3d
       -0.049753606 0.027070256 -0.066559695 0.10481692
0001f0 fe 50 e7 3d ce 61 9c bd a6 0d da bc e3 43 33 3d
       0.11294745 -0.07635842 -0.026617836 0.043765914
000200 4a 8c 94 bd 3e 91 52 3d 02 2a ad bd cc bd b2 bd
       -0.072533205 0.051408045 -0.08455278 -0.08727607
000210 b2 b4 aa 3d 1d 37 8d bd ff 2a 80 3d 75 35 ae bd
       0.08335246 -0.06895278 0.06258201 -0.0850629
000220 e1 d7 d4 bd 51 8d f2 bd b4 bf db 3d ed b4 2f 3b
       -0.10392738 -0.1184336 0.10729924 0.002681072
000230 f1 39 30 3d 64 4b f1 bb 99 51 a1 3d 3e 58 58 bd
       0.043024007 -0.0073637236 0.07876892 -0.05281853
000240 15 23 14 3c 54 4a a9 3d 2b 6b 93 3d 6b 21 7e bd
       0.009041567 0.0826613 0.07198175 -0.06204359
000250 46 2c 87 bd 3d c3 ac bc 24 b0 c0 3d 33 8a e1 3d
       -0.06600241 -0.02108919 0.09408596 0.110126875
000260 ac 92 ba bd ab c7 d9 3c 18 14 cb 3d 97 a5 9a 3d
       -0.09110007 0.026584467 0.09915942 0.07551115
000270 c9 f4 34 bd 07 ab 15 bd 0c e4 e8 3d 36 2a 55 bd
       -0.044178758 -0.036540058 0.113716215 -0.05204221
000280 6b 24 3a bd 69 1d 42 3c 2d ce b4 bc 8a 49 dd 3d
       -0.045444887 0.011847832 -0.022070969 0.10805042
000290 87 f5 d3 bd 2e fb d2 3d ea 31 68 bd e0 15 ac bd
       -0.10349565 0.10301815 -0.056688227 -0.0840261
0002a0 46 18 e7 3d a9 2d b0 3d a6 01 bb bc c2 b9 8e ba
       0.11283927 0.08602459 -0.022827934 -0.00108891
0002b0 96 4a 4f bd ec 11 05 be 49 72 72 3d ed a8 7b bc
       -0.05060824 -0.12995118 0.059191022 -0.015360099
0002c0 80 fe d8 bd c2 eb 7c bc 63 62 80 3d 8f 1c 2d 3d
       -0.10595417 -0.015437068 0.06268766 0.042263564
0002d0 62 38 c9 3d 8d 46 30 3c 54 67 f5 3d dc 38 7c bd
       0.09825207 0.010759008 0.11982599 -0.061577663
0002e0 ef f4 3c 3b 76 74 7a bd 02 23 47 bc 3a 00 89 3c
       0.0028832515 -0.061146222 -0.012154343 0.01672374
0002f0 69 d4 d1 3d 80 fd 58 bd e6 5e 82 3d f5 9d e7 bc
       0.10245592 -0.05297613 0.06365757 -0.028273562
000300 ec ba 07 3e 97 fa fe 3d 46 3f 19 3e a0 fa be 3c
       0.13254899 0.1245014 0.14965543 0.023312867
000310 d1 de 0a 3e 4c 25 b4 3d bf 01 90 3d 16 10 8b bd
       0.1356156 0.08796176 0.07031583 -0.067901775
000320 73 c4 63 3d 68 9c db 3d e8 a4 9a 3d 07 c0 9d 3c
       0.05560727 0.107231915 0.075509846 0.019256605
000330 9a 3d 36 3d c3 a1 ce bd 11 84 8c 3d fb 10 dc bc
       0.04449234 -0.10089447 0.06861127 -0.026863566
000340 b0 d3 04 3e ea 90 1f 3d 05 07 87 bc f2 f9 97 3d
       0.12971377 0.03895656 -0.01648284 0.0742072
000350 2f 93 58 3d d1 b8 ca bd 1d cf 55 bd 2f 0d 1c 3e
       0.05287474 -0.09898532 -0.05219947 0.15239404
000360 0d b3 da bb 86 67 b0 3b bc 0d a2 bd e9 2c d9 bb
       -0.0066741765 0.0053834347 -0.07912776 -0.006627668
000370 bc 80 b9 bd 4e 54 86 3d f6 38 a7 3d 57 07 8a bc
       -0.09057757 0.065590486 0.08165161 -0.016849203
000380 52 43 b4 3c 0b 5e c2 3d 59 34 e6 bc 0e 5f 7a 3b
       0.022004757 0.094905935 -0.028101133 0.003820363
000390 d4 2b ad 3c 04 ff 38 3d 94 db 3b 3d b0 c4 ab 3c
       0.021139063 0.045165077 0.045863703 0.020967811
0003a0 59 b7 07 bd 36 32 c9 3b 62 fe c1 3d 88 42 1b bd
       -0.03313384 0.006140019 0.09472348 -0.037905246
0003b0 f7 24 cb 3d ef b5 79 bd 46 b6 c5 bd a3 10 ea bd
       0.0991916 -0.06096452 -0.096539065 -0.114289545
0003c0 b6 31 01 3e 9d c0 d6 3c 92 e2 88 3b 7f 01 d7 3c
       0.1261662 0.026214892 0.0041774 0.02624583
0003d0 6d 66 36 bd 80 09 0b 3e 18 2c 77 3d c7 7b 14 3c
       -0.044531275 0.13577843 0.060344785 0.009062714
0003e0 0b 4f 0f bd ee 42 4a 3d 75 9d 3b 3c 67 1c 98 bd
       -0.03498749 0.049380235 0.011451115 -0.07427292
0003f0 94 a0 e2 3b 7d 37 a1 3d c9 93 7f 3c 49 ff 16 3e
       0.006916115 0.07871912 0.0155992 0.14745821
