trained_models/Archive/LSTM/LSTM_Zscore_CF1_pred_4.pth (torch, 661823 bytes, 23 tensors)

lstm.weight_ih_l0 f4 [256, 40]
0.07327067 -0.11228839 0.03460703 -0.06210166 0.006399012 -0.086386144 0.037253 0.073475935
0.011882333 0.09458314 -0.08928285 0.036599472 -0.04287218 0.11853688 -0.016877111 -0.045378175
-0.052674554 -0.033267744 0.10536608 0.09819996 -0.081569344 -0.014202872 -0.01373642 0.053050615
-0.05063418 -0.10910201 -0.008062129 0.02706269 -0.06503927 0.118156865 -0.026372183 0.05226117
-0.06272429 0.097123034 0.021499708 -0.15119813 -0.06391967 -0.097645424 -0.12000445 0.07718751
-0.12876332 0.12367342 0.05663973 0.10535351 0.010076477 -0.0011008458 -0.10477076 0.078351825
-0.04886019 0.11626113 -0.031293783 0.02481103 -0.11862908 -0.13656747 -0.10164896 -0.07013013
-0.08613657 -0.011435973 0.08870989 0.086741656 0.08042377 0.015434423 0.031652667 0.00860648
-0.06233181 -0.060096085 -0.055109546 -0.08383581 0.012944513 -0.10367527 -0.002550569 -0.052585457
-0.021744436 0.059696864 -0.12471945 0.05501996 -0.06165335 -0.054898053 -0.026447862 0.0922149
-0.06817182 0.14333679 -0.13145189 0.0793809 -0.13119821 0.10367776 -0.095883645 0.09673711
0.06522689 0.08525334 0.017906306 0.08354808 -0.08700526 0.13685386 0.046842534 -0.09301479
0.031184308 0.05387387 0.007844704 0.10595332 0.0514255 0.085836664 0.017288396 -0.0468107
0.061981056 0.13057718 0.066743925 -0.085953414 -0.03230374 0.068106554 0.005803599 -0.008650403
-0.046588253 0.08203113 -0.115109295 0.011799363 -0.07716291 -0.13304548 0.11102493 0.09072096
-0.0058371406 -0.03834757 -0.11547141 0.07259488 0.09117053 -0.11943291 -0.11813645 -0.025812715
0.03711292 -0.07879842 -0.058058638 -0.11775433 -0.018185295 -0.10162813 0.07867141 -0.12266467
0.12349236 -0.09947083 -0.00076979055 -0.006759241 0.017262442 -0.037106328 0.037458543 -0.02588315
0.120163195 -0.09523346 0.036400564 -0.14070483 -0.02055138 -0.0991531 0.052886777 -0.097811714
-0.07684805 -0.06644888 0.12733145 -0.07630891 0.118003726 -0.0037767582 -0.049764365 -0.029402988
-0.009202659 0.09662936 -0.10979497 0.04416383 -0.0018862084 0.11428693 -0.07821903 -0.034785744
-0.12364769 0.04302572 0.06645581 0.11776861 -0.071358845 0.08591356 -0.020233741 -0.122817814
-0.05723144 0.017380193 0.0028963499 0.08530554 0.021690927 0.07462665 0.039567467 0.03035646
0.068904124 0.052518655 0.021819135 0.061006017 0.10791204 -0.06292577 0.004611586 0.07552166
-0.105217665 -0.07763576 0.07010002 0.088654354 -0.08615319 -0.08610342 -0.10390201 0.14171194
0.03610235 -0.07479581 -0.102539845 -0.05585896 -0.07306325 0.008020194 -0.095520385 0.062492087
0.024726316 0.07189262 -0.017222242 0.09385683 -0.018417833 0.13616385 0.0971057 0.057240672
-0.093383625 0.105527475 -0.014370188 -0.041309215 -0.13861278 -0.06279494 0.09846586 -0.013098744
-0.07958725 0.00094707863 -0.00438218 0.07000321 0.00864501 -0.10620507 0.057223704 -0.0082208365
-0.11403557 -0.019862685 -0.095277086 0.06954924 -0.10386917 0.084378585 0.039401438 -0.043703385
-0.075801186 0.051597625 0.13376819 0.06547911 -0.055115595 0.055281047 0.008684233 -0.1145047
0.10912101 0.031185806 0.013682051 -0.07829882 0.033366773 -0.15152255 -0.10111406 0.0072816676
00000000: ef0e 963d 75f7 e5bd 1ac0 0d3d 4f5e 7ebd
00000010: ceae d13b 38eb b0bd 9a96 183d 8d7a 963d
00000020: 1eae 423c ceb4 c13d edd9 b6bd 54e9 153d
00000030: bd9a 2fbd 77c3 f23d de41 8abc 77de 39bd
00000040: 46c1 57bd c243 08bd 2cca d73d 101d c93d
00000050: d40d a7bd 2ab3 68bc b90e 61bc 9a4b 593d
00000060: c965 4fbd e070 dfbd 0517 04bc 93b2 dd3c
00000070: 4f33 85bd 3afc f13d 7a0a d8bc cf0f 563d
00000080: 9875 80bd 71e8 c63d 2820 b03c afd3 1abe
00000090: 51e8 82bd 53fa c7bd e5c4 f5bd 7c14 9e3d
000000a0: 88da 03be 7d48 fd3d 10ff 673d 95c3 d73d
000000b0: cf17 253c 414a 90ba 0d92 d6bd ec76 a03d
000000c0: 9f21 48bd 511a ee3d e92d 00bd 8040 cb3c
000000d0: cef3 f2bd 58d8 0bbe 542d d0bd 63a0 8fbd
000000e0: 5f68 b0bd f35d 3bbc 88ad b53d 9ca5 b13d
000000f0: 38b5 a43d aae0 7c3c 3aa6 013d 3202 0d3c
00000100: a44f 7fbd 5027 76bd 8cba 61bd 1cb2 abbd
00000110: 3915 543c b353 d4bd 7227 27bb d963 57bd
00000120: 6321 b2bc b384 743d e96c ffbd 9c5c 613d
00000130: 3988 7cbd c8dc 60bd 30a9 d8bc 2adb bc3d
00000140: ab9d 8bbd e1c6 123e 539b 06be 7492 a23d
00000150: d358 06be 0155 d43d a55e c4bd 1b1e c63d
00000160: ad95 853d 4e99 ae3d 3fb0 923c 411b ab3d
00000170: d02f b2bd 6b23 0c3e f5dd 3f3d 8a7e bebd
00000180: 3c76 ff3c d9aa 5c3d 1387 003c 0efe d83d
00000190: 8ca3 523d 22cb af3d 65a0 8d3c 94bc 3fbd
000001a0: d9df 7d3d 06b6 053e 0ab1 883d 5808 b0bd
000001b0: ed50 04bd 737b 8b3d 1e2c be3b 6bba 0dbc
000001c0: 53d3 3ebd f0ff a73d 6cbe ebbd 1e52 413c
000001d0: 9607 9ebd 133d 08be 0a61 e33d e9cb b93d
000001e0: 7c45 bfbb 5712 1dbd 467c ecbd a0ac 943d
000001f0: 9db7 ba3d 3e99 f4bd 86f1 f1bd 3075 d3bc
00000200: b803 183d 1161 a1bd e5ce 6dbd 2f29 f1bd
00000210: 54f9 94bc 6922 d0bd 7a1e a13d 9d37 fbbd
00000220: 90e9 fc3d 5db7 cbbd c5cb 49ba a07c ddbb
00000230: f769 8d3c cefc 17bd 216e 193d e608 d4bc
00000240: 1f18 f63d c309 c3bd c218 153d ed14 10be
00000250: 5e5b a8bc c810 cbbd ce9f 583d 8251 c8bd
00000260: 8362 9dbd 5a16 88bd 2d63 023e d947 9cbd
00000270: f0ab f13d 7d83 77bb b8d5 4bbd 89de f0bc
00000280: c0c6 16bc 9de5 c53d 2fdc e0bd 22e5 343d
00000290: a73a f7ba 440f ea3d 4c31 a0bd 7f7b 0ebd
000002a0: 003b fdbd bd3b 303d fc19 883d ab30 f13d
000002b0: 9624 92bd 73f3 af3d 3bc1 a5bc e887 fbbd
000002c0: 846b 6abd e860 8e3c b0d0 3d3b acb4 ae3d
000002d0: 2cb1 b13c dbd5 983d 7f11 223d 1cae f83c
000002e0: 9b1d 8d3d cd1d 573d 0bbe b23c 72e1 793d
000002f0: fd00 dd3d 3adf 80bd ca1c 973b 1aab 9a3d
00000300: 5c7c d7bd 7fff 9ebd 9990 8f3d 6a90 b53d
00000310: 1571 b0bd fd56 b0bd 94ca d4bd ef1c 113e
00000320: 0fe0 133d 8c2e 99bd 6900 d2bd 5dcc 64bd
00000330: 2fa2 95bd 2267 033c 31a0 c3bd b4f7 7f3d
00000340: d88e ca3c 703c 933d a915 8dbc 0238 c03d
00000350: ffe0 96bc 896e 0b3e 5adf c63d 3275 6a3d
00000360: ea3f bfbd ca1e d83d f070 6bbc da33 29bd
00000370: 82f0 0dbe a29a 80bd 78a8 c93d 1d9c 56bc
00000380: a4fe a2bd 5f45 783a 6498 8fbb d85d 8f3d
00000390: cda3 0d3c 0b82 d9bd 6763 6a3d b0b0 06bc
000003a0: 7b8b e9bd 12b7 a2bc a220 c3bd d56f 8e3d
000003b0: 5cb9 d4bd aece ac3d 6763 213d 5202 33bd
000003c0: a73d 9bbd 0858 533d 87fa 083e e919 863d
000003d0: e4c0 61bd 616e 623d 5048 0e3c 7181 eabd
000003e0: d67a df3d 6079 ff3c ae2a 603c 225b a0bd
000003f0: 99ab 083d ba28 1bbe e314 cfbd 0e9b ee3b

lstm.weight_hh_l0 f4 [256, 64]
-0.10676506 -0.01670762 0.0053045913 0.10884235 -0.115016386 -0.040564016 0.096715 0.03235489
-0.03213616 0.04958124 0.06449788 -0.036045603 -0.0892797 -0.00022725153 -0.0900751 0.095182054
-0.0059366487 0.014785675 -0.118982084 -0.051633686 -0.08833455 0.13240299 -0.0042343996 0.10453062
-0.11903531 0.08331857 -0.034290466 0.13169777 0.007541424 -0.10508323 0.013551219 0.10555685
0.04806043 0.1553399 0.004503748 -0.039776832 -0.049479086 0.030709201 0.038660817 0.05611084
0.0472809 0.09810739 -0.045156363 0.03052815 -0.005093476 -0.08906009 0.11844724 -0.11603584
0.10450564 0.048480768 0.07701039 0.11218447 0.040609136 -0.012717432 0.07205155 -0.10225158
0.024313558 0.038761046 -0.021253193 0.053507745 -0.03959483 -0.099981576 -0.06457906 -0.06327718
0.036906395 -0.09872728 0.04290991 0.026671005 -0.008628003 0.00593279 0.021851322 -0.03399575
-0.07829791 -0.13250601 -0.10657767 0.004540365 0.020587135 0.10418837 -0.05355267 -0.013235119
-0.13135318 -0.011729333 -0.08935794 -0.08734004 -0.08022159 0.018216413 0.0186008 -0.04185273
-0.09094663 -0.15779682 -0.07778381 -0.006647755 0.0171197 0.021048464 0.00036681688 0.020476714
0.08535552 0.10212168 0.11003887 -0.10814803 0.12191986 -0.030395323 0.07580647 0.111782715
0.031890396 0.019628357 -0.051139586 0.039181832 0.064091794 -0.051243704 -0.068835706 0.117190465
-0.077837534 -0.061328404 -0.048542555 0.0895054 0.10746983 0.055722974 -0.051867843 -1.2147524e-05
0.11549317 -0.0017714808 0.07983738 0.118960984 0.039254144 0.04267718 0.056713726 -0.0236295
-0.019470897 0.044066194 0.072863586 -0.09942883 -0.0073481216 -0.005431276 -0.14104086 0.024078295
-0.055440117 -0.03147808 0.05195898 -0.07704195 -0.06683036 0.0644962 0.10791481 -0.06861726
-0.10103432 -0.1283954 -0.003482828 0.020118767 -0.078161195 -0.13879906 -0.1265766 0.10331212
-0.08039631 -0.07089575 -0.08260328 0.08109453 -0.08148559 -0.12506424 -0.0043895184 -0.09308754
-0.031567756 0.13111024 0.08587751 -0.10049974 -0.09645361 0.12792267 -0.008315706 0.028896043
0.08061904 0.083626986 -0.046140283 0.12627007 0.030179858 -0.063213676 0.13179438 -0.044514246
0.05261793 -0.08575802 -0.07820888 0.03469391 -0.043214526 -0.05838684 0.09485696 -0.04170103
-0.032274924 0.0665697 0.12015409 -0.030795667 -0.05891381 0.06522354 -0.068284295 -0.03160561
0.08102052 -0.100765586 0.071794376 -0.06879114 0.1086647 -0.00719697 -0.09243438 -0.070511654
-0.004518207 0.059906 0.0022537515 0.08039024 -0.13443317 -0.014912849 -0.059823297 0.080433026
0.103490055 -0.10345791 0.07615703 0.07290186 0.08467813 0.045977887 -0.057478268 0.082680106
0.081930116 -0.06338504 0.081618905 -0.116131544 0.046080112 0.11639462 0.08589048 -0.06635628
0.044667073 0.104358874 -0.07156487 0.045004874 0.09615538 0.088235594 0.05405689 -0.0068461243
-0.08440318 0.05165021 0.009548676 -0.019456109 0.08819216 -0.009039749 -0.119793564 -0.1258642
0.020673413 -0.06295923 0.1089539 0.10398719 -0.089989886 0.037598267 -0.07521082 0.092614315
0.04500556 -0.13484102 -0.01686689 0.0133398 0.037500195 0.047937296 0.120723695 -0.08168735
00000000: a4a7 dabd 6bde 88bc 23d2 ad3b bde8 de3d
00000010: b68d ebbd 7426 26bd 8412 c63d 9086 043d
00000020: 35a1 03bd b315 4b3d 7717 843d 8ea4 13bd
00000030: 46d8 b6bd 5e4a 6eb9 4b79 b8bd cfee c23d
00000040: 3888 c2bb 9e3f 723c e1ac f3bd d87d 53bd
00000050: bfe8 b4bd a694 073e b8c0 8abb 2614 d63d
00000060: c9c8 f3bd eda2 aa3d 2974 0cbd c8db 063e
00000070: 0d1e f73b e035 d7bd ef05 5e3c 312e d83d
00000080: 03db 443d 6c11 1f3e 2d94 933b 08ed 22bd
00000090: 95aa 4abd dd91 fb3c ce5a 1e3d 7bd4 653d
000000a0: 9ea9 413d 87ec c83d e1f5 38bd 2c16 fa3c
000000b0: 2ce7 a6bb 2365 b6bd 7794 f23d 33a4 edbd
000000c0: 0e07 d63d c593 463d a0b7 9d3d f9c0 e53d
000000d0: c455 263d c75c 50bc c38f 933d 4769 d1bd
000000e0: 3a2d c73c e7c3 1e3d 2d1b aebc f02a 5b3d
000000f0: 302e 22bd 24c3 ccbd 0742 84bd 7797 81bd
00000100: 292b 173d 8731 cabd 4dc2 2f3d 277d da3c
00000110: 785c 0dbc da67 c23b 8b01 b33c 213f 0bbd
00000120: a85a a0bd a8af 07be 6545 dabd 58c7 943b
00000130: 5aa6 a83c b660 d53d 0b5a 5bbd 1dd8 58bc
00000140: 7381 06be 632c 40bc 4c01 b7bd 56df b2bd
00000150: 384b a4bd 963a 953c b460 983c c56d 2bbd
00000160: 3a42 babd 7d95 21be 1e4d 9fbd 69d5 d9bb
00000170: 9d3e 8c3c d46d ac3c 5451 c039 c8be a73c
00000180: e0ce ae3d 2c25 d13d 0f5c e13d b77c ddbd
00000190: 1fb1 f93d 9dff f8bc 6c40 9b3d 56ee e43d
000001a0: 819f 023d a6cb a03c be77 51bd 217d 203d
000001b0: 8f42 833d ebe4 51bd bcf9 8cbd 8e01 f03d
000001c0: 4969 9fbd 7e33 7bbd 8fd4 46bd 9b4e b73d
000001d0: 2419 dc3d c63d 643d 6073 54bd 38cd 4bb7
000001e0: af87 ec3d 0831 e8ba c881 a33d d1a1 f33d
000001f0: f4c8 203d 44ce 2e3d a74c 683d a792 c1bc
00000200: 6e81 9fbc c17e 343d 8139 953d 58a1 cbbd
00000210: 83c8 f0bb d8f8 b1bb 046d 10be d83f c53c
00000220: 2d15 63bd 29ef 00bd f0d2 543d 2bc8 9dbd
00000230: 5bde 88bd 9516 843d 7102 dd3d 3587 8cbd
00000240: 15eb cebd 157a 03be 2840 64bb 1dd0 a43c
00000250: fa12 a0bd 5721 0ebe 4c9d 01be 4e95 d33d
00000260: d2a6 a4bd ca31 91bd e92b a9bd e414 a63d
00000270: ebe1 a6bd d710 00be f3d5 8fbb aea4 bebd
00000280: 314d 01bd c341 063e 8ce0 af3d cfd2 cdbd
00000290: 7889 c5bd 29fe 023e 993e 08bc 65b7 ec3c
000002a0: 981b a53d a044 ab3d 98fd 3cbd f14c 013e
000002b0: c03b f73c 2c76 81bd 1bf5 063e 9254 36bd
000002c0: e685 573d e7a1 afbd fa2b a0bd 341b 0e3d
000002d0: b701 31bd 0a27 6fbd 5e44 c23d b3ce 2abd
000002e0: b632 04bd b255 883d 5913 f63d 3247 fcbc
000002f0: 9b4f 71bd eb93 853d a3d8 8bbd e274 01bd
00000300: 16ee a53d 305e cebd ee08 933d 5fe2 8cbd
00000310: 998b de3d 8fd4 ebbb 3c4e bdbd 6a68 90bd
00000320: 780d 94bb fe5f 753d adb3 133b a3a3 a43d
00000330: d9a8 09be 0655 74bc 4609 75bd 12ba a43d
00000340: 98f2 d33d bee1 d3bd 38f8 9b3d 924d 953d
00000350: ba6b ad3d 4f53 3c3d 556e 6bbd 3054 a93d
00000360: faca a73d 04d0 81bd d027 a73d 60d6 edbd
00000370: 80be 3c3d 4d60 ee3d 59e7 af3d cde5 87bd
00000380: d2f4 363d 1bba d53d 9a90 92bd 0857 383d
00000390: 1ded c43d ddb4 b43d c26a 5d3d 7455 e0bb
000003a0: 93db acbd 2c8f 533d 0d72 1c3c 6b62 9fbc
000003b0: 179e b43d 751b 14bc 5456 f5bd 8be2 00be
000003c0: 4a5b a93c c5f0 80bd 3923 df3d 3cf7 d43d
000003d0: 9e4c b8bd a400 1a3d 2108 9abd 93ac bd3d
000003e0: c057 383d c413 0abe 6f2c 8abc 2d8f 5a3c
000003f0: ce99 193d e659 443d fc3d f73d b34b a7bd

lstm.bias_ih_l0 f4 [256]
0.06935314 -0.03368935 -0.10108021 0.092868865 -0.05027457 0.11032422 0.024329929 -0.10119756
0.05964524 0.11214253 0.1119963 0.13263488 0.07344063 -0.006191448 0.02709024 0.045470215
0.12654978 0.0581674 0.08101982 0.0963485 0.064295806 -0.022113895 0.1475678 0.004720279
-0.08165975 -0.060625464 0.060029294 0.076919846 -0.051923085 0.0025054654 0.10128118 0.12087104
-0.109523006 0.038356446 0.029755041 0.08447971 -0.04285587 0.12008399 -0.023148697 -0.10043042
0.09979724 -0.0036909261 0.07080533 0.042405017 -0.015358841 -0.04631828 -0.024004247 -0.06499974
0.11531183 0.06546151 0.07991624 0.05036044 0.10840949 -0.0795262 0.076150894 0.10515402
-0.009483647 -0.07787187 0.14693797 -0.048472073 -0.087356806 0.099974476 -0.025804644 0.029077685
-0.077038325 0.11554502 -0.0217425 0.11749599 0.096574076 0.049802512 0.087526165 0.11109861
-0.08085935 0.03547796 -0.017248502 0.03968884 0.08835861 0.038544547 -0.032920584 0.08070649
-0.06310711 0.13316013 -0.03609628 0.035552245 0.0073270914 -0.05133862 0.059483007 0.084880054
0.069163516 0.038247064 0.06590148 0.024578951 0.0577635 -0.040521104 -0.08814794 -0.018221166
0.082667366 0.008410521 0.12176738 0.100853376 -0.095360495 0.1339087 0.092758246 0.013810466
-0.07751311 0.0034255134 0.10427484 -0.003728292 -0.026611594 -0.047996584 -0.051573396 0.003785967
0.13348354 0.14674391 0.0838371 -0.0903401 0.017143734 0.007267102 0.07260007 -0.0880306
0.058102895 0.12288747 -0.060080428 -0.06768624 -0.050123136 0.021428911 -0.035030328 -0.020649768
0.116698615 0.06278258 -0.026176173 -0.060423322 -0.11881158 0.13527629 0.06631698 -0.0014604488
0.072720595 0.079624325 0.10484426 0.07553529 -0.057277344 -0.084735885 0.018390415 -0.10382875
-0.13192564 -0.084036335 0.017536262 -0.117717065 -0.013338436 -0.13210726 -0.1213909 0.1332883
0.03980942 -0.055051945 0.06253927 0.071869865 0.061763015 0.10084342 -0.015730847 -0.08700196
-0.11787689 0.10768914 0.0007007402 -0.07192399 -0.080133304 -0.06113058 -0.12565853 0.12914959
0.030753968 -0.1129555 -0.088048354 0.13022314 0.0192693 -0.11929908 0.10615531 -0.132787
-0.07964098 -0.11944822 0.029711472 -0.06950507 -0.08278824 -0.038497023 -0.049948033 0.06724771
0.07958604 -0.0067600976 0.038223155 -0.09615965 0.05785676 0.032112487 -0.0636385 0.024929445
-0.030486882 0.14656575 -0.062387254 0.08547036 0.05858394 0.13564798 0.1339748 -0.08357141
0.13890581 -0.03323666 0.1502593 -0.056386594 0.022376774 -0.028711826 0.1205712 0.11955903
0.08601278 -0.04602975 0.043615744 0.02126007 0.09005975 -0.110883854 0.09258822 0.05442112
0.11164093 -0.0024543894 0.0898777 0.060589433 -0.06863643 0.06798118 0.065637894 -0.056397576
0.022832999 0.13360527 -0.05286655 0.12956263 -0.11443625 -0.05427831 -0.039275613 -0.07950643
-0.08649945 -0.026488185 0.09213946 0.10874419 0.14583491 0.10364896 0.03896909 0.14767432
-0.0069536567 0.037611075 0.13388 0.07613734 0.020189142 0.102894895 0.011343419 -0.08655476
-0.031574134 -0.08748279 -0.026822807 0.013068668 -0.007827496 -0.03722689 0.09855102 0.0771316
00000000: 0509 8e3d d8fd 09bd 2403 cfbd 0832 be3d
00000010: b5ec 4dbd aaf1 e13d 8f4f c73c ab40 cfbd
00000020: 914e 743d fcaa e53d 515e e53d 70d1 073e
00000030: 0b68 963d a1e1 cabb 5aec dd3c fa3e 3a3d
00000040: 4496 013e f140 6e3d b8ed a53d 5d52 c53d
00000050: 85ad 833d 3328 b5bc 031c 173e 92ac 9a3b
00000060: 3a3d a7bd 6852 78bd 47e1 753d 2788 9d3d
00000070: 4dad 54bd bc32 243b 826c cf3d 3c8b f73d
00000080: 994d e0bd a61b 1d3d d8c0 f33c b303 ad3d
00000090: a389 2fbd 98ee f53d 56a2 bdbc 77ae cdbd
000000a0: 7f62 cc3d 77e3 71bb 6302 913d e2b0 2d3d
000000b0: a6a3 7bbc 3db8 3dbd 8ea4 c4bc 951e 85bd
000000c0: 9c28 ec3d af10 863d 20ab a33d c046 4e3d
000000d0: cb05 de3d a2de a2bd 00f5 9b3d fe5a d73d
000000e0: 4c61 1bbc 497b 9fbd e876 163e a78a 46bd
000000f0: 20e8 b2bd 6bbf cc3d 4364 d3bc 5334 ee3c
00000100: 45c6 9dbd dea2 ec3d 541d b2bc bda1 f03d
00000110: a1c8 c53d b8fd 4b3d eb40 b33d ab87 e33d
00000120: 9699 a5bd 5651 113d bb4c 8dbc c490 223d
00000130: 5cf5 b43d e3e0 1d3d bcd7 06bd 7249 a53d
00000140: 4d3e 81bd 215b 083e b1d9 13bd 3b9f 113d
00000150: 1918 f03b 7248 52bd 74a4 733d 98d5 ad3d
00000160: 9aa5 8d3d f4a8 1c3d 5bf7 863d cc59 c93c
00000170: 6b99 6c3d 75f9 25bd e886 b4bd 8e44 95bc
00000180: 824d a93d 48cc 093c 2d61 f93d 378c ce3d
00000190: 5d4c c3bd 5d1f 093e 09f8 bd3d 4b45 623c
000001a0: 32bf 9ebd 947e 603b 0c8e d53d 5c56 74bb
000001b0: 8f00 dabc 1198 44bd a03e 53bd fc1d 783b
000001c0: e9af 083e 0944 163e c9b2 ab3d 3b04 b9bd
000001d0: 0471 8c3c df20 ee3b 58af 943d 6349 b4bd
000001e0: 4dfd 6d3d 6dac fb3d e516 76bd 159f 8abd
000001f0: eb4d 4dbd af8b af3c f67b 0fbd b429 a9bc
00000200: afff ee3d 2794 803d 6a6f d6bc 727e 77bd
00000210: 7c53 f3bd de85 0a3e 32d1 873d 886c bfba
00000220: 89ee 943d 1412 a33d 96b8 d63d 3fb2 9a3d
00000230: a69b 6abd 028a adbd 7fa7 963c 2ba4 d4bd
00000240: 8417 07be 3e1b acbd 35a8 8f3c a515 f1bd
00000250: 7589 5abc 2047 07be cb9b f8bd ba7c 083e
00000260: 340f 233d 267e 61bd 9714 803d 8230 933d
00000270: 37fb 7c3d ff86 ce3d fadd 80bc 152e b2bd
00000280: 7069 f1bd 208c dc3d e1b1 373a e34c 93bd
00000290: ee1c a4bd 0f64 7abd a1ac 00be ca3f 043e
000002a0: bfef fb3c 3755 e7bd b252 b4bd 3759 053e
000002b0: a7da 9d3c 1353 f4bd f567 d93d 51f9 07be
000002c0: cf1a a3bd 45a1 f4bd 7965 f33c ad58 8ebd
000002d0: e18c a9bd 0eaf 1dbd 4f96 4cbd 2bb9 893d
000002e0: 01fe a23d cf83 ddbb e28f 1c3d 5aef c4bd
000002f0: 36fb 6c3d 6288 033d e754 82bd d638 cc3c
00000300: a0bf f9bc 5515 163e c789 7fbd 160b af3d
00000310: b7f5 6f3d 4ee7 0a3e b130 093e 7d27 abbd
00000320: 533d 0e3e 2a23 08bd 93dd 193e a1f5 66bd
00000330: 7f4f b73c 1035 ebbc 09ee f63d 5ddb f43d
00000340: 7827 b03d b189 3cbd 6ca6 323d 9929 ae3c
00000350: 3f71 b83d 1317 e3bd e59e bd3d aee8 5e3d
00000360: 00a4 e43d d2d9 20bb cd11 b83d a02c 783d
00000370: 4291 8cbd b839 8b3d 296d 863d 2501 67bd
00000380: 450c bb3c d2cf 083e 988a 58bd 11ac 043e
00000390: 8d5d eabd ef52 5ebd 77df 20bd 44d4 a2bd
000003a0: a026 b1bd c0fd d8bc 9db3 bc3d 46b5 de3d
000003b0: bf55 153e e845 d43d 0d9e 1f3d f037 173e
000003c0: 80db e3bb 120e 1a3d d717 093e e5ed 9b3d
000003d0: b363 a53c 8fba d23d bfd9 393c 9f43 b1bd
000003e0: e153 01bd 2d2a b3bd 81bb dbbc f71d 563c
000003f0: e63e 00bc 397b 18bd 1ed5 c93d 2cf7 9d3d

lstm.bias_hh_l0 f4 [256]
-0.08975561 0.08096004 -0.090912044 0.0102003915 0.1469714 -0.081854045 -0.09642324 -0.020925017
0.10006375 0.08864817 0.13621938 -0.06558023 -0.014028759 0.026596839 0.12332424 0.036121
-0.009847226 0.11885229 0.11785191 0.040043477 0.13058965 -0.06777957 0.08970893 0.020258607
-0.08391532 -0.075266615 0.14704712 -0.06602658 0.038455546 -0.013933546 -0.090965316 -0.016024824
0.06043476 0.046680007 -0.046270385 -0.087140135 0.06432987 0.07216139 0.045500573 0.02832391
0.10856096 0.030201804 -0.09657641 -0.050340973 0.110979654 0.035687435 0.09135502 0.033483285
0.02245156 -0.003041604 0.037493963 -0.09631552 -0.08087564 -0.04713517 -0.026739817 0.07691065
-0.03610973 0.10465691 0.10250601 0.012311955 -0.06010135 -0.1072376 0.023351006 -0.08304478
-0.012496649 0.049324106 -0.053071916 0.053311538 0.11728915 0.06851757 0.022949267 -0.01830366
0.094987154 0.046325997 0.02725214 0.03533824 0.043370586 0.012504497 -0.034536347 0.09582702
-0.04586135 -0.0639791 0.012184015 0.08624248 -0.03979798 -0.030838866 0.10800515 -0.020304661
-0.09338244 0.031599652 -0.06767412 0.0037245417 0.0319047 -0.061323237 -0.100841045 -0.010703144
0.0662882 0.02829341 0.043194477 0.068830684 0.036433294 0.07783298 0.07374086 -0.0018647256
0.00906253 0.04212035 -0.02721325 -0.08917809 0.14541794 -0.018671658 -0.035577998 0.11293722
0.049884126 0.12499691 0.07398789 -0.011588853 -0.08472628 0.011083579 -0.094387926 -0.0063939085
0.066060595 0.028296378 0.026600448 0.07003479 0.12891012 -0.07814697 0.15133381 0.0008842435
-0.11266833 -0.12882167 -0.09262489 0.08726905 -0.12745495 0.1120945 -0.03549361 0.04314005
-0.011224257 0.02989507 0.11333831 0.0053195483 0.018654384 0.090921104 0.09889309 -0.01852808
-0.016295185 -0.0728309 -0.0712295 0.039031427 0.08386403 -0.059499558 -0.10001641 -0.08738067
-0.083615094 -0.03693165 -0.011793076 0.108971134 -0.083852984 -0.0046124198 0.022482716 0.067002065
0.014694057 0.104037166 0.0016436981 -0.027141534 0.09034826 0.064325385 -0.020290295 0.05330997
-0.04508107 0.023782153 -0.105148256 0.0041811964 0.11704702 -0.11519449 0.050483365 0.10392839
0.08337628 -0.04959546 -0.084826306 0.10722239 -0.017685924 0.06931542 -0.035641793 -0.10377208
-0.07511357 -0.015651152 -0.08231203 -0.07073332 0.008202022 -0.0294619 -0.10717097 -0.11861811
0.027679231 0.034698274 -0.078583166 -0.09029615 0.10712249 -0.0053068446 0.09025104 0.10625187
0.047269702 0.07480503 0.021489734 -0.029467506 0.06681866 -0.0115946755 0.09816354 0.117881365
-0.027623162 0.014792746 -0.052165095 0.011423389 0.0070744315 -0.04747969 -0.08420361 -0.09999753
-0.08917533 -0.093965806 -0.044778794 -0.06025327 0.0154982135 -0.07294086 -0.056170344 0.03336436
0.10916319 -0.088005096 -0.09940011 0.017256157 -0.029184911 0.07113554 0.037519872 0.026332257
-0.030922147 0.010191376 -0.04367733 -0.057798445 0.064675555 -0.038826834 -0.08108182 0.091579914
0.07470929 -0.062353134 -0.04454557 -0.06420341 0.03034166 -0.0879698 0.14141898 -0.042256366
0.03094489 0.04608304 0.023451611 0.077856615 -0.04887166 -0.018934026 0.14288457 -0.10590778
00000000: cad1 b7bd 61ce a53d 1830 babd 8b1f 273c
00000010: ac7f 163e 18a3 a7bd 8c79 c5bd f16a abbc
00000020: 39ee cc3d 2c8d b53d 187d 0b3e ed4e 86bd
00000030: e1d8 65bc 9de1 d93c 6b91 fc3d 9df3 133d
00000040: 4256 21bc d468 f33d 585c f13d a104 243d
00000050: 4bb9 053e 04d0 8abd 51b9 b73d 61f5 a53c
00000060: ccdb abbd 6225 9abd 8593 163e f238 87bd
00000070: 9083 1d3d 8749 64bc 064c babd 7e46 83bc
00000080: 708a 773d 8933 3f3d 0486 3dbd 8776 b2bd
00000090: 61bf 833d 5ac9 933d cf5e 3a3d 8b07 e83c
000000a0: 3555 de3d c669 f73c dac9 c5bd 5632 4ebd
000000b0: 4d49 e33d fd2c 123d 5718 bb3d c525 093d
000000c0: 55ec b73c a655 47bb 4593 193d 1241 c5bd
000000d0: 21a2 a5bd cf10 41bd 760d dbbc 5583 9d3d
000000e0: cce7 13bd 5d56 d63d acee d13d 15b8 493c
000000f0: d52c 76bd 639f dbbd 9c4a bf3c 6213 aabd
00000100: bfbe 4cbc 1308 4a3d f061 59bd 335d 5a3d
00000110: 4b35 f03d f152 8c3d 1a00 bc3c 8ff1 95bc
00000120: a088 c23d 54c0 3d3d e13f df3c d5be 103d
00000130: 5ba5 313d a9df 4c3c fc75 0dbd f540 c43d
00000140: 1cd9 3bbd 7907 83bd 769f 473c e69f b03d
00000150: 3503 23bd caa1 fcbc ce31 dd3d f655 a6bc
00000160: 4b3f bfbd a36e 013d bb98 8abd 7117 743b
00000170: 81ae 023d 132e 7bbd c085 cebd 3d5c 2fbc
00000180: 1cc2 873d 95c7 e73c b1ec 303d 1af7 8c3d
00000190: 143b 153d e666 9f3d 7305 973d cf69 f4ba
000001a0: 017b 143c 6386 2c3d 52ee debc 01a3 b6bd
000001b0: 71e8 143e 4ef5 98bc 3cba 11bd a14b e73d
000001c0: 4c53 4c3d 61fe ff3d f686 973d 2cdf 3dbc
000001d0: f984 adbd e697 353c 754e c1bd fe83 d1bb
000001e0: c74a 873d cecd e73c 2fe9 d93c 666e 8f3d
000001f0: 0401 043e 850b a0bd 40f7 1a3e 94cc 673a
00000200: a7be e6bd d4e9 03be 1eb2 bdbd 1eba b23d
00000210: 8d83 02be cd91 e53d bf61 11bd 9fb3 303d
00000220: f2e5 37bc 81e6 f43c ea1d e83d 9b4f ae3b
00000230: 14d1 983c d834 ba3d 7688 ca3d 33c8 97bc
00000240: 7b7d 85bc 5e28 95bd c6e0 91bd 6bdf 1f3d
00000250: e8c0 ab3d cfb5 73bd 67d5 ccbd a3f4 b2bd
00000260: 643e abbd a445 17bd bf37 41bc 422c df3d
00000270: 1dbb abbd c823 97bb ac2d b83c 6138 893d
00000280: 58bf 703c 7011 d53d 5b71 d73a ec57 debc
00000290: 8208 b93d 07bd 833d d537 a6bc 8e5b 5a3d
000002a0: eea6 38bd cad2 c23c f857 d7bd 6b02 893b
000002b0: 59b6 ef3d 17eb ebbd a5c7 4e3d 68d8 d43d
000002c0: 2fc1 aa3d 9c24 4bbd 6ab9 adbd 6a97 db3d
000002d0: 12e2 90bc 3ef5 8d3d 21fd 11bd 7586 d4bd
000002e0: 25d5 99bd d836 80bc 3693 a8bd a2dc 90bd
000002f0: c661 063c 155a f1bc 747c dbbd 0dee f2bd
00000300: 8ebf e23c c71f 0e3d 36f0 a0bd 30ed b8bd
00000310: 0963 db3d 0ae5 adbb 8ad5 b83d 959a d93d
00000320: e09d 413d 6133 993d 3d0b b03c d765 f1bc
00000330: 39d8 883d 98f7 3dbc f709 c93d c96b f13d
00000340: f849 e2bc 465d 723c 11ab 55bd 2b29 3b3c
00000350: a2d0 e73b 107a 42bd f172 acbd 81cb ccbd
00000360: 8ea1 b6bd 2571 c0bd f869 37bd 22cc 76bd
00000370: 38ec 7d3c 0562 95bd e012 66bd 11a9 083d
00000380: f390 df3d 043c b4bd 4992 cbbd c95c 8d3c
00000390: 3215 efbc 83af 913d 70ae 193d bfb6 d73c
000003a0: 7150 fdbc bbf9 263c 00e7 32bd 10be 6cbd
000003b0: 9e74 843d e308 1fbd 3a0e a6bd 408e bb3d
000003c0: 2f01 993d 0066 7fbd 6a75 36bd 147d 83bd
000003d0: 138f f83c 8329 b4bd 23d0 103e 0315 2dbd
000003e0: 2380 fd3c 92c1 3c3d 981d c03c 4a73 9f3d
000003f0: a62d 48bd 881b 9bbc 5550 123e 2ee6 d8bd

lstm.weight_ih_l0_reverse f4 [256, 40]
-0.044213727 -0.011598625 -0.08611452 -0.0735945 0.019760514 0.062933385 0.020213576 0.040998615
-0.16003568 -0.057166126 -0.01980441 -0.0034647451 -0.11103127 0.12208206 -0.029677425 0.052654993
-0.10822558 0.09930956 -0.14960434 0.0770627 0.0039110975 -0.13386619 -0.107674174 -0.042631153
-0.02377863 0.14301617 -0.0021365648 -0.024034988 -0.15506242 -0.097555995 0.040844962 -0.12384668
0.05792419 0.01710029 0.014906039 -0.07384794 -0.060080774 0.10082177 -0.10381002 -0.12406366
0.05707522 -0.035956617 0.023016205 -0.03420597 -0.05230195 0.009871221 0.002576982 0.029026074
-0.1342867 -0.03975073 0.01019302 0.120297804 -0.12174729 0.12878664 -0.07966448 0.0605414
-0.07177008 0.020441143 -0.08455973 0.004602024 -0.09938348 -0.028437123 -0.097057216 -0.10716089
0.09905746 -0.05565506 0.02465263 -0.07473854 -0.016775128 -0.057324085 -0.055548284 0.11090831
0.020282365 0.040336665 -0.03466145 0.101044744 -0.1134186 0.08581149 -0.124688745 0.106052786
-0.105614595 -0.035327896 0.09431275 0.06880811 0.07809373 -0.0455083 -0.095769405 -0.09296745
0.023344949 -0.10320137 0.10559307 -0.10071128 0.0956378 -0.025024286 0.003397571 0.034082506
-0.01568447 -0.077556156 -0.049085714 -0.11429898 -0.108253084 -0.028436624 -0.09012177 -0.037440985
-0.082753755 -0.038739674 -0.087684445 0.03722718 0.036719237 0.07605363 -0.08946978 0.120102465
-0.0059267725 -0.011183714 -0.035143938 -0.14908569 -0.0052735703 0.015510763 0.08675528 0.005558318
-0.026544929 0.09198808 0.016361978 0.012193293 -0.0023316336 0.008600746 0.017123977 0.111882634
0.020281162 -0.019184431 0.02993832 -0.08226875 -0.08863496 0.0774233 0.029050414 -0.097669855
0.04023254 -0.019145789 -0.07566166 -0.015602995 0.06718281 0.084825836 0.01240248 0.06832447
-0.05983964 0.10082901 -0.10330246 0.037755355 -0.13726157 0.12641694 0.079829335 0.028024549
0.042435028 0.060569715 0.06921978 0.12650622 0.042830113 -0.11682482 0.079095 -0.013857586
0.03622328 0.04876428 -0.009955726 -0.033788662 -0.03980871 0.08788294 -0.118930146 0.034683283
-0.103200205 -0.00032069345 -0.15837991 0.011398295 -0.16270873 0.09263719 0.03392076 0.10077345
0.047838632 -0.03245031 0.05199168 0.0019138578 -0.014483559 0.022271834 0.001769863 -0.06294778
-0.13665242 0.07761369 0.024973163 -0.03639967 -0.14182425 0.103936225 -0.030620823 -0.03283583
-0.15668203 0.12477825 0.010570654 0.018930247 -0.0973898 0.0722846 0.009011473 -0.018826399
0.0102795875 0.046415333 0.0712117 0.029192166 -0.027078219 -0.08513869 0.11455783 -0.007881022
0.12069874 0.1246909 -0.08938525 -0.03072014 0.043145567 0.12434928 0.11252464 -0.0028270162
-0.08249042 -0.06464944 0.0962684 -0.009008698 -0.034351695 -0.07170903 0.017806422 -0.1556019
0.1000073 -0.057174865 -0.021574255 0.09386133 -0.067786045 -0.10382953 0.019545732 0.05940862
-0.09605496 0.13685 -0.04240149 -0.09001336 -0.06467966 0.08927213 -0.027643643 0.04550292
0.029760338 0.0064165 -0.028623836 -0.09601767 -0.06388407 -0.10558488 0.09257762 0.02861021
0.09310887 0.109818235 -0.07173247 0.10570429 -0.025158688 -0.111305594 -0.016678222 0.046115123
00000000: 7419 35bd 2908 3ebc cf5c b0bd b7b8 96bd
00000010: cde0 a13c 38e3 803d f196 a53c 2aee 273d
00000020: 65e0 23be 0727 6abd dc3c a2bc c710 63bb
00000030: 5d64 e3bd 2906 fa3d 121e f3bc c3ac 573d
00000040: 5fa5 ddbd d062 cb3d e131 19be 0dd3 9d3d
00000050: aa28 803b 3814 09be 4784 dcbd 019e 2ebd
00000060: 67cb c2bc d572 123e 9c05 0cbb 06e5 c4bc
00000070: afc8 1ebe 70cb c7bd 0c4d 273d 54a3 fdbd
00000080: ea41 6d3d e815 8c3c 7638 743c 973d 97bd
00000090: 4217 76bd a57b ce3d 599a d4bd 1715 febd
000000a0: b5c7 693d 3f47 13bd 7b8c bc3c 8f1b 0cbd
000000b0: 923a 56bd e7ba 213c 95e2 283b 17c8 ed3c
000000c0: 7482 09be a9d1 22bd a000 273c b25e f63d
000000d0: a556 f9bd a5e0 033e 2227 a3bd 42fa 773d
000000e0: 31fc 92bd 2f74 a73c a72d adbd 93cc 963b
000000f0: 9189 cbbd f8f4 e8bc efc5 c6bd 2b77 dbbd
00000100: a3de ca3d 8ff6 63bd 50f4 c93c 8510 99bd
00000110: fe6b 89bc a9cc 6abd 9986 63bd e523 e33d
00000120: 3427 a63c 0f38 253d 2af9 0dbd 8cf0 ce3d
00000130: 0348 e8bd efbd af3d d05c ffbd 3432 d93d
00000140: 774c d8bd fcb3 10bd 0b27 c13d 44eb 8c3d
00000150: 9bef 9f3d e966 3abd c022 c4bd b865 bebd
00000160: e83d bf3c 3d5b d3bd 2e41 d83d b741 cebd
00000170: c0dd c33d bbff ccbc c8a9 5e3b 199a 0b3d
00000180: b87c 80bc c3d5 9ebd 1a0e 49bd 9515 eabd
00000190: cbb3 ddbd ecf3 e8bc c391 b8bd b85b 19bd
000001a0: cd7a a9bd 7ead 1ebd e793 b3bd 877b 183d
000001b0: e966 163d 01c2 9b3d ef3b b7bd 48f8 f53d
000001c0: 5f35 c2bb e53b 37bc 17f3 0fbd eba9 18be
000001d0: eacd acbb db20 7e3c c1ac b13d 8d22 b63b
000001e0: c074 d9bc 3f64 bc3d 8e09 863c 61c6 473c
000001f0: 52ce 18bb 25ea 0c3c 9547 8c3c b922 e53d
00000200: ae24 a63c ab28 9dbc 3541 f53c 857c a8bd
00000210: 3f86 b5bd 1b90 9e3d 22fb ed3c 2207 c8bd
00000220: e0ca 243d a1d7 9cbc 80f4 9abd b4a3 7fbc
00000230: 2497 893d 2bb9 ad3d c533 4b3c b3ed 8b3d
00000240: 691a 75bd 717f ce3d 3d90 d3bd 5ca5 1a3d
00000250: 4c8e 0cbe 7173 013e 907d a33d bd93 e53c
00000260: 5ad0 2d3d f317 783d 1ac3 8d3d d98a 013e
00000270: a16e 2f3d da41 efbd 8ffc a13d ee0a 63bc
00000280: dd5e 143d 0ebd 473d 571d 23bc fb65 0abd
00000290: 750e 23bd f9fb b33d a691 f3bd 0f10 0e3d
000002a0: a15a d3bd bf22 a8b9 582e 22be eabf 3a3c
000002b0: 1e9d 26be 91b8 bd3d 7ff0 0a3d 5062 ce3d
000002c0: 71f2 433d 9eea 04bd 3af5 543d 69da fa3a
000002d0: 734c 6dbc 6c73 b63c bffa e73a c4ea 80bd
000002e0: 9dee 0bbe edf3 9e3d 8594 cc3c d217 15bd
000002f0: 603a 11be 84dc d43d 85d8 fabc dd7e 06bd
00000300: 4171 20be bd8b ff3d 8930 2d3c 9b13 9b3c
00000310: 4e74 c7bd f309 943d dba4 133c d239 9abc
00000320: b76b 283c 011e 3e3d 71d7 913d 6924 ef3c
00000330: 24d3 ddbc 325d aebd 4c9d ea3d 671f 01bc
00000340: e730 f73d f15d ff3d 9d0f b7bd cea8 fbbc
00000350: 68b9 303d d6aa fe3d 5273 e63d 7645 39bb
00000360: bdf0 a8bd ed66 84bd 5e28 c53d 3899 13bc
00000370: 5db4 0cbd 2fdc 92bd c6de 913c 1b56 1fbe
00000380: a1d0 cc3d 3130 6abd 7ebc b0bc 5e3a c03d
00000390: 69d3 8abd 94a4 d4bd 5f1e a03c 7456 733d
000003a0: 76b8 c4bd 6822 0c3e 2fad 2dbd ed58 b8bd
000003b0: c576 84bd 4ed4 b63d ec74 e2bc 4561 3a3d
000003c0: f4cb f33c 8141 d23b 897c eabc eaa4 c4bd
000003d0: a7d5 82bd e33c d8bd 5699 bd3d f65f ea3c
000003e0: ddaf be3d 62e8 e03d 79e8 92bd 7e7b d83d
000003f0: 9819 cebc 30f4 e3bd c4a0 88bc 36e3 3c3d

lstm.weight_hh_l0_reverse f4 [256, 64]
-0.09989957 0.05170646 0.027490208 0.081570774 0.049102306 -0.10290628 -0.02232272 0.04663027
-0.011220766 0.11026331 0.07818762 0.004579928 -0.059747566 0.058704052 -0.043301042 0.030827705
0.007451844 -0.015291836 0.12550575 0.019560756 0.066575535 -0.09019748 0.040065706 -0.025177905
-0.013318474 -0.03822636 0.004775607 0.09127451 0.051613748 -0.066455446 0.09251386 0.008673219
0.06868761 0.074321784 0.053500783 -0.11053515 0.04342589 0.12143933 0.07695044 0.048751373
-0.04189236 0.01551365 0.09389092 -0.118826516 0.13007101 -0.054670203 -0.059554584 -0.049428664
0.06267912 0.16392535 0.07074926 0.14319295 -0.06925585 0.07243666 -0.14935608 0.13647884
0.05910624 0.0038166677 0.058002632 -0.09486724 -0.08079209 0.01775491 0.14240082 -0.15036291
0.06830088 0.029089758 0.065204106 0.084101 0.063898556 0.04881912 0.117641024 0.004506113
0.08144146 0.07673012 -0.06425057 -0.05899233 -0.08594473 0.06968867 0.114580736 -0.018249623
0.024396462 0.09271911 0.08748634 0.044942733 0.040034916 0.00410703 0.030852655 -0.0041810367
-0.029087355 -0.009707926 -0.10926046 -0.004504251 0.025546843 0.03915448 0.06777043 -0.12257505
-0.024772966 0.040928103 -0.0300425 0.06531835 0.020366454 0.026439767 -0.060867287 -0.018855162
-0.0821356 -0.04561906 0.006919154 -0.030417439 -0.06358796 -0.11907416 0.13030934 -0.03512837
0.030182084 0.030556113 -0.0115615465 0.08541237 -0.15342684 -0.106000416 -0.022358438 0.08874129
0.019983087 0.050187644 -0.054004397 0.06789027 0.07103649 0.022591857 0.098282136 0.019823644
0.09637975 -0.064820275 0.0667243 -0.04107207 -0.04288234 0.088923566 0.056013543 0.026266059
0.0087095145 0.090732425 0.019664086 -0.06479521 -0.06913261 -0.15338966 -0.018362017 -0.08766147
0.12859719 -0.054816093 0.037735317 0.035212677 0.109461874 -0.03858445 -0.108040415 0.02950584
0.0024675562 0.070648335 -0.0941167 0.014090425 -0.031086817 -0.017216982 0.020427115 0.052463487
-0.03496436 -0.07516732 0.08883953 0.017442137 0.013467705 0.10271791 -0.093609944 -0.076257095
0.023261568 -0.09200204 0.09682607 0.03570197 0.06975411 -0.10768218 0.1094177 0.01590562
-0.09132644 0.1202745 -0.019705156 -0.053724352 -0.10940586 -0.070734434 0.024372999 -0.10236637
-0.07870899 -0.02574918 -0.003946652 -0.052055623 0.06505924 0.07106284 -0.070541896 0.06094613
-0.13509095 -0.08354017 -0.07806286 0.04491615 -0.038333636 -0.08934175 -0.046537593 -0.035282433
0.005446728 0.12168964 -0.03113251 0.07691281 0.004886009 -0.065836795 -0.0563033 -0.003614031
-0.03504163 0.016561983 0.06808366 -0.059989206 0.026293136 0.017183343 0.08973815 0.14398584
-0.10192344 -0.00083265017 0.025152318 -0.046563264 0.08830096 0.11898804 0.021531994 0.06387731
0.05572312 -0.011692029 -0.11130558 0.017538648 0.14100827 0.11132445 0.10896284 0.015276577
0.064653754 0.03677841 -0.022221318 -0.14939122 -0.07059367 0.027347894 -0.019609965 -0.011058885
-0.02914233 0.06495995 -0.09427805 -0.09333818 0.017702607 0.10395248 -0.060932517 -0.06701599
-0.02175385 0.10652441 0.07415247 0.007538911 -0.06650663 -0.03829009 0.07762282 -0.07584802
00000000: 2598 ccbd 27ca 533d 2533 e13c 940e a73d
00000010: 801f 493d 87c0 d2bd 23de b6bc 62ff 3e3d
00000020: 4ed7 37bc bbd1 e13d d520 a03d 3813 963b
00000030: ddb9 74bd a973 703d 6f5c 31bd 628a fc3c
00000040: 992e f43b 9c8a 7abc 9484 003e e13d a03c
00000050: c158 883d 75b9 b8bd f01b 243d e541 cebc
00000060: bb35 5abc 3e93 1cbd b27c 9c3b 21ee ba3d
00000070: f068 533d cb19 88bd e877 bd3d 1e1a 0e3c
00000080: 17ac 8c3d 0536 983d a323 5b3d 4160 e2bd
00000090: 59df 313d 2fb5 f83d 3198 9d3d 85af 473d
000000a0: 5397 2bbd f72c 7e3c e249 c03d 515b f3bd
000000b0: 5631 053e dded 5fbd 82ef 73bd b675 4abd
000000c0: e95d 803d 0cdc 273e fde4 903d 2ca1 123e
000000d0: 03d6 8dbd ac59 943d cdf0 18be 1cc1 0b3e
000000e0: 6219 723d 0f21 7a3b 2b94 6d3d c149 c2bd
000000f0: 5376 a5bd bf72 913c 85d1 113e bcf8 19be
00000100: 55e1 8b3d a54d ee3c bb89 853d 253d ac3d
00000110: 3fdd 823d 8ff6 473d c7ed f03d 04a8 933b
00000120: c8ca a63d ae24 9d3d ce95 83bd f1a1 71bd
00000130: ca03 b0bd efb8 8e3d 4ea9 ea3d 3c80 95bc
00000140: 17db c73c 84e3 bd3d 0a2c b33d df15 383d
00000150: a7fb 233d 4494 863b b5be fc3c 1401 89bb
00000160: 9b48 eebc fe0d 1fbc f3c3 dfbd 6598 93bb
00000170: 9d47 d13c 7360 203d 39cb 8a3d a108 fbbd
00000180: adf0 cabc 3aa4 273d b01b f6bc a1c5 853d
00000190: 8dd7 a63c 3698 d83c fa4f 79bd 2476 9abc
000001a0: b636 a8bd 0ddb 3abd 12ba e23b fe2d f9bc
000001b0: 683a 82bd 27dd f3bd d06f 053e c4e2 0fbd
000001c0: 6b40 f73c d050 fa3c a46c 3dbc aeec ae3d
000001d0: ed1b 1dbe bf16 d9bd 0b29 b7bc febd b53d
000001e0: 92b3 a33c 8f91 4d3d b733 5dbd 0e0a 8b3d
000001f0: 947b 913d 8f12 b93c 2548 c93d 3265 a23c
00000200: bf62 c53d 7ec0 84bd c0a6 883d 303b 28bd
00000210: 64a5 2fbd 8f1d b63d 756e 653d eb2b d73c
00000220: 5ab2 0e3c ecd1 b93d 9416 a13c 5ab3 84bd
00000230: 6695 8dbd 2e12 1dbe f16b 96bc db87 b3bd
00000240: fbae 033e d786 60bd 5990 1a3d 2b3b 103d
00000250: 8c2d e03d ba0a 1ebd 4b44 ddbd 3bb6 f13c
00000260: b9b6 213b 13b0 903d 42c0 c0bd 87db 663c
00000270: c8a9 febc a10a 8dbc c456 a73c f4e3 563d
00000280: ca36 0fbd 53f1 99bd 80f1 b53d d0e2 8e3c
00000290: a6a7 5c3c c55d d23d 92b6 bfbd ae2c 9cbd
000002a0: 0b8f be3c 916b bcbd bf4c c63d 3b3c 123d
000002b0: 3edb 8e3d 7a88 dcbd 6316 e03d 814c 823c
000002c0: 5b09 bbbd 7a52 f63d b56c a1bc 110e 5cbd
000002d0: 2e10 e0bd 37dd 90bd e2a9 c73c 76a5 d1bd
000002e0: 2e32 a1bd f2ef d2bc eb52 81bb 4738 55bd
000002f0: c73d 853d 6589 913d 4578 90bd a6a2 793d
00000300: 4855 0abe 1c17 abbd 6cdf 9fbd fff9 373d
00000310: bb03 1dbd cff8 b6bd 349e 3ebd 5084 10bd
00000320: 777a b23b 6b38 f93d 9b09 ffbc 7784 9d3d
00000330: d01a a03b 71d5 86bd 4a9e 66bd 61d9 6cbb
00000340: d087 0fbd ffac 873c 726f 8b3d 3eb7 75bd
00000350: b464 d73c 15c4 8c3c a3c8 b73d 0671 133e
00000360: 3dbd d0bd 3546 5aba 3c0c ce3c 1fb9 3ebd
00000370: 22d7 b43d 00b0 f33d dd63 b03c 1bd2 823d
00000380: ed3d 643d ed8f 3fbc 2ef4 e3bd 36ad 8f3c
00000390: 7964 103e 13fe e33d e927 df3d 9c4a 7a3c
000003a0: 3069 843d f5a4 163d 7b09 b6bc 03fa 18be
000003b0: 6a93 90bd b108 e03c 14a5 a0bc 5330 35bc
000003c0: e5bb eebc b909 853d da14 c1bd 1628 bfbd
000003d0: 0f05 913c 0ae5 d43d 6094 79bd ae3f 89bd
000003e0: 2135 b2bc 7829 da3d 40dd 973d f808 f73b
000003f0: a134 88bd 12d6 1cbd b7f8 9e3d 3556 9bbd

lstm.bias_ih_l0_reverse f4 [256]
0.054587387 -0.07437102 0.06931047 0.058773603 -0.002893792 0.09240027 0.12434972 -0.09099193
0.12708566 0.107871674 0.15979186 -0.048774153 0.12433176 -0.07093476 -0.1047421 -0.016204141
0.09493186 0.031965956 -0.09280339 -0.093047574 0.0869549 -0.10042696 0.0707118 -0.07663207
-0.0335134 0.021661093 -0.013642967 -0.101102374 0.032414954 -0.048732515 0.06746295 0.07690066
0.03455013 -0.053839672 0.050762933 -0.058868684 -0.06684096 0.06254582 -0.062325783 0.12190275
-0.09408674 0.09098506 0.08042743 0.082284294 0.0079698935 -0.06868496 -0.012021733 0.015441637
-0.10507388 -0.051238734 0.024322996 -0.052247602 -0.036975015 -0.007005685 0.08433291 0.08258194
0.07152023 -0.04700803 -0.064558744 -0.0019523053 0.07602304 0.014987023 -0.061130404 0.08569568
0.06945661 0.012591922 0.095430106 0.05378992 0.08243615 0.124256276 -0.078890644 0.05137238
0.02027615 0.07184142 0.055778403 -0.07824546 0.061107833 -0.08019986 -0.0068863365 0.10504293
0.1423092 -0.061115813 0.0335451 0.051955417 0.10574984 -0.0195427 0.03145471 0.05406406
-0.10871593 0.05331391 0.08276053 0.09686075 0.04319064 -0.0091391895 0.11667197 -0.026437255
0.09348011 -0.06983465 -0.07869248 -0.07372668 0.061948556 0.05217265 -0.08084576 0.038346957
0.10883467 -0.018284008 0.056853134 0.08776725 -0.00012088149 -0.008052534 0.07754541 0.07134891
0.024406902 0.022436552 -0.014948866 -0.016612062 0.126958 0.033946957 0.073227294 -0.08834389
0.01631229 0.115671776 -0.10334024 0.0425765 0.121679604 -0.027075524 -0.106123775 -0.039242767
-0.09051568 0.016770786 0.11191148 -0.10781758 -0.09648046 -0.07028392 -0.043316018 -0.067042194
-0.069558255 -0.0011755917 -0.060554456 -0.016210148 -0.02015369 -0.14004426 0.06003555 0.062137555
-0.1171216 0.11992574 0.013956815 -0.092738815 -0.09018429 -0.023346638 -0.12767601 0.074010134
-0.021283178 -0.044883702 0.05805137 0.093916535 0.0574152 -0.03245556 0.06314371 0.09928587
-0.08372202 -0.0084850425 -0.032301705 0.1479466 0.018296875 -0.0035682372 0.03696234 0.016857691
-0.08919715 0.041491628 -0.033061933 0.108546264 0.08459678 -0.032166008 0.046728563 0.0069855656
0.034152966 0.10342299 0.042154744 0.10726076 -0.052771654 0.05011511 -0.117076285 -0.057644896
0.011260746 -0.10362453 -0.027766872 -0.1022143 -0.01695276 -0.09458246 -0.009294332 0.11574109
0.02347386 -0.018111708 -0.04246311 -0.04836729 0.0060438523 0.01966437 -0.1122238 0.00035767257
0.04858202 -0.007282541 0.036335673 -0.106759645 -0.043064665 -0.024449708 0.09680949 0.030868744
0.12111349 0.093447894 -0.02857325 0.046102166 0.006445286 0.11924244 0.1090174 0.039186638
-0.0038883057 0.059821293 -0.11432853 0.061726455 -0.09665156 -0.08733708 -0.05091876 -0.09038854
0.09917117 0.0045232954 0.023486087 -0.07287921 -0.03675046 0.10352892 0.0065793437 0.12462448
0.0042439937 -0.071341515 -0.055623405 0.02052449 0.06444864 -0.04517002 -0.040247932 0.075511776
-0.075198255 -0.048134718 0.13888486 -0.025087086 -0.057339795 -0.07201578 -0.0078814225 0.088329315
-0.0116070565 0.11905736 0.105883166 -0.083188124 -0.00827508 -0.08551054 0.050131913 -0.06290341
00000000: 0697 5f3d d54f 98bd a6f2 8d3d 97bc 703d
00000010: c6a5 3dbb 5a3c bd3d 11ab fe3d fa59 babd
00000020: be22 023e d3eb dc3d 7aa0 233e 68c7 47bd
00000030: a6a1 fe3d 3e46 91bd 0783 d6bd 8cbe 84bc
00000040: a36b c23d bcee 023d b40f bebd ba8f bebd
00000050: 6915 b23d a6ac cdbd 59d1 903d 46f1 9cbd
00000060: 5945 09bd 9b72 b13c c086 5fbc c30e cfbd
00000070: 8bc5 043d bf9b 47bd 042a 8a3d 187e 9d3d
00000080: 7084 0d3d fd86 5cbd cbec 4f3d 4a20 71bd
00000090: eae3 88bd 0618 803d 5249 7fbd 26a8 f93d
000000a0: 8cb0 c0bd 6056 ba3d 23b7 a43d ab84 a83d
000000b0: 2894 023c b3aa 8cbd cef6 44bc ebfe 7c3c
000000c0: f930 d7bd b5df 51bd 0541 c73c 9501 56bd
000000d0: 1d73 17bd f28f e5bb bcb6 ac3d b820 a93d
000000e0: 3379 923d 7e8b 40bd 6037 84bd 7fe4 ffba
000000f0: f8b1 9b3d 218c 753c e063 7abd 3781 af3d
00000100: 443f 8e3d 594e 4e3c dc70 c33d d252 5c3d
00000110: 49d4 a83d 137a fe3d 6b91 a1bd d86b 523d
00000120: 2b1a a63c 9821 933d e577 643d 283f a0bd
00000130: 354c 7a3d d33f a4bd c7a6 e1bb bf20 d73d
00000140: 81b9 113e 9354 7abd 9666 093d 34cf 543d
00000150: 5f93 d83d 0318 a0bc a7d6 003d 4772 5d3d
00000160: 75a6 debd b05f 5a3d 5a7e a93d ee5e c63d
00000170: abe8 303d 8abc 15bc b7f1 ee3d f192 d8bc
00000180: 8072 bf3d 7805 8fbd 8629 a1bd 03fe 96bd
00000190: c5bd 7d3d fdb2 553d 7692 a5bd b311 1d3d
000001a0: b6e4 de3d 58c8 95bc d5de 683d 51bf b33d
000001b0: c181 fdb8 c7ee 03bc 21d0 9e3d 611f 923d
000001c0: fcf0 c73c dccc b73c 17ec 74bc 0516 88bc
000001d0: 4701 023e f70b 0b3d 31f8 953d a4ed b4bd
000001e0: 5aa1 853c 53e5 ec3d 0ca4 d3bd b264 2e3d
000001f0: 2833 f93d 7dcd ddbc 6c57 d9bd 06bd 20bd
00000200: 4960 b9bd e362 893c d931 e53d 77cf dcbd
00000210: 8c97 c5bd 04f1 8fbd 236c 31bd 6b4d 89bd
00000220: 8f74 8ebd 5016 9aba f307 78bd 25cb 84bc
00000230: 5a19 a5bc c367 0fbe d6e7 753d f383 7e3d
00000240: 73dd efbd a09b f53d 20ab 643c d9ed bdbd
00000250: 8bb2 b8bd 7341 bfbc 80bd 02be a092 973d
00000260: 0f5a aebc f9d7 37bd 46c7 6d3d 5057 c03d
00000270: 332c 6b3d 1ff0 04bd 7d51 813d 6456 cb3d
00000280: 7376 abbd d904 0bbc cb4e 04bd 507f 173e
00000290: 54e3 953c 16d9 69bb d365 173d 2419 8a3c
000002a0: ffac b6bd 20f3 293d f36b 07bd 814d de3d
000002b0: 1441 ad3d 81c0 03bd 7366 3f3d 2ce7 e43b
000002c0: fbe3 0b3d 6fcf d33d 74aa 2c3d 88ab db3d
000002d0: 1727 58bd 8045 4d3d b1c5 efbd 0e1d 6cbd
000002e0: fe7e 383c 1939 d4bd 5a77 e3bc bb55 d1bd
000002f0: 84e0 8abc 73b4 c1bd 4147 18bc aa09 ed3d
00000300: 414c c03c 015f 94bc cced 2dbd c81c 46bd
00000310: 820b c63b 2c17 a13c 97d5 e5bd 0086 bb39
00000320: f1fd 463d 62a2 eebb b7d4 143d cda4 dabd
00000330: 9364 30bd c14a c8bc 0e44 c63d 73e0 fc3c
00000340: 590a f83d 9c61 bf3d 7312 eabc a0d5 3c3d
00000350: fa32 d33b 6135 f43d 8444 df3d 2b82 203d
00000360: f2d2 7ebb 2c07 753d 1425 eabd e1d4 7c3d
00000370: 41f1 c5bd c8dd b2bd 3190 50bd a01d b9bd
00000380: 411a cb3d 2738 943b e565 c03c b241 95bd
00000390: a687 16bd f806 d43d 8997 d73b 1f3b ff3d
000003a0: 3311 8b3b 801b 92bd 5ed5 63bd fa22 a83c
000003b0: a6fd 833d 3304 39bd 04db 24bd eba5 9a3d
000003c0: 8b01 9abd e928 45bd d537 0e3e 6f83 cdbc
000003d0: 22dd 6abd 027d 93bd 1521 01bc 00e6 b43d
000003e0: 862b 3ebc 58d4 f33d 46d9 d83d 895e aabd
000003f0: 3394 07bc 2620 afbd 1f57 4d3d 81d3 80bd

lstm.bias_hh_l0_reverse f4 [256]
-0.029322473 -0.011760612 0.10795143 0.12328055 -0.0511382 0.0096889185 0.017659947 0.023637125
0.061947003 0.14859557 0.071223736 0.03991334 -0.08489595 0.08266842 -0.10261581 -0.03157682
-0.0940988 -0.06865644 0.13855374 -0.021351675 0.033289883 -0.026487486 -0.0951167 0.04084672
-0.012128582 0.032700207 0.12065698 0.03704983 -0.08955439 -0.09771442 0.0011709474 -0.025926135
0.013536089 0.048680857 -0.026238695 0.0074565853 -0.047368906 0.07258258 -0.09073957 0.07756694
0.1085818 0.0025764634 0.023342757 -0.018663855 0.112336084 0.10499454 -0.056705963 -0.09021087
-0.07297943 0.026511548 0.05505844 0.11523749 0.010375368 0.025357684 -0.03541084 -0.013674492
0.13177285 0.021528522 -0.080969274 0.04440277 0.1115296 0.09591219 0.11421141 -0.002263178
0.04357354 0.1240607 0.0470188 -0.033049308 0.043240454 0.06678129 0.013656 0.11895954
0.01955779 -0.04510166 0.029462487 -0.017789485 0.13541938 0.14945649 -0.0147414 -0.020942114
0.10337256 0.05101242 0.12896587 0.103924006 0.090567164 0.12724183 0.12199432 -0.07886656
-0.0040026186 -0.017282665 0.045066126 0.06330392 0.008918009 0.09079127 -0.099815436 0.11267643
0.048100464 0.09534253 -0.027049052 0.07339385 -0.09030575 -0.039454624 -0.011205589 0.08120331
-0.08331272 -0.054906756 -0.07207113 0.09141167 -0.089630656 -0.03222276 0.067084074 -0.038987447
0.014049894 0.020508654 0.06463511 0.15765356 -0.06531337 0.05097168 -0.041588273 0.08002264
-0.072662115 -0.03919178 0.11967458 0.049817864 0.036201473 0.042729776 0.015399654 -0.093965486
0.011462598 -0.07441643 -0.0356676 0.09403754 -0.037158743 0.05768699 0.09578489 -0.096053176
-0.06937299 0.094178274 -0.10345052 0.12962592 0.019882524 -0.04717723 0.10074289 -0.08593646
0.10463824 -0.04306685 -0.021189762 -0.124470636 0.02586188 0.12273796 -0.065415084 -0.10467324
-0.02255654 0.09766017 0.076466784 -0.0055325683 -0.02655009 -0.033893324 -0.05797083 -0.022966957
-0.007457903 0.0061401827 0.053842187 0.12608275 0.089704566 -0.08469807 0.11452161 0.03326172
-0.08597081 -0.13009693 0.005766648 0.064626485 -0.035582207 0.07481908 -0.017268382 -0.0965909
0.1077328 -0.06755734 0.09039608 0.12414883 -0.13679951 0.1303081 -0.09842064 0.10191835
-0.06670577 -0.08097954 0.059809014 -0.103375025 0.028880851 0.043413423 0.051658876 -0.016082805
0.034896575 0.03691312 0.15649892 0.12507288 0.03386882 0.06348277 0.11786727 -0.08499198
0.056438234 0.019747442 0.10890779 -0.09438876 0.14018443 0.08950523 0.010763793 -0.033634063
0.04562234 0.06365304 -0.05920392 0.04940938 0.0020976276 0.10786127 0.039234646 0.13609207
-0.092869565 -0.0039314847 -0.053042345 -0.10998408 0.009415045 -0.024372466 0.07649349 0.08996709
-0.037381172 0.13924961 -0.016512666 0.11124623 -0.062294293 0.11964211 0.033683967 0.09046204
0.031048931 0.11099766 0.10054023 0.04686778 0.11584341 -0.07055355 -0.04162067 -0.025295302
-0.05127931 0.01264023 0.08195004 -0.058056653 0.06788784 -0.08226611 0.109745644 -0.019711567
0.119790524 0.016139843 0.1011288 0.15112206 0.033164 0.047064066 -0.050935615 -0.036541454
00000000: af35 f0bc 95af 40bc a415 dd3d 837a fc3d
00000010: 4a76 51bd 45be 1e3c 98ab 903c a5a2 c13c
00000020: 24bc 7d3d 7029 183e c0dd 913d 2c7c 233d
00000030: eedd adbd 104e a93d 3d28 d2bd b256 01bd
00000040: dfb6 c0bd bf9b 8cbd 08e1 0d3e b5e9 aebc
00000050: f95a 083d 49fc d8bc 8bcc c2bd e44e 273d
00000060: f6b6 46bc a7f0 053d 021b f73d 90c1 173d
00000070: 4b68 b7bd 7f1e c8bd 7a7a 993a 0c63 d4bc
00000080: 79c6 5d3c 9465 473d 88f2 d6bc 5f56 f43b
00000090: e605 42bd 2da6 943d abd5 b9bd 6adb 9e3d
000000a0: 2260 de3d e2d9 283b 4f39 bf3c f1e4 98bc
000000b0: 7610 e63d 6107 d73d 8344 68bd 7ac0 b8bd
000000c0: 3d76 95bd bf2e d93c f584 613d a201 ec3d
000000d0: 73fd 293c ebba cf3c f50a 11bd fa0a 60bc
000000e0: 76ef 063e 955c b03c 38d3 a5bd aedf 353d
000000f0: a269 e43d 9c6d c43d ace7 e93d d351 14bb
00000100: 2b7a 323d 8913 fe3d c996 403d b65e 07bd
00000110: e71c 313d a1c4 883d 6abd 5f3c 0fa1 f33d
00000120: a937 a03c 85bc 38bd 505b f13c 41bb 91bc
00000130: 61ab 0a3e 1f0b 193e ea85 71bc cc8e abbc
00000140: feb4 d33d 66f2 503d a10f 043e 1cd6 d43d
00000150: 477b b93d af4b 023e 28d8 f93d ca84 a1bd
00000160: 6628 83bb 6094 8dbc 4297 383d 7ca5 813d
00000170: d71c 123c c6f0 b93d 096c ccbd e6c2 e63d
00000180: fe04 453d f242 c33d f995 ddbc 844f 963d
00000190: 39f2 b8bd 2c9b 21bd a697 37bc ec4d a63d
000001a0: dc9f aabd e8e5 60bd 079a 93bd 0b36 bb3d
000001b0: 4790 b7bd 03fc 03bd 6063 893d 4db1 1fbd
000001c0: 8731 663c c401 a83c 6a5f 843d ef6f 213e
000001d0: 04c3 85bd aec7 503d 7758 2abd e9e2 a33d
000001e0: e0cf 94bd 8f87 20bd f217 f53d d10d 4c3d
000001f0: ff47 143d 6b05 2f3d d54e 7c3c fa70 c0bd
00000200: 9fcd 3b3c a467 98bd 3018 12bd c196 c03d
00000210: c433 18bd 3149 6c3d de2a c43d 87b7 c4bd
00000220: 6d13 8ebd 8ae0 c03d dedd d3bd a8bc 043e
00000230: ade0 a23c e93c 41bd 4a52 ce3d 74ff afbd
00000240: 934c d63d de66 30bd 2796 adbc 76ea febd
00000250: 4bdc d33c 0a5e fb3d 58f8 85bd ec5e d6bd
00000260: 7ec8 b8bc 0e02 c83d 9e9a 9c3d 8c4a b5bb
00000270: 937f d9bc bad3 0abd d272 6dbd 3325 bcbc
00000280: 6d61 f4bb 9633 c93b a089 5c3d d61b 013e
00000290: 07b7 b73d 2f76 adbd 4e8a ea3d 713d 083d
000002a0: 7711 b0bd 2138 05be 26f6 bc3b e45a 843d
000002b0: a6be 11bd bf3a 993d 6c76 8dbc 73d1 c5bd
000002c0: 04a3 dc3d 815b 8abd 9421 b93d be41 fe3d
000002d0: 2c15 0cbe 7d6f 053e c390 c9bd 91ba d03d
000002e0: 099d 88bd 9ad8 a5bd 4cfa 743d 49b6 d3bd
000002f0: 8997 ec3c 46d2 313d 4298 533d 16c0 83bc
00000300: b6ef 0e3d 3632 173d 4141 203e 1b13 003e
00000310: 08ba 0a3d 4103 823d 6564 f13d 4610 aebd
00000320: c72b 673d 63c5 a13c 0c0b df3d e54e c1bd
00000330: 828c 0f3e 854e b73d 9f5a 303c dfc3 09bd
00000340: 7ede 3a3d 865c 823d cf7f 72bd 7d61 4a3d
00000350: 5a78 093b 5fe6 dc3d 82b4 203d b85b 0b3e
00000360: 6632 bebd afd3 80bb ee42 59bd 553f e1bd
00000370: 9041 1a3c c4a8 c7bc 9ea8 9c3d aa40 b83d
00000380: 001d 19bd 7397 0e3e 9245 87bc 10d5 e33d
00000390: 4d28 7fbd ec06 f53d 33f8 093d 2944 b93d
000003a0: 545a fe3c be52 e33d 09e8 cd3d 6ef8 3f3d
000003b0: 4f3f ed3d 617e 90bd 707a 2abd 1838 cfbc
000003c0: 410a 52bd f818 4f3c 6cd5 a73d d0cc 6dbd
000003d0: c808 8b3d 227b a8bd 53c2 e03d 277a a1bc
000003e0: bc54 f53d b437 843c 9e1c cf3d bebf 1a3e
000003f0: f9d6 073d 40c6 403d dda1 50bd 7eac 15bd
