trained_models/CNN_LSTM/CNN_LSTM_Zscore_CF8_pred_0.pth (torch, 615091 bytes, 90 tensors)

conv1.0.weight f4 [32, 1, 1, 2]
-0.54973453 0.6353701 0.6105424 0.31177253 0.56628376 -0.2964857 0.05072862 0.30565277
-0.1293442 -0.30756587 -0.34120557 -0.493691 -0.13763174 -0.44960046 -0.2997937 0.73995435
-0.33166593 -0.6259154 -0.2154128 -0.54378206 -0.625528 0.074555434 0.5723227 0.15344661
-0.40858498 0.21864142 -0.46789932 0.29416576 -0.5811419 -0.5939195 0.43571317 0.6598014
-0.36958307 0.41538948 0.699646 -0.081977494 -0.45241213 0.5397372 -0.30974814 -0.630509
0.59324473 0.5192821 -0.110512905 -0.17286445 -0.33773914 0.14465374 0.2004324 0.6426562
0.5226022 0.7423571 -0.0056556524 -0.7784694 -0.41503638 -0.52443814 -0.06234412 -0.35403273
0.58258706 -0.6909261 -0.48458567 -0.033989515 -0.021847697 -0.21995175 -0.5250118 0.4010579
00000000: 67bb 0cbf 9da7 223f 824c 1c3f a6a0 9f3e
00000010: f9f7 103f f9cc 97be d0c8 4f3d 857e 9c3e
00000020: ce72 04be 4679 9dbe 7fb2 aebe 11c5 fcbe
00000030: 56ef 0cbe 0832 e6be 8f7e 99be a66d 3d3f
00000040: 1ed0 a9be fe3b 20bf 2c95 5cbe 4d35 0bbf
00000050: 9a22 20bf 85b0 983d be83 123f 1c21 1d3e
00000060: 0d32 d1be 89e3 5f3e 8090 efbe e59c 963e
00000070: b7c5 14bf 1c0b 18bf cc15 df3e bfe8 283f
00000080: fe39 bdbe eead d43e 001c 333f d1e3 a7bd
00000090: 90a2 e7be 382c 0a3f 4f97 9ebe 0a69 21bf
000000a0: e3de 173f acef 043f 9754 e2bd 6103 31be
000000b0: 25ec acbe 1c20 143e 273e 4d3e 1e85 243f
000000c0: 42c9 053f 1d0b 3e3f 0d53 b9bb c549 47bf
000000d0: a67f d4be 9441 06bf 8c5c 7fbd c743 b5be
000000e0: 6d24 153f 88e0 30bf 9d1b f8be 9738 0bbd
000000f0: f1f9 b2bc 083b 61be 2c67 06bf 7657 cd3e

conv1.0.bias f4 [32]
-0.291415 0.004743406 0.5456006 0.618476 -0.55878 -0.41217384 0.5506458 0.11046514
0.10774264 -0.07872109 -0.6090752 -0.32928255 0.02151083 -0.44916847 0.22460425 0.63066465
-0.24941242 0.2105252 0.5964391 0.35345232 0.13321142 0.34969565 -0.32526433 -0.46557766
0.73677486 -0.43142885 -0.23782781 -0.37220082 -0.060792014 0.3977803 -0.10305997 0.64806277
00000000: 5934 95be 936e 9b3b 7bac 0b3f 7154 1e3f
00000010: 350c 0fbf 7308 d3be 20f7 0c3f 8c3b e23d
00000020: 2ca8 dc3d 8638 a1bd 5aec 1bbf b997 a8be
00000030: 7b37 b03c 69f9 e5be a8fe 653e 3d73 213f
00000040: f865 7fbe eb93 573e 3cb0 183f b4f7 b43e
00000050: 9368 083e 4f0b b33e 0c89 a6be 3260 eebe
00000060: 479d 3c3f 3ee4 dcbe 2289 73be 1b91 bebe
00000070: 0c01 79bd dca9 cb3e 1b11 d3bd 71e7 253f

conv1.2.weight f4 [32]
0.9799231 0.9738516 0.92952394 1.0269747 1.0905124 0.9974102 1.0073884 0.96967864
1.0512706 1.0333961 0.9394398 0.9563714 0.91434765 0.9788748 1.0068415 0.99448556
0.9672251 0.97187936 0.93014365 1.0273876 0.9737721 1.0096339 0.96980536 1.0106227
1.0075138 1.0838693 0.92224765 1.0814766 1.0010682 0.89788526 1.0582741 0.9180094
00000000: 3edc 7a3f 574e 793f 48f5 6d3f e873 833f
00000010: e995 8b3f 4656 7f3f 1af2 803f dc3c 783f
00000020: 0990 863f 5346 843f 207f 703f c2d4 743f
00000030: b012 6a3f 8a97 7a3f 2fe0 803f 9b96 7e3f
00000040: 109c 773f 16cd 783f e51d 6e3f 7081 833f
00000050: 2149 793f af3b 813f 2a45 783f 165c 813f
00000060: 36f6 803f 3bbc 8a3f 6c18 6c3f d36d 8a3f
00000070: 0123 803f cfdb 653f 8775 873f aa02 6b3f

conv1.2.bias f4 [32]
0.07583858 0.08343378 -0.021641225 0.08653456 -0.06617793 0.044688974 -0.15857902 0.067138
-0.14840244 -0.10120039 0.05502763 0.061852507 0.058335144 0.04713386 -0.056732785 0.10866492
0.07437724 -0.018352715 0.01118017 -0.14828919 0.13854526 -0.11090997 0.032009874 0.03557849
0.119305834 0.034934867 0.012145607 -0.08777248 -0.004751612 -0.017584348 -0.022378892 0.05317153
00000000: 4251 9b3d 54df aa3d f048 b1bc 0839 b13d
00000010: 4b88 87bd c90b 373d 8a62 22be a67f 893d
00000020: cff6 17be 2642 cfbd a764 613d 0e59 7d3d
00000030: d5f0 6e3d 6f0f 413d a360 68bd b78b de3d
00000040: 1853 983d 6f58 96bc 082d 373c 1fd9 17be
00000050: cfde 0d3e c424 e3bd c91c 033d c0ba 113d
00000060: 9e56 f43d dd17 0f3d 5efe 463c 0fc2 b3bd
00000070: 69b3 9bbb 0d0d 90bc f053 b7bc 64ca 593d

conv1.2.running_mean f4 [32]
0.27503687 0.24187446 0.6298886 0.61881 -0.0055897036 0.014268253 0.5880585 0.39206347
0.23406355 0.09395799 0.017574089 0.10072686 0.26137233 0.08195779 0.34737074 0.643155
0.15895295 0.4506256 0.6901281 0.43645248 0.30456167 0.3566973 0.03834439 0.07746291
0.7513779 0.028691474 0.07539834 -0.0037151088 0.41988772 0.46002898 0.009907771 0.72508174
00000000: a2d1 8c3e f0ad 773e 6140 213f 556a 1e3f
00000010: d529 b7bb 64c5 693c 008b 163f 8bbc c83e
00000020: 5bae 6f3e 0c6d c03d 89f7 8f3c e249 ce3d
00000030: 98d2 853e 7cd9 a73d 94da b13e cea5 243f
00000040: 90c4 223e 66b8 e63e 3cac 303f b376 df3e
00000050: 82ef 9b3e 07a1 b63e 020f 1d3d e0a4 9e3d
00000060: 4d5a 403f 620a eb3c 726a 9a3d 2f79 73bb
00000070: 86fb d63e eb88 eb3e 3454 223c f59e 393f

conv1.2.running_var f4 [32]
0.35323524 0.09471934 0.4033178 0.08360427 7.6063357e-06 0.003141197 0.062348135 0.53157824
0.062845625 0.018610261 0.004223492 0.020832801 0.09731263 0.05988562 0.15879226 0.3465252
0.14080235 0.26943555 0.5884662 0.08770561 0.1694121 0.014511614 0.014355485 0.16373123
0.44723487 0.0050447974 0.02110586 1.152977e-05 0.2465547 0.15774685 0.00046997343 0.51808196
00000000: 40db b43e 37fc c13d ac7f ce3e b738 ab3d
00000010: ed39 ff36 8adc 4d3b c260 7f3d 8315 083f
00000020: 35b5 803d 8c74 983c 3865 8a3b 8da9 aa3c
00000030: d84b c73d a04a 753d 709a 223e c06b b13e
00000040: 7e2e 103e 75f3 893e b9a5 163f 009f b33d
00000050: 5e7a 2d3e 1fc2 6d3c 4533 6b3c 29a9 273e
00000060: f8fb e43e d44e a53b 32e6 ac3c fc6f 4137
00000070: d678 7c3e 6488 213e c466 f639 05a1 043f

conv1.4.weight f4 [32, 32, 4, 1]
0.03993025 0.07651767 0.084077165 0.027298598 0.054971993 -0.051003423 -0.08800929 0.0060210046
-0.015456069 -0.084531285 0.020513337 0.019520458 0.021025777 0.07941944 0.10211063 -0.07157469
0.059584297 0.010465121 -0.057606086 0.031662278 0.056470916 0.06244197 -0.07170162 0.09984964
-0.040971458 -0.070121236 -0.0070786695 -0.062914826 0.07112115 0.009855888 0.12292489 -0.104996204
-0.06887448 0.03378632 -0.050780736 0.03194612 0.0608185 -0.0030465422 -0.017501557 0.050720863
-0.022227205 -0.024456128 -0.021415288 -0.07190617 -0.06633097 -0.04599701 0.07806969 0.083160385
0.020829463 0.037160255 -0.0034918129 -0.08710606 0.0062023504 -0.05543116 0.03250417 -0.032676395
0.06811635 -0.044143315 -0.036202267 0.04758904 -0.061969563 0.024599528 0.072108835 -0.051462382
0.00058432523 -0.035904627 -0.004540732 0.007741869 0.015949277 -0.004178678 0.04343836 -0.08682419
-0.020402648 0.010504886 0.031199751 -0.002043453 -0.0427599 0.059827078 -0.0065628174 -0.059695672
0.037686978 -0.022014005 0.09322077 -0.07119855 -0.053076576 0.0767117 -0.07608945 0.08486215
0.012021913 0.03454278 0.13673228 0.0032460482 -0.017837634 0.038950182 0.0047838413 -0.058485083
0.045321748 -0.057765536 0.033688586 0.009068663 -0.06439479 0.0041296068 0.027194297 -0.048472885
-0.021747338 -0.055131488 -0.04730818 0.06304236 0.0021784685 -0.027225142 -0.10977236 0.061295014
-0.09173641 0.0041345344 0.017923122 -0.060906578 -0.034302786 0.092228785 -0.05120676 0.04606671
-0.0052525075 -0.063462965 -0.0106534 -0.07633047 0.04807971 0.0683617 0.083291 0.032773647
0.061899282 -0.08795494 0.041101024 0.0044512143 0.08243546 -0.06778548 0.04967497 0.045596853
0.0017520407 0.06522756 0.04414868 0.048584912 -0.02193205 -0.05729568 0.031018453 0.109173946
-0.080222055 -0.026863962 0.0132824825 -0.008846382 -0.020213455 -0.08567996 0.021968344 0.016195288
0.059924625 -0.041628968 -0.054680407 0.005044417 0.0065024192 -0.060236942 -0.02177247 0.029536664
0.03344654 0.008823851 0.05075013 -0.13518 0.06576556 0.004659068 0.005093498 -0.07703055
-0.012724409 0.08554287 -0.0016029109 -0.0532036 0.06274501 -0.075997874 -0.04112956 0.06307608
-0.038684938 -0.08997975 -0.02379916 -0.03566352 -0.019189904 -0.05971995 -0.040271223 0.049426265
-0.08665216 -0.068971954 0.026086042 -0.16214456 -0.018833851 -0.0024734566 -0.07825375 0.022011317
0.022310503 -0.007087584 -0.08193377 0.039342906 0.015116839 0.01426109 0.050378118 -0.037146904
0.021664409 0.042075276 -0.009003103 0.0017461207 0.028020205 -0.06737558 0.026365655 -0.046265766
0.07332513 -0.049771342 -0.012130997 -0.033869956 -0.048279174 0.02864352 0.07924578 -0.07698793
-0.024010196 0.07145309 0.06560765 0.034195997 -0.068982475 -0.07889862 -0.091418356 -0.033458684
-0.051577993 0.038726613 -0.049721245 0.0973853 0.070487924 0.022044677 0.03115941 0.04824905
0.021117395 0.013102582 0.035191435 0.009684649 0.018501902 -0.05259654 0.033257846 0.02559103
-0.047513347 -0.035234 -0.02427113 -0.11702097 -0.05468072 -0.05462569 -0.08266499 0.021899221
0.059958383 -0.014141887 0.023881007 -0.06536883 0.0030431543 0.049439773 -0.05150838 0.021880364
00000000: e78d 233d 4cb5 9c3d a630 ac3d 4fa1 df3c
00000010: 502a 613d f7e8 50bd 373e b4bd d94b c53b
00000020: 743b 7dbc bd1e adbd 960b a83c 5ee9 9f3c
00000030: 403e ac3c a9a6 a23d 611f d13d c095 92bd
00000040: aa0e 743d e675 2b3c 5cf4 6bbd 4eb0 013d
00000050: 0c4e 673d 27c3 7f3d 4dd8 92bd f87d cc3d
00000060: b0d1 27bd b99b 8fbd 2ff4 e7bb 7dd9 80bd
00000070: f7a7 913d 977a 213c 0bc0 fb3d 4008 d7bd
00000080: 100e 8dbd 8663 0a3d 76ff 4fbd efd9 023d
00000090: d21c 793d 7fa8 47bb 6d5f 8fbc aec0 4f3d
000000a0: d415 b6bc 3858 c8bc 1d6f afbc 8b43 93bd
000000b0: 88d8 87bd 5c67 3cbd 00e3 9f3d fe4f aa3d
000000c0: 8da2 aa3c 5a35 183d e6d6 64bb a964 b2bd
000000d0: 163d cb3b c90b 63bd 1823 053d afd7 05bd
000000e0: 9680 8b3d 9fcf 34bd d448 14bd baec 423d
000000f0: ccd3 7dbd f384 c93c ccad 933d 38ca 52bd
00000100: 672d 193a bb10 13bd 6cca 94bb 81af fd3b
00000110: 0fa8 823c 4bed 88bb 6cec 313d e2d0 b1bd
00000120: 7423 a7bc af1c 2c3c 9f96 ff3c 74eb 05bb
00000130: 0125 2fbd 3d0d 753d e70c d7bb 7383 74bd
00000140: a95d 1a3d b756 b4bc 88ea be3d 8cd0 91bd
00000150: d366 59bd 061b 9d3d c9d4 9bbd 35cc ad3d
00000160: 8ff7 443c bb7c 0d3d 8c03 0c3e a7bb 543b
00000170: 3b20 92bc 3a8a 1f3d c5c1 9c3b 0e8e 6fbd
00000180: 4ca3 393d 8e9b 6cbd 0bfd 093d bb94 143c
00000190: 6ae1 83bd a751 873b 93c6 de3c 818b 46bd
000001a0: 7927 b2bc 8ed1 61bd 39c6 41bd 5a1c 813d
000001b0: a3c4 0e3b 4307 dfbc 55d0 e0bd 7b10 7b3d
000001c0: 4de0 bbbd fd7a 873b 83d3 923c 2d79 79bd
000001d0: 1481 0cbd 72e2 bc3d 2ebe 51bd 72b0 3c3d
000001e0: 3a1d acbb dff8 81bd 998b 2ebc 2653 9cbd
000001f0: 3bef 443d 3801 8c3d 7994 aa3d a93d 063d
00000200: 1a8a 7d3d b821 b4bd 8c59 283d 7edb 913b
00000210: ecd3 a83d 1dd3 8abd fb77 4b3d c4c3 3a3d
00000220: bba4 e53a 0796 853d 3fd5 343d f900 473d
00000230: d8aa b3bc e0ae 6abd 691a fe3c 9796 df3d
00000240: 764b a4bd d011 dcbc c59e 593c 6af0 10bc
00000250: b096 a5bc fa78 afbd f5f6 b33c fbab 843c
00000260: 8673 753d 2383 2abd 90f8 5fbd a34b a53b
00000270: 3f12 d53b 03bb 76bd 2e5c b2bc e0f6 f13c
00000280: 3dff 083d ea91 103c 5edf 4f3d a06c 0abe
00000290: 18b0 863d 18ab 983b 5ce7 a63b 31c2 9dbd
000002a0: 0a7a 50bc 1a31 af3d c418 d2ba 05ec 59bd
000002b0: 7580 803d c6a4 9bbd 7877 28bd 082e 813d
000002c0: 1974 1ebd 4e47 b8bd 75f6 c2bc e913 12bd
000002d0: 2534 9dbc e89c 74bd 70f3 24bd 3273 4a3d
000002e0: b076 b1bd 2b41 8dbd 65b2 d53c 3909 26be
000002f0: 7349 9abc b719 22bb 8143 a0bd 1451 b43c
00000300: 84c4 b63c f73e e8bb e4cc a7bd 0726 213d
00000310: 9eac 773c 59a7 693c 4959 4e3d 5a27 18bd
00000320: 8f79 b13c 2057 2c3d c081 13bc 17de e43a
00000330: a18a e53c 35fc 89bd c9fc d73c 2c81 3dbd
00000340: 7c2b 963d 09dd 4bbd 17c1 46bc 39bb 0abd
00000350: 62c0 45bd d1a5 ea3c 9d4b a23d d9ab 9dbd
00000360: 08b1 c4bc ff55 923d 4e5d 863d 1a11 0c3d
00000370: af46 8dbd 9a95 a1bd 8c39 bbbd f90b 09bd
00000380: 7243 53bd cc9f 1e3d 81a8 4bbd f271 c73d
00000390: f95b 903d 0a97 b43c 0542 ff3c cca0 453d
000003a0: 63fe ac3c 36ac 563c e524 103d 5dac 1e3c
000003b0: 4d91 973c 786f 57bd 6139 083d 48a4 d13c
000003c0: 5b9d 42bd 8751 10bd 40d4 c6bc b1a8 efbd
000003d0: e4f8 5fbd 30bf 5fbd 434c a9bd ff65 b33c
000003e0: ec96 753d 60b3 67bc 1aa2 c33c 18e0 85bd
000003f0: a86f 473b 5c81 4a3d 73fa 52bd 733e b33c

conv1.4.bias f4 [32]
0.017718168 0.025730936 0.012782064 0.03183926 -0.039714713 -0.07701095 -0.12776028 -0.041385856
0.07864455 -0.0027342082 0.02573121 0.04766936 -0.039980993 -0.049529497 -0.07774944 0.12720059
-0.01720031 0.11977036 0.02394108 -0.12391901 0.04154413 0.13266984 0.0643136 -0.0766216
0.09249811 -0.08735359 -0.045390535 0.045540586 0.07110234 0.05194963 -0.014822477 -0.003443381
00000000: b125 913c afc9 d23c dd6b 513c e269 023d
00000010: e5ab 22bd ebb7 9dbd 97d3 02be 3784 29bd
00000020: 6510 a13d 6730 33bb 42ca d23c f240 433d
00000030: 1cc3 23bd 71df 4abd 193b 9fbd df40 023e
00000040: aae7 8cbc 2a4a f53d 1520 c43c 40c9 fdbd
00000050: 2d2a 2a3d 9ada 073e d9b6 833d c9eb 9cbd
00000060: a66f bd3d 70e6 b2bd 6deb 39bd c488 3a3d
00000070: 1b9e 913d 23c9 543d f9d9 72bc 59aa 61bb

conv1.6.weight f4 [32]
0.9804193 0.97999537 0.99428624 1.0103471 1.0003289 1.0348896 0.96240085 0.95786595
1.0698216 1.0112525 0.9782093 0.9925193 0.9801936 0.9925419 0.94646543 1.0270381
0.9863189 1.0186043 0.9797671 0.9661833 0.96988523 1.0295253 0.96243614 0.9893266
0.9966236 1.0009427 0.97712797 0.9925719 1.0431374 1.0867889 1.0176679 0.96009356
00000000: c2fc 7a3f fae0 7a3f 8b89 7e3f 0e53 813f
00000010: c70a 803f 4377 843f e75f 763f b436 753f
00000020: eaef 883f b970 813f ed6b 7a3f bf15 7e3f
00000030: f8ed 7a3f 3a17 7e3f 8f4b 723f fc75 833f
00000040: 657f 7c3f a061 823f 04d2 7a3f ca57 773f
00000050: 664a 783f 7cc7 833f 3762 763f 8244 7d3f
00000060: b922 7f3f e41e 803f 0f25 7a3f 3119 7e3f
00000070: 8785 853f e61b 8b3f f142 823f b1c8 753f

conv1.6.bias f4 [32]
0.0133807575 0.042359598 0.013640476 0.012385818 0.00031262517 -0.038077086 0.006834448 -0.022250453
0.015225013 0.04390272 0.0041328585 0.004401899 0.06592838 0.0035937238 -0.034333196 -0.013732243
-0.050732475 -0.013537638 -0.025686085 -0.026813066 -0.026733264 -0.006997878 0.03581478 0.06635336
0.06501362 -0.0092373295 -0.04912562 -0.08314559 -0.00662246 -0.044158913 0.0045566657 0.030535886
00000000: f73a 5b3c 4281 2d3d 4e7c 5f3c e3ed 4a3c
00000010: d7e7 a339 b8f6 1bbd 81f3 df3b 9546 b6bc
00000020: 5572 793c 57d3 333d ee6c 873b ce3d 903b
00000030: 7505 873d ae84 6b3b f7a0 0cbd 34fd 60bc
00000040: dbcc 4fbd f8cc 5dbc a06b d2bc 13a7 dbbc
00000050: b8ff dabc 754e e5bb 85b2 123d 45e4 873d
00000060: dc25 853d 2b58 17bc f237 49bd 3c48 aabd
00000070: 3901 d9bb fadf 34bd 1550 953b 6526 fa3c

conv1.6.running_mean f4 [32]
0.47770303 0.35592034 0.7437761 0.59128034 0.26358235 0.2699738 0.5308816 0.4666076
0.28123456 0.5786088 0.32645127 0.6606003 0.48600537 0.49684805 0.35387716 0.5225571
0.5624713 0.33157974 0.57080275 0.45423958 0.5021698 0.32460716 0.6314449 0.39312765
0.5401548 0.51131237 0.49734688 0.45230016 0.4312535 0.32593924 0.5572528 0.3003575
00000000: 7e95 f43e 313b b63e 1c68 3e3f 265e 173f
00000010: 44f4 863e 023a 8a3e dbe7 073f 31e7 ee3e
00000020: fafd 8f3e b51f 143f 9f24 a73e 1a1d 293f
00000030: b2d5 f83e de62 fe3e 632f b53e 4dc6 053f
00000040: 1efe 0f3f d2c4 a93e 2120 123f 1792 e83e
00000050: 338e 003f e932 a63e 5fa6 213f 0748 c93e
00000060: 9647 0a3f 5ee5 023f 40a4 fe3e e393 e73e
00000070: 42cd dc3e 82e1 a63e 1fa8 0e3f 75c8 993e

conv1.6.running_var f4 [32]
0.70816857 0.18408234 0.8785516 1.4229631 0.33588412 0.29366985 0.63496864 0.43026337
0.20470059 0.60238093 0.4638372 0.69320846 1.6998403 0.43530318 0.43230417 0.53020316
1.012505 0.4499189 0.5905677 0.45566776 0.3927865 0.23705578 0.66613567 0.6193262
1.0523695 0.4872365 0.67954236 0.51952076 0.70944774 0.29958412 1.274459 0.3041106
00000000: 894a 353f 1580 3c3e c2e8 603f a823 b63f
00000010: 01f9 ab3e e55b 963e 4e8d 223f 7b4b dc3e
00000020: 089d 513e a335 1a3f 127c ed3e 1c76 313f
00000030: 5e94 d93f 0fe0 de3e f956 dd3e 65bb 073f
00000040: c499 813f c55b e63e 722f 173f 494d e93e
00000050: 501b c93e c0be 723e de87 2a3f 298c 1e3f
00000060: 0bb4 863f 1077 f93e 7df6 2d3f 50ff 043f
00000070: 5e9e 353f 1763 993e 7921 a33f 62b4 9b3e

conv1.7.weight f4 [32, 32, 4, 1]
-0.01157626 -0.039450288 0.05898863 -0.10485884 0.052289847 -0.09233542 -0.023219125 0.03628715
-0.008047318 -0.042498693 -0.063635185 0.076337434 -0.020669159 0.05379601 -0.053557567 -0.022064984
0.043145865 0.07996507 0.06580506 -0.025838844 -0.06400326 0.052147474 -0.06739093 -0.00904996
0.027474923 -0.048000224 -0.038559247 0.019567158 -0.04216091 0.0736323 -0.025156606 -0.04312345
-0.004923044 -0.009325411 -0.08260744 0.1722422 -0.04317139 -0.078685194 -0.010478436 0.007844652
-0.010032275 -0.022444306 0.0022783633 0.007844063 -0.0013363231 -0.002661497 0.09667481 0.08700327
-0.05098056 0.048090756 0.08182659 -0.019236209 0.06955413 0.01851809 -0.01860411 0.013746792
-0.048735667 0.038850028 0.042551562 0.04601113 -0.057204794 0.06507605 -0.013687024 -0.025396321
-0.028289616 -0.0509326 -0.04310739 0.045496408 0.0062476927 0.0037197918 -0.037699822 0.098628595
0.014747529 0.072415635 -0.038527608 -0.014354109 0.039824363 0.05182497 0.013020249 0.027862053
0.028770482 0.04102244 0.05437644 0.0574772 -0.05446169 -0.025041757 -0.046178166 0.013395085
0.011256888 0.043756615 -0.056199167 0.0026656052 0.0038586357 0.017064834 0.035269532 -0.02307625
0.02791722 0.09548467 -0.050060455 -0.053099684 -0.06609215 0.060655914 -0.015235565 -0.015965275
-0.043483593 -0.015956033 0.06585719 -0.08176421 -0.055502597 0.035453193 -0.043866057 -0.01108471
-0.026634343 0.021008812 -0.04760757 0.1534797 0.0015010863 -0.013643623 -0.009056592 -0.02039854
-0.04274723 -0.0658409 0.0037641132 0.063271105 0.062429607 0.055985853 -0.00461179 0.06165125
0.029045416 -0.050704516 -0.013521695 -0.02319811 0.014510575 0.008044494 0.013454237 0.0007408151
-0.08695726 -0.10953042 -0.004344531 -0.002888049 -0.048227254 -0.0045379214 0.03507366 -0.0020150545
0.0367774 0.06368325 0.037246108 -0.035883475 -0.087053984 -0.05564095 -0.07625636 -0.149558
-0.04873826 -0.020050116 0.021770878 0.023731006 -0.013024089 -0.019054178 -0.034890324 -0.035956915
0.069844276 -0.03992588 0.06827057 0.10209021 0.024102492 0.005966046 -0.012994518 -0.069025986
-0.052485652 0.037750833 0.08501582 0.01121758 0.011130131 -0.098161876 0.037943147 -0.07151948
-0.031423233 0.070295565 -0.060966805 0.0016354541 -0.028485266 0.002652379 -0.04853721 -0.04497819
-0.067218095 0.005091148 0.0049286415 -0.057575352 0.03930253 -0.024992622 -0.0025239885 -0.095696814
-0.05983144 0.06520226 -0.04455379 -0.010358823 0.001441845 -0.026659023 0.048211887 -0.06034445
-0.0700249 -0.08909674 -0.041454915 -0.038563173 -0.009868976 0.03410999 -0.120568365 -0.035151575
-0.0550089 -0.036118764 -0.02280956 -0.07587665 -0.02197092 -0.019616231 0.013006532 -0.07738529
0.024213191 0.015893036 0.051666096 -0.022850001 -0.04779204 0.013975913 0.00946266 0.015192566
-0.028075023 -0.011891723 0.07624215 0.062442083 -0.0670175 -0.022565467 -0.101746075 -0.0903634
0.048014443 -0.07446929 0.006810443 0.01571522 0.025281223 0.043361932 -0.093715005 -0.0614303
-0.034687962 0.028348135 -0.062556095 -0.002334463 -0.00088981097 -0.00062017475 -0.053529408 -0.12083217
-0.0635324 -0.042638402 0.021879407 0.049695928 -0.07925134 0.048197873 -0.017950246 0.0112741655
00000000: 5baa 3dbc a096 21bd 109e 713d 3bc0 d6bd
00000010: e12d 563d 5a1a bdbd 0936 bebc d6a1 143d
00000020: e6d8 03bc 1c13 2ebd 2a53 82bd cd56 9c3d
00000030: 5e52 a9bc 3459 5c3d 2e5f 5bbd a0c1 b4bc
00000040: b8b9 303d bac4 a33d cec4 863d fcab d3bc
00000050: 2414 83bd 9798 553d 4204 8abd 4946 14bc
00000060: 1713 e13c e29b 44bd 4df0 1dbd 4e4b a03c
00000070: ebb0 2cbd 88cc 963d 3a15 cebc 37a2 30bd
00000080: 7c51 a1bb 9cc9 18bc 172e a9bd 4260 303e
00000090: 7cd4 30bd b425 a1bd bfad 2bbc db86 003c
000000a0: 695e 24bc 1fdd b7bc 9850 153b 6384 003c
000000b0: 9027 afba 836c 2ebb 71fd c53d c52e b23d
000000c0: fed0 50bd d0fa 443d b394 a73d 4195 9dbc
000000d0: 6572 8e3d 40b3 973c a667 98bc 3a3a 613c
000000e0: 0d9f 47bd 3521 1f3d 8c4a 2e3d 2b76 3c3d
000000f0: 934f 6abd 9846 853d 8a3f 60bc f20b d0bc
00000100: a0bf e7bc b49e 50bd 6091 30bd 715a 3a3d
00000110: 72b9 cc3b c0c7 733b 216b 1abd cafd c93d
00000120: 9f9f 713c a64e 943d 20cf 1dbd 7f2d 6bbc
00000130: df1e 233d 6b46 543d e252 553c f63e e43c
00000140: 13b0 eb3c 2507 283d d4b9 5e3d 366d 6b3d
00000150: 3913 5fbd 5f24 cdbc 5125 3dbd 0f77 5b3c
00000160: cf6e 383c 233a 333d 1931 66bd 6fb1 2e3b
00000170: 2ae1 7c3b 8dcb 8b3c c976 103d 670a bdbc
00000180: a7b2 e43c 778d c33d 310c 4dbd 0e7f 59bd
00000190: 525b 87bd 5672 783d 979e 79bc 9cc9 82bc
000001a0: da1b 32bd 3ab6 82bc 22e0 863d fe73 a7bd
000001b0: b156 63bd 5e37 113d e5ac 33bd a59c 35bc
000001c0: 4430 dabc ac1a ac3c 2800 43bd c829 1d3e
000001d0: 19c0 c43a 8189 5fbc 1a62 14bc d71a a7bc
000001e0: b817 2fbd 98d7 86bd 57af 763b 4894 813d
000001f0: 30b6 7f3d 6c51 653d 801e 97bb 0586 7c3d
00000200: a7f0 ed3c 8aaf 4fbd 198a 5dbc f609 bebc
00000210: c3bd 6d3c 0ecd 033c 296f 5c3c 4333 423a
00000220: a616 b2bd 7c51 e0bd 915c 8ebb 6c45 3dbb
00000230: f189 45bd d8b2 94bb 66a9 0f3d 010f 04bb
00000240: e6a3 163d 5d6c 823d 608f 183d 8dfa 12bd
00000250: 5c49 b2bd c4e7 63bd 4b2c 9cbd bb25 19be
00000260: c5a1 47bd 2440 a4bc d758 b23c 8767 c23c
00000270: fd62 55bc 8217 9cbc 28e9 0ebd 8f47 13bd
00000280: 840a 8f3d 5289 23bd 71d1 8b3d ac14 d13d
00000290: 9772 c53c d27e c33b f5e6 54bc 7f5d 8dbd
000002a0: 32fb 56bd 9ea0 1a3d c61c ae3d f1c9 373c
000002b0: 275b 363c 1809 c9bd 466a 1b3d ce78 92bd
000002c0: a6b5 00bd 1ff7 8f3d 54b8 79bd bc5c d63a
000002d0: ef59 e9bc 89d3 2d3b f4ce 46bd 0d3b 38bd
000002e0: a4a9 89bd a5d3 a63b 7180 a13b 22d4 6bbd
000002f0: b1fb 203d 54bd ccbc 8069 25bb b1fc c3bd
00000300: d011 75bd c388 853d 097e 36bd 0eb8 29bc
00000310: 4afc bc3a 0664 dabc d479 453d be2b 77bd
00000320: 3769 8fbd 5a78 b6bd a1cc 29bd 6bf4 1dbd
00000330: 7cb1 21bc ebb6 0b3d 8cec f6bd 19fb 0fbd
00000340: 0351 61bd 45f1 13bd 1ddb babc 3865 9bbd
00000350: 5cfc b3bc 38b2 a0bc 5919 553c 2e7c 9ebd
00000360: be5a c63c 1d32 823c d49f 533d ed2f bbbc
00000370: 96c1 43bd 3afb 643c 4609 1b3c 3eea 783c
00000380: 97fd e5bc 80d5 42bc d824 9c3d 45c3 7f3d
00000390: 7940 89bd 37db b8bc 3f60 d0bd 7210 b9bd
000003a0: cbaa 443d 5b83 98bd 232a df3b 34bd 803c
000003b0: 911a cf3c 489c 313d a7ed bfbd 579e 7bbd
000003c0: f714 0ebd 593a e83c 691d 80bd cafd 18bb
000003d0: 3442 69ba 3993 22ba a741 5bbd db76 f7bd
000003e0: 461d 82bd 9ba5 2ebd 713c b33c f58d 4b3d
000003f0: 874e a2bd 226b 453d 650c 93bc 47b7 383c

conv1.7.bias f4 [32]
-0.062267695 -0.025174782 -0.08729272 -0.016521228 -0.016012931 -0.02580951 0.03739032 -0.03951777
-0.072037175 0.07921771 0.035169348 -0.1239297 -0.0060486114 -0.057717264 0.04651172 -0.030955436
-0.036968097 -0.0363029 -0.03238082 -0.0056565404 0.0013861083 0.03476715 0.060926694 0.035089843
0.046447817 0.0505786 0.034831997 0.03614522 -0.001621106 -0.1481211 -0.043376483 -3.694035e-05
00000000: 690c 7fbd 583b cebc 87c6 b2bd 8757 87bc
00000010: 8d2d 83bc 776e d3bc 9826 193d 63dd 21bd
00000020: 3a88 93bd e53c a23d bc0d 103d dbce fdbd
00000030: 6e33 c6bb f068 6cbd 1383 3e3d 4196 fdbc
00000040: dc6b 17bd 5ab2 14bd c0a1 04bd 805a b9bb
00000050: 14ae b53a 0068 0e3d 458e 793d 5eba 0f3d
00000060: 1140 3e3d 822b 4f3d ffab 0e3d 030d 143d
00000070: 4b7b d4ba 0fad 17be 8aab 31bd 66f0 1ab8

conv1.9.weight f4 [32]
0.99987084 0.9759101 0.97312695 0.98983824 1.0574872 1.0283312 0.9918558 0.9694522
0.9909526 0.965069 0.9874409 1.0386797 0.97110814 0.98755413 0.97886014 1.0243237
0.9678629 0.93174607 0.96802 1.000897 0.94861484 1.0319011 0.96753925 0.9829256
0.9947438 0.96604407 0.9756768 0.9644258 1.011028 1.1691046 0.9662114 0.9811355
00000000: 89f7 7f3f 3fd5 793f d91e 793f 0a66 7d3f
00000010: be5b 873f 5ba0 833f 43ea 7d3f 052e 783f
00000020: 12af 7d3f c30e 773f edc8 7c3f 75f3 843f
00000030: 8b9a 783f 59d0 7c3f 9496 7a3f 0a1d 833f
00000040: ddc5 773f e986 6e3f 29d0 773f 651d 803f
00000050: 6cd8 723f 5615 843f a7b0 773f 03a1 7b3f
00000060: 88a7 7e3f aa4e 773f f4c5 793f 9ce4 763f
00000070: 5e69 813f 38a5 953f a159 773f b22b 7b3f

conv1.9.bias f4 [32]
0.0072711073 -0.00032025366 9.168779e-05 0.02550875 0.0026028883 0.03056013 -0.045406755 0.004866075
0.037798375 0.035796314 -0.044002727 -0.0027770493 0.05657331 -0.017438242 0.004516218 -0.0070686243
-0.017928194 0.009847478 0.04040076 -0.0034315514 0.034256283 0.003699325 -0.015833091 0.01616309
0.04042174 -0.009009594 0.02918922 0.0003535854 0.012956274 0.03326694 -0.073996134 0.037661467
00000000: 7842 ee3b b8e7 a7b9 8248 c038 baf7 d03c
00000010: 3895 2a3b 3d59 fa3c 6ffc 39bd 9873 9f3b
00000020: 78d2 1a3d 289f 123d 343c 34bd 28ff 35bb
00000030: 6ab9 673d a5da 8ebc c8fc 933b eb9f e7bb
00000040: 26de 92bc 5157 213c 447b 253d e1e3 60bb
00000050: 5150 0c3d 6070 723b 66b4 81bc 7568 843c
00000060: 4491 253d fa9c 13bc 3b1e ef3c 6e61 b939
00000070: 8d46 543c ea42 083d 498b 97bd e942 1a3d

conv1.9.running_mean f4 [32]
0.15724805 0.657282 0.47646436 0.49778187 0.27212027 0.5992743 0.46489787 0.31256586
0.2595779 0.6077957 0.55046046 0.11055343 0.4092166 0.34599176 0.38050017 0.29080623
0.3664391 0.46937048 0.47907647 0.44604093 0.28114963 0.6321132 0.48419234 0.48384908
0.3255323 0.35388988 0.23776668 0.4067835 0.677037 0.10641137 0.5573787 0.24432307
00000000: a205 213e a243 283f 23f3 f33e 44dd fe3e
00000010: 5953 8b3e 0a6a 193f 1807 ee3e a208 a03e
00000020: 65e7 843e 8098 1b3f faea 0c3f d669 e23d
00000030: d784 d13e d525 b13e ebd0 c23e 8ee4 943e
00000040: e89d bb3e 5451 f03e 8349 f53e 7a5f e43e
00000050: d8f2 8f3e 2cd2 213f 0fe8 f73e 11bb f73e
00000060: 2bac a63e 0e31 b53e 1c79 733e ed45 d03e
00000070: 4c52 2d3f 34ee d93d 5fb0 0e3f d42f 7a3e

conv1.9.running_var f4 [32]
0.12674603 0.48870122 0.90825146 0.53090566 0.20666574 0.76830673 0.5587064 0.35613865
0.14975981 0.42576236 0.5458567 0.14107132 0.49593872 0.21710585 0.24585868 0.2281592
0.33050764 0.9586437 0.41036028 0.4362243 0.77367616 0.54869837 0.62389165 0.4973425
0.31600004 0.22164585 0.26650172 0.8602641 0.7991511 0.13087635 1.587566 0.19852841
00000000: b6c9 013e 0c37 fa3e 2b83 683f 6fe9 073f
00000010: 2fa0 533e c0af 443f 6207 0f3f ce57 b63e
00000020: a35a 193e 86fd d93e 44bd 0b3f 0075 103e
00000030: aeeb fd3e ff50 5e3e 61c2 7b3e 91a2 693e
00000040: 4c38 a93e ac69 753f be1a d23e cb58 df3e
00000050: a40f 463f 7f77 0c3f 5db7 1f3f ada3 fe3e
00000060: c2ca a13e 21f7 623e ea72 883e 453a 5c3f
00000070: 2b95 4c3f 7304 063e 5d35 cb3f 084b 4b3e

conv2.0.weight f4 [32, 32, 1, 2]
-0.049186945 -0.028674344 0.04489203 -0.10090516 -0.10360138 -0.041405406 0.08878667 0.02815284
-0.13559371 -0.14873697 0.13950385 0.028913366 -0.102369584 -0.07636466 0.052052382 -0.111387566
0.021645198 0.018302632 0.07096926 0.10824952 0.06620202 0.03808189 -0.07556707 -0.109600514
0.057519153 -0.008789353 -0.07098525 0.13995852 0.12438634 0.04599029 0.02384484 0.07418313
0.05159608 0.046107702 0.03722116 -0.06334201 0.06165032 0.0010602213 -0.0047655283 -0.120433666
0.06842764 0.10961188 -0.018144965 0.09283216 -0.063542895 -0.095383644 0.0037814153 0.020197274
-0.042158585 -0.091034286 0.015591205 0.0036347704 0.08527536 0.08289049 0.01898159 -0.104998514
-0.06600116 0.04604424 0.09696718 0.09631727 -0.06614613 0.051903393 -0.05073207 0.035022292
0.054404613 -0.049876265 -0.0045013186 0.061940048 -0.09720921 0.10618217 -0.039625723 0.015225909
-0.027093614 0.13238786 0.0528144 0.07274085 -0.071816556 -0.09414641 -0.027286686 0.025333162
0.036138806 -0.042009663 0.09555699 0.020474264 -0.13263191 0.038513035 0.09302487 0.0024156934
0.07965656 -0.018451208 -0.115973465 -0.05577661 -0.040747996 0.043159083 0.08596034 -0.0797947
0.15024395 -0.11506041 0.008338293 0.085889444 0.02751797 0.021101044 0.02560615 -0.04394059
0.08652868 -0.04202517 -0.045717925 -0.12517677 0.012396898 -0.09038566 0.1037164 -0.035524305
0.005424865 0.007857808 0.039537467 0.07103485 0.11633592 0.030442279 -0.052756578 0.08892709
0.064217865 -0.04407989 0.062196176 -0.13010906 -0.022780528 -0.023986386 -0.091582336 0.05330137
0.12410108 0.01299471 -0.022930296 0.14953823 0.027933018 -0.044014856 0.096046746 0.045060683
0.113767795 0.006598027 0.051091604 -2.2009519e-05 0.10234649 0.05147094 -0.12522766 -0.09609566
-0.14136516 0.083906375 0.032660507 0.051186085 0.024196254 0.045518644 -0.07710141 0.0008077722
0.013978187 -0.08535029 -0.008178758 -0.028653787 -0.0025152746 -0.118996404 -0.0854081 0.13211928
0.10142595 0.08969307 0.0039189677 0.094329566 0.03192689 -0.0522675 0.08227396 0.053184547
-0.06693206 0.051672038 -0.10798802 -0.0007201399 -0.049805503 -0.07048502 0.108578704 0.11655631
0.06915904 0.04374344 -0.04059487 0.07960415 -0.06560251 0.05425727 -0.09939408 -0.10495442
-0.010005078 0.12689278 0.0068680863 -0.04952437 0.045800284 -0.07293429 0.049654175 -0.052207638
0.08976622 0.046717558 -0.11364909 -0.028179534 0.019317318 -0.02445404 0.08083615 0.13588619
0.005066013 -0.091965064 0.080788195 0.023428015 0.06433854 -0.12340984 0.075390466 -0.027961364
-0.047772985 -0.09507651 -0.03948275 0.10317417 -0.027376989 0.047373928 0.10420458 0.094749555
-0.10681723 -0.0783194 -0.012284496 -0.029261446 0.012727883 -0.05311499 0.08626313 -0.055877622
-0.1455646 -0.14735098 0.10131739 -0.058605958 0.10536874 0.14549403 -0.028974388 0.1487357
0.12380443 0.050871376 0.0762145 0.022205107 0.062082842 -0.034573827 -0.048586234 -0.09272426
0.0073834234 -0.044308234 -0.005978236 -0.08387003 0.12859719 -0.10237619 0.1334681 0.04140801
-0.027743068 0.10188385 0.010912505 0.07043624 -0.08106121 0.034565054 -0.010810639 0.089502975
00000000: 4078 49bd 75e6 eabc b5e0 373d 5da7 cebd
00000010: f62c d4bd b798 29bd c9d5 b53d c9a0 e63c
00000020: 14d9 0abe 814e 18be 19da 0e3e b9db ec3c
00000030: 25a7 d1bd 1365 9cbd e134 553d 2a1f e4bd
00000040: 4551 b13c 67ef 953c 5558 913d edb1 dd3d
00000050: ed94 873d c2fb 1b3d e8c2 9abd 3c76 e0bd
00000060: 3499 6b3d 3801 10bc b760 91bd 4951 0f3e
00000070: 44be fe3d 5060 3c3d 4156 c33c 53ed 973d
00000080: 6956 533d 6edb 3c3d 3775 183d 75b9 81bd
00000090: 0c85 7c3d 20f7 8a3a 2628 9cbb eda5 f6bd
000000a0: ca23 8c3d 317c e03d c0a4 94bc ca1e be3d
000000b0: c722 82bd 8058 c3bd 9fd1 773b c174 a53c
000000c0: 7bae 2cbd 2f70 babd 4172 7f3c 5435 6e3b
000000d0: d9a4 ae3d 7dc2 a93d 487f 9b3c 7609 d7bd
000000e0: 9e2b 87bd e398 3c3d bb96 c63d fd41 c53d
000000f0: 9f77 87bd a798 543d 6ecc 4fbd 8973 0f3d
00000100: 5fd7 5e3d 0e4b 4cbd cc7f 93bb d9b4 7d3d
00000110: 9f15 c7bd 0a76 d93d 954e 22bd 1776 793c
00000120: 6df3 ddbc af90 073e ea53 583d 28f9 943d
00000130: 8f14 93bd d5cf c0bd 5488 dfbc 7e87 cf3c
00000140: 4906 143d 5312 2cbd 62b3 c33d a5b9 a73c
00000150: a9d0 07be d8bf 1d3d d383 be3d 9c50 1e3b
00000160: fb22 a33d fd26 97bc 7f83 edbd 0476 64bd
00000170: 5fe7 26bd 94c7 303d fa0b b03d 676b a3bd
00000180: 8dd9 193e cba4 ebbd 569d 083c cee6 af3d
00000190: 5e6d e13c 19dc ac3c fdc3 d13c 0cfb 33bd
000001a0: f335 b13d 9622 2cbd b842 3bbd 572e 00be
000001b0: 5c1c 4b3c 1e1c b9bd 4469 d43d ef81 11bd
000001c0: 11c3 b13b 09be 003c 0af2 213d b87a 913d
000001d0: 8741 ee3d 1662 f93c 4817 58bd 681f b63d
000001e0: a884 833d 1d8d 34bd 6bc1 7e3d 4f3b 05be
000001f0: 3b9e babc 197f c4bc 858f bbbd 8a52 5a3d
00000200: b528 fe3d c4e7 543c 51d8 bbbc 8d20 193e
00000210: c9d3 e43c ec48 34bd 28b4 c43d 8d91 383d
00000220: 17ff e83d 4334 d83b 6e45 513d 15a1 b8b7
00000230: 099b d13d 31d3 523d ae3b 00be cdcd c4bd
00000240: 07c2 10be 1bd7 ab3d 06c7 053d 80a8 513d
00000250: 3937 c63c c271 3a3d 58e7 9dbd adc0 533a
00000260: c404 653c 22cc aebd 3300 06bc 59bb eabc
00000270: 4ed7 24bb 63b4 f3bd 71ea aebd 474a 073e
00000280: 69b8 cf3d 00b1 b73d af6a 803b dc2f c13d
00000290: c5c5 023d 7216 56bd 407f a83d 0ad8 593d
000002a0: ad13 89bd 0fa6 533d d328 ddbd c5c7 3cba
000002b0: db00 4cbd 735a 90bd 835e de3d 13b5 ee3d
000002c0: 41a3 8d3d 522c 333d ce46 26bd 8007 a33d
000002d0: 9c5a 86bd df3c 5e3d 208f cbbd 58f2 d6bd
000002e0: 57ec 23bc 2ef0 013e af0d e13b 11da 4abd
000002f0: 1499 3b3d 935e 95bd 2d62 4b3d add7 55bd
00000300: 5ad7 b73d e95a 3f3d dbc0 e8bd c4d8 e6bc
00000310: 5a3f 9e3c d753 c8bc 6c8d a53d c025 0b3e
00000320: cc00 a63b 2e58 bcbd 4874 a53d 1cec bf3c
00000330: edc3 833d 4cbe fcbd 5166 9a3d 3b0f e5bc
00000340: 9bad 43bd 79b7 c2bd aab8 21bd fb4c d33d
00000350: b545 e0bc 2a0b 423d 3669 d53d 0e0c c23d
00000360: fec2 dabd ec65 a0bd e944 49bc b3b5 efbc
00000370: 9c88 503c 1b8f 59bd b9aa b03d efdf 64bd
00000380: e30e 15be 2de3 16be 7e7f cf3d cd0c 70bd
00000390: 91cb d73d 63fc 143e b25b edbc 2c4e 183e
000003a0: 2d8d fd3d 815e 503d 5916 9c3d 7ce7 b53c
000003b0: 944a 7e3d 499d 0dbd 5c02 47bd 38e6 bdbd
000003c0: a5f0 f13b 8d7c 35bd 14e5 c3bb 0dc4 abbd
000003d0: fbae 033e 9caa d1bd ddab 083e 729b 293d
000003e0: 6e45 e3bc 7ba8 d03d 5dca 323c e040 903d
000003f0: 6b03 a6bd 1694 0d3d 1b1f 31bc 564d b73d

conv2.0.bias f4 [32]
-0.099986665 0.00701544 0.09868552 0.09899048 0.11830931 0.02333322 0.07269735 -0.062407877
-0.06977795 -0.0024690714 0.06701547 0.092734076 0.16106433 0.016278768 0.051791567 0.08995749
-0.0032807135 -0.072549336 -0.03781279 -0.1324608 -0.030324234 -0.0050401003 -0.10915311 0.13066432
-0.0898832 -0.08176664 -0.017991936 -0.04588318 -0.060884617 0.037267935 -0.02619299 -0.097093575
00000000: cfc5 ccbd c7e1 e53b a21b ca3d 85bb ca3d
00000010: 274c f23d 4f25 bf3c 59e2 943d 679f 7fbd
00000020: bee7 8ebd 25d0 21bb 683f 893d 5deb bd3d
00000030: 0cee 243e 0d5b 853c 6523 543d a23b b83d
00000040: 3d01 57bb bf94 94bd 96e1 1abd cea3 07be
00000050: 876a f8bc 6d27 a5bb aa8b dfbd decc 053e
00000060: af14 b8bd 4575 a7bd d363 93bc 00f0 3bbd
00000070: 2662 79bd 43a6 183d ae92 d6bc ffd8 c6bd

conv2.2.weight f4 [32]
1.0232906 1.006089 0.99350464 0.96943736 1.0020609 0.99416924 0.9782403 0.9783104
0.9742312 0.95491934 1.0317245 0.96028197 0.9309726 1.0477203 0.9810988 0.9829737
1.0011687 0.96645725 1.0147102 0.9802044 0.9698729 1.0101808 1.0284306 0.9982504
0.985059 0.9691699 1.0125608 0.9998067 1.0569127 0.9935843 1.0809232 0.9296828
00000000: 30fb 823f 86c7 803f 5256 7e3f 0c2d 783f
00000010: 8843 803f e081 7e3f f56d 7a3f 8d72 7a3f
00000020: 3767 793f 9875 743f 8c0f 843f 0ad5 753f
00000030: 3854 6e3f b31b 863f 4a29 7b3f 2aa4 7b3f
00000040: 4c26 803f be69 773f 06e2 813f adee 7a3f
00000050: 9749 783f 9b4d 813f 9da3 833f 578d 7f3f
00000060: d42c 7c3f 851b 783f 989b 813f 55f3 7f3f
00000070: ea48 873f 8a5b 7e3f b15b 8a3f b1ff 6d3f

conv2.2.bias f4 [32]
-0.013489684 0.052203313 -0.029777156 0.010933995 -0.074061 -0.06908115 0.0005718915 -0.016134752
-0.015104935 0.008065264 0.045065057 0.025593368 0.010050487 0.042302627 0.009128696 0.009018324
-0.048415445 0.06894866 0.058647215 0.0021589352 -0.03561378 -0.00283753 -0.0029309925 0.012376072
0.030783126 -0.017873978 -0.010926977 0.077244766 0.07310817 -0.019733604 0.0460944 -0.029249199
00000000: d603 5dbc 24d3 553d 39ef f3bc 8024 333c
00000010: 4bad 97bd 6b7a 8dbd fdea 153a 072d 84bc
00000020: b07a 77bc 2b24 043c 2396 383d 2fa9 d13c
00000030: ccaa 243c 8545 2d3d 8790 153c 98c1 133c
00000040: 464f 46bd f434 8d3d 1038 703d ec7c 0d3b
00000050: c1df 11bd dbf5 39bb e515 40bb 02c5 4a3c
00000060: e52c fc3c 736c 92bc 1007 33bc 8132 9e3d
00000070: bcb9 953d 5ea8 a1bc 7bcd 3c3d 049c efbc

conv2.2.running_mean f4 [32]
0.16331169 0.22247873 0.37050876 0.33665544 0.5334938 0.3984606 0.4339243 0.20418991
0.2643712 0.23646136 0.24268237 0.31632444 0.32307327 0.19959001 0.34186748 0.2498478
0.21785529 0.114822425 0.27916452 0.21032766 0.2097456 0.17680195 0.20983614 0.33420444
0.21051517 0.3414851 0.2883399 0.14817013 0.19545098 0.27649906 0.21834528 0.27537432
00000000: 2e3b 273e 77d1 633e 53b3 bd3e 1a5e ac3e
00000010: 0d93 083f 0703 cc3e 532b de3e 2917 513e
00000020: a95b 873e ed22 723e ba81 783e 47f5 a13e
00000030: dc69 a53e 5361 4c3e 4109 af3e 1ad8 7f3e
00000040: 7515 5f3e 0528 eb3d a7ee 8e3e 2260 573e
00000050: 8dc7 563e 920b 353e 49df 563e d81c ab3e
00000060: 4a91 573e 23d7 ae3e 4aa1 933e e9b9 173e
00000070: 4d24 483e 4991 8d3e e895 5f3e ddfd 8c3e

conv2.2.running_var f4 [32]
0.103930876 0.22294973 0.20366177 0.28454584 0.45096764 0.26426443 0.32593223 0.08351745
0.1911512 0.29005155 0.17821127 0.1981468 0.21360852 0.14135325 0.34695217 0.10385732
0.1232018 0.10737615 0.33562148 0.14393699 0.104682945 0.123042025 0.08984774 0.1526608
0.17699295 0.25588834 0.24812682 0.19153565 0.2751069 0.17989047 0.29208913 0.23875698
00000000: b6d9 d43d ef4c 643e b68c 503e feaf 913e
00000010: 3be5 e63e ab4d 873e 97e0 a63e 320b ab3d
00000020: 24bd 433e a381 943e 047d 363e ffe6 4a3e
00000030: 31bc 5a3e e8be 103e b7a3 b13e 26b3 d43d
00000040: 3a51 fc3d 07e8 db3d 94d6 ab3e 3864 133e
00000050: 0364 d63d 75fd fb3d 1802 b83d 1d53 1c3e
00000060: a43d 353e cc03 833e f514 7e3e ec21 443e
00000070: d0da 8c3e 3535 383e b58c 953e b67c 743e

conv2.3.weight f4 [32, 32, 4, 1]
-0.021701878 -0.035810757 -0.066522375 0.041172955 -0.052123412 0.056643315 0.04674927 -0.011074867
0.006082886 -0.04668422 -0.08035508 0.048567872 -0.057679147 0.0993997 -0.023246326 -0.0041591465
0.023827894 0.015417577 0.039754786 0.097918905 0.08545317 -0.027304666 0.0523032 -0.010351039
0.07532132 -0.04888658 -0.03408907 0.04512159 -0.015639616 -0.039595786 -0.020281125 0.011010616
-0.06663444 0.061500676 0.054790042 -0.02664421 -0.071028836 0.03959409 -0.038227707 -0.010839517
-0.0775254 -0.01860096 -0.03948583 -0.0149308 0.020821698 -0.039097972 -0.038637828 -0.1149624
-0.087386325 -0.115656085 -0.10268824 -0.1012641 -0.03361402 -0.02511003 0.031427074 -0.014328861
-0.080474906 0.063974634 0.019039307 -0.038109 0.0036026328 -0.07612896 0.06873601 0.044228133
-0.0010282951 0.16284329 0.0055852444 0.093522 -0.025632929 0.03147954 -0.026546316 -0.09115067
0.054282058 0.052156616 -0.065424666 0.10009805 -0.041836187 0.015345379 -0.04238597 0.0123832375
-0.02374576 -0.05798364 0.055019226 0.08188188 0.01635223 -0.07882765 -0.018205915 -0.033191912
-0.03668459 0.09203506 -0.020587526 0.08463693 0.066620946 -0.018866925 0.032885917 -0.01748594
0.006448606 -0.02593028 -0.04635875 -0.036391374 0.04332676 0.08254381 0.021264916 0.09137944
-0.015790973 -0.03189574 -0.10008542 0.0585439 -0.02909754 0.05033429 -0.06613941 0.018067596
0.064469256 0.038790543 0.07366164 -0.0014064766 0.063023 0.07986283 0.11157056 -0.02969592
-0.08782498 -0.04113441 0.043313008 0.085417666 -0.057358727 -0.068159066 -0.046118755 -0.01882918
0.047585376 0.068998665 -0.06719302 -0.04582239 0.058477253 0.013627948 -0.120914236 -0.05141422
0.07537866 -0.07827473 0.063162595 -0.09685128 -0.04694467 -0.010448677 -0.025114022 -0.07317805
0.06949043 0.054897893 -0.009535897 0.007842739 0.10723132 -0.063524395 0.03234161 0.012640223
0.07942161 0.019441612 0.072695754 -0.033116445 0.07625506 -0.035979338 -0.038426876 0.059828784
0.020873504 -0.059900995 0.050943278 -0.0745813 0.06726197 0.028619891 0.080512375 0.08311135
0.0028192897 -0.04890417 -0.100858815 0.0007204333 0.061913114 -0.053332787 -0.02889575 -0.035270203
-0.0034226417 -0.022107786 0.04791934 -0.08713431 0.03670198 -0.02270266 -0.06147028 -0.03215158
-0.06857963 -0.11474042 -0.06459257 0.011024195 -0.031335633 -0.08000442 -0.037172414 -0.0645488
-0.006389693 0.032024607 0.06219971 0.0799154 -0.09998085 0.059099168 0.0050973245 -0.032624483
-0.07954469 -0.0038417382 -0.10775313 -0.0015082036 -0.06250346 -0.03383127 0.05179071 0.03429871
-0.036813587 -0.007824659 -0.02352551 -0.054170478 0.07371088 0.016063124 0.010458538 0.053312186
0.050417095 -0.053172506 0.05003121 0.018698784 -0.00086181855 -0.010598851 0.050793856 0.07432364
0.067129254 -0.038022503 -0.083069146 0.030501915 -0.0638848 0.0074822395 0.06980024 0.0623389
0.0183178 -0.07091147 0.022546865 -0.0017337685 -0.13282973 -0.0833267 -0.0027520454 -0.09929853
-0.03842101 -0.022291845 0.031291008 -0.047744937 -0.030503457 0.08172646 0.029384673 0.046196193
-0.012990215 -0.002053179 0.0060368935 0.044553645 0.009573453 -0.00391722 0.09714781 -0.024720944
00000000: 23c8 b1bc 4dae 12bd e23c 88bd f9a4 283d
00000010: 5c7f 55bd d202 683d 2a7c 3f3d 5c73 35bc
00000020: f252 c73b f437 3fbd 3491 a4bd 1bef 463d
00000030: f840 6cbd 1292 cb3d 146f bebc 7349 88bb
00000040: b732 c33c 019a 7c3c ead5 223d b589 c83d
00000050: 1202 af3d 09ae dfbc e13b 563d 6797 29bc
00000060: 1042 9a3d 4b3d 48bd fba0 0bbd 6bd1 383d
00000070: a71e 80bc 312f 22bd 9a24 a6bc df65 343c
00000080: a377 88bd 22e8 7b3d 866b 603d f544 dabc
00000090: 9177 91bd 6a2d 223d a894 1cbd 3b98 31bc
000000a0: a3c5 9ebd 0a61 98bc e5bb 21bd 50a0 74bc
000000b0: 4492 aa3c 3225 20bd b342 1ebd 6871 ebbd
000000c0: 9af7 b2bd 19dd ecbd 364e d2bd 8d63 cfbd
000000d0: dbae 09bd 8db3 cdbc adb9 003d 99c3 6abc
000000e0: 07d0 a4bd 2205 833d 52f8 9b3c 2f18 1cbd
000000f0: 261a 6c3b 80e9 9bbd 77c5 8c3d 8f28 353d
00000100: dcc7 86ba 64c0 263e 6d04 b73b 7688 bf3d
00000110: 26fc d1bc b1f0 003d a977 d9bc 34ad babd
00000120: dd56 5e3d 2da2 553d 5efd 85bd 3500 cd3d
00000130: 6c5c 2bbd 2f6b 7b3c e99c 2dbd 10e3 4a3c
00000140: 7886 c2bc 4180 6dbd d75b 613d b0b1 a73d
00000150: 1df5 853c 6470 a1bd 9224 95bc 3ef4 07bd
00000160: 9542 16bd e17c bc3d 2ca7 a8bc 2056 ad3d
00000170: 9070 883d cf8e 9abc 62b3 063d ad3e 8fbc
00000180: d44e d33b bd6b d4bc ace2 3dbd 1f0f 15bd
00000190: 6777 313d bb0c a93d c333 ae3c 2525 bb3d
000001a0: 125c 81bc 1ca5 02bd 96f9 ccbd bacb 6f3d
000001b0: f75d eebc 542b 4e3d 1974 87bd 7f02 943c
000001c0: 7508 843d d5e2 1e3d eadb 963d 8659 b8ba
000001d0: 3412 813d 208f a33d 1b7f e43d dc44 f3bc
000001e0: 95dd b3bd 8e7c 28bd fb68 313d 75ef ae3d
000001f0: fcf0 6abd fb96 8bbd 05e7 3cbd a73f 9abc
00000200: e2e8 423d 2c4f 8d3d 7e9c 89bd 42b0 3bbd
00000210: d885 6f3d c247 5f3c e2a1 f7bd b897 52bd
00000220: 2060 9a3d 804e a0bd 645b 813d f759 c6bd
00000230: 0e49 40bd ee30 2bbc ecbb cdbc 60de 95bd
00000240: 0051 8e3d 9ddc 603d 733c 1cbc d57e 003c
00000250: 189c db3d 1419 82bd a378 043d f018 4f3c
00000260: cca7 a23d 0444 9f3c 83e1 943d 1ca5 07bd
00000270: 9d2b 9c3d 125f 13bd 8065 1dbd 070f 753d
00000280: e9fe aa3c bf5a 75bd e6a9 503d 15be 98bd
00000290: a5c0 893d 4374 ea3c ace3 a43d 4936 aa3d
000002a0: d5c3 383b bd4f 48bd 118f cebd 76db 3c3a
000002b0: 9b98 7d3d 7b73 5abd c8b6 ecbc 7d77 10bd
000002c0: 664e 60bb 631b b5bc 1247 443d 7973 b2bd
000002d0: d154 163d eefa b9bc 43c8 7bbd 60b1 03bd
000002e0: 7a73 8cbd 06fd eabd 1c49 84bd d39e 343c
000002f0: cb59 00bd 5bd9 a3bd 1a42 18bd 2932 84bd
00000300: a160 d1bb 3c2c 033d 20c5 7e3d afaa a33d
00000310: c3c2 ccbd f811 723d 7507 a73b 40a1 05bd
00000320: 54e8 a2bd acc5 7bbb acad dcbd eaae c5ba
00000330: d001 80bd a892 0abd 7f22 543d ce7c 0c3d
00000340: d8c9 16bd 0033 00bc 92b8 c0bc dde1 5dbd
00000350: bbf5 963d d096 833c 4a5a 2b3c e15d 5a3d
00000360: 2882 4e3d 6acb 59bd 87ed 4c3d 312e 993c
00000370: aaeb 61ba cea6 2dbc 380d 503d fe36 983d
00000380: 107b 893d 7cbd 1bbd 2820 aabd 27df f93c
00000390: 09d6 82bd 932d f53b 6ef3 8e3d 1357 7f3d
000003a0: 360f 963c 083a 91bd 34b4 b83c 9e3f e3ba
000003b0: 8404 08be 30a7 aabd a95b 34bb 075d cbbd
000003c0: 595f 1dbd 639d b6bc 002b 003d 3290 43bd
000003d0: 63e2 f9bc 3460 a73d 20b8 f03c 3838 3d3d
000003e0: e9d4 54bc a18e 06bb 22d1 c53b e27d 363d
000003f0: f9d9 1c3c 065c 80bb 6ef5 c63d 9483 cabc

conv2.3.bias f4 [32]
0.024319626 -0.08321592 -0.0060730795 0.08707518 -0.006844366 -0.0044622375 -0.005978061 0.07320075
0.070514396 -0.019804016 -0.05071158 0.017127559 -0.040471874 -0.041196346 -0.0057247323 -0.04456691
-0.10157288 0.08103308 -0.03516898 -0.0061799064 -0.078455284 -0.03999885 -0.022579418 0.046741635
-0.023835631 0.10025792 0.069292456 0.0848716 0.10225087 0.12701192 0.0043256576 0.09698945
00000000: f439 c73c 1c6d aabd af00 c7bb 7954 b23d
00000010: b446 e0bb f637 92bb 9ce3 c3bb 46ea 953d
00000020: da69 903d 083c a2bc f2b6 4fbd 184f 8c3c
00000030: d6c5 25bd 80bd 28bd 8996 bbbb cb8b 36bd
00000040: 7105 d0bd acf4 a53d 590d 10bd d080 cabb
00000050: 2aad a0bd d6d5 23bd 79f8 b8bc 2874 3f3d
00000060: f142 c3bc 0654 cd3d 34e9 8d3d 29d1 ad3d
00000070: e768 d13d 6a0f 023e 3fbe 8d3b 68a2 c63d

conv2.5.weight f4 [32]
0.98208815 0.9510704 0.94507444 0.9874748 0.97013116 0.98047274 0.962804 0.9872345
1.0047125 1.0943044 1.0210042 0.9971397 1.0161357 0.9912164 0.97684526 1.0054346
0.9936741 1.0154697 0.9773904 1.0149412 0.9843629 1.0205504 1.0174834 0.9602704
0.9924936 0.9856774 0.947412 0.9934477 0.9931193 1.0167015 1.0664542 1.0778913
00000000: 216a 7b3f 5a79 733f 66f0 713f 26cb 7c3f
00000010: 845a 783f 4300 7b3f 537a 763f 66bb 7c3f
00000020: 6b9a 803f 2b12 8c3f 44b0 823f 8c44 7f3f
00000030: bc10 823f 5cc0 7d3f 8812 7a3f 15b2 803f
00000040: 6d61 7e3f e9fa 813f 4236 7a3f 98e9 813f
00000050: 35ff 7b3f 65a1 823f e53c 823f 48d4 753f
00000060: 1014 7e3f 5b55 7c3f 9889 723f 9752 7e3f
00000070: 113d 7e3f 4623 823f 9281 883f 58f8 893f

conv2.5.bias f4 [32]
-0.046561383 -0.003729019 0.0104059195 0.045819078 0.041017164 -0.007048952 -0.00390596 -0.016453704
-0.04706688 -0.0053603943 0.01656652 0.018675968 0.026547184 0.0076187174 0.038620975 0.006852656
0.003984144 -0.019787427 0.011057364 0.017117474 -0.032489896 -0.059200045 -0.0016459567 0.036283936
0.033864055 -0.03735401 -0.019099632 0.009906483 0.0013713131 0.04164622 4.391121e-05 0.028104844
00000000: 26b7 3ebd 8f62 74bb 977d 2a3c c9ac 3b3d
00000010: 9d01 283d e5fa e6bb 22fb 7fbb ebc9 86bc
00000020: 33c9 40bd 3fa6 afbb 83b6 873c 58fe 983c
00000030: 7b79 d93c 6fa6 f93b 0731 1e3d 3f8c e03b
00000040: 6c8d 823b 3e19 a2bc f229 353c f239 8c3c
00000050: 2014 05bd bf7b 72bd 24bd d7ba 779e 143d
00000060: 09b5 0a3d 8500 19bd d576 9cbc cd4e 223c
00000070: a2bd b33a 3a95 2a3d 4d2d 3838 213c e63c

conv2.5.running_mean f4 [32]
0.46468294 0.41545656 0.28508836 0.46439484 0.26502421 0.28253642 0.30591783 0.40366355
0.5320611 0.2046997 0.23850316 0.2418519 0.21965909 0.41928422 0.35717505 0.33561167
0.26183036 0.4090924 0.35727286 0.25879943 0.6101405 0.3560177 0.24772917 0.46046844
0.2797384 0.57378393 0.48298985 0.45354688 0.5053037 0.47423536 0.23566338 0.3144804
00000000: ecea ed3e b9b6 d43e 1af7 913e 29c5 ed3e
00000010: 41b1 873e 9da8 903e 43a1 9c3e fdac ce3e
00000020: 2835 083f cc9c 513e 2c3a 743e 06a8 773e
00000030: 50ee 603e 6cac d63e a6df b63e 4bd5 ab3e
00000040: a10e 863e 8f74 d13e 78ec b63e 5c81 843e
00000050: 2b32 1c3f f447 b63e b7ac 7d3e 85c2 eb3e
00000060: df39 8f3e 81e3 123f 724a f73e 4c37 e83e
00000070: 955b 013f face f23e be51 713e 9303 a13e

conv2.5.running_var f4 [32]
0.5033103 0.45680484 0.21575004 0.3822707 0.31835005 0.2643385 0.23801802 0.37342054
0.3684131 0.26050076 0.25645158 0.11868434 0.37395754 0.32202178 0.4106697 0.3379028
0.14046362 0.21785192 0.3284759 0.23475558 0.9242618 0.27087888 0.34839413 0.2950718
0.21015383 0.7100965 0.34828153 0.28308094 0.47839916 0.46439773 0.39938924 0.41797394
00000000: f2d8 003f 53e2 e93e 94ed 5c3e fcb8 c33e
00000010: c7fe a23e 6057 873e ffba 733e fa30 bf3e
00000020: a4a0 bc3e 5b60 853e 9f4d 833e c610 f33d
00000030: 5d77 bf3e 0ae0 a43e 4d43 d23e 9901 ad3e
00000040: b2d5 0f3e 9314 5f3e fe2d a83e c463 703e
00000050: 6c9c 6c3f a3b0 8a3e b760 b23e a713 973e
00000060: 9132 573e e2c8 353f f551 b23e fcef 903e
00000070: bcf0 f43e 8ac5 ed3e bf7c cc3e ae00 d63e
