trained_models/CNN_LSTM/CNN_LSTM_Zscore_CF8_pred_2.pth (torch, 615091 bytes, 90 tensors)

conv1.0.weight f4 [32, 1, 1, 2]
00000000: 4916 eabe bdfd 15bf f0a3 853e dd6c 8a3e
00000010: 5138 12bf 0aaa 7c3e 7015 27be 3c2b 34bf
00000020: eabb 37be fc96 373f 67ab c3ba 3815 18bf
00000030: 8218 0c3f 92fb 6a3e b3cf 09bf 92f8 873e
00000040: 7d13 1abe eca5 debe ae30 953d 9f90 813e
00000050: e65b e6be 97e7 243f a113 bf3e 8925 04bf
00000060: a876 f33d d49f 793e 62e9 7bbd 1cd1 1ebf
00000070: 974a 7cbe 258b 2abf d229 bebd 6c91 1abf
00000080: 1b99 043f 7dd1 0abf 265e 83be d06f 273f
00000090: 4d8e 84be 3fe4 213f 260b 64be d06f 4a3f
000000a0: 976e e13e 2c5d 1b3e 6aa2 32be 2b4c b6be
000000b0: 2da1 923e 35d6 1bbf a601 1b3f 1df5 adbd
000000c0: 3b8f 06be 014d 20bf f3d9 c3be 3e13 463f
000000d0: f810 2bbc 5557 0cbf 9c4b 07be 031b ffbe
000000e0: 8f96 543d d75a 3bbe 5eb1 e43d f317 063f
000000f0: caf6 8fbe 7132 063f 986e c93e e67a 0abf
-0.45720127 -0.585903 0.26101637 0.2703618 -0.5711718 0.2467424 -0.16316772 -0.7037847
-0.17942777 0.7171476 -0.0014928401 -0.5940738 0.54724896 0.22947529 -0.5383255 0.26556832
-0.15046497 -0.43485963 0.072846755 0.2530565 -0.44991988 0.6441588 0.37319663 -0.51619774
0.11887866 0.24377376 -0.061501868 -0.62037826 -0.24637829 -0.6661857 -0.0928532 -0.60378146
0.5179612 -0.54225904 -0.25657767 0.6540499 -0.25889817 0.632389 -0.22269878 0.7907686
0.44029686 0.15172261 -0.17444769 -0.35604987 0.28638592 -0.6087373 0.6054939 -0.08494017
-0.13140576 -0.626175 -0.3825222 0.7737311 -0.010441057 -0.5482076 -0.13212436 -0.49825296
0.051901396 -0.18296371 0.111666426 0.52380294 -0.28117973 0.5242072 0.3934219 -0.5409378

conv1.0.bias f4 [32]
00000000: 097a 91be f85f 20bf 99b7 03bf 7238 ad3d
00000010: ac1c dabd 6c1e 73be 62c3 0abf 2a82 bc3e
00000020: 1913 233f 2174 883e b1cc bebd ac83 3bbf
00000030: 2eec 053e 482c 3e3f 70db f13e f1d6 3ebe
00000040: b5b7 283f 4098 ffbe 8b35 8bbd b58a 653e
00000050: dff8 d7be 3d01 09bf 7781 3ebf 79ae b33e
00000060: 63d5 893c 0d10 2a3e 73e0 a8be 0a9c 873e
00000070: 4280 3abe f570 adbd cb79 72be f5fe 95bb
-0.28413418 -0.62646437 -0.5145202 0.08458032 -0.1065 -0.23742074 -0.5420438 0.36818057
0.63701016 0.266511 -0.093163855 -0.7324779 0.13078377 0.7428632 0.4723773 -0.18636681
0.65905315 -0.49920845 -0.06797322 0.22416194 -0.4218206 -0.53517514 -0.744163 0.3509405
0.016825384 0.16607685 -0.3298374 0.26486236 -0.18212989 -0.084688105 -0.23679273 -0.0045775124

conv1.2.weight f4 [32]
00000000: b3b7 733f 079c 7f3f e860 773f 7ef9 823f
00000010: ef42 813f c9be 803f 3265 7d3f 8783 613f
00000020: e761 843f 8941 863f 9c71 813f 9e55 7c3f
00000030: d50e 843f 3e62 713f 7d5d 873f 1c01 873f
00000040: 5b08 5b3f 2ae4 7f3f 594a 823f 6b2f 743f
00000050: dce3 5a3f dc92 833f 4215 873f 08a6 603f
00000060: 366c 833f e017 7a3f 0a89 8b3f 4219 803f
00000070: 195b 923f f08d 803f 69a8 813f 008a 663f
0.9520218 0.99847454 0.9663224 1.0232389 1.0098552 1.0058223 0.98982537 0.8809132
1.0342377 1.048875 1.0112796 0.9856814 1.0317026 0.9429053 1.0575405 1.0547214
0.85559624 0.99957526 1.0178939 0.95384854 0.85503936 1.0279193 1.0553362 0.87753344
1.0267398 0.9769268 1.0901196 1.0007708 1.1434051 1.0043316 1.012952 0.9005432

conv1.2.bias f4 [32]
00000000: 9803 b53b fd34 74bb 9d55 6a3d 1163 aabd
00000010: 484a 013e 1ed2 2fbe b6a9 60bc f21c ee3d
00000020: 506f f5bd dff6 3e3e f69a 4d3d d92d 94bd
00000030: 851d d53c fba5 6abd 940e 92bc a80d 4ebb
00000040: dd9a febc e6cf 123e 5bf1 7c3d cdab 903d
00000050: d28d e2bb 5470 85bc 0f15 48bc e2ab 95bc
00000060: 0228 cdbd 0599 96bb eab1 39bc cb5e 16be
00000070: 4b97 e53c 24e2 8b3d 36bb cb3d 3cbf 32bd
0.00552411 -0.0037263029 0.057210553 -0.08319677 0.12625992 -0.17169997 -0.013712337 0.11626615
-0.11984122 0.18648861 0.05019661 -0.07235307 0.026015053 -0.057287198 -0.017829217 -0.0031441245
-0.031079704 0.1433712 0.061753612 0.070640184 -0.006913879 -0.016288914 -0.012212052 -0.018270437
-0.100173965 -0.004595878 -0.011333922 -0.14684598 0.028026244 0.06830242 0.09947817 -0.043639407

conv1.2.running_mean f4 [32]
00000000: 2879 973d 094e 763a 1b43 9a3d dc6e 813e
00000010: 54e0 7b3e 0d38 653d 05f6 ea3b cbaa 063f
00000020: a4f6 293f 15db 883e 0199 a73e 8a0c 203c
00000030: 39b8 143e 77da 4c3f 722f 0d3f 9805 7a3d
00000040: 9ef9 463f 1b10 093e 1c09 853e 50ec dc3e
00000050: d650 263c 37b1 afbb cba3 e93a b5d4 f03e
00000060: 3d7f 3d3e 09ed ee3e ffa0 4a3c 736d ae3e
00000070: 17b4 883a 2105 fa3d 04d3 2c3e 4fb4 a23e
0.073961556 0.00093957834 0.075323306 0.25279891 0.24597293 0.055961657 0.007170441 0.5260436
0.6639197 0.26729646 0.3273392 0.009768615 0.145234 0.8002085 0.5515052 0.06104049
0.77724636 0.1338505 0.25983512 0.43149042 0.010151109 -0.005361702 0.0017825303 0.47037283
0.18505569 0.46665218 0.012367486 0.34067878 0.0010429648 0.122080095 0.16877371 0.3177819

conv1.2.running_var f4 [32]
00000000: 09bc b93c ae8a 023c 2abb 2e3d 6e14 383d
00000010: 7b56 ba3e b5ba 033c 96b7 863b d5db 8f3e
00000020: e425 873d b544 4e3d 6faf c03e 9c6c 0c3b
00000030: 8314 223d 60c7 0a3e 4430 c63d 56b5 0b3c
00000040: a438 f23e 7e87 613e 1a81 a23e 4c2d 153f
00000050: 5d3f 003b 1db0 1f37 ef80 8c3a 0525 8f3e
00000060: 107e eb3c fb4b 193f 6049 c73a 2307 323d
00000070: efb5 c438 9019 173e a131 413e 0e16 0e3e
0.02267267 0.007967634 0.042658962 0.04494136 0.36394104 0.00804012 0.0041112406 0.28097406
0.06599024 0.050358493 0.37633845 0.002142704 0.039570343 0.13552618 0.09677175 0.008527121
0.47308838 0.22024342 0.31739122 0.5827224 0.0019569017 9.518143e-06 0.0010719578 0.2795793
0.028746635 0.5988156 0.0015204363 0.043463837 9.379896e-05 0.14755845 0.18866588 0.138756

conv1.4.weight f4 [32, 32, 4, 1]
00000000: bfdc 0d3e 791e 49bd da3a 8d3d 68ae 0abd
00000010: 0df5 c6bd 2e33 c13b c97c 8d3d 55bd 22bd
00000020: ab3b 753d d9a5 233d 4f13 283d 81ee 9c3c
00000030: 1ed0 c93d a2cc 0b3d 0c35 40bd 3ce0 73bd
00000040: b04e b3bd 2b2f 43ba cb1d d6bd b293 843d
00000050: 44c1 d9bc 1534 a4bd 733b aabd 459a cbbd
00000060: cc73 bbbc ad05 ad3c c588 f6ba 2381 0bbe
00000070: 3f2e d5bc 7fdb a4bc 2d98 893d 10fe db3d
00000080: aa20 6b3d 5f77 97bd d14a 373d 6fa3 1abc
00000090: 76dd 66bd 8c9b cbbc ceff b8bd e371 803d
000000a0: 235d 6b3d 91ad 6abd 8f86 e33c d462 6a3c
000000b0: 9a4c b33c 958d 2fbd 0875 0b3b 5693 583c
000000c0: 5018 f93b 608d 5fbd 75c8 9f3c 9e35 153d
000000d0: b32e 973d 0166 66bc 620d 183d b946 57bd
000000e0: 988f 953d 0fd8 b53d 6902 9fbc 5914 9b3d
000000f0: 5d18 7b3b 8956 533c e1bf 3b3d 5694 143c
00000100: f69f abbd 20e7 15bc e8d6 513d 817f da3c
00000110: 7e91 85bd 9a4f 953b 9800 60bd 434b 44bd
00000120: 7ce4 63bd 8648 64bd 02c4 0b3d 314b d03d
00000130: 399e 28bd 96b1 97bc d582 cebd 8ee6 503c
00000140: 62c2 013d 70a1 143c 3ef5 a23b eec7 fcbc
00000150: 669c b43d dc96 3d3d 08a5 8b3d ea37 46bc
00000160: 72d5 39bc ce90 893c 2693 343d 48fe 6f3d
00000170: bd40 d63c 112b ec3c 93e6 683c c416 47bc
00000180: 54b8 273d ae31 883d 3ae1 96bd 5c64 033c
00000190: 2787 66bc a2c8 13bc 64a5 d0bc 904c bcbc
000001a0: 1351 40bc f947 b3bd 6504 0dbd dfd5 a6bd
000001b0: b721 563d 3fc0 a0bd 3b20 2e3d e16e adbd
000001c0: 4b39 843d a867 ec3b 8565 4bbd 8233 953d
000001d0: 57a2 2e3d 2a9b b1bd 98a0 f7bc bdd0 be3c
000001e0: 1b45 20bd 6500 1d3d 2bce 56bc 6c4c e73d
000001f0: f1e2 82bd e4b2 773d 90ac 49bd 66ce 68bd
00000200: 53ad d93b 866d 54bd 33b3 45bd 8a7a b0bd
00000210: 52a2 823d 1ca9 3bbd f18b 3f3d 8648 173d
00000220: 1143 fabc ebd4 483c 6fb2 383d f98f 1dbc
00000230: f4f0 40bd ddc5 b13c 1570 79bd 1b8f c53d
00000240: be66 65bd e88d 90bd 3cca 1b3d 9306 813d
00000250: a322 0cbc f980 19bd bda2 00bd bc50 703d
00000260: 472a 5fbc 44e8 1c3d 51b6 d73c 6cf4 cebd
00000270: 2b88 843d 0abf a53c b3dc 63bd c952 a6bc
00000280: 1a6b 05bd 55f4 8c3c 11e7 8bbc 07c0 48bc
00000290: 3f41 1cbd edf4 4ebd 5aa1 03bd 353c 08bc
000002a0: dfab 93bd 5415 4bbd 1693 c93c b50f 943d
000002b0: 88cc 29bd 8de3 12bc 2dd0 a9bd 7376 d43d
000002c0: e7e8 3ebd de86 3bbd cd90 8bb8 3be5 863d
000002d0: efa0 44bc f1c3 54bc dc8c 6a3c 562c 473d
000002e0: ffbb a43c d4df 4bbb fb6a 003d 1d00 71bc
000002f0: 7687 a83c c88e bd3c 8f3e c1bd 4779 003e
00000300: 0c48 62bd 7ba3 0fbd acde 61bb c7ff 8ebb
00000310: 0aaa ab3b ded6 bf3c 1877 adbd 27c1 873d
00000320: d711 333d 6e5d f83c 45fb 3dbd 3b6c f93d
00000330: 25ef 2cbd 0abd ebbc d375 7f3b e517 323d
00000340: f800 563b 17b0 3abc 2f8b 1abd 95fc 4fbd
00000350: 64b4 953d 74f4 993c 6a89 e33c 378c 5bbd
00000360: 1200 09bd 7b32 973c 3742 adbd 8ff4 933d
00000370: 1850 0ebd b717 32bc d39f 4fbd cb5c 60bd
00000380: f051 eaba 5aae 7d3c 81bd 9cbd 2be2 cf3d
00000390: ea6a 74bd e0d0 523d fc68 07bd 890d aa3d
000003a0: 4cca 6bbd b926 0a3d ea5a 05bd 110c 133e
000003b0: e02c 553d 71af 0fbd e4f6 493d 432e c63c
000003c0: b520 0c3d 95e9 a0bd 5ed9 b5bd ed55 6dbc
000003d0: eebc 763d d51c 0cbc f010 03bd 5d8b cf3d
000003e0: 640c fa3c c61a 5dbd 4926 94bc 6c85 bf3d
000003f0: e56a aebc 9028 58bd 4581 a5bb 1c92 00bd
0.13853739 -0.049101327 0.06895991 -0.033857733 -0.097147085 0.0058959937 0.069085665 -0.039731342
0.059871357 0.039953087 0.04103404 0.019156696 0.09854148 0.0341307 -0.04692559 -0.05954002
-0.08755243 -0.0007445688 -0.10454901 0.06473483 -0.026581414 -0.08017746 -0.0831212 -0.09941534
-0.022882365 0.02112087 -0.0018809071 -0.1362348 -0.026023028 -0.020124195 0.06718478 0.10741818
0.057404198 -0.07395815 0.044749085 -0.00943838 -0.056363545 -0.024854444 -0.09033166 0.06271722
0.05746187 -0.057294432 0.027774123 0.014305789 0.021887112 -0.042859633 0.0021279473 0.013218721
0.007601775 -0.054578185 0.019504765 0.036428086 0.07381954 -0.014062406 0.037122138 -0.05255768
0.07302779 0.088791005 -0.019410329 0.075722404 0.0038314082 0.01289905 0.045837287 0.009068569
-0.083801195 -0.009149343 0.05123034 0.026672127 -0.06521891 0.0045566084 -0.054688066 -0.047923338
-0.05563782 -0.055733226 0.034122474 0.101705916 -0.041166518 -0.018517297 -0.10083548 0.012750281
0.03167952 0.009071693 0.004973083 -0.030857053 0.08818893 0.04628645 0.068185866 -0.012098292
-0.011342393 0.016792681 0.044085644 0.05859211 0.026153916 0.02882913 0.014215129 -0.012151424
0.040947273 0.06650101 -0.07367177 0.008019533 -0.014070309 -0.009020003 -0.02546949 -0.022985727
-0.01173808 -0.08753962 -0.03442802 -0.081462614 0.052278247 -0.07849168 0.042511206 -0.08468414
0.0645624 0.007214505 -0.049657363 0.07285215 0.042635288 -0.08672173 -0.030227944 0.023292894
-0.039128404 0.038330454 -0.013110678 0.11293873 -0.06390942 0.060473338 -0.049236834 -0.056837462
0.0066429763 -0.051862262 -0.0482666 -0.086171225 0.063786164 -0.045815572 0.046764318 0.036934398
-0.030549558 0.012257795 0.045092043 -0.009616845 -0.04710479 0.021700794 -0.060897905 0.09646436
-0.056006186 -0.070583165 0.038034663 0.06300082 -0.00855318 -0.037476514 -0.0314052 0.058670744
-0.01362092 0.038307443 0.026332052 -0.101052135 0.064712845 0.020232696 -0.055630397 -0.020303147
-0.032572843 0.01720635 -0.017077954 -0.012252814 -0.03814816 -0.05052655 -0.0321363 -0.008315136
-0.07210516 -0.049580887 0.024606269 0.072295584 -0.04145482 -0.008965385 -0.082916595 0.10374155
-0.04660883 -0.045782916 -6.655008e-05 0.06586691 -0.01200126 -0.012986169 0.01431581 0.048626266
0.020109175 -0.0031108754 0.031352025 -0.0147095 0.020572405 0.023139372 -0.0943576 0.12546264
-0.05524449 -0.035068016 -0.0034464998 -0.004363987 0.005238776 0.023417886 -0.08469981 0.06628638
0.043718185 0.030317988 -0.046382207 0.121788464 -0.042220253 -0.028776664 0.003898014 0.04347982
0.0032654386 -0.011394522 -0.037730392 -0.05077799 0.073097974 0.018793322 0.027775485 -0.053600516
-0.033447333 0.018456688 -0.08459895 0.0722438 -0.034744352 -0.010869912 -0.05068953 -0.054775994
-0.0017877202 0.015483463 -0.076533325 0.1015056 -0.059672274 0.05146873 -0.033059105 0.08303363
-0.057565972 0.033728335 -0.032557406 0.14360072 0.05204475 -0.035079423 0.04930772 0.024191981
0.03421088 -0.07857052 -0.0887935 -0.014485818 0.06023877 -0.008551796 -0.031998575 0.10134003
0.030523486 -0.05398061 -0.018084662 0.0935162 -0.021291206 -0.05277306 -0.0050508105 -0.03138934

conv1.4.bias f4 [32]
00000000: 3d65 66bd 9444 433d 0064 ea3d 7d13 d73d
00000010: 5452 b83d fcdb 08bc a8a1 9bbd b828 293d
00000020: 259c a63c bd24 b73b 2760 a23d df38 d43b
00000030: df19 4b3d 21a4 f43d 68ad 9e3d 8f47 793d
00000040: 2bc3 813d 2917 b33d 4adf f73d 6a3a 58bc
00000050: 0b5e 37bd 2fd8 4a3d 60cb c23c 436a 75bc
00000060: f282 82bd d660 d2bc 6d97 c13d 6ddc c63d
00000070: ca67 f9bc 1a36 1a3d 6226 6b3b bb1f 61bd
-0.056248892 0.047672823 0.11444855 0.10501764 0.09000078 -0.00835323 -0.07599193 0.041298598
0.020338127 0.0055890963 0.07928496 0.006476506 0.04958522 0.119453676 0.07747918 0.06085926
0.063360535 0.08744652 0.12103136 -0.013197521 -0.04476742 0.049522575 0.023778617 -0.014978948
-0.06372632 -0.02568094 0.0945271 0.09710012 -0.030444998 0.03764925 0.0035881032 -0.0549619

conv1.6.weight f4 [32]
00000000: a3fd 6a3f 23f4 7b3f 3419 803f 2ef8 6e3f
00000010: 9aca 743f 9dd1 7c3f 45d6 733f 6311 7f3f
00000020: 5fcf 813f 23e0 7a3f 27b3 813f fda2 833f
00000030: ce30 813f 7f59 813f b4e9 8f3f ce4e 773f
00000040: c361 783f d8a7 7d3f 4716 723f fc07 803f
00000050: 7cfa 793f ba93 7f3f f410 8e3f f580 823f
00000060: 9a13 843f a08f 853f 6f8c 803f 8446 7b3f
00000070: 2720 843f 9911 6b3f 73d1 713f f7c8 803f
0.9179327 0.984194 1.0007691 0.9334744 0.95621645 0.98757344 0.95248824 0.99635905
1.014141 0.97998255 1.0132798 1.0284115 1.0093019 1.0105437 1.1243196 0.9660462
0.9702417 0.99084234 0.9456524 1.0002437 0.97647834 0.9983479 1.1098924 1.0195605
1.0318482 1.0434456 1.0042857 0.98154473 1.0322312 0.91823727 0.9446022 1.006133

conv1.6.bias f4 [32]
00000000: f4cc 143e cc34 723d 9927 05bd 347d 613c
00000010: 2d7c c1bd b9a5 653c f7be 043d a20b 923d
00000020: 4ac0 583d cc8c 863c eb41 953d 809e df3d
00000030: 8a4f 3c3d f5fe 6dbc 739f 643d fb94 433d
00000040: 4f5b b13c 2cbc 9a3c b25d cb3d 1a14 9cbd
00000050: 7bb2 5abd d9e9 41bc cf1e 773d 4e65 57bd
00000060: eaea 2cbd 7d69 443d 01fa 4db9 a227 6f3c
00000070: 84d9 0f3c 0138 273c 61c5 01bd 9261 f73d
0.14531308 0.059132382 -0.032508466 0.013762761 -0.09447513 0.014016562 0.03240868 0.07131125
0.052917756 0.016424559 0.072879635 0.10918903 0.04597429 -0.0145261185 0.055816125 0.0477495
0.021649985 0.018888555 0.0992998 -0.076210216 -0.05339287 -0.011835539 0.060332116 -0.052586846
-0.04221622 0.047952164 -0.00019643457 0.014596852 0.008779887 0.010206223 -0.031682376 0.12079157

conv1.6.running_mean f4 [32]
00000000: 196f 953e 1138 873e 2d23 d13e 0483 063f
00000010: 55cc f13e 6c4f 0f3f 303c 013f ab74 3c3f
00000020: 5318 c33e e2cc 163f 3e9c e63e fe8a 163f
00000030: b111 c63e a277 bf3e 64cf d53e cd28 0e3f
00000040: baf3 343f d786 f33e a1b4 e53e 1429 fb3e
00000050: 66a8 ac3e bc2d 273f b979 fe3e a64f a73e
00000060: 46aa 793e acef 093f e3a7 a53e 6a95 123f
00000070: 05f3 d13e 24ea de3e 9d33 253f ee86 a03e
0.29186323 0.26409963 0.4084715 0.52543664 0.47226205 0.55980563 0.50482464 0.7361552
0.38104495 0.58906376 0.45041078 0.58805835 0.38685372 0.3739596 0.4175979 0.5553101
0.706844 0.47563812 0.4486437 0.49054778 0.33722228 0.6530416 0.49702242 0.32677954
0.2438136 0.53881335 0.3235465 0.5725924 0.41005722 0.4353801 0.6453188 0.31352943

conv1.6.running_var f4 [32]
00000000: b1eb 7b3e 2d86 3b3e 22a1 763e 18e2 b53e
00000010: 0d55 a33e fbad 9e3f 5758 b13e 3ce8 b83f
00000020: 017b fb3e 4e39 593f f525 763f 4d53 3e3f
00000030: 6e5b 8f3e 0288 623e cf28 863e d57d f63e
00000040: a8b2 2d40 261d d13e 6631 103f 7888 d73e
00000050: 6b53 133f 3552 9c3f 3298 513f df68 4b3e
00000060: d960 6c3e a255 623f 0095 393e ca9b 4b3f
00000070: e533 9e3e c55b 1c3f 483e 1740 9be7 593e
0.24601628 0.18312903 0.24084905 0.35524058 0.31900826 1.2396845 0.3463771 1.4445872
0.49117282 0.84853065 0.9615167 0.74345857 0.27999443 0.22122195 0.2620301 0.48142877
2.7140293 0.4084255 0.56325376 0.42096305 0.5754916 1.2212588 0.81872857 0.19864224
0.2308382 0.88411915 0.18123245 0.7953459 0.30898967 0.6107753 2.3631763 0.21279757

conv1.7.weight f4 [32, 32, 4, 1]
00000000: ad88 f7bc 327f f6bc 8287 51bd 2dfb 7e3d
00000010: f5dc 15bd 0795 8fbd 3959 4cbd c8a6 bc3d
00000020: 087e 2b3b 814f 683c cff8 693d 69f4 24be
00000030: 069b db3b 264b 4cbd f4d8 833c 1017 1dbc
00000040: 467b ab3b 64cf 1e3c a1c1 a63d 4b45 3fb9
00000050: daa9 293d 4b92 7c3d 6f39 9ebd a28d 883d
00000060: f4e9 c9bc c85b d1bc d141 92bb 91f3 9fbd
00000070: a522 40bd 95c6 8c3d d6e4 f8bc d7c1 d9bd
00000080: 0f5b 02bd 8763 91bc d974 453d e085 b6bd
00000090: fdfd 153d 21fe d93b 9e4f 603c 0b41 523d
000000a0: a570 ba3c bc01 2bbd 182c 2ebd dbe0 5e3d
000000b0: 2060 063d fefd b1bc a81a 593c 5060 02be
000000c0: 0474 0b3d ed77 63bd 14fc eb3c 398b 29be
000000d0: 7c12 17bc a2fc 753b cf2b a93b 24ea bd3d
000000e0: 06e5 ac3b 940a 90bd dc2a 94bd fa76 103e
000000f0: ab40 debc 306a 813d cd3d 41bd b869 e3bc
00000100: 11e3 2cbd b9a4 9abc eb51 36bd 8fed e1bb
00000110: 8729 643d 4d5e afbd a1d3 193d f4d0 febd
00000120: 1702 babc 5045 3ebd 026e 80bd 8521 e93c
00000130: cc3d ea3b 9a2e 58bd b04c ac3d 0a15 503d
00000140: afce fd3c 1d26 10bd 80e2 033d b18b a43d
00000150: 6a2f 783c 7d6b 8cba a70c bc3c 27d3 403d
00000160: 1f8a 523d a662 2abd e39a c3bc 3e7a ae3d
00000170: 8802 363d 245e 553d 3d23 70bb 0e10 513d
00000180: c2a7 283d 21f5 2c3d a9bb 353d b32f c2bd
00000190: 5d15 abbd 7882 4d3d 25f4 76bd 204c a5bd
000001a0: 2ebf 4a3d a4bc 80bb 7068 10bd 67f2 bb3d
000001b0: 0c54 683c 4565 923d 1cfd 0abd 1ee1 2bbe
000001c0: 54f5 70bd abc5 113d 69b7 ae3d d56a 8dbd
000001d0: 30b1 553d ea62 71bd 9183 543b d18a 2b3d
000001e0: 09f7 04bd 4831 60bd 101b 29bd 09a5 dcbc
000001f0: 78b2 22bd fe1b aabc a129 2dbd 7c3f 933c
00000200: cec1 9a3b 1937 1bbc 8557 ae3c 8d18 b23b
00000210: 4e8b 183d edeb 82bd f6ec 66bd 3a82 afbd
00000220: fb59 51bc 359d bebc 445a 243d b7a1 5bbd
00000230: 3ac6 933d 2678 a4bd 21ff 18bd 783b 4b3d
00000240: fbfe bf3d 467b 5ebd 5aac a0bd fa54 99bd
00000250: 7e14 9ebd 8026 d23c cf8d a2bd a65b 94bd
00000260: b29b 3d3d 8d15 42bd 6f38 543d 5c9f a2bb
00000270: d968 2f3d 9d86 57bd dd58 c1bd b425 83bd
00000280: c2e0 a73c 70c1 6f3c b5fd fabc eb20 703d
00000290: db16 633d 3d6e cfbb 1bc7 50bd 1c58 033d
000002a0: f902 cabd 477c c33c a61b c6bd 9d7c 8dbd
000002b0: 8ed3 9c3c 1213 833d 490c ccbb ad4d 6e3d
000002c0: 3eea 85bd e6ad 77bd 995d 9e3d cdf4 a73d
000002d0: 0cc5 a93b b64b 87bd b9fb d8bc 838f a53b
000002e0: d55b 91bd 8808 a1bd bd23 dcbd 4a5b a53d
000002f0: 1b5f 113d 147e 7e3d f230 d6bc f45c 3dbd
00000300: 601a c93b 1fff b9bd dcb6 313c 8e1d eabc
00000310: c78d 12bc 253a d8bd 65c4 583d 9e20 b1bc
00000320: fd80 843d 8ee1 33bc 2794 fa3b 9e5d 3e3b
00000330: 9fe4 a7bd 6601 f03c eb23 6cbd baba 1dbd
00000340: d7d9 2fbd 94f4 613d 3a6d de3c 21bd 903d
00000350: 0789 21bd e4b8 e83d 2a4b 0abd 98d5 87bc
00000360: fce4 bdbd 2338 9cbd 1fc6 d0bd a7dc c7ba
00000370: c8a2 793d f5b4 433d abb4 89bd 2577 2bbd
00000380: 7ac7 52bd 5a46 743c cbfd 683d 733b a4bd
00000390: 9a24 76bd 8cc9 a1bd 6c83 11be f5ed 9dbd
000003a0: 836d 36bd 8833 8bbd 060d 0abe 5cff 4abd
000003b0: 2757 9abd 7408 9ebd 1096 8dbd 4499 11bd
000003c0: c3c3 80bd 8ff2 943c 398b 97bd b5de 69bd
000003d0: 4f4d f53c c33f 38bd 34f2 923c 693b 3a3c
000003e0: ef42 0e3d 1750 ebbc a343 f5bc 9f6a 2bbd
000003f0: 16ff b13c 6c30 273d b821 09bd e930 2a3d
-0.03021654 -0.030089948 -0.05115462 0.06225126 -0.036587674 -0.070108466 -0.049889777 0.092114985
0.002616765 0.014179111 0.057122048 -0.1610886 0.00670183 -0.049876355 0.016094662 -0.009588018
0.005233201 0.009693 0.081424005 -0.00018240993 0.04142175 0.061662953 -0.07725798 0.06667639
-0.02464769 -0.02555646 -0.0044634123 -0.078101285 -0.04690804 0.06873814 -0.030382555 -0.10632675
-0.03182512 -0.017747654 0.048207138 -0.089122534 0.036619175 0.006652609 0.013690857 0.05133156
0.022758791 -0.0417497 -0.04252252 0.054413658 0.032806516 -0.021727558 0.013250984 -0.12732053
0.034046188 -0.055534292 0.028806724 -0.16557015 -0.009220716 0.0037534614 0.005162693 0.092731744
0.005276325 -0.070332676 -0.07234737 0.14107886 -0.027130445 0.06319082 -0.04717808 -0.027760372
-0.042208735 -0.018877374 -0.044511717 -0.0068947743 0.055703666 -0.08562908 0.03755534 -0.124421984
-0.022706075 -0.04645282 -0.06270982 0.028458366 0.00714848 -0.052778818 0.084130645 0.050801314
0.030982343 -0.035192598 0.03219843 0.080344565 0.015148023 -0.0010713186 0.022955252 0.04707637
0.051401254 -0.041597985 -0.023877567 0.085194096 0.044436008 0.052091733 -0.0036642097 0.0510407
0.04117561 0.04222596 0.04436842 -0.09481754 -0.08353684 0.050173253 -0.060291428 -0.0807116
0.04949873 -0.0039287377 -0.03525585 0.09177094 0.014180195 0.07148222 -0.03393279 -0.16785094
-0.058827713 0.0355889 0.085310765 -0.06905142 0.052170932 -0.058932222 0.0032427053 0.041880433
-0.032462154 -0.0547345 -0.041285574 -0.026934164 -0.039720982 -0.0207653 -0.04227603 0.017974608
0.0047228104 -0.0094735855 0.021281967 0.0054350556 0.037242226 -0.063926555 -0.056378327 -0.085697606
-0.012777801 -0.023268322 0.040125147 -0.05362102 0.07215543 -0.08030729 -0.037352685 0.04961726
0.093748055 -0.05431678 -0.078453735 -0.07486911 -0.07718752 0.025653124 -0.07937204 -0.07244043
0.04629106 -0.047383834 0.05181163 -0.004962845 0.0428246 -0.05261861 -0.094407775 -0.06403676
0.020492915 0.014633521 -0.030638555 0.058625143 0.05544172 -0.00633028 -0.05097113 0.03206645
-0.09863848 0.023862971 -0.09673242 -0.06908534 0.019143846 0.06400122 -0.0062270504 0.058179546
-0.06538819 -0.060468577 0.07732696 0.08200989 0.0051809605 -0.066062376 -0.026487218 0.0050525083
-0.07097594 -0.07862955 -0.10749004 0.08074053 0.03549109 0.062131956 -0.026146386 -0.046231225
0.0061371773 -0.090818636 0.01084682 -0.028578546 -0.008944935 -0.10557965 0.05292167 -0.021621998
0.06469915 -0.010979069 0.0076470557 0.00290475 -0.08197903 0.029297542 -0.05765144 -0.038508154
-0.042932358 0.05516489 0.027151693 0.070673235 -0.03943732 0.1136339 -0.03376309 -0.016581342
-0.09272191 -0.07627895 -0.101940386 -0.0015248255 0.060946256 0.047779996 -0.06723913 -0.041861672
-0.051459767 0.014909351 0.05688266 -0.080191515 -0.0600935 -0.0789977 -0.1421029 -0.07711402
-0.044538032 -0.06796938 -0.1348153 -0.049559936 -0.07536154 -0.07716456 -0.06913388 -0.035546556
-0.062873386 0.018182067 -0.073996015 -0.057097156 0.02994409 -0.044982683 0.017937757 0.011366704
0.0347318 -0.028724713 -0.029939478 -0.04184973 0.02172808 0.040817663 -0.033479422 0.04155055

conv1.7.bias f4 [32]
00000000: d8a9 cebd 6339 30bd 6328 acba 45b9 0b3d
00000010: f79a c43d f6dc fdbc e617 94bd 2964 f33c
00000020: 9fc0 70bd a1dd 87bd a802 8dbc dc9d 2b3d
00000030: d32f cc3d 7307 4b3d d205 87bd c954 24bd
00000040: 2050 1dbd 289e 853c fb39 ff3d 0edf 78bd
00000050: 2aff b93d 4a35 9a3c c5ad 2b3c ffc6 803c
00000060: 4603 3a3b a31c a0bd 7ad3 aa3a b214 c7bd
00000070: 4645 ccbd db85 c03d 713f 003d ffa3 cfbd
-0.10090989 -0.04302348 -0.0013134595 0.034112234 0.0959987 -0.030989151 -0.07231121 0.029710846
-0.058777448 -0.06634069 -0.01721318 0.041898593 0.09970059 0.04956765 -0.06592907 -0.04011992
-0.03840649 0.016310766 0.12462231 -0.060759597 0.09081872 0.018824238 0.010478442 0.015719889
0.0028383299 -0.07817962 0.0013032996 -0.09720744 -0.0997415 0.09400531 0.031310502 -0.10138702

conv1.9.weight f4 [32]
00000000: 99b8 923f 1e1f 773f e105 7a3f d9a0 753f
00000010: 32cc 703f 4f53 713f 6072 7a3f 40b4 7e3f
00000020: 4401 803f c67c 773f f154 7a3f f00c 733f
00000030: 702c 753f e260 7c3f a26b 883f cfe1 793f
00000040: 1c87 7b3f 74ce 703f f37c 723f 6410 763f
00000050: edd8 813f 1556 773f a4fe 783f 4066 793f
00000060: 21bc 873f c763 843f da29 923f ddf6 893f
00000070: bbff 813f fa6b 753f 75b3 763f 8588 843f
1.1462585 0.96531856 0.9766522 0.9594856 0.9406158 0.94267744 0.9783077 0.9949379
1.0000386 0.96674764 0.9778586 0.94941616 0.9577093 0.9858533 1.0657847 0.9761018
0.98253036 0.9406502 0.9472191 0.9611876 1.0144325 0.96615726 0.9726355 0.97421646
1.0604287 1.034295 1.1419022 1.0778462 1.0156168 0.95867884 0.9636758 1.0354162

conv1.9.bias f4 [32]
00000000: f603 b8bb 6389 d1bc bf9d 073d dc1d 973c
00000010: 5382 96bd 8a59 fd3c f045 81bd e218 663d
00000020: 7b7e 7f3c 5520 45bb d8c6 373d 0ce4 41bc
00000030: aa69 743d ed2b 503b cb4e ab3d b8d2 75bc
00000040: c7fa 173d 3ab4 83bc 3044 dc3a d2b2 8b3c
00000050: a254 893c 8e6c 023b f876 2a3c db65 61bd
00000060: 8163 873c b736 023c 37a1 05bd 2e2e 93bc
00000070: f156 d33c c18f 2e3a 7013 e7bb 54bc 983c
-0.0056157066 -0.025578206 0.033109423 0.018446855 -0.07349076 0.030926485 -0.06312168 0.056176074
0.01559412 -0.0030079086 0.044867367 -0.011834156 0.05967108 0.0031764463 0.08364638 -0.015003853
0.037104394 -0.01607715 0.001680499 0.017053042 0.016763989 0.001990113 0.010404341 -0.055028778
0.01652694 0.007947615 -0.03262445 -0.017966356 0.025798293 0.0006658994 -0.0070518777 0.01864449

conv1.9.running_mean f4 [32]
00000000: ec9e 293e 11eb 193f 5199 f93e 790c 293f
00000010: 117a b33e b801 4f3e 1407 903e 2574 153f
00000020: 6912 053f 1f08 223e a839 e23e fa9c 0d3f
00000030: 444f b83e 7707 c93e 60cf 853e cbbf d03e
00000040: 1541 dc3e 9f88 2c3f 2de3 d33e 5e4c aa3e
00000050: ec64 873e a47c 2b3f 782b b03e 3ee3 153f
00000060: 5707 8f3e 9518 323e 2f62 7b3e 3356 313e
00000070: 6c18 a13e d96b fe3e a5dd 243f 692e 9b3e
0.1656453 0.6012431 0.48749784 0.66034657 0.35054067 0.202155 0.281304 0.5838035
0.51981217 0.1582341 0.44184613 0.5531765 0.35997975 0.39263508 0.26134777 0.40771326
0.43018404 0.6739597 0.4138426 0.3326139 0.26444185 0.6698706 0.34408164 0.5854987
0.27935287 0.1739219 0.24549173 0.17318039 0.31463945 0.49691656 0.644007 0.30308846

conv1.9.running_var f4 [32]
00000000: b384 7e3e e7af 263f 4eb0 173f 9286 3c3f
00000010: c1e5 8a3e fc97 ff3d b315 713e dcba 223f
00000020: f575 613f 1f78 b73d f6a4 553f ed3f c43e
00000030: 8a4f 093f 9c1b 733e c512 933e 3df3 5a3f
00000040: 74f9 a33e 1600 263f 8380 9f3e 5589 6e3e
00000050: a079 743e 95db 393f 27f2 803e 6ea9 2b3f
00000060: aa34 a13e 97f7 6b3e 859f 683e 9ad7 6c3e
00000070: 52e0 cf3e 4a1f 073f 51c0 ef3e 8234 943e
0.24855308 0.65112156 0.59253395 0.7364284 0.27128413 0.124801606 0.23543434 0.63566375
0.88070613 0.08958458 0.83454835 0.38330022 0.5363699 0.23741001 0.28725258 0.855274
0.32026255 0.6484388 0.31152734 0.23294576 0.23874521 0.7260068 0.25184748 0.67055404
0.31485492 0.23043667 0.22717102 0.2312912 0.4060083 0.5278212 0.46826413 0.2894631

conv2.0.weight f4 [32, 32, 1, 2]
00000000: 5a0d f4ba d65e 913d 214a f73d 250f 15bd
00000010: cb24 953d b2d6 4e3d d068 853d 43f7 b93d
00000020: cffb 3cbd f9b1 72bd 98b4 e53d 0763 c03c
00000030: a5ac b53d e096 17bd a0a3 d6bd 1246 873d
00000040: b4a6 e5bc 97f7 d5bc d278 623d 3ea2 2f3d
00000050: 5f93 da3d f2c6 00be ec35 dfbd c2f3 213d
00000060: 815d 803d c567 043d 38ad 243c 8ca1 b0bd
00000070: 7e7d 68bd 541e 153e ff1a 803c e956 ea3d
00000080: 145e a7bd 1e9e a8bd aa5a a33c 9982 bfbd
00000090: dc35 2c3d 63ad e93d af8b 9b3c 0e8a febd
000000a0: 5006 403d fcdb 6d3d 51d0 963c f1a0 b93d
000000b0: 89f9 253d b49c 86ba 13ab 533d c956 093c
000000c0: d796 843c eca8 003e b6d5 f43d c73b 803d
000000d0: cd65 9dbd 60eb aebd bee4 cf3d ff17 10bd
000000e0: 9091 18bc 2beb 2fbe 4734 543d ecfe 95bd
000000f0: 417e c2bd e1ce cd3d 11c6 c5bc ef07 eabc
00000100: fb69 733d 8e0c 95bc b6fd 9cbd b44d a43d
00000110: 17d6 9d3d c648 f13d 0105 ecbd 6ed5 943c
00000120: 8714 8b3c 2695 cd3d 17df 1b3d d50d d9bd
00000130: 29b5 2d3d a4dc b2bd d9ba 19be 5ca6 2b3d
00000140: 7522 97bd b028 7b3b 81bb d63d fa55 89bd
00000150: 0e0e ae3d ff8d f3bd 94c8 3fbd 24ce 243d
00000160: 8df9 b8bd 496d 893d 54f2 193d 531e 98bd
00000170: 0d04 113e 7f30 93bd dfef 8c3d 566b 28bd
00000180: 5777 4abd 2bf4 ab3d a682 cabd 96ea 833d
00000190: 2939 c83c 0eff e4bc 713f 57bd fd0f 883d
000001a0: 64bc 103e 975b ed3d b16f ac3c 68c9 41bd
000001b0: 743d f93d 080c 073e fe3b 0fbe b9e8 bb3d
000001c0: 4600 ca3d 1a81 d03d a1e2 e2bc d913 6dbd
000001d0: 6111 de3c ee7c 6bbd 2d27 d43d 38a8 7c3c
000001e0: cc7d f5bd d543 313c afc0 6a3d c785 a0bd
000001f0: 7c3c 783d 8aad a83d a9dc 963d 03a9 303c
00000200: 7383 c13d ef14 a93d a25d a3bd 9903 bdbd
00000210: d1f6 b43c 0714 cd3d 77db dc3c 776f e43d
00000220: c7f1 e03d acf1 f83c 929c 6bbc 1888 97bc
00000230: e71d 503d 2a4d aabd 54a9 b43c ce40 b739
00000240: 7667 6dbb 6481 efbc 862a 3abe 3e4a 2bbd
00000250: 7a5c e0bd ac76 90bc e4d8 56bd 7cf6 6ebd
00000260: b932 4cbd 4e76 463d 1810 80bb 7a7b e43d
00000270: 51f1 333d e922 e73d e97f 6abd e7d9 d3bd
00000280: 3315 683c 629b 3ebc 2789 8c3d a601 213a
00000290: 8234 92bd 3ee0 4abc cab3 263d c3aa d8bc
000002a0: 41f1 803c ebab 8cbd a11b df3c 7e30 e03b
000002b0: d2f4 13bc a779 11bc fec0 ae3d 149c 3abd
000002c0: 71fb cfbd 6df2 233e f536 4fbd c686 df3b
000002d0: e01f 2fbd 256e b8bd 3674 15be db6e a5bd
000002e0: ac73 1b3d a8fc 0ebe d070 72bd 9d4b 1bbd
000002f0: 8088 623d c665 213d 7f17 023e ea2b 0b3e
00000300: 98ad 80bd f01b 70bd 0639 3b3c 1966 78bd
00000310: e41e 9b3d 06b1 91bd c3b2 e6bd b183 48bd
00000320: 7a16 993b 8009 e6bd 29f6 bbbd 6c68 a8bd
00000330: ae0f eebc d0dc 313d e5d9 ca3c 3563 ab3d
00000340: 0add d03c ea69 03bd ace4 e63d d639 6bbd
00000350: 19a9 9c3a 020a 37bd 99a1 553d a6fb 82bb
00000360: d966 c83d a399 733d e437 d63d 4ec3 a93d
00000370: a34f 873d eb0f c63d 4145 0b3d 052a f1bd
00000380: 3307 a5bb 65ec 82b8 b8f9 1bbd e1c8 573d
00000390: 0caf 6c3c f719 a1bd 6780 883b 224c 893d
000003a0: 86b6 d7bd 407c 0d3e ab46 86bd 04ee 8b3d
000003b0: adcd 0f3d 8875 79bd b388 9e3c 70dd f3bd
000003c0: a437 543d 14a9 2cbd f9a1 983c d625 df3d
000003d0: b248 703d 891b 833d d4ec 073d 2c8f 2b3e
000003e0: e9c7 e2bc 91e8 1abe 1b30 bbbb d78f 1cbd
000003f0: 65aa ae3d cd4e 75bd 9759 a9bd 7c2c 9b3d
-0.0018619702 0.07098167 0.12074686 -0.036391396 0.07282408 0.05049772 0.06514132 0.090803646
-0.04613858 -0.05925176 0.11216086 0.02348472 0.0887082 -0.03700912 -0.10480428 0.06605162
-0.028033592 -0.026119037 0.055291004 0.042879336 0.1067264 -0.12575892 -0.10898957 0.039539106
0.062678345 0.032325525 0.010051064 -0.086245626 -0.056760304 0.1456235 0.015637873 0.11442358
-0.08172241 -0.082332835 0.019940693 -0.093510814 0.04204355 0.11410024 0.018987505 -0.124286756
0.04688102 0.05807112 0.01840988 0.090639 0.04052118 -0.001027009 0.05167682 0.008382508
0.016185207 0.12564439 0.119548246 0.062614016 -0.076854326 -0.08540988 0.10151051 -0.035179134
-0.009312049 -0.17179553 0.051807668 -0.07324013 -0.09496737 0.10049225 -0.024142297 -0.028568236
0.059427243 -0.018194463 -0.07665579 0.08022633 0.0770685 0.117814586 -0.11524392 0.018168177
0.016977562 0.100382134 0.038054552 -0.105983414 0.042409096 -0.0873349 -0.15012683 0.0419067
-0.07379619 0.0038323812 0.10484982 -0.06705852 0.084987745 -0.11892318 -0.046822146 0.040235654
-0.09031973 0.067102976 0.037584618 -0.07427659 0.14161702 -0.07186984 0.06881689 -0.04111799
-0.049430218 0.08396181 -0.098882005 0.06441228 0.024441319 -0.02795365 -0.052550737 0.066436745
0.14134365 0.11589735 0.021049352 -0.047311217 0.121699244 0.13188183 -0.13987729 0.09175248
0.098633334 0.10180874 -0.027695956 -0.057880256 0.027107896 -0.05749219 0.10359035 0.015420966
-0.119868845 0.010819395 0.057312664 -0.07838016 0.060604557 0.08236225 0.07366306 0.010782483
0.094489 0.08255946 -0.079768434 -0.09229202 0.022090347 0.100135855 0.026960118 0.11154073
0.10983615 0.030388676 -0.014380591 -0.018497512 0.050809767 -0.08315499 0.022053398 0.00034952763
-0.0036224998 -0.029236503 -0.18180284 -0.04181885 -0.109551385 -0.017634712 -0.052452937 -0.058340535
-0.04985306 0.048452668 -0.0039081685 0.11156364 0.04393131 0.112859555 -0.05725089 -0.10344296
0.014165211 -0.011633726 0.06862097 0.0006141908 -0.07138921 -0.012382565 0.040698804 -0.026448613
0.015740039 -0.06868728 0.027234854 0.006841718 -0.009030538 -0.008879102 0.08532904 -0.045559004
-0.101553805 0.16010447 -0.05058952 0.006821486 -0.042755008 -0.090053834 -0.14595112 -0.08077785
0.03795211 -0.13963568 -0.059189618 -0.037913907 0.055305958 0.0394037 0.12704276 0.1359097
-0.062831104 -0.058620393 0.01142717 -0.060644243 0.07574251 -0.07113843 -0.11264565 -0.048953716
0.004671869 -0.11232281 -0.09177811 -0.08223042 -0.029060211 0.043423474 0.024762103 0.083685316
0.025496025 -0.03208343 0.112740844 -0.057428204 0.001195225 -0.04468728 0.052156065 -0.003997284
0.09785242 0.05947269 0.10459879 0.082892045 0.066069864 0.09671005 0.034001593 -0.11775593
-0.0050362586 -6.242915e-05 -0.038079947 0.052681807 0.014446031 -0.078662805 0.0041656974 0.06703974
-0.105328605 0.13816929 -0.065564476 0.06832507 0.035108257 -0.060903102 0.019352293 -0.1190747
0.051810876 -0.042153433 0.018631922 0.108958885 0.058663078 0.06401736 0.03318484 0.16753834
-0.027683215 -0.1512778 -0.0057125217 -0.038223114 0.08528594 -0.059889603 -0.08269041 0.07576844

conv2.0.bias f4 [32]
00000000: 5b16 20bd 70da ecbd 5cd8 cbbd c1c0 2e3e
00000010: 3004 37ba 6d74 01be e264 77bc 6304 db3c
00000020: 0327 023c 7ae5 cdbc 3ba0 103d e47d f8bc
00000030: 9ccf 1d3d e8e1 83bd ad15 f63d 4ec3 663d
00000040: c215 b63d 38f8 e53d 56c8 963d 102c 8abc
00000050: 2b59 9bba dff5 94bd 76a5 513d 4dbb 083d
00000060: 8989 003e 864f 05be 45cd c33c a5ed ab3d
00000070: 8f2e 10be 3164 203b 67c1 823c 8e44 ba3d
-0.03908382 -0.11565101 -0.09953377 0.17065717 -0.000698152 -0.12642069 -0.015099736 0.02673549
0.007943871 -0.025133837 0.035309058 -0.030333467 0.03852807 -0.064395726 0.12015853 0.0563386
0.08890869 0.112289846 0.0736243 -0.016866714 -0.0011852136 -0.07273459 0.051183186 0.03338175
0.12552465 -0.13018617 0.023901591 0.083949365 -0.1408026 0.0024473781 0.015961362 0.09095107

conv2.2.weight f4 [32]
00000000: 38a7 813f 0483 7c3f 98fa 823f bce8 793f
00000010: 890f 753f 8d20 833f 9aff 673f 84d9 7d3f
00000020: 43db 7d3f c2a3 773f 47df 763f b92c 813f
00000030: 20ad 713f dbc1 833f 6661 863f 7524 7c3f
00000040: dd39 883f f089 883f f8fc 883f d399 7d3f
00000050: 2707 773f 53ed 7a3f c4b8 783f b861 7d3f
00000060: 3290 773f eae0 883f d6c4 773f eaa1 7b3f
00000070: 5800 713f 9c99 7c3f a099 763f 1ca6 813f
1.0129156 0.98637414 1.0232725 0.9762075 0.9572683 1.0244309 0.9062439 0.9916003
0.9916269 0.9673425 0.96434444 1.0091773 0.9440479 1.0293535 1.0498474 0.9849313
1.0642658 1.0667095 1.07022 0.9906284 0.9649529 0.9801838 0.9715693 0.9897723
0.967044 1.0693638 0.9678472 0.98293936 0.9414115 0.9867189 0.96328163 1.0128818

conv2.2.bias f4 [32]
00000000: cf1b 363d a4c8 fcbc 5869 52bc 4661 9fbc
00000010: e3aa 21bb 172d 9a3c 25e5 cf3b 68e9 6dbd
00000020: 0044 51bd 9421 163d c33c 74bd ebf4 b83c
00000030: 5cbb 9d3b 18d2 9e3c 85eb 2e3c 1064 01bd
00000040: 1fc2 743d 1fec 873d e683 4d3c 1214 243c
00000050: e763 c0bb f0e7 b63b f73a 153d 3ba7 173d
00000060: 390f 0d3c 3a31 503c e716 eb3c 5765 e4bb
00000070: 62cf 9ebc 3cbd 1fbb d379 e03b 04a4 cd3d
0.044460114 -0.030857392 -0.012842499 -0.019455563 -0.0024668507 0.018820329 0.006344455 -0.05808392
-0.05109024 0.036653116 -0.05962826 0.022577723 0.0048135947 0.01938729 0.010676269 -0.031589568
0.05975544 0.066368334 0.012543654 0.010014551 -0.0058712843 0.0055818483 0.036433186 0.037024718
0.008609586 0.012707049 0.028697444 -0.0069700885 -0.019385997 -0.0024374267 0.00685046 0.10041049

conv2.2.running_mean f4 [32]
00000000: 73b3 833e 4b83 4b3e b3b8 953e e696 c73e
00000010: b690 cc3e 79a5 283e fe49 703e 8c4d b03e
00000020: cbeb a13e a245 a23e bf78 a93e 6a7d 2b3e
00000030: b39a a33e f03a 713e 8f7f ab3e 4624 8b3e
00000040: 04de aa3e 8e03 b33e 517b 983e be84 833e
00000050: 2544 a93e 8a0a 9e3e bc49 c23e c774 9b3e
00000060: 850d c93e 9c40 1d3e 9f5a 923e 79ff 913e
00000070: 4f9b 283e 174b b83e d059 8b3e 3875 9b3e
0.25722846 0.19874303 0.29242477 0.38982314 0.39954156 0.16469373 0.23465726 0.34434164
0.31625208 0.3169375 0.33099934 0.1674706 0.31953964 0.23557639 0.33495757 0.27176112
0.3337251 0.3496365 0.29781583 0.25687212 0.33059803 0.30867416 0.3794688 0.30362532
0.39268127 0.15356678 0.28584763 0.28515223 0.16465496 0.3599479 0.2721696 0.30362868

conv2.2.running_var f4 [32]
00000000: 5357 853e 90d8 963e 40d8 863e d181 713e
00000010: 4d5e 8e3e c966 2e3e 7528 0c3e 6a63 333e
00000020: b0c1 a13e 7282 213e 6162 823e 015c 133e
00000030: d476 8c3e f3e6 a53e b5c5 dd3e b799 7b3e
00000040: e663 c13e 1c46 e13e 4a5c 883e 1df5 963e
00000050: 7ecd 563e e4f8 9f3e 41a2 a33e 3dc2 8b3e
00000060: f300 5c3e 6459 453e 2834 833e 7c88 d43e
00000070: 672b 223e f43c 623e 7fa0 1d3e 2b0b 8c3e
0.26043186 0.294621 0.2633686 0.23584677 0.2780632 0.17031397 0.13687308 0.17518392
0.31593084 0.15772417 0.25465682 0.14390565 0.2743441 0.32402763 0.433149 0.24570356
0.3777153 0.43998802 0.2663291 0.29483882 0.20976827 0.31244576 0.31959727 0.2729663
0.21484737 0.19272381 0.2562573 0.4151038 0.15836869 0.22093564 0.15393256 0.2735227

conv2.3.weight f4 [32, 32, 4, 1]
00000000: f529 3dbd 3338 cabd fcb6 dbbd 815c ffbd
00000010: 81fa a93d 037a 13bd 276d e5ba 1ab0 98bc
00000020: ae64 1d3d ac6b 973d a222 da3c 4f54 90bc
00000030: a6c0 e3bb ed24 dfbd e996 8ebd 410a 7abd
00000040: d19d d53c a04a b0bd de2a e9bc 2195 14bd
00000050: 1bc7 143d d062 8fbd ac84 1abd 3025 f4bd
00000060: eb26 f3bd 75b1 ed3c b471 5dbd 00ae a83c
00000070: 50a0 bc3c 80f0 07bd b009 df3d 21c9 da3d
00000080: f989 03bd ac22 ef39 fb75 86bd 8f1d 07bd
00000090: 00ac a63d 8fa2 adbd 9f98 503d 69cd 233d
000000a0: 6aa0 3c3d 311d 65bd 8483 6f3d 0b6b b6bd
000000b0: aaa6 ba3c c6e8 a63d af35 a53d 0ab1 b23b
000000c0: 441d 913c 7636 863d 1ba0 85bd d254 8fbc
000000d0: d7c2 373d f5bc 143d 8a16 09bd 52b5 77bc
000000e0: 329c 7cbd ca7e 89bd 0d88 c5bc 3d2f d3bd
000000f0: dc5c 9c3d 97fd 923b 5c09 14bc 1917 bf3d
00000100: a2c3 bf3d d729 203a 5431 03bd 5985 a23d
00000110: 7f8e 7b3d 119e a5bd f9b2 d03c d4ee 3f3d
00000120: df93 49bd b854 4c3d 7a26 67bd b445 61bc
00000130: 10d9 a9bd 906e 403d 64e4 aebd e419 643d
00000140: 781d 9d3c bca1 3ebb 157e c3bc 2457 943d
00000150: d569 ee3c c139 0a3d 9868 0abd 95fd a23c
00000160: 8e86 a53d 6bb7 533c 6c09 103d 65eb da3c
00000170: e586 2bbc 41b4 f7bc f7a8 2bbb a52e acbd
00000180: 63bc 28bd bfaf 023d ed0e 823d dd45 9bbd
00000190: 49ab b23c a28e 18bd 0e13 80bb 0199 5a3d
000001a0: b4a0 14bd bb75 f53c 0ade 40bc 571b f83b
000001b0: 3997 86bd fd20 a73c 5ed8 92bd ece9 263d
000001c0: 7809 183b 3685 413c 351c 5d3d 96ba 9abb
000001d0: 38d4 a8bd 6792 8ebd 393d b43c 6f64 c3bd
000001e0: 7678 203d 29c1 833d 9e3f 86bd 209a 3d3d
000001f0: ac1c 313d effa 3f3c 3961 39bd 0230 873d
00000200: 22af 55bd 50a0 f9ba 0958 543d 0635 a73d
00000210: c2a6 f7bb 3a92 843d 4b49 7c3d 6676 0cbd
00000220: 502c 9e3b 9641 1bbd 47c6 e43d 0ec5 813d
00000230: 1cab 723c 96b1 9bbc c5c9 173c 1d2d 18bd
00000240: 5c68 acbb c1ab a13d 01f9 253c 4746 0fbd
00000250: 360c 9ebd f65d 8b3b 29f7 c73c ce0f fcbd
00000260: aabd fc3c 69a6 3f3c ac15 143d 322f c13d
00000270: 4f52 0abd 6fed aabd 9dcb 57bd 579d dcbd
00000280: fe1c 0d3d 7a57 293d 2f73 503c 414c e63d
00000290: bfb3 8cbd 2438 fc3c e990 71bd 2207 a73c
000002a0: cc2c 3d3c 8593 953d 613a 2ebd 498e b6bd
000002b0: 8ef0 96bd 8930 b4bd e018 a93c 2165 693d
000002c0: 7431 8abd f6fb 49bd 79b6 9a3d f964 c2bd
000002d0: 2acb 773d f649 4b3d e2ef 5b3d 7215 22bd
000002e0: da9d ccbd e18d 163c 900e dbbd 6e00 1dbd
000002f0: fa7d 883c b8b0 613d 007e 883c 0013 a63d
00000300: 13d8 99bc d205 3a3d 12cd 8cbd 8d5b 713d
00000310: a063 8b3c edc2 543d e156 353d 153e 0a3c
00000320: 0bd0 02bc 21f3 4abd 8878 9a3d a015 e63d
00000330: f149 593d 0270 babd aa35 98bc a2a5 3b3d
00000340: d9ae 81bd 2f38 833d 662f bd3c f086 a63d
00000350: 2fee 9a3d 9055 b9bb 59f0 583b 6241 ab3d
00000360: 4fcd 7c3d 99b6 8f3d f4c0 32bc 03f3 d2bb
00000370: 965e 1b3c 7a1f a2bc 660e 84bd a240 52bd
00000380: 921b a93d b5ed 93bb bea5 b3bc 09c9 8cbc
00000390: b24f 54bd 4719 1a39 7afe 353d 490b 59bd
000003a0: c286 d2bc 0539 133d 427c ff3c dab8 3ebd
000003b0: dd0f aebd db50 91bd ea05 c23c 0645 5bbd
000003c0: f858 69b9 39b7 523d a128 20bd 7f12 3fbd
000003d0: eb01 a73d b906 31bc 3b49 453b c0b8 273d
000003e0: 17d3 a6bd 46e3 24bd c6f4 a73d f4b0 92bd
000003f0: b32e a0bd f354 59bd dded 743d f1c1 06bd
-0.04618259 -0.098740004 -0.10728261 -0.124688156 0.08299733 -0.03600503 -0.0017503843 -0.01863866
0.038426094 0.07393584 0.026627842 -0.017618326 -0.0069504557 -0.10895715 -0.069623776 -0.061044935
0.02607623 -0.086079836 -0.028462823 -0.036275033 0.036322694 -0.07001269 -0.037724182 -0.119211555
-0.118726574 0.029015282 -0.054063514 0.020590782 0.023025662 -0.033188343 0.108905196 0.106828935
-0.032114003 0.00045611465 -0.06565472 -0.032987174 0.08138275 -0.08478271 0.0509268 0.039990816
0.04605142 -0.055936042 0.058475032 -0.089071356 0.02278455 0.08149867 0.0806688 0.0054532336
0.01771415 0.06553356 -0.06524678 -0.0174965 0.044863548 0.036313016 -0.03346876 -0.015118914
-0.061672397 -0.06713636 -0.024112726 -0.10311744 0.07634899 0.0044857967 -0.009035435 0.093305774
0.09363486 0.000610975 -0.032029465 0.0793559 0.06141519 -0.080867894 0.025475966 0.046858624
-0.049213286 0.04988548 -0.05643318 -0.013749529 -0.082933545 0.04698044 -0.08539656 0.055688754
0.01917909 -0.00290881 -0.023863832 0.07243183 0.029103199 0.033746485 -0.033791155 0.019896308
0.08082305 0.012922148 0.035165235 0.026723573 -0.010469173 -0.030237319 -0.002619324 -0.08407334
-0.041195285 0.031905886 0.06350503 -0.07581685 0.02181019 -0.0372454 -0.0039085215 0.053368572
-0.03628607 0.029963365 -0.011771688 0.0075716185 -0.06571812 0.020401472 -0.07170175 0.04075043
0.0023199003 0.011811545 0.05398198 -0.00472195 -0.082436025 -0.06961518 0.02200185 -0.095406406
0.03917738 0.06433327 -0.06555103 0.046289563 0.043240234 0.011717542 -0.045258734 0.06600954
-0.052168973 -0.0019044969 0.05184177 0.0816441 -0.007557721 0.06473203 0.061593335 -0.0342926
0.00482706 -0.037904344 0.11170631 0.06336413 0.0148113035 -0.019005578 0.009264414 -0.0371524
-0.005261464 0.078940876 0.010130168 -0.03497913 -0.07717173 0.0042531444 0.024409847 -0.12307702
0.030852158 0.01169739 0.03615348 0.0943283 -0.0337699 -0.08346068 -0.052684415 -0.10772198
0.034451477 0.04134319 0.012722774 0.11245013 -0.06870221 0.030788489 -0.058976088 0.020389143
0.011546325 0.07303528 -0.042536143 -0.089138575 -0.07370101 -0.0879832 0.020641744 0.05698121
-0.06747714 -0.049312554 0.07554335 -0.09491915 0.060496487 0.04963108 0.053695567 -0.039571233
-0.09991045 0.0091891 -0.10696137 -0.038330488 0.016661633 0.055100173 0.016661644 0.08109093
-0.01877979 0.045415707 -0.068750516 0.0589252 0.017015278 0.05194371 0.044272307 0.008437653
-0.007984172 -0.049548272 0.07542521 0.112345934 0.05304903 -0.09103395 -0.018580277 0.045812257
-0.06332178 0.064072005 0.02309389 0.08131206 0.07564961 -0.005655952 0.0033102243 0.0836208
0.061719235 0.070172496 -0.010910261 -0.0064376607 0.009483 -0.0197904 -0.06448059 -0.05133117
0.08257212 -0.004514421 -0.021929618 -0.017185705 -0.051833816 0.00014696001 0.04443214 -0.052989278
-0.025699023 0.03594305 0.03118718 -0.046563007 -0.084991194 -0.070955 0.02368446 -0.053532623
-0.00022253755 0.051444266 -0.039101247 -0.0466485 0.08154663 -0.010804825 0.0030103463 0.040947676
-0.08145731 -0.040255807 0.08200984 -0.071626574 -0.07821407 -0.05305953 0.059797157 -0.0328998

conv2.3.bias f4 [32]
00000000: cec6 b0bc 793f 38bd e486 03bd 045b 2a3d
00000010: 91db c43d 7668 603d 9669 813d cf06 ac3d
00000020: 2ccd 8dbc 758e 953d cc3d 133e e0fa dd3d
00000030: 46b7 ccbc 3d90 843d e8f2 7a3b 426d b5bd
00000040: 4acf b5bd dc1f 2b3e bc3b a23d bdbd 04bd
00000050: 4e3c f33d 34a7 d53d a7fd dd3d 3f01 08bd
00000060: 2f73 bc3d e151 b23c 3057 fd3c 5b1c 22bc
00000070: 11c8 a43d 3e23 ee3c 1789 56bc ade4 3fbd
-0.021579172 -0.044982407 -0.032111064 0.041590706 0.096121915 0.05478712 0.06318967 0.08399736
-0.017309748 0.07302562 0.14379042 0.10838866 -0.024989735 0.06472824 0.0038291756 -0.0885873
-0.08877428 0.16711372 0.0792155 -0.03240751 0.118767366 0.10432282 0.10839396 -0.033204313
0.09201657 0.021767559 0.030925363 -0.009894456 0.08045972 0.02906954 -0.013094208 -0.04684894

conv2.5.weight f4 [32]
00000000: 571d 793f 5479 7f3f 1565 7d3f bab4 813f
00000010: 4157 853f d686 7e3f 0ca5 713f b5d3 7a3f
00000020: 0c9c 7d3f 0066 853f a034 8a3f 903f 823f
00000030: 8eb1 7c3f d75d 7a3f 3c69 763f eca3 823f
00000040: 7cfd 803f 1d54 853f f4f3 783f bc0a 7e3f
00000050: 04c9 803f cc1d 843f af14 823f 26d0 793f
00000060: 5969 7f3f 9467 7f3f 58f1 703f 6a8f 7e3f
00000070: 2a29 7a3f 0dc8 743f 52fc 773f 9c48 7a3f
0.97310394 0.9979451 0.98982364 1.0133278 1.0417253 0.99424493 0.94392467 0.9797929
0.99066234 1.0421753 1.079731 1.0175648 0.98708427 0.9779944 0.96254325 1.0206275
1.0077357 1.0416294 0.9724724 0.9923513 1.0061345 1.0321593 1.0162562 0.97583234
0.9977012 0.9976742 0.9411826 0.9943758 0.9771906 0.95617753 0.96869385 0.97767043

conv2.5.bias f4 [32]
00000000: 65a5 32bd e0f7 f53c a5eb d0bd 65bc 19bd
00000010: 3d54 0bbe 5ba2 d43d 5966 9f3d 20b8 2c3d
00000020: d027 abbd a59a 5e3d d371 f63c c5c1 023c
00000030: 47de f93d 4b8e dbbd d3d8 f13c 1a85 b83c
00000040: df82 5ebd 702f 92bb 7fd8 82ba b334 003e
00000050: 416b 9c3d 052b 75bd 79d9 c53d 9c9b 4b3d
00000060: 150f 43bd 7170 21bc 8022 9cbb ba18 0f3e
00000070: 9e73 4d3c 069e d3bd 34a4 c2bb 44cb 16bc
-0.043614764 0.030025423 -0.102011956 -0.037533183 -0.13606353 0.10382529 0.07783193 0.042167783
-0.08357203 0.0543467 0.030083572 0.007980769 0.12200599 -0.107204996 0.029522335 0.022524405
-0.054324027 -0.0044612214 -0.0009982734 0.12520103 0.076376446 -0.05985548 0.0966062 0.049708948
-0.047621805 -0.009853468 -0.004764855 0.13974276 0.012539772 -0.10332875 -0.0059399847 -0.009203736

conv2.5.running_mean f4 [32]
00000000: 77a0 8e3e b214 6f3e 667f 7b3e ee25 bd3e
00000010: 7d57 d93e bfb9 793e 13ad af3e edb0 c43e
00000020: 574b c23e 6546 ad3e 7ba4 9e3e 2994 863e
00000030: a166 8a3e 3db0 b83e c079 a93e e569 e43e
00000040: 7176 823e 7bc9 b93e ac51 b23e b374 a73e
00000050: 5a8b a43e 5472 be3e 6cc9 b63e c286 b53e
00000060: 7fd8 af3e 1e58 733e fbef c43e cecf 823e
00000070: 7b3b f83e 10b5 b33e 890c b03e dbea 9e3e
0.278568 0.23347738 0.24560317 0.36943 0.4244956 0.24387263 0.34311733 0.38416234
0.37948105 0.3384277 0.30984864 0.26284912 0.27031425 0.3607196 0.331007 0.4461204
0.2548099 0.3628653 0.34827936 0.32706222 0.32137567 0.371966 0.35700548 0.35454375
0.3434486 0.23764083 0.3846434 0.25549167 0.4848288 0.35099077 0.34384564 0.31038556

conv2.5.running_var f4 [32]
00000000: 9f9d 2a3e f7d3 833e 1bd0 253e 10c7 963e
00000010: 130f 0a3e 1c3a 673e 5d8a 643e 0d85 9b3e
00000020: 714d 9b3e d76e f83e db1f c93e ce72 c23e
00000030: 9141 8d3e df2c 633e 5e07 5d3e 50c2 da3e
00000040: fd0c 8c3e 2f2e f53e 0394 8d3e 5976 b73e
00000050: 9b58 c63e 6539 cd3e 3c54 c43e 1dd3 b23e
00000060: 66c0 6c3e 03dd 753e ec11 a63e 1a95 943e
00000070: 085d 043f 3f16 933e 9b27 983e d2cb 5b3e
0.1666169 0.25747654 0.16192667 0.29448748 0.13482313 0.2258076 0.22318406 0.30374947
0.3033252 0.48522064 0.39282116 0.37978214 0.27589086 0.22185086 0.21584842 0.42726374
0.2735366 0.47886798 0.27651986 0.3583248 0.38739476 0.4008285 0.38345516 0.34926692
0.23120269 0.2401009 0.32435548 0.29020005 0.51704454 0.2872791 0.29717717 0.2146447
