trained_models/CNN_LSTM/CNN_LSTM_Zscore_CF3_pred_2.pth (torch, 615091 bytes, 90 tensors)

conv1.0.weight f4 [32, 1, 1, 2]
0	0xbee06fb2	-0.43835217
1	0x3eaad882	0.33368307
2	0xbf0e04a9	-0.5547586
3	0x3e11d508	0.14241421
4	0x3f2267b1	0.6343947
5	0x3f2c6648	0.6734357
6	0x3e178e26	0.14800319
7	0x3ebc05f6	0.36723298
8	0xbf2d84ab	-0.6778056
9	0x3ebd91f5	0.3702542
10	0xbe1b613c	-0.1517381
11	0xbf0bfdfe	-0.54684436
12	0xbe243900	-0.16037369
13	0x3e8ef2fe	0.27919763
14	0x3f1ba0f0	0.60792446
15	0x3f3b3bbc	0.7313802
16	0x3e2086f5	0.15676482
17	0x3e6389dd	0.2222056
18	0x3c18cb42	0.009325804
19	0xbe496d63	-0.19670634
20	0xbe92acb4	-0.28647387
21	0xbf0ba407	-0.5454716
22	0x3f188804	0.59582543
23	0x3e50942b	0.20369022
24	0x3d8ebd5c	0.06969711
25	0xbedafca1	-0.42770866
26	0xbedd7ddf	-0.43260095
27	0xbeb67e5f	-0.35643288
28	0x3f1910cb	0.5979125
29	0x3e231cec	0.15929002
30	0x3f2b1e0a	0.6684271
31	0x3d9b7c2b	0.075920425
32	0x3f177a1a	0.5917069
33	0x3e7b5576	0.2454432
34	0xbe0031b6	-0.12518963
35	0xbe72169c	-0.23641437
36	0xbefd17d7	-0.4943225
37	0xbf251a12	-0.64492905
38	0x3e9ad549	0.3024085
39	0xbf30ec52	-0.69110596
40	0xbe8c94ed	-0.2745737
41	0xbe5c0c8d	-0.21489163
42	0x3e0de4da	0.13856831
43	0x3eb993aa	0.3624547
44	0xbecce910	-0.40021563
45	0xbf0274ae	-0.5095929
46	0xbdde56dc	-0.10856411
47	0xbe9ae421	-0.30252174
48	0x3be077b9	0.0068502096
49	0x3d6a3c4d	0.057186414
50	0xbedf93e5	-0.43667522
51	0xbee3fb84	-0.4452783
52	0xbe33d878	-0.17563045
53	0x3edfbf65	0.4370071
54	0xbf35d597	-0.7102904
55	0x3f303227	0.68826526
56	0xbe340b00	-0.17582321
57	0x3da29a6f	0.07939612
58	0xbf0b5400	-0.5442505
59	0xbe0eafb2	-0.1393421
60	0xbea24c13	-0.31698665
61	0xbe128d76	-0.14311776
62	0x3ebf3410	0.37344408
63	0xbf1ad0a7	-0.6047463

conv1.0.bias f4 [32]
0	0x3eb2b992	0.34907204
1	0xbdb403d3	-0.08789792
2	0xbe37b3ef	-0.17939733
3	0xbf15e6ea	-0.5855547
4	0xbf25d90f	-0.6478433
5	0x3f0848a9	0.5323587
6	0x3f0851ff	0.53250116
7	0x3e2cd522	0.16878179
8	0x3e9ced46	0.30649775
9	0xbddc7af7	-0.10765641
10	0x3eeec1a0	0.466321
11	0xbe05a2c8	-0.13050377
12	0xbe67ec1d	-0.22648664
13	0xbe6bc19b	-0.23023073
14	0xbf0c72d6	-0.54862726
15	0xbebf9bdc	-0.374236
16	0xbf1a1904	-0.6019442
17	0x3df5a05b	0.11993476
18	0xbec6fb91	-0.38863805
19	0xbe24d2e2	-0.1609607
20	0x3d6ad0a1	0.05732787
21	0x3ec56bb4	0.38558733
22	0x3f1def45	0.6169322
23	0x3f1bd90b	0.60878056
24	0xbe8eb027	-0.2786877
25	0x3d9f03e4	0.07764414
26	0x3f113788	0.5672536
27	0xbf00cd34	-0.50313115
28	0xbf230f97	-0.63695663
29	0x3f1847cc	0.59484553
30	0x3db71a20	0.0894053
31	0xbe854ce1	-0.26035216

conv1.2.weight f4 [32]
0	0x3f754f78	0.95824385
1	0x3f6c6fbd	0.92358
2	0x3f837ed7	1.0273083
3	0x3f7b74dd	0.98225194
4	0x3f829675	1.0202166
5	0x3f8e7e36	1.1132267
6	0x3f74c498	0.9561248
7	0x3f8279c3	1.0193409
8	0x3f829024	1.0200238
9	0x3f8af06c	1.0854621
10	0x3f84cfad	1.0375878
11	0x3f7237f8	0.9461665
12	0x3f84029a	1.0313294
13	0x3f76fef6	0.9648279
14	0x3f72156b	0.9456393
15	0x3f73387b	0.9500806
16	0x3f82fc40	1.023323
17	0x3f7fe600	0.9996033
18	0x3f83fe87	1.031205
19	0x3f7a31e4	0.9773238
20	0x3f7284bd	0.9473379
21	0x3f880820	1.062748
22	0x3f74f965	0.95693046
23	0x3f8d3641	1.1032182
24	0x3f81e655	1.0148417
25	0x3f80fcc8	1.0077143
26	0x3f7ec55e	0.9951991
27	0x3f7d3ccb	0.9892089
28	0x3f7cdb69	0.98772293
29	0x3f72f62a	0.94906867
30	0x3f6fa996	0.9361814
31	0x3f7b0120	0.9804859

conv1.2.bias f4 [32]
0	0x3d053493	0.03252084
1	0x3caf9133	0.021431541
2	0x3c68c166	0.014206266
3	0x3c7e0caa	0.015505949
4	0x3c1659fc	0.009176727
5	0xbd8535eb	-0.06504425
6	0x3ceefb7d	0.029172653
7	0x3cce68d9	0.02519648
8	0xbc284f6b	-0.010272841
9	0xbd071207	-0.032976177
10	0x3c45ab4c	0.012064766
11	0x3ccb4d49	0.024817126
12	0xbd16a003	-0.036773693
13	0x3cd5a13a	0.026077855
14	0x3d4ad8d6	0.049523197
15	0x3c66a787	0.014078028
16	0xbcb163dc	-0.021654062
17	0xbb44f985	-0.0030055952
18	0x3d13c6a9	0.03607813
19	0xbd228bc6	-0.03968408
20	0x3cef770a	0.029231567
21	0x3d1c1079	0.038101647
22	0x3a95ad95	0.0011419529
23	0xbd32e714	-0.043677405
24	0x3bd1fa8f	0.0064080427
25	0x3cb6a596	0.022295754
26	0x3a909d09	0.0011033128
27	0x3c02dfad	0.007987899
28	0xbca68b0f	-0.02032998
29	0x3ce7c121	0.028290333
30	0x3d2996e5	0.04140367
31	0xbc614d58	-0.01375135

conv1.2.running_mean f4 [32]
0	0x3ef401d9	0.4765766
1	0x3e80e815	0.25177065
2	0x3e263e70	0.16234756
3	0x3c854dd8	0.01627247
4	0x3dd95355	0.106115974
5	0x3f17a2fe	0.5923308
6	0x3f086fd2	0.53295624
7	0x3eae8c29	0.3409131
8	0x3e9c3058	0.30505633
9	0x3c10da48	0.008841105
10	0x3f05e514	0.5230267
11	0x3e33887b	0.17532532
12	0x3d18f27f	0.037340637
13	0x3d98d5b3	0.07462635
14	0x3cd359bb	0.025799623
15	0x3e07e87a	0.13272277
16	0x3b9f7c82	0.0048671374
17	0x3e1cda4b	0.15317647
18	0x3d815702	0.063154235
19	0x3e70539f	0.23469399
20	0x3e0c9319	0.13727988
21	0x3ec48fb1	0.38390878
22	0x3f2726e8	0.6529374
23	0x3f1fe305	0.6245578
24	0xbb0b5e65	-0.002126598
25	0x3e5bf940	0.214818
26	0x3f115894	0.56775784
27	0x3e869efd	0.26293173
28	0xbbbc5f55	-0.005748669
29	0x3f1aebd7	0.60516113
30	0x3e32ef19	0.17474021
31	0x3e4b1b52	0.1983464

conv1.2.running_var f4 [32]
0	0x3e929aa3	0.28633603
1	0x3da71e8a	0.08160122
2	0x3e325deb	0.1741864
3	0x3cfd2075	0.030899266
4	0x3dcaa839	0.09895367
5	0x3d9f615e	0.07782243
6	0x3e13c009	0.14428724
7	0x3e975a03	0.2956086
8	0x3d2b4ce3	0.04182137
9	0x39d3b1c1	0.00040377493
10	0x3db07bfb	0.086173974
11	0x3d6b3067	0.057419207
12	0x3b8b848b	0.0042577437
13	0x3c969fa8	0.018386677
14	0x3b85c4dc	0.0040823054
15	0x3d15ebe8	0.03660193
16	0x3ba36546	0.004986438
17	0x3c550107	0.013000733
18	0x3ca9646e	0.020677771
19	0x3da21b80	0.079154015
20	0x3cda0f54	0.026618637
21	0x3dd68960	0.10475421
22	0x3e0586c5	0.13039692
23	0x3d1ea4c1	0.03873134
24	0x39557a7b	0.0002035889
25	0x3d920dc7	0.07131534
26	0x3e953cea	0.29148036
27	0x3ec9aa80	0.39387894
28	0x3999ef6d	0.0002936082
29	0x3e6ed6fb	0.23324196
30	0x3d116a5d	0.035501827
31	0x3d7f87bf	0.062385317

conv1.4.weight f4 [32, 32, 4, 1]
0	0xbd9dee50	-0.0771147
1	0xbd708b83	-0.0587268
2	0x3d612768	0.05496922
3	0xbd2865e5	-0.0411128
4	0x3c25f892	0.010130065
5	0xbd7ddf9d	-0.061980832
6	0x3d3fa57b	0.046788674
7	0xbca35c32	-0.019941423
8	0xbd9735bf	-0.07383298
9	0x3d291ff9	0.041290257
10	0x3d99b4b2	0.07505168
11	0x3d550aca	0.052012242
12	0xbd22bc1e	-0.039730184
13	0xbcfd252b	-0.030901512
14	0xbce5b98e	-0.028042581
15	0xbd7063f1	-0.05868906
16	0xbd368f73	-0.044570398
17	0x3cc19f29	0.023635464
18	0x3cbcf659	0.023066686
19	0xbd834b48	-0.06410843
20	0x3daa4d80	0.08315563
21	0xbcbd6649	-0.023120062
22	0x3db26bf4	0.08711997
23	0xbcdbd3a9	-0.026834326
24	0xbcc93d61	-0.0245654
25	0x3d95d67d	0.07316301
26	0xbd58e492	-0.052952357
27	0x3d960fc2	0.07327224
28	0x3cfc3b8f	0.030790119
29	0x3bb92c22	0.005651013
30	0xbd13bbc8	-0.036067754
31	0xbd7a1913	-0.06105907
32	0xbda44e00	-0.0802269
33	0xbd7f0c6f	-0.062267717
34	0xbba912d5	-0.0051597157
35	0xbdaac672	-0.08338632
36	0xbd94ca1b	-0.07265111
37	0x3d6c1572	0.05763764
38	0x3caa5d4d	0.020796442
39	0x3dada0b9	0.08477921
40	0xbd052ade	-0.032511584
41	0x3d2dbf36	0.04241868
42	0x3d87f233	0.06637993
43	0x3c8ddf0c	0.017318271
44	0x3c8e45b4	0.017367221
45	0xbd37b948	-0.044854432
46	0xbda434e9	-0.08017904
47	0x3cdd64c7	0.027025593
48	0xbd201299	-0.039080236
49	0x3cff8aad	0.031194055
50	0xbb618135	-0.0034409289
51	0x3d513b9f	0.05108225
52	0x3d424404	0.047428146
53	0xbcbebc6e	-0.02328321
54	0x3d94de38	0.07268947
55	0x3d63670e	0.055518202
56	0xbd386800	-0.045021057
57	0xbd8e942b	-0.069618545
58	0xbb02e8b2	-0.0019975123
59	0xbdd40bcd	-0.10353813
60	0xbd2fa582	-0.04288245
61	0xbd0b9583	-0.034078132
62	0x3ca16667	0.01970215
63	0xbc611318	-0.013737462
64	0x3a9ff8c0	0.001220487
65	0xbdbc1341	-0.0918336
66	0x3d33508b	0.043777984
67	0x3c788bae	0.015170021
68	0x3d8d1214	0.06888214
69	0x3c7a59f9	0.01528024
70	0x3d14e37f	0.03634977
71	0xbcdeaddb	-0.02718251
72	0x3d6c211b	0.05764876
73	0x3d5d3835	0.05400868
74	0xbd730c40	-0.059337854
75	0xbccfa4f3	-0.025347209
76	0xbc065432	-0.008198785
77	0x3d9e9779	0.07743735
78	0x3d4c6127	0.04989734
79	0xbd8a6ad1	-0.06758655
80	0x3d0d23bd	0.03445791
81	0x3d2a2f6d	0.041549135
82	0x3c876f06	0.016532432
83	0xbc13a51b	-0.009011532
84	0xbdc13290	-0.09433472
85	0xbd8d8528	-0.06910163
86	0x3ce625fd	0.028094286
87	0xbd1c53c8	-0.038165838
88	0xb9321a8e	-0.00016985295
89	0x3c9cee8f	0.019156722
90	0x3dab6bd4	0.08370176
91	0xbd340783	-0.043952476
92	0x3dae7fdf	0.08520483
93	0x3df0e82b	0.117630325
94	0xbcdc663d	-0.02690422
95	0x3d01af5d	0.03166138
96	0xbd872750	-0.06599295
97	0x3b4d8a83	0.0031363077
98	0x3cca324a	0.024682183
99	0x3dac197c	0.08403298
100	0x3d547f81	0.05187941
101	0x3c8036de	0.015651163
102	0x3ceafed1	0.028685959
103	0x3d73dfb5	0.059539516
104	0xbdbfa368	-0.09357339
105	0xbd2cbdfe	-0.04217338
106	0x3a436289	0.00074533426
107	0xbc6acd19	-0.014331126
108	0xbdb47af9	-0.08812518
109	0x3cd54459	0.026033567
110	0xbdab9d82	-0.083796516
111	0xbc0d34e3	-0.008618566
112	0x3d39efd9	0.045394752
113	0x3d01838f	0.031619605
114	0x3dc81f83	0.097716354
115	0x3d560a7d	0.052256096
116	0xbd85650b	-0.06513413
117	0xbccd36bb	-0.025050512
118	0x3d032ca0	0.03202498
119	0x3d08521e	0.033281438
120	0x3c839251	0.01606098
121	0x3b5bdf24	0.003354975
122	0xbd3e39ad	-0.046441723
123	0xbd737f4c	-0.05944757
124	0x3d827074	0.06369105
125	0xbca7cd81	-0.020483734
126	0x3d14e49d	0.036350835
127	0xbc41750e	-0.011807693
128	0xbd26d0be	-0.040726416
129	0xbb12183b	-0.0022292275
130	0xbdbfefd0	-0.093719125
131	0xbde3d417	-0.11124437
132	0x3c802cc8	0.015646353
133	0xb921107f	-0.00015360302
134	0xbb08eec2	-0.0020894264
135	0x3d1ad20f	0.037797984
136	0x3cf5f94c	0.0300261
137	0xbc71ecf8	-0.01476597
138	0xbd810567	-0.062998585
139	0x3ddc0341	0.10742808
140	0xbc9bef2c	-0.019034944
141	0xbd2f8f22	-0.04286111
142	0x3d25b841	0.04045892
143	0xbde4e1a7	-0.11175852
144	0xbd93d0d0	-0.07217562
145	0x3d04ae1d	0.03239261
146	0xbdb6ddbf	-0.089290135
147	0xbda2a850	-0.07942259
148	0x3cff1e33	0.03114233
149	0x3cccdd49	0.02500786
150	0x3d8baa1d	0.06819556
151	0x3d9dbc75	0.07701961
152	0x3d49da3b	0.049280386
153	0xbdb69de0	-0.08916831
154	0xbd5bdf3a	-0.053679682
155	0xbdcd7927	-0.100328736
156	0x3d80a1d5	0.06280867
157	0xbc315b85	-0.010825043
158	0xbd9ecf99	-0.0775444
159	0xbcc510ee	-0.024055924
160	0xbcfd3061	-0.030906858
161	0x3cddd919	0.02708106
162	0xbd23ce89	-0.03999189
163	0xbcb64d98	-0.022253796
164	0x3dd8195b	0.10551711
165	0xbd04211f	-0.03225815
166	0x3d6db958	0.058038086
167	0xbd884f8c	-0.06655797
168	0xbc85190a	-0.016247291
169	0xbd37266d	-0.04471438
170	0xbd95c425	-0.07312802
171	0x3c24ad14	0.010051031
172	0x3d365c82	0.044521816
173	0xbd69cee4	-0.057082072
174	0x3c0f26c2	0.008737268
175	0x3acd9c07	0.0015686759
176	0x3dc5a672	0.096508875
177	0xbb086972	-0.0020814803
178	0x3dbb677a	0.09150596
179	0x3c0e0f8c	0.008670699
180	0xbdbb921e	-0.09158729
181	0x3cd6573d	0.026164645
182	0xbd89b82c	-0.06724581
183	0xbc292e75	-0.010326018
184	0xbc8f6a49	-0.017506735
185	0xbd3a78bb	-0.045525294
186	0xbd8f7ca7	-0.070061974
187	0x3d4d2046	0.050079606
188	0x3d1e0a42	0.038584
189	0xbb44267c	-0.0029930165
190	0xbd9914a1	-0.07474638
191	0x3a9778e1	0.001155641
192	0xbd1a1ed9	-0.037627075
193	0x3ccbe874	0.024891116
194	0x3dc87aa7	0.09789019
195	0x3d2a5c5d	0.04159199
196	0xbc2cce09	-0.0105471695
197	0xbd9c3ed7	-0.07629173
198	0xbc594480	-0.013260961
199	0xbd3177d6	-0.043327175
200	0xbd6f3455	-0.058399517
201	0x3d33ef56	0.04392942
202	0xbda6079e	-0.081069216
203	0xbdaa1fe8	-0.08306867
204	0xbd49b1af	-0.049241718
205	0x3d8a33f2	0.06748189
206	0xbcdeaed6	-0.027182978
207	0x3b008104	0.001960815
208	0xbc38967e	-0.011266349
209	0xbd0da914	-0.034585074
210	0xbd5da21c	-0.054109678
211	0xbd0b2772	-0.033973165
212	0x3d981a84	0.074269325
213	0x3d2ef3ba	0.042712905
214	0xbd817cea	-0.063226536
215	0xbd9935a2	-0.07480933
216	0x3d0dcef6	0.0346212
217	0x3ce5e618	0.028063819
218	0xbd4fd706	-0.05074217
219	0x3d5dfaf4	0.054194406
220	0x3d803347	0.062597804
221	0xbd4dd1f3	-0.05024905
222	0xbc6dfb6c	-0.014525276
223	0xbcf9bf2d	-0.030486668
224	0xbc8de8a5	-0.017322848
225	0xbdf4953b	-0.11942526
226	0xbdca5532	-0.09879531
227	0xbd9dfcc9	-0.077142306
228	0xbc9afbee	-0.018918958
229	0xbd641534	-0.055684283
230	0xbd2f517b	-0.042802315
231	0x3d365278	0.044512242
232	0xbc3fce44	-0.011706892
233	0xbcfc46cc	-0.030795477
234	0xbdcfa0ce	-0.10138093
235	0xbd6813c3	-0.05665947
236	0xbd97eeb8	-0.07418579
237	0xbd2e80c9	-0.042603288
238	0x3ccd8694	0.025088586
239	0xbd863603	-0.06553271
240	0xbd8e7472	-0.06955804
241	0xbd43961e	-0.047750585
242	0x3b49560d	0.0030721456
243	0xbdbba6b5	-0.09162656
244	0x3d3b22dc	0.04568754
245	0x3ba4dee9	0.005031456
246	0xbd295902	-0.04134465
247	0x3cc10333	0.023561096
248	0xbd01ba11	-0.031671587
249	0xbd89ed95	-0.06734768
250	0xbd62f839	-0.055412505
251	0x3c9c7d8d	0.019102836
252	0x3d0ed8b0	0.034874618
253	0xbc1a3b15	-0.0094135
254	0x3d9cf1f6	0.07663338
255	0xbc12871c	-0.008943345

conv1.4.bias f4 [32]
0	0x3d16c988	0.03681329
1	0x3de03f8b	0.1094962
2	0xbdab81fa	-0.083744004
3	0xbd522b31	-0.05131072
4	0xbd53dd20	-0.051724553
5	0xbcf34de2	-0.029700223
6	0xbd31c20a	-0.04339794
7	0x3c95f11d	0.018303448
8	0xbd43e5bb	-0.04782651
9	0x3d2f8d34	0.04285927
10	0xbc918298	-0.017762467
11	0xbd47fe65	-0.048826594
12	0x3d715427	0.058918145
13	0x3c6c655b	0.014428462
14	0xbd5e0fde	-0.05421435
15	0xbda1774e	-0.07884084
16	0x3d854dc8	0.06508976
17	0x3adee3b5	0.0017005118
18	0xbd22dfc1	-0.03976417
19	0xbd609202	-0.054826744
20	0x3c77e1ed	0.0151295485
21	0xbca5352d	-0.020166958
22	0x3d2518cb	0.040306848
23	0x3dc669d1	0.09688152
24	0xbd141486	-0.036152385
25	0xbdc9edd3	-0.098598145
26	0xbd8390d5	-0.06424109
27	0xbd6c5590	-0.057698786
28	0x3caf2dba	0.021384109
29	0x3c9491d0	0.018135935
30	0x3d80d2e1	0.06290222
31	0xbcf3ad53	-0.029745733

conv1.6.weight f4 [32]
0	0x3f7b383e	0.98132694
1	0x3f7b53e8	0.98174906
2	0x3f785112	0.96998703
3	0x3f7b5a6d	0.98184854
4	0x3f81ef01	1.0151063
5	0x3f830cac	1.0238242
6	0x3f8d5367	1.1041077
7	0x3f7ca1d7	0.9868445
8	0x3f7a5df4	0.9779961
9	0x3f7ca10c	0.9868324
10	0x3f802c92	1.0013602
11	0x3f7bda2a	0.98379767
12	0x3f846b0e	1.034517
13	0x3f836b44	1.026711
14	0x3f80b77d	1.0055996
15	0x3f7bdfa4	0.98388124
16	0x3f85e077	1.0459126
17	0x3f7a4e31	0.9777556
18	0x3f806285	1.0030066
19	0x3f782b38	0.96940947
20	0x3f7427da	0.9537331
21	0x3f77c963	0.96791667
22	0x3f7d9943	0.99061984
23	0x3f7f11ab	0.99636334
24	0x3f829365	1.0201231
25	0x3f818211	1.0117818
26	0x3f79e257	0.9761099
27	0x3f7dab12	0.9908916
28	0x3f77c2be	0.9678153
29	0x3f7eb1eb	0.9949023
30	0x3f7e043a	0.992252
31	0x3f8114f4	1.0084519

conv1.6.bias f4 [32]
0	0xbc83dacc	-0.016095541
1	0xbd26023a	-0.040529467
2	0x3d10c96f	0.035348352
3	0x380b2603	3.3175584e-05
4	0xbcabc0f8	-0.020966038
5	0x3c106883	0.00881398
6	0xbc617fcb	-0.013763378
7	0x3c33bf79	0.010970944
8	0xbd4ef12f	-0.05052298
9	0xbc0bc32b	-0.008530418
10	0xbcdd3fc2	-0.027007941
11	0x3cab13d6	0.020883482
12	0xbcf0e278	-0.029404864
13	0xbd177b15	-0.036982615
14	0x3caeee33	0.021353817
15	0xbc81ceb7	-0.01584564
16	0xbc81a652	-0.015826378
17	0xbd85fa91	-0.065419324
18	0x3d61f259	0.05516276
19	0x3c17a248	0.009254999
20	0xbc0b32fe	-0.008496044
21	0x3c2ef64b	0.010678838
22	0xbc4a9003	-0.012363437
23	0x3bae40ef	0.0053177993
24	0x3d1e8899	0.03870449
25	0x3c921636	0.017832857
26	0x3cbc59a1	0.022991957
27	0x3d4069c5	0.04697587
28	0xbc0fe2cc	-0.0087821
29	0x3c5852f9	0.013203376
30	0xbcde08f2	-0.027103875
31	0x3ce9eb1b	0.02855449

conv1.6.running_mean f4 [32]
0	0x3f0dc6d8	0.55381536
1	0x3f27973e	0.6546515
2	0x3de442a8	0.11145526
3	0x3f02db2e	0.5111569
4	0x3eb3b3bd	0.35098067
5	0x3eb371f3	0.35047874
6	0x3e64ce73	0.22344379
7	0x3ee3f6e3	0.44524297
8	0x3ed6b208	0.41932702
9	0x3eed6140	0.46363258
10	0x3e98b231	0.2982345
11	0x3f00ca4b	0.50308675
12	0x3e799bce	0.24375841
13	0x3ec5487c	0.38531864
14	0x3f07ffa6	0.53124464
15	0x3e904e83	0.281849
16	0x3ef26c16	0.47348088
17	0x3f002bb0	0.5006666
18	0x3ea8ecbe	0.3299312
19	0x3ec6f994	0.38862288
20	0x3edf06da	0.43559915
21	0x3f38fb2f	0.72258276
22	0x3f1d04a9	0.61335236
23	0x3ed42d21	0.4144068
24	0x3ea668d6	0.32501858
25	0x3eb90757	0.36138412
26	0x3f3e360a	0.7430121
27	0x3f1ca90f	0.6119546
28	0x3efe607d	0.4968299
29	0x3f01f457	0.5076346
30	0x3e9da419	0.3078926
31	0x3ed7d063	0.42151174

conv1.6.running_var f4 [32]
0	0x3f14c1e4	0.58108354
1	0x3f172e8b	0.59055394
2	0x3eb7ddad	0.35911313
3	0x3efd94c8	0.49527574
4	0x3eb8ea4f	0.36116263
5	0x3eefeb16	0.46859044
6	0x3e23662c	0.15956944
7	0x3f00b42c	0.5027492
8	0x3ef56f21	0.47936347
9	0x3f00d508	0.5032506
10	0x3f753d6b	0.9579684
11	0x3f865566	1.0494812
12	0x3e12d18f	0.14337753
13	0x3edc1904	0.42987835
14	0x3efda933	0.4954315
15	0x3eac8fff	0.3370361
16	0x3ed24891	0.4107099
17	0x3fc165fd	1.5109249
18	0x3e956c28	0.2918408
19	0x3ebd2923	0.36945447
20	0x3e885dae	0.26633972
21	0x3f74874f	0.95518965
22	0x3f32d828	0.6986108
23	0x3ef6d4a5	0.4820911
24	0x3ebe6577	0.37186787
25	0x3eef3c02	0.4672547
26	0x3f7bdf1a	0.983873
27	0x3f31a716	0.6939558
28	0x3f1a0d55	0.60176593
29	0x3f004c86	0.50116765
30	0x3e3b7c3c	0.1830911
31	0x3f05c4df	0.52253526

conv1.7.weight f4 [32, 32, 4, 1]
0	0x3cf1e711	0.029529126
1	0xbdb58403	-0.0886307
2	0xbdab5e4c	-0.08367595
3	0xbda56480	-0.080758095
4	0xbc6bca54	-0.0143915005
5	0xbc90622a	-0.017624933
6	0xbd6dea39	-0.0580847
7	0xbd94c6ff	-0.07264518
8	0xbb2e4fa8	-0.0026597772
9	0x3d7c00bc	0.061524138
10	0xbcc4afc6	-0.024009597
11	0x3d143842	0.036186464
12	0x3dab6666	0.0836914
13	0x3cad6b18	0.02116923
14	0x3d02b717	0.03191289
15	0x3d5f9c90	0.05459267
16	0x3d9d9177	0.07693761
17	0x3d2ddafe	0.042445175
18	0x3daf2752	0.08552422
19	0xbd8aea64	-0.06782988
20	0x3d93eedc	0.07223293
21	0xbc744316	-0.014908573
22	0xbc105509	-0.008809336
23	0xbda717af	-0.08158814
24	0x3d1b3b64	0.037898436
25	0x3d25ef19	0.040511224
26	0xbd84ac88	-0.0647822
27	0x3da798ea	0.08183463
28	0xbdacab52	-0.08431114
29	0xbd8e9dbf	-0.069636814
30	0x3bae5ef1	0.0053213765
31	0xbc91ba2c	-0.017788969
32	0x3ce5b909	0.028042333
33	0x3c028b9e	0.007967858
34	0xbd390a30	-0.04517573
35	0x3d4f69b7	0.050637927
36	0xbda7fc0a	-0.082023695
37	0xbd150de2	-0.036390193
38	0xbdcd169a	-0.100140765
39	0x3d5dc769	0.05414525
40	0x3bb610ff	0.0055562253
41	0x3d92fc1c	0.07176992
42	0x3d569ca1	0.052395467
43	0xbc586604	-0.013207916
44	0xbcfaed08	-0.030630603
45	0x3d99862d	0.07496295
46	0xbd225cd9	-0.039639328
47	0xbd85bbb7	-0.065299444
48	0x3ace7599	0.00157516
49	0xbd0d7669	-0.034536753
50	0xbd86c4bd	-0.065804936
51	0xb9df84d2	-0.00042632833
52	0x3d3c588a	0.045982875
53	0x3cf8a65b	0.030352762
54	0xbd78c6fa	-0.060736634
55	0x3c844975	0.016148308
56	0xbd536ba7	-0.051616337
57	0xbb7ffd62	-0.003906094
58	0x3d61c4db	0.055119377
59	0x39ac42b8	0.00032856106
60	0xbd1ada94	-0.03780611
61	0x3d012da2	0.03153766
62	0xbd826c55	-0.06368319
63	0xbd06b8e2	-0.03289116
64	0xbc4dcb82	-0.012560727
65	0x3cddb064	0.027061649
66	0xbd1f891e	-0.038949125
67	0x3d14bdcf	0.036313828
68	0x3afece9d	0.0019440238
69	0x3d865de6	0.065608785
70	0xbd6abe5e	-0.057310455
71	0xba2feb1e	-0.00067107554
72	0xbda7231d	-0.08160994
73	0x3d4c7471	0.049915735
74	0xbd7f90d8	-0.062393993
75	0xbcc8fdc3	-0.024535066
76	0xbd988640	-0.07447481
77	0x3d8dc4ad	0.069222786
78	0xbd2713ff	-0.040790554
79	0x3c376ef2	0.011195885
80	0x3ccbc5ec	0.02487465
81	0xbd443105	-0.04789831
82	0x3daa1990	0.08305657
83	0x3d46cf12	0.04853732
84	0xbcf3ba48	-0.029751912
85	0x3d98dcc7	0.07463985
86	0xbd494f91	-0.049148146
87	0xbd86ec33	-0.0658802
88	0xbc2ceba0	-0.010554224
89	0x3bd41970	0.006472759
90	0x3cd9c5e3	0.026583618
91	0xbbd26ff1	-0.006422036
92	0xbdb01a4a	-0.08598764
93	0xbdabd248	-0.08389717
94	0xbcdbb14d	-0.026817942
95	0xbd555cc4	-0.05209042
96	0xbc31e28a	-0.010857234
97	0x3d373895	0.044731695
98	0x3c8a6cda	0.016897608
99	0xbd11273d	-0.03543781
100	0xbc870884	-0.016483553
101	0x3b26a4b6	0.0025427765
102	0xbda12b50	-0.07869589
103	0xbcd03594	-0.025416173
104	0x3c3f14c1	0.011662663
105	0x3d6fa8f7	0.058510747
106	0x3d83809f	0.06421017
107	0xbd9c8d12	-0.076440945
108	0xbd13150f	-0.035908755
109	0x3d088490	0.033329546
110	0x3dc76f7c	0.09738061
111	0x3d151009	0.036392245
112	0x3d892d55	0.066980995
113	0x3da562e8	0.080755055
114	0x3da5ede6	0.08102016
115	0xbdb81492	-0.089882985
116	0x3d41927b	0.047258835
117	0xbd36a8d3	-0.044594597
118	0xbd1d266a	-0.038366713
119	0xbdc7383a	-0.09727521
120	0x3cbde006	0.023178112
121	0xbd32328b	-0.043505233
122	0xbcaa4e1c	-0.020789199
123	0x3da3349d	0.079690196
124	0xbd4ace82	-0.049513347
125	0xbd0f8592	-0.035039492
126	0xbc9dc1be	-0.019257423
127	0xbc24dc01	-0.010062219
128	0x3dad38d0	0.08458102
129	0x3c0861f7	0.008324138
130	0xbcc6ceac	-0.02426847
131	0x3c44d01c	0.012012508
132	0x3c7948cf	0.015215113
133	0x3cd01779	0.025401818
134	0xbd12bc44	-0.035824075
135	0xbd91ae61	-0.07113338
136	0x3d7b63a2	0.061374314
137	0x3d3af3f6	0.045642816
138	0x3c4821a9	0.012215056
139	0xbd9f66f6	-0.0778331
140	0xbdc58412	-0.09644331
141	0xbd53e969	-0.05173627
142	0xbd3b9573	-0.045796823
143	0x3d79fd07	0.06103232
144	0x3d0b85e9	0.034063254
145	0x39096ef2	0.00013106668
146	0xbd411567	-0.04713955
147	0x3c7fec94	0.015620369
148	0xbd044cc3	-0.03229977
149	0xbd6e27ed	-0.058143545
150	0x3d70ae11	0.058759753
151	0x3d1ad07b	0.03779648
152	0xbd4371ea	-0.04771606
153	0x3cbce38f	0.023057727
154	0xbd4af373	-0.049548578
155	0x3e0ffc55	0.14061101
156	0xbd201fa9	-0.039092693
157	0xbd0836f2	-0.033255525
158	0xbd9d925b	-0.07693931
159	0x3b5ad6f2	0.0033392278
160	0x3d948cc7	0.07253414
161	0xbcc4e1ef	-0.024033515
162	0x3cfff4c7	0.031244649
163	0xbd9d8e6e	-0.07693182
164	0xbd4939a5	-0.04912724
165	0x3cd709ac	0.02624973
166	0x3dc46120	0.095888376
167	0xbb529da1	-0.0032137411
168	0xbd832256	-0.064030334
169	0xbdbe2f78	-0.09286398
170	0x3d6d0961	0.057870273
171	0x3d6aff89	0.057372604
172	0xbd2838f9	-0.04106996
173	0xbcea8b7f	-0.02863097
174	0xbd853646	-0.065044925
175	0xbd7a9e9a	-0.06118641
176	0x3d48dd40	0.049039125
177	0xbd4c5bf4	-0.04989238
178	0xbd8f8af2	-0.070089236
179	0x3d5e096b	0.0542082
180	0xbd8ecb1a	-0.06972332
181	0x3d013a86	0.031549953
182	0xbd9d0aa0	-0.07668042
183	0xbda4983b	-0.08036848
184	0xbca709ef	-0.020390479
185	0xbd11af2c	-0.035567448
186	0xbcc7d9a1	-0.024395766
187	0xbdc9f505	-0.09861187
188	0x3d92d9ba	0.07170434
189	0x3d4db211	0.050218645
190	0x3cb3a4d3	0.02192918
191	0xbbcc3864	-0.006232308
192	0x3d94f456	0.07273166
193	0xbd84db62	-0.064871565
194	0x3b2e15a0	0.0026563182
195	0xbc95ca4c	-0.01828494
196	0xbda1f5b7	-0.079081945
197	0x3cfdb5a3	0.0309704
198	0xbcfc4b75	-0.0307977
199	0xbd96bf27	-0.07360678
200	0x3a7ae560	0.00095709227
201	0x3d941b03	0.072317146
202	0x3c05f1f4	0.008175362
203	0x3c24b38b	0.010052572
204	0xbc4c3107	-0.012462861
205	0x3d00f613	0.031484675
206	0xbc0975c2	-0.008389892
207	0xbcf56151	-0.02995363
208	0xbd6b68bc	-0.05747293
209	0x3d6fe82f	0.058571037
210	0xbc39c94d	-0.011339498
211	0xbd128611	-0.035772387
212	0xbd8af003	-0.0678406
213	0x3bdd6a4c	0.0067570563
214	0x3b14f635	0.0022729759
215	0x3d418999	0.047250364
216	0x3b912444	0.004429372
217	0xbd901448	-0.07035118
218	0xbd91cdee	-0.07119356
219	0x3d81f879	0.063462205
220	0xbd08c40a	-0.033390082
221	0x3c8ba310	0.017045528
222	0xbd8dd01a	-0.06924458
223	0xbcf92da2	-0.030417267
224	0xbc56c0b8	-0.013107471
225	0x3d14dcbf	0.036343332
226	0xbd5301b4	-0.051515296
227	0xbd922630	-0.0713619
228	0x3d2ed56d	0.042684007
229	0xbc9d561d	-0.019206101
230	0xbdc48fca	-0.09597738
231	0xbdc22b2e	-0.09480892
232	0x3d0a808e	0.033814006
233	0xbdd03362	-0.101660505
234	0xbce21ee8	-0.027602628
235	0x3d59457f	0.053044792
236	0xbc9c0698	-0.019046113
237	0xbd94ac7f	-0.072594635
238	0x3c2d4adc	0.01057693
239	0xbdbe0b4d	-0.09279499
240	0xbc8d0906	-0.017216217
241	0x3cc1fe64	0.023680873
242	0x3d851d70	0.064997554
243	0x3a76c806	0.0009413961
244	0xbbf1ee20	-0.007383123
245	0x3d022c11	0.031780306
246	0x3d4dc21e	0.050233953
247	0xbcc23d33	-0.023710823
248	0xbd5e1f04	-0.054228798
249	0xbb8f8307	-0.0043796333
250	0xbce72922	-0.028217856
251	0x3dc1e627	0.09467726
252	0x3d899a04	0.06718829
253	0x3c3d84e9	0.011567333
254	0x3d71aee2	0.059004672
255	0x3afee9a2	0.001944829

conv1.7.bias f4 [32]
0	0x3d4c49b1	0.049874965
1	0xbc47ab2f	-0.012186809
2	0x3d9af90d	0.07567034
3	0x3d80d709	0.06291015
4	0x3d75adb4	0.05998011
5	0x3d804865	0.06263808
6	0x3ddac172	0.10681428
7	0xbc4b3b50	-0.012404278
8	0x3c18fc26	0.009337461
9	0x3d9c910b	0.07644852
10	0x3d35d92a	0.044396557
11	0x3dac1813	0.08403029
12	0x3b872f06	0.0041254787
13	0xbd270e74	-0.040785268
14	0x3ad50dba	0.0016254701
15	0x3bef622b	0.0073054037
16	0x3c5c887c	0.013460275
17	0x3dcd53dc	0.100257605
18	0xbd95252a	-0.07282479
19	0x3cac0564	0.020998664
20	0xbdef0d44	-0.11672452
21	0x3dbcb2d0	0.09213793
22	0x3d91b017	0.071136646
23	0xbda11d21	-0.07866884
24	0xbd0bc1cb	-0.034120362
25	0xbcaa2841	-0.020771148
26	0x3c6f6c89	0.014613279
27	0x3d7bfb64	0.06151904
28	0x3d9e4a4b	0.07729014
29	0xbddc26ab	-0.10749563
30	0xbdb6ff87	-0.08935457
31	0x3ca5c259	0.020234274

conv1.9.weight f4 [32]
0	0x3f810807	1.0080575
1	0x3f7c6da1	0.9860478
2	0x3f75ae88	0.9596944
3	0x3f7e2aa2	0.992838
4	0x3f7c9aa8	0.98673487
5	0x3f7e94bc	0.994457
6	0x3f7f1ee8	0.99656534
7	0x3f82f5eb	1.0231298
8	0x3f7c5726	0.9857048
9	0x3f70bdc5	0.94039565
10	0x3f8081bc	1.0039592
11	0x3f7e6d7b	0.99385804
12	0x3f822738	1.0168219
13	0x3f814d50	1.0101719
14	0x3f8150e8	1.0102816
15	0x3f7f81d6	0.9980749
16	0x3f7f278c	0.9966972
17	0x3f8234e9	1.0172397
18	0x3f84ae64	1.036572
19	0x3f81527a	1.0103295
20	0x3f82fda8	1.023366
21	0x3f797b9e	0.9745425
22	0x3f7ad565	0.97981864
23	0x3f7dec10	0.9918833
24	0x3f7d0629	0.98837525
25	0x3f7f2322	0.99662983
26	0x3f7a925f	0.97879595
27	0x3f807492	1.0035574
28	0x3f811e24	1.0087323
29	0x3f7778fc	0.9666898
30	0x3f8d71fb	1.1050409
31	0x3f79b43f	0.9754066

conv1.9.bias f4 [32]
0	0xbcb87e3e	-0.022521134
1	0xbc06c3c5	-0.008225386
2	0x3d0cf951	0.034417454
3	0x3c21c5fb	0.009873862
4	0xbc65e7bd	-0.0140323015
5	0x3bbe3f22	0.005805866
6	0xba0b80fb	-0.0005321649
7	0x3d1a80a0	0.037720323
8	0x3c94b746	0.018153798
9	0x3c08f72c	0.008359712
10	0xbcaae3a3	-0.020860499
11	0x3cb1f329	0.021722393
12	0xbcadde4d	-0.021224165
13	0x3b4e0158	0.0031433906
14	0xbd1960de	-0.037445895
15	0x3b0069c5	0.0019594294
16	0xbcaeec32	-0.021352861
17	0xbcaf5714	-0.021403827
18	0x3c82086c	0.015873156
19	0x3cb28eb0	0.021796554
20	0x3c43728e	0.011929167
21	0x3b974528	0.0046163984
22	0x3bb6959a	0.005572033
23	0x3c54f950	0.012998894
24	0x3cc5a0cf	0.024124531
25	0xbd0c7c0a	-0.03429798
26	0xbc0dbe7e	-0.008651374
27	0x3ccda6db	0.025103977
28	0xbc1221af	-0.008919164
29	0x3c85f7f6	0.016353589
30	0x3b25df8b	0.0025310244
31	0xb9dbff38	-0.00041961088

conv1.9.running_mean f4 [32]
0	0x3f078b1a	0.5294663
1	0x3e96a46a	0.29422313
2	0x3e97c0b0	0.29639196
3	0x3eec8f08	0.46202874
4	0x3ee5ac65	0.4485809
5	0x3ec0d869	0.37665108
6	0x3ee33b02	0.44380957
7	0x3e301ded	0.17198916
8	0x3e8daa21	0.2766886
9	0x3e8691bc	0.26283062
10	0x3e9579b6	0.2919442
11	0x3eb100d7	0.34570953
12	0x3e8f0325	0.27932087
13	0x3ea97172	0.33094364
14	0x3ea482d0	0.32131052
15	0x3ef89f0f	0.48558852
16	0x3eaf07ff	0.34185788
17	0x3ed3826d	0.41310444
18	0x3e79fbd5	0.24412473
19	0x3e4ff637	0.20308767
20	0x3d9d81c1	0.07690764
21	0x3ea48f23	0.32140455
22	0x3f06b5d8	0.5262122
23	0x3ed2e7f4	0.4119259
24	0x3eec463e	0.4614734
25	0x3f0a7734	0.5408814
26	0x3eb7bbc0	0.3588543
27	0x3e816d19	0.25278547
28	0x3eaec0cf	0.34131476
29	0x3e43edeb	0.19133727
30	0x3dd1991b	0.10234281
31	0x3e8c2866	0.27374572

conv1.9.running_var f4 [32]
0	0x3eff0390	0.49807405
1	0x3e1432c4	0.1447249
2	0x3e25cf26	0.16192302
3	0x3efd2947	0.49445555
4	0x3e836d6f	0.2566943
5	0x3ee95d7f	0.45579144
6	0x3f0474d0	0.5174074
7	0x3dba51e9	0.09097654
8	0x3ee208a9	0.44147232
9	0x3e427775	0.18990882
10	0x3efa96d1	0.4894319
11	0x3e90be60	0.28270245
12	0x3e75b168	0.23993456
13	0x3e9577be	0.2919292
14	0x3e2a9b86	0.1666089
15	0x3eefa099	0.46802214
16	0x3e8a451c	0.2700585
17	0x3ea781d1	0.3271623
18	0x3e4d0b9c	0.2002396
19	0x3e29344f	0.1652386
20	0x3d7c3c59	0.06158099
21	0x3e22ca71	0.15897538
22	0x3edfab34	0.43685305
23	0x3f0d79b4	0.5526383
24	0x3f01ee09	0.5075384
25	0x3f230d4e	0.63692176
26	0x3e4304b1	0.19044758
27	0x3e3248c8	0.17410576
28	0x3e09208b	0.1339132
29	0x3eb8cc46	0.36093348
30	0x3dc65b37	0.096853666
31	0x3e01e4b6	0.12684903

conv2.0.weight f4 [32, 32, 1, 2]
0	0xbdc6fde8	-0.097163975
1	0xbc20d19e	-0.009815602
2	0xbd28b1e6	-0.041185282
3	0x3bdeb24e	0.006796158
4	0xbda1421c	-0.078739375
5	0x3cd8cb58	0.02646415
6	0x3da73dc1	0.081660755
7	0xbdc15a4b	-0.0944105
8	0xbcf80ba3	-0.030278986
9	0xbd16e158	-0.036836
10	0x3e02ddab	0.12779872
11	0x3dbabf40	0.09118509
12	0xbdbb9dab	-0.09160932
13	0x3d45255f	0.048131343
14	0x3c1c2d45	0.0095322775
15	0xbd84522d	-0.06460986
16	0x3da17354	0.07883325
17	0x3dab8d72	0.08376588
18	0x3dc4991f	0.09599518
19	0x3d89d31b	0.06729718
20	0x3c209d47	0.009803123
21	0xbd442223	-0.047884118
22	0x3e1718d7	0.1475557
23	0xbcd3b12c	-0.025841318
24	0xbc5e3b95	-0.01356401
25	0xbbe86642	-0.007092268
26	0x3d01ed0e	0.031720214
27	0x3d19c0f7	0.03753754
28	0xbd480ee5	-0.04884233
29	0x3cee167b	0.029063454
30	0xbdb2d751	-0.087324746
31	0x3e08210b	0.13293855
32	0xbe07be05	-0.1325608
33	0xbc7b8a22	-0.015352758
34	0x3e079927	0.13242017
35	0xbcac69a6	-0.02104647
36	0xbd8dbc90	-0.06920731
37	0x3d9116e5	0.07084445
38	0xbd34f839	-0.044182036
39	0x3dc8cbc4	0.0980449
40	0xbdbd3b5a	-0.09239836
41	0x3d637963	0.055535685
42	0x3dc77ddd	0.097408034
43	0xbbdad532	-0.006678247
44	0xbd4ef5a0	-0.050527215
45	0xbdd0dacb	-0.101979814
46	0x3d3acd94	0.04560621
47	0x3dc40507	0.095712714
48	0x3d2a777b	0.04161785
49	0x3dcf1898	0.10112113
50	0xbdddf2ea	-0.10837348
51	0x3be8d497	0.007105421
52	0xbd8d8e84	-0.06911948
53	0xbda8503d	-0.08218429
54	0x3d7f95a0	0.062398553
55	0x3daa5847	0.08317619
56	0x3dc84f23	0.09780719
57	0xbd5c6bd0	-0.053813756
58	0x3dfe3c5f	0.124138586
59	0xbdbfb069	-0.093598194
60	0x3d433e2a	0.047666706
61	0xbe00cc8e	-0.12578031
62	0x3dbc715e	0.092013106
63	0xbdc1712e	-0.094454154
64	0xbd4f4f78	-0.050612897
65	0x3d98057d	0.07422922
66	0x3dade7d3	0.084914826
67	0xbd4ac91f	-0.04950821
68	0x3ddb5877	0.10710233
69	0xbddf7c94	-0.10912433
70	0x3d43cab3	0.04780073
71	0x3d1b4a90	0.037912905
72	0xbcedd56d	-0.029032433
73	0x3d544a9f	0.051828977
74	0xbd5c5fac	-0.053802177
75	0x3d4f94d4	0.050679043
76	0x3db576ef	0.088605754
77	0xbdb4b52c	-0.08823618
78	0xbdf74df4	-0.12075415
79	0x3d15bd08	0.036557227
80	0x3b1b2a62	0.0023676385
81	0x3d064220	0.032777905
82	0xbcf2af81	-0.029624702
83	0x3cd8471f	0.0264011
84	0x3c85ef8a	0.016349573
85	0x3cff24a7	0.031145407
86	0xbcf1dae3	-0.029523319
87	0xbd9d9eb2	-0.07696284
88	0x3c7940d9	0.015213215
89	0x3cbb0a23	0.022831982
90	0x3c83ccef	0.01608893
91	0x3da10c03	0.07863619
92	0xbde5600c	-0.1119996
93	0xbde51e6b	-0.111874424
94	0x3dd7a6f8	0.10529894
95	0x3d62dae9	0.05538455
96	0x3c62f93e	0.013853369
97	0x3d98909b	0.07449456
98	0xbcb5ff53	-0.022216475
99	0x3bd315de	0.0064418158
100	0x3d00a51f	0.03140747
101	0x3d8515a3	0.064982675
102	0xbcbdd50c	-0.023172878
103	0xbe0634ce	-0.13106081
104	0xbde2ed6b	-0.1108044
105	0x3e0be03e	0.1365976
106	0x3d4e36ce	0.050345235
107	0x3da59e26	0.08086805
108	0xbd898eb4	-0.067166716
109	0x3cad0805	0.021121988
110	0xbd07cde0	-0.033155322
111	0x3cfe3e89	0.031035678
112	0x3d8fe9d8	0.07027024
113	0xbdea356f	-0.11435973
114	0x3d5af696	0.05345782
115	0x3d4a4692	0.049383707
116	0x3d90ff58	0.07079953
117	0x3dc213f8	0.09476465
118	0x3e150bea	0.14555326
119	0x3ce0a8ea	0.027424295
120	0xbc8df4b0	-0.01732859
121	0x3c8ebc64	0.017423816
122	0xbc58671f	-0.01320818
123	0xbdb3052e	-0.08741222
124	0x3e0ae049	0.1356212
125	0x3c3b9bff	0.011450767
126	0x3dee46d2	0.11634602
127	0xbdb6a013	-0.089172505
128	0x3a5d8500	0.00084502995
129	0x3dac1942	0.08403255
130	0xbdc9e772	-0.09858598
131	0xbdc93eb5	-0.098264135
132	0x3db12cd1	0.08651126
133	0x3d47b984	0.048760906
134	0xbd05c219	-0.03265581
135	0xbd502c6d	-0.050823618
136	0xbdb823c1	-0.089911945
137	0xbd0b3d45	-0.033993978
138	0x3dbda105	0.09259228
139	0xbdfe3168	-0.12411767
140	0xbd8fe13a	-0.070253804
141	0x3db7a244	0.089664966
142	0x3deb583f	0.11491441
143	0x3e03df9a	0.12878266
144	0x3d36ddeb	0.04464523
145	0x3d375f4f	0.044768628
146	0x3e0cc189	0.13745703
147	0xbda450b8	-0.080232084
148	0x3d311a57	0.04323801
149	0xbda24fdb	-0.079253875
150	0x3da6ba5e	0.081410155
151	0x3cd244a1	0.02566749
152	0xbc588f35	-0.013217737
153	0xbe1392e0	-0.14411497
154	0xbd501640	-0.05080247
155	0x3d0a202d	0.03372209
156	0xbd9fcc46	-0.07802634
157	0xbc962876	-0.01832984
158	0xbced0e63	-0.028937524
159	0x3d714f56	0.05891355
160	0xba842e6b	-0.0010084634
161	0xbdedd098	-0.11612052
162	0xbe1ba196	-0.15198359
163	0x3d161bf5	0.036647756
164	0x3ddd271e	0.10798477
165	0x3e02f329	0.1278807
166	0x3d1c38d0	0.038140118
167	0x3c87b9e8	0.01656814
168	0xbcbed784	-0.023296125
169	0x3da825d1	0.08210338
170	0x3d9d6c8e	0.07686721
171	0xbdc934c5	-0.09824518
172	0x3d630c86	0.055431865
173	0xbdf85d9a	-0.12127228
174	0xbdc769f5	-0.097370066
175	0xbdd9d929	-0.10637123
176	0x3c5eb31a	0.013592506
177	0x3d2c2877	0.042030778
178	0x3cd3af08	0.025840297
179	0x3cc69777	0.024242146
180	0x3d9b889e	0.07594417
181	0xbd994782	-0.07484342
182	0x3dc787c3	0.09742691
183	0x3d6e3b95	0.05816229
184	0xbd60f405	-0.054920215
185	0xbdaa4a66	-0.083149716
186	0x3dc32035	0.095276274
187	0x3c918ba7	0.017766787
188	0x3dbe4f84	0.0929251
189	0x3d447f26	0.04797282
190	0x3d7191cd	0.058976937
191	0xba9ab5b6	-0.0011803422
192	0xbce0ec30	-0.027456373
193	0x3d9ed46d	0.07755361
194	0xbd255c1b	-0.04037104
195	0x3cf5e01f	0.030014096
196	0x3d8079c0	0.06273222
197	0xbda89d01	-0.08233071
198	0x3daa2ef0	0.08309734
199	0x3daa0063	0.08300855
200	0xbddd3bc5	-0.10802416
201	0x3dbf262b	0.09333452
202	0xbd903e9b	-0.07043191
203	0x3dd926d6	0.106031105
204	0x3d51c4d8	0.051213115
205	0x3da8222f	0.08209645
206	0x3c6c3920	0.014417917
207	0x391af600	0.00014778227
208	0xbd9de3c8	-0.077094615
209	0xbd80bc89	-0.0628596
210	0x3ce035cf	0.027369408
211	0xbd7ab293	-0.061205458
212	0x3cb6720c	0.022271179
213	0x3da774b3	0.081765555
214	0xbdd5b927	-0.10435706
215	0xbd10a5f8	-0.03531453
216	0xbc6beafb	-0.014399285
217	0xbcfc460a	-0.030795116
218	0x3cc978a8	0.024593666
219	0x3c39b106	0.01133371
220	0xbba1ae97	-0.004934143
221	0xbd973264	-0.07382658
222	0x3c016a21	0.007898838
223	0x3d4e3c68	0.050350577
224	0xbd5269b5	-0.05137034
225	0x3c43492c	0.011919301
226	0xbd8a1a94	-0.067433506
227	0xbe0099a3	-0.12558608
228	0x3d69183e	0.056907885
229	0x3d4e80a4	0.05041565
230	0xbe0266d7	-0.12734543
231	0xbd976887	-0.07392984
232	0xbd27f893	-0.041008543
233	0xbd9b453e	-0.07581566
234	0xbdc4cdaf	-0.096095435
235	0xbd1f1187	-0.038835075
236	0xbde93384	-0.11386779
237	0x3c94d2a5	0.01816685
238	0x3d4842b1	0.048891727
239	0x3cf92131	0.030411335
240	0x3d4f4dc7	0.050611284
241	0xbe0006a3	-0.12502532
242	0xbd67f8f7	-0.056633916
243	0xbc84e295	-0.016221324
244	0x3dc45769	0.09586985
245	0x3dcf70a4	0.10128906
246	0xbded3959	-0.11583204
247	0x3c695411	0.014241234
248	0xba93e5fd	-0.0011283752
249	0x3d83193e	0.06401299
250	0xbde13ce6	-0.109979436
251	0x3df17207	0.11789327
252	0xbe24b5b9	-0.16084947
253	0xbc289c16	-0.01029112
254	0x3dc37212	0.095432416
255	0x3d1dea5a	0.038553573

conv2.0.bias f4 [32]
0	0xbddb759f	-0.10715794
1	0x3d6f3d05	0.058407802
2	0xbd2010dd	-0.039078582
3	0x3db2c731	0.08729399
4	0x3d0ecbe5	0.034862418
5	0x3cd408d8	0.025883123
6	0xbd82f903	-0.063951515
7	0xbd1e3391	-0.038623396
8	0x3d629176	0.055314504
9	0xbd4c814f	-0.049928006
10	0xbd9c7d08	-0.07641035
11	0x3d156f06	0.036482833
12	0xbdbbc724	-0.091688424
13	0xbd8074fd	-0.06272314
14	0x3db8e7c0	0.09028578
15	0x3e02aed2	0.12762001
16	0xbdbb9908	-0.09160048
17	0xbc4e6519	-0.012597346
18	0x3d704c8a	0.058666743
19	0x3df021bd	0.11725185
20	0x3bc8fe6d	0.0061338455
21	0x3cdeb661	0.027186574
22	0x3daf7f10	0.08569157
23	0xbd3e2ae5	-0.046427626
24	0xbdaa798d	-0.08323965
25	0xbd9dac70	-0.076989055
26	0x3dbff9c7	0.09373813
27	0x3d12501b	0.035720926
28	0x3d30fad3	0.043207955
29	0x3d43efb8	0.047836035
30	0xbb32795b	-0.0027232978
31	0x3d94ad91	0.07259668

conv2.2.weight f4 [32]
0	0x3f7c021f	0.98440737
1	0x3f80c399	1.0059692
2	0x3f7d0a92	0.98844254
3	0x3f80c4fe	1.0060117
4	0x3f8429dc	1.0325274
5	0x3f843484	1.0328526
6	0x3f803070	1.0014782
7	0x3f830c49	1.0238124
8	0x3f80b554	1.0055337
9	0x3f817636	1.01142
10	0x3f82102c	1.0161185
11	0x3f7ecbcc	0.9952972
12	0x3f7a8e92	0.97873795
13	0x3f80b07a	1.0053856
14	0x3f80be63	1.0058101
15	0x3f834ba0	1.0257454
16	0x3f7bdbd8	0.9838233
17	0x3f78197c	0.96913886
18	0x3f7b0e02	0.9806825
19	0x3f840a60	1.0315666
20	0x3f813f8b	1.0097517
21	0x3f7da8ab	0.9908549
22	0x3f824639	1.017768
23	0x3f7487b2	0.95519555
24	0x3f74e48d	0.9566124
25	0x3f7e2cad	0.9928692
26	0x3f7969e7	0.9742722
27	0x3f7d9991	0.9906245
28	0x3f796d2e	0.9743222
29	0x3f7cc521	0.98738295
30	0x3f87677f	1.057846
31	0x3f7a9ecd	0.9789856

conv2.2.bias f4 [32]
0	0x3b9d4192	0.0047990764
1	0x3c64cc90	0.013964787
2	0x3be98402	0.0071263323
3	0xbcc91a64	-0.024548717
4	0x3d54b3b0	0.051929176
5	0x3b9b22bb	0.004734365
6	0xbc1c68e1	-0.009546489
7	0xbb00ca7b	-0.0019651938
8	0x3d274599	0.040837858
9	0xbbe32292	-0.0069316113
10	0xbc2b167a	-0.010442371
11	0x3cb457db	0.022014549
12	0x3cbc8ffe	0.02301788
13	0x3cc755ae	0.024332847
14	0xbccb27b5	-0.024799207
15	0xbc8a6b2e	-0.01689681
16	0x3af2d806	0.0018527515
17	0x3c153b03	0.009108308
18	0x3a83824e	0.0010033341
19	0x3d15ad4d	0.036542226
20	0xbc496b6e	-0.01229368
21	0x3cca86f0	0.024722546
22	0x3c597f66	0.013275003
23	0xbd30df71	-0.04318184
24	0x3d689e2f	0.05679148
25	0xbc9e6f3e	-0.019340154
26	0x3cc0e717	0.023547692
27	0x3b5ba286	0.003351362
28	0xbc99f2d8	-0.018792555
29	0xbb893fc8	-0.0041885115
30	0x3ca3a1b6	0.01997457
31	0x3c3d73ce	0.0115632545

conv2.2.running_mean f4 [32]
0	0x3e5f504a	0.21807972
1	0x3e732d08	0.23747647
2	0x3ea279db	0.31733593
3	0x3e82719e	0.25477308
4	0x3e835d98	0.25657344
5	0x3e5dca36	0.21659169
6	0x3eac5b9e	0.33663648
7	0x3e959d07	0.29221365
8	0x3ebe2811	0.37139943
9	0x3e64f8bd	0.22360511
10	0x3e8b7986	0.27241153
11	0x3ebf0eb8	0.37315917
12	0x3e140f00	0.14458847
13	0x3e937776	0.2880208
14	0x3eb3ea66	0.3513977
15	0x3e949922	0.2902308
16	0x3e6bf57e	0.23042867
17	0x3e5a6859	0.21328868
18	0x3e879d12	0.26487023
19	0x3e89d1e9	0.2691796
20	0x3eb3f8b2	0.35150677
21	0x3ec95807	0.39324972
22	0x3e7ae8ff	0.24502943
23	0x3e6fb7a1	0.23409893
24	0x3e5075f8	0.20357502
25	0x3e6ef6ec	0.2333638
26	0x3e8d9efa	0.27660352
27	0x3ec4d3d9	0.38442877
28	0x3e45cc0d	0.1931612
29	0x3e9a7292	0.30165535
30	0x3e25a5ee	0.16176578
31	0x3eab442f	0.33450457

conv2.2.running_var f4 [32]
0	0x3e19f895	0.15036233
1	0x3e474857	0.19461189
2	0x3e5207e8	0.20510828
3	0x3ddcf70b	0.10789307
4	0x3e345f21	0.17614414
5	0x3e45fd6b	0.19334953
6	0x3e9f6394	0.3113066
7	0x3e8bc1c6	0.27296275
8	0x3e83c1f6	0.25733918
9	0x3e1290b1	0.14313008
10	0x3e56caf7	0.20975862
11	0x3e9377b9	0.2880228
12	0x3db95c67	0.090508275
13	0x3e57df99	0.2108139
14	0x3e4f919f	0.20270394
15	0x3e805bb6	0.2506997
16	0x3e17105f	0.14752339
17	0x3db17e89	0.08666713
18	0x3e027bf0	0.12742591
19	0x3e8a6e52	0.27037293
20	0x3e8ba5c0	0.27274895
21	0x3e6e8e42	0.23296455
22	0x3e730466	0.23732147
23	0x3e5821d7	0.21106659
24	0x3e2c0415	0.16798432
25	0x3e1777f3	0.14791851
26	0x3e49f047	0.19720565
27	0x3e8f7478	0.28018546
28	0x3e716034	0.23571855
29	0x3e56382a	0.20919862
30	0x3e0346ef	0.12820028
31	0x3ead7dbe	0.33884996

conv2.3.weight f4 [32, 32, 4, 1]
0	0xbb87562f	-0.004130147
1	0x3cd6b2d7	0.026208324
2	0x3d510e31	0.051038925
3	0xbcb60e81	-0.022223713
4	0xbb189311	-0.0023281018
5	0xbd61dcd5	-0.055142242
6	0x3d91e3e3	0.07123544
7	0xbd883bc9	-0.06652028
8	0x3dbb01bd	0.09131191
9	0x3da7c531	0.08191908
10	0x3d022651	0.031774823
11	0x3d945f9a	0.07244797
12	0x3cdcc27a	0.026948202
13	0xbcea71ed	-0.028618777
14	0xbda2ea84	-0.079548866
15	0xbd601193	-0.05470426
16	0xbcc79868	-0.024364665
17	0x3d6bf749	0.057608876
18	0xbd16696c	-0.036721632
19	0x3dabfc69	0.08397753
20	0xba3ade8a	-0.0007128498
21	0xbd857c16	-0.06517808
22	0xbc996216	-0.018723529
23	0xbcea95e6	-0.02863593
24	0xbcb9337f	-0.022607563
25	0xbddc69fe	-0.10762404
26	0xbda29f71	-0.07940567
27	0x3c0d2318	0.008614324
28	0x3c84c76a	0.01620837
29	0x3cb0eaf5	0.021596411
30	0x3dd32282	0.10309316
31	0x3d906c85	0.070519485
32	0xbce59027	-0.028022839
33	0x3c6bc171	0.014389382
34	0xbd25d7ca	-0.040488996
35	0xbc8d99e7	-0.0172853
36	0x3d13046b	0.035892885
37	0xbca58494	-0.02020482
38	0x3d6fc088	0.05853322
39	0x3d0443ed	0.03229134
40	0x3d8e5e86	0.06951623
41	0x3c1b4ce4	0.009478781
42	0x3d62c802	0.055366524
43	0x3d6813bb	0.05665944
44	0xbd6a7b15	-0.057246286
45	0xbd6ab865	-0.05730476
46	0xbce11e09	-0.027480142
47	0xbc925b90	-0.017865926
48	0xbd2a0695	-0.041510183
49	0x3d3c67d3	0.045997452
50	0xbc60489c	-0.013689186
51	0xbd6fb315	-0.058520395
52	0x3db25c33	0.08708992
53	0x3d6ce1fe	0.05783271
54	0xbd329ad7	-0.043604698
55	0x3cebe1be	0.028794166
56	0xbcdd27c3	-0.026996499
57	0xbdb3f85f	-0.087876074
58	0x3cbb427b	0.022858849
59	0xbbf715bf	-0.007540434
60	0xb8f9361d	-0.000118833246
61	0x3d3436d3	0.043997597
62	0xbd123d1b	-0.035702806
63	0xbc69ce0e	-0.014270319
64	0x3d37bd46	0.04485824
65	0x3d6b1bbc	0.057399496
66	0xbce93a98	-0.028470322
67	0xbd4a2ccd	-0.04935913
68	0xbd03afda	-0.032150127
69	0xbd908461	-0.07056499
70	0xbce99be1	-0.028516712
71	0xbda5b50d	-0.08091173
72	0x3d988e18	0.07448977
73	0xbd3b11f7	-0.04567143
74	0x3cdedd57	0.027205152
75	0xbd2ace53	-0.041700672
76	0x3d1a52a7	0.03767648
77	0x3d77ccdb	0.0604981
78	0x3cb955f2	0.02262399
79	0x3ac01e06	0.0014657385
80	0xbd6794b9	-0.056538317
81	0xbc8f73da	-0.017511297
82	0xbd8d8e93	-0.069119595
83	0x3b88212d	0.0041543455
84	0xbd3b7276	-0.045763455
85	0xbd1e43e2	-0.038638957
86	0xbd76cb8f	-0.060252722
87	0x3c808eb7	0.015693052
88	0x3c3b50c7	0.011432833
89	0xbd36758e	-0.044545703
90	0xbdaa3113	-0.083101414
91	0x3d3c5b21	0.045985345
92	0xbd2e3971	-0.04253525
93	0x3d136c7e	0.035992138
94	0xbd9c100f	-0.076202504
95	0x3d9398ed	0.07206903
96	0xbd646095	-0.05575617
97	0x3d0ae53a	0.033910014
98	0x3c80dcfb	0.015730372
99	0x3cffb45d	0.031213934
100	0xbdbccc71	-0.092186816
101	0x3d05fcee	0.032711916
102	0xbccc2b47	-0.02492298
103	0xbd6c9dac	-0.057767555
104	0xbd402e75	-0.046919305
105	0x3baa78b9	0.0052023795
106	0xbd40a354	-0.04703076
107	0x3cf9d147	0.030495299
108	0x3b94a67a	0.004536447
109	0x3cf78ca8	0.030218437
110	0xbc18d749	-0.009328672
111	0xbcb29348	-0.021798745
112	0xbd54c924	-0.051949635
113	0x3da9e0d8	0.08294839
114	0x3c1c297f	0.009531378
115	0x3d4fcaad	0.050730396
116	0x3c81a7b4	0.015827037
117	0xbcdd2d77	-0.026999218
118	0x3d6f704e	0.05845671
119	0xbc9de6fb	-0.01927518
120	0x3d94a62b	0.072582565
121	0x3bc10380	0.00589031
122	0xbd674b4f	-0.056468304
123	0x3d88b055	0.06674258
124	0xbd53a75a	-0.05167327
125	0x3c6c251b	0.0144131435
126	0x3c98cf6f	0.0186536
127	0x3c479689	0.0121818865
128	0x3d5ab71e	0.05339729
129	0xbc139479	-0.009007567
130	0x3cc2112a	0.023689825
131	0xbd5ab638	-0.053396434
132	0x3d8e36a3	0.06944015
133	0x3d6add8e	0.057340197
134	0xbc218047	-0.009857244
135	0xbd044838	-0.032295436
136	0x3d846984	0.06465438
137	0x3d42ce0a	0.047559775
138	0x3c620c0d	0.013796818
139	0xbda9d903	-0.08293345
140	0x3d655210	0.055986464
141	0xbb955d78	-0.0045582615
142	0x3c2f3219	0.010693097
143	0x3daa566d	0.08317266
144	0x3d266a3f	0.040628668
145	0xbb9f3485	-0.0048585557
146	0xbdbfc82c	-0.09364352
147	0x3d157370	0.036487043
148	0xbd09c776	-0.033637486
149	0xbda54549	-0.08069856
150	0x3b6678e4	0.0035167271
151	0xbcd04bfb	-0.025426855
152	0xbc9117fd	-0.017711634
153	0x3d63e059	0.055633876
154	0xbd43bcb3	-0.04778738
155	0xbd75cd11	-0.06001002
156	0x3c198f2d	0.009372515
157	0x3cad41ae	0.021149483
158	0x3d655f96	0.05599936
159	0x3d2fb580	0.0428977
160	0xbab815a8	-0.001404454
161	0xbc94e6b0	-0.018176407
162	0xbd19166a	-0.03737489
163	0xbce794d8	-0.028269216
164	0xbd8b60b8	-0.06805557
165	0x3d67dc99	0.056606863
166	0x3bc9a55b	0.006153745
167	0x3d0b6d0c	0.034039542
168	0xbd80d66f	-0.062909
169	0x3d062055	0.032745678
170	0x3d85d471	0.065346606
171	0x3cd3649c	0.02580481
172	0xbd5beae2	-0.0536908
173	0x3c57e4a6	0.013177073
174	0xbc608379	-0.0137032205
175	0x3ccc7fb9	0.024963247
176	0x3d785c2f	0.060634788
177	0xbdbb2c89	-0.09139354
178	0xbd3cfef7	-0.04614159
179	0xbdb2a36e	-0.08722578
180	0xbd8376a8	-0.06419116
181	0xbdd6422c	-0.1046184
182	0xbdc8e5f1	-0.09809483
183	0x3d872a8b	0.06599911
184	0xbc57defb	-0.013175721
185	0x3d7f6f17	0.062361803
186	0x3ddd441d	0.10804007
187	0x3d61938e	0.05507236
188	0x3d673b14	0.056452826
189	0xbd69c7c4	-0.057075277
190	0x3d147ce0	0.036251903
191	0xbdce5727	-0.10075217
192	0x3d767345	0.060168523
193	0xbcbacf16	-0.022803824
194	0x3cac12a6	0.021004986
195	0xbddd25a8	-0.10798198
196	0x3bef7d99	0.0073086736
197	0x3cc90981	0.024540665
198	0xbdde3add	-0.10851071
199	0xbd6de2e4	-0.058077708
200	0x3d8e5369	0.06949503
201	0x3cdcea4a	0.026967186
202	0xbc2fca4e	-0.010729386
203	0xbd266112	-0.040619917
204	0xbd89c03e	-0.067261204
205	0x3da9a5a9	0.0828355
206	0xbd4010e4	-0.04689111
207	0xbcd6b3e1	-0.02620882
208	0xba908b58	-0.0011027856
209	0x3d930f62	0.071806684
210	0xbc41ccd2	-0.011828618
211	0x3d881193	0.06643977
212	0xbce3d8a7	-0.027813269
213	0x3d8fc5cb	0.07020148
214	0x3d06438c	0.03277926
215	0xbc962c76	-0.018331748
216	0xbd7bc68a	-0.06146864
217	0xbd84879a	-0.064711764
218	0x3d1133ab	0.035449665
219	0x3d6a952a	0.05727116
220	0xbc44d777	-0.012014261
221	0xbd35d4dc	-0.04439245
222	0x3d49e95c	0.049294814
223	0xbd2c6a9a	-0.04209385
224	0x3d73f94b	0.059563916
225	0x3cac80e1	0.021057548
226	0xbd3d6e54	-0.046247795
227	0x3d0cde02	0.03439141
228	0x3cdeb5f7	0.027186377
229	0x3daa4e07	0.08315664
230	0x3dc83436	0.097755834
231	0x3de7cadc	0.11317989
232	0xbcde8e12	-0.027167354
233	0x3c9893a3	0.018625086
234	0x3d27ecc8	0.040997297
235	0xbcafb814	-0.02145008
236	0x3d948b43	0.072531246
237	0xbdb79cc5	-0.08965448
238	0x3d7af53d	0.061269034
239	0xbb9fec83	-0.0048804893
240	0x3d00077b	0.031257134
241	0xbc97f952	-0.018551502
242	0x3ca7b6be	0.02047288
243	0x3d388a57	0.045053806
244	0x3d76e133	0.06027336
245	0xbd8e82d0	-0.06958544
246	0xbcc6aefd	-0.024253363
247	0x3d5781ff	0.05261421
248	0x3d90ee30	0.07076681
249	0x3ce3d4f0	0.027811497
250	0xbd243554	-0.04008992
251	0x3ca277a1	0.019832434
252	0x3cc11eae	0.0235742
253	0xbb979abf	-0.0046266015
254	0xbd51d5f3	-0.05122943
255	0xbc14c531	-0.009080217

conv2.3.bias f4 [32]
0	0xbd631351	-0.055438343
1	0x3bf88962	0.0075847367
2	0x3d6aadaf	0.057294544
3	0xbccce962	-0.02501363
4	0xbca6ae75	-0.02034686
5	0xbd530a26	-0.05152335
6	0xbc9114f0	-0.01771018
7	0xbcaf8d51	-0.02142969
8	0x3c4ebef1	0.012618766
9	0xbd933114	-0.07187095
10	0x3dea26a5	0.11433152
11	0x3d93bb65	0.07213477
12	0x3ddf817c	0.10913369
13	0x3cbbbd26	0.022917341
14	0xbcf63dfc	-0.030058853
15	0x3d6949dd	0.056955207
16	0x3bc1aca5	0.0059104734
17	0xbd845161	-0.06460834
18	0x3cff4cea	0.031164605
19	0x3c6256e0	0.013814658
20	0xbd0c0e3f	-0.034193274
21	0x3d8bf3ad	0.06833587
22	0x3c32f109	0.010921725
23	0xbbb2fd31	-0.0054623117
24	0x3d9303cd	0.07178459
25	0x3cfc287c	0.030781023
26	0xbc2e0c7c	-0.010623094
27	0x3d2ebb39	0.04265902
28	0xbccf8e89	-0.02533652
29	0x3da66720	0.08125138
30	0x3d090f79	0.03346202
31	0xbc84b074	-0.01619742

conv2.5.weight f4 [32]
0	0x3f78715b	0.97047967
1	0x3f809229	1.0044605
2	0x3f7dd5e5	0.991545
3	0x3f7d834e	0.9902848
4	0x3f833118	1.0249357
5	0x3f811eae	1.0087488
6	0x3f826503	1.0187076
7	0x3f79426a	0.97366965
8	0x3f815271	1.0103284
9	0x3f7ae3bc	0.98003745
10	0x3f812dc9	1.0092098
11	0x3f7fb59e	0.998865
12	0x3f815a0b	1.0105604
13	0x3f7d5b7b	0.98967713
14	0x3f8296e3	1.0202297
15	0x3f7c46da	0.9854561
16	0x3f7f68f2	0.9976951
17	0x3f72c7eb	0.948363
18	0x3f8b19bb	1.0867227
19	0x3f816c75	1.0111223
20	0x3f806bf4	1.0032945
21	0x3f7b6cfb	0.98213166
22	0x3f844ff5	1.0336901
23	0x3f790259	0.9726921
24	0x3f8251f4	1.018126
25	0x3f77fc64	0.9686949
26	0x3f827d9d	1.0194584
27	0x3f7cd15e	0.9875697
28	0x3f7fe138	0.9995303
29	0x3f774155	0.96584064
30	0x3f780337	0.96879905
31	0x3f7e65ea	0.9937426

conv2.5.bias f4 [32]
0	0x3d22500d	0.039627124
1	0xbcf613c2	-0.030038718
2	0x3d2697de	0.040672176
3	0x3d520ac7	0.05127981
4	0x3cb33c4b	0.021879336
5	0x3abb648f	0.0014296937
6	0x3c30e316	0.010796329
7	0x3cdd76b0	0.027034134
8	0xbc25cb00	-0.0101192
9	0xbc6ef2f8	-0.014584295
10	0x3cec3e11	0.02883819
11	0xbbdf7ca2	-0.0068202773
12	0x3b6ecbad	0.0036437318
13	0xbd08dbd1	-0.03341276
14	0xbcba8934	-0.022770502
15	0xbd51d0bd	-0.05122446
16	0xbab62617	-0.001389685
17	0x3c25d2e1	0.010121078
18	0x3ce66b88	0.028127447
19	0x3c81d9bd	0.015850896
20	0xbd1de402	-0.038547523
21	0x3ce61ba8	0.02808936
22	0xbd478ccf	-0.04871827
23	0x3c757202	0.014980795
24	0xbc8e8654	-0.017398037
25	0x3cebd9e5	0.028790424
26	0x3ce99376	0.028512698
27	0xbc98c13c	-0.018646829
28	0xbd11740c	-0.03551106
29	0xbca24053	-0.019806063
30	0xbce315cc	-0.027720354
31	0xbc27df3e	-0.010246096

conv2.5.running_mean f4 [32]
0	0x3e8679c0	0.26264763
1	0x3ea37793	0.31927165
2	0x3e96f77c	0.2948569
3	0x3ea34eca	0.3189605
4	0x3e806ab7	0.25081417
5	0x3e991dee	0.29905647
6	0x3e59f036	0.2128304
7	0x3e882c55	0.26596323
8	0x3e7b90b9	0.24566926
9	0x3ea1a33e	0.31569856
10	0x3ed96ffd	0.42468253
11	0x3eb91c10	0.36154222
12	0x3ebeec89	0.37289837
13	0x3ed4a9a1	0.41535667
14	0x3e9f1a29	0.31074646
15	0x3e9cda71	0.30635408
16	0x3e9eaf3d	0.3099307
17	0x3e36f5dd	0.17867227
18	0x3e73bb14	0.23801833
19	0x3e883feb	0.26611266
20	0x3e944c37	0.28964397
21	0x3e9edffd	0.31030264
22	0x3e7f382e	0.24923775
23	0x3e95e663	0.29277334
24	0x3e8db634	0.27678072
25	0x3e666d73	0.22502689
26	0x3e737d68	0.23778307
27	0x3e9da8f2	0.30792958
28	0x3e9707d7	0.2949817
29	0x3edb3008	0.42810082
30	0x3e854220	0.26027012
31	0x3ea1c787	0.3159754

conv2.5.running_var f4 [32]
0	0x3e7650b0	0.24054217
1	0x3e7a9e46	0.24474439
2	0x3e572ac1	0.21012403
3	0x3e9d436a	0.30715495
4	0x3e2c1e6b	0.16808479
5	0x3e885d45	0.2663366
6	0x3e3872fe	0.18012616
7	0x3e316913	0.17325239
8	0x3e36eb1d	0.17863126
9	0x3ea8990a	0.3292926
10	0x3ee94f27	0.455682
11	0x3e9373fa	0.2879942
12	0x3e81159b	0.25211796
13	0x3e851d41	0.2599888
14	0x3e6405d5	0.2226785
15	0x3e3877f7	0.18014513
16	0x3e31cf71	0.17364289
17	0x3e2e3b20	0.17014742
18	0x3ea2e1c0	0.3181286
19	0x3e8fbfe1	0.2807608
20	0x3e0a771a	0.13521996
21	0x3e52bf92	0.20580891
22	0x3e6564a1	0.22401668
23	0x3e575fd6	0.21032652
24	0x3ea0475b	0.3130444
25	0x3e045e96	0.12926707
26	0x3e4499e5	0.19199331
27	0x3e25700d	0.16156025
28	0x3e781f49	0.24230684
29	0x3eec359b	0.46134648
30	0x3e2049ac	0.15653104
31	0x3eaf1dac	0.34202325
