trained_models/CNN_LSTM/CNN_LSTM_Zscore_CF3_pred_4.pth (torch, 615091 bytes, 90 tensors)

conv1.0.weight f4 [32, 1, 1, 2]
00000000: 525d 39be e07b d33d b45a c03e 2de1 e9be
00000010: f404 ebbe 9d62 313f d18c 193e 29ff 103f
00000020: b86b 09bf 1d30 04bf 6260 133e fc31 27be
00000030: eb71 08bf 052c dcbe bfac 343f 93e4 3a3c
00000040: 2b59 0dbf 4c15 e43e b6ec 003f df3d 403e
00000050: 946f 283f d5c4 be3e eded d7be 0e58 1d3e
00000060: 9d97 31bd d730 ccbe d15d 193f ce0d a8bd
00000070: fa42 b0bd f1cd 9cbe d0e5 24bf 21fd 1b3f
00000080: 6d26 43bd 749e d4bd e6cc cbbd b785 d63e
00000090: 4391 b03d 7043 36bf 0f44 21be e62e 04bf
000000a0: 4fdf b03e fa60 04bf 62db 0a3e 954b 013d
000000b0: 9b28 f6be 705b 843e 0dfa eebe 591b a7be
000000c0: 1e16 093f 7037 1e3f 8a92 ad3c 173e 8bbe
000000d0: fa48 0abf f1c9 bd3e 0a35 d7bc b2bb 61be
000000e0: d961 ab38 69d5 ea3e e2a3 ebbe eaae 713e
000000f0: 186d 20bf 5099 023f a222 63be 8e8a f6be
-0.18102005 0.10326362 0.375692 -0.45679608 -0.45902216 0.69291097 0.14995123 0.56639344
-0.5367999 -0.51635915 0.14392236 -0.16327661 -0.53298825 -0.43002334 0.7057609 0.011407035
-0.55214185 0.44547498 0.5036119 0.18773602 0.65795255 0.37259546 -0.4217371 0.15365621
-0.04335748 -0.39881012 0.5990878 -0.08205758 -0.08606525 -0.3062587 -0.64413166 0.6093312
-0.047644068 -0.10381785 -0.09951191 0.4189889 0.086214565 -0.7119665 -0.15748619 -0.5163406
0.3454537 -0.51710474 0.1356025 0.03156622 -0.48077855 0.2585101 -0.4667515 -0.32638052
0.53549373 0.6180334 0.02118804 -0.27195808 -0.54017603 0.37068132 -0.026270408 -0.22044256
8.172141e-05 0.45865944 -0.4602347 0.2360188 -0.62666464 0.51015186 -0.2218118 -0.48152584

conv1.0.bias f4 [32]
00000000: c279 1bbe 623d 2abf cff5 9b3e 2556 0fbf
00000010: 061c 0f3e 9c80 2e3f 0995 fabe e86b 083f
00000020: ff31 e1bd e822 83bd a5b6 a93e 6779 71be
00000030: 2e7c d2be f324 8e3e 6682 603e 1ea5 1a3d
00000040: f420 693e 3c79 13bf 4faf 0dbe 1236 1c3f
00000050: e539 d0be bf86 16bf e3d3 e23e ba1d 08bf
00000060: b004 993e 839c c3bd 0749 dfbe 8dd4 66be
00000070: fb29 c1bd bb90 a93e c0bc eb3e 5ee5 2fbf
-0.15183166 -0.6649991 0.30460975 -0.5599082 0.13975534 0.6816499 -0.4894183 0.5328965
-0.10995864 -0.06403142 0.3314716 -0.23581468 -0.41110367 0.27762565 0.21924743 0.037755124
0.22766477 -0.57606864 -0.13836406 0.61020005 -0.4066917 -0.58799356 0.44302282 -0.5317036
0.2988639 -0.095513366 -0.43610403 -0.22542019 -0.09431835 0.33118233 0.46042442 -0.6870936

conv1.2.weight f4 [32]
00000000: a6d4 803f 4721 823f d700 7f3f f5c9 803f
00000010: 8d1c 7f3f 528d 6d3f 2180 7f3f e700 713f
00000020: 7e84 7e3f 4326 753f 9366 6d3f c7b6 7a3f
00000030: 1a83 8a3f 8e55 693f eefb 843f cf6f 7a3f
00000040: 2e68 813f e248 823f d1d2 7e3f 3edf 883f
00000050: 2819 7c3f 68b8 763f 0807 763f 456b 823f
00000060: 73cc 803f ed9e 7e3f 7f6f 823f cda5 893f
00000070: a452 7b3f 39fa 713f 7bfd 793f 1e43 8c3f
1.0064895 1.0166405 0.99610656 1.0061632 0.9965294 0.9279376 0.99804884 0.94142
0.9942092 0.9576151 0.9273464 0.97935146 1.0821259 0.9114617 1.0389383 0.97826856
1.0109918 1.0178492 0.9954043 1.0693128 0.98475885 0.9637513 0.9610448 1.0188986
1.0062393 0.9946125 1.0190276 1.0753723 0.98172975 0.94522434 0.97652406 1.0957983

conv1.2.bias f4 [32]
00000000: 8196 0c3d edc9 f2bd 3d1f b63c e816 e33b
00000010: 70c8 74bb 43cf 74bb aeb5 d83c 632a 113c
00000020: 363d 0dbc e6cf 7dbb 06bb 75bc b49c 063a
00000030: b943 d5bd 8158 ebbc d6f5 00be e2c1 133c
00000040: f7a5 e8bb 6375 a13b 1a20 38be 7cbf 0ebe
00000050: fdda c2bd c4ad 3fbc ed4d ecbb e3a2 0abc
00000060: 9139 96bc 8988 efbd 7076 113c 90d7 adbd
00000070: a9df 583c 6afe 093c 7b71 7db9 a87c d6bc
0.03432322 -0.118549205 0.022231692 0.006930221 -0.0037350915 -0.0037354983 0.02645382 0.008860203
-0.008620551 -0.0038728653 -0.014998203 0.0005135045 -0.10413308 -0.028728725 -0.12593779 0.009018393
-0.0070998627 0.0049273237 -0.17980996 -0.13940233 -0.09514425 -0.011699144 -0.007211438 -0.008461687
-0.018337997 -0.11695964 0.008878335 -0.08488381 0.0132369185 0.008422473 -0.00024170235 -0.026182488

conv1.2.running_mean f4 [32]
00000000: 4167 193d 1896 4a3c 0310 0d3f a8b7 5d3d
00000010: e88a 923e e46d 2f3f 8c61 0a3d fa46 1b3f
00000020: ad74 a13e ad20 2f3e b94f e53e 6429 ef3d
00000030: bbb1 86bb d2c6 e03e 570b 853e 9349 f43e
00000040: 9441 6d3e 5349 273d 7735 293e 32f1 273f
00000050: 798e ce3d 9b9a c0bb f057 0a3f 9583 db3b
00000060: a825 cc3e 56d0 143d 381c 0b3e ced3 13bb
00000070: ab00 f43d a20d ea3e aac6 2b3f 8ced e0bb
0.037451986 0.012364887 0.55102557 0.054130226 0.28621602 0.68527055 0.033784434 0.60655177
0.3153433 0.17102309 0.44787386 0.116778165 -0.0041105426 0.43901688 0.25985214 0.47712383
0.23169547 0.04084141 0.16524301 0.6560241 0.10085768 -0.0058778054 0.5404043 0.0066990354
0.3987248 0.036331497 0.13584983 -0.0022556665 0.1191419 0.45713526 0.6710001 -0.0068642553

conv1.2.running_var f4 [32]
00000000: b556 0e3c fd65 163b c7aa 203f 1360 da3d
00000010: 0832 f13d 4701 773d b9cc 053c e242 c93e
00000020: 5fae 783e b0f7 4a3d efa8 523e 282a 083d
00000030: 1c7f 7237 6c89 6f3e 4071 a03c 1322 fa3e
00000040: 32c0 9f3b 8091 7b3d 5a53 143d 9c23 a23d
00000050: 7ae6 b93c 54aa 3736 f370 963e dce9 be3a
00000060: 8a6c 7d3e 2cce 2a3b 9fdc e43d 28eb 9236
00000070: 31bf 063e acd6 693e e96a 193f ac73 9837
0.008687665 0.0022948973 0.62760586 0.10662856 0.11777121 0.060303953 0.0081664855 0.3930884
0.24285267 0.04955262 0.20572256 0.03324333 1.4453919e-05 0.23392266 0.019585252 0.48854122
0.0048752064 0.061418056 0.036212303 0.07916948 0.022692908 2.736827e-06 0.29383048 0.0014565545
0.24748436 0.002606283 0.11174893 4.378515e-06 0.13158871 0.22835797 0.59928757 1.8173676e-05

conv1.4.weight f4 [32, 32, 4, 1]
00000000: a049 18bd 5172 89bd 42ab 3dbd c399 9d3d
00000010: f30e c83c 3eb4 f3bb 5029 2c3d 5c95 303d
00000020: a65f 49bd bb6d e5bc 0a9c 22bd c6c1 3abd
00000030: 4394 88bd 6aba 073d 4af3 0c3c 63bf 81bd
00000040: ed5b 793d 6802 733c 7592 1a3c 4cb4 2cbd
00000050: 294d 983c a4cd 9bbc 7062 7ebd 1fb7 1fbd
00000060: 6763 41bd 7a76 8e3d 862c 673d 0784 313d
00000070: 4d8f a3bc 601c 8cbd 565a 02bd 9e8f a1bd
00000080: 821e 48bd 5bcb 863c 8d51 663d b9c3 003d
00000090: f200 96bd eb5a adba 4ed1 18bc 6e3e bdbd
000000a0: 4d66 0ebd 2508 083d c827 b5bd a052 503d
000000b0: 3b1a 333c b1ce 02bc 5217 22bd 6672 2abd
000000c0: 547d 3a3d 8c14 d13d 3086 38bc 0ba4 abbb
000000d0: 8a3b 20bd 5840 68bc 4fe9 90bd ee29 153d
000000e0: fc03 953d 3016 0ebd 69c1 943b 1806 81bd
000000f0: 1e54 b5bd f6a1 593d e43c 9f3d 9095 8abd
00000100: f776 6a3d 7e95 aebb 8657 b5bc 8629 803d
00000110: 42d2 2a3c 623e 4a3c abfd 193d e2b5 86bb
00000120: aca5 603d de88 46bb c58c 8ebc 1a4c 923c
00000130: 9e44 b63d 056a 943d 21e5 e8bc ac98 9c3d
00000140: 0ec0 96bd 2f20 713d a643 91bd f286 da3b
00000150: 97a4 88bd 0ded dabc 0774 2a3d 5dc1 2d3b
00000160: d067 853d 43df a5bc e965 ff3c df61 5c3d
00000170: bfbc a93d 367f 943d 93c6 e23c 65f1 593d
00000180: 5eb9 0c3c c72d 803d 07c9 83bd 08ba 8c3d
00000190: a199 463c 3521 45bd 9775 323d 36a5 8e3c
000001a0: db21 c4bc 6eff 81bd 04c3 5c3c 10b5 0a3d
000001b0: f3b3 c0bc 9040 313d 4f58 73bd 06d6 0cbd
000001c0: 6691 9fbd bd97 2bbd 66ac 50bd 214e 5a3d
000001d0: 0b32 7abd 92d6 67bd 126e 983d 63e9 08bd
000001e0: 7b06 8abd 007b 16bd 3a94 983d afd5 193d
000001f0: 245a c8bb 3e40 8b3d 3d36 83bd 659c 013d
00000200: afab 5dbc ba9a cabb 76dc 52bd f0b0 853d
00000210: 3d9d a93d 476b 733d e191 c6bb c4ff 06bc
00000220: b1e5 4c3a 0f91 1b3d c2fd d63c 13c0 143d
00000230: 290d 0d3d 2590 5dbd b130 c43c 720d b3bd
00000240: b746 e73d 4d3b d53b 04e8 88bb 11b9 6f3d
00000250: 33df b1bc f10c 5ebc 0658 b0bc 1f98 203d
00000260: 5607 cebc b901 723d a89a b23d 9d21 563d
00000270: 3231 96bd 1a2d 21bd 496c 80bc 56a3 74bd
00000280: df24 e53c 0240 0f3d 11a3 4ebc 47e0 8c3d
00000290: 2264 38bd bc1c 4c3d 49bd d7bc 8849 dbbc
000002a0: 20b7 f9bc 7fa4 ee3c a30e 9fbd da89 773d
000002b0: 67e8 a9bc 40b2 7a3d 408a 103c 2417 273d
000002c0: 6576 243c 60b2 383d 32e3 703d eb66 63bd
000002d0: c28f 48bd 8865 9fbc 532c 9bbd 56f4 173d
000002e0: c37e e23c c4ae 1c3c 3cb9 c3bb 09c9 3d3d
000002f0: 315d a13d 7343 febc c125 7b3d c2ea 8fbd
00000300: 2e98 303c 04dd 5b3d abab c93b bb62 ca3d
00000310: 313e 4dbd 9df0 bfbd c5b4 36bd 607c 89bd
00000320: 1fa6 f93c 0089 19bd d4b1 c7bc 0881 a33d
00000330: 2462 2a3c 7da1 0fbd d218 9d3d a91c ad3c
00000340: 3569 ab3d eefb 853d 4c3f 7abd 5903 7e3d
00000350: f323 d0bc f764 93bd 6e89 52bd 2d22 cebd
00000360: 92e3 96bc 1170 aa3d 83fe a63d 921f 803d
00000370: 4161 9d3d b6a8 4d3d 1237 1fbd d429 b93d
00000380: 829e 0f3d 127b 98bd 47ea 66bd 4f57 96bc
00000390: e76f 25bd bd58 a33c cc7e aabb 5793 413d
000003a0: 4887 6fbd 5ad3 97ba 6a13 1fbd a46d d4bc
000003b0: 602b ef3a 27ad ea3c eedd de3b 9de7 2bbd
000003c0: b8b0 81bd c546 f83c 3f81 29bd f555 2d3d
000003d0: 1ee6 293d a2b4 96bd a67c 1bbc 4b7d 903d
000003e0: d018 ffbb 5c1b 0bbd 7f07 953d 20a3 923d
000003f0: 5282 e33d 3633 3abd 87ed ce3d 0a4d 183d
-0.03717959 -0.06711257 -0.046305902 0.07695343 0.02442119 -0.007437258 0.042031586 0.04311119
-0.049163483 -0.028006425 -0.03969959 -0.045594953 -0.06668904 0.033136763 0.0086029265 -0.06335332
0.060878683 0.014832117 0.009434332 -0.042164132 0.01859148 -0.019018956 -0.062105596 -0.038992997
-0.047213938 0.06956191 0.056438945 0.0433388 -0.019965792 -0.068413496 -0.031824432 -0.07888721
-0.04885722 0.01645439 0.056230117 0.031436656 -0.07324399 -0.0013225948 -0.009327246 -0.09240423
-0.03476553 0.033210892 -0.08845478 0.050860047 0.010931547 -0.007983849 -0.03957302 -0.041613005
0.04552968 0.10208997 -0.011262462 -0.0052380613 -0.03911928 -0.014175497 -0.0707575 0.03641694
0.072761506 -0.03468913 0.004539658 -0.062999904 -0.08853935 0.053132974 0.07775286 -0.06766808
0.05724236 -0.0053278795 -0.022136461 0.0625792 0.010426106 0.012343975 0.037595432 -0.0041110376
0.054845497 -0.0030293982 -0.017401109 0.017858554 0.088998064 0.07246784 -0.02842957 0.07646307
-0.0736085 0.058868583 -0.07092981 0.0066689188 -0.06672018 -0.026724363 0.04161456 0.0026512959
0.06513941 -0.020248061 0.031176524 0.053804275 0.082879536 0.07250826 0.027682578 0.053208727
0.008589117 0.06258731 -0.06434827 0.0687142 0.012121589 -0.04812737 0.043569174 0.017412763
-0.023941925 -0.063475475 0.01347423 0.03386408 -0.023523306 0.043274462 -0.05941039 -0.034383796
-0.077914044 -0.041892756 -0.050945662 0.053297166 -0.06108288 -0.056601115 0.07442869 -0.0334257
-0.06739517 -0.036738396 0.07450147 0.0375573 -0.006114261 0.067993626 -0.064068295 0.03164329
-0.013529702 -0.0061829956 -0.05147978 0.06527889 0.08281944 0.05942848 -0.0060598706 -0.00823969
0.0007816209 0.037980136 0.026244048 0.03631599 0.03443638 -0.054092545 0.023949 -0.08742799
0.11292785 0.0065073133 -0.004178049 0.058526102 -0.021712875 -0.01355289 -0.021526348 0.039207574
-0.025149982 0.059083674 0.087209046 0.05227815 -0.07333602 -0.039349653 -0.015676634 -0.05972608
0.027971683 0.034973152 -0.01261212 0.06878715 -0.04501737 0.04983209 -0.026335375 -0.02676846
-0.030482829 0.029131172 -0.077664636 0.0604342 -0.0207407 0.06120515 0.008822024 0.040793553
0.010037993 0.045091987 0.05881042 -0.055518072 -0.048965223 -0.019457594 -0.075768135 0.03709825
0.027648335 0.009563152 -0.0059730094 0.0463343 0.07879103 -0.031038022 0.0613153 -0.070271984
0.01077847 0.053677574 0.0061544976 0.098821126 -0.05010814 -0.09372065 -0.04460599 -0.06713176
0.03047472 -0.03748417 -0.024376787 0.07983595 0.010399375 -0.035066117 0.0767075 0.02113183
0.08369676 0.065421924 -0.06109552 0.06201491 -0.025407767 -0.07196992 -0.051400594 -0.10065112
-0.01841906 0.08322156 0.08154013 0.062560216 0.07684565 0.050209723 -0.03887088 0.09041181
0.035063274 -0.07445349 -0.056375768 -0.018352179 -0.04038992 0.019939775 -0.0052031036 0.047259655
-0.058478624 -0.0011583373 -0.038836874 -0.025931187 0.001824718 0.028647019 0.0068013584 -0.04196893
-0.063325346 0.030307183 -0.041383024 0.042318303 0.041479222 -0.07358672 -0.009490168 0.07055148
-0.0077849403 -0.03396164 0.072768204 0.0716002 0.11108841 -0.045458995 0.101038985 0.037182845

conv1.4.bias f4 [32]
00000000: ba94 6abd 92ee 353d cdfb 343d 0a8b 1fbd
00000010: 215d 5e3c e0f4 cb3d 6831 e13c 7d13 7c3d
00000020: 6d93 343d 9fa2 9a3b 85e4 613c 4b99 2c3e
00000030: 6337 65bc 213f 703d 185b 933d 7cfc 5fbc
00000040: c6ac db3c df39 5abd 79bc 963d 5976 5ebd
00000050: a26c e3bb e476 7d3b fddf 46bd 86e5 aa3d
00000060: cae9 8a3d 20d8 613d bc0c cb3c 1995 0cbd
00000070: 7a65 58bd 97d2 353d aaa7 cabc d9fc 823d
-0.057270743 0.04441697 0.04418545 -0.038950957 0.013572008 0.099588156 0.027489379 0.061542023
0.04408591 0.004719093 0.013787393 0.16855352 -0.013990256 0.058653954 0.07195109 -0.013671037
0.026815783 -0.053277846 0.07360167 -0.054312084 -0.0069404403 0.00386756 -0.048553456 0.08344559
0.06782873 0.055137753 0.024786346 -0.034321878 -0.05283115 0.044390287 -0.024738152 0.06395883

conv1.6.weight f4 [32]
00000000: 1b1c 793f 43ad 803f c583 763f 177c 7d3f
00000010: 8a42 793f 253f 7f3f b12f 7e3f 2d52 803f
00000020: c84d 723f c28a 7d3f 2667 803f a47e 763f
00000030: 885d 823f 4bf8 743f 7480 873f 54a1 7c3f
00000040: c14f 823f 942e 7b3f c382 893f 299c 7f3f
00000050: c873 853f b462 763f 7c2b 813f e14e 803f
00000060: 0886 803f a387 7a3f 97ae 803f 9edd 843f
00000070: 3b41 813f 441f 803f e2ad 7f3f 57ec 783f
0.9730851 1.0052875 0.96294814 0.9901747 0.97367156 0.99705726 0.9929152 1.0025078
0.94649935 0.9903985 1.0031478 0.9628699 1.0184793 0.95691365 1.0586076 0.9868367
1.0180589 0.9811795 1.074303 0.99847656 1.0425959 0.9624436 1.0091395 1.0024072
1.0040903 0.97863215 1.005328 1.0380132 1.0098032 1.0009542 0.998747 0.97235626

conv1.6.bias f4 [32]
00000000: 5939 15bd 8e06 55bc 9552 44bc e84f 69bc
00000010: 92cf 183d 81df f5bc 32ec 17bc f83e b1bb
00000020: 585b 113d aff0 ea3b 0be4 1a3b 0acb 3dbd
00000030: 4003 413d f986 c23c 03ba bf3c c558 373d
00000040: bd39 353c 7e84 3dbd 2e0b a63c e7f6 04bc
00000050: adb1 a0bc d136 ce3b 0462 2cbd 8308 743c
00000060: e3b1 773c cb67 73bd 593d 93bc ed77 a7bc
00000070: dd8e 06bd 1b5d 14bd 1d69 8ebc d4d0 1d3d
-0.036431644 -0.013002051 -0.01198258 -0.014240243 0.03730733 -0.030013802 -0.009272622 -0.005409118
0.035487503 0.007169805 0.002363446 -0.04633621 0.04712224 0.023746 0.023404127 0.04476239
0.011061129 -0.046268933 0.020269003 -0.008115507 -0.019615972 0.0062931557 -0.042085662 0.0148946075
0.015118095 -0.059425157 -0.017973589 -0.020442927 -0.03285109 -0.036221605 -0.017384106 0.038529232

conv1.6.running_mean f4 [32]
00000000: c3d9 a63e 5acb fe3e 6420 493e c613 f03e
00000010: cd53 963e 7914 e43e aa37 143f 76e9 d33e
00000020: d5c6 ec3e 83fc 023f b0d3 583f d70f 323f
00000030: 90ce df3e 5bf8 803e 381d bd3e 1949 4d3e
00000040: 8523 263f 2f26 753e 3370 113f e311 eb3e
00000050: 4788 b33e 9291 a83e 1e9c fd3e 66a7 f13e
00000060: 80ad 383f 1cba ca3e d50d e43e 03ee e53e
00000070: 8aa8 8c3e 6146 aa3e 7439 ed3e 343f d93e
0.32588014 0.4976452 0.19641262 0.46890086 0.2936081 0.4454687 0.57897437 0.41389054
0.46245447 0.5116655 0.8469801 0.6955542 0.43712282 0.2518948 0.36936355 0.20047416
0.6489795 0.23940347 0.5681183 0.45912084 0.3506491 0.3292356 0.4953317 0.47198027
0.7213974 0.39595115 0.44541803 0.4490815 0.27472335 0.3325682 0.46332896 0.42431033

conv1.6.running_var f4 [32]
00000000: e9eb b93e ad65 253f f9e8 7a3e 0435 803f
00000010: 1335 aa3e bdcd 733e 3b86 043f 8ce3 6e3e
00000020: f03c 8d3e 02b6 bd3e 70f4 f23f 35e1 993e
00000030: 8386 eb3e 5e65 4a3f 1884 9b3e d987 c53e
00000040: 0093 fc3f 2bee 0d3e bd7e 093f 3a7d a03e
00000050: a71a e83e ce91 9f3e 0951 d23f 1557 bb3e
00000060: 72f8 363f 2a21 903e 15d2 7b3f b503 c03e
00000070: b24e 9e3e e113 243f ea36 c63f 376e c83f
0.36312798 0.6460827 0.24502935 1.0016179 0.33243617 0.23808952 0.5176732 0.2332899
0.27585554 0.37052923 1.8980846 0.30054632 0.46001062 0.79060924 0.30374217 0.38580206
1.9732361 0.13860385 0.5370901 0.3134554 0.45332834 0.31165928 1.643098 0.36589876
0.7147285 0.28150302 0.98367435 0.37502828 0.30919415 0.6409283 1.5485508 1.5658635

conv1.7.weight f4 [32, 32, 4, 1]
00000000: 8fe3 083d b244 ad3c 7004 10bd d88b 703b
00000010: 17cf 89bb 90d4 d7bc 6e81 643c 17a2 62bd
00000020: efa7 cebc 661b 093c 9c66 f63b 8863 b73d
00000030: 8950 babd 6979 a4bd 4659 9b3d 6090 03bd
00000040: ec37 f13c 6655 fabc 6887 043d f4cd 11ba
00000050: abee c8bc b3f9 733d 9415 83bd c19c 7e3d
00000060: 838c 983d 478d a93c 2e9d 573c be8f ffbc
00000070: 5e7d c5bb 0a41 8f3d 0d20 a0bd 96f2 d6bc
00000080: e5c2 c8bc 060d 1fbd 2292 473d 17cd a3bd
00000090: e8d9 143d 360c 7cbd a01b f43c ad73 1c3b
000000a0: 6d08 a4bd c4d9 33bd 6293 193d 6315 b9bd
000000b0: c428 373d 47f3 90bd 7c41 26bd c01d acbc
000000c0: dcb2 28bd 6983 37bb 0095 42bd 3ac4 073c
000000d0: e57f a1bc 8b2a 8abd 29c0 8ebc b843 4fbc
000000e0: c0c1 883d 5240 58bd e48b 8a3d 5ad0 82bc
000000f0: cd1a 88bd 685b 23bd b667 21bc 9e47 853d
00000100: c0ab 02bd 93b8 6cbd 70be 853d a3a1 f33c
00000110: 42dc b03c 5b13 87bc edea 253d 7ee4 ea3c
00000120: b03b 403d b022 e7bb 2fb0 c33b 2c43 34bc
00000130: 4b56 193d 0ef7 043c 7c40 933b ad09 67bd
00000140: 93b5 79bd 7ee7 9dbd 1caf e73c 3a0b eb3d
00000150: 3b7e 313c 7d33 71bd 648c 163d 2c7b 10bd
00000160: c286 2fbd 7b20 f23c b8c5 6cbd 6b6b 873d
00000170: 4cd4 28bd eadf ffbc dfd0 1e3d 8674 8aba
00000180: e389 67bc ea79 073d 6467 3f3d 9517 a1bd
00000190: 39ef 65bd 44fd 6abd de7e 25bd 21c1 d03d
000001a0: a271 bcbd 0dd7 6cbd 0360 9a3d c455 ce3d
000001b0: 46f4 6d3d ede4 45bd a02e 623d 3e6d a03d
000001c0: 4eea bdbc 1c1d 3b3d 1ec7 57bd 3ca3 6f3d
000001d0: 1d38 5c3b 8e56 98bd 8267 743d f094 4e3d
000001e0: 26d6 863c 6104 6fbd ca73 743d 7c01 993d
000001f0: 85bc 5c3b 4153 bdbd 1ed1 df3c e196 af3d
00000200: c1ca 92bd a1e2 7b3d 64f2 73bc ff8a 303d
00000210: 555a a83c a5a3 a63d 0201 673d e303 9f3d
00000220: 4c26 963c fb4b 183d 397e 4fbd 0268 5b3d
00000230: 6d85 913d 8044 96bd 1e99 8a3d 76ea 8abd
00000240: 8d8c f13c fc00 113c 4fa8 de3c 38c5 633b
00000250: 196a 4d3d c0f4 8fbd b54d b53d cc8b cfba
00000260: d0ef 94bd 48e9 19bd a6dd 0ebd 65bb a13c
00000270: 78ab 8c3d 894c 823d a7eb c6bb 2543 59bd
00000280: 3a0a 24bd 31ad 7cbd 9ab7 28bd b35d 08bd
00000290: 5c56 2bbd 53b4 bebd 4070 023d 3331 b7bd
000002a0: 5e4d 82bd 5ef9 a03d 0492 5abd 0dda 70bd
000002b0: 54d4 223d 06c1 84ba dbde 89bb 633d f0bc
000002c0: 7213 38bd 3093 523d 1c63 bd3d 1b58 83bd
000002d0: 1ef6 953c f8d3 86bd af31 c0bd 44e6 f1bc
000002e0: 06c2 f7bc 3684 2d3d 3c4d 913d 28a6 183c
000002f0: 801b e7bd ba62 90bd d469 8dbc 9ebb 84bd
00000300: de9f c6bd f70b 66bd c8fc 42bd 3a9e 633c
00000310: ce70 8b3d 5015 74bd d50d 1bbd 315c 1dbd
00000320: e4a4 9d3d a9a2 81bd 344c 70bd 8db0 91bd
00000330: 9faf 4c3c 3a93 45bd 0655 983c 2d1d af3d
00000340: a4b6 66bb b423 4dbd 4210 643b c00f 7abc
00000350: baae 09bd a606 8ebc 4c6e f3bc a081 2f3c
00000360: 395a c9bc af82 96bd 6202 91bd 129c 76bd
00000370: 7f83 c1bd 071b 99bd 41a0 19bd d6ae b9bd
00000380: 6456 7d3d 4727 22bd 6c3a c1bd a0cd 0bbd
00000390: 2c21 a9bd 3d61 a7bc 646b 0cbc 3fa6 083d
000003a0: 8f6b 993c 0aa8 6dbd 1d1f 793c 1e15 2ebd
000003b0: 48fb f2bc 21ad 4dbd 8e36 00be c2b4 febd
000003c0: 42b3 993d f0c2 643d 9724 2e3d ab99 9c3c
000003d0: 9037 343d c1fa f2bc 31a8 993d 2fde 9bbd
000003e0: 5e87 18bd c8e6 49bd 65e6 33bc cb57 823b
000003f0: 0fa8 133d b686 593d b168 c43b 7971 0bbd
0.03342014 0.02115092 -0.035160482 0.0036704447 -0.0042055952 -0.026346475 0.013946874 -0.055330362
-0.025226561 0.008368349 0.007519556 0.08954531 -0.09097392 -0.0803097 0.07585387 -0.03212011
0.029445611 -0.0305583 0.032355696 -0.00055620004 -0.024527868 0.059564304 -0.064006 0.06216121
0.074486755 0.02069725 0.013160033 -0.031196471 -0.006026908 0.06994827 -0.07818613 -0.02623872
-0.024506995 -0.03883078 0.048723347 -0.07998102 0.036340624 -0.061535083 0.029798329 0.002387266
-0.080094196 -0.04390885 0.03749407 -0.09037282 0.04471661 -0.070776515 -0.040589795 -0.02101028
-0.0411862 -0.002800191 -0.04750538 0.00828653 -0.019714305 -0.06746396 -0.017425613 -0.012650423
0.0667758 -0.052795716 0.06764963 -0.01596849 -0.06645737 -0.039882094 -0.009851387 0.065078005
-0.031902075 -0.05779321 0.06530464 0.02974016 0.021589402 -0.016488722 0.040507246 0.028673407
0.046931922 -0.0070536956 0.0059719305 -0.011002343 0.03743581 0.008115543 0.004493771 -0.056405712
-0.06096418 -0.07710169 0.02828174 0.11476751 0.010833318 -0.058886994 0.03675498 -0.035273716
-0.042853124 0.029556504 -0.057805747 0.06612285 -0.041218087 -0.0312347 0.038773414 -0.0010563291
-0.014131996 0.03307525 0.04672946 -0.07865826 -0.056136344 -0.05737044 -0.040404193 0.101930864
-0.09201361 -0.057822276 0.07537844 0.10074952 0.058094285 -0.048314024 0.055220246 0.07833336
-0.023183014 0.045682058 -0.052680127 0.05850528 0.0033602782 -0.07438384 0.059669025 0.050435007
0.016459536 -0.058353785 0.059680738 0.07470986 0.0033681702 -0.09244395 0.027321395 0.085737
-0.071675785 0.061495427 -0.014889333 0.043101307 0.020550886 0.081366815 0.056397445 0.07764413
0.018328808 0.037181836 -0.050657485 0.053565986 0.07105527 -0.07337284 0.06767486 -0.06783001
0.029485965 0.008850332 0.027179865 0.0034755003 0.05015001 -0.07029104 0.08852712 -0.0015834509
-0.07272303 -0.03757599 -0.03487935 0.019742677 0.068686426 0.06362254 -0.0060705724 -0.05304255
-0.040048815 -0.061688606 -0.04119072 -0.033292484 -0.041830406 -0.09311738 0.03184533 -0.08944931
-0.06362413 0.07860063 -0.053361908 -0.0588017 0.039753273 -0.0010128326 -0.0042074746 -0.029326146
-0.04494042 0.0514099 0.09247419 -0.06413289 0.018305834 -0.065833986 -0.093844764 -0.029528745
-0.030243885 0.042362414 0.070948094 0.0093169585 -0.11284542 -0.070500806 -0.017262377 -0.06481098
-0.09698461 -0.056163754 -0.047604352 0.013892705 0.06808625 -0.059590638 -0.037854988 -0.038418
0.07697466 -0.06329853 -0.058666423 -0.071137525 0.012493043 -0.04823611 0.01859523 0.08550487
-0.0035204077 -0.050082877 0.003479973 -0.015262544 -0.033613898 -0.017337155 -0.02971568 0.010712057
-0.024579154 -0.07349145 -0.070805326 -0.060207434 -0.09448909 -0.07475858 -0.037506346 -0.090665504
0.061849967 -0.03958824 -0.09434971 -0.034131646 -0.0825828 -0.020432109 -0.008570526 0.03336167
0.018728046 -0.058021583 0.015205172 -0.042500608 -0.029660836 -0.050213937 -0.12520811 -0.124368206
0.07504894 0.05584997 0.042515364 0.019116243 0.0439983 -0.029660584 0.07502783 -0.076107375
-0.03723847 -0.049292356 -0.010980223 0.003977751 0.036048945 0.053106986 0.0059939255 -0.034043763

conv1.7.bias f4 [32]
00000000: 97f8 353c 62a8 093d 1098 c53d c235 983d
00000010: 4045 a1bb d8cd 7f3d 75ba 68bd 4e6d 1c3d
00000020: bf04 1ebc 6fd7 51bc 7048 0b3c 3bbb 093d
00000030: 5b4b 163d bade 263d 1901 033d 60d9 9c3d
00000040: 055f 953d 9164 a83d 78e1 00bd c2e7 843d
00000050: 8a42 a1bb 064b f7bd 40e2 4c3d dad5 d23d
00000060: e4ff b63d 4745 5bbd 2e76 66bd 8fed 85bd
00000070: 189e 043d 0d42 dabd 1ab3 9c3c 117f 403d
0.011106632 0.033607848 0.09648144 0.074321285 -0.0049215853 0.062452167 -0.056818444 0.03819018
-0.009644686 -0.012807711 0.008501157 0.033625823 0.03669296 0.040739752 0.03198347 0.076586485
0.07293514 0.082223065 -0.031465024 0.06489517 -0.004921262 -0.120748565 0.050020456 0.10294695
0.08935526 -0.053532865 -0.05626505 -0.06539451 0.032377332 -0.106571294 0.019128371 0.04699618

conv1.9.weight f4 [32]
00000000: 8874 843f c761 7c3f 2ba6 793f c073 803f
00000010: 416f 803f 84b8 7d3f 6c76 7f3f 43a5 823f
00000020: b273 7c3f 118b 753f 010f 7f3f 95a9 7d3f
00000030: fee6 7d3f c085 7e3f 835f 803f b871 793f
00000040: 4dd1 7f3f 803e 803f fc03 823f bdd2 803f
00000050: c834 793f 45be 8c3f ccd4 7a3f 0e71 7c3f
00000060: ce5b 7a3f 3ce0 7c3f a1e9 7f3f 1e18 803f
00000070: 7f3b 7a3f ed7c 803f 7cbd 7e3f fd1d 853f
1.0348063 0.98586696 0.9751918 1.0035324 1.0033952 0.99109674 0.9979007 1.0206684
0.9861404 0.95915323 0.9963227 0.99086887 0.9918059 0.99422836 1.0029148 0.97439146
0.9992874 1.0019073 1.0157466 1.0064312 0.9734616 1.0995566 0.9798095 0.9861001
0.9779633 0.98779655 0.99965864 1.000736 0.97747034 1.0038124 0.9950788 1.0399777

conv1.9.bias f4 [32]
00000000: f7b6 5a3c a143 cabc ed0e fbbc eb81 7d3d
00000010: 35cd 3fbd f78a 273c c1c4 ae3b 76f0 5dbd
00000020: dd32 b33b d614 b13b 2012 5e3c 7bf6 e8bc
00000030: aab9 ee3c 43a3 743c 11c8 08bd ad18 06bc
00000040: 3b34 943c f870 733c bd6e cebb eadb 953c
00000050: 5880 26ba d936 d5bb 3729 d5bb 03b7 c53a
00000060: bd59 4ebc 8b87 973c 11e0 d83c 4c76 ccbc
00000070: 0a3c 13bd 75bb 2f3c 4945 993b 54c9 20bc
0.013349286 -0.024690451 -0.030646766 0.061891478 -0.04682656 0.010226003 0.0053335135 -0.0541844
0.00546871 0.005404095 0.013554126 -0.028437844 0.029141266 0.014931503 -0.033393923 -0.008184594
0.018091312 0.014858477 -0.006299822 0.01829334 -0.0006351522 -0.0065067825 -0.0065051573 0.0015084449
-0.012594637 0.01849725 0.02647403 -0.024958752 -0.03594593 0.010725846 0.004677449 -0.009813625

conv1.9.running_mean f4 [32]
00000000: e04b 283e ec20 263f 8fa6 b83e f4b7 1a3f
00000010: 50ec f93e b673 b13e a8ce cb3e c6db f43e
00000020: a1ed 8a3e ef17 fc3e 2e59 b63e 408c c03e
00000030: 987b b63e 14b6 c63e a9ee a83e 52b1 5e3f
00000040: bdb1 bd3e 8a1d cf3e 171e d13e b609 c03e
00000050: 989e 8e3e 1951 ee3d 43df a03e 775a e13e
00000060: aa3e 9f3e 7b90 033f bcdd a63e 8c14 c53e
00000070: 2bc0 b53e 12a8 c43d 34e9 bb3e d294 e73e
0.16435194 0.64893985 0.36064574 0.6043694 0.48813105 0.34658593 0.39806104 0.47823924
0.2713442 0.4923701 0.35614914 0.37607002 0.3564117 0.3881079 0.32994583 0.8698932
0.37049666 0.40452224 0.4084327 0.3750741 0.27855372 0.11636562 0.31420335 0.44014332
0.31102496 0.51392335 0.32591045 0.3849224 0.35498175 0.09602369 0.36701357 0.45230728

conv1.9.running_var f4 [32]
00000000: d333 243e a72c 573f 897e 7b3e b713 7a3f
00000010: 6f6c c33e 3055 7f3e b195 a73e dc08 d83e
00000020: 0e2e e53e 25a0 033f 607a c53e 7fd8 483e
00000030: 0dac 633f aefb 883e 89f5 7f3e f889 413f
00000040: 58b4 e63e 99bc 863e fc5c ad3e 43f0 a13e
00000050: 99e3 193e 4954 d43d 8999 f73e fe2c cd3e
00000060: 73c4 523e e240 d73e 27ea ce3e efdf 343f
00000070: c232 a03e e279 6f3d 4962 353f a058 ab3e
0.16035394 0.8405251 0.24559988 0.9768633 0.38168666 0.2493484 0.32731393 0.4219426
0.447617 0.51416236 0.38569927 0.19613837 0.88934404 0.26754516 0.24996008 0.7560115
0.45059466 0.26315764 0.33860004 0.31628618 0.15028228 0.103676386 0.48359326 0.4007339
0.20582752 0.4204169 0.4041302 0.70654196 0.31288725 0.058465846 0.70853096 0.33466053

conv2.0.weight f4 [32, 32, 1, 2]
00000000: 30d0 343d 757a 5a3d b938 4e3c a9cf b73d
00000010: 6cc1 bbbd 233c 063c ef37 ae3d 7243 a93d
00000020: 3213 9cbd b78f d13d 580f f43c 9f80 07be
00000030: cee4 7e3d d285 0b3c a76e 02be 6376 ffbd
00000040: 9941 b1bd bcaa a1bd e86e 2b3c 3f6d edbc
00000050: 7672 8abc 56e9 e4bd 6c9a 62bd fa3e 6dbd
00000060: ec50 14bb 4d67 70bc 4ae7 ecbd 8fc1 643d
00000070: 4835 c43d 6607 96bd 0824 893d 6492 ecbd
00000080: c36c c2bd 4455 54bd 0dec 9e3d ddb9 d6bd
00000090: a8bc 82bd 89c3 fb3d 46d8 b23d 9260 a03a
000000a0: 6c48 72bd dab1 4cbd e679 183d 02e9 9b3c
000000b0: 6052 473d 2886 51bd de5f ef3d 33be 943c
000000c0: 40ee 6f3d 4097 8ebb cb18 f3bd e3b9 eabd
000000d0: 40b6 e6bd 361a de3d c12a 833d 9c1c d63d
000000e0: 2773 f13d 808e d73d 0938 b53d e6e6 5dbd
000000f0: 49ba cd3d b0b4 e3bd 097a afbd d50a 85bd
00000100: 33f5 0c3d e851 77bd 0727 ebbc 5a5f 04bd
00000110: a985 903c 6c04 2c3d c22e 3cbc 60f1 2b3d
00000120: b4dc bdbc 5da3 af3d 7b17 0e3d 66c1 94bd
00000130: a842 1dbe dda5 f9bd 3643 d63c 1389 173d
00000140: 5b26 c8bd efc5 babd 8130 3fbd dfc4 d6bc
00000150: e379 e3bd d390 4ebd 0272 2abc e987 f33b
00000160: 2c7c a73d 45d5 b13c ed29 943d 1d0a ccbb
00000170: e05b c23d 405c 2b3d 54e6 49bd 3980 c73d
00000180: 46ac d8bb 95ce 9abd 7f5a 54bd e2af 283d
00000190: acf7 d2bd 63ec f6bb 84c6 2b3e 8ac7 e2bd
000001a0: 7e7f 53bd 1032 c2bd d4c2 b1bd de11 2ebd
000001b0: 2810 a0bd a7ab ba3d 6e9f 923d ac92 5f3d
000001c0: fc59 af3d 0cae a0bd c894 8d3d cd05 5dbc
000001d0: f558 d6bd b590 98bd 83b5 cebd 4273 833c
000001e0: 4e91 603c 57b1 c23d 637a a4bc b535 973b
000001f0: 6fb8 1b3d cc59 e6bd 0c13 163e b2f6 14be
00000200: 6034 3cbc 6715 453d 0398 1c39 0f90 2cbc
00000210: eeb3 a83d d021 163d 48d9 003d 7072 ea3d
00000220: db99 82bd 1a3c 67bd d1e0 c8bd 299f ce3c
00000230: a797 8cbd d05c 11bd 3321 d73d 1246 dcbd
00000240: a21b 4a3d 7fa1 45bd bf0b 543d 9030 223d
00000250: 6e18 d23c 360d ce3d 93f1 a93c f851 88ba
00000260: bbd7 6abd 81d6 33bd d60f 603c 0b6b 38bc
00000270: cb63 0a3c a54b 6fbc 485e e4bc 3065 7d3d
00000280: b71e 323d 9944 823d d595 acba 1d24 2dbd
00000290: edc3 a23d 109d 003e 9e54 fe3c 92d4 693b
000002a0: 373a 203c 419e cdbd 480a 063d ef31 f73d
000002b0: b37d c43d dd3e 2e3c bb16 30bd c469 42bd
000002c0: eb07 983d 0749 c93c 4b76 8c3d 9614 70bc
000002d0: 2955 5bbd 0da9 b63d 5053 edbd 16f6 f03d
000002e0: 4d52 3ebc 9d0c ddbd 7321 26bd 6eb7 73bd
000002f0: d318 bf3d 595f f43c 6e0d 87bd e256 0dbe
00000300: f439 e13d 04b5 643d 91e4 58bd 709c ccbd
00000310: b13f 90bd 9779 47bd 1573 f7bc 1df7 0cbc
00000320: 00a7 f3bd 7f02 9abd c30c 00bd b11a 39bd
00000330: 58fe 883c 0ba9 9fbd 14ec 8f3c c343 4b3d
00000340: ad3b 92bd 0cd2 fa3c 75d8 72bc 030d aabd
00000350: f9f1 b43d e6d9 8b3b d536 9ebc f7d5 a13b
00000360: 1bfd 51bd 2472 a8bd dc05 babd 20e5 cf3d
00000370: 1d87 563d 81da 903d 36ad 32bd 690f 953d
00000380: cdc7 28b9 2213 a83d 18bf 053d 4bfd 6d3d
00000390: a8ca e83d 0912 3b3d 3aea 04bd fefc df3d
000003a0: e98f 06be 4f23 cabd ad2d c3bd 94b5 073d
000003b0: d5fc 5e3d de29 8bbd 4e88 ecbc 5497 dd3d
000003c0: 4e13 f43d 4471 8bbd 08c2 be3c d4a5 863d
000003d0: 9811 b53d 6c95 df3d dc1c 0d3d 5d6d b53d
000003e0: 6d66 d9bd 52f0 54bd fd99 ef3d 6515 9d3d
000003f0: 30b5 28bd 610b a8bd fa26 edbd b4ad 03be
0.044143856 0.05333944 0.012586766 0.08975155 -0.09167752 0.008193049 0.08506762 0.08264817
-0.07620849 0.102324896 0.029792473 -0.13232659 0.062229924 0.008515792 -0.12737523 -0.12473752
-0.0865509 -0.07893893 0.010463454 -0.028982757 -0.016900282 -0.11177318 -0.05532305 -0.057921387
-0.002263124 -0.014673066 -0.115675524 0.055848654 0.09580475 -0.0732563 0.066963255 -0.11551359
-0.09493401 -0.051839128 0.07759867 -0.10484669 -0.063836396 0.12293155 0.08732657 0.0012235811
-0.059151098 -0.0499743 0.037225626 0.019032005 0.048662543 -0.051153332 0.11688207 0.0181571
0.058576822 -0.0043515265 -0.11869963 -0.11461236 -0.1126523 0.10844843 0.06404639 0.104546756
0.11789542 0.105252266 0.088485785 -0.05417528 0.10045297 -0.11118448 -0.08568198 -0.06496207
0.034413528 -0.060380846 -0.028705133 -0.032317497 0.01764186 0.041996405 -0.011485757 0.04197824
-0.023176529 0.08576081 0.03469036 -0.0726345 -0.15357459 -0.12189839 0.026155096 0.03699596
-0.09772941 -0.09119784 -0.046677116 -0.026216922 -0.111072324 -0.050431084 -0.010403158 0.0074319732
0.08177981 0.02170814 0.07234559 -0.0062267915 0.0949018 0.041836023 -0.049291924 0.097412534
-0.0066123335 -0.07558934 -0.051844116 0.04118336 -0.10301146 -0.0075355037 0.16774946 -0.11073215
-0.051635258 -0.09482205 -0.08679739 -0.04249751 -0.078155816 0.09114771 0.07159315 0.054583237
0.08562085 -0.07845697 0.069131434 -0.013490153 -0.10466186 -0.07449476 -0.10093214 0.01604617
0.013706518 0.09506481 -0.02007789 0.0046145567 0.038017686 -0.11247596 0.14655703 -0.14547232
-0.011487097 0.048116114 0.00014933948 -0.010532393 0.08237444 0.03665334 0.031457216 0.114476085
-0.06377002 -0.0564538 -0.09808505 0.025222378 -0.06864863 -0.035488904 0.10504379 -0.10755552
0.04934276 -0.048249718 0.051769014 0.039597094 0.025646415 0.100611135 0.020745074 -0.0010400405
-0.057334643 -0.04390574 0.013675651 -0.01125599 0.008446644 -0.014605437 -0.027876988 0.061864078
0.043486323 0.0636074 -0.0013167212 -0.04227077 0.07947526 0.12559915 0.031046208 0.003567968
0.0097795045 -0.1003995 0.03272465 0.12070071 0.09594288 0.010635105 -0.042990427 -0.047464147
0.07423385 0.024570955 0.068585 -0.014653346 -0.053548012 0.08918963 -0.11588156 0.11765687
-0.011616302 -0.107934214 -0.040559243 -0.059501104 0.09330907 0.029830622 -0.065943584 -0.13802674
0.10997382 0.055836692 -0.052952353 -0.099907756 -0.07043398 -0.04869994 -0.030206243 -0.008603838
-0.11897087 -0.07520007 -0.03126217 -0.04519147 0.016722843 -0.07795914 0.017568626 0.04962517
-0.071402885 0.030617736 -0.014822115 -0.08303263 0.08835215 0.004267919 -0.019313255 0.0049388367
-0.05126677 -0.082248956 -0.09083149 0.10151124 0.052374948 0.07072926 -0.043622218 0.0727833
-0.0001609616 0.08206774 0.032652944 0.058102887 0.113667786 0.045671497 -0.03244994 0.10936926
-0.13140835 -0.09870016 -0.09530196 0.03313215 0.05444034 -0.06795095 -0.028873589 0.10819879
0.119177446 -0.06808713 0.02328588 0.06574598 0.08841246 0.10917172 0.03445135 0.0885875
-0.10615239 -0.051987 0.11699293 0.07670096 -0.04118842 -0.08205295 -0.115797 -0.12859231

conv2.0.bias f4 [32]
00000000: 583a 003d 8cf6 cbbc 2815 2f3d a918 ce3d
00000010: 6dde 233d 7296 843d a685 de3c 6729 713b
00000020: cb32 40bc 1878 6dbc 5992 80bd 0d80 97bd
00000030: 3e3f 183e f694 95bd 564c 95bd 149c 373c
00000040: 7562 c53d e49a a33d fd43 fa3d f3e2 2b3b
00000050: 219b 29bc 5366 fd3d 5a4b 22bc 9b06 f73d
00000060: 6771 70bd 412a 6d3a dec1 06be 2957 0c3d
00000070: 749b c2bd ac31 983c 8f44 c3bd dcb5 993d
0.03130564 -0.024897836 0.042744786 0.10063297 0.040007044 0.06474008 0.027163338 0.003679836
-0.01173086 -0.014493965 -0.062779136 -0.073974706 0.14867875 -0.07303803 -0.072899505 0.0112066455
0.0963792 0.079885274 0.12219999 0.0026227802 -0.010351927 0.123730324 -0.0099056605 0.12061807
-0.0587019 0.0009047129 -0.13159892 0.03426281 -0.095023066 0.018578373 -0.09534561 0.0750539

conv2.2.weight f4 [32]
00000000: 1469 7a3f 1e3d 833f 5d04 833f 12b7 7e3f
00000010: bc31 813f 9ac1 803f e2a1 803f 6324 7f3f
00000020: 18da 7a3f c7ca 7a3f 3ada 7a3f dbaf 813f
00000030: 5ded 803f 5364 7c3f 992e 7a3f f5e1 823f
00000040: 3e97 7d3f 5578 7b3f 674b 7c3f fa53 823f
00000050: f30a 7d3f 5cd6 803f 8e92 7a3f 6832 7a3f
00000060: 7ed5 813f b031 813f 1b12 893f 59c9 813f
00000070: 6f5f 7f3f 3f8a 753f c4e4 803f 3d81 7f3f
0.97816586 1.0253026 1.0235707 0.99498093 1.0093303 1.0059083 1.0049403 0.99664897
0.97989035 0.97965664 0.9798924 1.0131792 1.0072438 0.9859058 0.9772735 1.0225207
0.990589 0.9823049 0.98552555 1.0181878 0.9884483 1.0065417 0.97879875 0.97733164
1.0143278 1.0093288 1.070865 1.0139571 0.99754995 0.9591407 1.0069814 0.99806577

conv2.2.bias f4 [32]
00000000: 0a65 e63c e3a6 1d3b f555 b23c 8fb3 9dbc
00000010: c972 82b9 b918 edbc 9f81 ba3c 3079 cb3b
00000020: 0bf4 5e3b 9223 8d3c 57fd 453c efde 54bb
00000030: 0680 543c 52c7 9e3c fe3d 293c 679c 92bc
00000040: bd28 923c c701 4b3c 8c9e 8a3c b8d3 9bbc
00000050: c392 43bc 5072 423d 554f ff3b 0523 07bd
00000060: bf50 313c 72b5 6fb9 578d a73c 70aa ccbc
00000070: 8f1e 59bc 9489 873b 27e8 883c ad0e f3bb
0.028124351 0.002405577 0.021769503 -0.01925066 -0.00024881054 -0.028942453 0.022766886 0.006209515
0.0034019973 0.017228875 0.012084327 -0.0032481512 0.012969976 0.019382153 0.0103297215 -0.017896844
0.017841691 0.0123905605 0.016921304 -0.019021854 -0.011936846 0.0474723 0.0077914395 -0.03299238
0.010822474 -0.0002286041 0.020453138 -0.024983615 -0.013251915 0.0041362736 0.016712261 -0.007417521

conv2.2.running_mean f4 [32]
00000000: e474 753e 196b 6b3e 40d8 8f3e 4d88 a83e
00000010: 8211 a93e 349a 7b3e 0799 953e 19ee 9e3e
00000020: 337d 943e fb63 b73e 48ac 873e da9e c83e
00000030: bcb2 b43e 66b1 6a3e 7d23 943e 3b62 933e
00000040: ce9c 913e 88a6 a23e 9d94 8a3e 9a9d b93e
00000050: ee3d 223e cc05 b23e 7369 9f3e 01a2 a53e
00000060: c086 9d3e f0c9 483e 5315 2c3e b567 823e
00000070: 74d3 803e 4557 833e 3119 133e 4a72 a73e
0.23970371 0.22990073 0.28094673 0.3291649 0.3302117 0.24570543 0.29218313 0.3104103
0.2900177 0.35818467 0.26498628 0.39183694 0.35292614 0.22919235 0.28933325 0.2878588
0.28439945 0.31767678 0.27066508 0.36253053 0.15843937 0.34770048 0.3113514 0.32350162
0.3076687 0.19608283 0.1680501 0.25469747 0.25161326 0.2565252 0.14365079 0.32704383

conv2.2.running_var f4 [32]
00000000: b692 1e3e 9ffb 283e b8fb 653e 367a 423e
00000010: 5ebc 7a3e f3c2 1d3e 2b9b 2b3e a975 9a3e
00000020: 64c2 0e3e d57f be3e 626f 0a3e dc44 c73e
00000030: 1656 123e 7cb8 f53d 6985 313e 84b6 583e
00000040: 6d47 fd3d 4845 633e 58cd 413e 0c55 a03e
00000050: 9f7c 933d ae38 7b3e cfd3 3d3e 0ef3 243e
00000060: 65ac 853e 6c91 213e 4fb2 253e 42c3 193e
00000070: d66b 0d3e d05b da3d c29a d83d ae49 a33e
0.15485653 0.16502236 0.22459304 0.18991932 0.24485919 0.15406398 0.1675841 0.30167893
0.13941342 0.37206903 0.13519052 0.38919723 0.14290652 0.11998078 0.17336048 0.21163374
0.12367139 0.22194397 0.18925989 0.31314886 0.07201504 0.2453334 0.1853783 0.16108343
0.2610809 0.1577813 0.161813 0.15015891 0.13810667 0.10662043 0.10576393 0.3189215

conv2.3.weight f4 [32, 32, 4, 1]
00000000: 15b7 7a3a 8688 5fbd b2bb 09bd 7c4f ee3c
00000010: 993d 9d3d 25fa a4bc a6c1 c03b e902 f13d
00000020: 89fa bf3c 7138 62bd f42b d5bd fc66 46bd
00000030: 7552 293d 139d c9bc 1a66 523d 088f 4cbc
00000040: 6a6e e9bd 3853 273d b00a 6ebd f97f b7bd
00000050: db93 7d3c e618 71bc 47f1 eabc 0f1d 29bd
00000060: 26be 963d aaf2 40bd 748c 5fbd 914e 82bd
00000070: 2b53 51bd 7ae9 503d a69c 5dbd 5c40 993d
00000080: 1a79 9fbd dda6 75bd 9e15 99bd 9b92 b13d
00000090: ded2 e73c edac 6ebd 8823 143d 9a8e 8ebd
000000a0: 77f7 1e3d 856e 973d df25 5dbd 2854 2b3d
000000b0: f522 24bc 51cd b53d 7ba6 bd3d 7272 bcbc
000000c0: b7a3 fe3c cc3c 623d 8c79 86bd 3fba 86bd
000000d0: 28a7 c63c 83c2 64bd f1cc 5d3d aadb a43c
000000e0: e67c 8b3c 5944 cfba 167f 593a da87 c9bb
000000f0: d74e e3b9 d58e 763d 2c1f aa3d 2047 1bbd
00000100: c647 82bc 6dfa 31bd 3e04 cbbd a210 05bd
00000110: ed39 8f3c 35ea 683d f9ef c0bd bd5b 383d
00000120: 07ac 9a3c 2702 82bb 60f9 9abd 8124 91bc
00000130: 59ef 83bd 28f0 8c3d efc8 b23d 84dd 2c3d
00000140: 985f 92bd ce0b 1fbd cbf4 5c3d e1fd 30bc
00000150: 75d2 7abd 7d54 f6b9 ebaf ab3d bd9b 993c
00000160: 2f02 883d 2120 803d 8411 8abd 5529 bcbd
00000170: 24c8 dc3c 2db9 46bd a94d b5bd 6802 963d
00000180: 1491 6bbd 47d2 9d3c bcbe 90bd 6d36 a2bd
00000190: 5399 88bd c14e 073d 6faf 44bd 1501 5abd
000001a0: deeb 0f3d 680a 03bc a502 833b 4b69 61bd
000001b0: c0f8 90bd aeb9 89bc 4325 d43d d6d3 0ebd
000001c0: 8b6b fcb9 2b2c a6bd ec8c 41bd 600a d73b
000001d0: 28e2 50ba 121b 0cbd 8f33 f83b 135e 2fbd
000001e0: 881a 9bbd fb92 80bd 3eb1 c33c 2a63 6b3d
000001f0: d364 3f3d 7c52 433c 2478 8dbd d2df 933d
00000200: 9f63 123d bdb5 753d a9b0 1bbd 1de2 96bd
00000210: ea80 2bbd ab66 c8bd 9304 a83d 1c09 193d
00000220: 5ce4 3abc 826c 443d 323a 5f3d 733d 20bc
00000230: 00df 35bd e29c 083d 86de 563d fc7c a6bd
00000240: 2d14 57bd 049f b0bd 39c8 343d 4e30 cb3c
00000250: 2583 873b 719e 8a3d 3b66 243c 669f 96bd
00000260: 0577 4bbd 7431 40bd c876 c43b b922 723d
00000270: 5327 133d cf6a cbbc d8c1 27bd ca55 cfbc
00000280: e948 103d 47b8 ac3c 5840 61bc 978f c93d
00000290: 90d8 ab3c abe5 683a 1996 913c 10fd e73c
000002a0: ba86 e6bb c244 a9bd 50a6 7dbd e7d8 ccbc
000002b0: ca96 a7bd edc3 b3bc 65b7 b1bc 6333 99bc
000002c0: 3dad d7bc 3308 13bd 9f8d 7b3c 6ce0 833d
000002d0: c552 173d c8a9 03bd 813e 0f3c 4e19 6b3d
000002e0: 3833 6c3d 1556 933d 4b70 993d c7e9 623c
000002f0: b599 773d 8df6 36bd 9397 3e3d 90b7 b03d
00000300: 1b88 5cbc a6a4 87bd 8f58 f33c 06d5 563d
00000310: 7f2a 6bbd f3f9 043d 0417 a03c 7043 6ebd
00000320: c68b 2fbd 9c04 90bd 4d62 e83b 185a 863d
00000330: e745 59bc fddb d6bc 1d39 8cbb e3ba e53c
00000340: 0227 713d 5cfe cb3c 7de8 08bc 4347 f93c
00000350: 2092 41bd df37 7cbd 6f8c 90bd cee4 6bbd
00000360: b54d 723d 0d41 633d 2eb4 80bd 5bbb 15bd
00000370: 7618 ac3c 131f cfbd 4f67 9e3b 11b1 6fbc
00000380: ad4f 213d 3117 083b 7718 96bc 702d 163d
00000390: 58db 81bd 1491 96bd 23fc a63d 03e0 a53d
000003a0: 4eaa 5a3d 97c6 c13d 3153 c03b 127d e9bc
000003b0: 65a0 ae3c 6402 29bd da9f 363c ccb6 99bd
000003c0: 349b 50bb 2d9d 9f3d ac0d 8d3d 9584 63bc
000003d0: 863f b0bd a52f d63c 16c0 98bd 2b36 aebc
000003e0: 89b9 a03d a01a 04bd 674c 303d b599 313d
000003f0: e8a7 b6bb 139e af3c 29f2 8cbd 2e31 bfbd
0.00095640245 -0.05457356 -0.033626266 0.029090635 0.076777644 -0.02013881 0.0058824597 0.11768133
0.023434894 -0.055229608 -0.10408774 -0.048438057 0.041338403 -0.024611032 0.051366903 -0.012485273
-0.11398013 0.040850848 -0.05811566 -0.08959956 0.015477146 -0.014715409 -0.028679503 -0.041287478
0.07360487 -0.047106422 -0.054577306 -0.063626416 -0.051104706 0.05100391 -0.05410447 0.07482979
-0.0778677 -0.059973586 -0.07474826 0.08670541 0.028298791 -0.058270384 0.036166698 -0.06960793
0.03881022 0.07394127 -0.053991195 0.041828305 -0.0100181 0.088770516 0.09260269 -0.02300379
0.031083925 0.05523376 -0.06566152 -0.065784924 0.024249628 -0.055849563 0.054150525 0.020124275
0.01702733 -0.0015813216 0.00082968303 -0.006150228 -0.00043355554 0.06019481 0.08306727 -0.037909627
-0.015903365 -0.043451715 -0.099129185 -0.032486565 0.017483676 0.056863982 -0.09420771 0.045009363
0.018880857 -0.0039675417 -0.07567096 -0.017717602 -0.06442136 0.06881744 0.08729731 0.04220344
-0.07147139 -0.038829617 0.05394439 -0.010802717 -0.061235864 -0.00046983725 0.08383163 0.01875102
0.066410415 0.06256128 -0.06741622 -0.09187571 0.026950903 -0.04851644 -0.08852703 0.07324678
-0.057511404 0.019265307 -0.0706763 -0.07920537 -0.06669869 0.03303409 -0.04801887 -0.05322369
0.03513705 -0.0079980865 0.003998118 -0.055032056 -0.07078695 -0.016812172 0.103586696 -0.03486999
-0.0004814531 -0.08113893 -0.047253534 0.006562516 -0.000796827 -0.034205504 0.0075745056 -0.042814326
-0.0757342 -0.06278034 0.023888227 0.057467617 0.046727013 0.011921521 -0.06907681 0.07220425
0.035739537 0.059987772 -0.038010273 -0.073673464 -0.04187099 -0.09785207 0.082039975 0.037362203
-0.011406984 0.047955044 0.05449886 -0.009780276 -0.044402122 0.03335274 0.05245831 -0.08129308
-0.052509475 -0.0862408 0.04413626 0.024803307 0.0041355067 0.067685015 0.010034139 -0.073546216
-0.049674053 -0.046922162 0.005995605 0.059115145 0.035926174 -0.024831204 -0.04095635 -0.025309462
0.035225783 0.021083964 -0.013748251 0.09841841 0.020977288 0.0008884321 0.017771767 0.028318912
-0.0070351036 -0.08265068 -0.061926186 -0.02500577 -0.081830576 -0.02194401 -0.021693895 -0.01870126
-0.026327724 -0.03589649 0.015353589 0.064392895 0.03694417 -0.032144338 0.008742929 0.05739718
0.057666034 0.07194153 0.07492121 0.013849682 0.06044932 -0.044668723 0.04653127 0.08628762
-0.013460184 -0.06623201 0.029705314 0.05244925 -0.057413574 0.032464933 0.019542225 -0.058169782
-0.042857908 -0.07032129 0.0070917965 0.06560153 -0.013261295 -0.026227945 -0.0042792694 0.028043216
0.05887509 0.024901561 -0.008356211 0.030429488 -0.047258496 -0.06157672 -0.070580356 -0.057591252
0.05915614 0.05548196 -0.062843665 -0.03655563 0.021007758 -0.10113349 0.0048340927 -0.014629618
0.039382625 0.0020765776 -0.018322213 0.036664426 -0.063406646 -0.0735189 0.0815356 0.080993675
0.05338507 0.09461706 0.005869292 -0.028502021 0.021316716 -0.041262046 0.01114651 -0.07505569
-0.003183079 0.07793651 0.06887373 -0.0138865905 -0.08605866 0.026145766 -0.074585125 -0.021266064
0.07847888 -0.032251954 0.043041613 0.043359477 -0.005574215 0.02143768 -0.06882126 -0.09335552

conv2.3.bias f4 [32]
00000000: f633 67bc 024a 29bc 898a 91bd 4ced eabc
00000010: ee6c 06bc 9c42 b63d 8ab0 0fbc 7f2f 943b
00000020: c92f 133d b97d 0ebc 84c4 bebc 1212 1cbd
00000030: 497a a43d 8424 633d 555d e03d 27c5 52bd
00000040: 661b dc3a 0f14 163b 8897 5d3d f07b fabc
00000050: c235 c13c c025 913d f6e2 b0bd 55a7 c83d
00000060: 74dd b83b facd 583d 58a7 a8bd a756 e9ba
00000070: 9074 94bd 6b65 d3bd 0c19 463d 2fdb b83b
-0.01411151 -0.010332586 -0.071065016 -0.028677605 -0.008204682 0.088994235 -0.008770118 0.0045222635
0.035934243 -0.008696967 -0.023287065 -0.03810317 0.080311365 0.055454746 0.10955302 -0.05145755
0.0016792833 0.002290014 0.05409959 -0.030576676 0.023585204 0.07087278 -0.08637039 0.09797541
0.0056416336 0.05293081 -0.08235043 -0.0017802314 -0.07248795 -0.10322078 0.04836373 0.005641363

conv2.5.weight f4 [32]
00000000: ca47 803f 3a4e 7d3f 4ef4 7d3f b2b1 7e3f
00000010: c9e7 833f ec9c 803f bca0 813f 4f1e 813f
00000020: 5d31 803f 1610 803f 300e 823f 644d 7f3f
00000030: f432 813f 44ff 803f b3a7 793f 3bf2 813f
00000040: a691 783f 57cd 813f f2c7 7d3f 6056 7b3f
00000050: 2bf6 773f 60d3 753f 76c8 803f 2aa7 813f
00000060: c059 7a3f 9e80 7f3f 8fc3 833f cf82 833f
00000070: 4b3a 833f 2cb0 813f 3df2 773f b6c6 7d3f
1.0021908 0.9894749 0.99200904 0.9948989 1.030511 1.0047889 1.0127177 1.0087374
1.0015064 1.0004909 1.016058 0.99727464 1.0093675 1.0077901 0.97521514 1.0152048
0.9709724 1.014079 0.9913322 0.9817867 0.9686 0.9602566 1.0061176 1.012914
0.977932 0.9980563 1.0294055 1.0274295 1.0252165 1.0131888 0.96854 0.99131334

conv2.5.bias f4 [32]
00000000: 5227 df3c 3171 abbc 6507 353c 3d25 263c
00000010: ff52 f3bb e025 17bb 83e2 bd3b 10c6 db3b
00000020: 5afe 0fbb 2395 033c e185 ae3c c5fb ab3c
00000030: e735 cabc 6082 ddbb 19e3 303c 224f cbbb
00000040: d5e0 4a3d fbe0 a43c e498 0d3d 77cd af3c
00000050: 0f5c c8bc 287e 233d 2cd4 2bbd 6111 203c
00000060: 78a1 deb9 906c afbc 313c dabc e850 28bc
00000070: 9ac3 623b d084 e73b 11fb 9dba 3bdd 993c
0.02724043 -0.020927997 0.011049126 0.010140714 -0.0074256654 -0.0023063347 0.0057948246 0.0067069605
-0.0021971674 0.008031162 0.021304073 0.020994077 -0.024683906 -0.0067599267 0.010796332 -0.0062045017
0.049530823 0.02012681 0.034569636 0.021460278 -0.02445796 0.039915234 -0.04195039 0.009769768
-0.00042463443 -0.021414071 -0.02664003 -0.010273196 0.003460145 0.007065393 -0.0012052973 0.018782249

conv2.5.running_mean f4 [32]
00000000: 6cde a13e 6b07 813e 56c0 7b3e 1293 9c3e
00000010: 6f0f af3e a5e5 d93e c044 833e ac82 9d3e
00000020: 9217 823e a73e 583e 3564 ba3e 202f cc3e
00000030: 65b1 903e d450 9a3e d2ed 863e 08f3 853e
00000040: 8d13 783e 35eb 9e3e f554 803e 76cc 8c3e
00000050: 62e6 7c3e 93b1 ba3e 9517 813e e2ab a93e
00000060: 6505 ce3e ece5 bc3e a11e 813e 6a01 323e
00000070: e417 693e 161c 953e ca55 a43e 12ad a83e
0.31615007 0.25200972 0.24585089 0.30580956 0.34191462 0.42558017 0.2563839 0.30763757
0.25408608 0.2111765 0.36404577 0.39879704 0.2826034 0.30139792 0.26353317 0.2616198
0.24226208 0.31038824 0.25064817 0.2749974 0.24697259 0.36463603 0.25213304 0.3313895
0.4023849 0.36894166 0.2521868 0.17383352 0.2276302 0.2912299 0.32096702 0.32944542

conv2.5.running_var f4 [32]
00000000: c3fa 8f3e a17e 2f3e 8054 9d3e 3f4a 593e
00000010: 293a aa3e 9c81 ff3e e200 3c3e 8198 273e
00000020: 9129 253e 18e9 3d3e 4d7e 9a3e be36 b53e
00000030: 36d2 383e 968d 483e 8c46 e43d b5fa 963e
00000040: 29a0 3f3e d339 743e dcb6 1d3e 7f40 263e
00000050: 54d0 1b3e f99a 5f3e 62b9 273e 6efe 393e
00000060: e8aa bb3e be55 9a3e be50 693e 30d8 d93d
00000070: 3c08 853e 44b8 533e 4dd1 323e 8c46 a63e
0.28121004 0.17138149 0.3072853 0.21219729 0.33247498 0.49903572 0.18359712 0.1636677
0.16129138 0.1854595 0.30174485 0.35393327 0.18048939 0.19585261 0.11146268 0.2948815
0.1871344 0.23850183 0.15401787 0.16235541 0.1521619 0.21836461 0.16379312 0.18163463
0.3665383 0.3014354 0.22784707 0.106369376 0.25982845 0.2067576 0.17462654 0.32475698
