trained_models/CNN_LSTM/CNN_LSTM_Zscore_CF1_pred_4.pth (torch, 615091 bytes, 90 tensors)

conv1.0.weight f4 [32, 1, 1, 2]
00000000: 9a42 d1bd a171 05be 331e 23be e8c5 fa3e
00000010: 86a3 123f e352 18bf e914 2a3f 83b9 c73d
00000020: 0fd1 28bf 07c3 443e ecbb a33d 3d08 0f3d
00000030: 40de 28be 8b36 f8be 44d3 c8be d7a1 9abe
00000040: 76f6 903e a4dc d3be a1a5 ff3e f008 44bf
00000050: 3e11 813e a736 993e e2de 8bbe c8a0 e7be
00000060: 989f 25bf d82d 8abe 71d0 b33d ce99 333f
00000070: d652 d73d a057 1f3f baef b4be 133d 2fbf
00000080: d5ed 013f 0a88 f33e 7840 c73e ef63 e7be
00000090: 76b2 4dbe 0137 163f 05f8 1ebf 1ae8 183f
000000a0: 2198 c3be 6853 d83e d6d4 e43e dd20 fa3e
000000b0: 5602 463e 5aec f3be faa2 eabe 9d74 14bf
000000c0: 0b9d afbe 46f1 2c3e ed56 023f f384 ecbe
000000d0: 54e3 a2be 4b76 31be e8b4 33bc b671 e9be
000000e0: d3ac b6bd 7aa9 8dbd 29ad 1dbf 1edf e8be
000000f0: 5e31 a8be a250 213f 1538 353e 79a9 29bf
-0.10217781 -0.13031627 -0.15929489 0.48979115 0.57280767 -0.59501475 0.66438156 0.097521804
-0.65944 0.19215022 0.07994828 0.034919966 -0.16491032 -0.48479113 -0.39223683 -0.302016
0.28313035 -0.41379273 0.49931052 -0.7657614 0.25208467 0.2992451 -0.27318484 -0.45239854
-0.64696646 -0.269881 0.087799914 0.7015656 0.105138466 0.6224308 -0.35339147 -0.68452567
0.5075353 0.47564727 0.38916373 -0.4519343 -0.20087609 0.5867768 -0.620972 0.5972916
-0.38202003 0.42251134 0.4469363 0.48853198 0.19336829 -0.4764126 -0.45827466 -0.5799044
-0.34299502 0.16888914 0.5091389 -0.46195182 -0.31814063 -0.17330281 -0.010968424 -0.45594567
-0.08919682 -0.06917091 -0.61592346 -0.45482725 -0.32850164 0.6301366 0.17697175 -0.6627422

conv1.0.bias f4 [32]
00000000: e689 e2be 63d0 eabe cdba e33e 288c b5be
00000010: e296 0a3e 7d06 dfbd 8e09 b23e 8840 8cbd
00000020: e245 20bf 1d87 973e fbbb 2bbf f7b2 80be
00000030: 0f3d 1fbe b315 18bf eb69 0c3f 38af 663e
00000040: c63c 0e3d 64dd 283f 7fd0 f3bd efaa 07be
00000050: 7489 06be 5b37 95bc 2744 843e e3da 31bf
00000060: 5d66 053f f60a d93c 1648 acbe 0809 5abd
00000070: bbbc de3e de8f d6be 6cf6 243e 26fd e1be
-0.44245833 -0.4586211 0.44478455 -0.35458493 0.1353412 -0.108899094 0.34772915 -0.06848246
-0.6260663 0.2959527 -0.6708371 -0.2513654 -0.15550636 -0.5940811 0.5484912 0.22527778
0.034725927 0.65962815 -0.11905002 -0.132488 -0.13138372 -0.018214872 0.25833246 -0.6947462
0.5210932 0.026494484 -0.33648747 -0.05323127 0.43503365 -0.41906637 0.16109627 -0.4413845

conv1.2.weight f4 [32]
00000000: 1191 843f 7fd9 793f db93 793f b978 7a3f
00000010: d846 7a3f 922e 853f 5678 843f 2629 813f
00000020: 87b7 813f 9089 793f 23b6 803f 8a85 813f
00000030: bc31 793f 7ba2 7e3f 2085 823f 858b 823f
00000040: 6031 823f 7ed7 7e3f c567 823f f9bb 803f
00000050: a959 7b3f ca4b 7f3f 8d97 7a3f a1d7 803f
00000060: 19f5 7b3f 7b84 783f a016 813f a5d8 833f
00000070: fa8c 793f e621 7f3f ef5c 7e3f f35d 803f
1.0356771 0.975975 0.97491235 0.9784046 0.9776435 1.0404837 1.0349224 1.0090683
1.0134133 0.9747553 1.0055584 1.0118878 0.97341514 0.99466676 1.0196877 1.0198828
1.0171318 0.99547565 1.0187918 1.0057365 0.98183686 0.9972502 0.978875 1.0065805
0.98420864 0.9707715 1.008503 1.030049 0.9748074 0.996611 0.99360555 1.0028671

conv1.2.bias f4 [32]
00000000: 7e35 2dba c1fe c53c eac7 de3c be91 193b
00000010: 2022 0dbc 20a8 3bbc 8b45 cabc aff9 0ebb
00000020: 955a 39bd 5a1f 0abd 1022 f1bb 62ba c53b
00000030: 06bb febb 15c5 583c bce8 d53c e46f 19bb
00000040: f91c 1e3c b605 333c 84e4 eabb 5ec1 5dbc
00000050: 66eb 723c 9b64 45bc 6c66 c5bc 1946 363c
00000060: 4a61 863c 237a 323a b2f3 64bc 362b 70bd
00000070: fd9e afbc 79f0 79bc 622f 91bb 0487 acbd
-0.0006607397 0.024169328 0.027194936 0.0023432816 -0.008614093 -0.011453658 -0.024691364 -0.0021816303
-0.0452524 -0.033721305 -0.007358797 0.0060341815 -0.00777376 0.013230582 0.026111953 -0.002341264
0.009650462 0.010926655 -0.0071683545 -0.013534872 0.014826631 -0.012047912 -0.02409669 0.011125111
0.016403813 0.0006808361 -0.013974117 -0.05863496 -0.021438116 -0.015255087 -0.0044306973 -0.0842419

conv1.2.running_mean f4 [32]
00000000: b89f 91bb 1a14 9e3d 83b8 2c3f c66b 213e
00000010: 1905 d53e 25b0 3dba e609 d33e 990a 003e
00000020: f3a7 49bb 6830 1a3f 0556 283b a764 163d
00000030: d548 3c3e f6e0 b03d 3355 0a3f b5d3 ac3e
00000040: e2be 743e bc82 423f 6926 3f3e 08c0 ad3e
00000050: 7a50 493e 8d46 403e b5af ca3e 50cd baba
00000060: 4f27 013f f0dd c03e ab94 823b 171c da3d
00000070: 6871 dd3e a4e2 9e3d 6a01 bd3e e6ea 443d
-0.004444089 0.07718678 0.6746904 0.15763769 0.41605452 -0.00072360254 0.4121849 0.12504043
-0.0030770272 0.6023011 0.0025686037 0.036717083 0.18387158 0.08636658 0.54036254 0.3375527
0.23900941 0.75980735 0.18666996 0.3393557 0.19659606 0.18776913 0.3958718 -0.0014251862
0.50450605 0.37669325 0.0039850078 0.10649889 0.43250585 0.07758072 0.3691514 0.04807558

conv1.2.running_var f4 [32]
00000000: 932b d435 108e e73d cd7b e43e 2a1f 333d
00000010: da51 413e b37e 7e38 06e6 493d 3ba8 ff3c
00000020: 60e0 5639 2029 bb3e 926e 353c cd0f e53b
00000030: 00ed 6c3d cf2c 433e 6e21 a93e 3a2b c63d
00000040: ba81 f03d a219 993e 82df 833e fcb4 bf3e
00000050: 3429 2b3e e1d5 dd3d ed42 ce3d c729 543a
00000060: b626 463e f448 3a3e 4635 f039 5c28 2d3c
00000070: c57b ec3b 5a13 b13c 7299 d53e f708 0a3c
1.5807913e-06 0.11306393 0.44625703 0.043730892 0.1887888 6.0676317e-05 0.049291633 0.031208148
0.00020492217 0.36554813 0.011073725 0.006990409 0.05784321 0.19060062 0.33033317 0.096762136
0.117434934 0.2990237 0.2575646 0.37442768 0.16714936 0.1083181 0.10071359 0.00080933835
0.19350705 0.18191892 0.0004581606 0.010568704 0.007216903 0.021615673 0.41718632 0.008424989

conv1.4.weight f4 [32, 32, 4, 1]
00000000: c24e dc3c a795 c03d 06a1 8a3d aa41 4e3d
00000010: e220 fe3c c441 aabd 9b21 ac3d d502 863d
00000020: 5cc8 443d 3b38 52bd 6364 7c3d f884 f33c
00000030: 6ae6 c2bd b439 0f3d 1598 253d b030 8d3d
00000040: 9867 51bd 5bca 06bd 21a4 fa3c 3de7 643d
00000050: 37a6 93bd 2e82 c2bd 7f4a 673d c6f3 79bc
00000060: c6d1 8b3c 1b13 b4bc a95d 83bd 07ad 95bd
00000070: 97f3 59bd f223 acbc 0649 07bd d6ce 38bd
00000080: f7f1 9e3c 2d9e 863d 259d 23bd ee04 0bbd
00000090: 2c79 06bd 19ab 50bd d3cb af3d 6f59 29bd
000000a0: 0d14 89bd a844 9abc 6a94 a1bb babe a93d
000000b0: 028b d23c 6ba2 bc3c 8492 223d 3bab 593d
000000c0: 53f9 6e3d ea6f 7ebc 7832 87ba 58e3 a23d
000000d0: e3c0 84bd 0ae7 283d b8ac c9bb 1785 d63c
000000e0: 48f7 7a3d 9d6f 8cbc 369f 0cbd 24b8 df3c
000000f0: d654 ce3b 5df9 bd3d 9f83 35bd 25a1 473d
00000100: 0797 383d 9124 febc 2775 0bba fde6 a13d
00000110: 612c 803d 589b a6bb d3c0 8cbd fc75 9bbd
00000120: 3dcb 81bd 2dc4 86bd ebb0 913d f211 ffbc
00000130: b876 bfbd 2cf7 a2bd 1b87 4f3d 2b3e a83d
00000140: 3f36 fabc 90ca a9bd dc17 afbd e9fe bebc
00000150: d4ef a03b 3e10 74bd 38f6 8fbd d137 65bd
00000160: f78f 4a3d ca7a 823d f0be eebc 3dcd 1c3d
00000170: a97f 52bd 6508 80bb c3d6 913d 0c6d 8a3d
00000180: 74cd 003d 66c8 1dbd a2bf 2f3d 8451 e43b
00000190: 98d6 1f3c 9ed9 83bd bec0 cabc 29de dc3b
000001a0: 838a 7d3d a75a 0a3d d6ea 9d3d 4484 903d
000001b0: 28b4 4a3d bd50 eebc ee08 4bbd aa9a ab3d
000001c0: b059 253d e90a f93c fa92 89bc f256 4c3d
000001d0: bc4a 393d f653 973d 55d3 a83d bca3 bb3d
000001e0: 68c0 65bc feb3 c5bc d5e2 9f3d 589f 703d
000001f0: 2226 a3bd 316d 43bd a902 723c 1257 3a3c
00000200: 158a dfbc a23e 81bd 32e1 3b3d f762 b13d
00000210: 1bcf 593d 7251 63bd 5668 a4bd ba98 b13d
00000220: 8d66 cd3b 0901 653d 0380 2ebc ad21 c93d
00000230: d858 94bd a829 c23c 2e24 8a3d 0d7f 5d3d
00000240: 28a2 17bd 3be1 1cbc a25b 97bd 02cf 2fbd
00000250: cfb3 79bd 338f 0abb 1d94 bcbd 77ac 213d
00000260: 4ea9 bbbc 86e0 e33c 1dcc 873d a73e 793d
00000270: 315e 763d f7c3 51bd 38b5 273d 9c97 83bd
00000280: 679c 913c 380b 78bd 190b f03c 2638 9b3d
00000290: 7593 5a3c 487b a53d 5e8c 803d be2d 973c
000002a0: a59b b23c 159e b6bd 5ff0 39bd e586 a03d
000002b0: 3418 933d 2640 213d 849b 22bd 3ec0 893d
000002c0: 263e 53bd b82c 1b3d 6981 51bd 5b2b ebbc
000002d0: 7e53 513d f34c 21bd d5c6 5fbb 8114 fe3c
000002e0: 406c 373d 9851 673d a9c1 883c a80a 91bc
000002f0: 59ca 7cbc e55b 853d bf9f 30bd 6b51 3ebc
00000300: 9e9b c63b 452b 5fb8 0d65 913d 59f1 843d
00000310: 27b3 4a3a 8b1a 5a3d 3b63 df3a 02e2 75bb
00000320: f8ce dfbc 09da 81bd 6168 efbc 35f8 633d
00000330: bdd1 98bd 6442 0a3d 8ecb 2b3d f193 9d3d
00000340: 4a00 363d 1b63 af3b 76c6 8abd b84a 6dbc
00000350: 650f 3b3d ab92 f03c 715c 54bd 7c1e 71bd
00000360: c6b8 96bb 44e8 abbd 36fd 6c3d 4c78 b73d
00000370: 4c18 d4bb 4733 02bd de36 6dbd 4ee0 263b
00000380: d65f 99bc d85e 92bc 84ba 643d ffc1 07bd
00000390: b237 953d dcf1 803c 0307 b63d 6ddf d83c
000003a0: d620 10bd f795 5f3c 5c94 77bd 61aa 09ba
000003b0: f8c2 69bd 0791 99bc 4292 9c3d 1ff0 033d
000003c0: efa7 203b 84ae d4bc 133f 4c3d a9e6 523d
000003d0: f405 2f3d 581f 943c fe44 273b 8a41 a0bd
000003e0: f60f 54bd 777f 50bd 6a18 963d 1319 9e3c
000003f0: 3994 43bd f83c 02bd d36a aa3c 66a2 bd3d
0.026893023 0.09403544 0.06768994 0.05035559 0.03102154 -0.08313325 0.08404847 0.06543509
0.04804264 -0.051323157 0.061619174 0.02972649 -0.09516604 0.03496714 0.04042824 0.06894052
-0.051124185 -0.032907825 0.03059584 0.05588459 -0.07209437 -0.09497486 0.05646753 -0.015255874
0.017067801 -0.021981766 -0.06414349 -0.07308393 -0.05321082 -0.021013234 -0.033028625 -0.04511913
0.019402487 0.065731384 -0.039944787 -0.03394025 -0.032830402 -0.05094442 0.08583798 -0.041345056
-0.066932775 -0.018831566 -0.0049310224 0.08288331 0.02570105 0.023026666 0.03969051 0.053141814
0.058343243 -0.015529612 -0.0010314723 0.07953519 -0.06482103 0.04123596 -0.006154623 0.026186509
0.061270982 -0.017143065 -0.034331523 0.027309485 0.0062967343 0.09276078 -0.044314977 0.048737664
0.045065906 -0.031023296 -0.0005319886 0.07905386 0.062584646 -0.0050844364 -0.06872716 -0.07590863
-0.06337593 -0.06580386 0.071138225 -0.031136487 -0.09348816 -0.079573005 0.050665956 0.082149826
-0.030543445 -0.08290589 -0.08549473 -0.02331491 0.0049114022 -0.059585802 -0.070293844 -0.055961434
0.0494537 0.063710764 -0.02914378 0.038281668 -0.051391277 -0.0039072507 0.07121041 0.0675908
0.031445935 -0.038521193 0.042907365 0.006967725 0.009755753 -0.064379916 -0.02475011 0.0067403507
0.061899673 0.03377786 0.07710807 0.07056478 0.049488217 -0.029091233 -0.049569063 0.08379109
0.040368736 0.03040071 -0.016793717 0.049887605 0.045237288 0.07389061 0.082434334 0.09162089
-0.014022924 -0.024133679 0.07806937 0.058745712 -0.07966258 -0.047711555 0.014771142 0.011373298
-0.027287522 -0.063107744 0.04586906 0.08661454 0.053176027 -0.055497594 -0.08027713 0.086717084
0.0062683285 0.05590919 -0.010650638 0.09820876 -0.07243508 0.023701504 0.06745182 0.054076243
-0.03701988 -0.0095751835 -0.073905244 -0.042922027 -0.060962494 -0.0021142482 -0.09207938 0.039471116
-0.02290788 0.027817022 0.066307284 0.060850766 0.06014842 -0.051212277 0.040944308 -0.064254016
0.017774774 -0.060557574 0.029302167 0.07579069 0.013340821 0.08080155 0.06276773 0.018454429
0.021802733 -0.089168705 -0.04539525 0.07838229 0.07182351 0.039367817 -0.039699093 0.067261204
-0.05157294 0.037884444 -0.051148806 -0.028707197 0.051105015 -0.039380025 -0.0034145613 0.031015636
0.04478097 0.0564743 0.016693907 -0.017705277 -0.015429103 0.06511668 -0.043121096 -0.011616091
0.0060610315 -5.320764e-05 0.07099352 0.06491346 0.0007732384 0.05324797 0.0017043123 -0.0037518744
-0.02732037 -0.06340415 -0.029224576 0.05565663 -0.074618794 0.03375472 0.04194217 0.07694233
0.04443387 0.0053523905 -0.06776135 -0.014483146 0.04566898 0.029366812 -0.05184597 -0.058866963
-0.0045996634 -0.083939105 0.05785867 0.08958492 -0.006472623 -0.031787183 -0.057913654 0.0025463286
-0.018722456 -0.01786749 0.055841938 -0.033143993 0.07286014 0.015740328 0.08888056 0.026473725
-0.035187565 0.013646594 -0.06044422 -0.00052515237 -0.057070702 -0.018745912 0.07645084 0.03221142
0.0024514159 -0.025962122 0.04986484 0.051489506 0.042730287 0.018081352 0.00255233 -0.078250006
-0.051773034 -0.05090281 0.07328875 0.019299066 -0.047748778 -0.031796426 0.02080289 0.09259491

conv1.4.bias f4 [32]
00000000: 166d 743d c84b c43c 7425 823d 8626 a7bc
00000010: 7c29 26bb a5b8 b33c f690 87bd fae0 24bc
00000020: 4ceb a03a a5e8 35bd 98c0 013d 740d 653c
00000030: a981 fa3b 2aea e93d 67b1 ec3c 37ba 963d
00000040: 8472 b6bb c2cc 933d fb48 3c38 1568 80bc
00000050: 272f 4d3d ec29 123c dc91 203d 4500 683d
00000060: cb7f 923d a521 b23d 454f f33c 1d56 bc3c
00000070: fdaf 923d d1a5 ac3d 2556 273c 4f7b 9bbb
0.059674345 0.023961917 0.063548 -0.020404112 -0.0025354316 0.021938631 -0.06619446 -0.010063404
0.0012277155 -0.04441132 0.031677812 0.013980258 0.007644851 0.114216164 0.028893186 0.073597364
-0.0055678505 0.07216789 4.489066e-05 -0.01567463 0.050093796 0.008921128 0.039201602 0.056640882
0.07153281 0.086978234 0.029700885 0.02299028 0.07162473 0.084300645 0.01021341 -0.004744924

conv1.6.weight f4 [32]
00000000: 7cd7 7e3f 0e0f 813f 1969 7c3f 07eb 823f
00000010: 482c 833f 7deb 793f 9ce8 823f 7496 783f
00000020: 5465 783f aca6 803f 1524 7e3f 016f 7e3f
00000030: aad6 7f3f 9bdd 753f dfc0 7b3f 9562 813f
00000040: eb96 823f 427a 7f3f 9692 813f 8660 7f3f
00000050: e0c2 803f 9664 803f 5cf2 803f 78a9 7f3f
00000060: d88f 7f3f 1212 813f 8863 7e3f 0cc6 823f
00000070: b226 813f 9b3e 7f3f 93f2 803f eb9c 813f
0.99547553 1.0082719 0.98597866 1.0227975 1.0247889 0.9762495 1.0227237 0.97104573
0.97029614 1.0050864 0.99273807 0.9938813 0.99936926 0.9604127 0.9834117 1.010821
1.0202307 0.99795926 1.012286 0.9975666 1.0059471 1.0030696 1.0073962 0.99867964
0.99828863 1.008364 0.9937062 1.0216689 1.0089934 0.99704903 1.0074028 1.0126013

conv1.6.bias f4 [32]
00000000: 9330 bebb cb97 46bc 318a e23b dc5e 6abc
00000010: 1bf3 433c 5aaa b6bb fc6a 09bc f168 87bc
00000020: 8bf4 87bc bcaf 343c dc5c 57bc 0d93 793c
00000030: f342 39bc f268 393b 962f 01bc 069b 823c
00000040: 67b5 8bbc b8ea 2dbc 59af a43c dc4c be3c
00000050: 40cd 09bd 06b8 533c 6d03 e3bb 5137 19bc
00000060: f795 bdbb c4e0 a6bb 3622 a9bc ba59 e43b
00000070: 7e43 dc3c 6ee3 bc3b c805 e9bb 72f5 70bc
-0.0058041303 -0.012121151 0.0069134464 -0.014304843 0.011959816 -0.0055745067 -0.0083873235 -0.016529532
-0.0165961 0.011028226 -0.013144698 0.015232814 -0.011307466 0.0028291312 -0.0078848805 0.015943062
-0.017054273 -0.010615043 0.020103144 0.023230009 -0.033643007 0.012922293 -0.0069278986 -0.009351567
-0.0057856995 -0.005092712 -0.020646196 0.006968704 0.026887652 0.0057644164 -0.007111285 -0.014706956

conv1.6.running_mean f4 [32]
00000000: 6a34 bc3e 55a9 eb3e 9c31 ba3e 1b97 b43e
00000010: 6625 a53e 48a1 df3e 99cd ea3e c65a ad3e
00000020: 7acc c23e 0363 9d3e 45eb cd3e b929 b63e
00000030: 5370 d03e a78a bd3e bcf9 f93e c2d2 f93e
00000040: a00e 593e be47 723e 922d aa3e b797 893e
00000050: 4786 af3e 007b d13e f2ea d33e 2edf 3b3f
00000060: e747 d03e 0c8d a23e 1009 803e 618b f93e
00000070: 0960 b63e 7bd6 2e3f 4395 cd3e a9da bf3e
0.3675874 0.46027628 0.36365974 0.35271534 0.32255095 0.43677735 0.45859984 0.33858317
0.38046628 0.30739602 0.4021856 0.35578707 0.40710697 0.37019846 0.48823345 0.48793608
0.21196985 0.2366018 0.33237892 0.26873562 0.34282133 0.40914154 0.41390187 0.7338742
0.40679857 0.31748235 0.25006914 0.4873915 0.35620144 0.6829602 0.4015294 0.37471512

conv1.6.running_var f4 [32]
00000000: 27d6 0b3f 3556 b33e 1424 7b3e 5c1b 053f
00000010: 6c37 f03e 03e9 843e 7e69 973e 7021 333e
00000020: bb5a 913e 5a23 693e 76ad 993e f3bc 5c3e
00000030: b7ed 903e e40e 4e3e 3c0b 933e f32e c23e
00000040: b66d 743e fe82 e53e d242 a13e fecc 303f
00000050: 6e3c 8c3e dc58 6d3f ae18 533f 939f 463f
00000060: ff2e 9e3e f028 cc3e 7db0 e33e 4a9e 4d3f
00000070: 8818 713e 934f 023f 670e 3c3f b810 0a3f
0.54623646 0.35026708 0.24525481 0.5199487 0.46917284 0.25959024 0.29572672 0.17493224
0.28389534 0.22767392 0.30015153 0.21556453 0.28306362 0.20122868 0.2871951 0.37926444
0.23869976 0.44826502 0.31496292 0.69062793 0.27389854 0.92713714 0.82459533 0.7758724
0.3089523 0.39874983 0.44470587 0.80319655 0.23544514 0.5090267 0.73459476 0.5393176

conv1.7.weight f4 [32, 32, 4, 1]
00000000: 29c4 65bd 56c6 f3bb 8f64 893b 62a4 87bc
00000010: 27f7 c4bc ca39 3ebc 2347 d539 8de4 843d
00000020: 057b 6f3d c21f 45bd fffc 0c3d a560 39bd
00000030: 179f 7cbd a153 153d 324f a2bd fe5f 57bc
00000040: 088a 823d a613 9dbb 8a3e 5fbd 8012 68bc
00000050: 1f4d 8fbd f352 63bd 69cb 5e3d 57e5 0e3c
00000060: c5af e3bb 7d41 6dbd 7c9d 44bd 8a16 bbbd
00000070: 0e4e 86bd c9f2 8f3d 8995 83bd fb7c 56bd
00000080: 2499 8f3d 7c5a 61bc 0a31 ccba d21b eabc
00000090: 6d8a 153d e719 583d 0fd0 38bd b0a1 803b
000000a0: a68f 453d b843 49bd 3af4 34bc 8eb9 4d3d
000000b0: 143c 943c 2e83 003d e226 1a3b fb2a b53d
000000c0: be67 a03c a99c fa3c bf25 8fbd bcf0 24bd
000000d0: c485 113c c30b 0bbd d3e1 3c3b aa38 e9bb
000000e0: fc12 8bbd 5766 22bc 6e32 ab3d cad0 62bd
000000f0: 91fd 04bd baac a0bb 5937 78bb 0c0e 1c3c
00000100: b338 85bd 56b6 1abd 485e 1b3d d145 90bd
00000110: 4f47 ea3b 29db b0bd 1069 84bc 31e6 063c
00000120: 8f6d 203d a110 64bd 8ee7 453d 796a 97bc
00000130: 5dc0 a0bd 9c18 4cbb c61d 97bd 9ed4 873d
00000140: 3178 acbd 8b44 8cbd d9f6 81bd 39c9 aabd
00000150: 8a5e 1c3c 5221 aa3c 8954 c73c fa17 0ebd
00000160: 03a4 92bd 949f 90bd 808e a3bc b4af 2a3d
00000170: 7e2a a5bb 8361 65bd 0133 723d 95cc 813d
00000180: 1ff3 0abd fbb7 b83d 34ce 983d 3b4c cb3d
00000190: 1ce5 9dbd b68d 21bd 12b6 acbd faae 68bd
000001a0: 4ef4 90bd 8435 de3c add3 02bd 7a41 adbd
000001b0: d927 df3c 5706 923d 7fc5 c73c 2d9e 66bd
000001c0: ae7f 5d3c 4412 b63c 4a22 04bd 9f83 cc3c
000001d0: 0c2d 953d 0abf a03d 4ef8 bcbd 97e4 983d
000001e0: ba9b 03bd 0a83 64bd 56e9 d1bc bf25 193d
000001f0: f3eb 42bd ac1e 7cbd a6e9 cabc 9841 493c
00000200: 4546 403d 5ebf 863c a271 593d 1fb6 8cbd
00000210: b8e5 0f3d cc56 5fbb 60d4 9b3c f53a 983d
00000220: c639 acbc 362e 0ebc 8b4b f13c d543 893c
00000230: bf3a 2bbc f699 98bd 26ae 05bd 846a 9bbd
00000240: 62ba b5bc aee6 9ebd 344b 823b 8e60 673d
00000250: 15aa f8bc f03a 03bd 7d48 963d cea0 863d
00000260: b8f1 7f3d 4d38 753c da5c a2bd 492c 82bd
00000270: 4a6b 5d3d a444 5e3d 3470 b4bc 8e98 28bd
00000280: d434 90bd b293 61bd 401d 33bb b5b1 8ebd
00000290: e06a 5e3d 16f5 413d 294f 5fbd 9988 17bc
000002a0: 3741 473d 9364 b53c 7c12 413d a074 99bc
000002b0: 2e97 81bd bc13 233d 3cf3 083c b401 d73c
000002c0: a574 25bd e980 033c 95cd ae3d e5f1 0abc
000002d0: f4a2 92bd 2ad9 3bbd 8e81 bf3c 74ae 98bd
000002e0: 08a9 b23d dd6d 5f3d f5c0 1abc 923b 1f3c
000002f0: ef7e 95bd 37ba 793d e8f8 8d3d 9583 91bc
00000300: 3509 913d 5ec7 db3c 4802 873d 5a81 b0bd
00000310: ab11 443c 10a9 183b ec9f aabb 6fbe 37bd
00000320: f425 0a3d 0648 9d39 1c17 833d d711 873c
00000330: 1268 c3bb 017d d0bc 4f12 6a3d 2856 3bbc
00000340: b06c 7a3d fc79 19bd 4df1 89bd 0324 b9bc
00000350: a268 b3bd 0b3f b2bd 478f fd3c b730 14bc
00000360: d31a 41bd 2ea0 083c 8f36 6f3d 2484 68bc
00000370: f1a9 7b3d 96fc 163c 2e5d 0a3d 14d5 59bb
00000380: 20a3 d4bc f086 b2bd 1725 413d f999 4abd
00000390: 8a25 673d 9e0f be3c ff80 7a3c 1837 003c
000003a0: 5eec 5ebc 57c7 b7bd e605 fdbb f626 543d
000003b0: 1742 bc3c ab01 0fbd 09c2 b73c 9a70 9dbb
000003c0: 6fdf 09bd 0bed cd3c b2b1 b53d 7d25 ab3d
000003d0: 8475 313d bdfe f33b e63e 4b3d 3fa7 d53a
000003e0: 836c 86bd c403 5bbc 19ca 253d c7fa 84bd
000003f0: f540 8ebd 4f5d ae3c e54c a33d a432 153d
-0.056095276 -0.007439415 0.0041928957 -0.016557876 -0.024043633 -0.011610458 0.00040679527 0.06488905
0.05846693 -0.04812599 0.034420963 -0.045258183 -0.061675157 0.036456708 -0.079252616 -0.013145445
0.063739836 -0.004793602 -0.054503 -0.014164567 -0.069971316 -0.05549903 0.054393206 0.008721671
-0.0069484436 -0.057923783 -0.04800175 -0.09135158 -0.065578565 0.070287295 -0.06425006 -0.052365284
0.07011631 -0.013754483 -0.001557858 -0.028577719 0.036508966 0.052759077 -0.045120295 0.0039255247
0.048232697 -0.049136847 -0.011044556 0.050225787 0.018095054 0.031375103 0.002352171 0.088460885
0.019580718 0.03059228 -0.06989621 -0.040268645 0.00888199 -0.033946764 0.0028821125 -0.0071173506
-0.0679073 -0.009912095 0.08359228 -0.055374898 -0.032468382 -0.004903403 -0.0037874787 0.009524833
-0.06504955 -0.037771545 0.03793171 -0.070445664 0.007149614 -0.086355515 -0.016163379 0.008233593
0.039166983 -0.05567992 0.04831653 -0.018483387 -0.078491904 -0.0031142598 -0.07378726 0.066323504
-0.08421362 -0.06849011 -0.063459106 -0.083391614 0.009544024 0.020767841 0.024332302 -0.034690835
-0.07160189 -0.07061687 -0.01996541 0.04167147 -0.005040466 -0.056001198 0.059130672 0.06337849
-0.033923265 0.090194665 0.07461205 0.09926649 -0.07709715 -0.039441787 -0.08433165 -0.056807496
-0.070778474 0.027125128 -0.03194015 -0.08459754 0.02724068 0.071301155 0.024386166 -0.056303192
0.013519211 0.022225507 -0.032259263 0.024965106 0.07283983 0.07848938 -0.09227048 0.07465475
-0.032130934 -0.05578903 -0.025623959 0.037389513 -0.0475883 -0.06155269 -0.024769615 0.012283705
0.046942014 0.016448673 0.053086884 -0.06870674 0.035131186 -0.0034078835 0.019022167 0.0743312
-0.021023642 -0.00867801 0.029454967 0.016755978 -0.010451018 -0.07451241 -0.032636784 -0.075886756
-0.0221836 -0.077588424 0.00397625 0.056488566 -0.030354539 -0.03203863 0.07338045 0.0657364
0.06248638 0.014967036 -0.07927866 -0.06356103 0.054057397 0.05426468 -0.022026159 -0.041161112
-0.07041326 -0.055072494 -0.0027330667 -0.06967489 0.054301143 0.047352873 -0.054518852 -0.009248876
0.048646178 0.022142684 0.04713677 -0.018732369 -0.06327663 0.039813742 0.008358773 0.02624593
-0.040394444 0.00802634 0.085353054 -0.008480524 -0.07159987 -0.0458614 0.023377206 -0.07455149
0.087236464 0.054548133 -0.009445419 0.0097187925 -0.07299601 0.060968604 0.06932241 -0.017762939
0.07081834 0.026828464 0.06592232 -0.08618422 0.011967103 0.0023294128 -0.0052070525 -0.044859346
0.0337276 0.00029999035 0.06400892 0.016487999 -0.005963334 -0.025450232 0.057146367 -0.0114341155
0.06113881 -0.03746985 -0.067354776 -0.02260018 -0.087601915 -0.08703431 0.030952109 -0.009044818
-0.047144722 0.008338971 0.05840164 -0.014191661 0.061441366 0.009215495 0.03378027 -0.0033238577
-0.02595669 -0.087171435 0.047154512 -0.049463246 0.056432284 0.023200806 0.015289544 0.007825635
-0.013606159 -0.08973568 -0.0077216504 0.05179497 0.022980733 -0.0349137 0.02243139 -0.004804683
-0.03366035 0.025137445 0.08871783 0.0835676 0.043324962 0.0074461387 0.04962053 0.0016300454
-0.06563666 -0.013367597 0.04047594 -0.064931445 -0.06945983 0.021284727 0.07973651 0.036425248

conv1.7.bias f4 [32]
00000000: c73a 65bc b941 81bd 15e6 bdbc 7291 763d
00000010: 1860 24bd c778 cb3c 3fb9 203d 4d8a 143c
00000020: be16 f1bb a0dd bc3c 999d c53d a3a1 4e3d
00000030: 6ad4 81bd db85 87bd a013 843d a480 8f3d
00000040: f82a a23d 9f6a 483c 007f bc3c e679 223d
00000050: e9b6 c8bd 0898 953d 8b52 3c3c 0504 3fbd
00000060: 5621 903d 9516 b0bc 9ae7 a9bc f2c0 e5bc
00000070: 93b0 d4bb fc9d 9d3d 8abb 35bd d5d3 953d
-0.013991064 -0.06311364 -0.023181 0.0601973 -0.040130705 0.024837865 0.039239164 0.009066177
-0.0073574474 0.023054898 0.096492 0.050447118 -0.06339343 -0.06617328 0.06449056 0.07006958
0.07918352 0.012232452 0.023009777 0.039667033 -0.09800512 0.07304388 0.011494289 -0.046634693
0.07037608 -0.021495143 -0.020740319 -0.028046105 -0.006490776 0.07696149 -0.044368304 0.073157944

conv1.9.weight f4 [32]
00000000: 1efe 7e3f 9290 7d3f 3a9c 7f3f 039c 7e3f
00000010: 9954 7e3f da47 823f 2020 813f 292b 7e3f
00000020: f334 7f3f 030c 7f3f 8e72 7c3f 9bfa 7f3f
00000030: e44b 823f d97c 813f 548e 7a3f c88f 823f
00000040: d8de 7f3f 7908 833f 9a66 813f 7eef 7e3f
00000050: ec5c 813f 7362 7a3f ebfa 7f3f 9deb 7e3f
00000060: 81ad 813f 15ae 7b3f 95dd 783f d0d1 7a3f
00000070: a8d7 803f 9e5b 813f 5db9 803f 01d8 803f
0.996065 0.9904872 0.9984776 0.99456805 0.99347836 1.0178177 1.0087929 0.9928461
0.9969017 0.99627703 0.98612297 0.9999177 1.017941 1.0116225 0.97873425 1.0200129
0.9994941 1.0236961 1.0109437 0.99584186 1.0106483 0.9780647 0.99992245 0.9957827
1.0131074 0.98312503 0.9721311 0.979764 1.0065813 1.0106084 1.0056568 1.0065919

conv1.9.bias f4 [32]
00000000: e339 be3c 27a6 863c fde2 763c ccc0 2e3c
00000010: 1802 3e3c a86b 15bc 9ef9 82bc 2f8e f4bc
00000020: b4db a2bc 33c8 bd3c 4284 9f3b 6d88 d1bc
00000030: 5121 bd3c 77fc 3abc 4a58 a33b 3c31 ca3b
00000040: 1dab aabb 532c 873c 5bde cf3b 6bfc b73c
00000050: def3 b9bc 1908 21bc 354c 9fbb 0a51 18bb
00000060: 6b9d c43b 30e7 03bd 53eb 713b 4f85 09bd
00000070: 144c 933c a560 e0bc 9496 9ebc 8358 d5ba
0.023220962 0.01643665 0.015068767 0.010666084 0.011597179 -0.0091199055 -0.015988167 -0.029852955
-0.019880153 0.023166751 0.0048680613 -0.025577748 0.023087176 -0.011412731 0.00498489 0.00617042
-0.0052083866 0.016500628 0.0063436455 0.02245923 -0.022699293 -0.009828591 -0.0048613795 -0.0023241662
0.006000211 -0.0322029 0.0036913946 -0.0335744 0.017980613 -0.027389834 -0.01935891 -0.0016276989

conv1.9.running_mean f4 [32]
00000000: f93f a33e b7b8 9d3e 9a51 a13e 25bb 0f3f
00000010: 123d 9e3e 0176 d83e eadd 813e 7254 b03e
00000020: 28c7 9b3e 0f43 8c3e b602 a73e a0e3 583e
00000030: 263f 913e fda9 963e 59ea 5f3e a3c6 ee3e
00000040: d142 e43e 342e 7b3e 3a60 783e 8b7c db3e
00000050: e937 c23e 954b a13e 5e52 b33e f0d9 a13e
00000060: 31ae e03e 06fc c03e 3e54 f93d 8c84 a43e
00000070: 7eb9 6c3e 7f2c be3e 387e 643e 1496 dc3e
0.31884745 0.3080499 0.3150757 0.56144935 0.30905968 0.4227753 0.2536462 0.34439427
0.30425382 0.27394912 0.32619256 0.21180582 0.2836849 0.29426566 0.2186674 0.46635923
0.44582227 0.24529344 0.24255458 0.42868456 0.3793328 0.31502977 0.3502378 0.31611586
0.43882897 0.3769228 0.12174271 0.32132375 0.23117635 0.37143323 0.22313774 0.4308325

conv1.9.running_var f4 [32]
00000000: 87f2 483e e6e3 343e fafc 1a3e 346b 253f
00000010: a6e3 ee3e c7e1 e13e 7044 0b3f 000d 2f3e
00000020: 68ab 463e e099 153e 4eba 1e3e e594 043e
00000030: 48b4 463e 3d32 643e 4045 dd3d 1794 b63e
00000040: 195c ec3e 741c ec3e d63e 0a3e e0f8 da3e
00000050: 2d4f 0e3f 199c 8d3e 2ac0 d23e b798 3b3e
00000060: 8c05 163f a769 9d3e f3de 803d 8c09 383e
00000070: cda7 db3e 9928 a33e 5f12 be3e 9a9a 6c3e
0.19623767 0.17665061 0.15135565 0.64616704 0.46658057 0.44117567 0.544013 0.17094803
0.19401324 0.1460948 0.15500757 0.12947424 0.1940471 0.2228479 0.10804224 0.3565986
0.46164015 0.46115458 0.13500533 0.42768002 0.5558956 0.27658156 0.41162235 0.18319975
0.58602214 0.3074467 0.06292524 0.17972392 0.4290146 0.3186691 0.3712339 0.23105851

conv2.0.weight f4 [32, 32, 1, 2]
00000000: 2bd4 ef3d 8c3c a53d 6732 523c 49cb 03be
00000010: e41e 533d f8ff dc3d 025b d4bd 5dcc aabc
00000020: a87c 883c ba5f 29bb cead c7bd 3fdb a7bd
00000030: 9efa 71bb df04 20bd dcc5 ea3d 0349 cdbb
00000040: 2db5 be3d 9ffc 67bd 94c6 c7bd de6b 533d
00000050: 5859 d2bd 9bc6 d9bc bb0d 943d 81b2 b33d
00000060: 517d 1bbd 4da0 903d 7b8e a13c 5c27 99bc
00000070: 596c 66bc fdf8 7e3d a9b6 e2bd 6ade 5c3d
00000080: 718d f03c 8985 ddbd 4d9a f9bd 6416 abbc
00000090: 06c6 543b 691b c63c d288 243c 195e 11bc
000000a0: 5907 03be 88a5 c6bd 7362 853d 743a f3bd
000000b0: a855 76bd 568e f23d f822 353d 407b 7dbb
000000c0: cc6f ba3d c841 e5bd 551c 64bd 3d0d 97bd
000000d0: f41a 55bc c57a 7bbd a5e8 acbc 573d 87bd
000000e0: 2b5e e43d 5c6a 1d3d dea5 02be e6a8 78bc
000000f0: 6dee 0ebe d743 febb 4f39 ee3c 1204 913c
00000100: cfbf 16bd 0cf7 7fbd 9cd1 bb3d 7954 34bc
00000110: 577b a1bc 529c a5bc e70f 873d 5978 343d
00000120: eb25 eebd 0fd9 193d 3b3d b4bc 494d 593d
00000130: d665 0cbe 0ef2 9d3d 5aec f23d 5626 29bc
00000140: 9869 f23d 83ac 263d 9e36 b3bc e096 09be
00000150: ef18 7cbd ce5c 1d3d 89ea 2a3d b50b b4bd
00000160: 0168 0a3d e8c6 e33c f9ca cd3d 7a6b ef3d
00000170: fa65 fa3c 31a2 ab3d 4a22 063e 8b91 b73d
00000180: a11b 27bd 94cd 913c c4a4 a1bd 7c88 0abd
00000190: 289b e2bd 0019 533d 8ae0 063e e141 b53c
000001a0: 5a3f 15bc a6bf 22bc b1bd 293d 1b98 d23c
000001b0: a976 e83c 7f87 9dbd b49d b8bd cbf6 3cbd
000001c0: 0b26 df3d 80a6 b9bb 1b50 b6bc a53f 07bb
000001d0: 2a41 e1bd 4177 2fbc f3cd a4bd d984 b7bd
000001e0: 088d 933d 479d 933d 60c2 6eba ac65 c6bd
000001f0: 039b 34bd 75c3 bdbd b62b 91bd 75d0 063b
00000200: b45a 803b 9ce2 f0bc c25a 903b 2169 db3b
00000210: 147c 5fbd 5f08 e3bb 842e f53d e976 e8bb
00000220: 53cf 2b3d cdb8 133d fbe8 773c 73c8 b0bd
00000230: 29f8 923d 7ad2 dcbd 7f8a e3bd 7e3f f03d
00000240: 42d1 e6bd d59e 6a3d 5fc2 00be a78d 80bd
00000250: ca2c af3d 6501 82bd ec98 d13d 3b94 d7bb
00000260: 2a68 d43d 7d29 09be a917 843d 2372 cc3d
00000270: 5f48 c2bd 266e 07bd 72ab 883d 47bf 31bd
00000280: 1883 e53d 6a0d 2dbd c1eb 923c ba58 3cbc
00000290: 99c8 383d 069a b0bc 89db 003e 057e ffbc
000002a0: e63a b3bd db54 f1bb dc35 e23d 575a 983d
000002b0: ccd0 963b 6b0b f6bd c55c b53d ad82 a2bc
000002c0: 9066 9a3d 9776 d5bb 4ea1 b8bd b5de d83d
000002d0: 09f1 86bd 1bf1 b0bd 9d28 40bd 851f cc3d
000002e0: 7265 4e3d a532 c0bc 0329 abbd 73fd cf3c
000002f0: 85ba c33d b49b 8fbd 85b1 9e3c c5d1 933d
00000300: daaf c83d 65bb ae3d 530b 9abd 3f5f 713d
00000310: 34ca 313d 0127 ec3d 2bca 883c 1312 e23d
00000320: 4a1c f73d 0e66 99bd 6121 163d d315 d1bb
00000330: 48ad 323d 71fe 0abe c4c7 6d3c 0478 bb3c
00000340: ca2e efbd 182f d2bd c48c 21bd a830 0e3d
00000350: be95 c63d 1e4a 9a3d aacd 16be 8741 73bd
00000360: fb3f a93d e31f c93d 2de4 f63d 15b6 cbbd
00000370: 9457 dc3d 3a1d 0d3d 0af1 d73d 9c0d ddbd
00000380: 5f62 b03d c80c c2bd ab65 3abd e894 28bd
00000390: a377 0c3d b6db a43d d4ae 9e3c 2c56 b8bd
000003a0: 0478 853d 1601 743c 773f 8d3d 4526 303d
000003b0: 985e ef3d 351a a03d df5e eebd 919b c6bd
000003c0: fc7d 2bbc 5a50 c0bd 4303 80bd 3860 0fbd
000003d0: a505 a1bd 6c8e b3ba f218 103d 7d72 9bbb
000003e0: 6575 ccbc eed9 f33c 37d2 ca3d 85f8 e3bd
000003f0: afd4 3e3c 42d6 74bd a114 dbbd 52b9 af3d
0.1171039 0.08068189 0.0128294 -0.12870516 0.05154313 0.1079101 -0.10368921 -0.020849401
0.016661003 -0.002584441 -0.097499475 -0.08196115 -0.003692306 -0.039067145 0.1146352 -0.006264807
0.093119 -0.056637403 -0.09754673 0.051616542 -0.10270947 -0.02658396 0.072291814 0.08774281
-0.037961308 0.07061825 0.01972126 -0.018695526 -0.014063918 0.062249172 -0.11069996 0.053923048
0.02936432 -0.108164854 -0.12187634 -0.0208847 0.0032466664 0.024182992 0.010042386 -0.008872532
-0.12795772 -0.09699541 0.06512918 -0.118763834 -0.060140282 0.11843555 0.044222802 -0.00386782
0.09103355 -0.111941874 -0.055691082 -0.07375572 -0.013006914 -0.06139638 -0.021107027 -0.066034965
0.111507736 0.03843151 -0.12758586 -0.015176987 -0.1395814 -0.007759552 0.029080061 0.017702136
-0.036804017 -0.06249146 0.09170839 -0.011006468 -0.019712133 -0.02021614 0.0659483 0.044060085
-0.11628326 0.03756052 -0.022001853 0.05305222 -0.13710722 0.07712184 0.11861487 -0.010324081
0.11836547 0.040691864 -0.02187663 -0.1343646 -0.061547216 0.038418584 0.041727576 -0.087912954
0.033790592 0.027804807 0.100484796 0.116904214 0.030566204 0.08380545 0.13099018 0.08963307
-0.040797833 0.017798223 -0.07892755 -0.033821568 -0.1106475 0.051537514 0.13171592 0.02212614
-0.0091093425 -0.009933388 0.04144067 0.025707295 0.028376894 -0.076918595 -0.090144545 -0.046133798
0.10895928 -0.0056656003 -0.022254994 -0.00206373 -0.10998757 -0.010709585 -0.08047094 -0.089608856
0.07204634 0.07207733 -0.00091079436 -0.09687361 -0.044093143 -0.09265796 -0.07088415 0.0020571027
0.0039170627 -0.02940493 0.0044053504 0.006695882 -0.05456169 -0.006928488 0.11971763 -0.0070942533
0.041945767 0.03606491 0.0151312305 -0.08631983 0.07176239 -0.10782333 -0.111104004 0.1173086
-0.112703815 0.05728038 -0.12574147 -0.06277018 0.08553465 -0.06347922 0.10234246 -0.0065789497
0.1037143 -0.13394733 0.06449825 0.09982707 -0.0948646 -0.03306403 0.066733256 -0.043395307
0.11206645 -0.04224912 0.017934682 -0.011495763 0.04511318 -0.02155782 0.12583746 -0.03118802
-0.08751468 -0.007364852 0.11045429 0.07439106 0.0046025272 -0.120138966 0.08855585 -0.019837702
0.075390935 -0.006514381 -0.090151414 0.10589353 -0.065889426 -0.08639737 -0.04691373 0.099669494
0.050389715 -0.02346165 -0.08357432 0.025389409 0.0955706 -0.0701212 0.019371757 0.07217745
0.09799166 0.085318364 -0.07521691 0.058928724 0.043405727 0.11530877 0.016697964 0.11038604
0.120659426 -0.074901685 0.036652926 -0.0063807755 0.043622285 -0.13573624 0.01451296 0.022884376
-0.11678846 -0.10262889 -0.039440885 0.03471437 0.0969653 0.07533668 -0.14726892 -0.059388664
0.082641564 0.09820535 0.1205524 -0.09946839 0.10758892 0.0344517 0.105440214 -0.107936114
0.08612513 -0.09475094 -0.045507114 -0.041157633 0.034293782 0.08049719 0.019370474 -0.09000811
0.06517032 0.014892837 0.068968706 0.043005247 0.11687964 0.078174986 -0.11639189 -0.09697641
-0.010467049 -0.09390326 -0.06250622 -0.03500387 -0.07862405 -0.0013699061 0.03518004 -0.0047438727
-0.024958322 0.029767003 0.099033765 -0.11131386 0.011647387 -0.059774645 -0.10697294 0.08580269

conv2.0.bias f4 [32]
00000000: 94a0 8abd 3b0c cc3d 1138 41bd 4661 efbd
00000010: 3822 c5bb 7a08 4abd 24a4 ff3d cf10 4abc
00000020: 01c0 1ebc 3312 6fbd 7fb7 3dbd 154c be3d
00000030: 5c0f cf3c b254 06bd 1bd6 15bd de56 9f3d
00000040: e4a7 993d 1730 0a3e b001 ab3d 429e ccbd
00000050: 35ab bf3d 2e8c 8b3d 290b b83d 8c93 223c
00000060: 0211 c4bb 2472 2e3d 5822 8e3d 42d4 d53d
00000070: e3d9 343d b9ad c3bc 9f76 d9bd 0bbe fabc
-0.06768909 0.0996327 -0.04717261 -0.11688475 -0.006016042 -0.04932449 0.12482479 -0.012333109
-0.009689332 -0.058366966 -0.046317574 0.09291855 0.025275879 -0.032795615 -0.03658114 0.077802405
0.07502726 0.13494907 0.08349931 -0.09991123 0.09358827 0.068138465 0.08986504 0.009922873
-0.005983473 0.04258932 0.06940144 0.104408756 0.044153105 -0.023886548 -0.10618328 -0.030608198

conv2.2.weight f4 [32]
00000000: 48fb 7e3f ab57 823f 823c 823f 984a 7c3f
00000010: 27d6 7d3f d580 7f3f 19df 7d3f 5dd0 813f
00000020: db61 813f 2035 813f 3323 7d3f 2454 803f
00000030: 3f49 803f eef0 7c3f 3124 813f 9ef7 7a3f
00000040: d7b7 7f3f 16ad 803f 8faf 7f3f 6f86 7d3f
00000050: 0789 823f efc6 7f3f 56b9 823f 3ac9 7a3f
00000060: 5ed3 7e3f 48f2 783f 32e9 7b3f 0c7e 803f
00000070: c6f5 803f f1e7 7d3f 800d 813f 491f 803f
0.99602175 1.0183004 1.0174716 0.9855132 0.99154896 0.9980596 0.99168545 1.0141712
1.0107988 1.0094337 0.98881835 1.0025678 1.0022353 0.9880513 1.008917 0.98034084
0.9988989 1.0052822 0.99877256 0.99033254 1.0198067 0.99912924 1.021281 0.979633
0.9954127 0.9724469 0.984027 1.0038466 1.0075004 0.9918204 1.0082245 1.0009547

conv2.2.bias f4 [32]
00000000: f667 223a 8e8d 5abb 88c9 5f3c 3459 503c
00000010: 8f07 52bc 16be 4dbc fb8c 773c c0ed 213c
00000020: 2192 993c 3715 343c 13ac 933b ae56 69bc
00000030: a619 01bb fead 3bbc 6a26 94bb c702 b239
00000040: 8fbb b1bb 1d90 2a3b 1859 dc3a 8dad 11bc
00000050: 940b 5cbc 7efb 0e3c 01f2 e2bb e948 ffba
00000060: 6372 633b d070 2abc 7f07 c0bc a047 f9bb
00000070: 0263 9abb 0307 9f3c 3350 05bc 8d80 70bc
0.0006195301 -0.0033348533 0.013658889 0.01271658 -0.012819185 -0.012557527 0.015109296 0.009883344
0.018746438 0.010991386 0.004506597 -0.014241857 -0.0019699126 -0.011455057 -0.004521181 0.00033952875
-0.00542397 0.002602584 0.001681122 -0.008891475 -0.013430495 0.008726953 -0.006925822 -0.0019476685
0.003470563 -0.010402873 -0.023441074 -0.0076074153 -0.0047115097 0.019412523 -0.008136797 -0.014679086

conv2.2.running_mean f4 [32]
00000000: 6a95 7e3e fe51 8b3e 2c7f 833e 78dc 703e
00000010: 20c6 993e 1b35 413e 0f1a 9f3e 2011 813e
00000020: 5892 893e 51bf 3b3e 9c34 7c3e 1c3d 8c3e
00000030: e521 633e a4e3 983e 756b 963e d0cf 7e3e
00000040: 4ef7 843e 6faa d23e d8f0 813e b0bd 773e
00000050: 341e b63e dae4 973e 1a76 8f3e 376a 5d3e
00000060: c209 5c3e 7d26 443e 132e a93e b1e1 8a3e
00000070: cc80 a33e 04cf 903e 2859 823e e200 763e
0.24861684 0.27210993 0.25682962 0.23521602 0.3003397 0.18867914 0.3107457 0.25208378
0.26869464 0.183347 0.24629444 0.27390373 0.22180898 0.29861176 0.29378858 0.24883962
0.25969929 0.41145656 0.25379062 0.24193454 0.35569918 0.29666787 0.28019792 0.21622549
0.21488097 0.19155307 0.33042964 0.27125314 0.31934202 0.2828294 0.25458646 0.24023774

conv2.2.running_var f4 [32]
00000000: 2b81 0d3e 5912 403e 835c 9d3e b29c 533e
00000010: 0989 4c3e a305 eb3d c7fa 013e 9782 463e
00000020: 1158 f13d 1f67 163e 2f05 133e 8675 443e
00000030: 2df5 0c3e 6b98 103e 7662 9a3e 86a9 f93d
00000040: b5c3 dd3d b57d 9e3e f57d 1e3e b975 073e
00000050: 07b4 8a3e b0f5 283e 12d6 423e 6462 2a3e
00000060: 5481 fa3d b941 003e 506d 7e3e e791 003e
00000070: 32e0 513e c2ff 313e ea73 503e 8a8c 0e3e
0.13818805 0.18756999 0.30734643 0.20665243 0.1997415 0.114756845 0.1269332 0.19385754
0.117843755 0.14687775 0.14357446 0.19185457 0.13765402 0.14120643 0.30153245 0.12190537
0.10828344 0.30955282 0.15477736 0.13228501 0.27090475 0.16499972 0.19026974 0.16639096
0.12231699 0.12525071 0.24846387 0.12555657 0.2049568 0.1738272 0.20356718 0.13920799

conv2.3.weight f4 [32, 32, 4, 1]
00000000: 59c8 7f3c c6f6 f63c 2676 a8bd e993 a0bd
00000010: 84fb cdbb 8912 2bbd 58b2 a3bd 815a b53c
00000020: bb09 b53d a93a a93d 8c83 953d 4656 99bc
00000030: 44af f6bc 966e 0ebd 4318 5d3d dbae 37bd
00000040: 62bb 463d b663 3f3c eef4 89bd 650a b6bc
00000050: 6956 fc3a ceee 183c 19ec 87bd dfc3 a3bd
00000060: fb7d a33c 1302 1bbd 2487 9abd 5b76 d6bb
00000070: 02b2 9d3d 76b9 0abd c3d7 853d 6d02 ae3b
00000080: bce9 003d f57e 1bbd c725 44bd 9553 133d
00000090: a8de 5fbd 5783 4b3d 8b41 98bd ebe1 fb3c
000000a0: 7127 79bd ec44 c2bc cc7c f6bc 4396 f4bc
000000b0: e082 833d e3a7 003d ac14 a63d 2ea1 e73c
000000c0: 744a a4bb 3039 7ebc 6436 3d3d c8ad 753d
000000d0: 592c b83c 8d9a 0e3d 6fbc bcbd 90ce e53c
000000e0: f138 0cbd a267 c43b 8ccf 91bc f936 b6bd
000000f0: 3633 a83d a2e0 5f3d 194f 853c 4229 0fbd
00000100: 19db 153d 4c51 11bd 794f 5fbd 2e97 713d
00000110: 1c9c 113d 7dd2 b9bc 1c8a a5bd 67a9 683d
00000120: ce8f 9e3c 6d94 0e3d 4fe7 42bd ccdc 9dbc
00000130: 406f 8d3d 60b5 b23d a4c6 b73d 9610 79bd
00000140: 031d 78bc 31b3 a13c b143 f93c 0069 763d
00000150: 5785 03bd df71 b2bc 5cfa 9b3d c43b 12bd
00000160: 2eb7 6f3d 0e59 78bc e32d a7bd f106 643d
00000170: 927a a23d 4158 af3d fb3f 1dbd 52fd 1e3d
00000180: e9b2 a4bd ec65 3a3d 67f2 a7bd 53f3 8b3b
00000190: 0648 843c bc26 80bd a0ef 183c b5a5 7b3d
000001a0: aa1b a3bd 0a29 cb3c c808 5c3d 8be1 4b3d
000001b0: deef c93d 4b48 91bd 37cf d3bc 58f0 edba
000001c0: 5abb f1bc b145 5cbd 2cde 7bbd 8741 613c
000001d0: 0fbd 973c 32cc e9bc a81b 90bd 9a60 b6bd
000001e0: a8ac fdbc f737 9d3d 6987 9dbd 47f8 543d
000001f0: 2883 2f3d 8d33 03bd 902f 38bd 6959 973d
00000200: 5af0 7c3d 12dc a3bd 431c 9cbd 9541 b0bb
00000210: feea 303d 5b41 db3d 53f8 113d fb23 b43c
00000220: 44a8 a83c 0ffd 8dbd 1aaa 873b c476 0cbd
00000230: d142 9f3b 2cd1 7e3d 4b84 063d 7fa0 513d
00000240: 36ac bdbc 4834 a0bd f061 863d f7b2 4ebb
00000250: 643a 75bb f771 21bd 70d3 60bd 13df c33c
00000260: c717 34bd 4253 813b ddc5 8dbd af48 8ebd
00000270: e79e 0c3d 0db7 f1bb 7ce4 5e3c e118 6dbd
00000280: 722e 56bc e592 853d 7141 b73d f9c4 51bd
00000290: 9e10 c3bd c463 6a3d f66a 8c3d da62 43bd
000002a0: 5976 80bd 528e babd 2563 35bd 34ab 3dbd
000002b0: c2f1 8cbd 7a93 963a c3f0 7e3d 1d40 b73c
000002c0: 3f88 17bd 7fc7 6bbd 01b9 9f3c 1e31 b53d
000002d0: e2b9 8a3a b05e 22bc dda5 9c3d 0201 ddbc
000002e0: 3154 b2bd 051d a5bd fcb2 343b 3b8d be3c
000002f0: 126b 9b3c 6f16 dfbc f7f0 6cbb 9e54 8e3d
00000300: 63c1 b13c 8b9a 47bd 7ec5 a63c a63a 523d
00000310: 99d6 733d 4d1d 22bb 3c5e cebc 8ba4 103d
00000320: 332e c53c 69bd 30bd 9b42 7fbd 9877 b4bd
00000330: bc73 993d ce49 573c 0a78 e93b f984 d13c
00000340: 9381 85bb 9861 9c3d 46a1 c63d dac1 5a3d
00000350: ec03 8e3c 6a40 4d3d 3e41 90bd f70d 33bd
00000360: 49b4 98bd 6a2c 4c3d d77f f1bc 7d01 803d
00000370: c94f 5b3c 69f3 583d b9d7 dbbc 2c0d bdbb
00000380: 7965 2abc 9475 98bb d01e 8ebd a979 b7bd
00000390: 6020 b2bd 016e 24bd a968 623d a6a1 0d3d
000003a0: 57cf 5cbd d3d8 263d 9d39 1dbd f71f 883c
000003b0: ad31 d23c 637d 4bbd 5dab 323d 5098 2c3d
000003c0: 0fc8 6cbd a763 7e3d 6899 6a3d 24a6 80bc
000003d0: 5096 e1bc 6318 6dbd 132c 8dbc 64a0 a93d
000003e0: 79cc b73d 83b9 61bc be96 aa3c 7522 983d
000003f0: 8fd9 90bb 956b 983d f24e aabc bd18 d43c
0.015611731 0.030146968 -0.0822566 -0.078407116 -0.0062860865 -0.041765723 -0.07993001 0.022137882
0.088397466 0.08263142 0.07300481 -0.018717896 -0.03011287 -0.03477343 0.053978216 -0.04484449
0.048518546 0.011681488 -0.0673617 -0.022221753 0.0019251826 0.009334279 -0.06636829 -0.07996344
0.019957533 -0.037843775 -0.07545307 -0.006544871 0.07699968 -0.033868276 0.06535294 0.005310348
0.031472906 -0.037962873 -0.04788759 0.035968382 -0.0546557 0.049685802 -0.07434376 0.030747375
-0.06082863 -0.023714505 -0.030088805 -0.029856807 0.06421447 0.03141011 0.081094116 0.028275099
-0.0050137583 -0.015516564 0.04619445 0.059980184 0.022482084 0.03481536 -0.09215628 0.028052598
-0.03423399 0.0059937993 -0.017799161 -0.08897204 0.08212893 0.054657586 0.016273068 -0.034951456
0.0365859 -0.03547792 -0.05451915 0.058982067 0.035549268 -0.022683376 -0.08082983 0.05680218
0.01935568 0.03480952 -0.047583874 -0.019270323 0.06905985 0.08726001 0.089734346 -0.060806833
-0.015143636 0.019738765 0.030427786 0.06015873 -0.032109585 -0.021782814 0.07616112 -0.03570153
0.058524303 -0.015157951 -0.08163049 0.055670682 0.07933535 0.08561755 -0.038391095 0.038815804
-0.08041937 0.045507357 -0.082005315 0.00427095 0.016147625 -0.06257388 0.009334475 0.061437327
-0.07964261 0.024799842 0.053719312 0.04977564 0.09860204 -0.07093867 -0.025855644 -0.0018153293
-0.029508281 -0.0537774 -0.061491176 0.013748533 0.018522767 -0.02853975 -0.07036525 -0.08905144
-0.030966118 0.0767669 -0.07691843 0.05199459 0.04284969 -0.032031585 -0.044967234 0.073901005
0.061752655 -0.080009595 -0.07622578 -0.0053789117 0.043192856 0.10705825 0.03563721 0.021989813
0.020588048 -0.06933033 0.0041401507 -0.03429295 0.00486026 0.0622112 0.03284101 0.05117845
-0.023153406 -0.07822472 0.06561649 -0.0031539777 -0.0037418837 -0.039415326 -0.054889143 0.023910081
-0.04396799 0.0039466927 -0.06922505 -0.06947457 0.03433123 -0.0073765577 0.01360428 -0.057885054
-0.013072597 0.065221585 0.08948029 -0.05121324 -0.09524654 0.05722405 0.06856339 -0.047701694
-0.06272573 -0.09109177 -0.044284005 -0.04630585 -0.06882049 0.0011488043 0.062241327 0.022369439
-0.03699517 -0.0575633 0.019497396 0.08847259 0.0010583962 -0.009910271 0.076488234 -0.02697802
-0.087074645 -0.08062176 0.0027572503 0.023260703 0.018971954 -0.027232377 -0.0036154368 0.06949733
0.02169866 -0.048731368 0.020357843 0.051325463 0.05953083 -0.0024736703 -0.025191419 0.03531317
0.024069881 -0.043149386 -0.06231938 -0.08811873 0.07492778 0.013140155 0.0071249055 0.025576102
-0.0040742843 0.07635802 0.09698729 0.053407528 0.017335854 0.05011026 -0.07043694 -0.04371449
-0.07456262 0.049847044 -0.029479904 0.06250284 0.0133857215 0.05296651 -0.026836263 -0.0057693925
-0.0104001695 -0.0046526883 -0.06939471 -0.08958752 -0.08697581 -0.04014397 0.055275593 0.034577988
-0.053908672 0.040734123 -0.038385022 0.016616805 0.025658453 -0.049680125 0.043620456 0.042137444
-0.05780798 0.062106755 0.057275206 -0.015704222 -0.027537495 -0.057884585 -0.01723293 0.08282545
0.08974547 -0.01377714 0.020823833 0.07428447 -0.0044204663 0.07442395 -0.020789597 0.025890702

conv2.3.bias f4 [32]
00000000: 51fd 983d 0d76 42bb 1d11 2a3d abb5 bd3d
00000010: fcf6 2cba df67 14bc bdf6 b83d ab4d 0fbd
00000020: 1983 a4bc 7573 6c3d 5c3a 743d fd10 9fbb
00000030: b290 093a 7a91 873d 50f1 963d fa08 57bd
00000040: 33d4 80bd be8c 953d 5d24 5ebd 7b0f 92bd
00000050: eec7 063d 3b47 17b8 19a1 613d 8a9d 093d
00000060: e947 cc3d 02f4 fabc b7fa a7bd 8112 ac3d
00000070: 3ef5 23bd b817 febb 553a 913d 3a4b dcbc
0.07470191 -0.0029672415 0.041520227 0.09263166 -0.0006598083 -0.009057968 0.090314366 -0.03498618
-0.020082043 0.057727296 0.05962597 -0.00485432 0.00052476965 0.06619544 0.073702455 -0.052498795
-0.06290474 0.07302235 -0.054233897 -0.07131859 0.03290551 -3.6067544e-05 0.055085275 0.033597507
0.09974653 -0.03063393 -0.08202117 0.08401967 -0.040028803 -0.0077542923 0.07091204 -0.02689134

conv2.5.weight f4 [32]
00000000: 6180 7c3f 2f8c 7d3f 0d81 7f3f acaf 803f
00000010: ae22 7f3f 7c1e 823f 6cc7 7c3f 42c2 803f
00000020: 37b7 7a3f 436f 7f3f 0ab8 7f3f 698e 803f
00000030: 4911 803f 2f2b 7f3f d4eb 7f3f 2c39 803f
00000040: f817 803f 2173 7f3f c4c7 783f f55b 7f3f
00000050: a4f0 813f b648 823f b6c3 813f a1c9 823f
00000060: 3eab 7f3f f0ec 7d3f 17ff 7d3f 014a 7c3f
00000070: b8f1 7d3f b39d 7f3f d648 7f3f 64d1 833f
0.9863339 0.9904203 0.9980629 1.0053611 0.9966229 1.0165553 0.98741794 1.0059283
0.97935814 0.99779147 0.99890196 1.004346 1.0005275 0.9967527 0.9996922 1.0017447
1.0007315 0.9978505 0.9717982 0.9974969 1.0151563 1.017844 1.0137851 1.0217782
0.9987067 0.9918966 0.9921736 0.9855042 0.9919696 0.99850005 0.99720514 1.0298276

conv2.5.bias f4 [32]
00000000: 8f91 b9ba 5252 2c3b 223d 3f3b 30b6 2bbc
00000010: b67b e8ba b9f9 d23c e488 233c 16d3 203c
00000020: e638 5d3c 6b55 9eba 3afd 2f3c 1202 40b9
00000030: 8cbe e93b 7e86 ca3c 381f f9bb 910d 313c
00000040: d930 90bc 4b6e e4bc c2c2 3d3b d42d 5bbc
00000050: de81 1d3a f17c e43b b0d1 e1bc 07f3 54bb
00000060: 307c 3bbc c4c3 0ebc a169 5bbc 162b 5bb9
00000070: b442 613a fcdd 833c 3a3c 99bc c8fb acbc
-0.001415776 0.0026294184 0.0029180725 -0.010480449 -0.0017737064 0.025753843 0.009981368 0.009815952
0.013502335 -0.00120799 0.010741526 -0.00018311318 0.0071333107 0.024722334 -0.0076025985 0.010806457
-0.017601417 -0.027884623 0.0028955196 -0.0133776255 0.00060084264 0.006972902 -0.027565807 -0.0032493488
-0.011443183 -0.008713666 -0.013391883 -0.00020901518 0.00085930084 0.016097061 -0.018705476 -0.021116152

conv2.5.running_mean f4 [32]
00000000: 37ea 9a3e d32f a03e 88c9 853e e71e a53e
00000010: ea1a ba3e f3d2 a83e eb69 933e a27a 873e
00000020: 0d93 de3e e0d6 613e b528 893e bf34 a93e
00000030: b14d 523e e842 6b3e e149 b03e 4974 9a3e
00000040: 1bbf ac3e 307a a13e 881b 103e cff0 893e
00000050: 4abc b63e 427c 913e d5e9 a43e b1cc a83e
00000060: 08b7 ae3e 82ad a33e b20a 3c3e 3e2b b13e
00000070: 7e61 633e 6a42 203e dc35 983e 0af2 2c3e
0.30256817 0.31286487 0.2613032 0.3225014 0.3634866 0.3297344 0.28791746 0.2646075
0.43471566 0.22054625 0.2678887 0.33048055 0.2053745 0.22974741 0.34431365 0.30166844
0.33739552 0.31538534 0.14073002 0.26941535 0.35690528 0.28415114 0.3220965 0.32968667
0.34124017 0.31968313 0.18363455 0.34603304 0.22205159 0.15650335 0.2972859 0.16889206

conv2.5.running_var f4 [32]
00000000: be90 c03e 3239 803e ed36 2d3e c7ea 563e
00000010: 87a9 913e 91b3 943e 9625 a63e f8c8 1d3e
00000020: f32c 8d3e bf00 ec3d 9871 303e dc0f 7f3e
00000030: 6974 d13d 238c 263e f468 563e 2341 3d3e
00000040: 9d87 783e 0d53 843e 7fdd d03d 7c79 113e
00000050: c9a6 fc3e 02a7 543e 4d8a 913e 3544 133e
00000060: c86b 803e d589 b13e cf64 d73d 63df 643e
00000070: a5c1 f23d 11b6 e53d 0eb7 2d3e e985 523e
0.3761043 0.25043637 0.16915484 0.20987998 0.28449652 0.29043248 0.3245055 0.15408695
0.27573356 0.1152358 0.17230833 0.24908394 0.102272816 0.16264395 0.20938474 0.18481879
0.24270482 0.25844613 0.10198497 0.14206499 0.49345997 0.20766833 0.28425828 0.14381488
0.2508223 0.3467547 0.105172746 0.2235084 0.11853341 0.11216367 0.16964361 0.20558895
