trained_models/CNN_LSTM/CNN_LSTM_Zscore_CF1_pred_4.pth (torch, 615091 bytes, 90 tensors)

conv1.0.weight f4 [32, 1, 1, 2]
0.26828074 -0.39210743 0.47922522 0.30663738 -0.22388883 -0.051008668 0.47155112 0.6400345
-0.20151097 0.55700254 -0.61116916 0.45698053 0.67747086 -0.19185154 -0.23657861 -0.4946184
0.25404638 0.56588936 0.47721595 -0.55145645 0.5785815 -0.4996178 -0.13609016 -0.36334828
-0.24712656 0.080065094 -0.16883256 0.32346696 -0.57554036 0.11124508 -0.59842485 -0.31210145
-0.13435315 -0.22593574 -0.1342142 -0.3818552 -0.29628417 0.3640048 0.13213252 -0.20889732
-0.095146865 -0.31968117 -0.5197109 0.57153535 -0.17371026 -0.052498974 0.24869138 0.015122256
0.25701433 0.59203595 -0.037914254 -0.55754954 0.5630474 -0.45780334 0.36206666 0.45033887
-0.23527688 -0.52227354 -0.54135287 -0.5231754 0.5332468 0.39578542 -0.16775155 0.335441
00000000: 185c 893e 4ec2 c8be 025d f53e 93ff 9c3e
00000010: 1d43 65be 77ee 50bd 266f f13e 4dd9 233f
00000020: e458 4ebe b897 0e3f 9575 1cbf 5af9 e93e
00000030: bb6e 2d3f bb74 44be aa41 72be 9f3e fdbe
00000040: 5e12 823e 20de 103f a655 f43e 402c 0dbf
00000050: eb1d 143f e7cd ffbe 385b 0bbe c908 babe
00000060: bf0e 7dbe 2bf9 a33d 71e2 2cbe 769d a53e
00000070: 9d56 13bf 76d4 e33d 5f32 19bf c3cb 9fbe
00000080: df93 09be b35b 67be 726f 09be 8682 c3be
00000090: 8fb2 97be d65e ba3e bf4d 073e 2ee9 55be
000000a0: 5cdc c2bd 40ad a3be c60b 05bf 2450 123f
000000b0: 1ae1 31be 2a09 57bd f4a8 7e3e 57c3 773c
000000c0: 6297 833e ab8f 173f fa4b 1bbd 91bb 0ebf
000000d0: e023 103f 3365 eabe cd60 b93e d192 e63e
000000e0: 6cec 70be b8b3 05bf 1a96 0abf d3ee 05bf
000000f0: dd82 083f 63a4 ca3e 10c7 2bbe ecbe ab3e

conv1.0.bias f4 [32]
0.5786663 -0.49496683 0.45172116 -0.24560381 0.6782309 0.56552494 0.040004205 0.49437627
0.6501005 -0.36097643 -0.7498932 -0.11521447 -0.4059107 -0.50092 -0.5105351 -0.21325335
-0.2849779 0.30284572 0.24292965 -0.29893833 0.40322694 -0.62943035 -0.3165589 0.52483743
-0.61032516 -0.5346111 -0.14888121 -0.29973516 -0.36513004 -0.39928952 -0.38242248 -0.24722098
00000000: 7a23 143f 4b6c fdbe ff47 e73e 917f 7bbe
00000010: 8aa0 2d3f 3ec6 103f 73db 233d e31e fd3e
00000020: fd6c 263f e7d1 b8be 00f9 3fbf 90f5 ebbd
00000030: 87d3 cfbe 4b3c 00bf 6eb2 02bf 165f 5abe
00000040: a0e8 91be 980e 9b3e 8dc2 783e 720e 99be
00000050: c373 ce3e 5922 21bf 0214 a2be bf5b 063f
00000060: 453e 1cbf 46dc 08bf 5174 18be e376 99be
00000070: 53f2 babe ad6f ccbe e1cc c3be 7f27 7dbe

conv1.2.weight f4 [32]
0.9750157 0.9902893 0.9564085 1.0078205 0.9828121 0.9633067 0.96370584 1.0372384
1.0112005 0.9854873 0.98849285 1.0311626 1.0085207 0.99246377 1.000801 0.9846629
1.021767 1.0412219 0.98544896 1.0639974 1.0124636 1.0205215 0.9927359 0.9544977
1.0001266 1.0042278 0.9534539 1.0053881 1.0166266 1.0087669 1.0404063 1.0052495
00000000: a19a 793f 9983 7d3f 30d7 743f 4300 813f
00000010: 9399 7b3f 459b 763f 6db5 763f 3ac4 843f
00000020: 056f 813f e548 7c3f de0d 7d3f 23fd 833f
00000030: 3517 813f 1b12 7e3f 3f1a 803f de12 7c3f
00000040: 43c9 823f c246 853f 6246 7c3f 1131 883f
00000050: 6898 813f 73a0 823f f123 7e3f f659 743f
00000060: 2604 803f 898a 803f 8e15 743f 8fb0 803f
00000070: d220 823f 461f 813f 092c 853f 04ac 803f

conv1.2.bias f4 [32]
-0.008614142 0.022980317 -0.0048826123 0.020736333 0.02798048 0.019068716 -0.021930018 0.0047082207
0.0059757987 -0.005623669 -0.01047032 0.0052922014 0.025905933 0.007460959 0.012597102 0.026088525
9.27734e-05 0.0078061735 0.0048209103 -0.058218602 0.011822482 -0.015419307 0.017446954 -0.005601145
-0.0033630324 -0.00044056182 -0.0295569 0.01797751 -0.0062369183 0.008303317 -0.0061310697 -0.007831555
00000000: 5522 0dbc 3841 bc3c 52fe 9fbb 3edf a93c
00000010: 5237 e53c ff35 9c3c 95a6 b3bc 6b47 9a3b
00000020: a2d0 c33b c146 b8bb b48b 2bbc 346a ad3b
00000030: ae38 d43c 0f7b f43b 1364 4e3c 9ab7 d53c
00000040: 578f c238 eeca ff3b baf8 9d3b a176 6ebd
00000050: 15b3 413c 43a1 7cbc eaec 8e3c cf89 b7bb
00000060: 5266 5cbb 35fb e6b9 5021 f2bc 9245 933c
00000070: 105f ccbb a30a 083c 24e7 c8bb ec4f 00bc

conv1.2.running_mean f4 [32]
0.62136436 0.008932364 0.46007633 0.10749365 0.6935337 0.734403 0.36297685 0.54662275
0.647343 0.17595935 0.06368862 0.03901785 0.0004934317 0.035696257 0.03537283 0.14818847
-0.0026376136 0.3518402 0.36768484 -0.0013999813 0.4320379 0.12981607 -0.0031022031 0.5153472
0.05281944 -0.0054006553 0.28556955 0.049468182 0.011930662 0.07198932 0.049300376 0.077885255
00000000: bc11 1f3f 0d59 123c 208f eb3e a125 dc3d
00000010: 6d8b 313f d601 3c3f 1ad8 b93e 78ef 0b3f
00000020: 45b8 253f b02e 343e 2e6f 823d 2ed1 1f3d
00000030: a459 013a 3d36 123d 1ae3 103d b8be 173e
00000040: d0db 2cbb 6624 b43e 3041 bc3e 947f b7ba
00000050: 1234 dd3e 81ee 043e 554e 4bbb cbed 033f
00000060: 3259 583d fbf7 b0bb 2c36 923e 269f 4a3d
00000070: d378 433c 236f 933d 31ef 493d 4e82 9f3d

conv1.2.running_var f4 [32]
0.1736836 0.013368509 0.04221512 0.1655173 0.44818217 0.56205654 0.2026669 0.07710726
0.2715463 0.060693417 0.014882497 0.005063578 0.001390697 0.041113414 0.010902133 0.041362453
1.0010656e-05 0.03457296 0.20819594 6.1075836e-05 0.0326074 0.20679036 2.4727321e-06 0.05744584
0.11215759 3.0171395e-05 0.1326334 0.06691637 0.0022565976 0.019471519 0.03622531 0.070784375
00000000: 1dda 313e 9707 5b3c c3e9 2c3d 5e7d 293e
00000010: 2278 e53e f0e2 0f3f e987 4f3e 69ea 9d3d
00000020: 1e08 8b3e a999 783d b7d5 733c 5fec a53b
00000030: 0c48 b63a 8a66 283d dc9e 323c ad6b 293d
00000040: 71f3 2737 609c 0d3d 5131 553e d715 8038
00000050: 568f 053d dac0 533e 37f1 2536 544c 6b3d
00000060: e1b2 e53d 9418 fd37 0dd1 073e 730b 893d
00000070: 6de3 133b bc82 9f3c fe60 143d 66f7 903d

conv1.4.weight f4 [32, 32, 4, 1]
0.08169382 -0.033557694 -0.021442251 -0.0043933643 0.03486998 0.041936055 -0.0241213 0.07738139
0.07901311 0.046988234 0.059354074 0.0026825536 0.073080555 -0.07078959 -0.035256058 0.06960294
-0.080820724 0.024823595 -0.018724652 0.037027013 -0.02851948 -0.0099630905 0.049359843 0.03376079
-0.027910756 -0.014209923 -0.018242639 -0.043531746 0.07328124 -0.02630834 0.09191354 -0.010646579
0.04753157 -0.03860977 -0.063589305 0.059431724 0.008766773 0.061320856 0.085798204 0.04590978
-0.028978327 -0.0028922665 -0.0787815 -0.058374435 0.057372324 0.042546157 0.08876251 0.08633619
0.035034806 0.053362776 0.053888783 -0.047122434 0.077386 -0.026539069 0.04993561 0.0680489
-0.084399395 -0.026458832 -0.09597238 -0.020746272 -0.078430384 0.025382148 0.012422811 0.04928141
0.033404253 0.024100363 0.032833423 0.05440549 -0.05198849 0.067450665 0.093614325 0.056651272
-0.048653312 -0.06843541 0.07315967 -0.0035256774 0.07713774 -0.060546517 -0.079940625 -0.02336943
0.09000547 -0.06781601 0.011082221 0.06940291 -0.035735868 -0.0702122 -0.08500146 0.048437696
-0.0061678565 -0.06007723 -0.04918941 0.02864438 -0.06764753 0.007500884 0.05753013 0.0627975
0.05383796 -0.070943095 -0.03576659 0.08278208 0.049110945 0.08498293 0.030362714 0.028987259
-0.05025234 -0.024487182 -0.06057067 -0.05095721 -0.061852008 0.050077606 0.012945219 -0.09252192
-0.012152493 0.056835547 0.029301312 -0.049900487 0.055898923 0.03022046 0.02398717 -0.007851905
0.0530597 -0.070866846 -0.046816643 -0.042175665 -0.06928899 -0.01759922 -0.085972905 -0.08202423
-0.07923518 -0.039159596 -0.00803964 0.048670378 0.03056488 0.06820421 0.010260917 0.031719048
0.012683334 0.07544785 0.035283748 0.056448348 -0.068463035 0.015380904 -0.07220166 0.018485678
0.03386596 0.009523689 -0.06917291 0.03669003 -0.07480428 -0.0037673055 -0.08601397 -0.047131862
0.026224228 -0.026000854 0.014253868 0.01586258 -0.06877902 0.07073393 0.0029673039 0.031603258
0.04830671 0.054610506 -0.035734873 -0.003545079 -0.056726098 0.023848057 0.026601365 0.042059388
-0.0036432752 0.029743202 -0.01730903 -0.08601449 -0.084128566 0.045406353 -0.0066129747 0.081197836
-0.017746463 -0.010135216 -0.08391759 0.067658365 -0.07021907 -0.040208973 -0.013793371 -0.03343034
0.018652609 0.05612899 0.054918382 -0.073955394 -0.058275912 -0.013030064 0.050110098 0.06430827
-0.035713997 0.098895125 0.049020555 0.083234824 -0.053668994 0.017522898 -0.016698632 0.081860214
-0.007863441 -0.04298117 -0.030399827 0.05957999 0.0037268295 0.046068665 0.0005288149 -0.038760964
0.036213722 0.031566303 0.069773875 -0.030254867 0.029918903 0.024842165 0.0006474169 -0.022191787
-0.00086992385 0.09406048 0.008532238 0.002866804 0.017457314 -0.008924511 0.072217144 0.058413308
-0.06785209 -0.008751565 0.06297573 -0.06324415 0.04415321 -0.056765728 -0.03174632 -0.04919897
0.056223314 0.003067285 -0.041235086 -0.08248119 -0.004754056 0.0036461188 0.015461868 0.012561449
0.040555548 0.08720968 -0.047004696 0.09627601 -0.0045846333 -0.03157317 0.014563693 0.08289279
-0.062148996 -0.028865436 0.08562335 -0.013534987 0.002372213 0.079422355 0.050171938 -0.092934966
00000000: 174f a73d cb73 09bd a9a7 afbc 36f6 8fbb
00000010: d3d3 0e3d 24c5 2b3d 089a c5bc 227a 9e3d
00000020: a0d1 a13d bc76 403d 421d 733d c8cd 2f3b
00000030: 42ab 953d 22fa 90bd a868 10bd fc8b 8e3d
00000040: 5685 a5bd da5a cb3c 7164 99bc a3a9 173d
00000050: afa1 e9bc 3b3c 23bc 8c2d 4a3d c148 0a3d
00000060: 19a5 e4bc bdd0 68bc 9671 95bc 584e 32bd
00000070: 7a14 963d 9684 d7bc 2b3d bc3d fd6e 2ebc
00000080: 77b0 423d 4725 1ebd 1c3b 82bd ae6e 733d
00000090: 83a2 0f3c 942b 7b3d f8b6 af3d e50b 3c3d
000000a0: f563 edbc 2e8c 3dbb 3258 a1bd 081a 6fbd
000000b0: 3eff 6a3d e144 2e3d 1ec9 b53d 07d1 b03d
000000c0: a880 0f3d ed92 5a3d 7cba 5c3d 7403 41bd
000000d0: 8d7c 9e3d 7668 d9bc 4889 4c3d 395d 8b3d
000000e0: 97d9 acbd 31c0 d8bc 2b8d c4bd 16f4 a9bc
000000f0: 1ca0 a0bd 39ee cf3c 0c89 4b3c 4edb 493d
00000100: e6d2 083d 206e c53c 577c 063d 4bd8 5e3d
00000110: e2f1 54bd 9323 8a3d deb8 bf3d 2a0b 683d
00000120: b248 47bd dd27 8cbd bdd4 953d 0d0f 67bb
00000130: 64fa 9d3d a0ff 77bd e9b7 a3bd 3f71 bfbc
00000140: ca54 b83d 1fe3 8abd 3492 353c 1d23 8e3d
00000150: c65f 12bd 6acb 8fbd 3f15 aebd 9b66 463d
00000160: bb1b cabb 8b13 76bd d67a 49bd 9ea7 ea3c
00000170: ca8a 8abd fac9 f53b b7a4 6b3d fa9b 803d
00000180: 3185 5c3d 9d4a 91bd fd7f 12bd a789 a93d
00000190: 8f28 493d 880b ae3d 3abb f83c b076 ed3c
000001a0: 66d5 4dbd 5899 c8bc f318 78bd 82b8 50bd
000001b0: 8858 7dbd 2d1e 4d3d 2f18 543c 227c bdbd
000001c0: 401b 47bc 64cc 683d 4e09 f03c 7464 4cbd
000001d0: 45f6 643d e690 f73c be80 c43c 47a5 00bc
000001e0: 2155 593d a322 91bd cfc2 3fbd 64c0 2cbd
000001f0: 63e7 8dbd 3d2c 90bc 9012 b0bd 52fc a7bd
00000200: 0e46 a2bd d065 20bd b2b8 03bc 975a 473d
00000210: 3363 fa3c a6ae 8b3d 681d 283c d5eb 013d
00000220: c2cd 4f3c 6784 9a3d b185 103d 6236 673d
00000230: 5936 8cbd 3000 7c3c 77de 93bd 476f 973c
00000240: 08b7 0a3d 3f09 1c3c 87aa 8dbd 4948 163d
00000250: fd32 99bd e6e4 76bb 1828 b0bd 570d 41bd
00000260: 31d4 d63c beff d4bc 0e89 693c 3ef2 813c
00000270: 04dc 8cbd f3dc 903d 1977 423b 6b72 013d
00000280: 42dd 453d 44af 5f3d bb5e 12bd 8e54 68bb
00000290: a059 68bd 005d c33c 1beb d93c 7746 2c3d
000002a0: 04c4 6ebb 04a8 f33c abcb 8dbc 5d28 b0bd
000002b0: 994b acbd 03fc 393d a7b1 d8bb 0d4b a63d
000002c0: 0861 91bc 2d0e 26bc fcdc abbd 7890 8a3d
000002d0: 04cf 8fbd 2ab2 24bd 97fd 61bc 41ee 08bd
000002e0: 5bcd 983c 83e7 653d 19f2 603d ed75 97bd
000002f0: b9b2 6ebd 0d7c 55bc 3f40 4d3d 0eb4 833d
00000300: d748 12bd 8789 ca3d c7c9 483d 0577 aa3d
00000310: 05d4 5bbd 2e8c 8f3c 92cb 88bc 54a6 a73d
00000320: a9d5 00bc 060d 30bd 0f09 f9bc 260a 743d
00000330: d33d 743b 7fb2 3c3d 2ba0 0a3a d1c3 1ebd
00000340: d754 143d ab4b 013d 9be5 8e3d 0ed9 f7bc
00000350: 7d18 f53c cc81 cb3c 6ab7 293a 8dcb b5bc
00000360: 9a0b 64ba c8a2 c03d cdca 0b3c fde0 3b3b
00000370: a402 8f3c 1d38 12bc 95e6 933d cb42 6f3d
00000380: 09f6 8abd b962 0fbc 6bf9 803d 2686 81bd
00000390: ffd9 343d 2e83 68bd 6e08 02bd dc84 49bd
000003a0: 6b4a 663d 8104 493b 1fe6 28bd e6eb a8bd
000003b0: eac7 9bbb b9f3 6e3b c653 7d3c 89ce 4d3c
000003c0: 931d 263d fd9a b23d ff87 40bd 5b2c c53d
000003d0: b13a 96bb de52 01bd 8e9c 6e3c b2c3 a93d
000003e0: f28f 7ebd 3577 ecbc 4c5b af3d dac1 5dbc
000003f0: 2177 1b3b 30a8 a23d 1781 4d3d b054 bebd

conv1.4.bias f4 [32]
-0.0013020677 -0.07619241 -0.055030506 -0.008821991 0.033138562 -0.053894307 0.095088884 -0.05800015
-0.07380076 0.024063418 -0.07619074 0.046585087 0.06357333 -0.06760174 -0.07654239 0.07533401
0.041425984 -0.09132406 -0.036994416 0.083334334 -0.0808498 -0.021023434 0.08411405 0.03628664
-0.04715932 0.066008806 0.07526543 -0.050308663 0.090824425 0.045229234 0.062605865 -0.031064462
00000000: 24aa aaba c40a 9cbd ab67 61bd 1d8a 10bc
00000010: 4dbc 073d 47c0 5cbd f6bd c23d 9191 6dbd
00000020: da24 97bd a520 c53c e409 9cbd 01d0 3e3d
00000030: bc32 823d c872 8abd 42c2 9cbd b848 9a3d
00000040: 4bae 293d 1c08 bbbd 7587 17bd 31ab aa3d
00000050: 9494 a5bd 5639 acbc fd43 ac3d 4da1 143d
00000060: 222a 41bd a02f 873d c324 9a3d 7510 4ebd
00000070: 2802 ba3d 4a42 393d 8137 803d e67a febc

conv1.6.weight f4 [32]
1.0362567 0.99498546 0.9845842 1.0089327 1.0316288 1.0182563 1.0057054 0.9818224
1.0004612 0.99432594 1.0076191 1.0190653 0.99549544 0.98907375 0.9826166 1.02765
0.9516436 0.99132866 0.9895807 1.0103325 0.9992126 1.0018821 1.0197893 0.9894033
0.97294354 1.0083523 1.0139681 1.0211123 0.9603558 1.006931 0.9946709 0.990871
00000000: 0fa4 843f 5eb7 7e3f b60d 7c3f b524 813f
00000010: 6a0c 843f 3956 823f f4ba 803f b658 7b3f
00000020: 1d0f 803f 258c 7e3f aaf9 803f bb70 823f
00000030: cad8 7e3f f033 7d3f c38c 7b3f 098a 833f
00000040: ea9e 733f b7c7 7d3f 2955 7d3f 9352 813f
00000050: 66cc 7f3f ac3d 803f 7588 823f 8949 7d3f
00000060: d412 793f b011 813f b5c9 813f cfb3 823f
00000070: e1d9 753f 1de3 803f c1a2 7e3f b9a9 7d3f

conv1.6.bias f4 [32]
0.0030845175 -0.00646602 0.0053303177 0.009347287 -0.009643908 -0.012510589 -0.013974287 0.016398214
-0.0093917465 0.0008781369 -0.000641062 0.011815027 -0.0051523955 -0.00854262 0.0021843584 -0.005886339
-0.005145154 -0.01404985 0.008026817 0.0016377032 0.017342707 -0.008704837 -0.006949642 -0.005802168
0.026970068 -0.0018921597 -0.0034493762 0.005474191 0.016069384 -0.0076052006 -0.01193611 -0.0069947704
00000000: 9e25 4a3b e8e0 d3bb f2a9 ae3b 5d25 193c
00000010: 7b01 1ebc 37f9 4cbc 68f4 64bc 8c55 863c
00000020: d7df 19bc c532 663a f10c 28ba d193 413c
00000030: 6dd5 a8bb 58f6 0bbc 7427 0f3b 31e2 c0bb
00000040: ae98 a8bb 5831 66bc e982 033c 33a8 d63a
00000050: 4b12 8e3c bc9e 0ebc d3b9 e3bb 1d20 bebb
00000060: 55f0 dc3c 5802 f8ba ee0e 62bb d860 b33b
00000070: f1a3 833c 0c35 f9bb ad8f 43bc 6334 e5bb

conv1.6.running_mean f4 [32]
0.4827281 0.19238359 0.34791914 0.39785445 0.26725706 0.2834783 0.39337796 0.284027
0.18153101 0.44870588 0.14196664 0.46345705 0.35655716 0.44374967 0.26458624 0.36618996
0.20001806 0.13678919 0.19774084 0.44545394 0.39773485 0.32593277 0.41668868 0.41204414
0.20423657 0.43031996 0.35598165 0.39825365 0.41547745 0.26807213 0.37015405 0.21196027
00000000: 2328 f73e 3400 453e 7522 b23e 94b3 cb3e
00000010: ebd5 883e 1124 913e d668 c93e fd6b 913e
00000020: 44e3 393e c7bc e53e b45f 113e 3e4a ed3e
00000030: a98e b63e 2833 e33e d977 873e 407d bb3e
00000040: 89d1 4c3e 7712 0c3e 937c 4a3e 8a12 e43e
00000050: e7a3 cb3e a9e0 a63e 3858 d53e 73f7 d23e
00000060: 6423 513e e652 dc3e 3a43 b63e e7e7 cb3e
00000070: 76b9 d43e c040 893e d584 bd3e 1d0c 593e

conv1.6.running_var f4 [32]
0.5945578 0.18014517 0.5129123 0.23816608 0.13451092 0.23735295 0.4015395 0.2638526
0.14661509 0.24795575 0.16500136 0.7188913 0.26524484 0.30800265 0.44007084 1.531155
0.21820904 0.15927708 0.09310791 0.2549072 0.3011124 0.57249135 0.2903773 0.2978701
0.21157555 0.28870136 0.65452915 0.32038465 0.17868571 0.6526547 0.2969119 0.70349973
00000000: f134 183f fa77 383e 384e 033f cfe1 733e
00000010: 3bbd 093e a70c 733e 9696 cd3e b017 873e
00000020: 4422 163e 1de8 7d3e 1ef6 283e 4309 383f
00000030: 2cce 873e 86b2 9d3e f750 e13e e3fc c33f
00000040: 3172 5f3e 8819 233e 5caf be3d 3283 823e
00000050: 682b 9a3e cb8e 123f 55ac 943e 6e82 983e
00000060: 43a7 583e aad0 933e 398f 273f 7509 a43e
00000070: 63f9 363e 6114 273f d604 983e 8f18 343f

conv1.7.weight f4 [32, 32, 4, 1]
0.016689809 -0.030412203 -0.044896178 -0.06845251 -0.010215821 0.0140927415 0.01736488 -0.018068422
-0.00021887789 0.008985091 0.05750743 0.030965345 0.0280889 0.057358332 0.053172503 -0.08184603
-0.04013374 0.073989235 0.053773057 0.10306892 0.01076537 -0.0026446197 0.03450757 0.046757746
-0.012006707 0.06809618 -0.020911904 -0.0028615727 -0.012746273 -0.0174628 -0.06740867 -0.06667122
0.0060166884 -0.027682478 0.04572092 0.08179799 -0.028708633 0.06432169 -0.045046534 0.06840587
0.04117464 0.056925025 -0.05905771 0.031159332 0.03704723 -0.02473106 -0.058271028 0.023524953
-0.021466427 -0.07513006 -0.05746169 -0.029345354 -0.018053219 -0.02347805 0.0044579343 0.06210848
-0.063287124 -0.022865986 -0.08124692 0.040141266 -0.06696081 -0.07944036 0.027235065 0.08542804
0.019681985 -0.06203359 -0.02133952 -0.023614874 -0.08854578 0.04538357 -0.0019668369 0.045793023
0.07143384 0.06055894 0.017330473 -0.020987865 0.021069728 0.0612419 0.07712263 -0.033620097
0.070315 0.045924626 -0.04422816 0.056826577 0.005053346 0.07489962 -0.09484387 0.050877158
0.019792374 -0.006666706 0.03471484 0.12670547 -0.073133156 0.08148712 0.06285798 -0.056076046
-0.037893213 -0.06866338 -0.07807523 0.03115323 -0.030108852 -0.099749945 -0.012780652 -0.09106838
0.06423029 -0.0007530234 0.0051835165 0.011371772 -0.036918826 -0.014293889 0.03204706 -0.06820578
0.06663253 0.079606205 -0.038190987 -0.07578739 0.026390804 -0.048667926 0.084294744 -0.017262887
0.010976335 0.024950668 0.048149727 -0.021058418 -0.050808538 0.0013572056 0.013581258 -0.008888848
0.08033225 -0.06938542 -0.018050788 -0.08726199 0.055518877 -0.080819204 -0.063949056 0.010023592
0.052558314 -0.07858866 -0.011681999 -0.061858367 -0.06354086 -0.051541712 0.05584039 0.035919696
-0.057074305 -0.02056306 0.05194484 0.0044168 -0.06098461 0.07508456 0.03203166 -0.023881106
0.018367728 0.011432886 0.011297291 0.025084144 0.080013946 -0.06474845 0.067661166 -0.008188024
0.050879605 0.0048158877 0.04461107 0.06653017 0.06600494 0.055581912 0.0656036 -0.034700677
-0.024425691 0.047371354 0.047668375 0.03751868 -0.040833544 0.0012222263 0.06250964 0.08355852
-0.018266253 0.008101218 0.045394395 0.061822142 -0.03556588 -0.05347151 -0.03379908 -0.012921184
-0.033766665 -0.012299749 -0.007562665 0.042263277 0.08889072 -0.04440005 -0.0014732592 0.037320822
-0.033481024 -0.035364732 0.079715125 -0.01397697 0.037208665 -0.030791653 0.056561556 0.059590068
0.057985753 -0.077840365 -0.0281348 -0.085161686 -0.02099961 0.08635822 -0.0047052866 -0.009785308
0.033195008 -0.05115468 -0.04604111 -0.00055081304 -0.048328795 0.076217055 -0.016437357 0.09864376
0.019790934 -0.025750408 -0.06454089 -0.09177406 -0.042357992 0.055255182 0.0747633 0.053830117
-0.09608928 0.002546554 0.03856243 0.0043804836 -0.056458697 0.0060072527 0.04423219 -0.07100839
0.06056928 0.08410768 0.015784813 0.023854623 0.0031554045 -0.0728703 -0.09017665 0.06303958
0.010017633 -0.02584283 0.058282938 -0.0014429793 -0.048292875 0.06427626 -0.01767956 0.005229447
-0.014575844 0.039903548 -0.07174837 0.018126909 0.021541882 -0.062881425 0.052401725 -0.03986013
00000000: 11b9 883c 0323 f9bc 0ee5 37bd d430 8cbd
00000010: 4260 27bc 3ee5 663c cb40 8e3c 3a04 94bc
00000020: 9682 65b9 3436 133c e98c 6b3d 09ab fd3c
00000030: b11a e63c 92f0 6a3d 69cb 593d e49e a7bd
00000040: 4763 24bd ab87 973d 2341 5c3d cc15 d33d
00000050: 3c61 303c 5b51 2dbb cf57 0d3d 0d85 3f3d
00000060: c7b7 44bc 0376 8b3d 714f abbc 3989 3bbb
00000070: bed5 50bc 250e 8fbc 8f0d 8abd ec8a 88bd
00000080: a427 c53b 5dc6 e2bc dc45 3b3d b485 a73d
00000090: 5e2e ebbc 17bb 833d b782 38bd 6018 8c3d
000000a0: bda6 283d 372a 693d 7fe6 71bd db41 ff3c
000000b0: d6be 173d cb98 cabc 9aad 6ebd 67b7 c03c
000000c0: 5cda afbc cadd 99bd f35c 6bbd ab65 f0bc
000000d0: 58e4 93bc 0a55 c0bc dd13 923b 7665 7e3d
000000e0: ae9c 81bd 7351 bbbc c964 a6bd 2b6b 243d
000000f0: c022 89bd a1b1 a2bd 121c df3c e5f4 ae3d
00000100: 1d3c a13c ef16 7ebd 38d0 aebc fb73 c1bc
00000110: 7d57 b5bd 1fe4 393d 0ce6 00bb 7791 3b3d
00000120: e84b 923d a70c 783d a3f8 8d3c beee abbc
00000130: 6c9a ac3c c9d8 7a3d 78f2 9d3d 3ab5 09bd
00000140: 5001 903d 761b 3c3d 9628 35bd fcc2 683d
00000150: 8a96 a53b f964 993d 813d c2bd 9164 503d
00000160: 9e23 a23c 6274 dabb 2631 0e3d 14bf 013e
00000170: d6c6 95bd b8e2 a63d afbb 803d ffaf 65bd
00000180: ea35 1bbd 639f 8cbd e8e5 9fbd 0f35 ff3c
00000190: d7a6 f6bc b349 ccbd f165 51bc 0f82 babd
000001a0: 2c8b 833d 8c66 45ba 7dda a93b ab50 3a3c
000001b0: 3238 17bd ea30 6abc c743 033d 79af 8bbd
000001c0: a376 883d 9408 a33d 276e 1cbd 6b36 9bbd
000001d0: 8731 d83c 0558 47bd b9a2 ac3d e66a 8dbc
000001e0: 16d6 333c 5865 cc3c a638 453d b482 acbc
000001f0: 9d1c 50bd 43e4 b13a ed83 5e3c 88a2 11bc
00000200: 3c85 a43d f119 8ebd 3fdf 93bc 6ab6 b2bd
00000210: c367 633d 8a84 a5bd b9f7 82bd fe39 243c
00000220: 6347 573d 17f3 a0bd db65 3fbc 335f 7dbd
00000230: b621 82bd 671d 53bd e5b8 643d 8820 133d
00000240: bfc6 69bd dd73 a8bc 1dc4 543d ceba 903b
00000250: 00cb 79bd efc5 993d a133 033d 4fa2 c3bc
00000260: eb77 963c 0051 3b3c 4618 393c 437d cd3c
00000270: 5ade a33d d69a 84bd f091 8a3d 1027 06bc
00000280: 2267 503d 98ce 9d3b 19ba 363d f840 883d
00000290: 992d 873d dca9 633d 2e5b 863d 4c22 0ebd
000002a0: 6318 c8bc 7708 423d ea3f 433d 30ad 193d
000002b0: 1341 27bd 1c33 a03a 0e05 803d bb20 ab3d
000002c0: 1ca3 95bc f9ba 043c 79ef 393d 3739 7d3d
000002d0: 87ad 11bd f104 5bbd e770 0abd 60b3 53bc
000002e0: ea4e 0abd e384 49bc 3bd0 f7bb 421c 2d3d
000002f0: 560c b63d d4dc 35bd 601a c1ba b8dd 183d
00000300: 6623 09bd 9cda 10bd af41 a33d a9ff 64bc
00000310: 1d68 183d c73e fcbc 17ad 673d b714 743d
00000320: 7882 6d3d c56a 9fbd f47a e6bc 4069 aebd
00000330: 6007 acbc 94dc b03d ce2e 9abb 8e52 20bc
00000340: 7df7 073d 9287 51bd 9a95 3cbd 7064 10ba
00000350: 6af4 45bd b017 9c3d a3a7 86bc bd05 ca3d
00000360: 9920 a23c 85f2 d2bc 042e 84bd 0af4 bbbd
00000370: 937f 2dbd 4253 623d 801d 993d f87c 5c3d
00000380: 75ca c4bd 16e4 263b a3f3 1d3d 298a 8f3b
00000390: 3c41 67bd 7dd8 c43b d02c 353d d96c 91bd
000003a0: 7e17 783d a640 ac3d 274f 813c c56a c33c
000003b0: e7ca 4e3b 063d 95bd 89ae b8bd e51a 813d
000003c0: 0021 243c 58b4 d3bc 17ba 6e3d 5a22 bdba
000003d0: c0ce 45bd 46a3 833d bad4 90bc c85b ab3b
000003e0: 85cf 6ebc e771 233d cff0 92bd e27e 943c
000003f0: 9a78 b03c fac7 80bd 31a3 563d 6044 23bd

conv1.7.bias f4 [32]
-0.047628604 -0.03215317 0.093578964 -0.026636489 -0.035275187 0.06909195 0.081511736 0.039049767
0.009029331 0.059121534 0.028147174 0.016949344 -0.03516873 -0.04297668 -0.05838999 0.104720786
0.0011016009 -0.07298241 -0.054624345 -0.0066212434 -0.05245095 -0.08453075 -0.03602332 -0.049256932
-0.037868887 -0.03786678 -0.0803601 -0.059604034 -0.037185688 0.0108042965 0.040587883 0.037660047
00000000: 3616 43bd 0bb3 03bd 54a6 bf3d c434 dabc
00000010: b77c 10bd 1580 8d3d a0ef a63d a6f2 1f3d
00000020: c2ef 133c 6c29 723d e794 e63c 5ad9 8a3c
00000030: 160d 10bd 5108 30bd 582a 6fbd da77 d63d
00000040: 9863 903a cd77 95bd c7bd 5fbd 04f7 d8bb
00000050: cfd6 56bd 751e adbd 308d 13bd a3c1 49bd
00000060: 681c 1bbd 321a 1bbd d693 a4bd 5c23 74bd
00000070: 0550 18bd 8104 313c 7b3f 263d 6c41 1a3d

conv1.9.weight f4 [32]
1.0178838 1.0039986 1.0042537 0.9974008 0.9781629 1.006458 0.98460287 1.0049162
0.98033684 0.9848613 1.0013083 0.9959443 1.0232986 0.99377954 1.0085402 1.0018703
1.001756 0.98677677 1.0066544 0.98334086 1.0036138 1.0174862 1.0087502 0.99606997
1.0200361 0.9947118 1.0077413 1.0175697 1.0068518 0.99585456 0.99353284 0.9711259
00000000: 044a 823f 0783 803f 638b 803f a955 7f3f
00000010: e268 7a3f 9ed3 803f ef0e 7c3f 18a1 803f
00000020: 5bf7 7a3f df1f 7c3f df2a 803f 35f6 7e3f
00000030: 73fb 823f 5668 7e3f d817 813f 493d 803f
00000040: 8a39 803f 679d 7c3f 0dda 803f 3abc 7b3f
00000050: 6b76 803f fd3c 823f ba1e 813f 71fe 7e3f
00000060: 8b90 823f 6fa5 7e3f abfd 803f b93f 823f
00000070: 85e0 803f 53f0 7e3f 2b58 7e3f b59b 783f

conv1.9.bias f4 [32]
-0.020706382 -0.0063260314 -0.012840904 -0.0009716714 0.0004199737 0.013045478 -0.0064036534 0.013780811
-0.03211836 -0.018353125 -0.0024413234 -0.013346273 -0.012161062 0.00662957 -0.015134246 0.0062774955
-0.009828621 -0.008883336 0.002542021 0.030349636 0.013590035 0.030498264 0.02018005 0.004500398
0.024587715 -0.020374754 -0.016520225 0.0015395479 -0.0012402942 0.013652416 -0.0055125845 -0.010084256
00000000: 6ea0 a9bc 994a cfbb a862 52bc c4b7 7eba
00000010: ea2f dc39 b3bc 553c bdd5 d1bb e9c8 613c
00000020: 8b8e 03bd 4b59 96bc 9cfe 1fbb 54aa 5abc
00000030: 313f 47bc dd3c d93b a1f5 77bc 73b3 cd3b
00000040: 3908 21bc 698b 11bc 0998 263b cd9f f83c
00000050: bda8 5e3c 7fd7 f93c a250 a53c 1378 933b
00000060: 2d6c c93c f5e8 a6bc 6c55 87bc a8ca c93a
00000070: 5e91 a2ba 62ae 5f3c e9a2 b4bb 6f38 25bc

conv1.9.running_mean f4 [32]
0.17892036 0.2011344 0.4510099 0.2751701 0.24458513 0.58156437 0.51244575 0.35796353
0.21645947 0.21145631 0.5701303 0.4083757 0.1437978 0.3565673 0.2920556 0.4562639
0.42538267 0.23960952 0.17438473 0.2924643 0.12950748 0.40839577 0.5017652 0.29320046
0.31012207 0.26854047 0.18838325 0.26169553 0.41692647 0.25171432 0.39831483 0.15792687
00000000: e636 373e 2df6 4d3e c5ea e63e 18e3 8c3e
00000010: 8674 7a3e 67e1 143f a52f 033f ff46 b73e
00000020: 8da7 5d3e 0188 583e 0ff4 113f 9f16 d13e
00000030: bb3f 133e fd8f b63e 5088 953e 6c9b e93e
00000040: c2cb d93e 335c 753e e991 323e e1bd 953e
00000050: 9c9d 043e 4019 d13e af73 003f 5f1e 963e
00000060: 52c8 9e3e 237e 893e 8ae7 403e f5fc 853e
00000070: 6377 d53e b3e0 803e ecef cb3e 95b7 213e

conv1.9.running_var f4 [32]
0.18138866 0.33769855 0.4105024 0.28815597 0.25029317 0.44435546 0.38193023 0.2069796
0.11962527 0.089803115 0.37064034 0.47572356 0.10634002 0.28662848 0.19796829 0.28698424
0.3023286 0.5676264 0.21013443 0.39903033 0.11710729 0.306832 0.28085712 0.46159372
0.448235 0.30075216 0.10072521 0.3186634 0.49844226 0.51343596 0.3036839 0.057307847
00000000: f3bd 393e d3e6 ac3e 5f2d d23e 2e89 933e
00000010: 6d26 803e 8f82 e33e 5c8c c33e 76f2 533e
00000020: 18fe f43d b2ea b73d 92c4 bd3e 0a92 f33e
00000030: ccc8 d93d f8c0 923e 33b8 4a3e 99ef 923e
00000040: d0ca 9a3e f74f 113f 7b2d 573e b44d cc3e
00000050: f2d5 ef3d 1519 9d3e 81cc 8f3e 0356 ec3e
00000060: 0f7f e53e 30fc 993e 0549 ce3d d927 a33e
00000070: d333 ff3e 8a70 033f 757c 9b3e a2bb 6a3d

conv2.0.weight f4 [32, 32, 1, 2]
0.13512501 -0.12411123 0.10570772 0.0010684151 0.019304298 -0.026869763 -0.11380056 0.0024147425
-0.055966787 0.037662365 -0.12753041 0.0695253 0.07186139 -0.06891274 -0.02879352 -0.0073345182
-0.07597359 -0.04747195 0.07403161 0.096253775 0.0028222038 0.069163166 0.025472496 -0.058496237
0.042881977 0.071694404 0.013914268 0.041883964 -0.057000734 0.048806414 0.10539065 -0.008815218
0.0008571509 0.07253607 -0.034827724 -0.092215866 0.04024432 0.049686678 -0.057167273 0.10908933
0.11166772 -0.08857266 0.060868494 -0.039035454 -0.06775832 -0.06772949 0.091076516 -0.09052482
-0.07812272 -0.051287685 -0.052532338 0.10449371 -0.07790947 0.04508558 0.085363366 0.029575657
-0.030209593 0.104299664 0.089672156 -0.05417908 0.09515612 -0.09659969 0.0019992753 -0.09961907
-0.13124011 0.07729129 0.003493843 -0.11408752 -0.07209753 -0.0065023657 -0.05363659 0.11648536
0.043371115 0.090407744 -0.04351888 0.08192378 -0.012907576 -0.091606505 -0.04314215 0.07231551
-0.07161703 0.033038873 -0.05206682 -0.09548683 0.07741858 -0.117263444 0.12174637 -0.028835395
-0.06944525 -0.042235594 0.023568857 -0.030196331 0.028385961 0.07199732 0.11965989 -0.042444263
0.010730951 -0.031842984 -0.1175978 -0.065667376 -0.028535517 0.017831698 0.078703366 -0.014801568
-0.0021649364 0.039631356 -0.030114794 -0.047674023 -0.045773946 0.08471232 0.12743178 0.008469806
0.043079346 0.0073869633 0.13441174 -0.055184036 -0.086298525 -0.07267412 0.10223417 -0.0650119
0.11066165 -0.07447042 0.026251856 0.041401338 -0.015901243 0.07412794 -0.090965986 -0.07038104
-0.08847921 -0.034505755 -0.038789198 -0.019519739 0.10850209 -0.026161999 -0.038422193 0.060226846
0.027578698 -0.06350561 0.043765604 0.07824171 -0.063903265 -0.092150725 -0.09703008 0.09278162
0.1000893 0.055707466 -0.100416034 0.009476275 -0.043374933 0.03478639 0.080220796 0.04950206
-0.084685765 0.056355473 -0.016136443 0.060874414 -0.048835486 -0.113198765 0.059244834 -0.010864383
-0.05448129 -0.007569305 -0.0925088 -0.09004123 0.006122679 0.03174572 -0.12772377 -0.017106978
0.043332722 0.08457089 0.08979437 0.061547693 -0.038203586 0.031223565 0.012482751 -0.11630348
0.13415545 -0.057673406 0.063263185 -0.0715416 -0.12504376 0.020282276 0.1062431 -0.10682851
-0.094549365 0.09894042 -0.03902075 0.010697554 0.088369586 -0.09435227 0.017044673 0.002791485
-0.08028331 -0.016510637 0.004456869 -0.0154143395 0.024118956 -0.03613013 -0.00053175446 0.09008627
0.036740035 0.07945854 -0.02488669 -0.00082105614 -0.031090925 -0.07098973 0.117224775 0.047727007
-0.0031291905 -0.087600976 -0.12485385 0.0081958035 -0.101729505 -0.0615225 0.1167853 0.010311556
-0.12648244 -0.111085236 0.024455218 0.09709885 -0.041367613 -0.13673964 0.054884687 -0.059110407
-0.0924874 -0.061529614 -0.04373335 0.08910802 0.03570753 0.022223774 -0.118738554 -0.033344403
0.06315209 -0.05876568 -0.05644177 0.04482602 0.09346051 0.07597617 -0.0010877291 0.03701062
0.040825207 -0.045258015 -0.07965524 0.015553698 -0.1210823 0.0040501677 -0.12514934 0.004292763
0.11867837 -0.026088517 0.111011006 0.11495155 0.0022659835 0.102954455 0.011177173 -0.076031655
00000000: 365e 0a3e 072e febd 4a7d d83d 100a 8c3a
00000010: 0c24 9e3c fa1d dcbc 4510 e9bd a840 1e3b
00000020: 6e3d 65bd da43 1a3d 5597 02be 4863 8e3d
00000030: 102c 933d 1f22 8dbd 63e0 ebbc 6656 f0bb
00000040: 0b98 9bbd f371 42bd e29d 973d b320 c53d
00000050: b9f4 383b 6ba5 8d3d b2ab d03c c099 6fbd
00000060: 03a5 2f3d 84d4 923d acf8 633c 858e 2b3d
00000070: 9a79 69bd 3ce9 473d 0ed7 d73d b46d 10bc
00000080: 6cb2 603a cb8d 943d 84a7 0ebd acdb bcbd
00000090: 3ad7 243d 4284 4b3d 3b28 6abd 3a6a df3d
000000a0: 0cb2 e43d 9565 b5bd 3e51 793d a4e3 1fbd
000000b0: e0c4 8abd c2b5 8abd 5386 ba3d 1465 b9bd
000000c0: cefe 9fbd 0913 52bd 262c 57bd cc00 d63d
000000d0: 008f 9fbd a8ab 383d fdd2 ae3d a648 f23c
000000e0: 1c7a f7bc 109b d53d 09a6 b73d e2ea 5dbd
000000f0: 36e1 c23d 0fd6 c5bd 4606 033b 1505 ccbd
00000100: cf63 06be e54a 9e3d f5f8 643b b8a6 e9bd
00000110: dfa7 93bd cc11 d5bb 0ab2 5bbd e08f ee3d
00000120: e9a5 313d b227 b93d da40 32bd a8c7 a73d
00000130: 4c7a 53bc 319c bbbd d3b5 30bd 271a 943d
00000140: f3ab 92bd c553 073d 0544 55bd 998e c3bd
00000150: a28d 9e3d d127 f0bd 2956 f93d 3538 ecbc
00000160: 5039 8ebd 3bff 2cbd 7a13 c13c 4c5e f7bc
00000170: ad89 e83c 5573 933d 3f10 f53d 09da 2dbd
00000180: dfd0 2f3c ca6d 02bd 1ed7 f0bd 9e7c 86bd
00000190: 51c3 e9bc c813 923c 3b2f a13d 4782 72bc
000001a0: 9be1 0dbb 7d54 223d 4db3 f6bc d645 43bd
000001b0: 767d 3bbd a77d ad3d 7a7d 023e f1c4 0a3c
000001c0: f873 303d 570e f23b 3ba3 093e a808 62bd
000001d0: 48bd b0bd 2bd6 94bd 2660 d13d f624 85bd
000001e0: 93a2 e23d f383 98bd 220e d73c 7394 293d
000001f0: 5343 82bc 64d0 973d 604c babd ef23 90bd
00000200: 9734 b5bd e855 0dbd 6ce1 1ebd dce7 9fbc
00000210: 5836 de3d b051 d6bc 9760 1dbd 6db0 763d
00000220: b9ec e13c 3b0f 82bd 9043 333d 313d a03d
00000230: b7df 82bd 85b9 bcbd b5b7 c6bd 4a04 be3d
00000240: 9efb cc3d 832d 643d eca6 cdbd 6142 1b3c
00000250: eaa9 31bd 2c7c 0e3d cd4a a43d acc2 4a3d
00000260: bb6f adbd ffd4 663d 9330 84bc 7357 793d
00000270: b807 48bd c1d4 e7bd b6aa 723d 8600 32bc
00000280: c627 5fbd ef07 f8bb 4175 bdbd 8967 b8bd
00000290: c1a0 c83b cd07 023d 05ca 02be ef23 8cbc
000002a0: a77d 313d 8133 ad3d 1ce6 b73d 6f19 7c3d
000002b0: 5d7b 1cbd 90c8 ff3c 7484 4c3c 8530 eebd
000002c0: 0c60 093e f33a 6cbd 2190 813d 6784 92bd
000002d0: 790b 00be 0427 a63c fb95 d93d e8c8 dabd
000002e0: 19a3 c1bd 46a1 ca3d 39d4 1fbd cb44 2f3c
000002f0: 1dfb b43d c33b c1bd 45a1 8b3c 59f1 363b
00000300: 936b a4bd 5141 87bc ed0a 923b 6d8c 7cbc
00000310: 1e95 c53c 30fd 13bd 7065 0bba 267f b83d
00000320: b87c 163d 29bb a23d 2cdf cbbc 253c 57ba
00000330: 65b2 febc 1063 91bd 8b13 f03d 657d 433d
00000340: 1b13 4dbb 2468 b3bd 60b3 ffbd b147 063c
00000350: 8f57 d0bd 04ff 7bbd 222d ef3d cdf1 283c
00000360: 9d84 01be a880 e3bd 4f56 c83c c3db c63d
00000370: 1671 29bd 7a05 0cbe c4ce 603d c11d 72bd
00000380: 096a bdbd 7a06 7cbd be21 33bd 447e b63d
00000390: 0f42 123d a20e b63c 332d f3bd 2494 08bd
000003a0: e255 813d 48b4 70bd 7c2f 67bd 7d9b 373d
000003b0: 3968 bf3d 6599 9b3d 2292 8eba 7398 173d
000003c0: 5538 273d 7860 39bd 4922 a3bd f0d4 7e3c
000003d0: fff9 f7bd 45b7 843b 2627 00be 4eaa 8c3b
000003e0: a50d f33d 96b7 d5bc bd59 e33d b86b eb3d
000003f0: e580 143b c9d9 d23d 7620 373c 7cb6 9bbd

conv2.0.bias f4 [32]
-0.11107594 -0.06657332 -0.038273253 0.09070909 0.09674811 -0.045741666 0.023122057 0.06540905
-0.043997437 0.0066970284 0.10888997 0.1114123 -0.084021814 -0.05921987 -0.08836098 0.039862882
0.00090989494 0.10253927 -0.0887078 -0.029663587 -0.12119899 -0.07795954 -0.10362428 -0.00816221
-0.0791948 0.1297238 0.092616715 -0.03359924 -0.11298396 0.08989135 -0.066124395 -0.11442348
00000000: c87b e3bd 9857 88bd 6ac4 1cbd b0c5 b93d
00000010: e023 c63d 9d5b 3bbd 786a bd3c 2ef5 853d
00000020: a836 34bd bf72 db3b b401 df3d 222c e43d
00000030: a113 acbd 8990 72bd 9af6 b4bd 4347 233d
00000040: 0486 6e3a 1c00 d23d 6fac b5bd 0d01 f3bc
00000050: 2d37 f8bd 40a9 9fbd f738 d4bd caba 05bc
00000060: e230 a2bd 51d6 043e d5ad bd3d 5b9f 09bd
00000070: 2264 e7bd f518 b83d 3a6c 87bd dc56 eabd

conv2.2.weight f4 [32]
0.9998245 0.99906826 0.98734856 1.0057579 1.0182781 0.97390383 1.003681 1.0154556
0.9987835 0.99679834 0.98968554 1.0243087 1.0043952 1.0097779 1.0058244 1.0153583
1.0059394 1.0072757 0.96884453 0.99335295 1.0157458 1.0146631 1.0004516 0.98385686
0.99576867 0.99883103 0.989964 0.99052763 0.9890094 1.0077269 1.0059514 0.99367154
00000000: 80f4 7f3f f0c2 7f3f e0c2 7c3f adbc 803f
00000010: f056 823f c351 793f 9e78 803f 73fa 813f
00000020: 47b0 7f3f 2d2e 7f3f 085c 7d3f 8c1c 833f
00000030: 0690 803f 6740 813f dbbe 803f 43f7 813f
00000040: 9fc2 803f 69ee 803f 3206 783f 614c 7e3f
00000050: f503 823f 7be0 813f cc0e 803f 0bde 7b3f
00000060: b2ea 7e3f 64b3 7f3f 486e 7d3f 3893 7d3f
00000070: b82f 7d3f 32fd 803f 04c3 803f 4261 7e3f

conv2.2.bias f4 [32]
0.011312593 -0.010925616 -0.0054005748 -0.007898365 -0.0012270181 0.018741898 -0.0021487626 -0.0011780025
0.0035637172 -0.008200555 0.0021704321 -0.022685777 0.0031432433 -0.01762761 -0.039626196 -0.012831934
-0.0084111625 -0.035900127 -0.00933939 -0.0216294 0.0035356905 0.00094560237 -0.021163916 0.0111396555
-0.013795801 0.007941091 -0.0066412 0.003455467 -0.006987083 0.020730995 -0.0023999533 -0.010047829
00000000: 7458 393c 5b01 33bc 4ef7 b0bb 2568 01bc
00000010: e5d3 a0ba 9c88 993c 41d2 0cbb 3467 9aba
00000020: 418d 693b 9f5b 06bc cf3d 0e3b 86d7 b9bc
00000030: dffe 4d3b c767 90bc 144f 22bd 083d 52bc
00000040: f9ce 09bc 030c 13bd 3e04 19bc 2430 b1bc
00000050: 0bb7 673b 4de2 773a f35f adbc 1a83 363c
00000060: c907 62bc 5a1b 023c 6c9e d9bb 1e75 623b
00000070: e6f3 e4bb 0cd4 a93c 8948 1dbb a69f 24bc

conv2.2.running_mean f4 [32]
0.18051763 0.17131713 0.31675708 0.37776262 0.35510862 0.19921912 0.30639794 0.33813503
0.30242476 0.30932048 0.39595565 0.30191687 0.16618939 0.32031327 0.13757865 0.27046633
0.26473445 0.23008838 0.15488665 0.19783774 0.16783541 0.20362486 0.15195781 0.16767986
0.23912375 0.4153302 0.27044213 0.3092917 0.17469802 0.19627304 0.28572443 0.18130605
00000000: 9dd9 383e c26d 2f3e fc2d a23e 1a6a c13e
00000010: ccd0 b53e 1900 4c3e 31e0 9c3e 0920 ad3e
00000020: 6bd7 9a3e 415f 9e3e b3ba ca3e d994 9a3e
00000030: 8d2d 2a3e 1a00 a43e 6be1 0c3e 907a 8a3e
00000040: 468b 873e 4a9c 6b3e 9b9a 1e3e fa95 4a3e
00000050: 0cdd 2b3e 0983 503e d49a 1b3e 45b4 2b3e
00000060: dbdc 743e 29a6 d43e 6477 8a3e 7b5b 9e3e
00000070: 0ae4 323e cdfb 483e 794a 923e 4ba8 393e

conv2.2.running_var f4 [32]
0.14319077 0.14077793 0.32841352 0.27228346 0.24692953 0.10373753 0.18752672 0.2441818
0.1474064 0.2906474 0.25732625 0.3301695 0.19837913 0.19389912 0.09584616 0.31224218
0.17324977 0.19476733 0.099682644 0.13971213 0.24962407 0.15987976 0.095805526 0.079404265
0.15621251 0.31189075 0.13538934 0.15905598 0.17281026 0.09893008 0.2581628 0.07535543
00000000: 9aa0 123e 1728 103e d125 a83e bd68 8b3e
00000010: 18db 7c3e 5874 d43d 0107 403e cb0a 7a3e
00000020: b4f1 163e bccf 943e 44c0 833e fa0b a93e
00000030: e623 4b3e 7e8d 463e fe4a c43d 35de 9f3e
00000040: 6368 313e 1671 473e 6a26 cc3d b210 0f3e
00000050: 749d 7f3e 85b7 233e b035 c43d b49e a23d
00000060: 2cf6 1f3e 25b0 9f3e 81a3 0a3e 92df 223e
00000070: 2cf5 303e db9b ca3d ea2d 843e f353 9a3d

conv2.3.weight f4 [32, 32, 4, 1]
-0.026043221 -0.039823823 0.046791546 0.059315544 0.028582335 -0.035302933 -0.05441635 0.047779903
0.014070926 -0.083911955 -0.018263951 0.06894217 0.046113662 0.07356825 -0.03523874 -0.071822286
-0.056116033 -0.07655685 0.04057868 -0.05784331 0.017573757 -0.062917925 0.04181421 0.06687563
0.04686823 0.007562169 -0.051545594 -0.04375668 -0.044483755 0.0285787 -0.05257613 0.04399523
0.0010328859 0.0038576291 0.083776265 0.02828712 0.06997498 -0.0699901 0.04604027 -0.07797117
0.01769382 0.0314205 0.008863161 0.07069913 -0.011584462 0.08806746 -0.0001821595 0.045918487
0.029949078 0.06814192 0.07192222 -0.049363326 0.09223831 0.0034620485 0.026798654 -0.035039622
-0.013181227 0.050411236 -0.033631638 -0.074358925 0.027441517 0.061419398 0.07951368 0.0319477
-0.08212802 0.030119479 -0.088102385 0.014964156 -0.01917441 0.022750994 0.026190223 0.07061453
-0.07505858 0.045564108 0.00580861 -0.05714718 0.031648237 -0.088766284 -0.033004362 -0.0804396
-0.033110283 0.083238 0.028509049 0.015255592 0.060348537 0.06630217 0.033911746 -0.04838804
-0.08041837 0.018427653 -0.02643708 0.010122045 0.04915938 0.0361293 0.058633644 -0.07893478
0.016098477 -0.030703798 0.046209 0.02805904 0.016778413 0.005434402 -0.042452388 0.0011630792
-0.04389107 -0.005304629 -0.06305843 -0.02235194 -0.029313026 0.051025257 0.06296218 -0.061771996
0.06255635 -0.06247396 -0.067207284 0.073182344 -0.054893017 -0.04026915 0.003811393 0.0074912193
-0.043327905 -0.064167626 0.04878826 0.024063332 -0.075859554 -0.073114924 -0.07333694 0.041191176
-0.0019699766 -0.022571782 -0.047141667 0.07581076 -0.05348762 0.022497589 -0.02135893 -0.018237911
0.0504786 0.06442833 0.08312528 0.07139997 -0.056999218 0.017571894 0.056846194 0.008787014
0.098945044 0.037482265 0.029294489 0.10860854 -0.04201654 0.0073702564 -0.05875867 -0.03373639
-0.080521725 0.014401444 0.05838282 -0.04383878 0.028334908 -0.060761027 0.033398714 0.04831933
0.038340952 0.07623832 -0.03537522 0.09085301 0.017815223 0.062681735 0.0013784623 -0.07817521
0.033860274 0.08221891 -0.052951116 -0.05829259 -0.068333186 -0.08167087 0.036306996 -0.014830254
0.06952902 0.04687065 -0.08861584 -0.039853092 0.07550742 -0.04354958 -0.056858253 -0.060967807
-0.056337707 -0.058061194 -0.029875962 -0.018014174 -0.036466163 0.0147142345 0.032972984 0.034340505
0.023335496 -0.043426517 0.037886597 -0.067469865 -0.00014998557 0.08094253 0.021013543 -0.06754441
-0.006359707 0.015154885 -0.066987 0.051730502 -0.026447646 0.061506774 -0.09288859 -0.014954847
-0.017794162 0.0121964775 0.045639213 -0.05084772 0.052217662 -0.035009988 0.073233545 0.030961566
0.04580707 0.060375057 0.050751522 -0.0068157394 -0.049475882 -0.052868612 0.052501176 -0.05449658
-0.07632247 -0.032901008 0.07494203 0.095785975 0.082187496 -0.05104829 0.077347085 0.069788605
0.0381169 0.058067232 -0.0018806583 0.03353346 0.083058454 -0.008668153 0.08486637 0.061986476
-0.0014044972 0.029172879 0.026917906 0.0018004194 0.007911446 -0.06915473 -0.018792655 -0.020708377
0.039373387 0.070205994 -0.06117693 -0.052458994 -0.069271676 -0.016257588 -0.0953444 0.052748624
00000000: 9858 d5bc 4e1e 23bd 7ea8 3f3d dbf4 723d
00000010: 8025 ea3c cf99 10bd aee3 5ebd dcb4 433d
00000020: be89 663c 08da abbd 489e 95bc 8d31 8d3d
00000030: aee1 3c3d f3aa 963d 7f56 10bd 9017 93bd
00000040: edd9 65bd d6c9 9cbd d435 263d 1bed 6cbd
00000050: d7f6 8f3c 1ddb 80bd 6145 2b3d 17f6 883d
00000060: e7f8 3f3d 12cc f73b 7921 53bd 343a 33bd
00000070: 9934 36bd e11d ea3c 115a 57bd 5834 343d
00000080: e661 873a 47d0 7c3b e492 ab3d 64ba e73c
00000090: 0b4f 8f3d f856 8fbd b994 3c3d 59af 9fbd
000000a0: a1f2 903c c8b2 003d cb36 113c b5ca 903d
000000b0: c1cc 3dbc b65c b43d 1202 3fb9 0615 3c3d
000000c0: c557 f53c fe8d 8b3d f54b 933d 3331 4abd
000000d0: 70e7 bc3d 89e3 623b da88 db3c b585 0fbd
000000e0: 13f6 57bc 037c 4e3d 54c1 09bd 7e49 98bd
000000f0: 08cd e03c e892 7b3d 11d8 a23d 97db 023d
00000100: bc32 a8bd 20bd f63c 066f b4bd 382c 753c
00000110: a713 9dbc 4b60 ba3c e18c d63c 5a9e 903d
00000120: 50b8 99bd 6ea1 3a3d 2756 be3b 2913 6abd
00000130: 95a1 013d 19cb b5bd 952f 07bd 84bd a4bd
00000140: a69e 07bd af78 aa3d cf8b e93c 97f2 793c
00000150: 0730 773d 6fc9 873d 0be7 0a3d 8a32 46bd
00000160: 63b2 a4bd 97f5 963c 9392 d8bc efd6 253c
00000170: 595b 493d 51fc 133d d529 703d 8fa8 a1bd
00000180: f4e0 833c 8886 fbbc a645 3d3d 12dc e53c
00000190: e272 893c 1113 b23b 8ee2 2dbd 7672 983a
000001a0: 1fc7 33bd 74d2 adbb c724 81bd 6a1b b7bc
000001b0: df21 f0bc dcff 503d 51f2 803d a204 7dbd
000001c0: 8b1d 803d b2e4 7fbd f9a3 89bd a0e0 953d
000001d0: 80d7 60bd 44f1 24bd 90c8 793b e778 f53b
000001e0: 9a78 31bd 516a 83bd 33d6 473d 7720 c53c
000001f0: 415c 9bbd 47bd 95bd ad31 96bd 14b8 283d
00000200: b91a 01bb 75e8 b8bc 9f17 41bd ac42 9b3d
00000210: d615 5bbd dd4c b83c ecf8 aebc ac67 95bc
00000220: a6c2 4e3d 00f3 833d 963d aa3d 263a 923d
00000230: 0378 69bd eff2 8f3c 8ed7 683d 68f7 0f3c
00000240: b3a3 ca3d 0187 193d fffa ef3c 276e de3d
00000250: 8919 2cbd 3182 f13b eeac 70bd 2b2f 0abd
00000260: 93e8 a4bd 09f4 6b3c d322 6f3d 4b90 33bd
00000270: 9c1e e83c 8ee0 78bd 17cd 083d 7dea 453d
00000280: 670b 1d3d d622 9c3d 9be5 10bd 2511 ba3d
00000290: 3bf1 913c 485f 803d 85ad b43a 531a a0bd
000002a0: 12b1 0a3d 6362 a83d 45e3 58bd 36c4 6ebd
000002b0: 45f2 8bbd 0f43 a7bd a5b6 143d 98fa 72bc
000002c0: 3b65 8e3d 70fb 3f3d 397c b5bd ff3c 23bd
000002d0: a2a3 9a3d 0b61 32bd 33e4 68bd 61b9 79bd
000002e0: 5ec2 66bd 93d1 6dbd 6fbe f4bc 7692 93bc
000002f0: 8b5d 15bd f913 713c ae0e 073d a1a8 0c3d
00000300: 152a bf3c 01e0 31bd fa2e 1b3d a42d 8abd
00000310: 7245 1db9 32c5 a53d 9824 ac3c b954 8abd
00000320: 1765 d0bb 324c 783c 7b30 89bd 5de3 533d
00000330: bca8 d8bc 87ee 7b3d 603c bebd 2d05 75bc
00000340: 10c5 91bc bcd3 473c 2ff0 3a3d b345 50bd
00000350: 30e2 553d a266 0fbd 78fb 953d 1ca3 fd3c
00000360: 32a0 3b3d d64b 773d d4e0 4f3d 9156 dfbb
00000370: 39a7 4abd c28c 58bd 790b 573d ce37 5fbd
00000380: f54e 9cbd 35c3 06bd 357b 993d 702b c43d
00000390: eb51 a83d 0318 51bd 2668 9e3d 54ed 8e3d
000003a0: 7720 1c3d e8d7 6d3d 6c80 f6ba 625a 093d
000003b0: 8d1a aa3d de04 0ebc 6bce ad3d 88e5 7d3d
000003c0: 1b17 b8ba f6fb ee3c f182 dc3c 0dfc eb3a
000003d0: 029f 013c ffa0 8dbd 0ef3 99bc 9da4 a9bc
000003e0: fd45 213d 29c8 8f3d a994 7abd 3edf 56bd
000003f0: 4fde 8dbd a22e 85bc ed43 c3bd f10e 583d

conv2.3.bias f4 [32]
-0.014995492 -0.0588482 -0.07411089 -0.01945355 -0.030171383 0.038114164 -0.047044624 -0.025731333
0.010818287 -0.04449947 0.030807486 -0.012688281 -0.0008102167 0.023848843 0.044309556 -0.055661056
-0.05338276 -0.025013946 0.012904655 -0.03158633 -0.0038976502 0.0067023453 0.092240684 0.031001227
0.048592027 0.052098945 0.05319794 0.046880998 -0.04079625 0.0635122 -0.039336186 -0.05855392
00000000: a7af 75bc cf0a 71bd 73c7 97bd 0d5d 9fbc
00000010: fa29 f7bc 991d 1c3d ddb1 40bd 84ca d2bc
00000020: 2f3f 313c 1445 36bd fb5f fc3c 82e2 4fbc
00000030: b964 54ba a65e c33c f07d 353d d9fc 63bd
00000040: e2a7 5abd 0cea ccbc 0c6e 533c ab60 01bd
00000050: b86f 7fbb 599f db3b afe8 bc3d 49f6 fd3c
00000060: 6f08 473d b465 553d 15e6 593d 4a06 403d
00000070: f819 27bd af12 823d fb1e 21bd 3cd6 6fbd

conv2.5.weight f4 [32]
0.99526733 1.0305032 0.98844564 0.976945 0.9933507 0.9804234 0.9987761 0.9937039
1.00341 1.0044074 1.0053304 0.9941813 0.99946326 1.0085894 0.9866205 0.9926823
1.0041069 1.019939 1.0106496 0.99735075 0.99482024 0.9799156 1.003641 1.0038816
0.99685967 1.0089732 1.0179784 1.009985 0.9946426 1.0059897 0.98263973 1.004864
00000000: d7c9 7e3f 87e7 833f c60a 7d3f 1119 7a3f
00000010: 3b4c 7e3f 07fd 7a3f caaf 7f3f 6163 7e3f
00000020: bd6f 803f 6c90 803f abae 803f aa82 7e3f
00000030: d3dc 7f3f 7519 813f 2993 7c3f 6d20 7e3f
00000040: 9386 803f 5c8d 823f f75c 813f 6152 7f3f
00000050: 8aac 7e3f c0db 7a3f 4f77 803f 317f 803f
00000060: 3232 7f3f 0926 813f 1e4d 823f 3047 813f
00000070: e6a0 7e3f 45c4 803f 478e 7b3f 629f 803f

conv2.5.bias f4 [32]
-0.015782394 -0.0068269856 -0.008489004 0.01334934 0.0077939234 -0.002977795 0.023088882 -0.009393457
0.0017440246 0.00071333937 -0.008881517 -0.010743191 -0.01330128 -0.015794665 0.014071019 0.002498971
-0.014643609 -0.021786485 -0.0061121997 0.006623074 -0.0028208897 -0.009977834 0.024442274 -0.0026511995
0.0074919546 -0.018991241 -0.0026622363 0.00030224584 0.0034887798 0.02933037 -0.0063615 0.0024594956
00000000: 144a 81bc e8b4 dfbb 7715 0bbc 31b7 5a3c
00000010: 2b64 ff3b 1c27 43bb e524 bd3c 04e7 19bc
00000020: c197 e43a 65ff 3a3a c883 11bc 3504 30bc
00000030: 9ded 59bc d063 81bc 228a 663c c7c5 233b
00000040: bfeb 6fbc 9279 b2bc d948 c8bb 5f06 d93b
00000050: adde 38bb 127a 23bc 2a3b c83c bfbf 2dbb
00000060: 127f f53b 8593 9bbc ea78 2ebb c076 9e39
00000070: 03a4 643b 3e46 f03c 2174 d0bb 7d2f 213b

conv2.5.running_mean f4 [32]
0.27922928 0.31088856 0.26993185 0.15635079 0.2526652 0.23886341 0.19038859 0.23063755
0.31800976 0.24270944 0.2578101 0.27215302 0.30380583 0.19175765 0.3028468 0.27577496
0.27188054 0.4293488 0.28360543 0.23938334 0.1927957 0.23138094 0.4890471 0.22929698
0.31873673 0.2992583 0.30667308 0.39018503 0.28386465 0.40359673 0.22480059 0.30523428
00000000: 24f7 8e3e c92c 9f3e 8234 8a3e 6c1a 203e
00000010: 555d 813e 9c98 743e 3af5 423e 402c 6c3e
00000020: 2dd2 a23e d388 783e afff 833e a457 8b3e
00000030: 708c 9b3e 1e5c 443e bc0e 9b3e 6032 8d3e
00000040: ed33 8b3e 9bd3 db3e bb34 913e e820 753e
00000050: 3c6c 453e 20ef 6c3e 6264 fa3e d4cc 6a3e
00000060: 7631 a33e 6238 993e 4104 9d3e 55c6 c73e
00000070: b556 913e 3ba4 ce3e 2032 663e ab47 9c3e

conv2.5.running_var f4 [32]
0.2071362 0.37093186 0.14541057 0.07230715 0.18068504 0.12560563 0.18694949 0.08433871
0.38803983 0.102079816 0.086612925 0.25074226 0.12924102 0.14350864 0.107577644 0.12297499
0.3875701 0.49547774 0.15833992 0.25541618 0.2290668 0.18118405 0.26148254 0.17194575
0.17361648 0.23019144 0.1591872 0.46766424 0.18195312 0.25589678 0.25715858 0.38169014
00000000: 831b 543e c8ea bd3e 82e6 143e c515 943d
00000010: 8005 393e c39e 003e b06f 3f3e c6b9 ac3d
00000020: 28ad c63e 390f d13d 1e62 b13d 4a61 803e
00000030: c257 043e eef3 123e ab51 dc3d 50da fb3d
00000040: 976f c63e 42af fd3e dc23 223e e9c5 823e
00000050: 7d90 6a3e 5088 393e 0ae1 853e 8c12 303e
00000060: 85c8 313e 4eb7 6b3e f801 233e b071 ef3e
00000070: eb51 3a3e e704 833e 4aaa 833e e46c c33e
