trained_models/CNN_LSTM/CNN_LSTM_Zscore_CF5_pred_2.pth (torch, 615091 bytes, 90 tensors)

conv1.0.weight f4 [32, 1, 1, 2]
00000000: e7f5 bc3d dccf 6abf 7fa4 f73e 5fe4 4dbe
00000010: 6abd 0bbe b397 09bf 2aa1 b23d 8be7 f5be
00000020: cd74 87be c2f6 50bf 159c be3e d8a4 8fbe
00000030: a266 0cbf f5ba 003f 980d cbbd 662b d8be
00000040: 7e60 6ebe c7b4 96be 0702 1c3e 1efc ff3e
00000050: 17fd 0e3f 6313 413f faf1 b1bc b956 7cbe
00000060: 2dc0 66bb b291 dfbd fe4a ebbe ac82 473e
00000070: d081 05be e276 93be d6d2 863e 8432 283f
00000080: 2b5a c83e 7ffb 173f 0ee2 dabe 39e9 ab3e
00000090: b9b0 0abf fafb 4bbf 6b88 0ebf f5d1 91be
000000a0: 8830 04bf 54b0 8dbe e036 02bf 3d7b 283f
000000b0: a2f2 9cbd 118c a7be 926a a5be c265 2e3f
000000c0: 9d2c b4be 6867 383f 2579 2c3e e2bf 68bf
000000d0: a121 d7be ffb4 0f3f 9492 483e e009 013f
000000e0: e7b4 133f 27f2 a73e daa4 02be 2b0a 17bf
000000f0: 6deb e93d b1ca ab3e 8e2e ed3d f03d 25bf
0.0922659 -0.9172342 0.48367688 -0.20106648 -0.13646474 -0.537471 0.08722146 -0.48028216
-0.264563 -0.8162652 0.37228456 -0.28055453 -0.54844105 0.50285274 -0.09914702 -0.4222061
-0.23278996 -0.29434797 0.15235148 0.49997038 0.55854934 0.75420207 -0.021721829 -0.24642457
-0.003520976 -0.10916461 -0.45955652 0.19483441 -0.13037801 -0.28801638 0.2633273 0.6570208
0.39131293 0.5936813 -0.4275059 0.33576372 -0.5417591 -0.7968136 -0.5567691 -0.28480497
-0.5163655 -0.2767359 -0.5086498 0.65813047 -0.07663466 -0.3272405 -0.3230787 0.6812402
-0.35190287 0.72032785 0.16843088 -0.9091779 -0.42017844 0.56135553 0.19587165 0.50405693
0.5769791 0.32801935 -0.12758198 -0.5899989 0.11421857 0.3355308 0.11581145 -0.64547634

conv1.0.bias f4 [32]
00000000: d5a6 f8bb 4807 32bf 7b5e 21bf ac66 2e3f
00000010: 846c c73e 57be 19bf 6024 ed3e fbc7 21bf
00000020: 2b3d 233e d6d8 c9bd 495a a73e c59f b33e
00000030: 9efb 6ebd 3c7e 07bf 198c d8be 9982 233f
00000040: a11a 503e feca c6be c2b0 27be 9a55 97bd
00000050: 2c0b 24bf 7125 90be fe2a 1fbf e8b0 0ebf
00000060: cb72 3b3e 68cf e73e 3cdf 6ebe b0b8 f73e
00000070: c3d9 813e fa9d e03b 0214 fa3e 7ba5 0bbf
-0.0075882473 -0.6954236 -0.6303479 0.68125415 0.38949978 -0.6005606 0.46316814 -0.6319577
0.15941302 -0.09855811 0.3268607 0.35082832 -0.05834543 -0.52926993 -0.42294386 0.6387115
0.20322658 -0.38826746 -0.16376022 -0.07389374 -0.64079547 -0.28153566 -0.62174976 -0.5573869
0.18305509 0.45275426 -0.23327345 0.48383093 0.25361452 0.00685477 0.4884339 -0.5454938

conv1.2.weight f4 [32]
00000000: 1431 6e3f a1a9 683f 7172 8b3f f136 6e3f
00000010: 34b5 863f 2ecb 803f de60 723f d8c1 843f
00000020: f04e 6e3f 246e 803f b0db 783f d45b 6c3f
00000030: 24ec 843f 0515 7d3f 1f50 8b3f 8ac5 863f
00000040: 84ca 833f 5922 7e3f 564f 793f fd1a 5e3f
00000050: 78bc 773f fd73 793f 922b 8b3f e59e 793f
00000060: 18fb 793f d3f1 6b3f 68b9 7b3f e403 8c3f
00000070: 3645 693f 27a4 873f cab0 883f 077b 8d3f
0.9304364 0.90883833 1.08943 0.93052584 1.0524049 1.0062006 0.9467906 1.0371656
0.930892 1.0033612 0.97210217 0.9232762 1.0384564 0.988602 1.0883826 1.0529034
1.0296178 0.9927116 0.9738668 0.8675993 0.96771955 0.9744261 1.0872672 0.9750808
0.97648764 0.9216587 0.9832978 1.0938687 0.9112123 1.059697 1.0678952 1.105317

conv1.2.bias f4 [32]
00000000: e163 10be 44b6 f6bc 35f0 e3bd b1d0 91bd
00000010: ea00 bbbc 020b 6bbd d146 7e3d f094 e9bd
00000020: bf44 68bc 8bc5 943c b778 8ebc 03e6 b2bd
00000030: f145 33bd 5a0e 1eb8 0597 143c 69bf b83d
00000040: 8023 943c c3ac ce3d abb5 b33c 57b0 d13d
00000050: 3f86 913d 7cb3 773d 831b f3bd 4fb1 bf3d
00000060: 5e24 d0bb f35a 8cbd 609d 533d d148 aa3d
00000070: 578c 08bd f2ac 4fbd 6e2b 143e ff58 1fbd
-0.14100601 -0.030116208 -0.111298 -0.07119883 -0.022827584 -0.057383545 0.062079255 -0.11405361
-0.014176547 0.018160602 -0.017391546 -0.087352775 -0.043767873 -3.76835e-05 0.009069209 0.090208836
0.018083334 0.100915454 0.021937212 0.10238712 0.071056835 0.060473904 -0.11870482 0.09359991
-0.0063519916 -0.06853285 0.051663756 0.0831467 -0.033336964 -0.050702043 0.14469692 -0.038903233

conv1.2.running_mean f4 [32]
00000000: c58e a13e c7fa 643b 00f0 cdbb 33b1 393f
00000010: b361 053f 0e99 ca3b 6e54 263f 00cf cebb
00000020: 52fa 4b3e 89bf d73d f944 da3e a4ae bd3e
00000030: 6f09 8a3b 35c2 f83c 7511 8abb 443b 233f
00000040: 6795 933e 119b cf3d be3e 293e ae51 3b3e
00000050: 6e1b 8dbb 17dd 893e d998 cbbb 5d90 113e
00000060: 666d e63e ce76 283f 3a25 693e 5b6a f73e
00000070: 649e b63e b123 2e3e f970 f93e 896c 0a3c
0.31554237 0.0034939514 -0.0062847137 0.7253601 0.521022 0.0061827963 0.6497258 -0.0063112974
0.19919708 0.10534579 0.42630747 0.37047303 0.0042125504 0.030366043 -0.004213507 0.6376231
0.28824922 0.101369984 0.1652784 0.18292877 -0.0043062484 0.2692649 -0.006213289 0.14215226
0.4500534 0.6580628 0.22768107 0.4832333 0.35667717 0.17005803 0.48719004 0.008448728

conv1.2.running_var f4 [32]
00000000: 746d cb3d bd5e 683a b487 c537 eb33 0a3e
00000010: 28bb ea3d 8eab 8b3a a958 033f 936d 7437
00000020: b5ed 083d fc36 ff3d 724b af3e ce97 c93c
00000030: 9f7d d838 a300 953c fde1 d336 6a17 a83e
00000040: 01c8 4f3e ce19 9c3d d06b 8d3d 2755 5e3d
00000050: 6b7a 3339 0048 b13e f68b 1237 b13c 783e
00000060: c964 073f 3796 823e a33c 803e 288d 463e
00000070: 8136 173e 1862 d13c 4c66 b33d 309c d73a
0.09932986 0.0008864215 2.3547422e-05 0.13496368 0.114614785 0.0010655986 0.5130716 1.4569046e-05
0.03342982 0.12461659 0.34237248 0.024608519 0.000103230814 0.01818878 6.3145985e-06 0.32830364
0.20291139 0.07622109 0.06905329 0.054280426 0.00017116375 0.34625244 8.734865e-06 0.24241902
0.5288816 0.2550523 0.25046262 0.19389784 0.14766885 0.02555947 0.08759746 0.0016449746

conv1.4.weight f4 [32, 32, 4, 1]
00000000: 34d1 5b3b 48c8 24bd 8274 303d 3323 7fbd
00000010: f7c3 043d f421 893d 3d8a 4a3d e17f a4bd
00000020: 12fe 8b3b 3544 f0bc f8a9 ce3b dbe8 8cbd
00000030: ed85 053c b3d3 543d 15a4 a5bc 4372 9fbc
00000040: 44d3 b53d bc03 5c3d 4f23 363d 0954 243d
00000050: 02b1 fa3c e8ae 213d a176 ddbb 65a0 87bd
00000060: b0fb 593b cd39 cc3c 67fc d1bc 52b2 243d
00000070: c9e4 37bb b31b 4e3d ff00 82bd 7639 bcbd
00000080: f4a7 ad3d c1de 91bc c251 203d d0fa cfbc
00000090: 3890 07bd 5aac d2bd 5171 a2bd 6205 a13d
000000a0: 0159 273d d6e4 d0bc 2bbc b73c 404f 78bd
000000b0: 90d3 3e3d 2e84 23bd 44a1 1e3b db0f 34bd
000000c0: 960e 1e3d d770 9b3c 0b80 0f3d 2ad5 503d
000000d0: 6b69 dd3c 3160 283d 580a a23d 6d41 8c3d
000000e0: c17f aa3d 8b63 ae3d eca7 1dbd 8d51 e23c
000000f0: 4876 103c 5c00 62bd 3c1c 9ebc 57b7 8e3d
00000100: 3f45 bfbc 18f9 f2bd 443c dd3c cfa7 70bd
00000110: bb48 b53d b435 8fbc 497e 96bd 90dc b03d
00000120: 8c35 fcbb 9c76 843d 8a5e 47bd a836 bf3b
00000130: 8edc 3a3d 411f 24bd 397b 21bc b484 14bd
00000140: 6048 b0bd 6379 b63d 9edd 1b3d 0de2 383d
00000150: d995 0f3d 8bf3 8bbd ce19 cbbc dd18 043d
00000160: f2c2 233d 1288 09bb 4120 bf3d 408f 9abd
00000170: beab 88bc 127c 34bd 83b9 50bd 1416 d13d
00000180: 6c7c 353d 53d8 02bd c8f7 0f3d a7a5 fb3d
00000190: a413 e03b 9f5f e53b 0ebb 24bd ad60 e5bd
000001a0: fd64 24bd 5f4f fbbc fa5c 93bd 3310 453d
000001b0: 973a 4abd a57b f7bd f0eb bebb 9ce0 453d
000001c0: 3ec3 30bc 60ea 59bd 9806 dfbd 45db 98bd
000001d0: 29d4 c33d 460f 193b fc34 69bc 8c91 3dbc
000001e0: beeb e8bc 5ffc b1bd 4668 063d ef36 0b3d
000001f0: 272d bd3d eed5 a63d a3ee 10bd 7576 643d
00000200: b6e5 61bc e6ea 353d 6e86 c23d 6d8d e53c
00000210: feec f13c 1990 83bd 3f4f 07bd 954e 03bd
00000220: f70f 72bd 2f80 c73b 25ee 0e3b 6511 5f3c
00000230: 8235 0ebc daac 633d 277b 843d 337c 413d
00000240: f4af f2bc 59b2 abbd 1315 b83d edfb d13d
00000250: 69e8 09bc abc4 9b3d deb8 c53d 1d96 6bbc
00000260: e577 14bd 11bf 133c f091 52bd b553 023d
00000270: e36b a43c 3a70 903d 357a d43d 2a74 35bd
00000280: 0038 423c 6c63 48bd 37f1 3d3d 64a1 89bd
00000290: f06c 203c 1a7f 79bd 8b43 2b3c ff58 c0bc
000002a0: 7e75 f1bc 2860 07bd c0ea 37bd eb52 1b3d
000002b0: dc2e 6b3d 2a53 673d 53ea e23d b2a8 87bd
000002c0: 4d7f 9c3d 7dcf 4fbd 3d50 dc3d 8bf8 033e
000002d0: 5150 a6bd a094 61bc 2e20 9d3d cd93 f93b
000002e0: a1fa 6f3d 41ee a5bc 5143 37bd 3b9d d33c
000002f0: 6091 3b3d 768d 6f3d 208b 823d 8e8d 18bc
00000300: 9b25 e4bc c818 c73c 9faa cb3c 5efb 04bd
00000310: 1d51 07bd 93d4 103c d30b 2abd 76ce f83c
00000320: ba43 313c 8823 58bd 82fd 3c3c ed54 153c
00000330: d0a7 66bd 1536 9bbd 5dc7 2abd 3578 373d
00000340: 3fce 26bd dbc9 4d3d de08 92bd 772c 49bd
00000350: d433 3e3d 1e11 3e3a 3a3e 54bc 006e 273d
00000360: 9b3f 053b f53d 50bd 5613 b83d 1a0e 34ba
00000370: d7e2 21bd ac89 983c b12e bbbc 8e05 953d
00000380: becd 73bd 518a 32bc 280c 6bbd b03b bf3d
00000390: 1abd cdbc cb82 c3bc 8d66 a63d c54d 06bd
000003a0: 2ef7 fd3c 7931 62bc d8e8 043d a9ac de3d
000003b0: f6b2 9abc 5fde 8abd 2e01 31bc db86 ff3c
000003c0: 8c9d e1bb 701c 20bd a784 9a3d d379 f43b
000003d0: eed1 8d3b 52d5 5fbd 504d 153b 464d 5a3d
000003e0: af69 1f3d 7416 193d c56c 19bd f20e 94bd
000003f0: ff14 fd3c 8b61 9c3d d8fa 8fbc edb7 1a3e
0.0033541443 -0.040230066 0.04307986 -0.062289428 0.03241345 0.06695929 0.04944824 -0.080322035
0.004272231 -0.029329399 0.006306883 -0.06880351 0.008149606 0.051959705 -0.020219842 -0.019463664
0.08878186 0.0537145 0.044467267 0.040119205 0.030601982 0.039473444 -0.0067585264 -0.0662239
0.003326159 0.024929905 -0.02563305 0.040209122 -0.002805995 0.050319385 -0.06347846 -0.09190647
0.084793 -0.017806413 0.03914047 -0.025388151 -0.033096522 -0.1028678 -0.0793177 0.07862355
0.040856365 -0.025499742 0.022428593 -0.060622454 0.04658848 -0.03992098 0.0024205009 -0.043960433
0.03858813 0.018974705 0.03503422 0.05098454 0.027027806 0.04110736 0.07912129 0.068484165
0.083251484 0.0851508 -0.03849022 0.027626777 0.008817263 -0.055176124 -0.019300573 0.06968563
-0.023348449 -0.11863917 0.027006276 -0.058753785 0.08851763 -0.017481662 -0.07348306 0.08635819
-0.007696813 0.064679354 -0.048674144 0.005835373 0.045620494 -0.04006887 -0.009856039 -0.036259368
-0.086075544 0.089098714 0.038053147 0.045137454 0.035055015 -0.068335615 -0.024792578 0.032250274
0.039980836 -0.0020985645 0.09332324 -0.07546854 -0.016683456 -0.044063635 -0.050958168 0.10209289
0.04430811 -0.031944584 0.035148412 0.12287455 0.006838279 0.0069999243 -0.04021745 -0.1120008
-0.040135372 -0.030677496 -0.07195468 0.048111152 -0.049372282 -0.1208413 -0.005826466 0.048309907
-0.010788737 -0.053202033 -0.108899295 -0.07463697 0.09561951 0.002335505 -0.014233824 -0.011570346
-0.028432723 -0.08690714 0.032814287 0.033987936 0.09237128 0.081462726 -0.03538383 0.055777032
-0.0137876775 0.04441347 0.09498297 0.028021539 0.029531952 -0.06423969 -0.03303456 -0.032057364
-0.059097257 0.0060882787 0.0021809426 0.013614987 -0.008679749 0.055584766 0.06468802 0.047237586
-0.029624917 -0.083836265 0.089883946 0.10253129 -0.008417227 0.07605871 0.09654401 -0.0143790515
-0.036247153 0.009017722 -0.051408708 0.03181811 0.020070976 0.070526555 0.10374872 -0.044300236
0.011854172 -0.04892294 0.04637262 -0.06720236 0.009791598 -0.06091223 0.010453115 -0.023479937
-0.02947497 -0.033050686 -0.04490161 0.037920874 0.057417735 0.056475796 0.1107985 -0.06623973
0.07641468 -0.050734986 0.10757492 0.1288778 -0.08120788 -0.013768345 0.076721534 0.007616496
0.058588628 -0.02025521 -0.044741932 0.02583181 0.045792937 0.058484517 0.06374192 -0.009311093
-0.027849963 0.024303809 0.024861632 -0.032466285 -0.03303634 0.008839744 -0.041515183 0.030371886
0.01081937 -0.05276826 0.01153505 0.009114486 -0.056312382 -0.07578675 -0.041694034 0.044792373
-0.040724035 0.050241333 -0.071305975 -0.04911467 0.046436146 0.00072504755 -0.012954289 0.04087639
0.0020332101 -0.050840337 0.08988063 -0.00068685564 -0.039522972 0.018620335 -0.022849413 0.0727645
-0.059522383 -0.010897235 -0.05738464 0.09337556 -0.025114585 -0.023866078 0.08125029 -0.03278901
0.031001654 -0.0138057405 0.03244862 0.10872776 -0.018884163 -0.06780695 -0.010803504 0.031192234
-0.006885236 -0.03908962 0.07544833 0.0074608116 0.004328004 -0.054646797 0.0022781678 0.05329635
0.038919147 0.03737493 -0.037457246 -0.07229413 0.0308938 0.07635792 -0.017575666 0.15109225

conv1.4.bias f4 [32]
00000000: da09 5b3b c043 423c 0b10 b9bc f04f 003e
00000010: 39c9 183e 84d3 08bd 6298 893d 0626 a23d
00000020: 5ce3 7cbd ec09 0cbd 57ce 2cbd a340 f73d
00000030: 44fb 033d ca78 03bd b3b3 6fbd 5723 993c
00000040: b58e ed3d 72c5 e6bb 041a a83d 7371 1e3d
00000050: 255c 9a3d 89cf 173c 0c3f cd3c 9cb1 5f3d
00000060: 6200 bcbd 0361 b5bc 608d 433d df3f 81bd
00000070: de19 47bd 78a6 3d3d 7d71 cc3d 3873 81bd
0.003342262 0.011856973 -0.022590658 0.12530494 0.1492051 -0.033404842 0.06718518 0.07917409
-0.061740264 -0.03418915 -0.04218897 0.12072875 0.032222047 -0.032097615 -0.058520984 0.01869361
0.11599485 -0.0070425803 0.08208087 0.038682412 0.075371064 0.009265789 0.025054477 0.05461274
-0.091797605 -0.022140985 0.047742248 -0.063110106 -0.048608653 0.046301335 0.09982584 -0.06320804

conv1.6.weight f4 [32]
00000000: dc35 7e3f fb55 7b3f 36fa 7e3f cff4 913f
00000010: 374f 733f 2f44 793f 0804 853f 0a51 813f
00000020: 4222 813f db85 7c3f 1ce4 833f dcbb 853f
00000030: eaa7 793f 7d3c 813f 90f8 773f 2260 843f
00000040: 043a 7b3f 3a2f 8e3f 676a 803f a911 7c3f
00000050: f74e 723f c7bb 763f 9da4 7b3f 3447 753f
00000060: c11c 723f e23a 7c3f 9425 7a3f 4c1c 833f
00000070: af84 753f 3d9a 733f fd2f 733f 75c9 793f
0.9930093 0.9817807 0.9960054 1.1402835 0.9504275 0.97369665 1.0391855 1.0102856
1.008858 0.9864175 1.0303988 1.0447955 0.9752184 1.0096585 0.9686365 1.0341837
0.981354 1.1108162 1.0032471 0.9846445 0.9465174 0.96380275 0.98298055 0.9581177
0.94575125 0.9852735 0.9771359 1.024301 0.95905584 0.95157224 0.949951 0.97573024

conv1.6.bias f4 [32]
00000000: 759a 05bc 3aab 79bb b3d3 043d 9c42 013d
00000010: 0ad8 82bd 9549 923d 6156 3cbd 13e2 163d
00000020: 41e9 803d b7d6 923a d13d 91bc 263b bbbc
00000030: 3a2b b53c 6b99 f73c 2bfb 473c 5355 0d3d
00000040: bf54 14bd cf19 213c 1677 e3bc aee8 613b
00000050: 441e 6d3d 1926 503d 0a1d e9bc 6277 873c
00000060: 5c8e b6bd 0582 19bd 7325 1e3d 1cf7 57ba
00000070: b7c7 f2bb 9e1b 06bd 1258 0ebd 8309 a93c
-0.008154501 -0.0038096444 0.032428455 0.031557664 -0.063888624 0.07142941 -0.045980815 0.036836695
0.0629449 0.0011202906 -0.017729672 -0.022855353 0.022115339 0.030224523 0.012205879 0.0345052
-0.036213633 0.009832813 -0.027766746 0.0034470963 0.05789019 0.050817583 -0.02845623 0.016536418
-0.08913872 -0.037477512 0.038609933 -0.0008238421 -0.007409062 -0.03274118 -0.03475196 0.020634418

conv1.6.running_mean f4 [32]
00000000: 329e c73e ee46 bd3e 0cc1 ff3e 4685 be3e
00000010: cb6b e93e 3e06 193f d9b4 a93e 4589 2a3f
00000020: 5bcc 0b3f 9493 2f3e d1f2 313e b797 b43e
00000030: 0879 ac3e 50ec d93e 414e 113f 7f41 013f
00000040: 5e40 df3e 342e a53e 31e5 043f 1246 1b3f
00000050: c607 d03e b818 c83e 6eb0 1a3f 38d8 113f
00000060: 3b24 ed3e adaa 353f ec79 013f 9639 f43e
00000070: 628e 493e dd5a 193f 25e5 173f 131a b93e
0.3898788 0.36968178 0.4995197 0.37211055 0.45590052 0.5977515 0.33145788 0.66615707
0.54608697 0.1714614 0.17377783 0.35272 0.3368609 0.42563105 0.5676003 0.50490564
0.43603796 0.32261813 0.5191222 0.60653794 0.4063093 0.3908136 0.6042546 0.5697055
0.46316704 0.70963556 0.50576663 0.47700185 0.19683221 0.5990427 0.5933402 0.36152706

conv1.6.running_var f4 [32]
00000000: c683 b23e 1d4c 013f d32b 563f 727b 953e
00000010: 6e7d e63e 866a 3a40 6546 6f3e b528 b03f
00000020: 806f 453f a9bd 043e 2e50 6a3e e77e 7a3e
00000030: fb35 593e d14d 073f 5395 d33f 80cf d53e
00000040: 52ff c13e 62e3 3c3e 1027 da3e 83f5 093f
00000050: d361 0d3f 47e0 143f ebab 0b3f f631 f03e
00000060: 27cf ae3f 7856 1540 b1e8 293f 61ab be3f
00000070: 10fb 483e a267 1e3f 6f4c 563f 9138 b73f
0.3486616 0.50506765 0.8366062 0.29195744 0.4501757 2.9127517 0.23366697 1.3762423
0.7712326 0.12962975 0.22882149 0.24462472 0.21211998 0.52853113 1.6529945 0.41759872
0.37890106 0.18446115 0.42607927 0.53890246 0.5522739 0.5815472 0.545592 0.46913117
1.3656968 2.3334026 0.66370684 1.4896051 0.19627023 0.6187688 0.8371038 1.4314138

conv1.7.weight f4 [32, 32, 4, 1]
00000000: 9c04 27bc d0bf 3ebc 8bba 10bd 89ce 0b3c
00000010: f636 12bb 9fd1 86bd b5d2 4abc c03b da3c
00000020: 1ac5 9abd 2dbe c3bc f99a 59bd 2b3f bb3d
00000030: 0795 41bd 4663 f43c 5662 823d 8096 003e
00000040: 8af5 5a3d de6d fcbc 0762 d7bc ab7f d03d
00000050: fe86 36bd 82b8 143d e1d3 f4bb 3a89 31bd
00000060: 7912 8fbc d4ee f33d 425d 96bd 8703 d4bd
00000070: e306 3dbd 112e a53c 0747 883d dab6 58bc
00000080: 434e c3bc 03de bcbc e8e2 9bbc 70cc 243d
00000090: 16c7 993d d6f4 88bc 3e73 ef3b fbf8 103e
000000a0: f3a5 54bb b974 703d 58ce 143d 8774 bd3d
000000b0: adac 5fbd 6a26 8a3d daec cabc 1735 003c
000000c0: 823e 663b 1f5a 963d c666 87bb ba45 f8bc
000000d0: 3fee 80bd 3e38 62bd 2e6d 9dbd 766a a83c
000000e0: 03c4 10bd 399f 6a3c fb87 db3b 0338 dfbc
000000f0: 459f c83c 675e 4dbd 80ca dc3c 851a b1bc
00000100: 299c ed3c 50f7 863d 3aff efbb 3fc7 1c3d
00000110: 6759 1fbd edd4 3338 d8f6 d13c 80ea 213d
00000120: f94f ebbc b92c c0bc 8f5a 173c 90f6 773c
00000130: d112 293b b6ad eebc 66fb 69bd b99b 613d
00000140: 5428 7fbd 4e9b 93bd 36e2 55bd 0aa6 2d3d
00000150: b533 4bbc 3e45 50bd 6e8a 63bd 3dde 3fbd
00000160: e9d7 343d 65b9 3f3d de81 58bd bd25 32bc
00000170: 4754 3b3d 3e3b ca3b 7ed1 273d ace9 6bbd
00000180: ee3d 5abd c018 8abc e6d6 3ebd 8fa2 febc
00000190: 6ea9 72bd d64b 27bd 1f04 f8bc 54bc 863d
000001a0: c1df 7bbd 5811 aebd d5e7 20bd 690d 1f3d
000001b0: 4ad5 86bd a016 44bc 74eb a4bd 94e5 a93d
000001c0: f916 663d a24f 773d 0e63 143d cd24 da3d
000001d0: 378e 7c3d 93d1 033d 202a 79bd c247 8b3d
000001e0: 3054 003d 8e5a 28bd 3fef 3d3d 25dc 5fbd
000001f0: 56d8 93bd 55ff 613d 20e9 46bd a775 7a3b
00000200: d305 903d 01ec 12bd ca15 96b8 55dc d43d
00000210: 343e 7c3d 471f 1abd 74b9 61bc a839 dbbc
00000220: eb86 183d 9023 4c3d 515d 1f3d 1890 aebd
00000230: 829d 5dbc 9cc8 c83d 1434 48bc ef4a a63d
00000240: 55e3 ba3c 286a 973d c1bf 8a3d 1b6c 98bd
00000250: 0114 933d 9073 263d 6a8f cd3d 5c07 88bd
00000260: b42d c53d 80d2 49bd 82d1 963c 3af8 7e3c
00000270: 321c 56bd 1aa3 67bd f602 c2bc e265 383b
00000280: f7e4 59bd 23a0 d33d e17e 0d3d cd07 4a3d
00000290: 08a6 fdbc a16c a1bd 8ca9 5a3d 3e5d 8e3d
000002a0: e7f4 a5bd 2b24 2fbd 811f 473d 2303 babb
000002b0: 7ffc 563d 87e6 64bd a1da 79bd 92a6 8abc
000002c0: ee18 c33b f943 d73d dfdc 98bd 563e 9dbd
000002d0: c696 c63c d3f5 1dbd 0b36 c2bc 2e46 c73c
000002e0: 844b 90bd 166b bcbd 60de 6f3d d59d 98bd
000002f0: 1e10 a73d 6b2b f9bc ad98 ad3d 6954 bd3c
00000300: 488d 0bbd 0cec 34bd 671a 6a3c cb1e 193d
00000310: 9bca 833d 7d53 383d e91f d0bc 0e9a ba3d
00000320: 941c 33bd 5e60 e5ba 9900 d7bc b4a7 32ba
00000330: 0151 ccbc dc96 cebc b842 98bc 2b78 0f3d
00000340: fc43 8f3c dfd7 36bd 429e cd3d 5b7a 10bd
00000350: 7bd5 91bd c9b2 703d 9f9b 8fbd 188c 30bd
00000360: 0c47 66bd d837 ebbc f74b debc b71c a3bd
00000370: db52 71bd dd16 843d 33a6 573d 2d6a 533d
00000380: 5b7d 3a3d 94ae 01bd e31a 2bbd a3db 8bbb
00000390: adf6 8bbd b3ac 37bd a3bd 6fbd 0cfb c3bd
000003a0: 3ca7 a33d 8a83 9939 29ec ccbc eaf3 8abc
000003b0: 8e3a 753d a386 07bd 4a2e c13c 93e2 79bd
000003c0: bb9e 9b3d 2f39 203d 6a94 53bd ca5c f4b9
000003d0: 4735 153d a620 9abd f4ed 8dbd 66a0 26bd
000003e0: 3294 54bd 80fa ebbc 8609 b9bd fbdb 5ebd
000003f0: 2280 78bd 85ea 013d 015c 99bb 85b3 8fbd
-0.01019397 -0.011642411 -0.03533415 0.008533129 -0.0022310591 -0.06582951 -0.012379338 0.02663982
-0.075571254 -0.023894394 -0.05312631 0.09142908 -0.047261264 0.029832494 0.06366412 0.12557411
0.05345682 -0.030814108 -0.02629186 0.10180601 -0.044562332 0.036308773 -0.007471547 -0.04334376
-0.017464863 0.11910787 -0.07342006 -0.10352235 -0.046149146 0.020163568 0.066541724 -0.013227189
-0.023841029 -0.023055082 -0.019029096 0.04023403 0.07508676 -0.01671831 0.007307439 0.14157479
-0.0032447546 0.058705065 0.036329597 0.092507415 -0.054608036 0.06745608 -0.024771143 0.007825158
0.0035132472 0.07341408 -0.0041321246 -0.030306686 -0.06295442 -0.055229418 -0.0768684 0.020558577
-0.03534318 0.014320188 0.0066995597 -0.027248388 0.024490008 -0.050138857 0.026952028 -0.02161909
0.029005127 0.0659014 -0.0073241265 0.038275953 -0.03890362 4.287523e-05 0.0256304 0.039530277
-0.028724657 -0.023458825 0.009237899 0.015134469 0.002579857 -0.029135566 -0.057124518 0.05508015
-0.06229432 -0.072073564 -0.052217685 0.042394675 -0.012402465 -0.050847284 -0.05555194 -0.046842802
0.04415122 0.046807665 -0.052858226 -0.010873255 0.04573467 0.006171613 0.04097127 -0.057595894
-0.053281717 -0.016857505 -0.046591662 -0.031083373 -0.059243612 -0.040843807 -0.030275403 0.065788895
-0.061492685 -0.08499402 -0.039283592 0.03883115 -0.065836504 -0.011968285 -0.080527216 0.08295742
0.056174252 0.06037868 0.03622728 0.106515504 0.061659064 0.032182287 -0.06083119 0.06800796
0.031330287 -0.041101985 0.04637074 -0.054653306 -0.07218997 0.055175144 -0.04856217 0.00382171
0.07032361 -0.035869602 -7.156616e-05 0.103935875 0.06158276 -0.037627485 -0.013777126 -0.026760891
0.037238043 0.049838603 0.038907353 -0.085235775 -0.013526322 0.09803888 -0.012219448 0.08119761
0.022813478 0.073932946 0.067748554 -0.074424945 0.0718155 0.040637553 0.1003712 -0.06642029
0.09627858 -0.049273014 0.018410448 0.0155621115 -0.052272983 -0.05655203 -0.023683053 0.0028136899
-0.053196874 0.10333278 0.03454483 0.049323846 -0.030962959 -0.078820474 0.05338435 0.06951378
-0.08103352 -0.0427591 0.04861403 -0.0056766435 0.052486893 -0.05588391 -0.060999516 -0.01692513
0.0059538996 0.10511012 -0.07464003 -0.07677905 0.024241816 -0.038564514 -0.02370741 0.024325456
-0.070456535 -0.092001125 0.058561683 -0.07451979 0.08157371 -0.030416211 0.08476386 0.023111539
-0.034070283 -0.044170424 0.014288521 0.037382882 0.06435128 0.045001496 -0.025405841 0.09111415
-0.043728426 -0.0017500033 -0.026245402 -0.0006815151 -0.02494097 -0.02521842 -0.018586501 0.03502671
0.017488472 -0.044639464 0.10039951 -0.035272937 -0.07120796 0.058764253 -0.07012104 -0.043102354
-0.0562201 -0.028713152 -0.027135832 -0.07964461 -0.058916908 0.06449673 0.052648734 0.05161493
0.045529705 -0.03166063 -0.041773688 -0.004268126 -0.06834159 -0.044842433 -0.05853046 -0.09569368
0.07990882 0.00029280438 -0.025014954 -0.01696201 0.059870295 -0.033087384 0.023581643 -0.061007094
0.07598635 0.039117035 -0.05165521 -0.0004660844 0.036427762 -0.075257584 -0.069301516 -0.04068031
-0.051899143 -0.028805971 -0.090350196 -0.05440901 -0.060669072 0.031717796 -0.004680157 -0.070166625

conv1.7.bias f4 [32]
00000000: de0d 16bd 113a 3abd cc5c c5bd a4ae 9cbd
00000010: c7d5 933d c557 37bd d4f0 073d 778b 6b3d
00000020: edb5 a53d 28ce 32bd 9571 e23d 0af5 693d
00000030: 3705 afbc 8675 6f3d 1775 9f3d ff85 36bc
00000040: 9ae7 b53d a09f 5cbd 0876 923d 0b40 ab3b
00000050: 952d e1bc a8d6 b03c e7c9 503d f527 2cbd
00000060: b177 92bc 1ed7 b1bd dac0 b13d 501e 7dbb
00000070: ca2c 743c dd87 683d 01bd 533b 8aef bf3d
-0.03663432 -0.045465533 -0.0963684 -0.076504976 0.07218509 -0.044761438 0.033188656 0.05750605
0.0809134 -0.043653637 0.1105682 0.057118453 -0.021364791 0.05846169 0.07786005 -0.011140346
0.08882065 -0.053863168 0.07151419 0.0052261404 -0.027487556 0.021586731 0.0509738 -0.042030293
-0.017879339 -0.086836085 0.08679362 -0.0038622804 0.014903257 0.056770194 0.00323087 0.0937186

conv1.9.weight f4 [32]
00000000: 0689 773f 2ca0 7c3f 63c9 763f 5108 843f
00000010: 78ad 763f 1675 833f 48f2 763f f114 783f
00000020: 7cb4 803f 53fb 873f 7936 853f 6b1c 783f
00000030: 134a 7c3f 2005 833f 8bda 7f3f 9409 853f
00000040: 39c8 7d3f 7d62 863f 8262 803f 2885 813f
00000050: 96e9 7b3f c206 7c3f d919 773f 174a 7f3f
00000060: 59ad 893f cea8 783f 9896 773f fb89 773f
00000070: 473e 7f3f 9bae 813f b487 7a3f e0cd 753f
0.96693456 0.986819 0.9640104 1.0315038 0.9635844 1.0270107 0.9646344 0.96906954
1.005508 1.0623573 1.0407249 0.9691836 0.9855053 1.0235939 0.99942845 1.0393548
0.9913364 1.0498806 1.0030062 1.0118761 0.984033 0.9844781 0.96523815 0.9972243
1.0756027 0.97132576 0.9671416 0.96694916 0.997044 1.013141 0.97863317 0.96017265

conv1.9.bias f4 [32]
00000000: 5b9e ac3d 8172 21bc b619 963a d9bc a83d
00000010: a79f 98bd f93f 0dbd 12c6 223a 8cc4 893c
00000020: 140e 41bc b8e4 e53c 8813 02bd fdc7 7cbc
00000030: d413 c0bd 69c8 a1bd f5df 683d 5345 8b3d
00000040: 4c85 643d 4c6c 383d febe 73bd 68ec 1abd
00000050: fba4 abbc d616 02bd fea0 88bc cc20 f9bc
00000060: a278 84bc 0d29 933d 2209 c5bc f9e8 173d
00000070: 2161 01bc b91d 29bc 52e0 0a3c c0da 8abc
0.084286414 -0.00985396 0.0011451754 0.08239145 -0.07452326 -0.034484837 0.00062093243 0.016817354
-0.011783142 0.028063163 -0.031756908 -0.01542854 -0.09378782 -0.07899553 0.056854207 0.06800332
0.055791184 0.045025155 -0.059508316 -0.03782311 -0.020952692 -0.03176006 -0.01667833 -0.030411147
-0.016170803 0.07185564 -0.024052206 0.037087414 -0.0078966925 -0.010322028 0.008476334 -0.016950011

conv1.9.running_mean f4 [32]
00000000: 9371 6e3e c815 f03e 43ac 643e 9ec3 fa3d
00000010: 376d ba3e 73f8 c63e 03e9 a93e 3821 cc3e
00000020: d9a3 b53e f5a7 1a3e 5c0d ce3e b380 1d3f
00000030: c3c9 a33e 5803 c33e c394 7d3e bdee 3b3e
00000040: a02a d03e a27f 2c3e e5f4 2d3f 4c8b f43e
00000050: 1669 003f 2a56 e43e 35a5 273f 0d65 eb3e
00000060: d199 4d3e 1e20 303e 8a62 cc3e d469 113f
00000070: d066 c33e 53fd a43e 5fd6 e53e 179e ad3e
0.23285513 0.46891618 0.22331338 0.12244342 0.3641145 0.38861427 0.33185586 0.39869094
0.35476568 0.15103133 0.40244567 0.61524504 0.3198987 0.3808849 0.2476378 0.1835279
0.4065752 0.16845563 0.67951804 0.47762525 0.5016035 0.44596988 0.6548646 0.45975533
0.20078208 0.17199752 0.3991893 0.56802106 0.38164377 0.3222452 0.44890115 0.33909675

conv1.9.running_var f4 [32]
00000000: 56b5 433e e4dd b73e 8242 db3e a97b 063e
00000010: e0e2 893f 82ce aa3e 5e02 9f3e 2bc5 0f3f
00000020: 0db0 a43e 024c 813e 64ba a83e 845c e73e
00000030: e294 693e 7dbd 833e dd63 af3e bc7f 693e
00000040: b18f 933e 4cf8 263e 1c14 493f 65d2 2c3f
00000050: b9b4 3a3f c838 a33e 44d1 263f e8d4 043f
00000060: 3eab 493e a6ee 323e ed7d 703f 405b be3e
00000070: 7e9e 103f 7621 613e 5554 5e3f 2f14 a53e
0.19112143 0.35911477 0.4282418 0.1313311 1.0772362 0.33360678 0.31056494 0.5616023
0.32165566 0.25253302 0.32954705 0.4518777 0.228107 0.25730506 0.34255877 0.22802633
0.28820565 0.16305655 0.7854631 0.67508537 0.7293201 0.31879258 0.65163064 0.5188737
0.1969423 0.1747385 0.9394215 0.37178993 0.5649184 0.2198542 0.8684743 0.3224196

conv2.0.weight f4 [32, 32, 1, 2]
00000000: 1dfc 02be fabe 403d c8a9 81bd ecbf 833d
00000010: 29e9 583d 5035 5b3d 4d0e 043d e130 333c
00000020: db93 063b 847e 06be c588 9c3d 1461 a03d
00000030: d866 963d 088c 90bd c393 a9bb f02e 2d3d
00000040: cfa8 f33c 2741 b5bd 3308 293d a403 ccbd
00000050: a6f0 afbd 8e18 1cbd 61de fbbd 4779 39bd
00000060: 07ec 6dbd a3da 9a3d 7fec df3d 3592 c8bd
00000070: d380 db3c e55c 973d 57fd dfbd 10f6 71bd
00000080: 79db e43d 7be9 483c 0091 f03d 4635 69bd
00000090: f8be 3e3d 8c17 edbd a5cb f8bd 77c9 b33c
000000a0: fb17 c53d 9946 9e3d bbea 8cbd 76de 563d
000000b0: e417 e93d 4330 8c3d 9068 b03d 591b dfbd
000000c0: 9a79 3cbd d9cc 9b3d 65c4 d1bd ede3 ae3c
000000d0: f859 873d 7ed6 d1bd c02d 843d 4d44 453d
000000e0: 8b0d b93d 3d58 a63d 3759 c13d 6255 173d
000000f0: 5ae6 e73d 3161 8e3c e722 01bd 168a 89bc
00000100: 6bd4 083d f76b 7c3b d1a3 68bd cd5a 26bd
00000110: 541a 8b3d b9cb abbc 9dbd dd3d eb1d 9cbc
00000120: fe48 57bd a322 91bd 5f1e 9e3d 855a 68bb
00000130: 8ae7 2abd f1ff 7a3d c244 7c3d af8e bb3c
00000140: 5a8c 083e 0e59 b9bc 9556 dd3c 0869 d33d
00000150: 7c26 513c 41b4 a43c 7fdc 1bbd d86e 5a3d
00000160: 83fd 8fbd 57d8 febc 2ae3 cebd 07f0 2dbd
00000170: f800 1b3d 904b a93d edae 0a3e f05f 88bd
00000180: 6074 403d 4fb7 2dbd a115 7e3d b68d 093e
00000190: d53a a8bd e393 003c e0e2 aabc 2aa5 8cbd
000001a0: 0429 55bd 6dbc 803d e8ec 92bd 5fcc e2bc
000001b0: 97be 9fbc 07a4 d9bc 01f5 323d 6629 ab3a
000001c0: 31cb 493d f6a2 92bb ad3f c63d 1e55 203c
000001d0: 707b 90bd 6106 aabd 3fbc 8eba d356 1cbd
000001e0: 89b9 a2bd 6d31 1d3e d73f 053d 5db9 8bbd
000001f0: 5021 58bc bc8a 35bb e822 4d3c bf67 193d
00000200: 1f84 07bd 122a 3ebd f1ee 3abd 3f38 2b3d
00000210: 5eff a03d 1a0e c4bd 73bc 973d a5f2 30bb
00000220: 42c0 a5bc e369 23bd add9 a13d b14f 52bd
00000230: eab8 d93c 4e0d e2b8 ee7a ad3d 74b5 e43d
00000240: 288a 92bd 35fd 8fbc 6423 ecbd 7c6f febd
00000250: 8106 09bd a6fe 45bd 03b8 7cbd b201 40bd
00000260: 04f0 833d 8977 8a3d 982b 883d 2369 a2bc
00000270: 8516 06bc 7e44 f1bd f12e a23c b029 9abd
00000280: 7782 d3bb eb0e 443d 5fd5 51bd 6adf afbd
00000290: 7e24 5dbd 616e ae3c ef9b a73c 87af ce3d
000002a0: 38fd 9bbc 79d8 8ebd d50a c63c a385 363d
000002b0: d5c9 6e3d a15f 853d 3635 d43d 6b4a 9b3d
000002c0: 4f32 5c3c 9d11 7c3c 1b84 02bd ab8c 8b3c
000002d0: 1fc3 14bd 8d20 c9bd aa69 84bd 2727 1dbd
000002e0: a91d aa3c fc14 2a3d fdcc 05bc 1da2 95bc
000002f0: e8b5 e2bd e118 ae3d 07f2 2c3d 2c6e 193c
00000300: 3165 b43b 7487 bcbd ed0d 20bd a75c b73b
00000310: 6115 97bd 4a8f 98bd 8612 463d c21d 8f3d
00000320: 19ef 7cbd df13 1f3d 2b72 823d 854c 06bd
00000330: a0cd 7cbd 39bb cdbd ca0a 24bd cb85 a2bd
00000340: 0c63 f63c f1f4 9cbd 7e28 f83d 4a31 2d3d
00000350: 9a6b 5d3b 527d a43d 5cc6 ee3c 233c ccbd
00000360: 1066 7fbc 938f ccbc af65 edbd 85ce 95bd
00000370: c1b5 cc3d d2d1 b5bd 45dc 213c 1048 f4bc
00000380: 0734 8dbd f8f3 3dbd dd1a f93d ba39 523d
00000390: 19cc 43bc cc89 ed3d 8b78 d9bd 6f47 3bbc
000003a0: 17ea 253c 4917 03be ecee f3bc dd2e ca3c
000003b0: 4ea2 e0bd 9703 3a3d 2ec6 0ebe ac63 86bd
000003c0: 812a 263c a12b debc 836c 94bd da13 a9bd
000003d0: 39fa 43bd 0673 fbbc 0871 3b3d bf16 b33d
000003e0: afd6 0f3c a143 053e 729c d93d f778 ec3d
000003f0: e3d1 4abd 5334 3abd 7880 8ebd 8c05 53bd
-0.12791486 0.04705713 -0.06331211 0.064330906 0.052956734 0.05351764 0.0322402 0.010936947
0.0020534906 -0.131342 0.07643274 0.07831016 0.07343835 -0.07057959 -0.0051750853 0.04228109
0.02974358 -0.088503174 0.041267585 -0.09961632 -0.08590822 -0.038109355 -0.12298275 -0.045281675
-0.05808642 0.07561233 0.1093378 -0.09793512 0.026794827 0.07390765 -0.109369926 -0.059072554
0.111746736 0.012262697 0.117464066 -0.05693557 0.04656884 -0.11576757 -0.12148217 0.021946652
0.096237145 0.07728309 -0.06880709 0.05245825 0.1138151 0.06845143 0.08613694 -0.10893888
-0.046014406 0.07607431 -0.102425374 0.021348918 0.06608957 -0.10245989 0.064540386 0.04816084
0.09035786 0.08122299 0.094408445 0.03694666 0.11323233 0.017380329 -0.031527426 -0.016789477
0.033405703 0.00385165 -0.056796852 -0.040613938 0.06792131 -0.020971166 0.108271815 -0.019057235
-0.052559845 -0.070866846 0.077206366 -0.0035454344 -0.04172472 0.06127924 0.06158901 0.022895185
0.1333479 -0.022625472 0.027018825 0.103227675 0.012765523 0.020105483 -0.03805208 0.053328365
-0.070307754 -0.031109018 -0.10101922 -0.042465236 0.03784272 0.082663655 0.13543291 -0.066589236
0.046985984 -0.042411145 0.062032346 0.13432965 -0.08214346 0.007847759 -0.020860136 -0.0686744
-0.05204107 0.06285939 -0.071740925 -0.027685342 -0.01950006 -0.026567472 0.043690685 0.0013058602
0.049266044 -0.004474993 0.09680114 0.0097859185 -0.07054794 -0.08301998 -0.0010889842 -0.03816874
-0.07945544 0.15350886 0.032531586 -0.068224646 -0.013191536 -0.00277011 0.012520529 0.037452456
-0.033084985 -0.04642684 -0.04563803 0.041801687 0.078612074 -0.09573002 0.07408991 -0.0027000096
-0.020233277 -0.039895903 0.079028465 -0.05134553 0.026577432 -0.00010778998 0.084707126 0.11167422
-0.071552575 -0.017576793 -0.11530188 -0.12423608 -0.03345347 -0.048338555 -0.061698925 -0.046876617
0.06442264 0.06761081 0.0664894 -0.019825524 -0.00818408 -0.11780642 0.019797774 -0.075274825
-0.0064547616 0.04786579 -0.051228877 -0.08587535 -0.05398988 0.021292867 0.020460097 0.10092073
-0.019041643 -0.06974883 0.024175087 0.04456104 0.05829795 0.065123804 0.10361712 0.075825535
0.013439729 0.015385059 -0.031864267 0.01703485 -0.036318894 -0.09820662 -0.06465466 -0.038367417
0.020766096 0.04152392 -0.008166549 -0.018265778 -0.11069852 0.08500839 0.042223003 0.009364646
0.005505227 -0.09205523 -0.03907578 0.005595762 -0.073771246 -0.07449205 0.04835751 0.06988098
-0.06175146 0.03883731 0.06369432 -0.03278782 -0.061719537 -0.100454755 -0.04004935 -0.07935675
0.030076526 -0.07663906 0.12117098 0.042283334 0.003378606 0.080317155 0.02914732 -0.09972408
-0.015588298 -0.024970805 -0.1159166 -0.07314781 0.09995604 -0.08877911 0.0098791765 -0.029819518
-0.06894689 -0.046375245 0.12163327 0.051324584 -0.011950516 0.11598548 -0.10618695 -0.011430605
0.010126612 -0.12801851 -0.029777013 0.02468055 -0.10968457 0.04541358 -0.13942787 -0.0656198
0.01014197 -0.027120413 -0.072472595 -0.082557395 -0.047846053 -0.030694496 0.045762092 0.08744573
0.008779212 0.1301408 0.10625543 0.1154651 -0.04951657 -0.045460057 -0.06958097 -0.05151896

conv2.0.bias f4 [32]
00000000: 8c30 5a3d fe4a 243d fe77 96bd 9aab 85bd
00000010: 946a abbd 7f2c 0d3d 842b ddbc fb75 c6bd
00000020: 0a49 b33a 9973 ec3c b285 203c 7eb1 b93d
00000030: d8bf 96bc a85a 73bc c43f f6bd 9428 ccbb
00000040: 072e 013d 7555 23bd 9d1e aa3d 95f7 9e3d
00000050: 78ba 523c b015 d43c 71bf 95bb dc28 11bb
00000060: 1abb febc d70b b7bd 0fa2 313e 7233 853d
00000070: 5b7d 77bd 8eb1 52bd f16f 513c 14e5 1e3e
0.053268954 0.04011058 -0.073471054 -0.06526871 -0.083699375 0.034466263 -0.026998289 -0.09690472
0.0013678384 0.028863715 0.0097975 0.09067057 -0.018402025 -0.014853157 -0.12023881 -0.006230423
0.031538036 -0.03987642 0.0830662 0.07762066 0.01286184 0.025889248 -0.0045699407 -0.0022149598
-0.031095076 -0.08937805 0.17346977 0.06503953 -0.060422283 -0.05143886 0.012783037 0.15517074

conv2.2.weight f4 [32]
00000000: 3068 783f 2362 873f bb8d 7b3f c42f 753f
00000010: 7ea6 7b3f 7f23 7c3f b761 783f c1c8 7c3f
00000020: cb9a 863f f42e 773f 4324 7f3f 4bbe 7c3f
00000030: b230 7e3f 3f98 7b3f 105d 853f 151b 8b3f
00000040: 33f4 763f 098e 8b3f cc8a 793f 2640 7c3f
00000050: 0c55 6e3f 5127 7a3f 7cc9 753f ad5a 803f
00000060: b05c 803f b3f4 803f fa86 773f c7d7 833f
00000070: e071 803f 95f8 823f a901 743f 6ed1 7e3f
0.9703398 1.0576824 0.9826314 0.9577601 0.9830092 0.9849166 0.970241 0.98743826
1.0515989 0.9655602 0.99664706 0.98727864 0.99293053 0.98279184 1.0419025 1.086764
0.9646637 1.0902721 0.9747741 0.9853538 0.9309852 0.9771624 0.96010566 1.0027672
1.0028286 1.0074676 0.9669033 1.0300225 1.0034752 1.0232111 0.95315033 0.99538314

conv2.2.bias f4 [32]
00000000: 9636 a2bc 2b85 fa3b 8a12 ecbd f401 c7bc
00000010: 1abe dc3c 4a04 603d ff23 79bd 7b1c d8bc
00000020: cca2 a93d b8fd b7bd 20f6 f83c 4f43 61bd
00000030: 70f7 ab3d 5bf2 a33d 8075 eb3c 667e 1abd
00000040: 9db1 c2bc 1a1d a53d d03a bebd def7 563d
00000050: 475c 573b f7ec 82bc 4ef5 9bbd f798 733d
00000060: f7d3 1a3d abf2 423d 9b44 72bb 960e 01bd
00000070: e9a7 9ebd 5b1d 47bc 42fa 983c c176 623d
-0.01980142 0.0076452694 -0.115269735 -0.024292924 0.026946116 0.05469159 -0.060825344 -0.026380768
0.08283004 -0.0898394 0.030390799 -0.05499583 0.08396804 0.0800521 0.028742552 -0.0377182
-0.023766333 0.08062191 -0.09288561 0.05248248 0.0032861398 -0.015982134 -0.076151475 0.05947205
0.0377998 0.047594707 -0.0036967162 -0.03150805 -0.0774687 -0.012152995 0.01867402 0.055289034

conv2.2.running_mean f4 [32]
00000000: af5b 9a3e 4dda 6e3e 6597 913e bfa4 a93e
00000010: 5ce3 b63e df51 973e 35bc 583e ebab 8c3e
00000020: 3fa3 373e fc47 813e f869 963e b6ab 8c3e
00000030: 4498 353e bf7a bb3e 66c4 283e b0ec 853e
00000040: 0afa 9b3e e12d 813e a348 bb3e 6682 ed3e
00000050: 65de 563e f4ae 9c3e e2fa 5a3e 024b 613e
00000060: fb03 553e 4098 a63e d165 943e 3447 863e
00000070: 7524 793e a409 983e 3688 7b3e 8bbd ee3e
0.30148074 0.23325463 0.28435817 0.33133504 0.35720336 0.2955465 0.21165545 0.27474913
0.17933367 0.25250232 0.29377723 0.27474755 0.17733866 0.36617085 0.1648117 0.2615714
0.30464202 0.25230315 0.36578855 0.4638855 0.20983274 0.3060223 0.21384767 0.2200127
0.208023 0.32538033 0.2898393 0.262262 0.24330314 0.29694855 0.24563679 0.46628985

conv2.2.running_var f4 [32]
00000000: b24f 533e e277 863e 1816 3f3e 77a6 403e
00000010: 1cae 123f 2f07 7b3e 84ea 373e a5e6 553e
00000020: c234 873e 6b38 773e 693a 823e 372a 2a3e
00000030: 27b3 203e d9f2 4d3e 9317 8a3e f9fd b63e
00000040: dcf0 5c3e 761c c73e 9b83 733e 1e38 713e
00000050: 589e 0e3e ccb4 f63e 432a 1f3e 9186 583e
00000060: 7006 203e a03b 613e b1ba 193e e42a 973e
00000070: 42c5 ca3d 1f4e 693e 2451 eb3d c313 e23e
0.2063587 0.26263338 0.18660772 0.18813501 0.5729692 0.24514459 0.17960554 0.20888765
0.2640744 0.24142615 0.25435188 0.16617666 0.15693341 0.2011217 0.2697111 0.3574064
0.21576256 0.388889 0.23780672 0.23556563 0.13927591 0.48184812 0.15543465 0.21145083
0.15627456 0.21995401 0.15012623 0.2952491 0.09900905 0.22783707 0.11490086 0.44155702

conv2.3.weight f4 [32, 32, 4, 1]
00000000: b746 4d3d c19c 6abd 8bf5 35bd 245d b6bd
00000010: 697f 17bd cce9 94bd ddb8 80bd 182e 5f3d
00000020: ee76 5fbd 36dd 8f3c 69fd ccbd 85d8 97bd
00000030: 3b33 16bd 6644 72bd e6e2 7dbd 0517 c03d
00000040: c3fe 87bd 241e fabc b5e8 2ebd 7da6 b3bb
00000050: 4b0a 973d b280 fb3c 4972 693d 5b88 6d3d
00000060: 7037 12bd 9c46 0d3d d0a9 d4bc 8db6 c13d
00000070: bd1f b33c 744f 48bd ad27 313d 03e3 fcbc
00000080: 3eb7 0c3d b02c 6c3c a013 acbc 14d7 e0bc
00000090: 2061 963d 0dfe 8cbc 8b27 67bc 3321 ac39
000000a0: af98 053d 68a9 51bd fa26 a1bc 6729 43bd
000000b0: abba 393d b017 0fbc 932d 84bd 03d2 2bbd
000000c0: ae33 983d 8805 a9bd 69e7 873d 8e2c 333d
000000d0: f9fc 89bd c3ac 983c e9a6 c2bd 4ef0 0f3d
000000e0: f655 bb3c 5fa9 0dbd 7fc0 56bd f786 6f3d
000000f0: 3967 86bd a0fd ac3b 93e6 febc 8a81 dc3d
00000100: f343 853c 16a5 b73d 676c 38bd 7ba7 afbc
00000110: f2dd 693d 30d6 413d f538 fa3b bda8 d03c
00000120: 801c 99bd 653a 9d3d f9d7 ddbc b821 2abd
00000130: 489a 5d3d 7637 85bd 0632 703c f26b b7bc
00000140: ecac 0dbd ef0a a13d bc2b 3d3c 47cd 8cbd
00000150: 66e0 bc3d 6aac bf3d 3412 af3d 2aa7 bd3d
00000160: c895 603d 0726 033d ce63 10bd c763 893c
00000170: f259 a63c 6944 663d 8a00 ba3d f866 ec3d
00000180: 3109 d6bd 8735 fcbb dae1 763d 19e1 1a3d
00000190: 10d5 97bd 0829 56bd 3753 43bd be6e b23c
000001a0: e2b3 9d3c db3b 503d bf0b 45bd 5204 5d3d
000001b0: 9c85 f0bc b368 3bbc 0585 4f3b 4851 01bc
000001c0: a5d7 5a3d d42c 463d de45 233d 503e 4ebd
000001d0: 8ed0 aabc d739 443c 0fbc 37bb e560 1ebd
000001e0: f257 d3bd 978b 20bc dff6 43bd 905d 81bd
000001f0: c774 8a3d 8321 883d ccb2 a5bc 241e a0bc
00000200: 4ac0 1d3d ae6c febc 3f5b 96bd d8cf 72bd
00000210: 6abc 3c3c a292 663d 2d18 6dbd ce21 02bd
00000220: 4d1f 72bd 3ba2 c83c a9d6 65bc cb7a 97bd
00000230: 0456 233d 8850 b1bc 47e2 18bd 2723 25bd
00000240: f285 8fbd 76cc 713d 64e9 083d fa6a ecbc
00000250: df9e 78bd 9b03 8b3d a57a 373d 809f 6cbd
00000260: 6d2d a33d c31c 293d 69e4 593d 8643 afbc
00000270: 51ab 05bc 395b 42bd 7f6d 80bd a0c5 163d
00000280: e5af 88bd cd56 d2bd ff66 a83b ca72 9ebd
00000290: 9fb7 c73d 57fb c43c d1cd 39bc a9a6 d6bc
000002a0: ecf2 f1bc 7e3b 2bbc 595d 23bc 1913 edbd
000002b0: 9480 8ebd 1aa2 79bd d451 32bd da7a 56bd
000002c0: ddcf d83c efcf abbd 235f 9ebd 76ff 0d3d
000002d0: b26d b03c d245 533d 670a 6e3d d04a 613d
000002e0: 5e2b 373c 3130 923d 52e7 a2bd 6c7a c83d
000002f0: 65cf 2b3d 647e 7b3d 6870 263c beac b23a
00000300: edff 553d 3ca2 cfbc 2d81 793d add7 75bd
00000310: 0a84 44bd 057d d43c e9f9 b53c a2c1 9bbd
00000320: ce8e d63b 0678 38bd ffcc 3abd 3998 013d
00000330: 5e8f 733d 9eb3 c9bc 1c8c 8f3d 0772 9b3d
00000340: 1552 d2bd 3ffc dbbc 0770 f2bc dfe4 82bc
00000350: e719 bebc fb09 943d 5a10 c93d becd 41bc
00000360: ce5f bbbd cc44 eabd ae44 03be de2d 843d
00000370: d9d5 f53c b34c b23d 34c2 143d 7489 b83b
00000380: 00f7 2d3d ded5 2fbc ecd2 ec3c ff0a 8bbd
00000390: 3354 0a3d 0b42 b7bd 8997 2d3d 6362 babd
000003a0: 961e 973d fd20 9f3d 3a35 8a3d 0531 d5bd
000003b0: 67d6 053c 8720 8b3d 0622 fabc d29d 88bd
000003c0: 5bfc 5bbd 47d0 783c 573c 49bd faea febc
000003d0: 493c 8d3c 9105 ecbc 010f 1e3c 8616 373d
000003e0: 6bb4 e13c 1094 303d 9716 1cbd 5182 003d
000003f0: 2a50 323d ab8a b03d 47ab 8d3c c342 09bd
0.050116267 -0.0572784 -0.04442362 -0.08904484 -0.036986742 -0.07271156 -0.0628526 0.054487318
-0.05455678 0.017561536 -0.10009272 -0.07414345 -0.03666995 -0.05914726 -0.061983965 0.093793906
-0.06640389 -0.03053195 -0.042702395 -0.0054824934 0.0737501 0.030701015 0.056993756 0.057991367
-0.0356974 0.034491166 -0.02595988 0.09458647 0.02186572 -0.048903897 0.04325073 -0.030869966
0.03435444 0.014414951 -0.021005452 -0.027446307 0.07342744 -0.017210985 -0.014108549 0.00032831132
0.032616314 -0.05118695 -0.019671906 -0.047646906 0.045344036 -0.008733675 -0.06454005 -0.04194833
0.07431732 -0.08253008 0.06635935 0.043743663 -0.06737704 0.018637067 -0.09504492 0.03514128
0.022868138 -0.034585353 -0.052429672 0.058478322 -0.06562657 0.005279258 -0.031115806 0.10766895
0.016267752 0.089670345 -0.045025256 -0.021442166 0.05709643 0.047323406 0.0076361843 0.025471086
-0.07476139 0.076771535 -0.027080523 -0.041536063 0.054102212 -0.06504719 0.014660364 -0.02239034
-0.03458874 0.078634135 0.011546072 -0.06875091 0.09222488 0.09359057 0.08548394 0.092604
0.054830343 0.032018688 -0.03525143 0.01677121 0.020306561 0.056217585 0.09082134 0.11543077
-0.10450972 -0.0076968106 0.060273983 0.037812326 -0.07413685 -0.052285224 -0.04768678 0.021781322
0.019250814 0.050838333 -0.048106905 0.0539592 -0.029360585 -0.011438536 0.003166498 -0.007892914
0.05342831 0.048382595 0.039861552 -0.050352395 -0.0208514 0.011976681 -0.0028035676 -0.038666625
-0.103195086 -0.009798906 -0.047842856 -0.06316674 0.06760555 0.06647017 -0.020226859 -0.019545622
0.03851346 -0.031057682 -0.073416226 -0.059280246 0.011519531 0.056292184 -0.057884384 -0.03177052
-0.059111882 0.02449142 -0.01402823 -0.07396468 0.039876953 -0.021644846 -0.03732517 -0.040316727
-0.0700797 0.05903288 0.033425704 -0.028859604 -0.060698386 0.06787797 0.044794697 -0.0577693
0.07967649 0.041287195 0.053196345 -0.021394502 -0.008158521 -0.047450278 -0.06270885 0.036809564
-0.06674174 -0.10270462 0.005139231 -0.07736738 0.0975182 0.02404563 -0.011340574 -0.026202517
-0.02953478 -0.010451196 -0.009970986 -0.11575908 -0.06958118 -0.060945608 -0.04353507 -0.052363254
0.026466304 -0.083892696 -0.0773299 0.034667455 0.021536682 0.051580258 0.05811539 0.055002987
0.011179773 0.07138098 -0.07954277 0.09788975 0.041945834 0.061399832 0.010158636 0.0013631803
0.052246023 -0.025345914 0.060914207 -0.060020138 -0.047977485 0.02593852 0.022213893 -0.07605292
0.0065477854 -0.04503634 -0.045605656 0.03163931 0.059462897 -0.024621781 0.070091456 0.07590108
-0.10269562 -0.026853679 -0.029594434 -0.015978275 -0.02320571 0.07228466 0.09817572 -0.011828838
-0.09149133 -0.11438903 -0.12819168 0.06454061 0.030009197 0.087060355 0.03631802 0.00563162
0.042471886 -0.010732142 0.02890917 -0.06789207 0.033771705 -0.089481436 0.042380843 -0.09100797
0.07378881 0.07769964 0.067484334 -0.1040974 0.008168793 0.067933135 -0.030533802 -0.06670727
-0.05370746 0.015186376 -0.04912981 -0.031117905 0.01724066 -0.028811248 0.009647132 0.044699214
0.02755185 0.043109953 -0.03810748 0.03137428 0.04353348 0.08620199 0.017293585 -0.033510935

conv2.3.bias f4 [32]
00000000: dd84 ff3d 7b03 483c 9b99 093d 6f50 e43d
00000010: 974b cd3d e852 bbba eab6 003e be6b 6c3d
00000020: 389a 543d 7359 e93d 18b1 2dbd 0d52 f3bc
00000030: c911 cb3c b9f2 bb3c c5b7 a1bd 13fe 823d
00000040: ce4c 36bd 6cf1 e5bb 9106 a53d a2d6 22bc
00000050: 389c f63d e442 a43d 557b 373b 91fa 9cbc
00000060: f08e f3bb 40b2 00bd 2523 9e3d bbaf c13d
00000070: 77fa b53d 5412 e3bc 90dc 813d 2f2b 03bd
0.124765135 0.012207861 0.033593755 0.11148154 0.10024183 -0.0014291676 0.12569776 0.05771994
0.051904887 0.11394014 -0.042405218 -0.02970221 0.024788754 0.022942888 -0.078963794 0.06396117
-0.04450684 -0.007017305 0.08057893 -0.009938868 0.12041515 0.08020571 0.0027997096 -0.019162448
-0.007432811 -0.031419992 0.07721547 0.09457346 0.08885663 -0.0277187 0.06340897 -0.032023605

conv2.5.weight f4 [32]
00000000: dee7 7c3f cc3d 753f f3c1 833f 9339 863f
00000010: 52ba 7f3f e433 823f 6581 7a3f 1cf2 813f
00000020: a2f7 7e3f 3ff2 7a3f ede0 7c3f bc10 783f
00000030: aeaa 763f c316 813f ea78 7e3f 68eb 7e3f
00000040: 06bc 813f a162 7c3f ccff 743f 0aba 833f
00000050: d4a9 7b3f 3c71 8e3f a406 7c3f bd90 733f
00000060: 8af3 7d3f a461 7e3f 5b13 793f cf2f 823f
00000070: 2ded 803f b196 843f aae7 7e3f 4bba 793f
0.987913 0.9579742 1.0293564 1.048632 0.9989368 1.0172086 0.9785369 1.0152011
0.9959661 0.9802589 0.9878071 0.96900535 0.96354187 1.0085071 0.9940325 0.9957795
1.0135505 0.98587996 0.95702815 1.029115 0.9830601 1.1128306 0.9844763 0.9514273
0.99199736 0.9936774 0.9729516 1.017084 1.007238 1.0358487 0.9957224 0.97549886

conv2.5.bias f4 [32]
00000000: 1163 d3bc 7e33 133d 4c2e 34bd 0eaf 773d
00000010: b487 023d 670c 0b3d da3a f63c bf4d 65bc
00000020: c2e8 7ebc 107f 21bd 097e d13a 09e4 d9bd
00000030: 63b7 a8bc 7cbd 38bc e66e 7c3c 9f95 85bc
00000040: efd8 293d f133 093e 1ab6 ba3d dba1 373d
00000050: 5af2 98bc 0977 fb3d 965b bb3c e4ab 91bc
00000060: 177a df3c 65c2 4c3b de38 5fbd c369 de3a
00000070: 8881 1abd 2719 903c 0bfc 74bd 90e8 70bd
-0.025804074 0.03593778 -0.043989465 0.06046968 0.031867698 0.033947375 0.03005736 -0.013995587
-0.0155584235 -0.039427817 0.0015982996 -0.106391974 -0.020595258 -0.011275645 0.0154073 -0.016306696
0.04146665 0.1339872 0.09116764 0.04483209 -0.01867025 0.122785635 0.02287082 -0.01778216
0.027279897 0.0031243798 -0.054497592 0.0016968775 -0.037721187 0.017590119 -0.05981068 -0.05881554

conv2.5.running_mean f4 [32]
00000000: 7fe4 973e 39e6 b33e 8252 b93e 9d2a 9d3e
00000010: 6544 963e f2db 883e b215 ce3e 4dae b83e
00000020: acd3 b13e 2c17 a33e 0d1b 3e3e 6af9 d33e
00000030: 305f b73e b898 963e 4eb8 bd3e f3b0 da3e
00000040: ff95 643e 4067 a93e 3078 ca3e 203e 5d3e
00000050: 20df bc3e f2b0 9c3e e0b0 f13e 5b5a 833e
00000060: 9f3d f53e cbb6 8e3e 9667 063f d85b 963e
00000070: 2974 f13e 19b5 8b3e bd96 ab3e 2b63 6d3e
0.29666516 0.35136583 0.3619576 0.30696574 0.29349056 0.26730305 0.40250927 0.3607048
0.34731805 0.31853616 0.18565007 0.41401225 0.3581481 0.2941339 0.37054676 0.42713127
0.22322844 0.33086586 0.3954482 0.2160573 0.3688898 0.3060375 0.47205257 0.25654873
0.47898576 0.27873835 0.5250181 0.29366946 0.47158936 0.27286604 0.33513442 0.23182361

conv2.5.running_var f4 [32]
00000000: 40d3 463e 1ef8 7f3e a4c1 393e 903d b73e
00000010: 98b6 5d3e 0fd8 a73e 1f0c 833e 3755 6e3e
00000020: 6f48 c53e 5008 573e 0c81 353e e735 1d3f
00000030: d408 833e 9135 373e 98b0 883e ef1b 0f3f
00000040: 79a9 7c3e f944 8e3e ddb7 a43e 228c 833e
00000050: cc78 a53e f3e0 9a3e e440 af3e a111 1a3e
00000060: 0e1d 253f 10f9 cb3d a1df 043f cc2d 133e
00000070: c55e 913e 6a46 463e 2dad b43e 3354 c43d
0.19416523 0.24996993 0.18140274 0.35789156 0.21651685 0.32782027 0.25595185 0.23274694
0.38531825 0.20999265 0.17725009 0.61410373 0.25592673 0.17891528 0.2669723 0.55902
0.24674024 0.27786997 0.32171527 0.2569285 0.32318723 0.30249748 0.34229195 0.15045787
0.6449746 0.09959614 0.5190373 0.14372939 0.28392616 0.19362798 0.35288373 0.09586372
