trained_models/CNN_LSTM/CNN_LSTM_Zscore_CF1_pred_2.pth (torch, 615091 bytes, 90 tensors)

conv1.0.weight f4 [32, 1, 1, 2]
0	0xbe5cd233	-0.2156456
1	0xbe62ae15	-0.2213672
2	0xbf011f19	-0.50438076
3	0xbf018136	-0.50587785
4	0xbf15c923	-0.58510035
5	0xbe159a45	-0.1460963
6	0xbef75bc7	-0.48312208
7	0x3f023933	0.5086853
8	0x3c734d32	0.014849948
9	0x3eec622c	0.4616865
10	0xbf11c38d	-0.5693901
11	0x3e3bbf49	0.18334688
12	0x3e35e7ad	0.17764159
13	0xbf0215c5	-0.5081447
14	0xbf2ebef0	-0.682601
15	0xbbb49177	-0.005510505
16	0xbf225d6b	-0.63423795
17	0x3e8374a6	0.25674933
18	0xbee5f7d5	-0.44915643
19	0xbe893c08	-0.26803613
20	0xbef4ef6d	-0.47838917
21	0xbf39eb13	-0.7262432
22	0xbe83a696	-0.25713032
23	0x3f02481b	0.50891274
24	0x3efa73cb	0.48916468
25	0xbee680db	-0.45020184
26	0x3e556829	0.20840515
27	0x3f23bac2	0.63956845
28	0xbd938fad	-0.07205138
29	0x3c65aa94	0.01401772
30	0x3f225ad9	0.6341987
31	0x3e8f42e9	0.27980736
32	0xbe1ab4e6	-0.1510807
33	0xbe5ced27	-0.21574841
34	0xbebf0da4	-0.37315094
35	0x3f2aadad	0.6667126
36	0xbf2887bd	-0.6583212
37	0xbf28a7b6	-0.65880907
38	0xbf00278d	-0.5006035
39	0xbf132fac	-0.57494617
40	0x3f30b42f	0.6902494
41	0xbf038316	-0.51371896
42	0xbb81e295	-0.0039637783
43	0xbe31d3e4	-0.17365986
44	0x3f06cdca	0.5265776
45	0xbe3694e3	-0.17830233
46	0xbf0aba85	-0.54190856
47	0x3dbebc59	0.09313268
48	0x3d603881	0.054741386
49	0x3ee5042d	0.44729748
50	0xbf331b1c	-0.6996324
51	0x3f13852c	0.5762508
52	0xbcc3adde	-0.023886617
53	0xbe98a55d	-0.29813662
54	0x3e35e722	0.17763951
55	0xbe91c734	-0.28472292
56	0xbf0919f8	-0.5355525
57	0xbf009c45	-0.5023845
58	0x3f1cf4d1	0.6131106
59	0x3ed7d8e3	0.4215766
60	0xbea9cde4	-0.33164895
61	0x3e95c806	0.29254168
62	0xbe946d4a	-0.2898963
63	0xbf214dc1	-0.6300927

conv1.0.bias f4 [32]
0	0x3d2bf250	0.041979134
1	0x3d9cdbe0	0.07659125
2	0x3e8531ae	0.26014465
3	0xbecc9a85	-0.3996164
4	0x3f131146	0.5744823
5	0xbec89e98	-0.39183497
6	0x3f2a2f2a	0.66478217
7	0xbe649a76	-0.22324547
8	0xbb7d6e22	-0.003867038
9	0xbf140b9c	-0.57830215
10	0x3e4edf50	0.20202374
11	0xbf0d73cf	-0.55254835
12	0x3f0c9c9a	0.54926455
13	0x3f13b804	0.5770266
14	0x3e254ef3	0.16143398
15	0xbe05f5c1	-0.13082029
16	0x3e46a9b6	0.19400677
17	0x3f228a83	0.634926
18	0xbf24edd2	-0.64425385
19	0xbf02af19	-0.5104843
20	0xbc10d286	-0.008839255
21	0xbd41bd7a	-0.04729984
22	0x3ec52c4e	0.38510364
23	0xbf1d5f64	-0.6147368
24	0x3e2c303f	0.1681528
25	0xbf309ee3	-0.6899244
26	0xbedffa66	-0.43745726
27	0xbe8342f5	-0.25637022
28	0xbe40f13a	-0.1884202
29	0xbecd16ba	-0.40056401
30	0x3cd2ad67	0.02571745
31	0x3e98bd23	0.298318

conv1.2.weight f4 [32]
0	0x3f7fe75e	0.99962413
1	0x3f7dad0d	0.9909218
2	0x3f7a685d	0.97815496
3	0x3f7e7154	0.99391675
4	0x3f81307e	1.0092924
5	0x3f7bc2e1	0.98344237
6	0x3f798e7f	0.97483057
7	0x3f78d1f1	0.97195345
8	0x3f802afe	1.001312
9	0x3f825d10	1.018465
10	0x3f7fb294	0.99881864
11	0x3f7da020	0.99072456
12	0x3f7e1dc1	0.9926415
13	0x3f8355d6	1.026057
14	0x3f7b93e6	0.9827255
15	0x3f7ef9b9	0.99599797
16	0x3f803f28	1.0019274
17	0x3f79bb9c	0.97551894
18	0x3f82cecc	1.0219359
19	0x3f824628	1.017766
20	0x3f7bd79c	0.9837587
21	0x3f8423d5	1.0323435
22	0x3f79ae7f	0.97531885
23	0x3f815b4f	1.010599
24	0x3f7fe432	0.99957573
25	0x3f80a3bb	1.0049967
26	0x3f816834	1.0109925
27	0x3f836c66	1.0267456
28	0x3f7d18e1	0.9886609
29	0x3f826ad2	1.0188849
30	0x3f7dff92	0.99218094
31	0x3f823f48	1.0175562

conv1.2.bias f4 [32]
0	0x3b278dd2	0.002556671
1	0x3a036b5d	0.0005013252
2	0x3c6983fb	0.014252658
3	0xbb513b17	-0.003192609
4	0x3c3a883b	0.011385019
5	0x3c07d030	0.008289382
6	0xbb6740a8	-0.003528634
7	0x3cb3e45d	0.021959478
8	0x3bcac7fc	0.006188391
9	0xbc5b0af3	-0.01336931
10	0x3c167e07	0.009185321
11	0x39fa521f	0.000477449
12	0xbc076e80	-0.008266091
13	0x3c4f92dc	0.012669291
14	0xbab26dee	-0.0013613084
15	0x3c3b315f	0.011425345
16	0x3ce8571b	0.028361848
17	0x3c15d194	0.009144206
18	0x3b9e8f70	0.0048388764
19	0x3bced13d	0.0063115642
20	0xbc808f6d	-0.01569339
21	0xbcd37c67	-0.025816156
22	0xbaaeb001	-0.00133276
23	0xbb4a4efb	-0.003086983
24	0x3c9bbb0b	0.019010087
25	0xbae7ebee	-0.0017694214
26	0xba606316	-0.0008559687
27	0xbc64fa34	-0.013975669
28	0x3c6ae239	0.014336162
29	0x3a00d24a	0.0004914148
30	0xbbabc61b	-0.005242122
31	0xbc13b0a2	-0.0090142805

conv1.2.running_mean f4 [32]
0	0x3de748f2	0.1129321
1	0x3e80f553	0.25187168
2	0x3ecb4040	0.39697456
3	0x3e1bfd41	0.15233327
4	0x3f118254	0.5683949
5	0x3dc7e19d	0.09759829
6	0x3f3c7be9	0.7362657
7	0x3e488fba	0.19586077
8	0x3eb2e3c3	0.34939393
9	0xbb97b056	-0.004629175
10	0x3eafac28	0.34311032
11	0x3da315a6	0.079631135
12	0x3f299b0a	0.66252196
13	0x3f1261f6	0.57180727
14	0x3e249579	0.16072644
15	0x3e485bae	0.19566223
16	0x3e5c171e	0.21493194
17	0x3f2f1fd9	0.6840797
18	0x3d2e972a	0.04262463
19	0x3d09bc99	0.033627126
20	0x3ee0e9e3	0.4392844
21	0x3cbee431	0.02330217
22	0x3ef3f35f	0.47646615
23	0x3b74611b	0.0037289325
24	0x3e46714b	0.19379155
25	0x3e127ae3	0.1430469
26	0xbb8e15ff	-0.004336118
27	0x3d140f6b	0.036147516
28	0x3e0e2fdc	0.13885444
29	0x3d923534	0.07139054
30	0x3e6c9800	0.23104858
31	0x3ecb2b9c	0.3968171

conv1.2.running_var f4 [32]
0	0x3c97813a	0.018494237
1	0x3dc23738	0.094831884
2	0x3e1094b6	0.14119229
3	0x3e3bd3e3	0.18342547
4	0x3e492a08	0.1964494
5	0x3d0fe9d8	0.03513512
6	0x3e2877cf	0.16451953
7	0x3d32b5af	0.0436303
8	0x3e22903a	0.1587533
9	0x38b1c5a4	8.476831e-05
10	0x3e0e253c	0.13881391
11	0x3df06535	0.11738054
12	0x3eb5b89c	0.35492408
13	0x3ea2f608	0.31828332
14	0x3bc920ad	0.0061379285
15	0x3d8f1a95	0.06987492
16	0x3ca09b5d	0.019605333
17	0x3f2b2720	0.66856575
18	0x3c517d7e	0.012786267
19	0x3c09685e	0.0083866995
20	0x3e89aea6	0.2689106
21	0x3a6377aa	0.0008677194
22	0x3e8a6cc9	0.2703612
23	0x3b44204c	0.0029926477
24	0x3e2130f3	0.15741329
25	0x3e58d4bd	0.21174903
26	0x37043c34	7.88183e-06
27	0x3b79bc7a	0.0038106726
28	0x3d3e3336	0.046435557
29	0x3d14e2e5	0.036349196
30	0x3ddf673c	0.10908362
31	0x3da7f190	0.08200371

conv1.4.weight f4 [32, 32, 4, 1]
0	0xbda8baaf	-0.08238732
1	0xbcd56010	-0.026046783
2	0xbd6de1b6	-0.058076583
3	0x3a650a92	0.0008737232
4	0xbd71af28	-0.059004933
5	0xbc96a7f8	-0.01839064
6	0xbdbdf87b	-0.092759095
7	0xbcf8c826	-0.030368876
8	0xbbe85b3b	-0.0070909536
9	0xbcaf4a31	-0.021397682
10	0x3c9c2634	0.019061185
11	0x3d790f48	0.06080559
12	0xbd842b22	-0.064535394
13	0x3c9c4d65	0.019079873
14	0xbcbba5c7	-0.022906197
15	0x3ca024b1	0.019548746
16	0x3db1124a	0.086460665
17	0xbd02ab45	-0.031901617
18	0x3cf962b6	0.030442577
19	0x3d07e541	0.033177618
20	0x3d0898b3	0.03334875
21	0x3cf3c1d3	0.029755509
22	0xbcc57218	-0.024102256
23	0xbcb08431	-0.021547409
24	0x3d8caf82	0.06869413
25	0xbdd0cd19	-0.10195369
26	0x3d1922b4	0.03738661
27	0x3d0da74d	0.03458338
28	0xbcf433ef	-0.02980992
29	0xbcdff0b6	-0.02733646
30	0x3d6383cc	0.055545613
31	0x3da18ebc	0.078885525
32	0x3c5c6623	0.013452086
33	0xbd8852a2	-0.06656386
34	0xbc9a0ca7	-0.018804861
35	0x3d86568f	0.065594785
36	0xbd0ba504	-0.034092918
37	0x3dbebee4	0.09313753
38	0xbd1b7922	-0.037957318
39	0xbd4b3fb1	-0.049621288
40	0xbc0eba48	-0.008711405
41	0xbd4ab67d	-0.04949044
42	0x3c7b8914	0.015352506
43	0x3bb73051	0.0055904766
44	0x3cd72fc3	0.026267892
45	0xbda2c470	-0.07947624
46	0x3da31c0e	0.079643354
47	0xbd755eef	-0.05990499
48	0x3d3e9288	0.04652646
49	0xbda9ed6c	-0.08297238
50	0xbd42cc22	-0.047557957
51	0xbdbc298c	-0.09187612
52	0xbd803a46	-0.06261115
53	0x3d931d8f	0.07183372
54	0x3d7b5046	0.06135585
55	0x3da436d5	0.08018271
56	0x3d8bfbc6	0.06835131
57	0xbd89f087	-0.0673533
58	0x3d4b40dc	0.0496224
59	0x3d1803e3	0.03711308
60	0x3d40ea98	0.047098726
61	0x3d87b10b	0.06625565
62	0x3d20b1ae	0.03923195
63	0xbd87d14e	-0.066317186
64	0x3cd244fb	0.025667658
65	0xbd4080eb	-0.046997946
66	0xbda78fb4	-0.08181706
67	0xbdd440ae	-0.10363899
68	0x3ceff8d4	0.029293455
69	0x3daf1490	0.08548844
70	0x3da2701c	0.079315394
71	0x3d1c303a	0.03813193
72	0x3b9342af	0.0044940333
73	0xbd791ac0	-0.060816526
74	0xbdab34d3	-0.08359685
75	0x3b9d1894	0.0047941897
76	0x3d838ec5	0.064237155
77	0xbd7dae0d	-0.061933566
78	0x3d35910f	0.04432779
79	0xbd857d8f	-0.06518089
80	0x3af125b1	0.0018398074
81	0x393f603a	0.00018251027
82	0xbd6a8711	-0.057257716
83	0xbdaef381	-0.085425384
84	0xbc3fb8c7	-0.011701769
85	0x39b33633	0.00034181922
86	0x3c413f71	0.011794911
87	0x3ccc1bf0	0.024915665
88	0xbd33607e	-0.043793194
89	0x3bbb2d68	0.0057122
90	0xbd872357	-0.065985374
91	0xbce76216	-0.028245013
92	0x3cc47a32	0.023984049
93	0x3d80da49	0.062916346
94	0xbd77ac1f	-0.06046688
95	0x3d49fbd1	0.049312416
96	0x3bece4e2	0.0072294334
97	0xbd93e0a4	-0.07220581
98	0x3da9777f	0.08274745
99	0x3defe6a1	0.11713911
100	0xbd85b2ab	-0.06528219
101	0x3db1d1f8	0.086826265
102	0x3be92ea6	0.0071161566
103	0x3d237f73	0.039916467
104	0xbc860b1d	-0.016362721
105	0x3d3049d1	0.043039147
106	0xbce42f4a	-0.02785458
107	0x3c9fbeb7	0.01950012
108	0x3d6aebdd	0.057353843
109	0x3d7173f5	0.058948476
110	0xbd168542	-0.03674818
111	0xbdc4ca09	-0.09608848
112	0xbb0d7df6	-0.002158997
113	0xbd014596	-0.031560503
114	0xbd9c1fdd	-0.07623265
115	0xbd218201	-0.039430622
116	0xbc1e220a	-0.00965167
117	0xbc477912	-0.0121748615
118	0xbcecfa36	-0.028927904
119	0xbd56a0a9	-0.05239931
120	0x3d9517fd	0.07279966
121	0xbd021d4e	-0.03176623
122	0xbaaa7c23	-0.0013006966
123	0x3dc6a096	0.09698598
124	0xbdb91ecf	-0.090390794
125	0xbc3c16cb	-0.011480044
126	0x3cea4434	0.028596975
127	0x3ceee808	0.029163375
128	0xbd9bffed	-0.07617173
129	0xbdacb280	-0.08432484
130	0xbd162838	-0.03665945
131	0xbda50132	-0.080568686
132	0xbcbf728a	-0.023370046
133	0x3c9a02f4	0.018800236
134	0xbd822265	-0.063542165
135	0xbd9dcde8	-0.07705289
136	0x3ce93ee0	0.028472364
137	0xbcc147e8	-0.023593858
138	0xbda8a978	-0.082354486
139	0xbd8ee55a	-0.06977339
140	0x3cff0123	0.031128472
141	0xbc96cb89	-0.0184076
142	0x3ca4a3e5	0.020097682
143	0x3d84f0e2	0.06491257
144	0xbcca7c47	-0.024717463
145	0xbbfdeb97	-0.0077490318
146	0xbd2f0fa9	-0.042739544
147	0xbd83a541	-0.06428004
148	0xbc871ba7	-0.016492678
149	0xbd385a46	-0.045007966
150	0x3c7695b8	0.015050344
151	0xbc1953cb	-0.009358357
152	0xbd15b806	-0.03655245
153	0xbd144a26	-0.036203526
154	0x3d4b0c9b	0.04957257
155	0xbd8cfe23	-0.0688441
156	0xbd7bc64c	-0.061468408
157	0xbca0e421	-0.01964003
158	0x3d0444fa	0.032292344
159	0x3ceb62d2	0.028733645
160	0xbd7600d4	-0.060059384
161	0x3ccbf40b	0.024896642
162	0xbd533cef	-0.051571783
163	0xbda7c5f5	-0.08192054
164	0x3d00ae8a	0.031416453
165	0xbd8696b9	-0.06571717
166	0x3c0e0e4a	0.008670399
167	0x3d66b2d7	0.0563229
168	0x3d8237f2	0.06358327
169	0x3ba79a42	0.0051148245
170	0xbd8712c0	-0.06595373
171	0x3da7094d	0.08156071
172	0xbd932c40	-0.071861744
173	0x3d58eb60	0.052958846
174	0x3ccc860b	0.02496626
175	0x3dacf26e	0.08444677
176	0xbd2fe8fc	-0.0429468
177	0x3d0c435a	0.03424392
178	0x3db97b06	0.09056668
179	0x3d1d5dcf	0.03841954
180	0x3d7f1fc0	0.06228614
181	0x3cccf9db	0.025021484
182	0x3d9ea5d6	0.077464744
183	0xbbf3441c	-0.0074238908
184	0x3c24b3e1	0.010052652
185	0xbcfdeb2c	-0.030995928
186	0xbd828831	-0.06373633
187	0x3b7faf11	0.003901426
188	0x3cf0e92c	0.02940806
189	0xbd665738	-0.056235522
190	0x3d492563	0.04910792
191	0x3d9a9a18	0.07548922
192	0xbd07d0af	-0.033158
193	0xbdaf5807	-0.08561712
194	0x3d739912	0.05947215
195	0x3d726f28	0.059188038
196	0x3cd7f015	0.026359597
197	0x3c81a3b5	0.015825132
198	0xbd981a5a	-0.07426901
199	0xbd4b7ee1	-0.049681548
200	0x3db61f0f	0.08892643
201	0xbd4f946f	-0.050678667
202	0xbc87afb2	-0.01656327
203	0xbd49599f	-0.049157735
204	0x3da26962	0.079302564
205	0xbc26b485	-0.010174875
206	0x3d58d5aa	0.05293814
207	0x3da4e515	0.080515064
208	0x3d036be5	0.032085318
209	0x3d44301e	0.04789745
210	0x3d8d428b	0.06897458
211	0x3c1439b4	0.009046961
212	0xbc140b6a	-0.009035924
213	0xbda0375a	-0.078230575
214	0xbd9807bd	-0.07423351
215	0xbbbe9e45	-0.005817207
216	0xbc15bafc	-0.009138819
217	0xbd6bbd5e	-0.05755364
218	0xbd43ba81	-0.047785286
219	0x3d2082f9	0.039187405
220	0xbc869d70	-0.016432494
221	0xbd5b557e	-0.05354833
222	0x3c752134	0.0149615295
223	0x3cdb148e	0.0267432
224	0xbad56438	-0.0016280478
225	0x3d5f944d	0.05458479
226	0xbdad9fbb	-0.08477732
227	0xbd1175fe	-0.035512917
228	0xbd6d4f6a	-0.057937063
229	0x3d40549e	0.046955697
230	0xbcc329cc	-0.023823641
231	0xbdae75c0	-0.08518553
232	0x3d29801c	0.04138194
233	0xbdb3cc17	-0.087791614
234	0xbcef9c25	-0.02924926
235	0xbd9e090a	-0.07716568
236	0xbd17683b	-0.036964636
237	0xbd59a8aa	-0.053139366
238	0x3d3054b4	0.04304953
239	0x3d6bcc52	0.057567902
240	0xbd94bb23	-0.07262256
241	0x3d8bf4f1	0.06833828
242	0xbc8d014b	-0.01721253
243	0xbd3fe0f7	-0.046845403
244	0x3d35964e	0.044332795
245	0x3d6bc4e6	0.057560824
246	0xbcec9ecb	-0.028884312
247	0xbcde12cc	-0.027108572
248	0xbd5aebeb	-0.053447645
249	0xbd1dfabb	-0.038569193
250	0xbd84489b	-0.06459161
251	0xbd9418e2	-0.072313085
252	0x3d266c07	0.040630367
253	0xbd471cfe	-0.048611633
254	0x3b914c4d	0.0044341446
255	0x3c53dfa5	0.012931739

conv1.4.bias f4 [32]
0	0xbd25135a	-0.04030166
1	0x3d60a18f	0.054841574
2	0x3da7dc77	0.08196347
3	0xbc72433b	-0.014786537
4	0x3c81d7b0	0.015849918
5	0xbd68300a	-0.05668644
6	0x3bc4d124	0.006006377
7	0xbba0d97d	-0.004908739
8	0xbd279e59	-0.040922496
9	0x3d8fff29	0.0703109
10	0xbd439c94	-0.047756746
11	0xbda3c453	-0.0799643
12	0x3d885bff	0.06658172
13	0xbd1ae440	-0.037815332
14	0x3d100e1b	0.035169702
15	0xbb1c41d1	-0.002384294
16	0x3d90d18b	0.07071217
17	0xb74f9751	-1.2373393e-05
18	0x3db576ac	0.088605255
19	0xbc9a790a	-0.018856544
20	0xbcecc907	-0.028904451
21	0xbd7a01c3	-0.061036836
22	0xbdccda9b	-0.10002633
23	0x3d679616	0.056539617
24	0x3d5465ca	0.051854886
25	0x3c8b89ac	0.01703342
26	0x3c66dcbd	0.014090714
27	0xbd3968a6	-0.045265816
28	0x3d70641e	0.05868923
29	0xbb93887b	-0.0045023537
30	0x3ca649dc	0.02029889
31	0x3cbcff4a	0.02307095

conv1.6.weight f4 [32]
0	0x3f810a2a	1.0081227
1	0x3f7c2fe4	0.98510575
2	0x3f7fc907	0.9991612
3	0x3f807097	1.003436
4	0x3f7ad80c	0.9798591
5	0x3f7e8444	0.9942057
6	0x3f7f90fb	0.998306
7	0x3f7eb0d5	0.99488574
8	0x3f801d5b	1.0008959
9	0x3f7dc86a	0.9913393
10	0x3f7e3ebb	0.9931447
11	0x3f83006a	1.0234501
12	0x3f7ebd62	0.99507725
13	0x3f804954	1.0022378
14	0x3f7f6d3e	0.99776065
15	0x3f815a48	1.0105677
16	0x3f7ca595	0.9869016
17	0x3f8231f4	1.0171494
18	0x3f80beaf	1.0058192
19	0x3f7b9969	0.9828096
20	0x3f803eb2	1.0019133
21	0x3f7b1e3e	0.9809302
22	0x3f81c430	1.0137997
23	0x3f810f2d	1.0082756
24	0x3f7ce882	0.9879228
25	0x3f80877e	1.0041349
26	0x3f83355e	1.0250661
27	0x3f811fbd	1.0087811
28	0x3f802fcc	1.0014586
29	0x3f7e52a8	0.99344873
30	0x3f815674	1.0104508
31	0x3f7dfce8	0.9921403

conv1.6.bias f4 [32]
0	0x3c6dc350	0.014511898
1	0xbc251d98	-0.0100778565
2	0x3ba01815	0.0048856833
3	0x39c1bc14	0.00036951958
4	0xbbbdf686	-0.00579721
5	0x3a94bc0f	0.001134755
6	0xbc130af0	-0.008974776
7	0x3bc7d0af	0.006097875
8	0x3bbab762	0.0056981305
9	0x3bbe0d61	0.0057999347
10	0x3c02ec99	0.00799098
11	0x3c0c23ff	0.008553504
12	0x3c054dc1	0.008136214
13	0xbb9fddab	-0.00487872
14	0xbb940e8f	-0.004518337
15	0xbbcf1579	-0.0063196984
16	0x3b70aa12	0.0036722464
17	0x3c1ab637	0.0094428575
18	0xbc7465cc	-0.014916848
19	0x3c0a97a1	0.008459003
20	0xbba535ce	-0.0050418144
21	0x3c158a4c	0.009127211
22	0x3c043767	0.00806985
23	0x3c86a236	0.01643477
24	0x3b40931f	0.0029384566
25	0x3c8f2199	0.017472075
26	0x3be45727	0.006968397
27	0xbc5ebdb3	-0.0135950325
28	0xbc87df7a	-0.016586054
29	0x3c9dda1f	0.019269047
30	0x3be623a6	0.0070232926
31	0xb951990f	-0.00019988812

conv1.6.running_mean f4 [32]
0	0x3ee0f4a4	0.43936646
1	0x3ef7ee5c	0.4842404
2	0x3ec9bcdf	0.3940191
3	0x3eba8c50	0.36435175
4	0x3e88f5da	0.2675007
5	0x3ece8c82	0.40341574
6	0x3e908a2b	0.28230414
7	0x3ecce58b	0.40018877
8	0x3eec0bab	0.46102652
9	0x3ebe3079	0.37146357
10	0x3ead2b3b	0.33822045
11	0x3e9aff60	0.3027296
12	0x3eed4a58	0.46345782
13	0x3f0a7b3a	0.5409428
14	0x3eb23e0a	0.34812957
15	0x3efe57cd	0.49676362
16	0x3f096e2e	0.53683746
17	0x3ea8bf75	0.3295857
18	0x3f09cc5c	0.5382745
19	0x3edc11a2	0.42982203
20	0x3ea40ea7	0.3204243
21	0x3e6b9eb0	0.23009753
22	0x3e603351	0.21894576
23	0x3eff8a42	0.4991017
24	0x3e9480cf	0.29004523
25	0x3ee9bfa0	0.4565401
26	0x3edf4f73	0.43615302
27	0x3e908d9b	0.28233036
28	0x3e967017	0.29382393
29	0x3eae7d6e	0.3408007
30	0x3ece1cc8	0.40256333
31	0x3eba6848	0.36407685

conv1.6.running_var f4 [32]
0	0x3f79eba1	0.97625166
1	0x3ebae3b2	0.36501843
2	0x3e5b2f20	0.21404696
3	0x3fa5f27f	1.2964629
4	0x3e1511f1	0.14557625
5	0x3ed3024c	0.4121269
6	0x3f300257	0.6875357
7	0x3f4e8f65	0.8068755
8	0x3ec40a57	0.3828914
9	0x3f70a1f4	0.9399712
10	0x3f334321	0.70024306
11	0x3ebda95f	0.37043282
12	0x3f2013a6	0.6252998
13	0x3f807a10	1.003725
14	0x3eb5bc7b	0.35495362
15	0x3ec9711a	0.39344102
16	0x3f00a83f	0.50256723
17	0x3eb14641	0.34623912
18	0x3f061de8	0.52389383
19	0x3ebf98cb	0.3742126
20	0x3eda0869	0.4258454
21	0x3e218133	0.15771942
22	0x3eec5b7e	0.46163553
23	0x3ebf16fe	0.3732223
24	0x3e94e82e	0.2908339
25	0x3ea651f6	0.32484406
26	0x3f1732e5	0.59062034
27	0x3e6fca61	0.23417045
28	0x3e0e3e76	0.13891014
29	0x3e48f6aa	0.19625345
30	0x3e861a01	0.26191714
31	0x3e85dd60	0.26145458

conv1.7.weight f4 [32, 32, 4, 1]
0	0xbd5f07ec	-0.054450914
1	0x3c8e0b00	0.01733923
2	0xbcebe40b	-0.028795263
3	0x3d2b71d1	0.04185659
4	0xbd9c7e3d	-0.076412655
5	0x3d8671bd	0.065646626
6	0x3dbe211b	0.09283658
7	0x3ce5d142	0.028053883
8	0xbdc0029f	-0.093755
9	0xbcc9cfc0	-0.024635196
10	0x3c8734de	0.016504701
11	0xbd99fc7b	-0.0751886
12	0x3c7964c3	0.015221777
13	0x3d985e1e	0.074398264
14	0x3d1c8147	0.038209226
15	0xbc95f53d	-0.018305415
16	0x3cfd272d	0.03090247
17	0xbb19de10	-0.0023478307
18	0x3d4ffed7	0.050780144
19	0x3cee2bf9	0.029073702
20	0x3dab2b08	0.08357817
21	0xbc99237a	-0.018693674
22	0x3cd91c05	0.026502619
23	0x3c3029f3	0.010752189
24	0x3d53260d	0.05154996
25	0xbd9306b2	-0.071790114
26	0x3d78b15c	0.060716018
27	0x3db0809d	0.08618281
28	0xbd8e553d	-0.06949852
29	0x3d824910	0.06361592
30	0xbcef0fe5	-0.029182384
31	0x3d250d23	0.04029573
32	0xbb8d9f97	-0.004322003
33	0x3d109d35	0.035306174
34	0xbd6e45fd	-0.058172215
35	0x3d0011a8	0.03126684
36	0x3cea86d9	0.028628753
37	0x3d6d02cc	0.057863995
38	0x3d40765d	0.04698788
39	0x3cbfaa32	0.023396585
40	0xbd0ad5d1	-0.033895317
41	0xbcd27d98	-0.025694653
42	0xbd5179d6	-0.051141582
43	0x3d157257	0.036485996
44	0x3d3c70ea	0.04600612
45	0x3d661a51	0.05617744
46	0xbd3ec276	-0.04657217
47	0xbca65f0b	-0.020308992
48	0xbadc114c	-0.0016789823
49	0x3d14a8ac	0.03629367
50	0x3dac3139	0.08407826
51	0x3d0841ff	0.033266064
52	0x3d766724	0.060156956
53	0xbda556ba	-0.080731824
54	0x3d57a0eb	0.052643698
55	0x3d93dd05	0.072198905
56	0x3d9867bc	0.07441661
57	0xbdb9be12	-0.09069456
58	0x3cf2ad9a	0.029623795
59	0xbd9cb7f9	-0.076522775
60	0x3d5c0a68	0.05372086
61	0x3c4d592b	0.012533466
62	0x3cbf7e2c	0.023375593
63	0x3d06ef1a	0.03294287
64	0x3daf1f5c	0.08550903
65	0xbd9062d4	-0.070501
66	0xbd8c395b	-0.06846877
67	0xbd73046b	-0.059330385
68	0x3c29ece5	0.010371421
69	0x3c883146	0.016625058
70	0x3d17ff2c	0.037108585
71	0xbdc83f56	-0.09777705
72	0x3cc5fd04	0.024168499
73	0xbd098545	-0.03357436
74	0xbc670957	-0.014101348
75	0xbcf2eef1	-0.029654952
76	0xbd818c0a	-0.063255385
77	0x3d385c2b	0.045009773
78	0x3c2a0239	0.0103765065
79	0xbd09d07c	-0.03364609
80	0xbae1950a	-0.0017210555
81	0x3ba86013	0.005138406
82	0x3cc05b35	0.02348099
83	0x3ae9e584	0.001784489
84	0xb9269c2f	-0.00015889177
85	0xbbfaf775	-0.0076588937
86	0x3d88c1fe	0.06677626
87	0xbb5f6da1	-0.0034092444
88	0x3dbd45c2	0.09241821
89	0x3da990a6	0.082795426
90	0x3c97f9b0	0.018551677
91	0xbcda3e7a	-0.02664112
92	0x3d90a932	0.070635214
93	0xbcf59a86	-0.02998091
94	0x3da3387b	0.07969757
95	0xbca22162	-0.019791309
96	0x3bcfde13	0.006343612
97	0x3c5acdc3	0.0133547215
98	0xbd972939	-0.073809095
99	0x3ccadb66	0.02476282
100	0x3aa0b336	0.001226044
101	0xbd9f6080	-0.07782078
102	0x3c95072f	0.018191902
103	0x3d3aab02	0.045573242
104	0xbca4e2eb	-0.020127734
105	0x3d8237c3	0.06358292
106	0xbd0df697	-0.034658995
107	0x3d45bafb	0.04827402
108	0xbd5bd330	-0.0536682
109	0xbd7475af	-0.059682544
110	0x3d4825d4	0.0488642
111	0x3a03e8f2	0.0005031965
112	0x3d1bb92c	0.03801839
113	0xbd65a98a	-0.05606989
114	0x3d7de4d0	0.06198579
115	0xbd869346	-0.06571059
116	0xbcdfc86b	-0.027317246
117	0x3c055f51	0.008140401
118	0xbd7cd338	-0.06172487
119	0x3d19cffc	0.037551865
120	0x3d5643b1	0.05231065
121	0xb9b1b9dd	-0.0003389855
122	0x3d32f38b	0.043689292
123	0xbd961ce8	-0.07329732
124	0xbd20e46d	-0.039280344
125	0x3d619e1d	0.05508243
126	0x3da2aeef	0.07943522
127	0xbd4c49d9	-0.049875114
128	0xbc1de9b9	-0.009638243
129	0xbc96c5ad	-0.018404806
130	0xbdaed0be	-0.08535908
131	0xbc731c3e	-0.014838276
132	0x3d2ce855	0.042213757
133	0x3bb50d78	0.0055252872
134	0xbc2da0b4	-0.010597397
135	0x3ca25a3c	0.019818418
136	0xbda32321	-0.07965685
137	0xbd64c0f1	-0.055848066
138	0x3bee52db	0.0072730607
139	0x3b87170b	0.00412262
140	0x3b13f302	0.0022575264
141	0xbbc8de78	-0.006130036
142	0xbd83ef71	-0.06442154
143	0xbc7d0928	-0.015444078
144	0xbd02be62	-0.031919844
145	0x3cb3e9a6	0.021961998
146	0x3cad64c1	0.021166207
147	0x3c3c6f79	0.0115011865
148	0xbcd38870	-0.025821894
149	0x3cc5f9c3	0.024166947
150	0x3ca2c45c	0.019869022
151	0xbd65f71f	-0.056143876
152	0xbd6b2553	-0.057408642
153	0x3dab3c53	0.08361115
154	0x3cedee9c	0.029044442
155	0x3d2da81e	0.042396657
156	0xbd0f155a	-0.03493247
157	0x3bd86693	0.0066040247
158	0xbda4acbe	-0.080407605
159	0x3d81dfaa	0.06341489
160	0xbd2170f9	-0.03941438
161	0x3dbb511d	0.091463305
162	0xbd244579	-0.040105317
163	0x3bae0d2f	0.00531163
164	0x3d6a1464	0.057148352
165	0x3d9808ba	0.074235395
166	0xbd974825	-0.07386807
167	0xbc87da40	-0.016583562
168	0x3d2a9ab2	0.041651435
169	0x3d307471	0.043079797
170	0xbd7fa37d	-0.062411774
171	0xbd37e275	-0.0448937
172	0x3b324b02	0.0027205353
173	0x3daca1fb	0.08429333
174	0x3c92271e	0.017840918
175	0x3d81164a	0.063030794
176	0xbd3602b1	-0.04443616
177	0x3d0824f8	0.03323838
178	0xbd3ed59e	-0.04659044
179	0x3d18b7bf	0.03728461
180	0xbbe5a3c6	-0.0070080487
181	0xbc86d3c8	-0.016458407
182	0x3d032905	0.03202154
183	0x3d37d5a1	0.044881467
184	0xbd3c49d6	-0.045968853
185	0x3d49530a	0.049151458
186	0xbda1124c	-0.07864818
187	0x3c9271b6	0.017876487
188	0x3db5a199	0.08868713
189	0xbd89f150	-0.0673548
190	0x3d3f32ff	0.046679493
191	0xbd558f7e	-0.052138798
192	0x3d7e0bd4	0.062023
193	0xbd82945a	-0.06375952
194	0xbd97c768	-0.074110806
195	0xbd663f64	-0.056212798
196	0x3d896382	0.06708433
197	0x3bd7a42c	0.00658085
198	0x3cf9e0d2	0.03050271
199	0x3dbe8a75	0.09303752
200	0xbd846044	-0.06463674
201	0x3d93b08a	0.072114065
202	0xbd9a6b57	-0.07540005
203	0xbcd7fe86	-0.026366483
204	0x3a293f0b	0.00064562325
205	0x3cc70ef4	0.024299122
206	0xbcf9b8e7	-0.030483676
207	0x3d9fec32	0.078087226
208	0x3d59ad05	0.05314352
209	0x3da79a42	0.08183719
210	0x3d10341e	0.035205953
211	0x3d81a69f	0.063306086
212	0xbd80ce6d	-0.062893726
213	0x3d1b5a01	0.03792763
214	0x3ceca1af	0.02888569
215	0x3d6db1a1	0.05803073
216	0x3b5ec90d	0.0033994347
217	0xbd74033d	-0.0595734
218	0x3d692cc8	0.056927472
219	0xbd8008cc	-0.06251678
220	0xbdaa30f8	-0.08310121
221	0xbd85e88b	-0.06538495
222	0x3d915e10	0.07098019
223	0x3cff3ef2	0.031157944
224	0x3bf3e0a2	0.00744255
225	0xbb7890d3	-0.003792812
226	0xbd03fab0	-0.032221496
227	0x3cd1c841	0.025608184
228	0xbdbd6267	-0.092472844
229	0xbda661d4	-0.08124128
230	0xbd0a2c94	-0.03373392
231	0xbc46b73f	-0.01212865
232	0xbc72b7cd	-0.014814329
233	0x3d37357f	0.044728752
234	0x3d3f71fe	0.04673957
235	0x3de03fc9	0.10949666
236	0x3d91720c	0.07101831
237	0xbd052850	-0.032509148
238	0xbd6b3a84	-0.05742885
239	0x3d95a899	0.07307548
240	0xbd8790a3	-0.06619384
241	0x3d451545	0.048115987
242	0x3cf1e49d	0.029527957
243	0x3d97ae11	0.074062474
244	0xbd6812fc	-0.05665873
245	0xbd9d0245	-0.076664485
246	0x3bea98be	0.0071593216
247	0x3b7cb704	0.0038561234
248	0xbd019c88	-0.03164342
249	0xbd4723ab	-0.048618
250	0xbd14b19d	-0.036302198
251	0x3d97b1da	0.07406969
252	0x3d76079e	0.060065858
253	0xbc22f1ac	-0.009945314
254	0x3d9b7760	0.07591128
255	0x3b97cf09	0.004632835

conv1.7.bias f4 [32]
0	0xbbca8483	-0.0061803474
1	0xbd71ec90	-0.059063494
2	0x3d1efb4e	0.03881388
3	0x3d14840a	0.036258735
4	0x3cc5573c	0.024089448
5	0x3d4fbbbf	0.050716158
6	0x3da015b3	0.07816639
7	0xbaf9d334	-0.0019060136
8	0x3d166162	0.036713965
9	0x3c8fb2fa	0.017541397
10	0x3d805d2e	0.062677726
11	0xbd98d3bf	-0.07462262
12	0x3c297b81	0.010344387
13	0xbbebfd04	-0.0072017927
14	0x3d92b6bf	0.07163762
15	0x3d46d553	0.048543286
16	0xbcb6239b	-0.022233775
17	0xbaae4f67	-0.001329881
18	0xbd3b40e1	-0.04571617
19	0xbd713c69	-0.058895502
20	0x3c278fca	0.010227153
21	0x3d308642	0.04309679
22	0x3dbdb3be	0.09262799
23	0x3da8ac0d	0.08235941
24	0xbc7d4d5f	-0.015460341
25	0xbd8181c8	-0.06323582
26	0xbd7c8377	-0.061648812
27	0xbb9a5a50	-0.004710473
28	0xbd945dfd	-0.07244489
29	0x3d84a285	0.06476311
30	0x3d4de47f	0.05026674
31	0x3a25f275	0.00063303794

conv1.9.weight f4 [32]
0	0x3f7d1646	0.9886211
1	0x3f83194a	1.0242093
2	0x3f7f7aa2	0.997965
3	0x3f801f35	1.0009524
4	0x3f7c4468	0.9854188
5	0x3f809d62	1.004803
6	0x3f7ff043	0.99975985
7	0x3f7b9e46	0.9828838
8	0x3f80219c	1.0010257
9	0x3f80dbdd	1.0067097
10	0x3f7f855e	0.9981288
11	0x3f7f9a55	0.99844867
12	0x3f7aa250	0.9790392
13	0x3f7f8068	0.9980531
14	0x3f819160	1.012249
15	0x3f82f326	1.0230453
16	0x3f795f6f	0.97411245
17	0x3f80dc5f	1.0067252
18	0x3f826595	1.018725
19	0x3f80ca51	1.0061742
20	0x3f7d2a40	0.98892593
21	0x3f7f3e53	0.99704474
22	0x3f7adff9	0.97998005
23	0x3f811d6d	1.0087105
24	0x3f82cc11	1.0218526
25	0x3f7f386d	0.99695474
26	0x3f80cfee	1.0063455
27	0x3f7aa78c	0.97911906
28	0x3f800a41	1.0003129
29	0x3f8004f2	1.0001509
30	0x3f7df31d	0.99199086
31	0x3f80060d	1.0001847

conv1.9.bias f4 [32]
0	0xbb0ef138	-0.0021811258
1	0x3c093108	0.008373506
2	0x3c5dcd9a	0.013537789
3	0x3b881279	0.0041525927
4	0x3a0e859f	0.0005436781
5	0x3c803669	0.015650945
6	0x39c44d93	0.0003744183
7	0x3a179614	0.0005782556
8	0x3b9c0102	0.0047608623
9	0x3b871c15	0.0041232207
10	0xb934c45f	-0.00017239292
11	0x3b72f675	0.003707317
12	0x3c37ef6d	0.011226517
13	0x3bdbb2cc	0.006704664
14	0xbaeab6b5	-0.0017907234
15	0x3b9fbbdd	0.00487469
16	0x3b387202	0.0028144126
17	0x3c2640ba	0.010147268
18	0x3b1f4bfa	0.002430676
19	0x3b90b8b4	0.0044165496
20	0x3ad97e64	0.0016593453
21	0xbb2faec7	-0.0026807056
22	0xbbe18993	-0.006882855
23	0xbab73e8e	-0.0013980435
24	0xbc09abc3	-0.008402768
25	0x3baa66d7	0.0052002477
26	0x3b2fb373	0.002680984
27	0xbc149c58	-0.009070478
28	0x3baa90f3	0.0052052676
29	0x3bb0bfbb	0.00539395
30	0x3baa94db	0.0052057332
31	0x3c1e7a75	0.009672751

conv1.9.running_mean f4 [32]
0	0x3e229fa7	0.15881215
1	0x3e45d38a	0.19318977
2	0x3e6ebfac	0.23315305
3	0x3eb4365c	0.35197723
4	0x3eacbabe	0.33736223
5	0x3ef80986	0.48444766
6	0x3ec700d9	0.38867834
7	0x3e4a1f8a	0.19738594
8	0x3ef0c49d	0.47025004
9	0x3e21c80e	0.15798971
10	0x3e7855b8	0.24251449
11	0x3e6a4edb	0.22881643
12	0x3e3cef5c	0.18450683
13	0x3e8b0b34	0.27156985
14	0x3ea32e88	0.31871438
15	0x3e86175d	0.261897
16	0x3eb6ef76	0.3572957
17	0x3ea63277	0.32460377
18	0x3e9d0f60	0.30675793
19	0x3e9e52e6	0.3092262
20	0x3f0667d0	0.52502155
21	0x3f116127	0.5678887
22	0x3ece8819	0.4033821
23	0x3e99cada	0.30037576
24	0x3eebbcde	0.46042532
25	0x3e9ec694	0.31010878
26	0x3eba41a9	0.3637822
27	0x3ec9eb76	0.39437455
28	0x3e3c048c	0.1836111
29	0x3e972637	0.29521343
30	0x3ec0b1c7	0.37635633
31	0x3ec44cb3	0.38339767

conv1.9.running_var f4 [32]
0	0x3e540a8c	0.20707148
1	0x3e3ebcde	0.18626735
2	0x3e20edb2	0.15715674
3	0x3e70800e	0.23486349
4	0x3e60ec39	0.21965112
5	0x3ecb3975	0.39692274
6	0x3e753d94	0.23949271
7	0x3e49c176	0.19702706
8	0x3f2d60c0	0.67725754
9	0x3eb6fe0c	0.35740697
10	0x3ed313a1	0.41225913
11	0x3e791caa	0.2432734
12	0x3e12d834	0.14340287
13	0x3ef289de	0.4737081
14	0x3f52a7ed	0.82287484
15	0x3e578e20	0.2105031
16	0x3e90b697	0.28264305
17	0x3e93b254	0.2884699
18	0x3e5a5d67	0.21324693
19	0x3ecd9e08	0.4015963
20	0x3ef973cf	0.48721167
21	0x3f147f82	0.5800706
22	0x3e8ef883	0.27923974
23	0x3e34ef6a	0.17669454
24	0x3ed78379	0.42092493
25	0x3eae32a1	0.34023002
26	0x3e8f3fdd	0.2797841
27	0x3ef5136f	0.4786639
28	0x3daddab0	0.08488977
29	0x3ea01357	0.31264755
30	0x3e583d85	0.21117218
31	0x3e97d744	0.29656422

conv2.0.weight f4 [32, 32, 1, 2]
0	0x3d69bc82	0.05706454
1	0xbd7b2073	-0.061310243
2	0x3d90d674	0.07072154
3	0x3d2acceb	0.04169933
4	0x3dcde345	0.10053114
5	0xbddd69a9	-0.10811169
6	0x3d6f7749	0.05846337
7	0xbdb22723	-0.08698871
8	0x3d1a0764	0.037604704
9	0xbd89be83	-0.0672579
10	0xbd9f02af	-0.07764184
11	0xbd71e97e	-0.059060566
12	0xbcaf7303	-0.021417147
13	0xbc47f8be	-0.012205301
14	0xbc0393c0	-0.008030832
15	0x3ce598e3	0.028027004
16	0xbda2f906	-0.07957654
17	0xbde568ff	-0.11201667
18	0x3dfb1375	0.122595705
19	0x3c950b67	0.018193914
20	0x3d670260	0.05639875
21	0x3dcde801	0.10054017
22	0x3c92147e	0.017832037
23	0xbd6ab17c	-0.05729817
24	0x3b5d96d1	0.0033811817
25	0xbd8f19a1	-0.0698731
26	0xbd2f1a4f	-0.0427497
27	0x3ddc010d	0.10742388
28	0x3d5a3781	0.05327559
29	0x3d01bd7a	0.03167484
30	0x3e05717f	0.13031577
31	0x3dae17cd	0.085006334
32	0x3da26673	0.07929697
33	0x3d6c9901	0.057763103
34	0xbd50aa7e	-0.050943844
35	0x3d7c2ed0	0.06156808
36	0x3dae892a	0.08522256
37	0x3d44bb01	0.048029903
38	0x3cb73527	0.022364212
39	0x3cd2b895	0.025722781
40	0xbd30107a	-0.042984463
41	0xbcc94c59	-0.024572538
42	0xbdb43583	-0.08799269
43	0x3d3797c1	0.04482246
44	0xbd329070	-0.043594778
45	0x3db555c1	0.08854247
46	0xbdd93071	-0.106049426
47	0x3d86b254	0.06576982
48	0xbc572784	-0.01313198
49	0x3dc9b375	0.09848682
50	0xbdd5d37a	-0.104407266
51	0xbdc57a0b	-0.096424185
52	0x3dd82685	0.10554222
53	0xbd101230	-0.035173595
54	0x3dd980f2	0.106202975
55	0xbd067071	-0.032822076
56	0x3de40265	0.11133269
57	0xbdd996e0	-0.1062448
58	0x3cf3aa98	0.029744431
59	0xbce25ecb	-0.027633091
60	0xbd450210	-0.04809767
61	0x3c5d30c8	0.0135004
62	0xbcdf3b3a	-0.027249921
63	0xbd7b2796	-0.06131705
64	0x3da1fd4d	0.079096414
65	0x3a1ab3c1	0.0005901419
66	0xbccb4214	-0.024811782
67	0x3dcfde38	0.10149807
68	0xbcc4056b	-0.023928365
69	0x3dd07010	0.10177624
70	0x3c5e51b6	0.013569286
71	0xbd44c646	-0.04804065
72	0xbc99308e	-0.01869991
73	0xbb39a4f7	-0.0028327086
74	0x3d56a07e	0.05239915
75	0x3d804a6f	0.06264197
76	0xbd8d1341	-0.06888438
77	0xbd4ec3d9	-0.050479744
78	0xbd1aebc7	-0.03782251
79	0xbdcc5e7c	-0.09978959
80	0xbd82e6d4	-0.06391683
81	0x3d47027a	0.048586346
82	0x3a7534b8	0.0009353864
83	0xbda50152	-0.080568925
84	0x3d5ebb91	0.054378096
85	0xbd848499	-0.064706035
86	0xbd4de2ba	-0.05026505
87	0xbdc6b630	-0.09702718
88	0xbded7700	-0.11594963
89	0x3b3054f4	0.0026906105
90	0xbd750777	-0.059821572
91	0x3ca35637	0.019938571
92	0xbcac927c	-0.021065943
93	0x3df30432	0.118660346
94	0xbd184857	-0.037178364
95	0x3d83b7ab	0.06431516
96	0xbb4048c4	-0.0029340247
97	0xbd9c43d4	-0.07630125
98	0x3d05d849	0.03267697
99	0x3e03d172	0.12872866
100	0x3dfc5175	0.12320224
101	0x3cac6e71	0.021048756
102	0x3ddf27b0	0.10896242
103	0x3d33b16a	0.043870367
104	0x3cd83de7	0.026396705
105	0x3c03e18a	0.008049378
106	0xbdcb8a92	-0.099385396
107	0xbd3149e6	-0.043283366
108	0xbd5f5db0	-0.054532707
109	0xbda62a35	-0.08113519
110	0x3d2ab3a1	0.041675214
111	0xbe0402f7	-0.12891756
112	0x3a099e4d	0.0005249724
113	0x3dc198c4	0.09452966
114	0x3bc4322b	0.005987426
115	0xbd3754b1	-0.044758502
116	0xbd0cb54f	-0.034352597
117	0x3e0759bc	0.13217825
118	0x3d719187	0.058976676
119	0xbdafecc0	-0.08590078
120	0x3dcef772	0.1010579
121	0xbd3daead	-0.046309162
122	0xbd3584a8	-0.044315964
123	0xbd7280ea	-0.059204973
124	0x3d8166f4	0.06318465
125	0xbd97c11c	-0.074098796
126	0xbd412f1e	-0.047164075
127	0x3d31ac40	0.04337716
128	0x3cb3b6a1	0.02193767
129	0x3d9459d5	0.072436966
130	0xbc257379	-0.010098332
131	0xbde1c219	-0.11023349
132	0xbdbb2c8c	-0.09139356
133	0x3dc7c20c	0.097538084
134	0xbda7cda3	-0.08193519
135	0x3cfcb48d	0.030847812
136	0xbd479f4e	-0.04873591
137	0xbc7cd101	-0.01543069
138	0x3c0bec64	0.008540247
139	0xbbcd6c03	-0.0062689795
140	0xbd309a20	-0.043115735
141	0x3d8faebd	0.070157506
142	0x3cc1788c	0.023617052
143	0xbda4b9b5	-0.08043233
144	0xbd08a062	-0.033356078
145	0x3de1a83c	0.11018416
146	0x3df05f5e	0.1173694
147	0xbd8777cb	-0.066146456
148	0xbd4a7080	-0.049423695
149	0x3d879721	0.066206224
150	0x3de58192	0.11206354
151	0x3db9b529	0.09067757
152	0xbda78d6c	-0.08181271
153	0xbc7155be	-0.014729915
154	0x3d3e2164	0.046418563
155	0xbcfd726f	-0.030938355
156	0xbdcb1f7f	-0.09918117
157	0xbd38ef1b	-0.045149904
158	0xbd89060b	-0.06690606
159	0xbd6d0d0f	-0.05787378
160	0x3cafcdfb	0.021460524
161	0x3dc0f92c	0.09422526
162	0xbdfc85c9	-0.12330205
163	0x3cc61b32	0.02418289
164	0xbdd79075	-0.105256
165	0x3d72429c	0.059145555
166	0x3dc97159	0.098360725
167	0xbd7fa1ea	-0.062410273
168	0x3cffd038	0.031227216
169	0xbd639f68	-0.055571944
170	0xbc591a6a	-0.0132509265
171	0x3deec795	0.11659161
172	0x3db4d066	0.08828811
173	0xbde015f3	-0.109416865
174	0x3def678c	0.11689672
175	0x3d8d0556	0.068857834
176	0x3d0e633e	0.034762613
177	0xbc23f8a5	-0.010008012
178	0xbd9489b5	-0.07252828
179	0xbd416b8f	-0.047221716
180	0x3cf39505	0.029734144
181	0x3dfa803a	0.122314885
182	0x3d4586ea	0.048224367
183	0x3da06a78	0.07832807
184	0x3c770cb0	0.0150787085
185	0x3d1d80bc	0.03845285
186	0xbd2ddb72	-0.042445607
187	0xbd5f12c7	-0.054461267
188	0xbdc86ffd	-0.09786985
189	0xbd89dc18	-0.06731433
190	0x3c22d10d	0.009937537
191	0xbdc63ed4	-0.09679952
192	0x3cd5b982	0.026089434
193	0x3da95d7e	0.08269785
194	0xbd3c8c76	-0.04603239
195	0xbdd70771	-0.10499466
196	0x3cafc411	0.021455796
197	0x3dca25ef	0.098705165
198	0xbd8bd31e	-0.06827377
199	0xbde4aecd	-0.11166153
200	0xbd1f982c	-0.03896348
201	0xbdcb6a5f	-0.09932398
202	0x3d3e4747	0.046454694
203	0xbb1c3b36	-0.0023839003
204	0xbd07e3c8	-0.033176214
205	0xbd6e29df	-0.0581454
206	0xbc4070de	-0.01174566
207	0x3bd11485	0.00638062
208	0x3dbde487	0.09272104
209	0xbdec7f48	-0.115477145
210	0x3de42776	0.11140339
211	0xbdec3078	-0.11532682
212	0x3db652ca	0.089025095
213	0x3d74a06c	0.059723303
214	0xbda88094	-0.08227649
215	0xbdbfc256	-0.093632385
216	0x3d4a3359	0.049365375
217	0x3d9a24a0	0.07526517
218	0x3dfc0c6c	0.12307057
219	0xbd8176d6	-0.06321494
220	0xbdd6cdbd	-0.1048846
221	0xbdc436cb	-0.095807634
222	0xbdace3c8	-0.08441883
223	0xbda66662	-0.08124997
224	0xbd7cd5df	-0.0617274
225	0xbccb44d3	-0.024813091
226	0x3d7ad75a	0.06124053
227	0xbdbc4708	-0.09193236
228	0xbdfed9b5	-0.12443868
229	0x3dd64673	0.10462656
230	0xbb67bdbe	-0.0035360898
231	0xbd8ebb45	-0.069693126
232	0xbdbddf92	-0.09271158
233	0xbcd3c047	-0.02584852
234	0x3d196dbe	0.037458174
235	0xbdca5bb4	-0.09880772
236	0xbbbdda07	-0.005793813
237	0xbcb67156	-0.02227084
238	0x3d5ed42f	0.054401573
239	0xbd5526d7	-0.052038994
240	0xbd8be269	-0.06830294
241	0x3d68294b	0.056680005
242	0x3dbafd2c	0.0913032
243	0x3d41f3cb	0.04735164
244	0xbdd363ce	-0.103217706
245	0x3cf3ff09	0.029784696
246	0xbdad3619	-0.08457584
247	0x3d9e15b0	0.0771898
248	0xbcd2ac47	-0.025716914
249	0x3cc43fbf	0.023956178
250	0x3e078d72	0.13237551
251	0xbd83ea88	-0.06441218
252	0xbdf8aa41	-0.12141848
253	0xbd71af72	-0.05900521
254	0xbcdc0b9e	-0.026861008
255	0xbcd3e205	-0.02586461

conv2.0.bias f4 [32]
0	0xbd1c658e	-0.038182788
1	0x3dd6f607	0.10496145
2	0xbdb1bcd7	-0.086785965
3	0xbdfad260	-0.12247157
4	0x3db0ac09	0.08626563
5	0xbcdd1a28	-0.026990011
6	0x3d8e7c44	0.069572955
7	0xbd454c5d	-0.04816853
8	0x3bcbb2fb	0.0062164045
9	0xbd82911c	-0.06375334
10	0xbbef6bef	-0.007306568
11	0xbccf7ad6	-0.025327127
12	0x3d189ee7	0.037260916
13	0x3bee87e7	0.0072793844
14	0x3c643d8c	0.01393069
15	0xbd5a958b	-0.05336527
16	0xbde5d5f4	-0.11222449
17	0x3d611706	0.054953597
18	0x3d0992d9	0.03358731
19	0xbdebaf3b	-0.11508032
20	0x3d253b81	0.04033995
21	0x3e00ca1b	0.12577097
22	0x3d89ffa6	0.06738214
23	0x3c85a4ad	0.016313875
24	0x3d6ac20d	0.057313967
25	0xbd76cdab	-0.060254734
26	0x3cd189de	0.025578436
27	0x3d028096	0.03186091
28	0xbde6100e	-0.11233531
29	0xbc909ed2	-0.017653856
30	0x3dc29dcc	0.095027536
31	0xbd578472	-0.052616544

conv2.2.weight f4 [32]
0	0x3f8117a0	1.0085335
1	0x3f7c9bf1	0.9867545
2	0x3f7d228d	0.98880845
3	0x3f7a1841	0.9769326
4	0x3f7860c3	0.97022647
5	0x3f82ac46	1.0208824
6	0x3f7b81bb	0.9824483
7	0x3f808b25	1.0042464
8	0x3f7d25d1	0.9888583
9	0x3f81a334	1.0127931
10	0x3f7f66cd	0.99766237
11	0x3f7bb828	0.98327875
12	0x3f828b8a	1.0198834
13	0x3f82683f	1.0188063
14	0x3f7b0333	0.98051757
15	0x3f7eced0	0.9953432
16	0x3f7f5e48	0.99753237
17	0x3f7edcff	0.99555963
18	0x3f806b50	1.0032749
19	0x3f80e6bd	1.0070416
20	0x3f7f9a52	0.9984485
21	0x3f7eb1ab	0.9948985
22	0x3f7def0d	0.9919289
23	0x3f80eba8	1.0071917
24	0x3f8198c4	1.0124745
25	0x3f8150d9	1.0102798
26	0x3f8002c6	1.0000846
27	0x3f821c6a	1.0164921
28	0x3f80de3a	1.0067818
29	0x3f7ba52d	0.98298913
30	0x3f7ea3ff	0.9946899
31	0x3f810fae	1.008291

conv2.2.bias f4 [32]
0	0xbc68c998	-0.01420822
1	0x3bdeeaf4	0.006802911
2	0xbbab9d5e	-0.0052372655
3	0x3c6a1ab9	0.014288598
4	0xbc6a7ac0	-0.014311492
5	0xbad48be7	-0.001621601
6	0x3b2bdcad	0.0026224062
7	0xb96863ad	-0.00022162376
8	0xbc7f2cd6	-0.015574655
9	0xbba0b944	-0.004904898
10	0xbc264111	-0.010147349
11	0xbb37a2fb	-0.0028020728
12	0xbcefaa03	-0.029255873
13	0xbbf508a8	-0.0074778385
14	0xbbbf6653	-0.0058410554
15	0xbb95b4d0	-0.0045686737
16	0xbbec65cb	-0.007214283
17	0xbc3ee131	-0.0116503695
18	0xbcaccdab	-0.021094164
19	0xbcb235d6	-0.021754187
20	0x3c0202ee	0.007935269
21	0xb919fc03	-0.00014685099
22	0x3c0717a5	0.008245383
23	0x3c344e98	0.011005066
24	0x3c43c658	0.011949144
25	0xbc846c5d	-0.016164953
26	0x3c903643	0.017603999
27	0xbcaaa8ac	-0.020832382
28	0xbc3fb5f5	-0.011701097
29	0xbb7879d4	-0.0037914412
30	0x3afb80ab	0.0019188126
31	0x3bc721a6	0.0060770093

conv2.2.running_mean f4 [32]
0	0x3e48e50a	0.19618621
1	0x3e8191fd	0.25306693
2	0x3e1d5d45	0.15367611
3	0x3dd2f282	0.10300161
4	0x3e852da8	0.26011395
5	0x3e84fc15	0.25973573
6	0x3e8e2b98	0.27767634
7	0x3ebbc1fd	0.3667144
8	0x3e86724a	0.2625907
9	0x3e5e9529	0.21736588
10	0x3e7c0a5f	0.24613331
11	0x3e7272d1	0.23676611
12	0x3e8084bd	0.2510127
13	0x3e70f51a	0.23530999
14	0x3e2cd6b7	0.16878782
15	0x3e896ce1	0.2684088
16	0x3e39d28a	0.1814672
17	0x3e655992	0.2239745
18	0x3ebd5415	0.36978212
19	0x3e407730	0.18795466
20	0x3ef234bf	0.47305867
21	0x3e8c402f	0.27392718
22	0x3e79df4c	0.24401587
23	0x3e808ccc	0.2510742
24	0x3ec860b8	0.3913629
25	0x3e1bdaf3	0.15220241
26	0x3e85af2a	0.26110202
27	0x3e90a7d1	0.28253034
28	0x3ea32d9a	0.3187073
29	0x3e84fe3c	0.25975215
30	0x3ec9113a	0.39270955
31	0x3e848bd5	0.25887933

conv2.2.running_var f4 [32]
0	0x3e2381a3	0.15967421
1	0x3dd7f60c	0.105449766
2	0x3db641a3	0.08899238
3	0x3d99230e	0.07477389
4	0x3e038cc2	0.12846664
5	0x3e2831bc	0.16425222
6	0x3ecac29f	0.3960161
7	0x3e942b71	0.28939393
8	0x3e04dcf6	0.12974915
9	0x3e660d58	0.22466028
10	0x3e0dd6d5	0.13851483
11	0x3e8552d5	0.26039758
12	0x3e3ee720	0.18642855
13	0x3e008229	0.12549652
14	0x3de119eb	0.109912716
15	0x3e04bffe	0.12963864
16	0x3e5332b4	0.2062481
17	0x3db5c9e5	0.08876399
18	0x3e57d468	0.2107712
19	0x3e383914	0.17990524
20	0x3ece2123	0.40259656
21	0x3e475965	0.19467695
22	0x3e9539c9	0.2914565
23	0x3e970f70	0.29503965
24	0x3e8b5a1e	0.2721719
25	0x3dcc71f3	0.099826716
26	0x3eb169bf	0.3465099
27	0x3e33c4c7	0.17555533
28	0x3ee34c25	0.4439403
29	0x3e8872ec	0.26650178
30	0x3e3e825a	0.18604413
31	0x3e0d2e64	0.13787228

conv2.3.weight f4 [32, 32, 4, 1]
0	0xbc7854d9	-0.015156948
1	0xbd9a6b01	-0.075399406
2	0x3d58ffb1	0.05297822
3	0x3d63b067	0.055588152
4	0xbcc6d875	-0.024273137
5	0x3d02d3ae	0.031940155
6	0xbb9b89fe	-0.0047466746
7	0xbd0db06b	-0.034592073
8	0x3d3c1820	0.045921445
9	0xbd81ec45	-0.06343893
10	0xbd1fe2b4	-0.03903456
11	0x3b041514	0.0020154165
12	0xbd87c3a1	-0.0662911
13	0xbda7f157	-0.08200329
14	0xbd796644	-0.060888544
15	0x3c470657	0.012147508
16	0x3d8746e4	0.06605318
17	0x3d6256fa	0.05525873
18	0x3bae14fa	0.005312559
19	0xbd879a98	-0.06621283
20	0x3daca25c	0.08429405
21	0x3d673d5a	0.056454994
22	0x3da58714	0.08082405
23	0x3d8d271f	0.068922274
24	0xbcda2186	-0.026627313
25	0x3c990991	0.01868132
26	0x3a695af8	0.00089018
27	0xbcc5b27c	-0.02413296
28	0xbdab6d36	-0.0837044
29	0xbc34a174	-0.011024822
30	0x3d60d552	0.054890938
31	0x3d558b45	0.05213477
32	0x3da4e144	0.080507785
33	0xbd5fce46	-0.054640077
34	0x3d03387b	0.032036286
35	0xbbd7f035	-0.006589914
36	0xbd131065	-0.035904307
37	0xbd6deda1	-0.05808795
38	0xbd6cae0c	-0.05778317
39	0x3cc06705	0.023486624
40	0x3d87b570	0.06626403
41	0xbcb40717	-0.021976037
42	0x3db4de9e	0.08831523
43	0x3d8ddfa7	0.06927424
44	0x3d21291e	0.039345853
45	0x3d96af77	0.07357686
46	0x3c6a3ea8	0.014297165
47	0x3d5c244b	0.05374555
48	0xbd3604e7	-0.04443827
49	0x3cd46bc0	0.025930285
50	0x3cd35ee8	0.02580209
51	0x3d3590cc	0.044327542
52	0xbca1cf7f	-0.019752262
53	0xbc68a580	-0.0141996145
54	0x3dc81fa7	0.09771662
55	0x3dc562c3	0.09637978
56	0xbc737c0f	-0.014861121
57	0xbd07a040	-0.03311181
58	0x3d32d563	0.043660533
59	0xbdd1b688	-0.10239893
60	0x3c759913	0.014990109
61	0xbbb0b69e	-0.0053928634
62	0xbacdc14c	-0.0015697866
63	0xbcf444f0	-0.029818028
64	0xbc77f647	-0.015134401
65	0x3cc404c5	0.023928056
66	0xbcaf5c81	-0.021406414
67	0xbbdac3fb	-0.0066761947
68	0x3bf4836c	0.007461956
69	0xbc565389	-0.01308144
70	0x3d141bb3	0.03615923
71	0xbd1d5237	-0.038408484
72	0x3d90229c	0.07037851
73	0xbc856dba	-0.016287673
74	0x3ccc07a5	0.024905989
75	0xbd3f153e	-0.046651118
76	0xbd8d2254	-0.06891313
77	0xbdaf0717	-0.08546274
78	0xbd4fec0d	-0.050762225
79	0x3d2f1782	0.04274703
80	0xbd77535d	-0.060382236
81	0x3d7f2cf0	0.062298715
82	0x3c00909f	0.00784698
83	0x3d881566	0.066447064
84	0xbd7bdfd2	-0.06149275
85	0x3d989b6f	0.074515216
86	0xbd6f787e	-0.05846452
87	0xbd756d00	-0.059918404
88	0xbc7e00a2	-0.015503081
89	0xbd7fa389	-0.06241182
90	0x3d0c5938	0.034264773
91	0x3d4df096	0.05027827
92	0x3bff3b8a	0.00778908
93	0xbd5b658e	-0.053563647
94	0x3d32224c	0.04348974
95	0xbd75b61f	-0.059988137
96	0x3c20fde0	0.0098261535
97	0x3d131880	0.035912037
98	0xbb4277b0	-0.002967339
99	0x3d6fc8cb	0.0585411
100	0xbd7b8806	-0.06140902
101	0x3d95dd87	0.073176436
102	0xbcf989ea	-0.03046127
103	0xbd7b0625	-0.061285157
104	0xbcbb6191	-0.022873672
105	0x3d73b7fd	0.059501637
106	0xbd227b03	-0.039668094
107	0x3c3cb241	0.011517108
108	0x3ce50e13	0.027960813
109	0xbb1307f8	-0.002243517
110	0x3db93223	0.09042766
111	0xbb1f5ac1	-0.0024315568
112	0xbdbc169d	-0.09184001
113	0xbdafca09	-0.08583457
114	0xbd650e71	-0.055921976
115	0x39c52a27	0.00037606174
116	0xbcdda559	-0.027056383
117	0xbd6208ed	-0.055184294
118	0x3d8b3745	0.06797651
119	0x3d07a6a9	0.033117924
120	0xbd34303b	-0.04399131
121	0x3c9eb2a2	0.019372288
122	0x3d22eba3	0.039775502
123	0xbaeb61c6	-0.0017958216
124	0xbd987951	-0.07445014
125	0xbdafedb4	-0.0859026
126	0x3c6021bd	0.013679919
127	0x3d31aa14	0.04337509
128	0xbdad3e66	-0.08459167
129	0x3bf291dd	0.007402642
130	0xbcf64472	-0.030061934
131	0x3c56e5be	0.013116298
132	0x3d8be921	0.06831575
133	0xbd707572	-0.058705755
134	0x3c3e8f86	0.011630898
135	0xbc9e20a3	-0.019302672
136	0x3d9d9d9c	0.07696077
137	0x3da576fd	0.08079336
138	0x3c2fe1e2	0.010735007
139	0x3c2b8126	0.010467803
140	0x3c0ec4f5	0.00871395
141	0xbd96fa44	-0.07371953
142	0x3db1eec1	0.08688117
143	0x3be84ba0	0.0070890933
144	0x3d094674	0.033514455
145	0x3d6d71ac	0.057969734
146	0x3d4f8ff9	0.050674412
147	0xbd6a5d89	-0.05721811
148	0x3d741eda	0.059599735
149	0x3c38451c	0.011246946
150	0x3dbba12c	0.091616005
151	0x3da59a7c	0.08086106
152	0xbb96f1e9	-0.0046064747
153	0xbcc1fa5f	-0.023678957
154	0xbac8d3bb	-0.001532189
155	0xbd936f8c	-0.0719901
156	0xbc4051c4	-0.011738244
157	0xbd76eeae	-0.060286216
158	0x3cca744c	0.024713658
159	0x3d81298f	0.06306755
160	0xbda96179	-0.082705446
161	0x3d412f96	0.047164522
162	0x3cb0fa5d	0.021603758
163	0x3c478a21	0.012178929
164	0xbd6b64dc	-0.057469234
165	0xbc98170b	-0.018565675
166	0x3c97285b	0.01845186
167	0x3d5678d1	0.052361313
168	0x3d185bc0	0.037196875
169	0x3cd348a3	0.025791472
170	0xbd812a82	-0.06306936
171	0xbd6f7ca6	-0.058468483
172	0x3d84bed3	0.06481709
173	0x3d236336	0.039889537
174	0xbd6d6c02	-0.057964332
175	0x3d35b15f	0.044358607
176	0x3d1f0748	0.038825303
177	0x3d0605e9	0.03272048
178	0x3bf0c8cc	0.0073481556
179	0xbd247999	-0.040155027
180	0x3b8489de	0.0040447554
181	0x3d674459	0.056461666
182	0x3d45d98c	0.048303172
183	0xbd02c4e9	-0.03192607
184	0x3c70096c	0.014650684
185	0xbd538301	-0.051638607
186	0x3d2de9df	0.042459365
187	0x3d9f6224	0.07782391
188	0xbd36d7b1	-0.044639293
189	0x3c119138	0.0088847205
190	0x3cbd73f8	0.023126587
191	0xbc60c73c	-0.013719376
192	0xbbdc41da	-0.0067217173
193	0xbd047e36	-0.032346927
194	0xbc7d0a5d	-0.015444365
195	0xbd042e64	-0.032270804
196	0xbd897866	-0.06712417
197	0xbc0cad10	-0.008586183
198	0x3d853409	0.065040655
199	0x3d733f9f	0.059386846
200	0x3cd0de4c	0.025496624
201	0xbc2d9473	-0.010594475
202	0x3da1bfd1	0.07897914
203	0x3bf84599	0.007576656
204	0x3da029c2	0.07820465
205	0x3d3710f2	0.044693895
206	0xbc1137ca	-0.008863399
207	0xbc8edbbb	-0.01743876
208	0x3c6314e9	0.013859966
209	0xbd8c51e1	-0.06851555
210	0xbc537d18	-0.012908243
211	0xbd84bd0d	-0.06481371
212	0x3dc35e52	0.095394745
213	0xbd568f2f	-0.052382644
214	0x3da7ba66	0.081898496
215	0x3ce40777	0.02783559
216	0x3d210656	0.039312683
217	0x3d5561c8	0.052095205
218	0xbd8ea8ea	-0.069658116
219	0x3be13710	0.006873019
220	0x3d88c5db	0.06678363
221	0x3ce0bbc3	0.027433282
222	0xbc023f22	-0.007949622
223	0x3d93d124	0.07217625
224	0x3c4f4d32	0.012652682
225	0x3d1885fa	0.037237145
226	0x3d3eaa92	0.046549387
227	0xbd15f4b2	-0.036610313
228	0x3d332f73	0.043746423
229	0xbce525fa	-0.02797221
230	0xbd1f4a68	-0.03888932
231	0x3d8e7743	0.06956341
232	0x3d648bb8	0.05579731
233	0x3d89d362	0.06729771
234	0x3d2ad271	0.0417046
235	0x3cb35479	0.021890866
236	0xbde314ee	-0.110879764
237	0xbd656bbd	-0.05601095
238	0x3c8ea663	0.017413324
239	0xbd5a8453	-0.05334885
240	0x3d5c04ee	0.05371564
241	0xbd3e5b7c	-0.046473965
242	0x3dadfeed	0.08495889
243	0x3cfd16a3	0.030894583
244	0xbd9db4d0	-0.07700503
245	0xbd724528	-0.059147984
246	0x3c957724	0.018245287
247	0xbd87b431	-0.06626166
248	0xbd9052a6	-0.07047014
249	0x3d043445	0.03227641
250	0x3d0dcd8d	0.034619857
251	0x3d97b21e	0.0740702
252	0x3d81faec	0.06346688
253	0x3d832138	0.0640282
254	0xbca50813	-0.020145452
255	0x3c389749	0.011266538

conv2.3.bias f4 [32]
0	0x3d533cdc	0.051571712
1	0x3c8e357d	0.01735949
2	0xbd283dcf	-0.04107457
3	0x3d9853e9	0.074378796
4	0x39f51598	0.0004674613
5	0x3d6f5024	0.058426037
6	0x3d442244	0.04788424
7	0xbd4f371a	-0.05058966
8	0x3dbc0695	0.09180943
9	0xbd7ab1d7	-0.061204758
10	0xbd020889	-0.03174642
11	0xbc128bc0	-0.008944452
12	0x3db33990	0.087512136
13	0x3cde18d3	0.027111446
14	0x3d89a0aa	0.06720097
15	0x3cb12d3c	0.021628015
16	0x3d407909	0.046990428
17	0x3b4b8038	0.0031051766
18	0xbcb0eab4	-0.02159629
19	0x3c83744e	0.01604667
20	0x3d810c06	0.063011214
21	0xbb6552c3	-0.0034991957
22	0xbcb6b615	-0.02230362
23	0x3caff1f4	0.021477677
24	0x3cbd9ec3	0.023146993
25	0xbc79cdb3	-0.015246796
26	0x3ce5b902	0.02804232
27	0xbd8f2837	-0.06990092
28	0xbd88f774	-0.06687823
29	0x3d876c9a	0.06612511
30	0xbcdd6a3b	-0.027028194
31	0xbc683247	-0.014172143

conv2.5.weight f4 [32]
0	0x3f7e96ae	0.9944867
1	0x3f804eec	1.0024085
2	0x3f7f5e27	0.9975304
3	0x3f80e09e	1.0068548
4	0x3f807ed3	1.0038704
5	0x3f80730a	1.0035107
6	0x3f806efc	1.003387
7	0x3f80977c	1.0046229
8	0x3f7d6001	0.98974615
9	0x3f803608	1.0016489
10	0x3f824b14	1.0179162
11	0x3f8200b9	1.015647
12	0x3f7b4f1f	0.98167604
13	0x3f80c6d6	1.006068
14	0x3f802bfa	1.001342
15	0x3f7becbc	0.98408103
16	0x3f81b6f9	1.0133964
17	0x3f7cf654	0.98813367
18	0x3f814cfc	1.0101619
19	0x3f7d3ec4	0.989239
20	0x3f808d62	1.0043147
21	0x3f7da42c	0.9907863
22	0x3f7ffdf7	0.99996895
23	0x3f7f1873	0.9964668
24	0x3f7d7f13	0.99022025
25	0x3f802ad9	1.0013076
26	0x3f7685b4	0.96297765
27	0x3f80362f	1.0016536
28	0x3f80a05e	1.004894
29	0x3f819bea	1.0125706
30	0x3f7fcacd	0.99918824
31	0x3f80e6d0	1.0070438

conv2.5.bias f4 [32]
0	0x3b3b748e	0.0028603408
1	0x3c377484	0.011197213
2	0xbb769401	-0.0037624838
3	0x3c4c60e4	0.012474272
4	0x3ba2fec4	0.004974218
5	0xbac5a380	-0.0015078634
6	0x3b106538	0.0022032987
7	0xbca43d5e	-0.020048793
8	0xbc9cad47	-0.019125594
9	0x3b43c287	0.0029870586
10	0xbc616d12	-0.013758915
11	0xbc8153eb	-0.015787086
12	0xbc210bbf	-0.009829461
13	0x3b819219	0.003954184
14	0x3b39607c	0.002828627
15	0xbc801135	-0.015633205
16	0xbbfba32e	-0.0076793646
17	0x3c4b050f	0.012391343
18	0x3a92c5eb	0.00111979
19	0x3c5d9f8d	0.013526809
20	0xb93eff44	-0.00018214906
21	0xbc4672dc	-0.012112346
22	0xbbe627e1	-0.007023797
23	0xbb3f65a7	-0.0029204877
24	0x3c860730	0.01636085
25	0xba9a671c	-0.0011779997
26	0xbc82aec6	-0.01595248
27	0x3c9f45c5	0.019442448
28	0xbbbf72ff	-0.005842566
29	0xbc63a0b1	-0.013893292
30	0xbc4eecc0	-0.012629688
31	0x3c06f7e0	0.008237809

conv2.5.running_mean f4 [32]
0	0x3ed31cab	0.4123281
1	0x3e80d60c	0.25163305
2	0x3e8d2543	0.2756749
3	0x3eb8385c	0.359805
4	0x3e858230	0.26075888
5	0x3ea6e8a9	0.3259938
6	0x3e8e78c9	0.27826527
7	0x3e206b34	0.15665895
8	0x3e843b84	0.25826657
9	0x3e8744b2	0.26419598
10	0x3e8b6537	0.27225658
11	0x3e9db990	0.30805635
12	0x3e8d9838	0.27655196
13	0x3efe71e5	0.4969627
14	0x3e8bcbca	0.27303916
15	0x3e5cb290	0.21552491
16	0x3eab3933	0.33442077
17	0x3e7533b1	0.239455
18	0x3ea0d506	0.31412524
19	0x3ea02dd6	0.3128497
20	0x3eaa4962	0.33259112
21	0x3e913b04	0.28365338
22	0x3e4da0cf	0.20080875
23	0x3e80fada	0.25191385
24	0x3e84a597	0.25907585
25	0x3e5de70a	0.21670166
26	0x3e488d31	0.1958511
27	0x3e535288	0.20636952
28	0x3e7e2508	0.24818814
29	0x3ee485c9	0.4463332
30	0x3ece246c	0.40262163
31	0x3eb4cc07	0.3531191

conv2.5.running_var f4 [32]
0	0x3e48fd71	0.1962793
1	0x3ed2c7ae	0.4116797
2	0x3ea924cd	0.3303589
3	0x3e59d209	0.21271528
4	0x3dfd6f06	0.12374692
5	0x3eb51ecb	0.35375056
6	0x3e26c0ed	0.16284533
7	0x3dad4f54	0.08462396
8	0x3ead2a70	0.3382144
9	0x3e355960	0.17709875
10	0x3e4ebdcf	0.20189594
11	0x3e8333df	0.25625512
12	0x3e0bd96a	0.13657156
13	0x3ea80a42	0.32820326
14	0x3eb6a039	0.35669115
15	0x3dd892d7	0.105748825
16	0x3ec3a1ee	0.3820948
17	0x3e081092	0.13287571
18	0x3e8ed53a	0.27897054
19	0x3de0317f	0.10946941
20	0x3e87526d	0.26430073
21	0x3e69b977	0.22824655
22	0x3e330b45	0.17484768
23	0x3e6f57ec	0.23373383
24	0x3e119d74	0.1422022
25	0x3e813f42	0.25243574
26	0x3dcc13ca	0.09964712
27	0x3da115a6	0.07865457
28	0x3e5f8f7f	0.21832083
29	0x3e77c9b4	0.24198037
30	0x3e9b7428	0.30362058
31	0x3ef18077	0.47168323
