trained_models/Archive/CNN_LSTM/CNN_LSTM_Zscore_CF5_pred_4.pth (torch, 615091 bytes, 90 tensors)

conv1.0.weight f4 [32, 1, 1, 2]
000000 c1 e0 cf 3e 9f 7f 26 bf 4c 85 04 3e b5 d2 09 bf
       0.4060116 -0.65038484 0.12941474 -0.5383714
000010 7d a1 9b 3e ba e1 29 3f 26 6d cd be f1 fa 23 bf
       0.30396643 0.66360056 -0.40122336 -0.6405478
000020 86 d1 f5 be 28 f7 6a be 34 ed d1 be 66 e7 95 3e
       -0.48011416 -0.22945845 -0.41001284 0.29278105
000030 93 31 45 3d 55 52 5b 3e 85 95 80 3e f6 37 34 bf
       0.04814298 0.21418126 0.25114074 -0.7039789
000040 00 0a a3 3e bb 6d 13 3f e3 0d 88 be fc 48 aa 3e
       0.31843567 0.5758931 -0.26573095 0.33258808
000050 c4 e3 be be 60 83 24 bf f7 fc 8f 3e fc be ad be
       -0.37283146 -0.6426296 0.28122684 -0.33934772
000060 f4 61 74 3d d9 a2 1f bf c0 70 92 bd 9a da 56 3e
       0.059663728 -0.6235786 -0.071504116 0.20981827
000070 48 16 7d be cb 74 4e bf fa f7 6c bd f4 93 89 be
       -0.24715531 -0.8064696 -0.057853676 -0.26870692
000080 ae 29 c9 3e 7d ca 3a 3f f7 64 09 3f 5c f4 da 3d
       0.39289612 0.7296522 0.53669685 0.10691139
000090 3e 4e fb bd 5f 16 0e bf b1 94 c4 be c7 a7 47 bf
       -0.12270783 -0.55502886 -0.38394693 -0.7799038
0000a0 db c6 36 3e 85 4d e8 3e a8 8c e4 bc 7e d3 a7 be
       0.17849295 0.45371643 -0.027899101 -0.32778543
0000b0 2d 00 29 3d 85 f7 f4 3d 95 a5 8f 3d 99 76 90 3e
       0.041259933 0.11961273 0.07014004 0.28215483
0000c0 a1 7f ae 3d ff 24 eb be 03 94 10 bf 37 48 22 3f
       0.08520437 -0.45926663 -0.5647585 0.6339144
0000d0 75 67 31 3f 20 58 0d bf 2a f1 ea 3d 63 c4 d0 3e
       0.6929849 -0.55212593 0.1147178 0.4077483
0000e0 10 7d b9 3e 03 ab 3b 3e 1e 8f 2d 3f 2d e8 2c 3f
       0.36228228 0.18326955 0.67796504 0.6754177
0000f0 d4 27 c2 3e b9 8c 40 bf 82 a2 26 3f ea 30 38 3e
       0.3792101 -0.75214726 0.6509172 0.17987409

conv1.0.bias f4 [32]
000000 80 c8 c0 bd 8a d2 99 be 60 35 26 3f b3 f8 d7 be
       -0.09413242 -0.3004344 0.64925194 -0.4218193
000010 3f 3e 22 be 5a 2a c0 be a4 23 3a bf 52 f6 03 3e
       -0.15844058 -0.37532312 -0.72710633 0.12886932
000020 64 fe cd 3d 76 b8 cd be 11 d8 2b 3f c4 64 0f bf
       0.10058287 -0.40179795 0.67126566 -0.5601313
000030 b8 31 c8 be 9a bb 32 3f 3f 71 3a 3e 76 63 45 3d
       -0.39100432 0.6981751 0.18207262 0.048190556
000040 34 d1 32 3f 15 33 8f 3d da ca 06 3f 42 e0 ea 3e
       0.6985047 0.06992165 0.52653277 0.4587422
000050 2e db 8f 3e 74 21 03 bf dd a3 8e 3e 9f 93 e0 3e
       0.28096908 -0.5122292 0.27859393 0.43862626
000060 03 29 1d be 63 e6 fa be 55 73 bf 3e 75 c7 b9 bd
       -0.15347676 -0.49003896 0.3739268 -0.090712465
000070 50 e2 02 bf b6 8d 98 be 64 9a 21 3f ac 3e e5 3e
       -0.51126575 -0.29795617 0.63126206 0.44774377

conv1.2.weight f4 [32]
000000 29 c9 6a 3f 95 84 70 3f 2b 32 83 3f fc eb 84 3f
       0.91713196 0.93952304 1.0249685 1.0384517
000010 b3 ec 70 3f ac 51 85 3f 20 e9 80 3f 22 d8 72 3f
       0.94111174 1.0415549 1.0071144 0.9486104
000020 c4 22 87 3f c5 84 85 3f e2 b3 80 3f 28 52 80 3f
       1.0557485 1.0431143 1.0054896 1.0025072
000030 8b d2 7f 3f d9 40 76 3f 16 bc 81 3f bf 2e 80 3f
       0.9993064 0.961927 1.0135524 1.0014266
000040 c6 c5 85 3f 9b e6 68 3f a6 7b 82 3f 72 00 81 3f
       1.0450981 0.90976876 1.0193985 1.0078261
000050 a6 7a 86 3f 1b 08 83 3f 99 fa 89 3f 3f 43 82 3f
       1.0506179 1.0236849 1.0779601 1.0176772
000060 2c 29 71 3f c7 37 85 3f 8d 34 6f 3f 4a c9 80 3f
       0.9420345 1.0407647 0.9343956 1.0061429
000070 1e 9b 7b 3f 36 95 87 3f 6e 78 6e 3f 5d b8 73 3f
       0.98283565 1.059241 0.9315251 0.9520319

conv1.2.bias f4 [32]
000000 ad 8c 40 bd bd ce 05 be 0c 02 31 3d ef c9 93 3c
       -0.04700916 -0.13067146 0.043214843 0.018040625
000010 68 f6 93 bb c8 61 b6 3c 93 e6 30 3b 76 bf 2f bd
       -0.004515458 0.022263423 0.0026992902 -0.0429072
000020 67 94 67 3d 4e d2 1b 3d 5d c5 df 3c 5e aa b9 bd
       0.056538012 0.03804236 0.02731579 -0.09065698
000030 d3 fa f9 bd 28 a6 4d 3d ea 02 b4 3c c0 e1 09 be
       -0.12206044 0.050207287 0.021974046 -0.13465023
000040 2e 86 4b 3b 5a d5 3d bc 2c 36 16 be 15 07 c6 3c
       0.003105532 -0.0115865115 -0.14669102 0.024173299
000050 e0 34 a0 3d 43 44 6a bd 6a af 04 3e e3 1d d6 3d
       0.07822585 -0.057194006 0.1295754 0.10454919
000060 76 ba 9e bd 06 09 09 3d cb 8a 2a 3c 90 7c 12 3d
       -0.07750408 0.03345587 0.010409067 0.035763323
000070 d3 9f 04 3d 1d c3 bb 3c ad a5 79 bc 13 8f 9c 3c
       0.032378983 0.022920186 -0.015237254 0.019111192

conv1.2.running_mean f4 [32]
000000 7d d9 9d 3e bb fc 82 3d ab 4b 27 3f 7b 59 04 3d
       0.30829993 0.06395861 0.65349835 0.032311898
000010 23 35 e8 3d 92 c8 b5 3d 5b 2a 37 bb d8 d6 c3 3e
       0.1133826 0.088761464 -0.002794883 0.3824985
000020 b2 da 55 3e 46 e7 7f 3d 96 bc 38 3f 39 23 b3 3a
       0.20884207 0.06247642 0.7216276 0.0013667113
000030 b1 f7 dd 3c c4 39 33 3f a7 0e b2 3e 55 07 e1 3d
       0.027095648 0.7001002 0.34776804 0.109877266
000040 2a c6 34 3f 2f 91 85 3e 85 fe 15 3f 3c a0 0e 3f
       0.70614874 0.2608733 0.5859149 0.5571325
000050 8d 62 97 3e fc 78 a8 bb b8 c3 8e 3e 3b 14 e1 3e
       0.29567376 -0.0051413756 0.27883697 0.43960747
000060 14 73 b4 3d 49 6a 51 3e f2 16 24 3f d7 11 b1 3d
       0.08811012 0.20450701 0.6409751 0.08645981
000070 ba 32 28 bb 38 c4 02 3e 39 27 4a 3f de 16 02 3f
       -0.0025665 0.12770164 0.789661 0.5081614

conv1.2.running_var f4 [32]
000000 06 de 0f 3e a9 fb 34 3c 5d 0a aa 3e 06 e5 10 3c
       0.14049539 0.011046329 0.33211032 0.008843666
000010 2c 8c d0 3c 2b 84 70 3d fb d9 81 3b 6a 2c 1d 3e
       0.025457464 0.058719795 0.003962753 0.15348974
000020 bd f3 39 3e 76 5e 61 3d 1a 4c 11 3e 7e ac 10 3a
       0.18159385 0.055021726 0.14189187 0.00055188674
000030 94 10 8d 3b 4f b0 80 3d 16 b7 9d 3d f8 bf f6 3b
       0.004304955 0.06283628 0.077009365 0.0075302087
000040 14 ec cb 3e c3 a5 cb 3d 51 ec aa 3d 1e a5 0f 3e
       0.3982855 0.09943726 0.08345855 0.14027831
000050 17 43 18 3e 20 39 25 37 82 5a 36 3c ae ab 84 3d
       0.14869343 9.848067e-06 0.011129977 0.06478058
000060 9e 21 6a 3c dc ed 8f 3e 21 1f 04 3f 98 41 ab 3d
       0.0142902415 0.2811116 0.5161 0.083621204
000070 00 1c ee 3a ed 57 11 3e 1c f6 d3 3e 61 21 89 3e
       0.0018166304 0.14193697 0.41398704 0.2678328

conv1.4.weight f4 [32, 32, 4, 1]
000000 af 54 55 3b 9f b4 c1 bb 4b e7 86 bc 40 95 35 bb
       0.0032551696 -0.0059114243 -0.016467711 -0.0027707368
000010 31 6b a6 3d 4e 4b be 3c a3 c1 56 bd 5a c9 99 3c
       0.08125914 0.023229267 -0.05243076 0.01877277
000020 3c 47 98 3c fc f8 15 be f2 5a 96 3b a6 7d b7 ba
       0.018588655 -0.14645761 0.0045884782 -0.0013999238
000030 1d 1a 86 bd 09 7c 6d bd 9a 53 5d 3d 52 c3 02 bc
       -0.065479495 -0.057979617 0.054034807 -0.007981138
000040 4b 8e 8e bd 45 a3 bc 3c 18 60 01 3c b0 f6 db 3b
       -0.06960734 0.023027072 0.007896446 0.006712757
000050 fe a6 09 3d c4 78 de bd 01 b7 79 3d 4b 76 cf 3d
       0.03360652 -0.10862878 0.06096554 0.101299845
000060 24 9d ca 3b fd 90 14 bd 76 54 97 bd 7f b3 5c 3c
       0.0061832834 -0.036271084 -0.073891565 0.01347053
000070 d3 2b a1 3d fc fa 78 bc f3 25 0d 3c c9 01 ef 3c
       0.07869687 -0.015196558 0.008615005 0.029175656
000080 03 50 bd bd 59 4b 1c be a2 44 96 3d dd a8 bb bc
       -0.09243777 -0.15263118 0.073373094 -0.022907669
000090 36 ab 1b 3c 21 4f c2 b9 4e 85 a6 3a 04 b2 e3 3c
       0.009501269 -0.0003706152 0.0012704523 0.027794845
0000a0 9d b2 db bc a5 e9 af 3d e7 99 60 bd 23 f0 5e bd
       -0.026818568 0.08589486 -0.054834273 -0.05442823
0000b0 cb 9d 88 3a 38 f9 4c bd 2f e8 f9 3c 22 ea d1 bd
       0.0010423003 -0.05004236 0.030506222 -0.102497354
0000c0 ad 17 90 3d 81 6b 3d 3c 12 d8 28 bd 54 95 a3 bd
       0.07035766 0.011561275 -0.041221686 -0.079874665
0000d0 d6 f2 90 3c 1a b1 fb bc 72 13 95 bc 80 52 a6 3c
       0.017693918 -0.030724097 -0.018197749 0.020303011
0000e0 46 cc 8e 3c f1 c1 e6 b9 ce 49 09 bd 5f c4 e7 bd
       0.01743139 -0.00044013516 -0.03351765 -0.11316752
0000f0 5c bf 0e bd 88 e6 35 3d 67 b3 08 3d 9e 9c bd bd
       -0.034850463 0.044409305 0.033374216 -0.09258388
000100 c1 ac a2 bb d7 00 d9 bd f5 44 7f 3d 3c 30 4d 3d
       -0.0049644415 -0.10595863 0.062321622 0.050094828
000110 af 42 62 3d fa 36 c0 bc 57 50 c9 bc 54 13 0e 3c
       0.055239376 -0.023463715 -0.024574442 0.0086716
000120 25 98 27 3d ce 2c ef 3c 71 08 6f 3b 09 ee 88 bd
       0.04091658 0.02919617 0.0036473537 -0.066860266
000130 7a 3a 96 3c 5a e2 c5 3c 87 c0 81 3d f7 0c 11 be
       0.01833843 0.024155784 0.0633555 -0.14165102
000140 44 d3 0f bd ae f1 19 be ae 3d 69 3c b6 a5 a3 3d
       -0.035113588 -0.150336 0.014235897 0.07990591
000150 8f 7f 7c 3d 63 9f 93 3d d9 c0 44 3d e8 cb 8a 3b
       0.061645087 0.07208135 0.048035476 0.0042357333
000160 09 b3 c2 bc b8 a3 b8 bd 21 7d 11 bc d0 cd ec 3c
       -0.023767011 -0.09015602 -0.008879931 0.028906733
000170 da 72 92 bd 08 08 ec bd f9 67 b4 b9 6c 0b d9 3d
       -0.071508124 -0.11524969 -0.0003440974 0.10597882
000180 cc ba c6 3c 06 93 91 bc 9d d3 2d 3c 32 af 48 bd
       0.024258994 -0.017770302 0.010609535 -0.048995204
000190 85 da 9f bd e6 d3 82 bd ad 1f 4b 3d ad 37 5a 3d
       -0.07805351 -0.06388073 0.049590755 0.053275753
0001a0 0e ea d2 bc ef 45 36 3d f0 02 29 3c 73 97 cb 3c
       -0.025746372 0.044500288 0.010315642 0.02485249
0001b0 65 24 6b 3c 35 00 65 bd 47 cf a3 3d 2e 69 2f bc
       0.014351939 -0.0559084 0.079985194 -0.010706229
0001c0 1d 35 ae bb 09 b4 af bd 67 a1 19 bc ea 17 c7 3c
       -0.00531639 -0.08579261 -0.00937686 0.024303395
0001d0 c5 d2 6b bd f2 11 8b bc 0f 56 4b bd 03 b1 b0 3d
       -0.057574052 -0.01697633 -0.04964262 0.08627512
0001e0 20 79 09 3c 96 16 57 3d 8c 63 4b 3d c6 c8 c8 3c
       0.008390695 0.052511774 0.049655482 0.024509799
0001f0 c5 c4 13 3d 75 28 2d bc 5b 63 95 3a af 58 77 bc
       0.036076326 -0.010568728 0.0011397408 -0.015096827
000200 24 ba 18 bd a6 68 c1 3c 9a 36 10 bd 19 a5 96 bc
       -0.037286893 0.02360947 -0.035208322 -0.018389272
000210 62 e3 87 bd 21 ad b5 bc a1 b6 f5 ba 32 f4 29 be
       -0.06635167 -0.02217728 -0.0018746444 -0.1659706
000220 16 bb 96 bd 74 47 b4 3c e3 a1 dd 3c 39 30 d7 3d
       -0.073599026 0.022006728 0.027054733 0.105072446
000230 ce 50 50 bd 6f 77 26 bd ef 34 85 bc dc 76 a2 bd
       -0.05085831 -0.040641245 -0.016260592 -0.07932827
000240 6c e7 f8 3a ae 8c 8c bd f7 f2 45 bd 6b d7 9e bd
       0.0018989868 -0.0686277 -0.048327412 -0.077559315
000250 ee 72 ad bc d4 e8 a8 bc ce bc 1a bd ba 75 bd 3d
       -0.021172967 -0.020618834 -0.037777714 0.0925097
000260 ba 8f 52 bd 63 f4 10 bd 28 d6 23 bc d0 e7 2f bd
       -0.0514066 -0.035389315 -0.009999789 -0.042945683
000270 67 bb 37 bb c7 cf 67 3c ef f7 3a bd 4b ca aa bb
       -0.0028035284 0.014148659 -0.045646604 -0.0052121035
000280 21 f1 3b bd ab bd 5c 3d b2 94 c1 bd e7 e2 f0 3d
       -0.045884255 0.05389182 -0.094521895 0.11762028
000290 5a 07 8b bd 5f a9 3a bc 69 13 0d bd 2c 5e fa 3d
       -0.067885116 -0.01139292 -0.03444234 0.12224993
0002a0 a1 4e af bc 05 a1 83 3c 08 81 85 3c b6 a2 99 bc
       -0.021399798 0.016067991 0.016296878 -0.018754344
0002b0 2b 09 3a bd a9 18 01 bd ac c3 ef bc 15 40 a3 bc
       -0.0454189 -0.03151766 -0.029268108 -0.019928018
0002c0 1a db 0b 3b 7a 0f 94 bc ab 3d b6 bc 09 f9 72 bd
       0.0021340312 -0.018073786 -0.022246202 -0.05931953
0002d0 b8 dd e2 bc de af 89 bd 59 26 0e 3d af e2 a6 3d
       -0.027693614 -0.06722997 0.03470454 0.08148705
0002e0 5f 75 ca 3d 1e 91 68 3b 3c f3 81 3d a5 4e a9 bd
       0.09885668 0.0035486887 0.063452214 -0.082669534
0002f0 22 b3 84 3d eb da 10 bd 34 f7 91 3d 7b 60 94 bc
       0.06479479 -0.035365026 0.071272284 -0.018112412
000300 e2 33 d2 3b f1 ab 87 bc 1c 79 58 bc 12 c0 a6 3d
       0.0064148763 -0.01656148 -0.0132124685 0.08142103
000310 fe 25 ae bc 08 f7 24 bd d3 09 54 bd 45 75 0a 3c
       -0.02125835 -0.04027465 -0.05176718 0.008450811
000320 89 1f 09 3c ce 86 58 3d e6 d2 6f bc 22 34 a9 bd
       0.008369335 0.052862935 -0.014637684 -0.08261897
000330 7d 08 8f 3c 36 af ac 3d ca b1 8c bc c0 1c 0a bd
       0.017460102 0.08431856 -0.01717462 -0.033718824
000340 a7 6f 97 bc 9b 3d f4 3c 33 26 a6 bd 86 c7 ea 3c
       -0.018485857 0.029814532 -0.08112755 0.028659593
000350 22 a8 83 3b d2 17 38 bd 27 5a 72 bc c6 e1 87 bb
       0.0040178457 -0.04494459 -0.014792002 -0.0041467873
000360 10 92 8b bd c0 29 94 bd b5 ef b2 ba 9b fa 85 3d
       -0.068149686 -0.07234526 -0.001365176 0.0654194
000370 fd 63 99 bc e2 fc 7b bd a6 06 a1 bd c5 ce ae 3d
       -0.018724436 -0.061520465 -0.07862596 0.08535532
000380 df bd 52 bd 13 47 69 3d 3c 58 7d bb 6a 8a ed bd
       -0.051450606 0.056952547 -0.0038657328 -0.11598666
000390 71 64 18 bc be 78 c7 3c ef 23 a3 bb eb 08 10 bc
       -0.009301291 0.024349567 -0.004978649 -0.008791189
0003a0 0e b0 42 bd 18 12 40 bd af 48 64 bd 64 e0 0b 3d
       -0.04753118 -0.046892256 -0.05573338 0.034149542
0003b0 03 09 72 bd 48 aa 99 bb 1a c0 2e 3d 17 b6 f3 3d
       -0.059090625 -0.0046894886 0.04266367 0.11899965
0003c0 54 9e 33 3b 73 a8 4e bd 90 15 55 3b ab 99 68 bd
       0.0027407603 -0.050453614 0.0032514073 -0.056787174
0003d0 33 fd 81 3d 1b 2d 64 3d 11 2c 0d 3c 3d 6a 1b bb
       0.06347122 0.05570708 0.008616463 -0.0023714446
0003e0 98 2b a2 3d 9b 79 3a 3c 75 cb 7f bd 0f 11 b7 bd
       0.07918471 0.011381532 -0.06244989 -0.089388005
0003f0 49 ef 57 bc 64 77 fe 3c 0a 43 68 3d 64 13 a0 3d
       -0.013179609 0.03106279 0.05670456 0.078161985

conv1.4.bias f4 [32]
000000 21 6d 50 bd 44 94 a9 3d a5 57 82 bc d7 4f ae bd
       -0.050885323 0.082802325 -0.015910933 -0.08511322
000010 a6 45 c0 3d 1e 15 c4 bc df af 46 bb 36 69 17 3c
       0.093882844 -0.02393585 -0.003031723 0.009241393
000020 c3 f6 8d 3d 77 fc e8 3b ce 68 0b 3d b6 2c 59 3d
       0.06931832 0.0071101743 0.034035496 0.053021155
000030 79 19 85 bd fc d2 dd 3c d7 a1 4f bc c7 37 76 bd
       -0.06498999 0.027078144 -0.012672863 -0.060111787
000040 fd dd 26 3d 8d f9 9f 3b db e7 04 3d 9a b8 fc 3b
       0.04073905 0.0048820437 0.032447677 0.007712436
000050 ce e3 21 bd a7 54 03 3e 05 c9 e9 bb 35 b5 2d 3c
       -0.039523892 0.12825261 -0.007134559 0.010602285
000060 35 85 20 bd 2b de 23 bc 9c 92 29 3d 13 cc a8 3b
       -0.039189536 -0.010001699 0.041399583 0.0051512807
000070 86 ac 2d 3d 6b fc 7d bc b7 6c 49 3d 83 d7 46 bd
       0.04240086 -0.015502076 0.049175944 -0.04854537

conv1.6.weight f4 [32]
000000 d0 61 7b 3f 3b 27 84 3f c0 07 78 3f 35 e6 79 3f
       0.98196125 1.0324472 0.96886826 0.97616893
000010 5b 88 80 3f cb 4c 7c 3f 81 d5 87 3f c0 a6 74 3f
       1.0041612 0.98554677 1.0612031 0.9556694
000020 75 6b 84 3f 74 be 80 3f 7b 7e 71 3f 02 62 7f 3f
       1.0345293 1.0058122 0.9433362 0.99758923
000030 35 01 85 3f 1d 90 82 3f b5 43 7c 3f a8 61 80 3f
       1.0390993 1.020023 0.9854081 1.0029802
000040 e1 20 7c 3f de d6 83 3f 5d d6 7b 3f 08 1f 80 3f
       0.9848767 1.0299947 0.9837397 1.000947
000050 80 ba 7d 3f 95 06 82 3f ae b2 7c 3f a8 d5 72 3f
       0.991127 1.0158259 0.98710144 0.94857264
000060 89 44 7e 3f be 12 75 3f 37 41 86 3f ec 73 7a 3f
       0.99323326 0.95731723 1.0488652 0.9783313
000070 99 fe 7e 3f de da 79 3f c7 6b 84 3f 37 7e 80 3f
       0.99607235 0.9759959 1.0345391 1.0038518

conv1.6.bias f4 [32]
000000 20 8e 7b bc d2 9f 38 bd 9b e1 1f bd f5 09 e6 3c
       -0.015353709 -0.04507429 -0.039033514 0.02808092
000010 49 70 39 3c 1e 63 9f bd 91 1e 2c bd 82 3f c7 bb
       0.011318275 -0.07782577 -0.042021338 -0.006080569
000020 c3 95 0a bd c9 46 de 3a ec 8e 59 ba de ef a9 bc
       -0.03383423 0.0016958351 -0.000829919 -0.02074426
000030 95 ab 2e bd 38 2c d0 3b 7e 95 59 3d e1 7d 80 3d
       -0.042644102 0.0063529275 0.053121082 0.062740095
000040 a3 f7 3b bd 19 16 91 39 c2 87 82 3c 3f bb 4d bb
       -0.04589046 0.0002767302 0.015933875 -0.0031392125
000050 f4 a1 6e 3d 99 91 f5 3a 9c 6e 2c 3d 29 8d 84 3c
       0.05825992 0.0018735408 0.042097673 0.016180592
000060 15 ff 57 bd 54 f0 2c 3d 2a 10 7d bc a3 35 8b bb
       -0.0527335 0.042221382 -0.015445748 -0.0042483374
000070 e1 3f 1c bc f8 3f 36 3c ed 22 32 3c 3f b9 3e 3d
       -0.009536714 0.01112365 0.010872585 0.046563383

conv1.6.running_mean f4 [32]
000000 d9 04 82 3e 68 aa d4 3e 0e e9 73 3f 18 e4 de 3e
       0.25394323 0.4153626 0.9527749 0.43533397
000010 03 4b d4 3e 3e ee 9b 3e 83 c3 3f 3f 2e e4 b7 3e
       0.4146348 0.30455202 0.749077 0.35916275
000020 f6 81 1f 3f 02 d9 db 3e 55 c6 b9 3e 80 da be 3e
       0.6230768 0.42939 0.36284128 0.37276077
000030 c2 13 ec 3e 3c 25 8a 3e 7f d6 ee 3e 10 12 10 3f
       0.46108824 0.26981533 0.46648023 0.5627756
000040 93 a3 99 3e 31 23 ed 3e db 07 0f 3f cc 0c 2f 3f
       0.3000761 0.4631591 0.5587136 0.683789
000050 ad 85 30 3f 5c 66 d8 3e 07 d9 0c 3f f0 b8 18 3f
       0.68953973 0.42265594 0.5501866 0.5965719
000060 b7 58 2b 3f 03 89 25 3f 3a 05 0f 3f be 52 99 3e
       0.66932243 0.6466219 0.5586735 0.2994594
000070 2a 8c 3f 3f 58 10 1a 3f 23 69 3b 3f 5d 75 5f 3f
       0.7482325 0.6018119 0.732073 0.8728846

conv1.6.running_var f4 [32]
000000 c2 9c 64 3e 05 8c ef 3e 5f e4 79 3f 28 90 c0 3e
       0.22325423 0.46786514 0.9761409 0.37609982
000010 e6 06 9c 3e f5 51 e4 3e be 6c 46 3f 05 c2 4d 3f
       0.30474013 0.44593778 0.7750968 0.80374175
000020 8e fc 86 3f 3d 7a c6 3e 93 9d 7b 3e 45 74 7c 3f
       1.0545824 0.38765135 0.24571829 0.98614913
000030 1e b5 cd 3f 4f 9e 8e 3e a8 00 be 3f 80 f8 f7 3e
       1.6070898 0.27855155 1.484395 0.48431778
000040 be 36 b1 3e e8 c6 df 3e e3 c4 1f 3f d4 14 d7 3f
       0.34612077 0.4370644 0.624098 1.6803231
000050 f7 d0 e3 3f ed 8a a4 3e 13 b2 b7 3f 9f 8a 34 3f
       1.7798146 0.32137242 1.4351219 0.7052402
000060 cf 86 e6 3f c5 a0 08 3f 96 53 15 3f 37 70 82 3e
       1.800989 0.53370315 0.58330667 0.25476238
000070 0f 99 8e 3f d6 9c 14 3f dc f1 2b 3f 4b e3 96 3f
       1.114046 0.5805181 0.67165923 1.1788114

conv1.7.weight f4 [32, 32, 4, 1]
000000 42 68 45 bb 17 81 4c 3d 83 13 ce 3c d5 fa 50 3c
       -0.0030121957 0.049927797 0.025155788 0.0127551155
000010 fa 12 70 3d 95 50 0c 3b 13 fd 82 3c cb b0 f9 3c
       0.058611847 0.0021410335 0.015989816 0.03047981
000020 17 70 81 bd a8 06 56 bb bc 3e bf 3c 32 9c 6a bd
       -0.063202076 -0.0032657776 0.023345344 -0.057277866
000030 9c 90 0e 3d f3 bb 2c bd d5 69 46 3d c7 9e 6a bd
       0.03480588 -0.04217143 0.048440773 -0.057280328
000040 31 b6 fd 3c 22 5f 75 bc 47 2d f3 3c 88 b1 ca 3d
       0.030970665 -0.014976295 0.029684676 0.09897143
000050 4e 67 f1 bd c4 21 db bd ed 39 ed bd 5a 24 a6 bd
       -0.11787282 -0.106998 -0.11583314 -0.08112402
000060 78 49 93 bd 96 5f bd bc ba 24 af bd ce 9a c9 bd
       -0.071917474 -0.023116868 -0.08551927 -0.0984398
000070 09 24 bd bd cf 0d 0a 3d b6 2a 82 bd 62 4f c1 bd
       -0.09235389 0.033704575 -0.06355803 -0.09438969
000080 9d 57 55 bc 80 bd 71 3c 13 35 01 bd 13 88 0e bd
       -0.013021377 0.014754653 -0.031544756 -0.03479774
000090 57 36 84 3d 9b 35 55 3d dc 5c 0f bd fa d8 9d bc
       0.06455677 0.052053075 -0.035000667 -0.019268502
0000a0 f2 11 a9 bc 35 38 8c 3d a3 77 29 bc ce 93 81 3a
       -0.02063844 0.06846658 -0.010343465 0.0009885968
0000b0 56 78 4f bd 5f c2 08 bd 10 5a 9e bc 1d f9 a8 bd
       -0.05065187 -0.03338849 -0.019330055 -0.082506396
0000c0 af 73 35 bd d6 5b 87 3d c3 10 95 3d 80 99 3f 3d
       -0.044299778 0.06609313 0.07278588 0.04677725
0000d0 d2 14 86 bd 19 11 d3 bc a9 34 75 bc f4 24 5f 3d
       -0.0654694 -0.025764989 -0.014966168 0.0544786
0000e0 29 8c 08 bd 37 01 5b 3b 3b a0 60 bd bd 14 21 3d
       -0.033336792 0.0033417472 -0.054840308 0.03932642
0000f0 0f 9e 43 3c c1 5e 99 3d b6 30 98 bd 0c 45 ce bd
       0.01193954 0.07488776 -0.07431166 -0.100717634
000100 5d 2a ea bc 31 f8 67 bd ac 63 f8 bd d2 6c a0 bc
       -0.028584654 -0.05663318 -0.12128386 -0.01958314
000110 e8 00 85 bd e2 14 62 bc e7 4c 4e bb 18 a0 af bd
       -0.064943135 -0.013798924 -0.0031478943 -0.08575457
000120 62 7e db 3c 0e e9 87 bd 06 e6 86 bd 77 8e 77 3d
       0.026793662 -0.066362485 -0.06586842 0.0604386
000130 59 b1 5a 3d ad 31 4d bd e5 de 1f bd 7e 46 f5 3c
       0.05339179 -0.050096203 -0.03903093 0.02994084
000140 4d 8e 71 3d 13 cc 3d bd 7d d5 4b 3d d0 fc 4a bd
       0.0589736 -0.0463372 0.049764145 -0.049557507
000150 5f c8 e6 3c bd 64 5f bd f9 98 cd bd ca ee 31 bd
       0.028171716 -0.05453943 -0.10038943 -0.043440618
000160 4e 3c d8 bd 39 5a 84 bd 53 11 fe bc ca a7 7c 3d
       -0.10558377 -0.06462521 -0.03101412 0.061683454
000170 b4 9a 34 3c a6 bc 0a 3d 98 dd c3 bd 61 21 7a 3c
       0.011023212 0.033871315 -0.0956375 0.015266747
000180 36 b7 e7 3c 70 7b 35 bd 17 75 9f bd a4 c0 bc 3b
       0.028285604 -0.044307172 -0.07786005 0.0057602692
000190 9e df b9 3c 27 c6 91 3d 74 6c 49 3c f0 1e 42 bd
       0.022689637 0.07117873 0.012293924 -0.047392786
0001a0 9e 1c 71 3d 3f d5 1b bd 78 3e 04 bd d4 37 15 bd
       0.058865182 -0.038045164 -0.032286137 -0.036430195
0001b0 99 de a6 3d 93 b4 ac bd 4b 1c 71 3d a4 e1 1f bd
       0.08147926 -0.08432879 0.058864873 -0.039033547
0001c0 e7 29 47 3d a8 57 a3 bc 9e 1e d9 bc 4d c3 1a bc
       0.048623946 -0.019939259 -0.026503857 -0.009445977
0001d0 bb 91 43 bd 3b 66 04 3c 66 41 88 bd cf a4 09 bd
       -0.0477464 0.008081014 -0.06653099 -0.03360444
0001e0 4f ba 85 3d 7f d7 c7 bc 18 e2 89 bc 07 60 8c bb
       0.06529676 -0.024394749 -0.016831443 -0.0042839083
0001f0 04 e0 88 bd 5e eb 8a bc 6b d4 45 bb 90 46 65 bc
       -0.066833526 -0.016957935 -0.0030186425 -0.013993874
000200 c7 1f 06 bc d2 ce a7 3d b3 cb f8 bc 58 44 43 3d
       -0.008186287 0.08193745 -0.030370569 0.0476726
000210 cb 3a 03 bd 39 ea 6e bd 99 02 f0 bb 5f fd c9 bd
       -0.03203849 -0.05832884 -0.0073245284 -0.0986278
000220 49 58 ef bc fb eb 90 3d 58 93 9e 3d 97 e4 e5 bb
       -0.029216902 0.0707626 0.07742947 -0.0070157754
000230 c4 a9 8f bc eb 58 19 bd a3 72 a5 3d 2d 3d 33 bc
       -0.017537005 -0.037438314 0.08078506 -0.010939878
000240 f0 05 c4 3c cc b9 a1 3d 22 8d d3 3c eb 8d 95 bc
       0.023928612 0.07896766 0.025824133 -0.018256148
000250 da 54 f4 3c db e5 94 3c 82 c2 d8 bc a6 5c 24 3d
       0.029825617 0.01817601 -0.026459936 0.04012742
000260 74 8a 8b bb e7 c7 dc ba 9e 03 4e bd 06 59 21 bd
       -0.0042584483 -0.0016844244 -0.05029642 -0.03939154
000270 17 a5 c4 3b fa 47 3a 3d 07 51 03 bc 6b 4b 91 3d
       0.0060011256 0.0454788 -0.008014924 0.07094463
000280 bf e6 6f bd 45 5d 9b bc 73 b9 a0 bc 7f ad 00 3d
       -0.058569666 -0.018965373 -0.01961968 0.03141546
000290 f4 3c 55 bd ec 82 23 bd 25 4e cd bc b0 ff 40 bd
       -0.052060083 -0.03991978 -0.025061676 -0.047118843
0002a0 d9 90 a9 bd 36 95 34 3c 0e f9 79 bd 3d 63 bb 3d
       -0.082795806 0.011021903 -0.061028533 0.091497876
0002b0 86 a0 9a 3d e9 db 1e 3c 90 20 86 bd 08 df 8d 3c
       0.07550149 0.009695985 -0.065491796 0.017318264
0002c0 c1 49 8b bd ae 73 b1 bd ee 08 76 bc f6 39 7f bd
       -0.06801177 -0.08664642 -0.015016777 -0.062311135
0002d0 0d 37 96 3d 63 34 64 3c 5b f0 22 bd 4c 3e a8 3d
       0.07334719 0.013928506 -0.039780002 0.08215007
0002e0 d8 00 11 3d 1f 70 81 bd 84 b0 c3 3c d5 0e 85 bd
       0.035401195 -0.063202135 0.02388788 -0.064969696
0002f0 bb 7b eb 3c d0 cf a9 bd e7 38 e5 3c 4e b4 c3 3d
       0.028745523 -0.0829159 0.027981235 0.09555875
000300 4c d7 01 bc d0 f8 25 bd eb 13 23 3d ac 51 2c 3d
       -0.007924866 -0.04052049 0.039813917 0.042070076
000310 d6 37 5b bd 2b 12 8f bd 2e 43 3f 3d 7d 6c f1 3d
       -0.053520046 -0.06985887 0.046694927 0.117882706
000320 7d f1 8e bd 32 97 40 bd 14 69 af 3d 33 05 cd bc
       -0.06979654 -0.04701919 0.08564964 -0.025026893
000330 e6 f2 98 3d 19 80 27 bd f4 fa e1 3c 33 2d 95 bd
       0.07468204 -0.040893648 0.027585484 -0.07284012
000340 b4 9f cd bd f5 39 86 3d 98 87 97 bd 49 bf fa bc
       -0.100402266 0.06554023 -0.07398909 -0.03060879
000350 9a be 8e 3b d5 2f d0 3c a0 b0 ae bc fd fc ed 3d
       0.0043562176 0.025413433 -0.021324456 0.11620519
000360 a4 93 85 3d 3e ac 69 bd 1b aa 9a 3c 2a 05 60 3d
       0.06522301 -0.05704903 0.01887994 0.054692425
000370 80 0c 52 3d 33 f3 17 39 0f 19 9a bd 80 9f 9c 3d
       0.051281452 0.00014491081 -0.07524311 0.0764761
000380 8b f0 7f 3d 8b ac a5 bd 2b 67 44 3d 7a b6 7b bc
       0.06248526 -0.080895506 0.04794995 -0.01536333
000390 59 33 fa 3c 58 3d 8d 3c dc b9 63 bc e5 c4 aa bc
       0.030542063 0.017241165 -0.013899293 -0.02084584
0003a0 f5 fe 70 3c fa fc a5 bd 6b 42 cd bd 2e 73 8c 3c
       0.014709224 -0.08104892 -0.10022434 0.017144766
0003b0 b9 51 6b 3b fc 81 3d 3d 9d 3c 58 bd 79 a0 86 3d
       0.0035906865 0.04626654 -0.05279218 0.065735765
0003c0 7f 28 e5 bc 19 a9 9f 3c e5 7e c8 bd 00 41 5b bd
       -0.027973412 0.019489812 -0.09789828 -0.053528786
0003d0 58 77 bf bc 80 67 6f bd d2 38 54 bb f4 97 a7 3c
       -0.023372337 -0.058448315 -0.00323825 0.0204582
0003e0 2d db 90 bc 86 a4 94 3d 8a 36 a2 bd 73 1e 97 3d
       -0.017682636 0.07257943 -0.07920559 0.073788546
0003f0 0c 1f aa bd e9 fc 59 bc 32 36 5b 3c a3 0a 72 bd
       -0.08306703 -0.013304927 0.01337962 -0.059092175

conv1.7.bias f4 [32]
000000 38 c2 d6 3d b8 34 92 3d 46 16 ab 3d 48 20 0b bd
       0.10486263 0.071389616 0.08353858 -0.033966333
000010 ad c1 a8 bd 40 d8 9b 3d 34 7e ce 3c 46 c1 25 3c
       -0.08240066 0.07609606 0.025206663 0.010116881
000020 2c ef 03 bd 2d 42 0c 3b c9 43 72 bd 57 19 f5 bc
       -0.032210514 0.0021401749 -0.059146676 -0.02991931
000030 4a 76 51 bc fb c3 5d bd 8a 14 9b bd 90 c8 49 bd
       -0.01278455 -0.05414198 -0.07572277 -0.049263537
000040 3a 09 f0 bd d6 6c 54 3d ce db 50 bd c4 a2 06 3e
       -0.1172051 0.051861607 -0.050990872 0.13148028
000050 26 08 02 bd 57 4a 4c bd fe 5a 31 bd 55 0d d2 bd
       -0.031746052 -0.049875583 -0.043299668 -0.10256449
000060 c7 dc 32 bd 45 11 90 3d 23 f5 13 3c a7 d7 13 bd
       -0.04366758 0.07034544 0.009030613 -0.036094334
000070 a2 95 09 be a8 ed d9 3d e0 2b 92 bc 93 9b 86 bd
       -0.13435987 0.106410325 -0.017843187 -0.06572642

conv1.9.weight f4 [32]
000000 dd 1a 7f 3f cd cf 81 3f 6b d1 83 3f 4e 2f 81 3f
       0.99650365 1.0141541 1.0298284 1.0092561
000010 65 b1 7c 3f f8 67 7c 3f a7 c9 7e 3f 04 69 80 3f
       0.9870818 0.98596144 0.9952645 1.0032048
000020 38 d9 83 3f d7 4b 7b 3f b5 3a 77 3f d3 d6 7a 3f
       1.0300665 0.981626 0.96573955 0.97984046
000030 4f 31 78 3f 7f c7 77 3f 69 ff 8a 3f 4f d7 7b 3f
       0.9695024 0.9678878 1.0859195 0.9837541
000040 b8 fe 84 3f f8 d8 7c 3f 69 7e 7f 3f d2 62 7d 3f
       1.0390234 0.9876857 0.9980226 0.9897891
000050 55 8b 82 3f f8 68 7e 3f 2e 43 7b 3f 22 98 7d 3f
       1.0198771 0.9937892 0.98149383 0.9906026
000060 eb a7 7e 3f af 39 7c 3f 5c 90 7c 3f 54 30 7e 3f
       0.9947497 0.9852552 0.98657775 0.9929249
000070 d1 b4 8d 3f 40 d6 72 3f bc a6 78 3f a7 59 79 3f
       1.1070806 0.9485817 0.97129416 0.97402424

conv1.9.bias f4 [32]
000000 dd d9 a5 3c d6 35 42 bd 01 b0 4c bc 85 8f 3c 3c
       0.020245487 -0.047414623 -0.0124931345 0.011508827
000010 87 51 30 bd c2 57 8b 3c c9 84 cf 3c 44 a2 5c 3c
       -0.0430465 0.01700962 0.025331872 0.0134664215
000020 ac e6 03 bd 4e ca c3 3c 43 62 f7 bb 51 06 18 3c
       -0.032202408 0.023900177 -0.0075495555 0.00927885
000030 41 be b0 bc d9 f2 c0 bb 0d 9e 34 3c 5e 3b d1 bc
       -0.021575095 -0.0058883247 0.01102401 -0.025541004
000040 7a 9c 26 3c 08 43 0e bb 7c 1a 85 bc 48 a2 fd 3b
       0.010169143 -0.0021707434 -0.01624798 0.0077402927
000050 ad fd c2 3c 9c 8f f3 bc b0 4f 14 bb e3 d4 63 3c
       0.023802603 -0.029731564 -0.0022630505 0.013905737
000060 c1 62 7d bc 62 08 c1 bb c8 91 1f 3c 75 42 f8 3c
       -0.015465439 -0.005890892 0.009739347 0.030305127
000070 f0 10 1a 3d 3e 4c 69 bb 83 41 e8 3b d8 41 aa 3c
       0.03761381 -0.0035598422 0.0070878877 0.02078335

conv1.9.running_mean f4 [32]
000000 d6 f4 0a 3f 0c 3a df 3e 04 0c aa 3e df 66 d3 3e
       0.5427984 0.43598974 0.33212292 0.41289422
000010 c0 7a ab 3e b0 91 c8 3e 11 22 a3 3e fb a7 fd 3e
       0.33492088 0.3917365 0.31861928 0.4954222
000020 a5 77 69 3e 8f 15 d9 3e fb f8 4b 3f d2 6a cb 3e
       0.22799547 0.4239926 0.7967679 0.39729935
000030 05 c2 1e 3f 8d 4e 09 3f 2c b5 19 3e 7d cb 9d 3e
       0.620148 0.53635484 0.15010518 0.30819312
000040 ae 09 da 3d 24 07 08 3f d2 5f a1 3e 93 ec 2f 3f
       0.106463775 0.53135896 0.31518418 0.6872036
000050 eb 7d b0 3e 40 c4 d1 3e bf 0c ab 3e 7a 45 1b 3e
       0.34471068 0.4097004 0.33408162 0.15163222
000060 b5 b6 9f 3e f6 ed 13 3f b4 f7 5a 3f 3a 66 8e 3e
       0.31194082 0.57784975 0.85534215 0.27812368
000070 90 64 f2 3d 1d fa d6 3e cc 12 05 3f 50 03 55 3e
       0.11835587 0.41987696 0.51981807 0.20802045

conv1.9.running_var f4 [32]
000000 8b c2 d5 3e 9e 19 ab 3e ad 9e c0 3e 29 7e fb 3e
       0.41749987 0.33417982 0.3762106 0.4911969
000010 39 90 b5 3e 7a 07 82 3e 11 9b af 3e 40 03 01 3f
       0.35461596 0.2539633 0.34297994 0.50395584
000020 e6 81 39 3e 1f 61 ef 3e 1b 22 6b 3f e2 5f be 3e
       0.18115959 0.46753785 0.91848916 0.37182528
000030 37 e1 0b 3f 0c 05 d7 3e ce a7 f7 3d cf f5 cf 3e
       0.54640526 0.41996038 0.12092553 0.40617225
000040 99 14 e5 3d f4 8d bd 3e 9d d5 82 3e 25 44 1f 3f
       0.11185569 0.37022364 0.255536 0.62213355
000050 d7 15 9d 3e 99 22 bb 3e f9 b4 15 3f 99 9d 6a 3e
       0.30680725 0.36549833 0.5847927 0.22911681
000060 36 ec e2 3e b2 8c 93 3e ab 4b 43 3f c6 f1 1a 3f
       0.4432084 0.2881828 0.76287335 0.60525167
000070 c5 cb ba 3d 3f bb 8b 3e 4b 5e 46 3f 1d 60 19 3e
       0.09120897 0.27291295 0.7748763 0.1497807

conv2.0.weight f4 [32, 32, 1, 2]
000000 96 57 ff 3d e8 e7 11 3d fd fc 99 3d a7 ed 11 be
       0.124678776 0.035621554 0.07518957 -0.14250813
000010 d3 d3 0f bc e1 d5 fc bd 5e 09 e2 bd 63 cc 9a 3d
       -0.00877853 -0.12345482 -0.11036943 0.07558515
000020 7d 01 ab bd 13 71 67 3d 08 72 75 bd 27 b1 be bd
       -0.08349893 0.05650432 -0.0599232 -0.09311133
000030 63 90 84 3d 3c 11 c0 bc ff 3e a1 bd 02 09 6e bd
       0.06472852 -0.023445718 -0.07873344 -0.05811406
000040 15 38 8f 3d 25 e4 de bd 42 ac 90 3d 27 2a 1a 3d
       0.06993119 -0.10883359 0.070641056 0.037637856
000050 13 a1 e7 3c 3f 92 89 3d 10 94 1c 3c 66 b5 4c bd
       0.028275048 0.06717347 0.009556785 -0.049977683
000060 e3 b3 e1 3d 7b 76 61 bd 45 1e b2 bc e3 8e 10 bd
       0.11020639 -0.055044632 -0.02174295 -0.035292517
000070 a7 e8 61 3d 1e a0 fd bb 0d 20 54 bd bd cc a6 bd
       0.055153515 -0.0077400347 -0.05178838 -0.081445195
000080 21 26 a3 3d c2 ee c8 bd 9f 61 e4 3d 99 75 87 3d
       0.07966257 -0.098111644 0.11151432 0.06614227
000090 1f 97 7d bc 45 67 a6 3d 04 66 d2 3d 01 df f6 3d
       -0.015477925 0.08125166 0.10273364 0.12054253
0000a0 a6 0d 9b 3d e7 c7 86 bd d6 10 7f 3b 02 2a a4 bd
       0.075709626 -0.06581097 0.0038919947 -0.08015825
0000b0 52 ec 92 3d 52 d8 d2 bd c2 a0 98 3d 76 a9 14 3d
       0.07173981 -0.10295166 0.07452537 0.036294423
0000c0 6c 8d 46 bd 57 86 9c bc 12 a8 e1 3b 71 54 57 bd
       -0.048474714 -0.019107027 0.0068864906 -0.052570764
0000d0 fd 2f c6 bd f6 39 64 bd f7 6d e0 3d d7 d5 9c bd
       -0.09677122 -0.05571934 0.10958474 -0.07657974
0000e0 c5 ce c6 3d 04 9c eb 3c 5d 49 ee bc 71 ac 74 3d
       0.09707407 0.028760917 -0.029087717 0.059734765
0000f0 2a a4 59 bd 8b 8f b2 3c f8 76 9f 3d 6f ef e8 3c
       -0.053135075 0.021796962 0.07786363 0.028434483
000100 8e 5d 97 3b 9b dd bb 3b a4 a7 ac bd 1c 4a 2e 3d
       0.004619307 0.0057332045 -0.084304124 0.042551145
000110 13 bf 98 bd cd a7 90 3d 6b 03 b9 bd f3 d0 0b 3d
       -0.074583195 0.070632555 -0.09033855 0.034134816
000120 e7 98 09 bd 08 3b b8 3d 63 d7 a3 3d f0 c0 1c be
       -0.033593085 0.08995634 0.08000066 -0.15307975
000130 ef bb 32 3d 37 ba 45 bc 21 f9 7a bc 17 65 9c 3d
       0.04363626 -0.012068323 -0.015318186 0.07636469
000140 95 a9 85 bc bd f0 3a bd e2 5d 9a 3d ba 90 a9 3d
       -0.016316215 -0.045639742 0.07537438 0.082795575
000150 a9 43 97 bd c4 5d 31 3d 00 d7 46 3d 3e ce da 3c
       -0.07385952 0.043302312 0.048544884 0.026709672
000160 59 82 1e 3d 37 d0 a3 3d 18 ed e9 bd 0d 90 5a bd
       0.038698528 0.07998698 -0.11422175 -0.053360034
000170 19 d7 b1 bb a9 37 07 3d 8e 66 6a 3c dd 4d b2 3c
       -0.005427253 0.033012066 0.0143066775 0.021765644
000180 6b a8 fc 39 8c e0 c1 3d 4e 21 d9 bd 2d a0 29 bc
       0.00048190667 0.09466657 -0.106020555 -0.01035313
000190 38 30 8f bd c4 d8 97 bd 19 32 d6 3d 6f 97 e7 3d
       -0.06991619 -0.07414392 0.10458774 0.113081805
0001a0 06 80 70 3d 3f c9 f4 3d aa b7 3e bd 75 dd 5b bd
       0.058715843 0.11952447 -0.046561874 -0.053677995
0001b0 b9 d3 54 bd 2b 2a 35 3d 3a 42 a6 bd 64 f4 7b 3d
       -0.051959727 0.044229668 -0.081181005 0.061512366
0001c0 0a a1 ce bd 66 6d 80 bd 96 8a da 3b a2 9d ff 3d
       -0.100893095 -0.06270866 0.0066693528 0.12481238
0001d0 d3 56 06 3e e8 d7 2b bd 78 e8 7b bd 6c 02 cf 3d
       0.13119058 -0.04195395 -0.061500996 0.10107884
0001e0 3c 6d 3f 3d 20 ae 10 3e 03 6b d9 bc 18 8f 75 3d
       0.046735033 0.14128923 -0.026540285 0.059950918
0001f0 14 c3 49 bd 74 66 ce bc f7 4c 75 bc ad f8 93 3d
       -0.049258307 -0.025195338 -0.014971963 0.072251655
000200 59 fb 19 bc a0 6f 5a 3d d5 09 f1 b8 a8 54 d9 bd
       -0.009398305 0.05332911 -0.00011493607 -0.1061185
000210 77 57 bb 3d c0 e9 c3 bd 7e 9b 88 bc 1f e3 88 3d
       0.09147542 -0.09566069 -0.016675707 0.06683945
000220 47 90 9e bd 81 b3 03 bb 4b e4 e6 bd 85 1c 30 3d
       -0.077423625 -0.0020096006 -0.11274012 0.04299595
000230 33 d7 b9 bd 82 8b b3 3d a1 cd f6 3c 8a 4a 74 3d
       -0.09074249 0.087668434 0.030127348 0.0596414
000240 2d a3 89 bd 53 50 97 bd b6 61 9c bd 87 25 8c 3d
       -0.067205764 -0.073883675 -0.076358244 0.06843095
000250 4b 92 af bd c6 c2 d2 bd 9c fd 47 bc 50 5e 57 bd
       -0.08572825 -0.10291056 -0.012206461 -0.052580178
000260 54 7d 16 be 02 ff c8 3d 26 bb 02 bd 50 7e bb bc
       -0.14696246 0.09814264 -0.03191676 -0.022887379
000270 67 d8 c3 3d 86 6e 49 3d b1 37 97 3d c9 88 35 3c
       0.0956276 0.04917767 0.07383669 0.011079975
000280 ef b7 f5 3d c6 34 0e 3d d3 3f e0 3c aa 3e 60 3d
       0.11997973 0.034718297 0.027374184 0.05474726
000290 31 fd f3 3d 5e 28 47 bd 08 7a d8 3d 2b b5 47 3c
       0.11913527 -0.04862248 0.105701506 0.01218919
0002a0 4e 3a ee 3d dc 45 17 3d 49 26 42 bc 94 bd 0a 3d
       0.116322145 0.036931857 -0.011849948 0.033872202
0002b0 77 28 7c bd 82 de fb bb 76 67 c2 3d c9 89 19 3d
       -0.061562028 -0.007686437 0.0949239 0.037484918
0002c0 54 26 0d bd ff 15 18 bd 41 b4 ea bd a0 da 18 bd
       -0.03446038 -0.037130352 -0.11460162 -0.037317872
0002d0 a0 8e aa 3d 08 a5 6c 3c 21 d7 d5 bc 97 48 74 3d
       0.08327985 0.014443643 -0.026103558 0.05963954
0002e0 9e 73 25 3e 94 e8 53 bc 96 8c 9c bd fd 00 fe 3c
       0.16157386 -0.012933869 -0.07644002 0.03100633
0002f0 49 ed 8c bc 78 a8 b4 3d 61 b6 d0 3d ed 19 89 3d
       -0.01720299 0.08821195 0.10191036 0.06694398
000300 46 13 87 bd 4b 1d cc 3d 90 4c c4 bd 00 c2 ef 3d
       -0.06595473 0.09966525 -0.09584916 0.117069244
000310 37 dc c8 bd 46 84 be 3d de 61 ba 3c 99 e4 df 3a
       -0.09807628 0.09302573 0.022751745 0.0017081677
000320 e7 b9 cc bb f4 ee 2e 3b 9f 5a 47 3c aa a5 16 bc
       -0.006247747 0.002669272 0.012167602 -0.009194771
000330 09 f4 e8 3c ec 41 64 bd c2 3a d9 3d f6 2f f6 bd
       0.028436678 -0.05572693 0.1060691 -0.120208666
000340 9a ac 89 bd 50 ad f6 bd fd ba bd 3c fc 73 b7 3d
       -0.06722374 -0.120447755 0.023160452 0.08957669
000350 67 bc 99 3d 74 7e 09 bd b2 cf ba bc 9e 9a 84 3d
       0.07506638 -0.03356786 -0.022804115 0.064748034
000360 cf 54 26 bd a9 2a 42 bd cb 79 a6 3d c5 74 b4 bd
       -0.040608224 -0.047403965 0.08128699 -0.088113345
000370 94 75 62 3d 6a ed 23 bd 04 27 b8 bc 3e 3f 8b 3d
       0.055287912 -0.040021338 -0.022479542 0.06799172
000380 f2 21 5b 3d a1 0f 05 bd ea f6 91 3d dc 05 05 3d
       0.05349917 -0.032485608 0.07127173 0.03247629
000390 9f 3a a1 3c cb e9 2c bd 41 06 99 bd 2b 0a 63 3d
       0.019681273 -0.04221515 -0.07471896 0.05542962
0003a0 1e 85 3b 3d 91 1b 99 bb 92 1f bf 3a db 0b 8e bc
       0.045781247 -0.0046724756 0.0014581552 -0.017339638
0003b0 1a f9 0f 3d 5f ec c2 3d 77 0c 0f 3c ba f3 ed bd
       0.03514967 0.095177405 0.008730999 -0.11618753
0003c0 24 fd 9f bc 58 5b 3a 3d 9c f6 4a 3b 64 bf 1b 3d
       -0.019529887 0.04549727 0.0030969745 0.03802432
0003d0 9e 35 9d bd 6a ab 02 be ca 4d 2a bb 70 08 a4 3d
       -0.07676242 -0.12760702 -0.0025986307 0.08009422
0003e0 c3 a5 f1 bc 15 6c 53 3e 3d ee 9f bd 15 65 a8 3d
       -0.029497987 0.20646699 -0.07809112 0.08222405
0003f0 72 8b 87 3d 4b 97 a3 3d 9f 78 98 bc cc 4e 1e bb
       0.06618394 0.07987841 -0.018612204 -0.0024155853

conv2.0.bias f4 [32]
000000 23 17 e7 bd af 37 d6 3d 51 1f 34 3d ec a1 31 3d
       -0.1128371 0.104598396 0.04397518 0.04336731
000010 31 97 b7 bd db ba 42 bd 79 54 7e bd f7 3d 90 bd
       -0.08964384 -0.04754148 -0.06209228 -0.07043069
000020 99 b6 bf bd 09 61 1a bd f1 6e 92 3d 03 14 e0 bd
       -0.093609996 -0.037690196 0.07150067 -0.10941317
000030 e4 26 48 bd f6 ce d1 bd 31 5e 9c bd 0c 99 13 3e
       -0.048865214 -0.10244553 -0.07635153 0.14413851
000040 79 7c 24 39 e6 74 a8 bc 26 81 3a 3c a2 84 68 bd
       0.00015686628 -0.020563554 0.01138333 -0.056767114
000050 39 13 94 bd 9f 4f 85 3d 45 7c 74 3d 41 3c 45 3c
       -0.07230229 0.06509327 0.059688825 0.012038291
000060 62 b6 9c bc 6c f5 03 bd f9 7d 00 3d 01 a2 f8 bd
       -0.019129936 -0.032216474 0.031370137 -0.12140275
000070 69 aa bd bc e9 91 d2 3d c1 e8 e6 3d a8 c2 1c 3e
       -0.023152547 0.102817364 0.11274863 0.1530863

conv2.2.weight f4 [32]
000000 48 cd 80 3f c3 85 7a 3f b1 5f 82 3f e7 03 82 3f
       1.0062647 0.97860354 1.0185453 1.0157441
000010 ea 83 7b 3f d1 25 80 3f a5 5b 79 3f f9 98 7a 3f
       0.9824816 1.0011541 0.97405463 0.9788967
000020 c1 bd 83 3f b3 a7 78 3f 1d e1 7e 3f 90 81 76 3f
       1.0292283 0.9713089 0.99562246 0.96291447
000030 71 40 86 3f ef 27 80 3f c7 14 81 3f ef c3 7f 3f
       1.0488416 1.0012187 1.0084466 0.99908346
000040 21 03 7b 3f 7d 15 80 3f 95 35 81 3f fb cb 7a 3f
       0.9805165 1.0006558 1.0094477 0.979675
000050 5f 1b 7e 3f 32 91 75 3f 8d f4 83 3f b7 ae 83 3f
       0.99260515 0.95924675 1.0309006 1.0287694
000060 99 b9 80 3f 27 c8 82 3f c0 3b 82 3f fa 65 72 3f
       1.005664 1.0217332 1.0174484 0.94686854
000070 68 c7 82 3f 8e 51 7a 3f 2f 13 83 3f b4 66 7f 3f
       1.0217104 0.9778069 1.0240229 0.9976609

conv2.2.bias f4 [32]
000000 ca 8a 23 bd 50 f0 9a b8 69 7a 16 bd 10 3e ec 3b
       -0.03992728 -7.388054e-05 -0.036737833 0.007209547
000010 fa fb 94 3c 0d aa a5 3c 68 15 a6 3c 9f 6c 96 bc
       0.018186558 0.020222688 0.02027388 -0.018362341
000020 41 30 8e bc ad 19 e1 3b 14 7d 03 bd e4 38 0c 3c
       -0.017356994 0.006869516 -0.032101706 0.008558486
000030 3c 11 8d bb 42 00 18 bc 69 72 0c 3d ef 84 00 3d
       -0.004305033 -0.009277405 0.034288798 0.031376775
000040 c7 4f ee bc 0d a4 3c 3c 9f 8d c5 3a 4d 1e 00 bd
       -0.029090775 0.011513722 0.0015072114 -0.031278897
000050 9d 88 22 3d e4 e3 8f 3b fe 0a b8 bb ca c2 37 bc
       0.039681066 0.0043911804 -0.0056165447 -0.011215875
000060 f9 6d 14 3c d5 71 a8 bc e3 af a6 3c 5f 0d 74 3c
       0.009059423 -0.020562092 0.020347541 0.014895766
000070 5d 7a 24 bd d0 cc c7 3c 32 92 9f 3a 67 9e 39 3d
       -0.040155757 0.024389654 0.0012174307 0.04531708

conv2.2.running_mean f4 [32]
000000 91 2b f9 3e 1e 0f 89 3e e0 eb 82 3e fd 95 5e 3e
       0.4866605 0.26769346 0.25570583 0.21736903
000010 7b da 8a 3e 07 aa 99 3e a6 e8 9f 3e ba ac 4e 3e
       0.27119812 0.30012533 0.31232184 0.20183077
000020 09 fb a6 3e 4b 0c a0 3e f4 d2 83 3e 68 4d a1 3e
       0.326134 0.3125938 0.25746882 0.3150437
000030 fc 25 5e 3e 24 3e 94 3e 38 89 2c 3e 39 ca fd 3e
       0.21694177 0.2895366 0.1684922 0.49568346
000040 d5 12 77 3e 75 a9 aa 3e 65 1c ab 3e a2 5b 62 3e
       0.24128278 0.3333241 0.334201 0.22105268
000050 63 6c 9d 3e 06 2c 97 3e 35 0f 50 3e 54 49 7c 3e
       0.30746755 0.29525775 0.20318301 0.24637347
000060 f5 19 8b 3e 71 4d 9b 3e 20 d6 98 3e 99 77 8f 3e
       0.2716824 0.3033252 0.29850864 0.28020933
000070 af 75 84 3e 7b 24 73 3e 29 21 65 3e c7 57 d0 3e
       0.25871035 0.23744385 0.22375931 0.4069197

conv2.2.running_var f4 [32]
000000 dc 31 d4 3e 3c 6a 0e 3e cd 6d 7b 3e 5b f7 41 3e
       0.4144429 0.13907713 0.24553604 0.18942015
000010 2d 3f 41 3e 22 cb aa 3e d1 09 61 3e 19 fe 4e 3e
       0.18871756 0.33358103 0.21976401 0.20214118
000020 71 9d 35 3e 82 70 4c 3e a3 f3 0a 3e a3 cb b5 3e
       0.1773584 0.19964793 0.13569503 0.35506925
000030 42 6f 7b 3e 0e 64 38 3e 93 47 49 3e 7e 9f a7 3e
       0.2455416 0.18006918 0.1965621 0.3273887
000040 a6 47 99 3e ee 9a 7b 3e ee e5 6d 3e 43 49 02 3e
       0.29937476 0.2457082 0.23232242 0.1272326
000050 08 e9 9f 3e 70 fe 35 3e 9d bd 4a 3e b9 01 aa 3e
       0.31232476 0.17772841 0.19798894 0.3320444
000060 cf 80 61 3e 94 3f 60 3e d1 5a 42 3e 39 e6 16 3e
       0.22021793 0.21899253 0.18979956 0.1473626
000070 95 80 01 3e e1 1b 88 3e a5 bd 36 3e 82 20 91 3e
       0.12646706 0.2658377 0.17845781 0.28345114

conv2.3.weight f4 [32, 32, 4, 1]
000000 ff da e5 bc aa e9 a4 3d ad 23 99 3d 5c 9d ca 3d
       -0.028058527 0.080523804 0.07477508 0.09893295
000010 5c 77 3b 3d 7b fd 83 bc 73 b7 01 3d 9b 75 61 3c
       0.045768127 -0.01611208 0.03166909 0.0137609495
000020 91 ac 24 3d 91 55 80 3d 7b c6 03 bd 9c 8d 5d 3d
       0.040203635 0.062663205 -0.032171708 0.054090127
000030 8c 67 12 bc 7e 1b a7 bd 31 79 06 3d b3 84 5c bc
       -0.00893582 -0.081595406 0.03283042 -0.013459372
000040 31 9d 00 bd e6 08 f0 ba 30 9e 00 bd c7 6c 2e bd
       -0.03139991 -0.0018313199 -0.03140086 -0.042584207
000050 7b eb d4 3c c3 bf b2 bd a0 bc 91 bd 37 ae a4 bd
       0.025991192 -0.08727982 -0.071160555 -0.08041041
000060 69 77 98 bd 73 4d b2 bd 80 c2 a3 bc f0 72 ea bb
       -0.07444651 -0.087061785 -0.019990206 -0.007154815
000070 ab 1c d4 bb 57 29 72 3c 65 93 a0 bd a7 11 62 3d
       -0.006473144 0.014780364 -0.07840613 0.055192616
000080 ce 4d 04 3d 73 2e 18 bd 2b 50 b1 3c ca 33 d8 bd
       0.032300763 -0.037153672 0.021644672 -0.10556753
000090 6e e2 43 bc a0 81 0e 3d 0d 8f 05 3d 09 d7 69 ba
       -0.0119558405 0.03479159 0.032607127 -0.00089202874
0000a0 4f ef 91 3d d3 71 9d bd 10 c5 96 3d 45 ff 2b 3c
       0.071257226 -0.07687726 0.073618054 0.010497873
0000b0 f3 8a 98 bd 56 fc 43 bc b0 b2 18 3c 4c 14 fc 3c
       -0.074483775 -0.011962017 0.009319946 0.030771397
0000c0 f0 b4 06 3d 87 9f 08 bd 06 8b 08 3d 98 75 0b bd
       0.0328874 -0.033355262 0.033335708 -0.034047693
0000d0 c2 57 ac bc a8 ed 89 3d af bc 21 3d aa 1a 08 3d
       -0.02103794 0.067347825 0.039486583 0.033228554
0000e0 90 59 cb bc f6 4e b7 3c 5d d1 82 bc 63 55 97 bc
       -0.02482298 0.022376519 -0.015968973 -0.018473333
0000f0 8b f2 77 bc ea ae 94 3c 29 63 c4 3d b9 d0 b9 3d
       -0.01513351 0.018149812 0.09589226 0.09073014
000100 13 b8 6f bd b5 a3 8c bd e9 09 eb 3c 0f 17 99 3c
       -0.058525156 -0.06867162 0.028691249 0.018687753
000110 ed c7 d4 3c 5d ee 0f bd 2e 39 a8 bd 02 48 9a bd
       0.025974238 -0.03513943 -0.08214031 -0.07533266
000120 5c 58 3f bd 41 b2 2e 3d 2f 4e 6d 3d c7 df 82 3d
       -0.046715125 0.042650465 0.05793589 0.063903384
000130 cb b2 08 bd 4a 3e 86 3d df 24 65 3d 70 11 47 3d
       -0.033373635 0.065548494 0.055943366 0.048600614
000140 99 53 65 3d f7 03 4e 3c 64 51 25 bd e5 af d9 3c
       0.055987928 0.0125741875 -0.040360823 0.02657313
000150 3f 87 c2 3d 09 a1 7e ba 8d d2 1e 3d ab 2e 4c 3c
       0.094984524 -0.0009713327 0.038775016 0.012462298
000160 6c 7a 43 bd a1 f7 b2 3d d2 80 05 3d 38 18 65 bd
       -0.047724172 0.08738638 0.032593556 -0.0559313
000170 87 f9 32 3d b3 6d 9f 3d b1 c8 60 3c 08 08 b0 3d
       0.043695 0.07784595 0.013719724 0.08595282
000180 7e 57 47 bd 6f 9b e0 3b 87 34 18 bd 12 20 da bb
       -0.048667423 0.0068544666 -0.03715947 -0.006656655
000190 a2 69 03 bd 22 31 39 3d 42 dd 05 3d ae ef 25 3d
       -0.03208316 0.045212872 0.03268171 0.04051178
0001a0 b0 f0 cb 3d 62 5d 10 3d ce 26 74 3d 1f a2 69 3c
       0.09958017 0.035245307 0.05960732 0.014259844
0001b0 85 ad 9c 3c 3d d7 d1 bc a8 0d 97 3d c8 e5 dd ba
       0.01912571 -0.025615329 0.073756516 -0.0016929442
0001c0 93 92 ee 3c ad ea e3 bc b1 03 79 3d b7 3e a8 3d
       0.029122626 -0.027821863 0.060794536 0.08215087
0001d0 09 7f aa 3d 0f 8c 3c 3d 71 f8 46 3d 71 3a 22 3c
       0.08325011 0.046032008 0.048576776 0.009901629
0001e0 92 6a 5d 3c c4 6c 8f bd 46 32 a1 3c 99 10 99 bd
       0.013514178 -0.07003167 0.019677293 -0.07473869
0001f0 60 12 7b bd ce da 84 3c 29 4d 96 3c 4a e7 21 bc
       -0.06129682 0.016217615 0.01834734 -0.009881804
000200 6b 0d c4 3c e0 9e ea 3c 7e d6 01 3d 41 9d 87 3c
       0.02393218 0.02864021 0.031698696 0.016554477
000210 db a5 91 3b 0f 01 8d 3c 77 43 34 bd 88 28 26 bd
       0.0044448203 0.017212419 -0.044009652 -0.040565997
000220 45 2b 6e bd ab 3b d6 bc 3d cb ec b9 29 6c d6 3d
       -0.058146734 -0.026151499 -0.00045164852 0.10469849
000230 25 a8 89 bd 23 b8 9e 3c f1 ce 75 bc fa 4c b3 bd
       -0.06721524 0.019374913 -0.015002952 -0.087549165
000240 c6 62 8f 3d dc 5d 00 3d 06 dd af 3d 42 37 af bd
       0.070012614 0.03133951 0.08587079 -0.085554615
000250 3f f4 68 bd 73 0c e6 bc 29 a8 98 3c ab f9 df 3d
       -0.056873556 -0.028082108 0.018634873 0.10936292
000260 0e 80 79 3c 56 ba 55 bc cf 9a b8 bc a3 83 03 bd
       0.0152282845 -0.013044914 -0.022534756 -0.03210796
000270 60 df bb bb a7 0c 8b 3d 71 7f 8b 3c cb 95 86 bc
       -0.0057334155 0.067895226 0.017028542 -0.016428849
000280 ac 78 84 3b fa 2d 57 3d 86 55 93 bd bf 7a bb bd
       0.0040427055 0.05253408 -0.07194047 -0.09154271
000290 6c 4f ca 3c 87 eb a8 bd 0b 0e 51 bc f2 db c8 3d
       0.024696074 -0.08248048 -0.012759696 0.09807576
0002a0 a9 0f 0a 3d e3 56 28 3d 03 34 24 bd 8d 9d 4e bd
       0.03370634 0.041098487 -0.040088665 -0.05044322
0002b0 c8 6b 10 bd f6 5a 4d 3c 81 2e b8 bc d6 2a 05 3d
       -0.03525904 0.012533894 -0.022483112 0.032511555
0002c0 5e 84 92 3c 18 04 7f bd c7 50 f7 3c 27 1f 49 bd
       0.017885383 -0.062259763 0.030189885 -0.049101975
0002d0 3b 80 47 3d 4d 2d 7a bd a9 d2 68 bc 98 19 4e 3d
       0.048706274 -0.06107836 -0.014210382 0.050317377
0002e0 3b 9d 78 3c b3 2d c8 3d cc f3 a8 bc 5d 1b 9a bc
       0.015174205 0.097743414 -0.020624064 -0.018811876
0002f0 44 66 72 3d eb 37 5a 3c aa e9 71 3d 42 1b 1e 3d
       0.05917956 0.013318996 0.05906073 0.038600214
000300 de f9 41 bd 36 08 a5 bc 54 70 a5 bc 17 c2 c0 3c
       -0.047357433 -0.020145517 -0.020195164 0.02353005
000310 42 d6 4e 3d cc 93 10 ba b4 f5 8e bb 99 a4 9b 3d
       0.0504973 -0.00055151875 -0.004362786 0.07599754
000320 0f 0b 1f bd 8f 64 8b bd f7 48 61 bd 42 35 66 3d
       -0.038828906 -0.068062894 -0.055001225 0.056203134
000330 a7 24 9c 3d a5 11 df bc 46 19 36 bc 9d a0 c7 3d
       0.076241784 -0.027230093 -0.011114424 0.097474314
000340 6d ec 0b bc ea 7c 8e bd 3a cf 27 bd 0e 7f 7f bb
       -0.008540255 -0.06957419 -0.04096911 -0.0038985643
000350 be a4 85 bd 07 52 18 3d 29 9e 44 bd 8c d4 87 3d
       -0.06525563 0.037187602 -0.048002396 0.06632337
000360 be 1d 03 3d 17 e6 9a 39 bd 6f de 3c c6 a6 97 bd
       0.032010786 0.000295446 0.02715289 -0.074048564
000370 48 ea b7 bd 1e a5 20 3c 60 71 bb 3d f0 71 6a 3d
       -0.089802325 0.009804992 0.09152484 0.057237566
000380 d9 5e 0f 3d 84 22 cc bd b9 4b c6 bc 9a 59 80 bb
       0.035002563 -0.09967521 -0.02420603 -0.0039169313
000390 28 b4 a2 bd ec 15 b7 3d ad 8c b7 3c 92 70 c1 3d
       -0.07944518 0.08939728 0.022405947 0.09445299
0003a0 d7 eb bb 3c e0 20 70 bd e6 eb c9 3d 67 4c 99 3d
       0.022939606 -0.058625102 0.09859447 0.07485276
0003b0 ee 67 6b bd 78 a7 b3 3c 55 b1 1f 3b 8b 2f 3e 3d
       -0.057472162 0.021930441 0.0024367173 0.04643206
0003c0 f8 79 aa bd 26 8a d0 3c ca f5 26 3d 05 37 8e bc
       -0.08324045 0.0254565 0.040761746 -0.01736022
0003d0 76 09 44 3d d8 af 4a bd 2f bf 0f 3d e7 60 5c 3d
       0.047860585 -0.049484104 0.035094436 0.05380335
0003e0 ad 16 e0 bc 88 f5 72 3d 48 90 7d bd 42 3e ae bd
       -0.027354563 0.059316188 -0.061905175 -0.085079685
0003f0 92 94 d2 bc 7d 9e 94 bd ad 1a 7a bd 47 31 28 bc
       -0.02570561 -0.07256792 -0.061060596 -0.010265655

conv2.3.bias f4 [32]
000000 47 e1 2d 3d 58 34 31 bd 1b af 8e 3d d9 ad 71 3d
       0.04245117 -0.04326281 0.069669925 0.059003685
000010 bf e6 ad 3c 47 29 11 bc 11 20 1a bd 9f ed 87 3d
       0.021228192 -0.008859939 -0.037628237 0.066371195
000020 fb b2 a1 bd d5 e2 1f 3d 3a e5 d9 ba 8c 2b e4 3d
       -0.07895466 0.039034683 -0.0016624101 0.111411184
000030 e5 b7 cc 3d 8b 19 fd 3c 05 1c 93 bd 63 16 05 bc
       0.099960126 0.030895969 -0.07183079 -0.008123013
000040 30 5f b8 3d 3e 1e 8c 3d df ff 1a bd ad 12 2a 3d
       0.090025306 0.06841706 -0.037841674 0.041521717
000050 e8 24 78 bd c0 5b 3a 3d e4 48 94 3d 64 88 ba bc
       -0.06058207 0.045497656 0.07240465 -0.022770114
000060 ad 28 47 bd 67 b2 39 bd 0f 8c ad bd 9a 0b 8a 3d
       -0.048622776 -0.045336153 -0.0847398 0.06740494
000070 01 1e 1d 3d 58 b4 33 3d 60 58 3b bd 48 cb 41 3d
       0.038358692 0.04387316 -0.045738578 0.047313005

conv2.5.weight f4 [32]
000000 d7 08 79 3f fd 3f 82 3f 38 d7 7e 3f 3a 2d 75 3f
       0.97279114 1.0175778 0.9954715 0.95772135
000010 79 4c 81 3f 54 75 80 3f b0 0c 7d 3f 58 7d 82 3f
       1.0101463 1.0035806 0.98847485 1.0194502
000020 55 01 7f 3f cd b0 78 3f 5b 5b 7e 3f 1b cc 79 3f
       0.9961141 0.97144777 0.9935815 0.97577065
000030 8b 26 81 3f f5 74 7c 3f ef 57 7e 3f 10 94 7f 3f
       1.0089887 0.9861596 0.99352926 0.998353
000040 92 f7 7d 3f b5 fb 81 3f e7 95 7d 3f a6 12 85 3f
       0.9920589 1.015494 0.9905686 1.0396316
000050 53 98 75 3f ad 7b 82 3f 8e ed 82 3f 99 09 7d 3f
       0.95935553 1.0193993 1.0228746 0.9884277
000060 6a e6 80 3f e9 3a 82 3f 39 fd 77 3f 0c fe 76 3f
       1.0070317 1.0174228 0.9687076 0.96481395
000070 33 b2 7a 3f 53 15 7f 3f ed aa 80 3f 9a 79 87 3f
       0.9792816 0.99641913 1.0052162 1.0583985

conv2.5.bias f4 [32]
000000 f3 da 42 3b dc 83 9f 3c bb 98 e2 3c 39 e5 17 bc
       0.0029732555 0.019472055 0.027660718 -0.0092709595
000010 d9 ff 90 bd da 44 ba 3b ca 3e 7c bd 1f 73 1e bc
       -0.07080049 0.0056844773 -0.061583318 -0.009671002
000020 b5 cf c6 bc 26 56 c4 3c a0 16 0b 3d 50 ce 91 bc
       -0.024268964 0.02396686 0.033957124 -0.017798573
000030 59 37 22 3d 9c df 9b 39 04 fc f8 bc 1a 96 0f bb
       0.039603565 0.00029730506 -0.030393608 -0.0021909536
000040 7a 6e bc 3b 5e c3 50 bd fe f4 33 3d 8d da 2d 3d
       0.0057504745 -0.050967567 0.043934815 0.042444754
000050 0a 5d 5f bd 8d 0a 7e bb 01 4f 4a bd 58 38 2c 3d
       -0.05453209 -0.0038763613 -0.04939175 0.04204592
000060 9c b4 b3 bb af c4 f9 bc ca 36 11 bd f3 f7 12 bc
       -0.005484177 -0.030489294 -0.03545264 -0.0089702485
000070 5d 9d 10 bd 61 cb 4a bc 9f 00 11 3d a2 e9 35 3c
       -0.035306323 -0.012377591 0.035400983 0.011103066
