trained_models/Archive/CNN/CNN_Zscore_CF3_pred_0.pth (torch, 37564 bytes, 10 tensors)

conv2d.weight f4 [16, 1, 4, 40]
0	0x3d203176	0.03910967
1	0x3ad898fa	0.0016525083
2	0xbd9f4118	-0.077760875
3	0x3c27b3c6	0.010235732
4	0x3bc3d3c3	0.0059761717
5	0x3bee1cdd	0.0072666244
6	0xbdc0447b	-0.093880616
7	0x3dbeb529	0.09311897
8	0x3d03eb4f	0.03220683
9	0x3d99c259	0.07507772
10	0x3b543ee9	0.003238613
11	0xbd3f80e0	-0.046753764
12	0x3d0b420b	0.03399853
13	0xbd3cb2b9	-0.04606888
14	0x3d247d2e	0.040158443
15	0x3d5515dc	0.0520228
16	0xbdc2dcb0	-0.09514749
17	0x3d5181fd	0.051149357
18	0xbce6b956	-0.028164547
19	0x3da756a3	0.081708215
20	0xbd8011c9	-0.06253392
21	0x3a3ef2d7	0.0007284111
22	0xbdb745d3	-0.08948865
23	0x3daf6cce	0.08565675
24	0xba8406cf	-0.001007283
25	0x3d939453	0.07206025
26	0x3d66dfc6	0.05636575
27	0x3cb78f18	0.0224071
28	0xbdbef227	-0.09323531
29	0x3d73ac96	0.059490763
30	0xbd2fb969	-0.04290143
31	0xbd80a063	-0.06280591
32	0xbd9865a0	-0.074412584
33	0xbc88bfe8	-0.01669307
34	0xbbedd09b	-0.0072575337
35	0xbbd282ac	-0.0064242687
36	0x3d29ac78	0.041424245
37	0xbd475de8	-0.04867354
38	0xbcf7c034	-0.030243017
39	0xbce931f0	-0.028466195
40	0x3d5c4f1e	0.05378639
41	0xbcf1a924	-0.029499598
42	0x3c6dc748	0.014512844
43	0x3d3960f9	0.045258496
44	0x3c803a34	0.015652753
45	0xbd28b4a8	-0.041187912
46	0x3c9d931f	0.019235192
47	0xbd499377	-0.0492129
48	0x3c1ae28a	0.009453425
49	0x3d992349	0.07477433
50	0xbda0c3ac	-0.078498214
51	0xbcfc0570	-0.030764312
52	0x3cf689f5	0.03009508
53	0x3c882574	0.016619422
54	0xbc9a4449	-0.018831389
55	0x3b3df48b	0.002898487
56	0xbdc34b8c	-0.09535894
57	0xbcfed90c	-0.031109355
58	0xbdb66684	-0.08906272
59	0x3d92f767	0.071760945
60	0x3d2cf125	0.04222216
61	0x3c81fd22	0.015867773
62	0xbd309c6f	-0.043117937
63	0x3c5feb59	0.013666951
64	0xbd9a474a	-0.075331286
65	0x3d987039	0.0744328
66	0xbd5b5edb	-0.053557258
67	0x3d90360e	0.0704156
68	0xbd2df7a8	-0.04247251
69	0x3c6b70d1	0.014370159
70	0xbdc35478	-0.095375955
71	0x3d1ba68c	0.03800063
72	0xbdb42200	-0.087955475
73	0xbc7b6b51	-0.01534541
74	0xbd8f47eb	-0.06996139
75	0x3bcdb2ac	0.006277403
76	0xbdbe9f74	-0.09307757
77	0x3c1d4e5c	0.009601202
78	0x3ceaa81f	0.02864462
79	0x3bdf7378	0.006819185
80	0xbd5d9d7d	-0.05410527
81	0x3c5ebf93	0.01359548
82	0xbb0c4344	-0.0021402398
83	0x3c87f77c	0.016597502
84	0xbd23efa4	-0.04002346
85	0x3d81d8ee	0.06340204
86	0xbcfea575	-0.031084755
87	0x3d8ae4c2	0.06781913
88	0xbd0eeec9	-0.034895692
89	0x3d750f2a	0.059828915
90	0xbd8f96fc	-0.0701122
91	0x3d7d9c4b	0.06191663
92	0xbd7bd315	-0.0614806
93	0xbd58b5e6	-0.052907847
94	0xbd8ec498	-0.06971091
95	0xbcb748a6	-0.022373509
96	0x3a5ae30c	0.00083498727
97	0xbd1edb60	-0.03878343
98	0x3ca78960	0.020451248
99	0xbd4531f1	-0.04814333
100	0x3d5b5d15	0.053555567
101	0x3d6eeb0b	0.058329623
102	0xbc96a3a1	-0.018388571
103	0x3d5f85bb	0.054570895
104	0xbcf96a3f	-0.03044617
105	0x3be96f62	0.0071238736
106	0xbd1ad34c	-0.037799165
107	0x3da1bd21	0.078974016
108	0xbc1aaccc	-0.009440612
109	0x3d20bead	0.039244343
110	0xbdaac2e3	-0.08337953
111	0xbce4d1b3	-0.027932024
112	0x3d236f3a	0.039900996
113	0xbcee3ce8	-0.029081777
114	0xbd991080	-0.0747385
115	0x3d8495c1	0.06473876
116	0x3b967361	0.004591391
117	0x3da7b7ca	0.08189352
118	0x3ce01919	0.027355717
119	0xbd80d3f0	-0.06290424
120	0xbd2b4c5c	-0.04182087
121	0xbd0886e8	-0.03333178
122	0xbd54fbdb	-0.051998
123	0x3d36e640	0.044653177
124	0xbb85496d	-0.004067591
125	0xbcf69092	-0.030098233
126	0xbd2c61b9	-0.042085383
127	0xbc31e9df	-0.010858982
128	0xbdb08bae	-0.08620392
129	0x3cfa5acd	0.030560875
130	0xbd19f61d	-0.037588228
131	0xbd8122ee	-0.063054904
132	0xbd40ee03	-0.047101986
133	0x3c81c0c9	0.015838997
134	0xbd30806d	-0.043091226
135	0xbbd23fa8	-0.00641628
136	0x3ce5c862	0.028049652
137	0x3d3b1719	0.045676325
138	0xbdacf311	-0.08444799
139	0xbd18e93d	-0.03733181
140	0xbd91a0b9	-0.071107335
141	0x3ce3f3a0	0.02782613
142	0x3c34d542	0.011037173
143	0x3d38aedf	0.045088645
144	0xbd9aab60	-0.075522184
145	0xbd7a4a5c	-0.06110607
146	0x3b25de91	0.0025309662
147	0xbd15d5a1	-0.036580686
148	0x3c8aa6c2	0.01692522
149	0xbaddd8ae	-0.0016925537
150	0xbd72aa48	-0.059244424
151	0xbd641ddd	-0.055692542
152	0xbc657e60	-0.014007181
153	0x3d006fab	0.031356495
154	0x3c358198	0.011078261
155	0xbcccfa51	-0.025021704
156	0xbd0ebbe9	-0.034847174
157	0xbd554654	-0.052069023
158	0xbc1a05c4	-0.009400789
159	0x3d0cddce	0.034391217
160	0x3d5d6b43	0.05405737
161	0x3cb40781	0.021976234
162	0xbd6bf899	-0.057610128
163	0x3c8672b9	0.016412126
164	0xbd4c71ce	-0.04991322
165	0x3ca0d4b3	0.019632673
166	0xbb7e6195	-0.0038815488
167	0xbd2e36a1	-0.042532567
168	0x3d5d6eed	0.054060865
169	0x3afc3804	0.0019242768
170	0x3b4832dd	0.0030547895
171	0xbc124770	-0.008928165
172	0xbb7671ae	-0.003760438
173	0x3db39118	0.08767909
174	0xbd8ab32a	-0.06772454
175	0xbd25df33	-0.040496062
176	0x3ccce49d	0.025011355
177	0xbb171228	-0.0023051593
178	0xbd00ab47	-0.031413343
179	0x3d538b65	0.05164661
180	0x3d264b2f	0.040599044
181	0x3dadad44	0.084803134
182	0x3d3f0a12	0.046640463
183	0xbd30bdaf	-0.043149646
184	0xbdc37700	-0.09544182
185	0xba5407bb	-0.000808831
186	0xbd9143fc	-0.07093045
187	0x3a820835	0.0009920659
188	0xbdbf1411	-0.09329999
189	0xbd269d81	-0.04067755
190	0xbcad571f	-0.021159707
191	0xbd1c62e0	-0.038180232
192	0xbc17a90d	-0.009256613
193	0x3d9e9cd8	0.07744759
194	0xbd8e1960	-0.06938434
195	0xbd5fb59e	-0.054616563
196	0x3bf0d71b	0.0073498613
197	0x3bfe40c7	0.007759187
198	0xbd04a9d3	-0.03238852
199	0x3dbe12a7	0.092809014
200	0xbd912c68	-0.07088548
201	0x3d0ca1f3	0.034334134
202	0xbd72a24e	-0.059236817
203	0x3d3b42e0	0.045718074
204	0xbd33a621	-0.043859605
205	0x3d82f253	0.06393876
206	0xbd3d0b0b	-0.04615311
207	0xbd3dcc09	-0.04633716
208	0xbd7d6384	-0.061862484
209	0xbd0cc16d	-0.034364153
210	0xbd620f4d	-0.055190373
211	0x3db90d8a	0.090357855
212	0x3cafde70	0.021468371
213	0xbca24ea1	-0.019812884
214	0x3b1b1dab	0.0023668807
215	0x3da26ae3	0.07930543
216	0xbd36a288	-0.044588596
217	0x3dbb37f2	0.0914153
218	0xbd93d6fe	-0.07218741
219	0x3cb1a6c4	0.021685965
220	0xbd04533f	-0.032305952
221	0xbd4f8361	-0.050662402
222	0xbc196c08	-0.009364136
223	0x3d8c0a85	0.06837944
224	0xbba0b0b9	-0.0049038795
225	0x3c96d5bc	0.018412463
226	0xbd631e66	-0.055448912
227	0x3d76ed8c	0.060285136
228	0x3d4abfe4	0.049499407
229	0xbcc74990	-0.02432707
230	0x3d68d053	0.0568393
231	0xbd011875	-0.031517465
232	0xbc8c7e5d	-0.017150098
233	0x3d68d3c7	0.05684259
234	0xbd0f0b60	-0.034922957
235	0x3dabd6cf	0.08390581
236	0x3cc7602d	0.024337852
237	0x3d2fef5f	0.04295289
238	0x3d61ce6a	0.055128492
239	0xbc8c6a43	-0.017140513
240	0xbd1f32e4	-0.038866892
241	0xbcc03aa4	-0.023465462
242	0xbdb85864	-0.09001234
243	0xba0f137b	-0.000545792
244	0xbda5991b	-0.08085843
245	0xbc0e7ba0	-0.008696467
246	0xbccaea79	-0.024770008
247	0x3da663e8	0.08124524
248	0x3d3a7423	0.045520913
249	0x3d0ec386	0.034854434
250	0xbc8540d3	-0.016266262
251	0xbd6bdbe1	-0.05758274
252	0xbcda1412	-0.026620898
253	0xbd2eaf22	-0.04264749
254	0x3c882fbf	0.01662433
255	0xbc872a27	-0.016499592

conv2d.bias f4 [16]
0	0xbd642e0d	-0.05570798
1	0xbd066f0f	-0.032820757
2	0xbc760956	-0.015016874
3	0xbce80a85	-0.028325329
4	0xbd516262	-0.051119216
5	0xbdf411e6	-0.11917476
6	0xbd1dd663	-0.038534533
7	0x3d8be642	0.068310276
8	0x3d824248	0.063602984
9	0xbc97b386	-0.01851822
10	0xbd83a559	-0.06428022
11	0x3da5034f	0.08057272
12	0x3c99b95c	0.018765144
13	0x3d2d3706	0.042288803
14	0xbd212201	-0.03933907
15	0xbc53bc3c	-0.012923297

conv1d_1.weight f4 [16, 16, 4]
0	0x3d265cda	0.040615894
1	0x3dfbfa21	0.12303568
2	0xbc95f381	-0.018304588
3	0x3dd4a024	0.10382107
4	0x3db3bc34	0.08776131
5	0x3d22a654	0.039709404
6	0x3de023e5	0.10944346
7	0xbd922ac7	-0.071370654
8	0xbd9a6642	-0.075390354
9	0xbda7196e	-0.08159147
10	0xbd855900	-0.06511116
11	0x3bee7669	0.007277299
12	0x3e15e38b	0.14637582
13	0x3d75e2c2	0.060030706
14	0xbdad3373	-0.08457079
15	0x3d489764	0.048972502
16	0xbd1486c8	-0.03626135
17	0xbd1a4e8a	-0.037672557
18	0x3e591382	0.21198848
19	0xbd7af5f8	-0.06126973
20	0x3e30724a	0.17231098
21	0x3e1bafdf	0.15203808
22	0x3d3098be	0.043114416
23	0x3c86a4d5	0.01643602
24	0x3df02705	0.117261924
25	0x3e228f90	0.15875077
26	0x3888cee8	6.523525e-05
27	0x3c90cd42	0.017676
28	0xbb1f6aeb	-0.0024325203
29	0xbcd954e8	-0.026529744
30	0xbcf1fae3	-0.029538577
31	0xbce8a218	-0.028397605
32	0xbda18f57	-0.07888668
33	0x3db5a889	0.08870036
34	0x3c991b04	0.01868964
35	0xbd191609	-0.03737453
36	0xbd94cbac	-0.0726541
37	0xbcfe950f	-0.031076936
38	0x3dc243ab	0.09485563
39	0xbc51437b	-0.012772436
40	0x3d9f127a	0.07767196
41	0x3cee598f	0.02909544
42	0xbd1f64b9	-0.038914416
43	0x3d2680a9	0.040650044
44	0x3d20df47	0.039275434
45	0x3c7b1d29	0.015326777
46	0xbda97013	-0.082733296
47	0x3da54940	0.08070612
48	0xbbf7269d	-0.007542445
49	0x3df54b6f	0.119772784
50	0x3d573953	0.052544903
51	0x3d212fe8	0.039352328
52	0x3d6d99cb	0.058007997
53	0xbd95eac2	-0.07320167
54	0xbe1958c1	-0.14975263
55	0xbdd03873	-0.10167017
56	0x3dd7d54e	0.105387315
57	0x3c7d3f7c	0.01545703
58	0x3d9c0fd9	0.0762021
59	0x3ded2a60	0.11580348
60	0x3e2a1bfd	0.16612239
61	0xbd54d35c	-0.05195938
62	0x3dc26761	0.09492374
63	0x3d3249a5	0.043527264
64	0xbcbd6565	-0.023119638
65	0x3dc97835	0.09837381
66	0x3e14d1fa	0.14533225
67	0x3d5e3087	0.054245498
68	0x3d798b91	0.060924117
69	0x3db2d3f5	0.08731834
70	0xbdc575cd	-0.09641609
71	0x3b961830	0.00458052
72	0x3dc17769	0.09446604
73	0x3ccbcd53	0.02487818
74	0xbc34d254	-0.011036474
75	0xbd90df83	-0.070738815
76	0x3cff132d	0.031137073
77	0xbda011d7	-0.07815903
78	0xbd656a9e	-0.05600988
79	0x3d6edc86	0.058315776
80	0xbda2f834	-0.07957497
81	0x3e1f8500	0.15578079
82	0xbccff920	-0.025387347
83	0xbd93f886	-0.072251365
84	0x3c0693eb	0.008213977
85	0xbb573619	-0.0032838641
86	0xbccc948a	-0.024973173
87	0x3ca1893b	0.019718757
88	0x3d561fde	0.052276485
89	0x3c77cf20	0.015125066
90	0x3d393377	0.045215096
91	0x3e3c3849	0.18380846
92	0xbd810d95	-0.06301419
93	0x3cd88eb0	0.026435226
94	0x3de130a4	0.109956056
95	0x3dbf6f30	0.09347379
96	0xbd9f9a6a	-0.07793124
97	0x3e287637	0.16451345
98	0x3c62a96c	0.013834339
99	0xbdcf8257	-0.10132282
100	0x3d19ab4a	0.03751687
101	0x3e162d33	0.1466568
102	0xbca46ca9	-0.020071344
103	0xbc2acc1b	-0.010424639
104	0x3c750526	0.014954841
105	0xbdf31b93	-0.11870494
106	0x3d9e0e31	0.077175505
107	0xbde83391	-0.113379605
108	0xbc0cff33	-0.008605766
109	0x3d182d23	0.03715242
110	0x3d9544d2	0.07288517
111	0x3d0d74db	0.03453527
112	0x3c98de4c	0.018660687
113	0xbdbe3def	-0.09289157
114	0xbdc4ab8b	-0.09603032
115	0x3cf46273	0.0298321
116	0x3e171d22	0.14757207
117	0xbdb46677	-0.08808606
118	0xbb92ada2	-0.004476265
119	0xbbf91b23	-0.007602112
120	0x3c95a958	0.018269226
121	0x3dda6429	0.10663635
122	0x3ce3affa	0.027793873
123	0xbd7a3aab	-0.061091106
124	0x3d5d67e8	0.05405417
125	0xbd8e81a6	-0.06958322
126	0x3e32249d	0.1739678
127	0x3d66f75a	0.056388237
128	0x3dd3f299	0.10349006
129	0xbe028add	-0.12748285
130	0x3d2feb56	0.042949043
131	0x3c3b66e4	0.011438105
132	0xbe021547	-0.12703429
133	0xbdcff388	-0.10153872
134	0x3d943c99	0.072381206
135	0x3da3d944	0.080004245
136	0x3dfe02c9	0.12402875
137	0xbbdd5263	-0.006754206
138	0x3dd8280e	0.10554515
139	0xbc5485ad	-0.012971324
140	0x3ab537d2	0.001382584
141	0xbd7729d0	-0.06034261
142	0xbdacc337	-0.08435672
143	0xbcf1a480	-0.029497385
144	0xbdba075e	-0.090834364
145	0x3d78e6bd	0.060766924
146	0x3d69d017	0.057083216
147	0x3dc7dbb7	0.09758704
148	0x3d8fa1e1	0.07013298
149	0xbd59c5db	-0.053167205
150	0x3dbd453e	0.092417225
151	0xbdc0fb2e	-0.09422909
152	0x3d49ccff	0.049267765
153	0x3bd3d678	0.0064647757
154	0x3d952c66	0.07283859
155	0x3c4ef184	0.012630824
156	0x3c9d58ed	0.019207442
157	0xbcc43932	-0.023953054
158	0xbda8fbfe	-0.08251189
159	0xbb84359a	-0.00403471
160	0x3dd11d62	0.102106825
161	0xbe06588a	-0.13119712
162	0x3da6a908	0.08137709
163	0xbddbd4e9	-0.10733969
164	0xbc3ff629	-0.011716404
165	0x3e020892	0.12698582
166	0xbdfdcbda	-0.12392397
167	0xbd739998	-0.05947265
168	0xbd63c021	-0.05560315
169	0xbd869300	-0.06571007
170	0xbb609735	-0.0034269814
171	0x3de3c164	0.11120871
172	0xbc4a4f6f	-0.01234804
173	0xbd2e7bd4	-0.04259856
174	0x3d61fba3	0.05517162
175	0x3df5bf72	0.11999406
176	0xbd117902	-0.035515793
177	0x3cf83856	0.0303003
178	0xbdc56b64	-0.09639624
179	0xbd94fb47	-0.0727449
180	0x3cad29bc	0.021138065
181	0xbd36c9dd	-0.044626106
182	0xbd26d894	-0.04073389
183	0x3d1733bb	0.03691457
184	0xbdb893ef	-0.09012591
185	0x3d08fb6a	0.033442892
186	0xbb0f1533	-0.0021832704
187	0xbd0b8836	-0.034065448
188	0xbc089039	-0.008335167
189	0xbd6e1f93	-0.05813558
190	0xbd967da5	-0.073481835
191	0xbdbfbdd6	-0.0936238
192	0x3d25a7d9	0.040443275
193	0x3d98ca5a	0.074604705
194	0xbd9889b9	-0.074481435
195	0xbd9c8981	-0.07643414
196	0x3ce1622e	0.027512636
197	0xbd2a6110	-0.041596472
198	0xbc7c395a	-0.015394533
199	0x3e0a0d6c	0.13481683
200	0x3dd09269	0.101841755
201	0x3e18f9c8	0.14939034
202	0x3ddc8df1	0.10769261
203	0x3dea267f	0.11433124
204	0x3e0cac8f	0.13737701
205	0x3ab2f9d4	0.0013654777
206	0x3d056acc	0.032572553
207	0xbdaf32cd	-0.08554611
208	0x3b8dd0af	0.0043278555
209	0x3dde2215	0.108463444
210	0xbddf66e7	-0.10908299
211	0xbd9e572a	-0.07731469
212	0xbe212247	-0.15735732
213	0xbe5f250a	-0.21791473
214	0xbe88cc54	-0.2671839
215	0xbe88cf3d	-0.2672061
216	0x3d19cd47	0.037549283
217	0xbda855b3	-0.08219471
218	0x3e0b2f2b	0.13592212
219	0x3d8bf28c	0.068333715
220	0x3db9a804	0.090652496
221	0x3d8bd04a	0.06826837
222	0x3d27f149	0.04100159
223	0x3dae4b70	0.08510482
224	0x3dff80a7	0.1247571
225	0xbd9dddfc	-0.07708356
226	0xbdac4f6e	-0.084135875
227	0x3d4c17ba	0.049827315
228	0xbd7682cf	-0.060183343
229	0x3dd8751b	0.10569211
230	0xbbe6295b	-0.007023973
231	0x3c9658dc	0.018352918
232	0xbc5058b5	-0.012716462
233	0xbdc2a27b	-0.09503647
234	0xbdd14747	-0.10218673
235	0x3de214de	0.11039136
236	0xbd61f097	-0.055161085
237	0x3e07e1af	0.13269685
238	0x3dcf8139	0.10132069
239	0x3d66c406	0.056339286
240	0x3dba5b0e	0.090993986
241	0xbdb13243	-0.08652165
242	0xbdbb7acb	-0.0915428
243	0x3d3a0bb5	0.04542132
244	0xbd358e3d	-0.044325102
245	0x3e002b8f	0.12516616
246	0x3dde8a86	0.10866265
247	0xbc632634	-0.013864089
248	0x3cfdd6e5	0.030986259
249	0xbd8c5886	-0.06852822
250	0x3df150b5	0.11782972
251	0x3e051dd9	0.12999667
252	0x3bd764fb	0.006573317
253	0x3df5554e	0.11979161
254	0xbc81b3e5	-0.01583285
255	0xbdd32f39	-0.103117414

conv1d_1.bias f4 [16]
0	0x3d669b21	0.056300286
1	0xbd0e2b7c	-0.03470944
2	0xbbfaa684	-0.0076492447
3	0x3e034a42	0.12821296
4	0x3d33bb94	0.04388006
5	0xbd8ea525	-0.069650926
6	0x3da2ec51	0.0795523
7	0xbd99d855	-0.07511965
8	0xbd585450	-0.05281478
9	0x3d2296fc	0.03969477
10	0x3d374e41	0.044752363
11	0xbcbb582d	-0.022869194
12	0xbd11bb6e	-0.035579138
13	0xbceb5f1f	-0.02873188
14	0x3d57e7f4	0.052711442
15	0x3db482d6	0.088140175

conv1d_2.weight f4 [32, 16, 3]
0	0xbe32850e	-0.17433569
1	0x3c279ffe	0.010231016
2	0xbd00a7b4	-0.031409934
3	0x3d9022ae	0.070378646
4	0xbd396a40	-0.045267344
5	0x3e059bb6	0.1304768
6	0xbdbefe86	-0.0932589
7	0x3dca65d5	0.09882704
8	0x3e0b79b2	0.13620642
9	0x3e5ab42c	0.21357793
10	0x3debcbd7	0.11513489
11	0x3cd8e90f	0.026478318
12	0x3e3079dc	0.17233986
13	0x3da58bd9	0.080833144
14	0xbb8d4241	-0.0043108766
15	0xbddb12ca	-0.10696943
16	0x3ccb8670	0.024844378
17	0xbe02ad82	-0.127615
18	0x3d65f60f	0.056142863
19	0x3dc8e27d	0.09808824
20	0xbd7338ca	-0.05938033
21	0x3dc7ee47	0.09762245
22	0x3d5f1ff1	0.05447382
23	0xbda73988	-0.0816527
24	0x3cb46d9a	0.022024918
25	0xbc14ac2a	-0.00907425
26	0xbdd37c59	-0.10326452
27	0xbdaca07f	-0.0842905
28	0xbe234cc1	-0.15947248
29	0xb9d186b7	-0.00039963957
30	0xbdd22e4d	-0.102627374
31	0xbdbf7f69	-0.093504734
32	0xbe1be4d1	-0.15224005
33	0xbe0223a4	-0.12708908
34	0xbd171789	-0.03688768
35	0xbb8e7c20	-0.004348293
36	0xbd07493f	-0.033028837
37	0x3c4721c3	0.0121540455
38	0x3c34296a	0.010996202
39	0xbde8eaaa	-0.113728836
40	0xbd96f3aa	-0.07370694
41	0xbc058c81	-0.0081511745
42	0x3da0f84f	0.07859861
43	0x3e06c30e	0.13160345
44	0x3d131ed1	0.03591806
45	0xbe1da94e	-0.15396616
46	0x3d34897f	0.04407644
47	0xbd5d4463	-0.054020297
48	0x3e14e651	0.14540984
49	0xbb911936	-0.004428054
50	0x3de1a91f	0.110185854
51	0x3d293aa3	0.041315686
52	0xbcf1f4eb	-0.029535731
53	0xbda87f95	-0.08227459
54	0xbd9b2d1b	-0.075769626
55	0xbd8eccff	-0.06972694
56	0x3da2e333	0.07953491
57	0x3dbb32ad	0.09140525
58	0x3da40cf0	0.0801028
59	0x3e2be7ff	0.16787718
60	0xbd934350	-0.07190573
61	0x3e190827	0.14944516
62	0x3e2ac76a	0.16677633
63	0x3d48d972	0.049035497
64	0xbb7e6fcf	-0.0038823967
65	0x3d7f5397	0.062335577
66	0xbd8b3d0f	-0.067987554
67	0xbdade7a3	-0.08491447
68	0x3d95c0b8	0.07312149
69	0xbdcd29f9	-0.10017771
70	0xbda1050a	-0.07862289
71	0x3e0103ea	0.1259915
72	0xbda87140	-0.08224726
73	0xbe1d820f	-0.15381645
74	0xbddd0bd0	-0.10793269
75	0x3d0364d4	0.03207858
76	0x3d36c51f	0.044621583
77	0xbc9ef969	-0.019406037
78	0x3e0ccc5c	0.13749832
79	0x3c92c572	0.017916415
80	0x3d917654	0.071026474
81	0x3d98b7ad	0.074569084
82	0xbdc03761	-0.09385563
83	0xbdc01b83	-0.093802474
84	0x3d5348c3	0.051583063
85	0x3d51838b	0.05115084
86	0x3c85e52f	0.016344635
87	0x3e027d4a	0.12743106
88	0x3e049e8d	0.12951107
89	0xbd9c552e	-0.07633434
90	0xbb6abfed	-0.0035819963
91	0xbd60288b	-0.054726165
92	0x3d2f202f	0.042755302
93	0x3d593509	0.053029094
94	0xbcec1b97	-0.02882175
95	0x3e120516	0.14259753
96	0x3df35610	0.118816495
97	0x3dc1d378	0.094641626
98	0x3e39b604	0.1813584
99	0x3dde63ac	0.10858855
100	0xbdd61c41	-0.10454608
101	0x3d63d6a9	0.055624638
102	0xbe093c2e	-0.13401863
103	0xbc690a4f	-0.014223649
104	0xbdaa950f	-0.08329212
105	0x3e27a0fc	0.16370004
106	0x3e1c06c4	0.15236956
107	0x3e2bc265	0.16773374
108	0x3dd95b51	0.1061312
109	0xbd229b59	-0.039698932
110	0x3d865ed4	0.06561056
111	0xbd524d0b	-0.051343005
112	0x3e040d84	0.12895781
113	0x3df4eba8	0.1195901
114	0x3c90d58c	0.017679952
115	0x3de32c8c	0.11092481
116	0x3e23c47f	0.15992926
117	0xbc9eebfd	-0.019399637
118	0xbddc9530	-0.10770643
119	0x3c89b537	0.016810043
120	0xbdbadb4b	-0.09123858
121	0xbddead16	-0.10872857
122	0xbe23d066	-0.15997466
123	0x3b4b205b	0.0030994627
124	0x3caaf07b	0.020866623
125	0xbd52e1cb	-0.051484864
126	0xbc3af021	-0.01140979
127	0x3d6e9672	0.058248945
128	0x3dd3159c	0.10306856
129	0x3cfade5b	0.030623605
130	0x3dbf1881	0.093308456
131	0xbdf19c16	-0.11797349
132	0xbda3a80f	-0.07991039
133	0xbd9989c8	-0.07496983
134	0x3e0118a4	0.12607056
135	0xbcb4358f	-0.021998195
136	0x3d72d976	0.05928942
137	0x3db3fce0	0.087884665
138	0x3d439ee5	0.047758956
139	0x3e15a417	0.14613377
140	0x3c86b315	0.016442815
141	0x3cb9b4c0	0.022669196
142	0x3d309055	0.043106396
143	0xbd0e31d4	-0.03471549
144	0x3d0309e5	0.031991858
145	0x3e8539fe	0.26020807
146	0x3dd390cc	0.10330352
147	0xbd474393	-0.04864843
148	0x3e33455b	0.17506926
149	0x3e4763d5	0.19471677
150	0x3dd06f33	0.101774596
151	0xbe251f04	-0.16125113
152	0x3d8cd2cd	0.068761446
153	0xbe53828a	-0.20655265
154	0xbdaf64f2	-0.08564176
155	0xbb3792dc	-0.002801112
156	0x3e2f96c3	0.17147355
157	0xbcd09118	-0.025459811
158	0x3d4baecd	0.04972725
159	0x3d3a6ee6	0.045515917
160	0x3dbab7d5	0.091170944
161	0x3da96e18	0.08272952
162	0xbb966caa	-0.0045905905
163	0xbdb0c2b6	-0.08630888
164	0x3d841fb9	0.06451363
165	0xbe31d31c	-0.17365688
166	0xbdc84f46	-0.09780745
167	0xbd61e5d4	-0.05515082
168	0xbddbfdd2	-0.10741772
169	0xbe33b768	-0.17550433
170	0xbdaaa6ed	-0.0833262
171	0x3de13d5f	0.10998034
172	0x3cba8530	0.022768587
173	0x3dd36d9a	0.10323639
174	0x3df13d57	0.11779278
175	0x3e399313	0.1812251
176	0x3df06116	0.11737268
177	0x3d74696c	0.05967085
178	0xbe3124e0	-0.17299223
179	0x3d261da8	0.040555626
180	0xbe1b6de6	-0.15178642
181	0xbdfb47ed	-0.12269578
182	0xbdb7d105	-0.08975414
183	0x3d134895	0.03595789
184	0xbdb8f5ff	-0.09031295
185	0x3e344fa6	0.17608508
186	0xbcd7a2f2	-0.026322816
187	0x3cc36feb	0.023857078
188	0x3c949ce5	0.01814122
189	0x3d70fa82	0.058832653
190	0x3de87d39	0.11352009
191	0x3d8f4e2a	0.069973305
192	0xbd109883	-0.035301697
193	0x3e4ae97c	0.1981563
194	0x3d9df82d	0.077133514
195	0xbcc1ca33	-0.023655986
196	0xbccffa47	-0.025387896
197	0x3e366423	0.17811637
198	0x3d904f61	0.0704639
199	0x3d5adfc0	0.05343604
200	0xbba5ba6f	-0.005057625
201	0xbc2af58b	-0.010434519
202	0x3dfaa097	0.12237661
203	0xbc36edee	-0.011165125
204	0x3e47f9d2	0.19528893
205	0x3ce15958	0.027508423
206	0x3d9ad8ba	0.075608686
207	0x3df719dd	0.1206548
208	0x3e104808	0.14089978
209	0x3dfcb83d	0.12339828
210	0x3c2db323	0.010601792
211	0x3dd693ac	0.10477385
212	0x3e235bc5	0.15952976
213	0x3cca9373	0.024728512
214	0xbda4efe4	-0.08053568
215	0xbded006e	-0.115723476
216	0xbdec5dd1	-0.115413316
217	0x3d4e5261	0.05037153
218	0xbe0f7446	-0.14009199
219	0xbdee5d62	-0.11638905
220	0xbd754840	-0.059883356
221	0x3cb670f5	0.022270659
222	0x3e3e211a	0.18567315
223	0xbd130096	-0.03588923
224	0x3c8e3681	0.017359974
225	0xbe16a68e	-0.14711973
226	0x3d214c23	0.03937925
227	0xbd315f36	-0.04330369
228	0xbdeb6692	-0.11494173
229	0xbd377d9f	-0.044797536
230	0xbd4d3f6d	-0.050109316
231	0x3d9b283c	0.075760335
232	0x3e0d1b0e	0.13779852
233	0x3df4ff7a	0.11962791
234	0x3d938936	0.07203905
235	0xbcd81b95	-0.02638034
236	0xbd141425	-0.036152024
237	0x3df1c1d8	0.11804551
238	0x3dcb1338	0.09915775
239	0x3d09d406	0.033649467
240	0x3da10dd3	0.07863965
241	0x3e5569f4	0.20841199
242	0x3e403fe9	0.1877438
243	0xbc843ea9	-0.01614316
244	0x3da8cdc5	0.082423724
245	0x3daa0b9e	0.08302997
246	0x3c208b22	0.009798797
247	0xbe09f81b	-0.13473551
248	0xbe14c215	-0.14527161
249	0x3e5ed963	0.21762614
250	0x3c208612	0.00979759
251	0x3e2774a3	0.16353087
252	0x3c7bee9c	0.015376713
253	0xbd356c7f	-0.044292923
254	0xbdb91812	-0.09037794
255	0xbde098d4	-0.1096665

conv1d_2.bias f4 [32]
0	0x3da956e1	0.08268524
1	0xbbc2e413	-0.0059475987
2	0xbd56d020	-0.052444577
3	0xbe0e8c41	-0.1392069
4	0xbcabc969	-0.020970063
5	0x3dfac12b	0.12243875
6	0x3d5789e8	0.052621752
7	0x3de9de1c	0.11419317
8	0xbd74fbf4	-0.059810594
9	0xbcaebce2	-0.0213303
10	0xbca5cd98	-0.020239636
11	0xbd77ea67	-0.060526278
12	0x3cef1b26	0.02918775
13	0x3cfbf525	0.030756542
14	0xbdd8204d	-0.10553036
15	0x3e039ffb	0.12853996
16	0x3e07d01f	0.13262986
17	0xbdf1dfd9	-0.11810274
18	0x3ddecdb7	0.10879081
19	0xbd39dc58	-0.04537615
20	0x3d77a63f	0.06046128
21	0x3d347ed8	0.04406628
22	0x3da104b0	0.07862222
23	0xbd3883c4	-0.045047536
24	0x3df75433	0.120766066
25	0xbdce61d9	-0.10077257
26	0x3c20871a	0.009797836
27	0xbd54420b	-0.051820796
28	0xbdff720b	-0.12472924
29	0x3d4f9cde	0.05068671
30	0xbcfaa03c	-0.030593984
31	0x3c432355	0.011910279

conv1d_3.weight f4 [32, 32, 3]
0	0x3db6a092	0.08917345
1	0x3dfad364	0.12247351
2	0x3d63fe77	0.0556626
3	0x3dfc960d	0.123333074
4	0x3dfb9d32	0.12285842
5	0x3c4590a3	0.01205841
6	0x3e02c8ae	0.12771866
7	0x3d70e3ec	0.058811113
8	0x3c7b2e52	0.015330868
9	0x3e642900	0.22281265
10	0x3e49e17a	0.19714919
11	0x3e1b3053	0.15155153
12	0x3c2ce55f	0.010552733
13	0x3df174e5	0.11789874
14	0x3dd6368d	0.104596235
15	0x3d53ab95	0.051677305
16	0xbbfd36a5	-0.0077274614
17	0x3c1b2fe7	0.00947187
18	0xbbb6f9b9	-0.0055839685
19	0x3df6d073	0.12051477
20	0xbca9ff2a	-0.020751555
21	0x3b5653a7	0.003270367
22	0x3df21cc5	0.118218936
23	0x3dbe7929	0.09300453
24	0xbc6497cf	-0.01395221
25	0xbd66cac1	-0.056345705
26	0xbdb084b7	-0.08619063
27	0x3d5b5c77	0.05355498
28	0xbde08f03	-0.10964777
29	0xbd591129	-0.05299488
30	0xbbe12440	-0.0068707764
31	0xbcfff80f	-0.031246213
32	0xbd0167c3	-0.031593096
33	0xbdfc0ada	-0.12306757
34	0xbd531905	-0.051537532
35	0xbc3a049d	-0.011353639
36	0x3e0150a7	0.12628423
37	0x3d9e810d	0.07739458
38	0x3da913dd	0.08255742
39	0x3d0f9cb6	0.03506156
40	0xbdbbc5e7	-0.09168606
41	0xbc34ef52	-0.0110433865
42	0x3dc162aa	0.09442647
43	0x3cb5695f	0.022144971
44	0x3e083c38	0.13304222
45	0x3daa6ac1	0.08321143
46	0x3d972ac4	0.07381204
47	0x3dc94878	0.098282754
48	0x3d4eea80	0.050516605
49	0xbbae156c	-0.0053126123
50	0xbd4b8e6a	-0.049696364
51	0x3ceccf77	0.02890752
52	0xbc223fe3	-0.009902927
53	0xbdd8ccec	-0.10585961
54	0x3d4b841b	0.049686532
55	0x3d1acee2	0.037794955
56	0x3cd78745	0.026309619
57	0x3b742129	0.003725121
58	0x3d6ce4a3	0.057835232
59	0x3e0c70c8	0.13714898
60	0x3cd2ba10	0.025723487
61	0x3ccb9a9e	0.024854
62	0xbc747888	-0.014921315
63	0x3da274a4	0.07932404
64	0x3ca51495	0.020151416
65	0x3de98562	0.11402394
66	0x3d816587	0.06318193
67	0x3e025563	0.12727885
68	0x3d8438ae	0.06456123
69	0xbd2b728c	-0.041857287
70	0xba4c3d3e	-0.0007791108
71	0xbd1db447	-0.038502004
72	0x3e178cf0	0.14799857
73	0x3ccbb97d	0.024868721
74	0x3e029cdf	0.12755154
75	0x3de78e72	0.11306466
76	0x3d220e05	0.03956415
77	0xbbd5b143	-0.0065213754
78	0x3dc9e4cf	0.09858095
79	0x3df0ce56	0.117581055
80	0x3d879317	0.06619852
81	0xbd98e4d0	-0.074655175
82	0x3dfe1b9a	0.12407608
83	0xbd4277e0	-0.047477603
84	0x3d6b6e81	0.05747843
85	0xbc6b2d96	-0.01435413
86	0x3e0aa01a	0.13537636
87	0x3c07265f	0.0082488945
88	0x3d4a2714	0.049353674
89	0xbcf0e48d	-0.029405857
90	0xbce7f237	-0.02831374
91	0x3d9eb730	0.07749784
92	0x3de1bd37	0.11022418
93	0x3dfc5f13	0.123228215
94	0x3d12cb19	0.03583822
95	0x3db4259a	0.087962344
96	0xbd4ade62	-0.049528487
97	0xbd7382dd	-0.059450973
98	0xbd5f3476	-0.05449339
99	0x3c8e3546	0.017359387
100	0x3d73efa2	0.059554704
101	0x3ca87a34	0.020566083
102	0x3d88f763	0.0668781
103	0x3d0fc674	0.03510137
104	0x3c9002f2	0.01757953
105	0xbe1a4b0e	-0.15067694
106	0xba3f9483	-0.0007308202
107	0xbda861be	-0.08221768
108	0x3d4f84e9	0.050663862
109	0xbca6ed59	-0.020376848
110	0x3d9cf374	0.076636225
111	0xbde1da90	-0.110280156
112	0x3d980285	0.074223556
113	0x3d07832f	0.03308409
114	0xbda78949	-0.08180482
115	0x3d60d246	0.054888032
116	0xbca5885d	-0.020206625
117	0x3d51d249	0.051225934
118	0xbda98eeb	-0.082792126
119	0xbb042334	-0.0020162584
120	0x3db69a7f	0.089161865
121	0x3d570108	0.052491218
122	0xbdcc288f	-0.099686734
123	0xbd8ff7cf	-0.070296876
124	0x3d4436bc	0.04790376
125	0xbd9297f5	-0.0715789
126	0x3d89fad2	0.06737293
127	0xbd273a70	-0.040827215
128	0x3d4a5909	0.049401317
129	0xbd364db2	-0.04450769
130	0xbb3bb692	-0.0028642756
131	0x3c80ceea	0.015723664
132	0x3d126bcc	0.035747334
133	0xbdc4a58c	-0.09601888
134	0xbd7604c9	-0.060063157
135	0xbcbb8cf1	-0.022894355
136	0xbdb46478	-0.088082254
137	0x3b91f05e	0.004453703
138	0x3c246c6d	0.010035616
139	0x3cb4f467	0.022089196
140	0x3d5229ac	0.051309273
141	0x3dbadeeb	0.091245495
142	0xbd66cb94	-0.05634649
143	0xbd303318	-0.043017477
144	0x3c9fb888	0.019497171
145	0x3d8fba2e	0.07017933
146	0xbd3f8154	-0.046754196
147	0x3a2c76e4	0.00065789954
148	0x3da449fd	0.08021925
149	0x3d81021a	0.06299229
150	0xbdbf28ed	-0.09333978
151	0x3d77316f	0.060349878
152	0x3d8ce696	0.06879918
153	0xbcea74f6	-0.028620224
154	0xbdf5047b	-0.11963745
155	0xbba9d90d	-0.005183345
156	0x3d77531a	0.060381986
157	0xbcf205ed	-0.029543841
158	0x3d06a583	0.032872688
159	0x3d92df1c	0.07171461
160	0x3d83e40b	0.0643998
161	0x3c4155fc	0.011800285
162	0x3cd5e781	0.026111366
163	0xbdea0b41	-0.11427928
164	0xbde7da7c	-0.113209695
165	0xbdb5f853	-0.08885255
166	0xbd1a5b99	-0.03768501
167	0x3d041852	0.032249756
168	0x3d6d1455	0.05788072
169	0xbc12f701	-0.008970023
170	0xbc30016e	-0.010742528
171	0xbe1e12d6	-0.15436873
172	0x3cb5e08f	0.022201804
173	0xbcb92fa4	-0.022605725
174	0xbda00da5	-0.078151025
175	0xbd956c62	-0.07296063
176	0x3d614305	0.054995555
177	0xbda7e041	-0.0819707
178	0xbd537110	-0.051621497
179	0xbdd38c49	-0.10329492
180	0xbdc447cf	-0.09584009
181	0xbdf7b7a1	-0.12095571
182	0x3c9cda0b	0.01914694
183	0x3d9c622f	0.076359145
184	0xbdaf7d55	-0.08568827
185	0x3bba1585	0.005678835
186	0x3dac780a	0.08421333
187	0x3d7b3fc6	0.061340116
188	0xbc502831	-0.012704895
189	0xbddfabb8	-0.109214246
190	0xbd877e2f	-0.066158645
191	0x3db90625	0.09034375
192	0xbde8f63a	-0.11375089
193	0xbbc53580	-0.0060183406
194	0xbd7bb80c	-0.061454818
195	0x3948a602	0.00019135329
196	0xbcb2f970	-0.021847457
197	0xbd0a128e	-0.0337091
198	0xbd27d00d	-0.040969897
199	0x3dcc987d	0.09990022
200	0xbcdaa3d6	-0.026689451
201	0xbc321970	-0.010870323
202	0xbd52d59d	-0.05147325
203	0xbdb547cc	-0.08851585
204	0xbd2fedbd	-0.042951334
205	0x3b53ce01	0.0032318833
206	0x3da676ed	0.08128152
207	0xbd7f9361	-0.06239641
208	0xbdd40659	-0.10352773
209	0x3cbf1ba2	0.023328606
210	0x3da30c1a	0.079612926
211	0xbd2db62f	-0.042410072
212	0xbda7e8eb	-0.081987225
213	0xbdc3aea7	-0.09554797
214	0x3d500c13	0.050792765
215	0x3da15cb0	0.07879007
216	0xbc0f32df	-0.008740156
217	0xbd6569c3	-0.056009065
218	0xbbbf70a2	-0.0058422843
219	0x3dbfe826	0.09370451
220	0xbd8e94cd	-0.06961975
221	0x3d9eda9a	0.07756539
222	0xbdaba3a1	-0.08380819
223	0xbb1c8df8	-0.002388833
224	0xbbba8081	-0.0056915884
225	0x3d0c6545	0.034276266
226	0xbae82b70	-0.0017713141
227	0xbdbab38f	-0.09116279
228	0xbdad1d0c	-0.08452806
229	0xbd3d8c2a	-0.04627625
230	0x3da3c66d	0.07996831
231	0xbd204135	-0.039124686
232	0x3d64a9e8	0.055826098
233	0x3da80b85	0.08205322
234	0xbcaf859c	-0.021426015
235	0xbd301d93	-0.042996954
236	0xbc441c13	-0.011969584
237	0xbd20b52a	-0.03923527
238	0x3daad383	0.08341124
239	0xbda92e4c	-0.082607836
240	0x3cb7572c	0.022380434
241	0x3d23767d	0.03990792
242	0xbd6575fc	-0.05602072
243	0x3db3c909	0.08778579
244	0xbd4b6c2d	-0.04966371
245	0xbd4249f2	-0.0474338
246	0xbdbf8c07	-0.0935288
247	0xbcddcb40	-0.027074456
248	0x3d815d5b	0.06316634
249	0x3d87ed6b	0.06637081
250	0x3d3b5b09	0.045741115
251	0xbc81b2b5	-0.015832284
252	0xbdbe36af	-0.09287774
253	0xbd6df7cf	-0.058097657
254	0x3d82ef56	0.06393306
255	0xbd86050b	-0.065439306

conv1d_3.bias f4 [32]
0	0x3d3eddb9	0.04659817
1	0x3d784a20	0.060617566
2	0x3dc71c02	0.09722139
3	0xbcd847ca	-0.02640142
4	0x3d194c91	0.037426535
5	0x3dea6090	0.11444199
6	0x3d87cb63	0.0663059
7	0xbbef64c9	-0.0073057157
8	0xbb892db2	-0.0041863555
9	0x3dc0ff0c	0.09423646
10	0x3d96dd44	0.07366422
11	0x3d135ddc	0.035978183
12	0x3d4bda56	0.04976877
13	0xbcd97437	-0.026544673
14	0x3cd4a243	0.025956279
15	0xbd24e3b9	-0.040256236
16	0x3b501da4	0.0031755948
17	0x3d648b76	0.055797063
18	0xbc398463	-0.011323067
19	0xbc975466	-0.018472861
20	0xbb84f603	-0.004057647
21	0xbd2beaf7	-0.041972127
22	0xbdc20442	-0.09473468
23	0x3dcd10f2	0.10012998
24	0x3d2350a5	0.03987183
25	0xbd789980	-0.060693264
26	0x3d21a8a5	0.039467473
27	0x3d5df47b	0.054188233
28	0xbd90de1d	-0.07073615
29	0xbc77b0bc	-0.01511782
30	0xbce8d8cf	-0.028423695
31	0x3b15751c	0.0022805398

fc.weight f4 [3, 32]
0	0x3c0029bb	0.007822449
1	0x3d55948b	0.052143615
2	0x3dc1204c	0.09429988
3	0xbd38935c	-0.045062408
4	0x3de19406	0.11014561
5	0x3d8afe1f	0.06786751
6	0x3e0f3491	0.13984896
7	0xbe1b90ca	-0.15191951
8	0x3d5a15de	0.05324351
9	0x3d2c77b2	0.042106338
10	0x3d09092a	0.033456005
11	0x3e3d0099	0.18457259
12	0x3def5705	0.116865195
13	0xbd2a2299	-0.0415369
14	0xbda1f189	-0.07907397
15	0xbe16427c	-0.146738
16	0x3dae618a	0.08514698
17	0x3c7221df	0.014778583
18	0x3d592875	0.0530171
19	0x3d6d7e19	0.057981584
20	0xbe2bc413	-0.16774015
21	0x3e1004d1	0.14064337
22	0x3d8cb98f	0.0687133
23	0xbbe9ebf7	-0.007138725
24	0xbe29a2ef	-0.1656606
25	0xbe1a85e0	-0.15090132
26	0xbdc16df8	-0.09444803
27	0xbd1d504e	-0.038406663
28	0x3cbce202	0.023056988
29	0xbdf89144	-0.12137082
30	0xbe5e9602	-0.21736911
31	0x3e021777	0.12704264
32	0x3e46ecf7	0.19426332
33	0xbdf46fb7	-0.119353704
34	0xbd212f56	-0.039351784
35	0x3e5e3cc6	0.2170287
36	0x3e52ad73	0.20573978
37	0x3e1b2207	0.15149699
38	0x3dd85125	0.10562352
39	0xbd805a5a	-0.06267233
40	0x3e4ed418	0.20198095
41	0x3dfa7599	0.12229461
42	0xbc29b643	-0.010358396
43	0xbdec42e8	-0.11536199
44	0xbde1b318	-0.110204875
45	0xbdd54903	-0.104143165
46	0xbd236461	-0.03989065
47	0x3e3131de	0.17304179
48	0x3d9055b1	0.07047594
49	0x3e2023bc	0.15638632
50	0xbdb59dac	-0.08867964
51	0xbddc93ce	-0.10770379
52	0x3db34783	0.08753874
53	0xbe1067de	-0.14102122
54	0xbe39357c	-0.18086809
55	0xbdf5adc8	-0.11996037
56	0xbdcc64ec	-0.09980187
57	0x3d4e4a53	0.05036385
58	0x3dcd54b8	0.100259244
59	0x3df86031	0.12127722
60	0x3e28dfe0	0.16491652
61	0x3e52813a	0.20557109
62	0x3df0cbab	0.117575966
63	0xbdb2890f	-0.08717548
64	0x3d4bb6fc	0.049735054
65	0xbabe1e9a	-0.001450497
66	0x3e0f9783	0.14022641
67	0xbe40e6d8	-0.1883806
68	0xbe5305ec	-0.20607728
69	0xbc20af37	-0.0098073995
70	0xbdc02953	-0.09382882
71	0xbe5b2692	-0.21401432
72	0x3cbd4047	0.023101939
73	0xbe26eb69	-0.1630074
74	0x3dba8268	0.09106904
75	0xbcb80119	-0.02246146
76	0xbd9a3dec	-0.07531342
77	0x3dcab08e	0.098969564
78	0x3e1eb589	0.15498938
79	0x3e05be32	0.13060835
80	0x3e0129f1	0.12613656
81	0x3cbfbb0b	0.023404619
82	0x3e4364d1	0.19081427
83	0x3dae0bf8	0.084983766
84	0xbd3c03f8	-0.045902222
85	0x3ac516e2	0.0015036727
86	0x3e32fd81	0.17479517
87	0x3bbfb01d	0.0058498518
88	0xbe3972cd	-0.181102
89	0xbd2ccf36	-0.0421898
90	0xbe14b5f6	-0.14522538
91	0x3d9fa612	0.07795347
92	0xbe456ddb	-0.19280188
93	0x3d13f2ec	0.03612034
94	0xbe5d8315	-0.21632035
95	0x3e0c720f	0.13715385

fc.bias f4 [3]
0	0xbe2415af	-0.16023897
1	0xbe2a22e0	-0.16614866
2	0xbdeb7edf	-0.11498808
