trained_models/Archive/CNN/CNN_Zscore_CF3_pred_4.pth (torch, 37564 bytes, 10 tensors)

conv2d.weight f4 [16, 1, 4, 40]
000000 cb 10 d0 3c fc 60 89 3d ff 5c 99 3d 0b 1d 09 3d
       0.025398633 0.067079514 0.07488441 0.033474963
000010 2b 71 8b bd ab 65 e7 3b ed a5 fa 3b 14 00 52 bd
       -0.068086945 0.0070616803 0.0076491744 -0.051269606
000020 02 40 a1 bd f8 4d ea 3d b0 58 43 bd f7 3c 03 bc
       -0.07873537 0.114406526 -0.047692 -0.008010141
000030 ed 49 6d 3c fa 57 c6 3d 0a 12 5f 3c 6e 5a 22 3e
       0.014482957 0.09684749 0.013615141 0.15854809
000040 9d ca 0f bc 0e e5 f8 bc 36 58 3f bd 04 77 8d 3d
       -0.008776334 -0.03038266 -0.046714984 0.06907466
000050 58 7e 7d bd b8 90 26 3d e2 8f 8f 3b 4b cc 80 ba
       -0.06188807 0.04066536 0.004381166 -0.0009826509
000060 50 47 53 bc 9b c2 e4 bc 9d 29 00 bd b9 67 05 bd
       -0.01289542 -0.027924826 -0.031289686 -0.03256962
000070 f2 de 49 3b 60 5c 74 bc 45 1d b3 bc 75 30 10 bc
       0.0030803052 -0.014914602 -0.021864543 -0.008800616
000080 96 4c e0 bc 10 fc 54 3d 9c 95 5c bd 5d b2 fb 3b
       -0.027380269 0.051998198 -0.053853616 0.0076811747
000090 de 2e 89 3d b1 3f af bd b8 7a 1d 3d a2 1a bd bd
       0.06698392 -0.0855707 0.03844711 -0.092335954
0000a0 58 e2 8b bd 69 3d 8d 3d 0d 48 87 bd 6f d5 9c bc
       -0.06830281 0.06896479 -0.066055395 -0.019144742
0000b0 ef a8 96 3b be bd b3 3c 8e 56 68 3d a3 8c 67 bb
       0.004597775 0.021941062 0.05672317 -0.0035331629
0000c0 57 b3 43 bd b3 35 93 3c 7e 5e 92 3c 0a 46 29 3d
       -0.047778454 0.017969942 0.017867323 0.04132656
0000d0 48 77 79 3c 18 87 86 3d 5b bc 8e 3d 9b 75 5b 3e
       0.015226193 0.06568736 0.0696952 0.21431582
0000e0 d1 f4 18 3d 23 95 0d 3d 0d 93 12 bb 74 c8 c8 3d
       0.03734285 0.034566056 -0.002236548 0.098038584
0000f0 59 0c 90 bd 78 2f 05 bd 0c b4 4d 3d 69 3a 9f bd
       -0.07033605 -0.032515973 0.050220534 -0.07774813
000100 fa df 26 bc ca bc ac 3b c7 bb 2e bd f1 b8 e9 3b
       -0.010185236 0.005271529 -0.042659547 0.0071326424
000110 62 ee a2 bc f5 55 97 bc 86 e8 2c 3d 15 fc 97 bd
       -0.01988906 -0.018473605 0.04221394 -0.07421128
000120 14 49 7e bd c1 34 f9 3c 6c bc 95 3d ee 69 aa bb
       -0.06208141 0.030420663 0.07311329 -0.005200616
000130 74 8c cb 3c d3 f8 4c 3c cd a5 97 3d 48 d1 9a 3d
       0.024847247 0.012510496 0.07404671 0.075594485
000140 df a6 97 3d f7 b5 b9 bc 2c e9 83 3d 01 7d 28 bd
       0.07404875 -0.022669775 0.064409584 -0.041134838
000150 24 13 1e bd 0f d0 aa 3d a1 d0 87 39 39 79 d2 3c
       -0.038592473 0.08340465 0.00025904647 0.02569257
000160 3b 12 5c 3d 21 99 c7 3c 0f e9 cd 3c 73 e6 e5 3c
       0.053728323 0.02436501 0.025135545 0.028063988
000170 cb f6 97 bd d1 c2 a1 3d de 21 8f 3d b7 e3 ab 3d
       -0.07420119 0.078984864 0.069888815 0.083930425
000180 32 dc 26 3c f9 95 37 bc f2 cc 37 bd 33 ba 3e 3c
       0.010184335 -0.01120519 -0.044873185 0.011641073
000190 b4 54 09 bd c1 a0 a4 3c 2e 97 7d 3d 58 db 57 bd
       -0.033528045 0.020096185 0.061911754 -0.052699417
0001a0 91 39 34 bd 94 23 a3 bd b5 46 f3 bc 74 c7 8d 3c
       -0.044000212 -0.0796577 -0.029696802 0.01730702
0001b0 72 1c 6f bd 7a 7c 32 b8 a9 33 4e 3d 7d b8 96 3b
       -0.058376737 -4.2554435e-05 0.050342236 0.0045996294
0001c0 81 9a 07 3d 76 a5 ce bd 5b 2f 99 bc 8d 44 27 bd
       0.03310633 -0.10090153 -0.018699339 -0.04083686
0001d0 e3 53 77 bc b7 af 75 bd a5 16 07 bd 27 8e db bd
       -0.015095684 -0.059982028 -0.03298058 -0.10720473
0001e0 b3 45 cf bc 70 84 28 3d f0 c9 97 3d c9 31 8c bd
       -0.02530179 0.041141927 0.074115634 -0.06845433
0001f0 c6 05 bf bc b0 20 83 3d 65 8b 8a 3d bd c7 b1 3d
       -0.023318183 0.06402719 0.06764869 0.08680675
000200 3a 26 bf bb 2c e3 8e bb 87 18 27 bd b5 e2 91 3d
       -0.0058334144 -0.004360577 -0.040794875 0.07123319
000210 da 05 50 bd ca 73 87 3d 76 23 8e bd 61 ab 57 3e
       -0.05078683 0.06613882 -0.069403574 0.2106147
000220 d0 e0 67 3d 54 5e 21 3d 1e 57 61 bd fe c5 7b bd
       0.056610882 0.0393966 -0.055014722 -0.061468117
000230 61 50 90 3d 24 a9 6d 3d aa 7c 50 bd bf 9c 53 bd
       0.07046581 0.058022633 -0.05090014 -0.051663157
000240 6f 8d bc bc db c6 60 3d ea 35 a4 bd ad 30 df bc
       -0.02301666 0.054877143 -0.08018096 -0.02724489
000250 b8 eb 3c 3d e0 d1 f5 bc be 42 ea 3c 6b ab b5 bc
       0.046123236 -0.030007303 0.028596278 -0.022176465
000260 52 56 a1 bd 48 99 37 bd e9 5c 8a bd d6 16 94 3c
       -0.078777924 -0.044823915 -0.067560025 0.018077295
000270 b8 83 7d 3c de 4a dc bd 9f 34 0f bd a3 fc 35 3d
       0.015473299 -0.10756467 -0.034962293 0.044430386
000280 ce a2 92 bd 78 60 23 be 1f d9 30 bd 87 77 13 bd
       -0.07159959 -0.15954769 -0.043175813 -0.036002662
000290 3d b5 40 bd 92 22 27 bb d2 36 19 3d 8d 45 fb 3a
       -0.047047842 -0.0025502783 0.037405796 0.0019170508
0002a0 1b a0 d0 bb bb 14 7d 3c 97 28 2c bd 78 07 ba bd
       -0.0063667423 0.015446837 -0.042030897 -0.09083456
0002b0 fa 7a 18 bd f9 10 84 3e 88 48 19 3d 94 bd cf bc
       -0.037226655 0.257942 0.037422687 -0.025358953
0002c0 25 3d 8d bc 3b d6 99 3d 2b ae ce 3c 9a 64 a3 bd
       -0.01724107 0.07511564 0.025229534 -0.079781726
0002d0 57 1e eb 3c 3d 13 fe 3c fa 7d 16 bb 9a 8f 3c bc
       0.02870099 0.031015033 -0.0022963271 -0.011508847
0002e0 94 c8 33 bd 79 5c 77 3c 89 73 98 3d 80 b5 93 bd
       -0.043892458 0.015097731 0.074439116 -0.07212353
0002f0 af bc 20 bd 42 1c 3d bd 6e f9 8e bd a8 0f 0a 3c
       -0.039242443 -0.046169527 -0.06981169 0.008426584
000300 2d 60 72 bd 7b b9 46 bd 89 65 64 3c b5 8a 7f 3d
       -0.05917375 -0.04851673 0.0139402235 0.06238814
000310 bf 58 99 3d 29 3d 94 bc 40 f9 8a ba 16 e0 92 3d
       0.0748763 -0.01809557 -0.0010602847 0.07171647
000320 c6 03 0a bc 9f 6e 26 be a3 e3 6c bd 0f a6 20 bc
       -0.008423751 -0.16253136 -0.05783428 -0.009805216
000330 73 af 68 3d e1 9c bf 3a 66 09 22 bd b0 21 f5 bc
       0.056807946 0.0014618897 -0.039559744 -0.02992329
000340 cb a7 d1 bc fe 7c b0 3c 84 ea 59 bd 88 39 5d 3c
       -0.025592705 0.021543976 -0.053202167 0.013502486
000350 76 c2 85 bc 3c d1 39 3e bc 16 a4 ba 6a 61 ee bc
       -0.016328078 0.18146223 -0.0012518982 -0.029099185
000360 da b7 85 bd b4 d4 16 3c ac 54 88 bd 7c 4e 7d 3b
       -0.065292075 0.009205986 -0.06656775 0.0038651517
000370 b6 06 6b bd b2 1c e0 bc 50 e3 48 bd 64 29 49 bc
       -0.057379447 -0.027357433 -0.049044907 -0.012277935
000380 cb 99 62 3d 29 d7 38 bd 4e bd 02 bc 27 e6 88 bd
       0.05532245 -0.045127068 -0.007979704 -0.06684523
000390 35 42 56 bc 38 5f a4 3c ed ad 04 bd 66 df a3 bc
       -0.013077308 0.020064935 -0.03239243 -0.020003986
0003a0 2f 6b 03 3d fd ad 3e 3c cc 49 82 3d 33 1f 0c bd
       0.03208464 0.011638162 0.06361732 -0.03420944
0003b0 89 a4 ac bc 61 33 c7 bd 32 d7 9d 3b 8e 85 1d 3d
       -0.02107455 -0.097265966 0.004816913 0.038457446
0003c0 79 1d 53 bc 33 56 e0 bc c6 06 29 3d 93 2e da bd
       -0.012885445 -0.027384853 0.041266225 -0.106534146
0003d0 9a db 91 3d 72 ac 86 bd fe 6a 6a 3d a7 dc 17 3d
       0.07121964 -0.0657586 0.057230942 0.037075665
0003e0 45 67 67 bc 78 67 2c 3c b3 79 3b 3d ae 04 0c bd
       -0.0141237425 0.010522716 0.04577036 -0.03418415
0003f0 18 58 2d 3c 35 51 e3 3d ca 8f 3c bd 17 7d c4 3b
       0.010580085 0.110994734 -0.046035565 0.005996357

conv2d.bias f4 [16]
000000 05 34 5a bd a2 be da 3d 7f a8 87 bb 95 59 c1 3d
       -0.053272266 0.106808916 -0.0041399593 0.094409145
000010 3b d9 3c bd fb 48 95 bd a7 c6 4a bd 4e 7f 44 3d
       -0.046105605 -0.072893105 -0.049505856 0.04797297
000020 c8 2b 0a bd c0 30 2b 3d f6 59 38 bd e4 15 35 bc
       -0.03373316 0.04179454 -0.04500767 -0.011052582
000030 48 15 9d 3c 17 92 a8 3d 7d 08 dc bc b7 d9 8f bb
       0.019175187 0.082309894 -0.026859516 -0.0043899673

conv1d_1.weight f4 [16, 16, 4]
000000 44 5f 27 3e 7e 38 e2 bc 74 d0 af 3d d2 e2 56 bd
       0.16344935 -0.027614828 0.08584681 -0.052462406
000010 5f 91 cb 3d dc 06 a8 3d 0d c6 60 3e 68 b6 de 3d
       0.09939837 0.08204433 0.2195055 0.10874635
000020 e2 0b 85 3d 8f 39 6e bd 79 f9 1b 3d 9f 0d 7e bd
       0.06496407 -0.05816036 0.038079713 -0.06202471
000030 cc b0 e3 bc b3 36 bb bc 9e 88 82 bd 01 3f 21 3d
       -0.027794264 -0.022853231 -0.06373714 0.039366726
000040 93 ac fe bd 0a a2 9c 3d a7 28 aa bb 25 9d 4e 3d
       -0.1243526 0.07648094 -0.0051928344 0.050442833
000050 0d fd 3d bd 28 07 a5 ba c1 d4 00 3c a4 41 97 bd
       -0.046383906 -0.0012590634 0.0078632245 -0.07385567
000060 1d 9b c2 3d ca 1e 1f 3e 12 ee 8b 3d 43 ea dc b9
       0.09502242 0.15539089 0.06832518 -0.00042136209
000070 40 9e b8 3d 1e 29 57 3c cb 52 07 3d 5d 34 10 3e
       0.09014559 0.013132362 0.033037942 0.14082475
000080 b6 ed 0e 3e 89 a6 b4 bd 7c e3 09 3e 01 52 eb 3d
       0.13957867 -0.088208266 0.13465685 0.114902504
000090 5e 51 f7 3d 3f c4 95 3d f1 a5 3b 3d 9f 67 03 3e
       0.120760664 0.073128216 0.04581255 0.12832497
0000a0 86 e8 c1 bd 53 e6 df bd 03 7a 62 3d 6f 5b f3 bd
       -0.094681785 -0.10932603 0.05529214 -0.11882674
0000b0 ac 6b a8 3d fa 89 8e 3d ca f4 22 3e 1d eb f4 3d
       0.08223662 0.06959911 0.15913692 0.11958907
0000c0 fe fc 0c 3e f6 8a 7f bd 6d ae 31 bd 77 43 3c bc
       0.13768384 -0.062388383 -0.043379236 -0.011490694
0000d0 8e 39 38 3c 34 c2 9a 3d 48 0b 50 bd 6a 30 d9 3b
       0.011244191 0.075565726 -0.05079201 0.006628086
0000e0 78 c0 9c bd 0b d5 0f 3e bb 90 87 3d 85 da bd 3d
       -0.07653898 0.14046113 0.06619402 0.09270195
0000f0 18 c2 14 bd 6b c4 94 3d 44 ee 00 3d 36 25 3f bd
       -0.036317915 0.07264026 0.031477228 -0.046666346
000100 9d 2c e7 3d d1 7c 84 3d e0 b2 ad 3d b1 b8 96 bb
       0.11287806 0.06469119 0.08481383 -0.0045996537
000110 14 33 c2 3d 56 f5 89 bc 1c 41 b3 3d 6f 20 5c bd
       0.09482399 -0.016840618 0.08752653 -0.05374187
000120 e1 69 9a 3d 31 f2 0f 3e 5c 38 c4 3d 68 82 e2 3d
       0.07539726 0.14057232 0.09581062 0.11060029
000130 68 1f 9e 3c 33 89 90 3d ff b0 87 bc be 8d 81 bc
       0.019302085 0.07057419 -0.01656389 -0.015814658
000140 63 3f d3 3d 30 fe 4d bd f0 bd b3 3b 3a 82 c9 bc
       0.103148244 -0.05029124 0.005485289 -0.02459823
000150 44 2e 75 3c fb 31 27 3d 5e 50 02 be 6a cb eb bd
       0.014964644 0.04081915 -0.1272597 -0.115134075
000160 f1 12 4c 3e 7b 26 8f 3d dd 3a c1 3c 56 f6 3c 3e
       0.199291 0.069897614 0.023587639 0.18453345
000170 54 53 ed 3d 92 19 9c bd 06 6a d7 ba c2 7c 26 bd
       0.11588159 -0.07622065 -0.0016434796 -0.040646322
000180 88 37 ca 3d 3f a1 7c bc c6 7f 08 3e ee ba a3 3d
       0.09873873 -0.015419303 0.13329992 0.079946384
000190 3f 5f d4 bc 22 1b 0b bd 6a 18 80 3d 29 4c a7 3d
       -0.025924323 -0.033961423 0.062546566 0.08168823
0001a0 8e 26 ff 3d 97 6a ec bc f2 b8 07 3e fa c2 a9 bd
       0.124585256 -0.02885942 0.13254145 -0.08289142
0001b0 99 d7 7d bd 59 6b 3d bd fc 44 9a bd f3 31 5e 3b
       -0.061973188 -0.046244953 -0.07532689 0.0033904284
0001c0 90 40 9f 3d 3c 50 1c 3d e1 61 96 3b 5c 20 e9 3c
       0.07775986 0.038162455 0.004589305 0.028457813
0001d0 f0 ac b8 bd 73 a5 40 3d 7b 9a 01 3e 4e 94 fd 3b
       -0.0901736 0.047032785 0.12656586 0.0077386266
0001e0 15 37 4f 3d 4a ab 43 3d a8 d2 ea 3d 2c d9 a3 bd
       0.05058964 0.047770776 0.11465961 -0.080004066
0001f0 32 3e 64 3b c0 a3 35 3c 53 a0 90 3d 43 43 df bc
       0.003482711 0.011086404 0.070618294 -0.027253753
000200 d6 81 ba bd 75 a1 fd 3d 05 fa b9 bd 48 f7 15 3e
       -0.091067955 0.12384311 -0.090808906 0.14645112
000210 34 7f c5 3d d8 d2 d3 3d c0 5d 95 3c eb 42 67 bd
       0.09643403 0.1034295 0.01823318 -0.056460302
000220 83 04 e7 3d 01 89 28 3e 97 17 2d 3e b6 4b 0c 3e
       0.112801574 0.16458513 0.1690353 0.13700756
000230 fa de af 3d 52 06 b7 3d 10 86 db 3d cc 5c 9a 3d
       0.08587451 0.089367524 0.1071893 0.07537231
000240 7d 0b 7a 3c 96 0e 05 3c 6a fd 17 3d 78 7d eb 3d
       0.015261528 0.008121153 0.03710691 0.11498541
000250 74 42 8f bc 94 01 cf bd 43 a6 5f bd c3 53 2b bd
       -0.017487742 -0.10107723 -0.05460192 -0.04182793
000260 c5 60 01 3e e8 12 e5 3d ec 36 69 3d 4a 95 fa 3c
       0.12634571 0.11185247 0.056937143 0.030588765
000270 4e d7 9c bb 84 cb c7 bd 47 47 8f bc 91 3a 77 bd
       -0.0047864085 -0.097556144 -0.017490042 -0.060358588
000280 c5 c9 d4 3d f2 1e 3d bd 6f c4 e1 3d 62 45 a4 3d
       0.10390047 -0.04617209 0.11023795 0.08021046
000290 ff ff 03 be 7d 92 c8 3d cd 8e ee bd e0 4f a4 bd
       -0.12890624 0.097935654 -0.11648331 -0.080230474
0002a0 f7 6a 48 bd 59 d1 81 3d 8f 54 d9 3d 90 39 13 3e
       -0.048930135 0.06338758 0.106118314 0.14377427
0002b0 84 32 b6 3d 5b 97 d8 3d bd 49 03 b9 5d a9 0a 3d
       0.08896354 0.10575744 -0.00012520603 0.033852924
0002c0 45 6b a1 3d 85 aa aa bd 4b 42 8c 3c 7a 78 fc 3c
       0.07881788 -0.08333305 0.017121455 0.030819166
0002d0 71 09 17 bd 8f e6 ef bc 13 90 38 bd da 5f cc 3d
       -0.03687424 -0.029284744 -0.045059275 0.0997922
0002e0 fb 48 2d 3d e5 a6 2a bc 76 d0 dd 3b ca ad 55 bd
       0.042305928 -0.010415767 0.0067692352 -0.05216769
0002f0 d0 c6 3e 3e 9d d2 8c 3d 12 c1 10 3e 90 4b bb 3d
       0.18630528 0.06876109 0.1413615 0.09145272
000300 3a 51 9e 3d 17 8f 65 bd ca ef 49 3d ca 5d 7c bd
       0.077303365 -0.056044664 0.049300946 -0.06161288
000310 65 23 55 3e 19 14 31 3e 65 5f 1f 3d 20 3b 6f 3d
       0.20814283 0.17292823 0.038909335 0.058405995
000320 4d 2b 16 bd cf 94 0d bd bd 61 89 3d f2 8c 1b bc
       -0.03666239 -0.034565743 0.06708095 -0.009494053
000330 f9 64 33 3d 21 23 8d 3d 0c 49 01 3b 73 f6 a5 3d
       0.043797467 0.06891466 0.0019727377 0.08103647
000340 dc 85 39 3d 3d f5 d9 bc b4 0d 13 3e db 82 9a bd
       0.045293674 -0.026606197 0.14360696 -0.0754449
000350 ef 21 b1 bc b6 23 65 bd 19 74 09 be 0d e6 cb 3c
       -0.021622626 -0.05594226 -0.13423194 0.02488997
000360 e6 6f 9c 3d db d2 47 3d 5e 60 fa 3b bd f1 38 3e
       0.076385304 0.04878507 0.0076408824 0.18060966
000370 69 57 97 3d 55 00 a8 3d bf 44 ce bc 7d 63 82 3d
       0.07389719 0.08203188 -0.025179265 0.06366632
000380 cf fb fe bd 34 a2 f3 bc c8 61 9c bd cf b9 9d 3c
       -0.124503724 -0.02974043 -0.07635838 0.01925364
000390 7d 63 55 bd e8 4b ea 3b 2e 80 3b 3e 6e 7e cf 3d
       -0.052096833 0.007150162 0.18310615 0.101315364
0003a0 63 d5 3e 3c 69 5c 60 3d 9e 59 fa 3d f5 2f 8e bc
       0.011647555 0.05477563 0.12224124 -0.017356852
0003b0 13 33 75 bd 9e 29 13 3e 2a 5d 85 3d 69 41 8f 3d
       -0.05986316 0.14371344 0.0651191 0.06994898
0003c0 41 ce 39 bd 8e 2d 38 bc ef 9c c2 bd 18 b9 77 3d
       -0.045362715 -0.01124133 -0.09502589 0.060479254
0003d0 05 00 7c 3d 76 78 0a 3e 3e 85 0c bd 54 79 ef 3c
       0.061523456 0.13522515 -0.034306757 0.029232658
0003e0 66 40 5c 3d 79 5e ae 3d de 6b c7 bd 8a 86 96 3d
       0.053772353 0.08514113 -0.09737371 0.0734988
0003f0 f0 fb ec 3b 2e b6 b5 bc 8e 48 a6 bd 74 25 e1 bc
       0.0072321817 -0.022181597 -0.081193075 -0.02748368

conv1d_1.bias f4 [16]
000000 33 fc fb 3d 5b 8c b4 3d b2 3d 11 3a 96 fb be bb
       0.123039626 0.08815833 0.00055405044 -0.005828331
000010 01 83 28 bd 97 59 99 3b 24 25 18 3b 4e 38 84 3d
       -0.04114056 0.0046798694 0.0023215497 0.06456052
000020 25 91 7d bc 30 9f e0 bc 04 df 94 bc d1 d4 c6 3d
       -0.0154765 -0.027419657 -0.018172748 0.0970856
000030 72 78 f7 3d b3 cc c7 3d 78 e7 ad 3d 07 db 86 3c
       0.1208352 0.0975584 0.08491415 0.016461862

conv1d_2.weight f4 [32, 16, 3]
000000 78 83 aa 3d f6 e0 26 3e 3f 9e 01 3e d0 2f 3a bd
       0.08325857 0.16296753 0.12658022 -0.045455754
000010 c2 10 05 bc ae c4 e3 bb 10 21 07 3e f5 c8 85 bd
       -0.008121671 -0.0069509363 0.13196206 -0.0653247
000020 66 bd 0a be 96 dd cf bd ef 26 ee 3d 1b 66 16 bc
       -0.13548812 -0.10149686 0.1162852 -0.009179617
000030 25 80 00 bd 1d b4 cc bd 4d 55 22 bd d2 e5 40 3e
       -0.03137221 -0.099952914 -0.03963213 0.1883767
000040 b0 96 b5 3d 7a 1b 15 3c 0e 95 8b 3d 8d de 5e bd
       0.08866632 0.009100789 0.06815539 -0.05441146
000050 6d 5e 15 3e 67 0f ef bd 2f 03 ae bc 58 17 00 3e
       0.14586802 -0.1167286 -0.021241752 0.12508905
000060 34 10 c9 3c 4f a7 d7 3d 43 2b e0 bc 8e d6 02 3e
       0.024543859 0.105299585 -0.027364379 0.12777159
000070 3b 5a 22 3e 34 42 46 bd 07 70 d7 3d f4 39 41 bc
       0.15854733 -0.04840298 0.105194144 -0.011793602
000080 78 21 d8 bd 4d 27 00 3d a3 c8 60 3d a3 40 60 bc
       -0.10553259 0.03128748 0.054878842 -0.013687286
000090 18 3b e8 bd 64 d5 80 3c f0 c3 27 3e 0d 83 ac 3d
       -0.11339396 0.015726753 0.16383338 0.084234335
0000a0 10 d0 2e 3e 77 44 56 bd be 2c 06 3e ee 4b a5 3d
       0.17071557 -0.052311387 0.13103005 0.08071123
0000b0 7b 6d bc 3d 25 2d ab 3d 60 29 b9 3d db 7a 27 3e
       0.09200569 0.0835822 0.09041095 0.1635546
0000c0 31 d5 f2 3d b5 cb b2 bd 19 d2 92 bd f7 7c bf 3d
       0.11857069 -0.0873026 -0.07168979 0.09350007
0000d0 00 70 3d 3d f7 87 02 3e a7 70 64 3e 97 a1 db bc
       0.04624939 0.12747179 0.22308598 -0.02681045
0000e0 05 4a 20 bd 54 d9 fc 3d 11 e0 11 3e 91 1c 0c 3e
       -0.03913309 0.123461396 0.14245631 0.13682772
0000f0 8b 47 29 bc f1 87 32 3e 0e 30 18 3e 35 2d 1b 3d
       -0.010331999 0.1743467 0.14862081 0.03788491
000100 4a 97 2f 3e 0a 00 32 3e 41 60 be ba ce 5b 25 bd
       0.17147556 0.17382827 -0.0014524536 -0.040370755
000110 45 49 21 bc b1 7c e7 bd 6f 44 ad bd 19 59 db bd
       -0.009844129 -0.1130308 -0.08460318 -0.107103534
000120 35 c1 b0 bd e2 cb 0d 3e 57 48 93 bd af c2 39 3e
       -0.08630601 0.13847306 -0.07191532 0.18140672
000130 a4 1d 72 bb d3 46 7b 3d 59 01 e8 3d 74 60 84 3d
       -0.0036943937 0.06134684 0.11328382 0.064637095
000140 37 6c 10 3e 43 75 55 3e d3 27 e5 3d 48 fd 5d 3e
       0.1410378 0.20845513 0.111892365 0.2167865
000150 09 c7 9e bc 40 56 9a 3d e3 ca 94 3d f4 96 b5 bd
       -0.019382017 0.07535982 0.0726526 -0.08866683
000160 59 b5 b4 3d 95 6c 45 3d b2 ab ed bc a0 85 f5 3b
       0.08823652 0.048199255 -0.029012535 0.007492736
000170 88 29 69 bd a2 7e 1e 3e 9a db 0c 3c 9b 20 aa 3c
       -0.056924373 0.15477994 0.008597279 0.0207675
000180 1c 5c c9 bc 67 cc 22 be 02 34 0c be 33 eb c4 3d
       -0.024580054 -0.15898286 -0.13691714 0.09615173
000190 5e a7 a8 bd 20 69 a0 bc 33 9c c9 bc e0 5c 02 3d
       -0.08235048 -0.019581378 -0.024610614 0.031826854
0001a0 9b 04 e9 3d c0 05 03 3e 05 6c 03 3e 79 01 e8 3d
       0.113778315 0.12795162 0.12834175 0.11328406
0001b0 00 c4 f0 3d 6d b3 8f bd 31 0e 05 be 14 d0 5e 3d
       0.11756134 -0.070166446 -0.12993695 0.054397658
0001c0 81 37 32 3e 89 93 4f 3d 6f 55 8b 3c f1 03 06 be
       0.17403986 0.05067781 0.017008511 -0.13087441
0001d0 0d 25 94 bc 59 3e c7 3d 2c 71 5e 3e 2f a1 97 bb
       -0.018084073 0.09728689 0.21722859 -0.004627369
0001e0 f4 89 0c be b2 86 2a be 52 46 1d 3c df 91 9b bd
       -0.137245 -0.16652945 0.009599285 -0.07596182
0001f0 68 d4 c7 bc 43 59 c5 3d c4 10 91 3c cb e8 21 be
       -0.024393275 0.09636166 0.01770819 -0.1581146
000200 20 d6 fc bd 9b 50 eb 3d d9 d2 e2 bd 08 aa b7 3c
       -0.123455286 0.11489984 -0.11075372 0.022419944
000210 66 81 a1 3b ea e7 82 3c 19 3e cf bd 96 3d 98 3d
       0.0049287556 0.015979726 -0.10119266 0.074336216
000220 e4 94 ca 3d 0d 9c dd 3d 8b cb 1f bd 38 52 e5 3d
       0.0989168 0.1082078 -0.039012473 0.111973226
000230 00 06 8f bd cc d8 e7 3d 52 50 78 bd 9b 68 e1 3d
       -0.06983566 0.113206476 -0.060623474 0.1100628
000240 4d 8b ef bd 83 c9 c6 bd 23 b8 e6 bd 16 77 ce 3d
       -0.116964914 -0.09706404 -0.1126559 0.100813076
000250 d7 ff 56 3d 70 c2 c5 3d f7 a7 16 3e 73 2c 6c 3d
       0.05249008 0.09656227 0.14712511 0.057659578
000260 91 2d ab bd 49 66 81 3d b4 8c 26 3e 21 5d 02 3e
       -0.083583005 0.063183375 0.16264611 0.12730838
000270 49 9a 0a 3d 28 2a e9 3d a1 8d 94 bc a7 a3 c1 3d
       0.033838544 0.11384994 -0.01813394 0.09455042
000280 e0 7b ba 3d f1 19 10 bd f8 ad 87 3d 30 49 09 be
       0.091056585 -0.03518099 0.06624979 -0.13406825
000290 d9 7e a2 3d 73 5c 59 be c8 3e 19 be 58 9e b7 bc
       0.079343505 -0.21226673 -0.14965355 -0.022414371
0002a0 f3 34 ae 3d 85 6f b3 bd dd c5 bf bd e5 13 d6 3d
       0.08506193 -0.08761505 -0.09363911 0.10453013
0002b0 57 bf b8 3d 6c 6f 70 bd 47 f9 86 bd a9 3b 9d 3d
       0.0902087 -0.05870001 -0.06590515 0.07677395
0002c0 b2 e7 b6 bd 95 d2 3a bd 5a 38 09 bc a4 3e e3 3d
       -0.08930911 -0.045610983 -0.008375252 0.11095932
0002d0 ff 94 d5 3d eb 66 81 bd f1 46 04 3c f2 2b ed 3c
       0.104288094 -0.06318458 0.008073554 0.028951619
0002e0 29 97 e5 bd 4f 34 ca bd d8 6e 0f 3e 1a ff b7 bd
       -0.11210472 -0.09873258 0.14007127 -0.08984204
0002f0 b8 2f f8 3d 9b 3c b4 3d f9 22 f3 bc 83 b6 e6 3d
       0.12118477 0.08800622 -0.029679762 0.1126528
000300 b4 20 a2 3d 52 6c 0a bd 74 f6 1b 3e 2d b0 29 bb
       0.07916394 -0.03379471 0.15230733 -0.0025892362
000310 d9 c4 f7 3d 51 bd 46 bd a0 b1 3b be a4 4d a7 bd
       0.120980926 -0.04852039 -0.18329477 -0.08169106
000320 9b 46 b7 bd 95 46 1f 3d 20 96 81 bc 47 88 13 be
       -0.08949014 0.03888567 -0.015818655 -0.14407454
000330 5b cf f2 bd 5d b0 cb bd 9e ef a3 bd b2 79 2e be
       -0.11855956 -0.09945748 -0.08004688 -0.1703861
000340 83 aa ab bd 6a 62 36 bd d8 b4 14 be ab c6 90 3d
       -0.08382132 -0.04452745 -0.14522111 0.07069143
000350 b6 68 28 be 81 59 6d 3d 9d 07 50 3d 95 f1 d6 3d
       -0.16446194 0.057946686 0.05078851 0.10495297
000360 d9 b3 31 be ed 3b e3 3c 7f b3 ab bd f4 f2 c4 bb
       -0.17353763 0.027738536 -0.083838455 -0.0060104076
000370 83 0e 28 3d db 65 aa 3d ca 3b c3 bd 38 c2 06 be
       0.041029464 0.08320209 -0.09532888 -0.13160026
000380 67 34 37 be 80 6f 6d 3d 07 04 ab bd 83 70 cf bd
       -0.17891084 0.057967663 -0.083503775 -0.10128882
000390 70 95 4a bd 1f ff 8c bd 7a 71 60 bc 7d 9a 3b 3e
       -0.04945892 -0.06884598 -0.01369893 0.18320651
0003a0 20 b4 33 3e 8b 75 6c 3d 18 0f 9c bd 73 46 46 be
       0.17549181 0.057729285 -0.076200664 -0.19362812
0003b0 b2 3d 82 be 41 11 f6 bd d6 11 ee bd d6 b8 88 bd
       -0.25437695 -0.1201501 -0.11624496 -0.0667588
0003c0 c2 77 c6 3d f3 16 a3 bd c9 57 16 3c ca ea a7 bd
       0.09690811 -0.079633616 0.009176203 -0.08199079
0003d0 ee 2f 80 bd a0 c8 de bb 80 2e 53 3d 8f ea 8c 3d
       -0.06259142 -0.0067988187 0.051558018 0.06880676
0003e0 f7 a2 b4 3d 80 94 e2 bd f0 13 b7 bd cd c5 55 bd
       0.088201456 -0.110634804 -0.0893935 -0.05219059
0003f0 12 55 a2 3d 56 f5 8f bc 97 6f d3 bd f5 1b f0 bd
       0.07926382 -0.01757304 -0.103240184 -0.117240824

conv1d_2.bias f4 [32]
000000 0c 55 c2 bd 42 6e 3d 3d f6 79 2f bd d9 95 cd 3d
       -0.09488878 0.04624773 -0.04284092 0.10038347
000010 51 49 3a 3e 18 a1 bd bd 66 19 f8 bd e5 db 12 3e
       0.1819203 -0.09259242 -0.12114219 0.14341696
000020 08 28 92 3e 8f f0 1d 3e e3 c1 39 3e 33 c3 af 3d
       0.28546166 0.15423797 0.18140368 0.08582153
000030 fc c5 99 3d f9 10 00 3d 8a 83 df bb 2a cb 8c 3c
       0.07508466 0.031266186 -0.0068211006 0.01718672
000040 b6 6f 27 3e 31 3a 8e bd d5 65 60 3e 32 df 09 3c
       0.16351208 -0.06944693 0.21913846 0.00841503
000050 a6 e7 ee bd de 41 8e bc 77 ee cf 3d 7b 9b 6a 3e
       -0.11665277 -0.017365392 0.101529054 0.22910874
000060 40 4b 0e 3e dc ca 17 3e 48 7f 46 3c 30 f3 2f 3a
       0.13895893 0.14823478 0.012115307 0.0006711958
000070 39 fa 72 bd 41 68 be bd 25 61 49 bd 0e 58 94 bc
       -0.059320662 -0.092972286 -0.04916491 -0.018108394

conv1d_3.weight f4 [32, 32, 3]
000000 bd 22 05 3d 1a c3 3d 3d 6d 48 d2 bd a6 f9 a7 3c
       0.032503832 0.04632864 -0.1026772 0.020504784
000010 2a 6f 1d 3d 72 7e f2 bc f9 69 16 3e 65 b1 0d bc
       0.038436092 -0.02960131 0.14688863 -0.008648251
000020 e4 2c 2a 3e f0 c7 a3 bb 9f 3e 0d 3d 59 e4 a6 bd
       0.16618687 -0.0049981996 0.03448355 -0.081490226
000030 76 a5 8e 3e 4f 99 ef 3d ce fb 3d 3e 7c 24 c3 bc
       0.27860612 0.11699163 0.18553087 -0.023821108
000040 e3 d6 e7 bd cf 53 82 3d da c0 25 3d 58 f8 ef bc
       -0.11320283 0.063636415 0.04046712 -0.029293224
000050 b7 2a 19 3d 24 76 b1 bd db 56 1a 3d 01 07 15 bd
       0.03739425 -0.08665112 0.037680488 -0.036383633
000060 f3 b2 60 3e 09 50 3e 3e f2 0a b9 3d 9a c5 ed 3d
       0.21943264 0.18585218 0.09035291 0.11609955
000070 eb 1e 21 bd 6e 0a 84 3c 6b c7 80 bc 74 70 52 3d
       -0.039336126 0.016118255 -0.01572009 0.051376775
000080 57 1e 5f 3d 47 c3 cb 3d 49 31 7f 3d 49 12 04 3e
       0.054472294 0.099493556 0.06230286 0.128976
000090 e3 f0 81 3d 77 e6 e5 bc a7 80 c9 bd b9 58 ac bd
       0.063447736 -0.028063996 -0.098389916 -0.0841536
0000a0 13 c4 14 3d c1 1c cc bd 3d 43 47 3d 41 17 8a bd
       0.036319803 -0.09966422 0.048648108 -0.067427166
0000b0 23 f8 95 3c 66 7b 7e bd 4f 23 0e bc e2 e5 c8 bd
       0.018306797 -0.0621294 -0.00867541 -0.09809472
0000c0 3d 9b 39 bc b2 74 d2 3c a8 cd 66 3d 44 e7 c1 bd
       -0.011328516 0.02569041 0.056348473 -0.094679385
0000d0 90 a7 36 bd e1 80 6b 3d c6 74 55 3e 52 05 24 3e
       -0.044593394 0.057495955 0.20845327 0.16017655
0000e0 63 7d 99 3e 73 9e ec 3d f4 c3 ec bc 6a 2a 33 3c
       0.29978475 0.11553659 -0.028902031 0.010935405
0000f0 66 35 dd bd 74 6a 75 bc 6c 5a 34 bd a4 7b 49 3d
       -0.108012006 -0.014978994 -0.044031546 0.04919018
000100 fe 37 93 3d 09 2c 2e 3d 54 f0 72 3d 67 76 dc bd
       0.07188414 0.042522464 0.059311226 -0.10764771
000110 22 b6 a3 bd fa 7e fb 3d 0f e0 d2 3d 8f 72 09 3e
       -0.079937235 0.12280078 0.10296642 0.13422607
000120 13 0a 97 3d 1c 67 73 bd 12 63 9c bd c1 37 00 3e
       0.073749684 -0.059424505 -0.07636084 0.12521268
000130 73 28 28 3e ab fe d0 3c a1 8d 92 bd 23 5f 63 3c
       0.1642168 0.02551206 -0.0715592 0.013877663
000140 8b c6 32 bb f3 ee da bd 3b 0c 73 3d a1 e3 eb bd
       -0.0027278985 -0.10690107 0.059337836 -0.11518026
000150 71 2b 89 bd c9 bc 99 3c 09 ae 7e 3b aa eb 26 3c
       -0.06697739 0.018766778 0.0038861057 0.010188023
000160 dc a1 bb bb b2 3b a0 bc 83 ab 3c bd de 92 73 b9
       -0.0057260823 -0.019559715 -0.046062004 -0.00023228998
000170 72 44 a9 3d d1 7f 97 3d ee 86 56 bc e6 24 7e 3b
       0.08265008 0.07397426 -0.013093693 0.0038779317
000180 36 03 d9 3c 25 92 83 3d 74 ba c5 3d f9 cb 58 3d
       0.026490789 0.06424359 0.09654704 0.0529289
000190 df 82 4a 3c 04 ee 84 bb fc 1e 36 bd e0 6e db 3b
       0.012360304 -0.004056694 -0.044463143 0.006696567
0001a0 f5 3a 17 bd d4 75 b7 bd c2 21 4c bd ad 62 cf bd
       -0.03692146 -0.08958021 -0.04983688 -0.10126243
0001b0 ab 91 d8 ba 52 ea 22 bd 55 56 c8 bd d4 b0 a7 bd
       -0.0016522905 -0.039774247 -0.097820915 -0.08188024
0001c0 d3 4a 98 bd 56 17 20 be 0d 84 eb 3c dc 59 59 3d
       -0.074361466 -0.15633902 0.02874949 0.053064212
0001d0 7e 82 76 3d 63 31 ad bd 07 3a cc bd f6 26 e5 bc
       0.06018304 -0.084566854 -0.09972005 -0.02797268
0001e0 48 36 30 3d dd d4 d8 bd 59 4b e9 bd ec 72 7f bc
       0.043020517 -0.105874754 -0.113913245 -0.015591364
0001f0 40 11 aa 3d 94 60 17 bd 21 51 e4 3b f5 c4 4a 3d
       0.083040714 -0.03695734 0.006967679 0.04950424
000200 7b 11 62 bd b3 6b 3f 3d 02 4f ed bc b2 90 6f 3d
       -0.055192452 0.04673357 -0.028968338 0.0584876
000210 90 fb c6 3c 15 bc 98 bc 1a 60 b6 bd 7e 55 ad bd
       0.024289876 -0.018644372 -0.08905049 -0.08463572
000220 e2 40 a9 3d 4f 54 95 bd f3 3d ed bc db 27 9b bd
       0.082643285 -0.07291471 -0.028960204 -0.07575961
000230 e7 ad 14 3d 98 a0 55 3d e7 2c 5e 3d 98 8b a9 ba
       0.03629866 0.052155107 0.05424204 -0.0012935279
000240 c4 c7 a6 3d 5e 49 b3 bd 08 b9 98 3d 11 6b 51 bd
       0.08143571 -0.08754228 0.07457167 -0.051127497
000250 f6 73 b8 bd ad 94 35 3d 94 e7 01 be 1a 8b 1d be
       -0.09006493 0.04433124 -0.12685996 -0.15385094
000260 c4 1d ec bd ab f0 d4 3c aa dc 9a bd 81 e1 09 be
       -0.11529115 0.025993666 -0.075616196 -0.13464929
000270 8c d6 8b bd 60 9c bd 3d 7e 23 66 bd c3 3e 33 3b
       -0.06828031 0.09258342 -0.05618619 0.0027350641
000280 06 02 87 bc d1 d6 18 3d 28 cd 8a 3d 0e d3 04 bd
       -0.016480457 0.03731424 0.06777412 -0.03242784
000290 4f da be bd 6b 0d 22 bd 68 f8 a7 3d e6 98 ab 3d
       -0.09318983 -0.039563578 0.082016766 0.083787724
0002a0 02 d2 0b 3d d4 25 85 3d eb 9b d0 bd ee bd 93 bd
       0.034135826 0.06501356 -0.10185989 -0.072139606
0002b0 7b 8c 0a bd 80 ed 2c 3d ea c1 77 bd 23 e7 a8 bd
       -0.03382538 0.042218685 -0.060487665 -0.08247211
0002c0 eb e9 c0 bd 16 64 8d bd 07 dd 15 3d 29 75 26 bd
       -0.09419616 -0.069038555 0.03658774 -0.040639076
0002d0 25 4b 65 bd 47 da 0b 3d c6 f6 9b 3d ee 8b ea bc
       -0.055979867 0.034143712 0.07615428 -0.028631177
0002e0 6f a0 bc bd 0a c4 81 3c 5a 82 c3 3d 39 fb c5 bd
       -0.09210288 0.015840549 0.09546347 -0.096670575
0002f0 5c da 88 3d 28 fb 8d 3d 86 56 b0 bd 59 a7 3c bd
       0.06682274 0.0693267 -0.08610253 -0.046058033
000300 aa 2f fa 3c 77 09 38 bd 9a 15 75 3d 42 31 c7 3d
       0.030540306 -0.0449309 0.059835054 0.09726192
000310 7c 6d 3d bd db 25 14 3d 4f b0 9c 3d 91 3f 3c bd
       -0.04624699 0.036168914 0.07650816 -0.04595906
000320 0b 16 c1 3d a4 b6 98 3c f2 27 ca 3d ac 54 a7 bd
       0.094280325 0.018641777 0.098709 -0.08170447
000330 d0 a3 1e 3d 55 d2 98 3d ab 5d ba 3d f0 bc 9c bc
       0.038730443 0.07461993 0.09099897 -0.019133061
000340 73 a0 55 bc d7 33 c9 3c 0b 29 86 3c 48 da c3 bd
       -0.013038742 0.024560852 0.016376993 -0.09563118
000350 3a 1a 9f bd 5c 53 ff bc 60 c7 b7 bd 09 eb 4d bb
       -0.07768674 -0.031167679 -0.08973575 -0.003142061
000360 d0 09 56 3d 02 ad 01 3e 05 2e a2 3d ff cb 5f 3a
       0.05225545 0.12663653 0.07918934 0.00085371727
000370 d6 a6 ce 3d df cc 87 bd c4 08 1d bd 7e 6a 65 3d
       0.10090415 -0.06630873 -0.038338438 0.056009762
000380 4f dd 11 bd 1f 2d 43 3d 76 23 8f 3d 3b ec f1 3d
       -0.035611447 0.047650453 0.069891855 0.118126355
000390 6e 22 81 bc 8a 85 40 bb 40 2f a2 bd 80 47 04 3d
       -0.015763488 -0.002937647 -0.079191685 0.03229475
0003a0 11 57 0f bc 97 dd 7a bd b8 a1 5a bd c6 0d 68 bd
       -0.008748786 -0.06124648 -0.053376883 -0.05665376
0003b0 a9 47 4c 3d 60 33 d2 bd 0b 1f aa 3d 17 d5 a0 3d
       0.049873028 -0.10263705 0.08306702 0.07853144
0003c0 ae 3d 54 bc 69 79 a4 3d 3f d4 7c 3c 5a 09 2b bd
       -0.012954159 0.0803097 0.015431463 -0.041756965
0003d0 fe b0 99 3d b5 4e bd bd e2 88 3a 3d 77 81 b8 3d
       0.07504462 -0.09243528 0.045540698 0.090090685
0003e0 b4 7c 57 3e 38 33 88 bb e6 c9 3d 3d ab fa 3a bc
       0.21043664 -0.0041564964 0.046335123 -0.011412303
0003f0 42 e3 b5 3d cd 8b b3 bc cd 20 e7 bc 86 81 6d bd
       0.088812366 -0.021917248 -0.028213883 -0.05798485

conv1d_3.bias f4 [32]
000000 23 bf 66 3b a2 bd 32 3d eb da 17 3e 78 2c ae bd
       0.0035209141 0.04363788 0.14829604 -0.085045755
000010 5f 08 f7 3d 98 df 9b bd 52 ce 8b 3c 2b ea ef 3d
       0.120621435 -0.076110065 0.017066155 0.11714586
000020 60 fa c2 ba ad 2d 50 3b 01 14 2c bd 96 a5 be 3b
       -0.0014875643 0.0031765506 -0.042011265 0.005818079
000030 02 83 38 3e 5b f3 f3 bc ba 73 1f 3d f3 1e 63 bd
       0.18018726 -0.029779127 0.038928725 -0.055449437
000040 bb 0b 00 3d dc 8f 7e bc 6b 15 af bb f8 d1 be 3c
       0.031261187 -0.015537228 -0.0053431294 0.02329348
000050 fa 4b db 3d fd 2d 76 3d 0f cc 7b bd f2 6b b0 3d
       0.10707851 0.06010245 -0.061473902 0.08614339
000060 9f 3d 40 bc 2a f5 49 bd c2 48 0d 3e 75 97 93 3b
       -0.011733442 -0.049306072 0.13797286 0.004504139
000070 77 40 f6 3d 1f 62 c6 3d ab fa b0 bc 52 17 78 3d
       0.120240144 0.09686684 -0.021603903 0.060569115

fc.weight f4 [3, 32]
000000 77 7b 00 be 29 38 13 3e f1 1a 29 be 0d 3e 7a 3d
       -0.12547098 0.14376892 -0.16514184 0.061094332
000010 d3 51 af bd b8 7c ec bc fb 56 2d bc a4 ea 80 be
       -0.085605286 -0.028868064 -0.01057982 -0.25179017
000020 3f 62 29 be 58 48 64 bc 88 1e 8e 3d b7 f3 24 be
       -0.16541384 -0.013933264 0.06939417 -0.16108595
000030 cd 17 65 be d3 37 2c 3e 8a 7b 85 bd 95 7b 12 3d
       -0.2237236 0.1681817 -0.06517704 0.03576239
000040 f1 d8 1c bd cb f0 13 bd 84 e6 d8 3d b8 d8 15 be
       -0.03829283 -0.03611831 0.10590842 -0.14633453
000050 7c ce c8 bc cb 35 57 be 5d 46 80 3d 4f 2c 24 be
       -0.024512522 -0.21016614 0.06263421 -0.16032527
000060 1c cb a8 bd 24 93 15 3e 2e 4e 74 be eb 17 1d be
       -0.08241865 0.14606911 -0.23857948 -0.15341155
000070 ae f6 01 bd e4 91 89 bd 39 a9 68 3d cb a3 98 3d
       -0.031729393 -0.067172796 0.05680201 0.07453116
000080 89 ac 57 3e ea c7 6f bd 4d 42 06 3e b0 0a 2a be
       0.2106191 -0.058540262 0.13111229 -0.1660564
000090 b0 7b 5a 3e f4 8f 9a bd e6 9c 91 3e f2 b5 96 3e
       0.21336246 -0.07546988 0.28440017 0.29435688
0000a0 76 75 0a 3e 40 1e 15 be 73 a9 32 3e 25 6e 38 bc
       0.1352137 -0.1456232 0.17447452 -0.011256729
0000b0 95 0b 0d 3e e1 c4 51 be 0a 68 3b 3e 0e 58 34 3e
       0.1377395 -0.2048526 0.18301407 0.17611715
0000c0 2a b7 af 3e d0 d8 82 be 6b a7 89 be cc 24 6c be
       0.3431943 -0.2555604 -0.26885542 -0.23060912
0000d0 e8 c1 45 3e 51 d1 7a 3e 96 c9 72 be c5 c0 99 be
       0.1931225 0.2449391 -0.23709711 -0.30029884
0000e0 67 14 54 be 8c 2d 71 be 52 0b 47 3e 96 0e 7d 3e
       -0.20710908 -0.23552531 0.19437912 0.24712595
0000f0 36 4b 4e 3e 96 04 13 3e 3f 9d 9b 3e 1a a2 68 be
       0.20145878 0.14357218 0.30393407 -0.22718087
000100 eb 61 ec 3c e1 9f 03 be 1f 2e 0b 3e af e9 71 3d
       0.028855285 -0.12853958 0.13591813 0.05906075
000110 97 9a 7f be 2b 8f 76 3d cc ce b0 bd 19 08 54 bc
       -0.24961315 0.06019513 -0.086331934 -0.012941384
000120 d7 fc c8 3c f0 63 07 3e 5c 44 0e be d3 1c 6e 3e
       0.024534626 0.13221717 -0.13893265 0.23253183
000130 9d 74 fa bd be f2 95 3d 58 82 a1 bc eb a9 38 3e
       -0.122292735 0.0732169 -0.019715473 0.18033569
000140 f8 29 b2 bd fb 30 97 bc 73 13 1e 3d f8 9d 34 3e
       -0.08699411 -0.018455973 0.038592767 0.17638385
000150 05 08 50 be dc 89 47 be da 1b 54 3d bd 76 23 be
       -0.20315559 -0.19486183 0.051784374 -0.15963264
000160 b9 e3 c2 3d 87 c9 1c bd c6 23 4c be 89 22 19 3e
       0.09516091 -0.03827813 -0.19935521 0.1495458
000170 50 2c 2e 3e 12 4c 3b be be 52 f5 bd e2 82 1f bd
       0.17009091 -0.18290737 -0.119786724 -0.03894318

fc.bias f4 [3]
000000 32 3a 8f 3d b9 a7 17 bd bd 48 37 3e
       0.06993522 -0.037025187 0.17898841
