trained_models/LSTM/LSTM_Zscore_CF1_pred_2.pth (torch, 661823 bytes, 23 tensors)

lstm.weight_ih_l0 f4 [256, 40]
000000 39 ee 91 bd 71 c0 2a 3e 6f bc a2 bc 6e 1c 6c bd
       -0.071255155 0.16674973 -0.019865243 -0.0576443
000010 09 53 ab bd 52 83 15 3c 65 50 ab bc be 29 54 bd
       -0.08365447 0.0091255475 -0.020912359 -0.05179762
000020 c1 d9 c6 bd 02 29 b0 bd 89 6e d3 bd 30 80 13 bb
       -0.09709502 -0.086015716 -0.10323817 -0.0022506826
000030 66 9e 66 3d af 30 b9 bd 98 c8 67 bd c8 86 2f bd
       0.056303404 -0.09042489 -0.056587785 -0.042853147
000040 85 4a c8 3d a3 47 9e 3d 8f 46 e8 3d 2d 51 a3 bd
       0.097798385 0.07728507 0.11341583 -0.079744674
000050 03 43 cd bd cf 0f 34 3d bc f2 47 3c 8d 55 bb bd
       -0.10022547 0.04396039 0.0122038685 -0.09147177
000060 db 5b b2 bc 65 df ae 3d 69 76 5e bd 83 f5 04 bd
       -0.021772316 0.08538703 -0.054312143 -0.0324607
000070 b5 11 28 bd e4 36 90 3c f1 af cc bc cc 42 5a 3d
       -0.04103251 0.017604299 -0.02498624 0.05328636
000080 8c d4 e8 3d 2e d3 07 3d 9b 8b 88 bd 63 5b 38 bc
       0.11368665 0.03316038 -0.06667253 -0.011252257
000090 c6 6e c0 bd 30 99 8e 3d 28 98 df 3d cd 9a 1b 3d
       -0.09396128 0.06962812 0.109176934 0.037989426
0000a0 7a be 3e 3d 6c 27 1e bd 18 38 05 bd fd f2 00 be
       0.04656837 -0.038611814 -0.0325242 -0.12592693
0000b0 90 24 e9 3b 3f 7d 7a 3d de 23 51 bd ff 00 97 ba
       0.0071149543 0.0611546 -0.051059596 -0.0011520683
0000c0 0e 90 eb 3d 56 37 dd bd fb d6 90 3d f3 24 9b bd
       0.115020856 -0.1080157 0.07072254 -0.07575407
0000d0 7e 58 b1 3d 2f ff 98 bd 9c 37 a0 3d 9a 92 0b bd
       0.08659457 -0.074705474 0.07823107 -0.034075357
0000e0 1d db ab bd 3a 39 1e 3d 48 af 08 3e c1 35 36 3d
       -0.08391402 0.038628794 0.13348114 0.044484857
0000f0 83 cd a4 bd 47 2a 1b be 93 5d ca bd 78 88 a1 bd
       -0.08047011 -0.15152846 -0.09881129 -0.078873575
000100 08 86 48 3a 50 39 c8 ba b3 ad 02 3d ff 50 97 bd
       0.0007649367 -0.001527587 0.031903934 -0.07388496
000110 6a 65 1a bd d4 df 07 3d 90 f5 4b bc 94 b9 91 bd
       -0.037694372 0.033172444 -0.012448683 -0.07115474
000120 0b 81 02 3e c1 8a ab 3c a4 68 98 3c bd e0 88 3d
       0.12744538 0.020940186 0.018604584 0.066834904
000130 af c9 9e bd 37 32 64 bc e4 73 f3 3d ae b2 2f 3c
       -0.07753312 -0.013927988 0.11887339 0.010723753
000140 53 f5 f8 bc 66 60 a6 3c 61 4b 85 bc 12 ad cd 3c
       -0.030390417 0.020309638 -0.016271295 0.02510694
000150 aa 24 f6 3d c2 67 cc 3d 01 80 e3 3d ed 15 81 3d
       0.12018712 0.09980728 0.11108399 0.0630301
000160 f4 00 57 bd 85 40 47 bd 35 c7 bf 3d de 6e 62 3d
       -0.052491143 -0.048645515 0.093641676 0.055281512
000170 e6 0c 6e 3d 0c f1 22 3c 87 25 fb bd 8a b5 0b bc
       0.05811777 0.009945165 -0.12263017 -0.008527169
000180 c8 c0 8f 3d fd f9 47 3d 68 f8 15 bd 2c 5f fc 3d
       0.07019192 0.04882239 -0.03661385 0.1232284
000190 24 9b 97 3d 5d e5 61 bd e2 59 ed 3d 22 58 07 bd
       0.074026376 -0.05515038 0.115894094 -0.033043034
0001a0 5c d1 d6 3d d9 20 36 bd 4b 10 fc 3c 1d c2 14 3d
       0.10489151 -0.04446492 0.030769488 0.036317933
0001b0 3f e5 69 3d 7d 8a 5d bd c4 15 cc 3c 56 bd dd 3d
       0.05710339 -0.05408715 0.024912722 0.108271286
0001c0 80 65 84 3d a2 2d 04 3e 86 d3 de 3d 8e cd ce 3c
       0.06464672 0.12908033 0.10880189 0.0252445
0001d0 45 a8 89 3d 6f 86 3f bd 95 3b ac 3d c6 13 d2 bd
       0.06721548 -0.046759065 0.08409802 -0.10257678
0001e0 bb 7b c3 3d d3 f2 06 3e 03 c9 02 be 86 b3 63 bd
       0.09545084 0.13178568 -0.12771992 -0.05559113
0001f0 c2 ee fe bd 20 81 73 bd 46 45 2b bd 12 28 49 3d
       -0.12447883 -0.059449315 -0.04181411 0.04911048
000200 13 e1 55 3d 41 10 79 bd fe a1 d3 bd 23 12 8b bd
       0.0522166 -0.060806517 -0.10333632 -0.06790569
000210 60 5a 89 bd 9a 39 db 3c 7a 75 62 3d b2 1a 79 3d
       -0.06706691 0.026760865 0.055287816 0.060816474
000220 c9 45 af bd 09 e8 8a bd df eb 27 bd 07 96 01 3e
       -0.08558232 -0.067825384 -0.04099643 0.12654887
000230 d1 61 ad bd c6 53 99 3d 62 89 23 bd ea 3d b9 3d
       -0.084659226 0.07486682 -0.03992594 0.09045012
000240 1b c9 98 bd 16 fa af bd 13 02 45 3d 5a f8 c6 3d
       -0.07460233 -0.08592622 0.04809768 0.09715338
000250 39 50 9e bd 8b 1c 0c 3e 62 75 26 3d 88 0a 20 bd
       -0.07730145 0.13682763 0.04063929 -0.039072543
000260 4d 45 73 3d 16 34 05 3d 66 87 bd bb 7e db 85 bd
       0.059392262 0.032520376 -0.005783963 -0.065360054
000270 c4 ff 91 bd 19 0a 1f 3d 75 32 2b 3d 27 2c a8 3d
       -0.071288615 0.03882799 0.041796166 0.082115464
000280 44 2f 33 3d 72 8a f2 3d 3a d1 90 3c 05 82 0b bd
       0.043746248 0.118428126 0.017677892 -0.034059543
000290 ab 98 b1 bc 8e 1a 39 3c 9c b2 ec 3d db e8 ae 3d
       -0.021679243 0.011297835 0.115575045 0.085405074
0002a0 77 2e ec bd 71 14 cc bd fd a6 ac bd 2d 99 e3 3d
       -0.115323 -0.099648364 -0.08430288 0.111132
0002b0 3e 5e ba bd d1 b8 80 3c 60 c2 9e 3d c1 8d 6d 3d
       -0.091000065 0.015713127 0.07751918 0.057996515
0002c0 d4 53 8a bd f0 6a e6 bd 53 46 88 bd 24 ce ef bd
       -0.0675427 -0.112508655 -0.06654038 -0.1170924
0002d0 7a 11 05 bd d9 c0 2a bc 1a de ed 3d da 1a f7 3b
       -0.03248737 -0.010421955 0.11614628 0.0075410428
0002e0 df bd 85 3c e1 0e c6 bd 71 39 a3 bd a1 6b a0 bc
       0.01632589 -0.09670807 -0.079699405 -0.019582571
0002f0 5b a9 40 3c e0 1c 06 bd d3 48 bb 3d 70 07 85 3d
       0.0117591275 -0.03274238 0.091447495 0.06495559
000300 bc 97 1e bd b3 cb d7 3d b3 85 f1 3d e8 1f 29 bd
       -0.038718924 0.105368994 0.11793079 -0.041290194
000310 15 c5 84 bb c8 f4 66 bd bd 21 e1 3d 5b 3a 0f 3e
       -0.0040518143 -0.056385785 0.10992763 0.13987105
000320 3e 62 28 bd 92 0b ab 3c 0a 05 25 3d 57 39 0e 3e
       -0.041109316 0.02087954 0.04028801 0.13889061
000330 42 be c6 3c 0f cd 8e bd 8f 4d 81 3d a8 ca 22 3d
       0.024260644 -0.069727056 0.06313621 0.03974405
000340 c4 a4 91 3d 78 77 0d be e6 2a d8 3b 88 5b 06 bc
       0.07111505 -0.13815105 0.006596911 -0.008200534
000350 cb 03 7c bd 07 19 8b bd be 13 db bd a2 5e 9d 3d
       -0.061527055 -0.06791883 -0.10697125 0.076840654
000360 77 39 c8 3d 60 30 1f 3d a1 b6 a3 3d 4b 75 cf bc
       0.097765855 0.038864493 0.07993818 -0.025324484
000370 f4 37 f4 bd f3 75 1d 3e 19 68 8b 3d 4f 17 4f 3d
       -0.11924735 0.15377025 0.068069644 0.05055934
000380 b4 f3 63 3d f9 a9 d0 3c 3a f7 f6 3c ef 08 c1 3d
       0.055652335 0.025471674 0.030147184 0.09425532
000390 3f e3 cc bc 4b fe c3 bd 7c d6 92 bc 57 0a 9e bd
       -0.025010703 -0.09569987 -0.01792454 -0.07716816
0003a0 91 97 16 3c 5c 40 f7 bd dc 9d 3c 3d c4 74 f5 3d
       0.00919141 -0.120728225 0.046048984 0.11985162
0003b0 f7 6d a9 bd 9c 68 09 3d 59 b6 cf 3d 67 2c fc 3d
       -0.08272927 0.03354703 0.10142202 0.123131566
0003c0 be 2a 38 bc dd cc a6 3d ac 34 9c bd d9 b0 9c 3c
       -0.011240659 0.08144543 -0.07627234 0.019127296
0003d0 3b f7 75 3b d5 2d 82 bd 1d 68 3b 3d 2f 4c 08 bd
       0.0037531394 -0.06356398 0.045753587 -0.03327578
0003e0 13 bc 88 bd 5f ae 64 3d 6f c1 e7 3d 8d df 96 bc
       -0.06676497 0.055830356 0.113161914 -0.018417144
0003f0 a4 3d 71 bd b9 ea 0f 3d 2c 74 52 bd 1c db 69 3d
       -0.058896676 0.03513596 -0.05138032 0.057093725

lstm.weight_hh_l0 f4 [256, 64]
000000 56 4a 11 3d 4a 6a 53 3d 7d f9 c1 bb 02 86 9f 3d
       0.035471283 0.051615037 -0.005919634 0.07789232
000010 23 12 31 3c a9 6f f3 bd 3e c7 1e bd 4a 27 12 3d
       0.010807547 -0.11886532 -0.03876423 0.035682
000020 b6 66 5e bd a3 15 b4 bc 5e 32 f7 bc f5 07 b7 3d
       -0.05429717 -0.021982973 -0.030175384 0.089370646
000030 68 70 74 bd 0b 98 9a bd 93 40 5f bc a9 6f b0 bd
       -0.05967751 -0.07548531 -0.013626236 -0.086150475
000040 70 16 b0 bd 07 41 3b 3d 1e 3f d2 3c 5c d2 22 bd
       -0.085980296 0.04571631 0.025664862 -0.039751396
000050 e3 45 2f 3d 0a ff fa bd b5 63 c9 bd 76 95 ef bd
       0.04279126 -0.12255676 -0.09833471 -0.11698429
000060 38 5b e5 bd 7d 3f 56 3d 8e 2c 89 3d fa 33 95 3d
       -0.11199039 0.05230664 0.06697951 0.07285304
000070 2a 24 cc bd 69 06 80 3d 91 43 89 bc cd e8 11 bd
       -0.09967835 0.06251223 -0.016755851 -0.035622407
000080 95 84 c1 bd ba 35 c1 3d 8c 3b 12 3c 2e 01 d1 3d
       -0.09449116 0.09434076 0.00892533 0.10205303
000090 44 fa c3 bd 03 4a 53 3c 2e df e2 bd c7 87 21 3c
       -0.09569219 0.012896064 -0.110777244 0.009859032
0000a0 15 9d ea 3d 69 4a e8 bd 49 77 1b 3d 72 75 5d bd
       0.11455742 -0.113423176 0.037955556 -0.054067083
0000b0 b9 b0 a2 bd 50 d3 a2 3d 37 25 9a bc a3 97 12 be
       -0.079438634 0.07950461 -0.018816574 -0.14315657
0000c0 7e ca 8f bd 2e 87 05 3e bd 10 a9 bd db 0e df bd
       -0.07021044 0.13039848 -0.08255146 -0.10891505
0000d0 50 79 06 3d 75 66 31 bd 96 92 ed 3d 06 b4 32 bd
       0.032830536 -0.0433106 0.11600225 -0.043628715
0000e0 73 cc 1c 3e 6c b6 8a bd 6e d3 a9 3d 12 e5 9a 3d
       0.15312366 -0.067730755 0.0829228 0.07563223
0000f0 7c 26 8d bc 04 7a 7c 3d a2 f7 d9 bc 00 11 0d 3d
       -0.017230265 0.0616398 -0.026607338 0.03444004
000100 38 b5 da bd 6b be 9f 3d 72 bc 27 3c b0 d7 6d bc
       -0.10679096 0.07799991 0.0102378 -0.014516756
000110 80 94 70 bd 06 d9 d3 bd cc b0 07 bd 4b 7a b2 bd
       -0.05873537 -0.10344128 -0.03312759 -0.08714732
000120 b2 3b e8 bd fb 93 f8 3d 55 77 e3 3c 5a 0d ed bc
       -0.11339511 0.121376 0.027766863 -0.02893703
000130 f3 8c ce 3d 3b cd 7d 3d 17 02 88 3d d3 fc a7 bd
       0.10085478 0.0619633 0.066410236 -0.08202519
000140 68 0f 4f ba 31 9a 2a 3d 85 71 dd bd 75 34 fb 3c
       -0.0007898719 0.041650955 -0.10812668 0.030664662
000150 58 51 c0 3c f8 3e a8 bb ab 5b 51 3d 54 58 6b 3c
       0.023476288 -0.0051344596 0.051112812 0.014364321
000160 1b 52 08 3e 7a 06 ec bc ae ed 0f 3d db a7 f6 bd
       0.13312571 -0.028811682 0.03513878 -0.12043735
000170 37 97 2e 3c 3c 95 16 bd d9 67 b8 3d 90 8a 44 3d
       0.01065617 -0.036763415 0.09004182 0.047983706
000180 03 86 2d bc d2 bc 4a 3d 69 2f 86 3d 15 98 68 b9
       -0.010591033 0.04949648 0.065520115 -0.00022181899
000190 f8 ca 06 3e 03 6c c8 39 47 43 1d 3d 5c 96 1e 3d
       0.13163364 0.00038227448 0.03839424 0.038717613
0001a0 09 2c 99 3d 55 dd ba bc 76 dc fe 3d 01 3d a0 bc
       0.07479102 -0.022810617 0.12444393 -0.019560339
0001b0 e1 28 80 bd b6 83 be bd 8e aa de bd 7e db bf bd
       -0.06257797 -0.093024656 -0.108723745 -0.09368037
0001c0 5a 42 4f 3d 17 60 12 3c 5b 85 8c bc d7 03 ba 3d
       0.050600387 0.008934042 -0.017153433 0.09082764
0001d0 97 18 1b bd 4b 04 b2 bd b2 62 57 bd 4b 87 8e bc
       -0.037865248 -0.08692225 -0.052584358 -0.017398497
0001e0 73 52 0a 3d e6 01 32 3d 00 47 c7 3d f2 5e 8f bc
       0.033770036 0.04345884 0.09730339 -0.017501328
0001f0 db 04 8f bd d7 81 46 bd cd 9f d1 bd c8 c1 b6 3c
       -0.06983348 -0.04846367 -0.10235558 0.022309199
000200 3f b4 9f 3d ac d8 80 3a 93 25 bd bd c0 c8 62 3d
       0.07798051 0.0009830198 -0.09235682 0.05536723
000210 8e b7 ec 3d d9 8e ee 3d f3 81 15 3c 9d 17 ac 3d
       0.11558448 0.1164834 0.009125221 0.084029414
000220 3c 01 0b 3e ef 7d 3b bd e6 b7 c4 bc 2a ed e3 bd
       0.1357469 -0.045774397 -0.02401347 -0.1112922
000230 50 3d f2 3c 47 65 c1 bd 06 28 c6 3d 2e 43 dc bd
       0.029570252 -0.09443145 0.096756026 -0.10755001
000240 6d 92 91 bc e0 76 c8 3d 09 af eb 3d 57 54 dc 3d
       -0.017770017 0.097882986 0.11507995 0.10758274
000250 f9 de c9 3c 8d 61 24 3d 9a 0b 64 3c 88 49 16 3c
       0.024642454 0.040132094 0.013918782 0.009172805
000260 b5 91 c4 3d 66 f8 ad 3d af c9 11 3d 31 ce 75 bd
       0.09598104 0.08494644 0.03559273 -0.060011093
000270 f7 ec c8 3d c3 34 69 bd 6d de d7 3d 33 1e f1 3b
       0.098108225 -0.056935083 0.10540471 0.0073583364
000280 8f e6 bd bd 60 8d 00 be 74 92 9a bd 02 55 c2 bd
       -0.09272491 -0.1255393 -0.07547465 -0.0948887
000290 27 fb fe 3d 2c af c5 3d 96 67 d8 3d 95 57 ca bd
       0.12450247 0.09652552 0.105666324 -0.09879986
0002a0 0a 11 89 bd 3a 04 9d 3c df d9 5a bd 0e 04 d8 3d
       -0.06692703 0.019167054 -0.053430434 0.10547648
0002b0 4d 91 98 bc c5 d8 1a bd 5e 19 34 bc 57 5d 04 3e
       -0.018623972 -0.037804384 -0.010992376 0.12926231
0002c0 c7 45 38 bd b2 57 ac bd 62 71 c7 bc f0 61 cb bd
       -0.04498842 -0.08415164 -0.024346057 -0.099307895
0002d0 9f b0 2f 3d cb 04 f3 bc ba 67 97 bd 16 d4 7c bd
       0.04289305 -0.029665371 -0.07392831 -0.0617257
0002e0 ce 1e cc bd 2f 4b e9 3d 33 2b f4 3c 7d 88 92 bd
       -0.09966813 0.11391293 0.029805755 -0.07154939
0002f0 bc a4 79 bd 1c c7 ab 3d f5 d2 f5 bd be ac 92 bd
       -0.06094812 0.083875865 -0.120031275 -0.07161854
000300 ba 17 c0 3d 22 03 d7 bd d9 64 3c 3c 2a 81 14 be
       0.093795255 -0.104986444 0.011498653 -0.14502397
000310 6e 57 a9 bd 7c 5b 83 bb 5f a9 15 3d 41 ad 07 3e
       -0.08268629 -0.0040087085 0.036538478 0.13249685
000320 de 11 c6 bb 3f 14 0d 3e 22 6a b6 3d 6e d8 83 bc
       -0.0060446104 0.13777255 0.08906962 -0.016094413
000330 a3 c0 84 bc 5d 6d de 3d f4 1e 19 3d 81 98 ae bd
       -0.016205138 0.10860703 0.037383035 -0.085251816
000340 ab 82 3e 3d 68 a2 ab bd 4c 2d 78 bd 9a 9a ee bd
       0.046511333 -0.08380586 -0.060590073 -0.11650582
000350 6d 8f fa 3d 3c 51 c4 3d 4b 43 ca 3d 99 b5 ed 3d
       0.122343875 0.09585807 0.09876116 0.11606903
000360 40 63 e3 3d 76 64 c0 3c aa 69 ab 3d 64 90 d1 bd
       0.11102915 0.023485404 0.08369763 -0.102326185
000370 5d 14 92 3d 46 6c c0 bd c7 02 46 3d 38 d0 7d bd
       0.0713279 -0.093956515 0.048342492 -0.06196615
000380 63 7f 75 bd 5c 1c 81 bc d5 3f a7 3d 12 1f 0d 3d
       -0.05993594 -0.015760593 0.08166472 0.03445346
000390 db fd 0a be ec eb 6a 3d 42 01 63 bb d1 71 f7 bc
       -0.135734 0.0573539 -0.00346382 -0.03020564
0003a0 8a 65 8c bd 4f 7e a6 3d 6e 45 2c bd d7 c8 ac bc
       -0.068553045 0.0812956 -0.0420584 -0.021091862
0003b0 3c 5a 80 3c 88 ef c5 bd d1 4f a0 bd ee 8e e4 bd
       0.015668027 -0.096648276 -0.07827724 -0.11160074
0003c0 dc 79 ac 3d 60 45 0d bc 21 21 60 bd df 81 02 bd
       0.0842168 -0.008622497 -0.054719094 -0.031862136
0003d0 cd 1c 5c bd 0e d6 84 bd 38 db 63 3d f1 4a f9 3d
       -0.053738404 -0.0648614 0.055628985 0.12172497
0003e0 3c d9 69 ba 70 b2 d7 bd d8 d7 48 3d b4 9b 5a bd
       -0.0008920615 -0.10532081 0.04903397 -0.053371146
0003f0 f3 6b 9e 3d 27 d5 41 bc 26 77 3d ba df 2e d7 3c
       0.077354334 -0.011830605 -0.00072275323 0.026267467

lstm.bias_ih_l0 f4 [256]
000000 d2 60 b2 bd c4 c6 e5 bd 51 d5 06 3e cb 62 93 3c
       -0.08709873 -0.11219552 0.13167311 0.017991444
000010 51 84 0d 3e 52 f9 22 bd d7 68 6f 3d 45 d3 39 bd
       0.13820006 -0.03978855 0.058449592 -0.045367498
000020 c9 6f e6 3d ce 8a b3 bd fa 9f e8 3d 6a d3 bc bd
       0.1125179 -0.08766709 0.11358638 -0.092200115
000030 61 45 a5 3d da 27 09 3e 0f 04 fc 3b 5f 05 0b 3e
       0.080698736 0.13394108 0.0076909135 0.13576268
000040 b2 17 8e bd 02 91 f9 3d c2 2d 57 3d 25 d5 0a bd
       -0.06938113 0.12185861 0.052533872 -0.033894677
000050 d4 55 aa bd 38 cc 80 bc 91 5d 40 bd 3e 02 9b bd
       -0.08317152 -0.01572238 -0.046964232 -0.07568787
000060 50 0e 65 3c bc 49 c1 3d d4 bb 8a 3d a1 03 29 bc
       0.013980463 0.09437892 0.067741066 -0.010315807
000070 a1 66 bf bd c7 87 8d 3c 98 bb 8f 3d 5f 2f 81 bc
       -0.09345747 0.017276658 0.070182025 -0.015769659
000080 42 d2 82 bd da 62 be bd c0 a6 58 3d c6 82 5d 3d
       -0.0638776 -0.09296198 0.0528934 0.054079793
000090 ef 9e ae 3d 8a 1b b9 3d 1b cf ac bd 15 39 42 bc
       0.08526408 0.09038456 -0.0843794 -0.01185443
0000a0 a7 90 88 bd 86 1c 60 bd 6d 03 c0 bd 22 ed e1 3d
       -0.06668215 -0.054714702 -0.093756534 0.110315576
0000b0 20 cc c1 3c ef 67 cb bd 5f 9f bc 3d 14 ba 86 bd
       0.023656905 -0.09931933 0.09210085 -0.0657846
0000c0 d1 55 c6 3c bb 13 1a 3d a1 2a b7 3d d4 7c 03 3a
       0.024210842 0.037616473 0.08943678 0.0005015854
0000d0 4b 1f 1e bd d0 84 c3 bd 72 19 cf bc 7c aa 6a bc
       -0.038604062 -0.09546816 -0.025280688 -0.014322873
0000e0 5d 64 07 3d e2 30 a8 3c b9 be 80 bd 97 70 36 bd
       0.0330547 0.020531122 -0.062863775 -0.044540968
0000f0 53 b1 e3 3b 09 ad 11 3e a7 a3 0d 3c 60 6f 0e 3c
       0.006948629 0.14226164 0.008644975 0.008693546
000100 d0 3a 68 3d 9d c1 3d 3d 5e 56 99 bd 7f 8b db 3d
       0.056696713 0.046327222 -0.07487176 0.10719966
000110 c3 81 ff 3d 4d 7e 23 3e 1b 62 bf bc 69 19 b9 ba
       0.12475922 0.15966149 -0.02336221 -0.0014121953
000120 29 eb d4 3d 6b 3e 01 3e 7f 50 ae 3d 4c 45 fe 3d
       0.10396416 0.12621467 0.08511447 0.12415561
000130 ee f6 a3 3d 00 64 bc 3d 52 78 5f bd a8 42 5a bd
       0.080060825 0.09198761 -0.054558106 -0.053286225
000140 9e 82 ed bb c6 88 7e 3b 75 af b7 3d 04 6e 48 bd
       -0.007248237 0.0038838848 0.08969013 -0.048933044
000150 08 ca cd 3d 02 53 bd 3d 8f c4 82 3d 0f ff 83 bd
       0.100483 0.09244348 0.06385147 -0.06445133
000160 68 7e 64 3d 1a fb ba bc 82 12 ae bd 57 ad a9 3d
       0.055784613 -0.022824813 -0.08499624 0.08285015
000170 2a c0 ff bc bd b5 22 3e 32 0a 58 3b e2 d3 ea bc
       -0.03121956 0.1588964 0.0032965061 -0.028665487
000180 6e 3e dc 3d d2 5d e0 3d 5d 13 c9 bc 88 14 4c bb
       0.10754095 0.10955395 -0.024545366 -0.0031140167
000190 d0 7c ae bd 18 ca d6 3c 96 2d 18 3e 67 78 b5 3d
       -0.085199 0.026219413 0.1486114 0.088608555
0001a0 44 38 8b bc 6b c1 ef bc 9c 29 6e 3d 45 7d 04 3c
       -0.016994603 -0.029267034 0.05814515 0.008086507
0001b0 28 59 b0 3d ea 39 e7 3d 9a 7f 7b 3c ea 8c 97 3c
       0.08610755 0.11290343 0.015350247 0.01849981
0001c0 dc f0 f2 bd e5 b7 24 bc ce 06 23 ba 3b f0 18 3d
       -0.118623465 -0.0100536095 -0.00062189705 0.037338477
0001d0 5a 05 ca bd cc c8 9d 3b 1d 08 13 3b 30 c4 e0 3c
       -0.09864302 0.0048151966 0.0022435256 0.0274373
0001e0 7d df 87 bd d9 71 fb ba 63 d2 e7 bc 3e b4 85 3d
       -0.06634424 -0.001918371 -0.028298562 0.06528519
0001f0 b1 00 c6 3d 55 24 cc 3d b0 2f c8 3d 8f c5 92 bb
       0.096681006 0.09967867 0.09774721 -0.004479117
000200 12 84 b6 3d 27 2f 23 bd 97 2f 61 3c 2b b9 10 3c
       0.08911909 -0.03983989 0.013744256 0.00883321
000210 e9 ca 6d bd bd a3 c9 bd d8 83 4b ba 78 d8 02 be
       -0.05805484 -0.09845684 -0.00077634817 -0.12777889
000220 7d ed e7 bc c5 86 f7 bd 2c c2 ad bd 5d 2b f0 bd
       -0.028311485 -0.12086252 -0.08484301 -0.11727021
000230 7c 8f d6 3d 03 94 2b bd 65 0d a5 3d b8 da 5e 3c
       0.10476586 -0.0418892 0.080591954 0.013601951
000240 1b af 5b 3d 43 e6 00 3b 5a fa 81 bd bf a3 9a 3d
       0.05363379 0.0019668497 -0.06346579 0.07550763
000250 71 f2 9a bd 79 4f b4 bd 28 7f 96 bd 39 68 af bc
       -0.07565773 -0.08804221 -0.07348472 -0.021412002
000260 26 94 88 bd 32 d1 aa bb db d7 7a 3d 56 55 22 bd
       -0.06668882 -0.0052129263 0.061241012 -0.039632164
000270 60 cb b4 3d 1f 88 fb 3a 72 89 b8 bc bc ca d3 3c
       0.08827853 0.0019190348 -0.022526477 0.025853507
000280 36 d4 aa 3b 91 47 22 3d 68 f8 7e 3d ab b8 a1 bb
       0.005213286 0.039619032 0.062248617 -0.004935344
000290 cb c6 fd bd f2 81 66 3d 3a 80 c4 bd af 95 c0 3c
       -0.123914324 0.05627627 -0.0959477 0.023508875
0002a0 45 f6 ca bd d9 b3 a9 bd ca 65 9a bd 24 7f 1d bd
       -0.099102534 -0.08286256 -0.07538946 -0.03845133
0002b0 8f 2c 57 bd 61 d1 b4 3c d5 59 89 bd c7 da ba bd
       -0.05253273 0.022072496 -0.06706587 -0.0912376
0002c0 84 1b 35 3d ef 36 a0 3d 3d 81 d5 3c 7b 09 e6 3d
       0.044215694 0.07822978 0.026062602 0.11232277
0002d0 d6 71 78 3c 70 51 b0 3d 57 82 46 3d 60 e2 dd 3d
       0.015163859 0.08609283 0.048464146 0.10834193
0002e0 d6 fe 98 3d 89 d0 fa bd 87 e7 b7 3d 1b 84 fb bd
       0.07470481 -0.12246806 0.08979707 -0.122810565
0002f0 b5 49 a2 bd 03 fa b6 bd de c1 f2 bd 31 d8 51 bd
       -0.07924215 -0.08934405 -0.118533835 -0.051231567
000300 29 70 3f bd fe 1f b0 bc 1e d7 ab 3d 89 b3 18 bd
       -0.046737824 -0.02149963 0.0839064 -0.037280593
000310 18 da 81 bb cf fd 1e 3e fa 50 be bd 79 a3 37 3d
       -0.0039627664 0.15526508 -0.09292789 0.044833634
000320 49 48 44 bc 36 e1 e7 bc b4 bb fb 3d 66 3a 4e 3d
       -0.011980125 -0.028305631 0.12291661 0.05034866
000330 d3 7a 80 bc 14 d0 89 3d 88 1a f8 3b 62 c4 0c bd
       -0.015683567 0.06729141 0.007571522 -0.034366973
000340 ad 65 23 3c 4c de a0 bb 4a 58 55 bc d9 21 d5 3d
       0.009972972 -0.0049093124 -0.013021538 0.104068466
000350 ec 29 b4 bc 12 d0 df 3d 18 ef b0 3d 04 73 03 bd
       -0.021992646 0.10928358 0.086393535 -0.03209211
000360 05 38 c6 3d ed ba bf bd 93 54 52 bd dd 50 a5 3d
       0.09678654 -0.09361825 -0.051350188 0.08072064
000370 a0 2d 7c bd 97 50 84 bd 39 ff b7 bc 76 5e 9f bc
       -0.06156695 -0.06460684 -0.022460567 -0.019454222
000380 55 f7 9f 3d 7e b0 aa bd a5 08 0e 3e d8 4c 22 3d
       0.07810847 -0.083344445 0.13870485 0.039624065
000390 be c7 18 3e 54 27 d8 bd b5 9b 13 3d bb f8 42 3d
       0.14919946 -0.10554376 0.036037166 0.04760049
0003a0 ec 8a a2 bd 49 22 15 bc 3b 2c 72 bd 28 a8 7b 3c
       -0.079366535 -0.0091024125 -0.059124213 0.015359916
0003b0 7d a4 a3 bd 36 56 c0 3d b0 c1 88 bb 02 24 ac bc
       -0.07990358 0.093914434 -0.00417348 -0.021013264
0003c0 c2 6a 55 3d 17 21 06 3e bc 89 41 3d 73 b0 04 3e
       0.052103765 0.1309856 0.047250494 0.12957935
0003d0 0b fa 68 3d 4a 5e 97 bd 39 43 df 3d f9 49 16 3e
       0.056879085 -0.07391031 0.109014936 0.14676656
0003e0 6c 4e b2 3d 8d f5 2c bd 82 78 46 3d 8d 38 ce 3d
       0.08706364 -0.042226363 0.04845477 0.1006938
0003f0 e1 b7 04 3d 66 30 4a 3d 32 e7 36 3c 7b 26 10 bd
       0.032401923 0.049362563 0.01116352 -0.035192948

lstm.bias_hh_l0 f4 [256]
000000 c0 01 a0 bd 1c 08 ee 3d 5d 2f 64 3d 68 e6 c2 bd
       -0.07812834 0.116226405 0.05570923 -0.09516603
000010 ff 26 1a 3d 14 7e f7 3d d4 31 09 3d 49 55 d4 3c
       0.037634846 0.12084594 0.033494785 0.025919573
000020 c2 0b dd bb 22 b1 98 bd 40 86 a5 bd 94 ee d5 bd
       -0.0067457864 -0.074556604 -0.08082247 -0.10445896
000030 d3 d8 00 3d 3b 35 22 bd b2 a0 9f 3c 0e c5 0c 3d
       0.03145678 -0.039601546 0.019485805 0.034367613
000040 1d bf 04 3c 24 ec e8 ba 6a cd a2 3d c2 ee a1 bd
       0.008102206 -0.0017770571 0.07949336 -0.079068676
000050 9c a1 d4 3b 02 ec 70 bb c6 82 15 3d 74 2e b6 3c
       0.006488992 -0.0036761765 0.03650167 0.022238947
000060 96 71 45 bd b3 c3 4f bd 3f 92 ee 3c dd 80 aa 3d
       -0.048204027 -0.050723743 0.02912247 0.0832536
000070 e5 e8 65 3d dd e1 c8 3c 50 c7 7d bd 07 e8 6c bd
       0.05613031 0.024521763 -0.061957657 -0.057838466
000080 df 66 33 3d 5d f8 09 bc ad b7 6d 3d 9e dc 97 3c
       0.043799277 -0.008421031 0.058036495 0.018537816
000090 60 05 6f 3b 18 2f ed bd e7 c7 5f bd 74 6a 98 3d
       0.003647171 -0.11581248 -0.054634 0.07442179
0000a0 5b c5 a6 3c d9 c0 9f 3d 55 18 f8 3d 89 d7 39 bd
       0.020357778 0.07800455 0.12114016 -0.045371566
0000b0 ad 0a e7 bd ae 3b 09 3e dd 6b 40 3c 39 04 ab bd
       -0.11281333 0.13401672 0.011744467 -0.08350415
0000c0 79 72 ec bd 8f 4e 98 3d 19 9b 7c bd ea 82 ca 3d
       -0.115452714 0.07436859 -0.06167135 0.09888251
0000d0 ab 5b 75 bd 14 14 d5 3d 20 cc 8e 3d 3d db e2 bd
       -0.059901875 0.1040422 0.069725275 -0.11076973
0000e0 82 46 06 3d 18 1c c9 3d 68 b2 91 bd 48 78 af 3c
       0.032782085 0.098198116 -0.071141064 0.02141966
0000f0 89 80 5e bd a2 73 6e 3c ee ec ea 3d c2 53 aa bc
       -0.0543218 0.014553936 0.11470972 -0.020791892
000100 2a b3 ed 3c 5d 87 43 3d 04 c9 64 bd 0d 00 a6 bd
       0.029016096 0.047736514 -0.055855766 -0.081054784
000110 fc c3 0d 3e 23 f2 0f 3e 58 3c aa 3d 56 d3 f6 3d
       0.13844293 0.14057212 0.08312291 0.12052028
000120 f7 c8 3f 3d c6 e9 51 bd 9b d1 a9 bd 86 4e 99 3d
       0.046822514 -0.051248334 -0.08291932 0.0748568
000130 4e 7f 5f 3d 2e db ee 3d 76 3e e4 bc 58 e9 b2 3c
       0.054564767 0.11662899 -0.027861815 0.021839783
000140 9c 73 06 3e a3 bc b5 bd 74 de 21 3d 41 08 93 bd
       0.13130039 -0.0887387 0.03951879 -0.07179309
000150 23 b1 06 bb 58 7a 88 3c a1 9d 2d bd 33 22 fc 3d
       -0.002055236 0.0166599 -0.042386655 0.123112105
000160 76 51 42 bd 90 8e d0 3d c8 b8 39 bd 36 88 b4 3d
       -0.04744097 0.10183442 -0.045342237 0.08815043
000170 63 a8 81 3d c5 68 dd 3d 70 eb bb 3c d6 8e 55 3b
       0.06330945 0.10810999 0.022939414 0.0032586358
000180 49 88 07 3d d0 bf 0c 3e cf 85 b9 3d ab 24 4e 3d
       0.033088956 0.13745046 0.09058725 0.050327938
000190 62 0a 82 3d 1c 7e 04 3e 65 a4 91 3d 66 05 d8 3d
       0.063496366 0.12938732 0.07111434 0.10547905
0001a0 b1 03 cf 3d 5f 63 46 bc b5 7b 39 3d 17 77 66 bd
       0.10108126 -0.012108653 0.04528399 -0.056265917
0001b0 c5 90 04 3e 8b 25 01 bd 7e 97 5d bd e3 14 12 bd
       0.1294585 -0.031529944 -0.054099552 -0.03566445
0001c0 01 aa 66 bc 4b 84 24 3d 4c 4c ba bd 5e 7b 8b 3d
       -0.014078618 0.040165227 -0.09096584 0.0681064
0001d0 12 8e c5 bd e8 a9 3d bd 3c 6b e5 bd 06 4f af bd
       -0.096462384 -0.046304613 -0.11202094 -0.085599944
0001e0 08 b3 5d 3d 6b bf 91 3d aa 1a 34 bd 85 1e 2a bd
       0.054125816 0.07116588 -0.04397074 -0.041533012
0001f0 0b 98 ba bd 84 9b bc 3c e5 24 ad 3d 58 e6 0a 3e
       -0.09111031 0.023023374 0.08454303 0.13564432
000200 91 50 73 3d 28 69 50 3c b0 3c 00 be 53 bd e5 bd
       0.059403006 0.012720384 -0.1252315 -0.11217751
000210 85 8b e8 bd 47 c6 ad 3c 9c 6b af bd a3 b6 4e bc
       -0.11354736 0.02121271 -0.08565447 -0.012616786
000220 cd 20 39 3d 33 ba a9 bd c8 ca f8 3d 59 55 c2 3d
       0.045197297 -0.08287468 0.121480525 0.09488935
000230 28 29 bf 3d 60 54 4a 3d f7 a3 ab bd 4f 11 e6 bc
       0.09334022 0.049396873 -0.08380883 -0.028084425
000240 ff 92 95 3d b2 70 09 3e 67 2d 13 bd 78 a1 a8 3c
       0.07303428 0.13421896 -0.03593197 0.020584807
000250 53 05 85 bb e2 18 01 be 8f fa 5e bd 74 e8 f1 3c
       -0.0040594726 -0.12607148 -0.05443817 0.029529788
000260 66 bb ee bd 1d 68 79 b9 a5 60 41 bd 50 d5 d3 bd
       -0.11656837 -0.00023785276 -0.047211308 -0.103434205
000270 dc a4 8c 3d 59 ed 04 3e a6 21 de 3d c3 70 fd 3d
       0.06867382 0.12981166 0.10846262 0.12375023
000280 fd ac c1 3d 1a 7d 80 3d 73 73 cf bc 2e 5f f8 3d
       0.09456823 0.06273861 -0.025323605 0.12127529
000290 89 c2 0e be 1e ae 13 bd 40 b1 e8 3c fb 3a d0 3d
       -0.13941397 -0.036054723 0.028404832 0.101675
0002a0 32 47 1a 3c f1 89 c3 bd e1 98 4b bc 0f 8d ec 3c
       0.009416388 -0.095477946 -0.012426586 0.028875856
0002b0 70 ce b7 3b b1 ac 60 bd d7 d8 c2 bd 88 27 9e 3c
       0.005609326 -0.05485219 -0.09514015 0.01930596
0002c0 67 89 b2 bd 56 4a 7b bd 10 90 9b 3b 87 5f 0f 3c
       -0.08717614 -0.06135019 0.004747398 0.008750803
0002d0 ea c8 3d bd 50 a9 9d 3d 35 67 38 bd a8 a6 9d 3c
       -0.046334185 0.076983094 -0.0450203 0.019244507
0002e0 df 6b 37 bd e7 a9 a7 bd a3 ee 9c 3d 28 8c a2 bd
       -0.04478061 -0.08186703 0.07662704 -0.07936889
0002f0 ab a5 60 39 fa af 93 bd 94 5b 9b 3d 63 4c 6b 3d
       0.00021424021 -0.07211299 0.075858265 0.057445895
000300 bb 76 f1 3c b2 1c cc 3c 7c 22 a9 bd e8 eb ad 3d
       0.02947556 0.024916027 -0.082585305 0.08492261
000310 61 d9 c2 bc 16 b6 c4 bc 87 20 99 bc a8 b2 1a bd
       -0.023785295 -0.024012607 -0.018692268 -0.037768036
000320 cd 63 a7 bc 6b 3f fb 3d eb 51 67 3d 20 03 43 3d
       -0.02043333 0.122679554 0.056474607 0.047610402
000330 42 42 06 3e 17 3a d6 bd b5 63 e2 3d f5 5c 24 3d
       0.13111213 -0.104602985 0.11054174 0.040127713
000340 eb e6 90 3d 44 28 04 bd 1a dc a2 bb 11 16 b1 3d
       0.07075294 -0.032264963 -0.004970086 0.08646787
000350 ae 80 ad bd 42 b8 1a 3d a5 c8 63 bd d2 b1 af 3d
       -0.08471809 0.03777338 -0.05561127 0.085788384
000360 a7 e0 8d 3d 1d 40 d9 3d bd 81 c6 3d e0 b8 a0 bc
       0.06927615 0.10607932 0.09692714 -0.019619405
000370 14 6a 0f bc 6f ef e0 3d 9f 65 b7 bd 7b a2 71 3d
       -0.008753318 0.10983168 -0.089549296 0.058992844
000380 45 f1 f6 3d cc 4c 76 3d b3 00 06 3e 2b fe 87 bd
       0.12057737 0.060131833 0.13086204 -0.066402756
000390 af a1 de bc ce 42 a2 ba 35 ea 92 3d b4 1f 0d 3d
       -0.027176706 -0.0012379528 0.07173578 0.034454063
0003a0 7f e9 37 3d 00 8c 12 3e cd d1 88 3d f2 a3 a6 3d
       0.044900414 0.14311218 0.06680641 0.08136739
0003b0 11 fe c1 3d 98 2b 42 bd 7b 5d 84 bd 2f 4f aa 3c
       0.094722874 -0.047404855 -0.064631425 0.02078971
0003c0 d1 35 bb 3d e2 a2 79 3d 47 ed 01 3e c3 67 54 bd
       0.09141124 0.060946353 0.1268817 -0.051856767
0003d0 95 da 32 bc 5e 2e d5 3d a9 1d ac 3d 1e 28 62 bd
       -0.010916372 0.104092345 0.08404095 -0.05521404
0003e0 48 a7 9f 3c 71 f7 96 3d 49 94 93 3d 99 04 10 bc
       0.019488946 0.073714145 0.072060175 -0.008790159
0003f0 0f 3f 23 3d 89 fd c5 3d 02 bd d8 3d d3 3d 40 bd
       0.03985506 0.096674986 0.105829254 -0.04693396

lstm.weight_ih_l0_reverse f4 [256, 40]
000000 3a d3 de 3d 99 7e 8e bd 8b 40 87 bc e5 16 a8 3d
       0.10880132 -0.0695774 -0.016510269 0.08207492
000010 3b 46 05 3b dc bb 90 3d 9b e8 91 3d fe 71 c4 bd
       0.002033605 0.07067081 0.07124444 -0.09592055
000020 25 4f 87 3d df 59 ba 3c 12 4e 93 bd 32 f8 a5 3c
       0.066068925 0.022747932 -0.07192625 0.02025995
000030 fc 2b 00 be 1f 4d 1a be 19 b5 20 3b 88 34 fd bc
       -0.12516779 -0.15068482 0.0024522005 -0.030908838
000040 f0 30 db bb de 55 8e bd da 2c ba ba a0 da 02 3e
       -0.0066891834 -0.069499716 -0.0014204041 0.12778711
000050 cc 95 ed 3b d0 7d 8f 3c 6e a2 eb 3d 76 81 bc bd
       0.007250523 0.017516047 0.115055904 -0.0920438
000060 96 32 79 bd a3 ba a2 bd 1a 04 9f 3d 2f 45 ad bc
       -0.060839258 -0.079457544 0.07764454 -0.021151153
000070 1c 7a 56 3d f1 fe 31 bd 07 6d b1 3c 87 18 3a bc
       0.052362546 -0.04345602 0.021658434 -0.011358387
000080 62 b1 2d 3c 52 3e 82 bd 7c e2 0b bd 86 c6 ef bd
       0.010601373 -0.06359543 -0.03415154 -0.11707787
000090 f0 1e 0e 3d c1 4a f9 bd 8f 01 d8 bd fd 75 d7 bc
       0.034697473 -0.12172461 -0.10547172 -0.026301378
0000a0 78 55 ac bd 85 e8 6d bd a3 d2 fb bb e6 c6 e0 bb
       -0.08414739 -0.058083076 -0.007685022 -0.006859648
0000b0 a4 6f dc bc 34 d4 00 be f1 f0 0c be 56 9a 34 bd
       -0.026908703 -0.12580949 -0.13763787 -0.0440925
0000c0 25 04 12 3d e9 86 5c bd 66 d9 23 bc 80 84 0d 3e
       0.035648484 -0.053839598 -0.010000562 0.13820076
0000d0 d0 23 c3 3b c6 b2 a9 3c b3 fd da bd 78 10 cf 3d
       0.005955197 0.020715129 -0.106929205 0.10110563
0000e0 43 5c 3a 3d 2a d0 f5 3c fd f5 ff 3b cf 4a ee bd
       0.045498144 0.030006487 0.0078113065 -0.11635362
0000f0 f9 a7 f3 3c 7b ea 90 3d a3 76 0e be 59 67 e4 3d
       0.029743182 0.070759736 -0.13912444 0.111525245
000100 0d d6 f4 bd b8 16 8a 3d ab cd 4f bc 9a e4 a9 bc
       -0.119548894 0.067426145 -0.012683312 -0.020738889
000110 88 e4 02 3d bf 29 96 3d d6 4b 43 3d 28 5c 9e b8
       0.031956226 0.07332181 0.047679745 -7.5511925e-05
000120 d7 2f b5 bd 47 4a fc 3d 65 05 87 3d 6d f7 bd 3d
       -0.08847015 0.12318855 0.06592826 0.09275708
000130 01 7d 2f bd 1d 9c e1 3d 96 e9 31 3d d7 83 69 bd
       -0.042843822 0.11016104 0.043435656 -0.057010498
000140 15 7c db 3b b4 bd ba bc 40 dd 82 3d b0 ae b2 bd
       0.0066981413 -0.022795536 0.06389856 -0.08724725
000150 dc 8c 83 3d 98 61 5c 3d 0d d8 8c bd cd b1 76 bd
       0.06423351 0.05380401 -0.06877146 -0.060228158
000160 68 e0 0e 3d e4 c1 24 3d 64 e7 44 3d 56 0e 90 3d
       0.03488198 0.04022397 0.048072234 0.07033984
000170 4d fe d9 bd 49 41 25 3d a6 44 72 3d d2 ff 08 bd
       -0.10644207 0.040345464 0.0591475 -0.033447094
000180 1a 93 32 bd ef a9 82 3d 46 3b bd 3c 10 fd c3 3d
       -0.04359732 0.063800685 0.023099553 0.09569752
000190 97 a2 63 bd 30 a1 f7 bd 5a d9 a9 3d 90 ea 9e 3d
       -0.05557498 -0.12091291 0.0829341 0.07759583
0001a0 f0 2e 7d 3d 0b 24 57 3d f6 c2 02 3d 52 1d ee 3d
       0.06181234 0.052524608 0.03192421 0.11626686
0001b0 77 7a d5 3d b1 05 12 be 32 d3 bd bd a1 e5 98 bc
       0.10423749 -0.14259984 -0.09268798 -0.018664183
0001c0 2d 41 78 bd 50 82 9d bd 95 7f 88 3a d7 25 90 3d
       -0.06060903 -0.07690871 0.0010413999 0.070384674
0001d0 55 b6 64 bd 18 ec 78 bd b9 cb 93 bc d4 05 62 3c
       -0.055837948 -0.06077203 -0.018041478 0.013795335
0001e0 f6 13 5b 3d 6b fb 95 3d b7 cc 01 bd b4 27 d3 3c
       0.053485833 0.07323345 -0.031689372 0.025775768
0001f0 9f 23 0e be 07 a0 39 3c 15 3d be 3d 6f ed 0c 3d
       -0.13880776 0.011329657 0.09288994 0.03440612
000200 60 f0 47 3c bb 56 0a 3e 97 03 a7 3d 5b 0c db bc
       0.012203306 0.13509648 0.081549816 -0.02673929
000210 4f b0 13 bb d8 72 a9 3d e1 ce 9b 3d 9a bb c9 3d
       -0.0022535508 0.08273858 0.076078184 0.09850235
000220 b5 ba dd bd 2b de 46 3d 38 c8 25 3d 9c 74 30 3c
       -0.10826627 0.04855172 0.040474147 0.010769989
000230 42 4e 32 bc 10 98 b6 3d 77 2b d7 bd 2d 55 a3 3c
       -0.010882916 0.08915722 -0.10506337 0.019938076
000240 41 05 b2 3d 31 4b 5e 3d 0a 04 9b bd 38 76 ae bd
       0.08692408 0.054270927 -0.0756913 -0.08518642
000250 09 c1 03 3d 61 d9 0c 3d 8b 39 70 3c 3d cc 80 3c
       0.032166515 0.034386996 0.014662157 0.015722388
000260 65 5d 47 3d 6c 6b 50 3d 33 96 13 be d3 cc 65 bc
       0.048673052 0.050883695 -0.14412765 -0.014025885
000270 cb 88 5c 3d c1 aa e4 bd c6 92 60 bd 63 de 13 3e
       0.053841393 -0.11165381 -0.054827474 0.14440303
000280 c9 ad 9b 3c 8a 85 d7 bd bf 3b ef 3d b9 59 07 be
       0.019003766 -0.105235174 0.116813175 -0.1321782
000290 e7 bf 6f bd ed 6d ad 3d db 08 cf 3d 48 a4 e7 3d
       -0.05853262 0.08468232 0.10109111 0.11310631
0002a0 cc 35 f4 3d ae d2 8d 3d 2d a3 d6 3d b7 70 23 3d
       0.119243234 0.069249496 0.10480342 0.039902415
0002b0 98 fc 09 3e 37 d0 e2 3d a4 a0 83 3d 87 f6 ee 3d
       0.13475263 0.1107487 0.06427124 0.11668115
0002c0 88 b7 98 3d b8 0f a8 3d 45 4b 78 bd 32 20 7d bd
       0.07456881 0.08206123 -0.060618658 -0.061798282
0002d0 04 f9 2c 3d 03 1e c2 3a 57 d9 a3 3d e1 5d cb bb
       0.042229667 0.001480997 0.08000439 -0.0062062596
0002e0 ca d5 ae 3d 44 ee b0 3c 72 02 b1 3a d0 ab 00 3e
       0.08536871 0.021597989 0.0013504757 0.12565541
0002f0 05 db 90 bd 51 ec 24 3d 71 56 bf bd 51 17 69 3c
       -0.07073025 0.04026443 -0.09342659 0.0142267505
000300 50 f7 d1 bd dd 73 40 bd e9 49 4a bb 5f 71 e7 3d
       -0.10252249 -0.046985496 -0.0030866808 0.11300921
000310 8f cc 94 bd da 5b 10 3d 5a 0a b5 bd 2b b1 1a bd
       -0.07265579 0.035243846 -0.08839865 -0.037766617
000320 85 d0 b2 bd f9 ba 04 3e fd 67 d7 3c 14 93 b9 3c
       -0.08731178 0.1296195 0.026294703 0.02265314
000330 3f b5 d6 3d f2 27 0f 3d a3 db d7 3d f6 99 70 3d
       0.10483789 0.034950204 0.10539939 0.05874058
000340 af 8e 62 3d 0e dd fa bd 0d a0 3c bd b8 28 06 3e
       0.055311855 -0.12249194 -0.046051074 0.1310147
000350 e7 10 4e bd fe cc be 3d 1b 89 f8 bd e4 bd 7e 3d
       -0.050309088 0.09316443 -0.12135526 0.062192813
000360 a6 37 f4 3d 9a 99 84 bd 67 19 80 3d 58 5d 92 bd
       0.119246766 -0.0647461 0.06254845 -0.0714671
000370 e2 5b 8c 3c 04 d7 94 3b b9 62 90 bd 69 65 ce bd
       0.017133657 0.0045422334 -0.0705008 -0.10077936
000380 e8 9c a3 bc 12 59 da 3c fd 8d ff bc d2 bf b5 bd
       -0.01997228 0.0266538 -0.031195635 -0.088744774
000390 13 50 99 bd 81 8e f6 3c dd 6f e8 bd 95 4d 29 bc
       -0.07485976 0.030097248 -0.11349461 -0.010333438
0003a0 30 96 60 3d 2f d1 08 3e 76 6f b8 bc 68 06 f8 3d
       0.05483073 0.13361047 -0.022514086 0.12110597
0003b0 1f 4e d7 bd 49 06 dd bc 77 93 c2 bd 98 83 9c bd
       -0.10512947 -0.026980536 -0.09500783 -0.07642287
0003c0 fb 6f 40 3b 7f 54 f1 3d 00 07 e0 3c a4 ad e7 bb
       0.002936362 0.117836945 0.027347088 -0.00707026
0003d0 8d 2e b5 bd 50 e6 dc 3d 27 ef d5 bc e1 d4 cb bd
       -0.088467695 0.10786116 -0.026115013 -0.09952713
0003e0 e6 65 1b 3d 4c 90 8f 3d 89 85 ae bd 2a 47 1a bb
       0.037938975 0.07009944 -0.085215636 -0.0023540952
0003f0 dd b9 fa bd 12 5d a1 bd 5c 78 92 3d df 12 fd 3c
       -0.12242482 -0.0787908 0.07151863 0.030892788

lstm.weight_hh_l0_reverse f4 [256, 64]
000000 b7 be 7f 3d 69 cc 11 bd e4 88 01 bd 3a fd 88 3c
       0.06243774 -0.03559533 -0.03162469 0.01672231
000010 55 aa 99 bc 1e 65 dc bd 0b 2f 08 3c 21 06 b8 3d
       -0.018757978 -0.10761474 0.008311997 0.08985544
000020 d9 02 4e 3c 58 df aa bd f4 bc a4 3c d9 64 8c bc
       0.012573921 -0.08343381 0.020109631 -0.017137932
000030 13 ee ea bd c8 9f 25 3d 2f 2a ab bd 75 e8 2d 3d
       -0.1147119 0.040435582 -0.08357655 0.042458016
000040 b4 6f 99 bd 4d c0 5f bd 72 ab 96 3d 78 08 ee 3c
       -0.07492009 -0.05462675 0.07356919 0.029056773
000050 99 0b 48 bd 07 b8 50 bd d4 37 74 bd a5 9d 5d 3d
       -0.048839185 -0.050956752 -0.059623554 0.05410542
000060 3a d3 7c 3c 52 69 61 3d 4e d4 ad 3d 42 18 92 3d
       0.01543122 0.055032082 0.084877595 0.07133533
000070 b9 7a b6 3c 91 05 73 3d b0 73 75 bc 31 49 39 bd
       0.022275316 0.05933148 -0.014981195 -0.045235816
000080 4a 7b 40 bd 49 2f 91 3d 80 0b 78 3d d5 73 e5 bd
       -0.046992578 0.07089097 0.060557842 -0.11203734
000090 c6 34 10 3c 9a 41 9e 3b 0d d4 b2 3d e5 d6 a6 bc
       0.008801645 0.0048295977 0.08731852 -0.020366142
0000a0 2b a0 bb 3b 85 60 64 3d 71 d3 a4 3c c6 52 2d bd
       0.0057258806 0.05575611 0.020120354 -0.042315267
0000b0 8e 48 4a bd 1f e4 03 3e 3b 19 4e bc 27 fb 69 3d
       -0.0493856 0.1287999 -0.012579258 0.057124283
0000c0 c3 c0 00 3e 8c aa f3 3c 45 02 bd 3d 32 53 6a 3d
       0.12573533 0.029744409 0.092289485 0.057208247
0000d0 2d 55 c4 bd 28 63 0e 3d d5 32 8e bc 34 24 1c bc
       -0.095865585 0.03476253 -0.017358223 -0.009530116
0000e0 c3 a0 f1 bc 0f a6 01 3d a4 42 ae bd 65 62 9d b9
       -0.029495602 0.031652506 -0.085088044 -0.00030018683
0000f0 89 00 1e bd 56 26 fe 3c d1 62 27 3d c4 14 70 3d
       -0.03857473 0.03102414 0.040865723 0.058613554
000100 68 df 84 bd 7b eb 0d 3e f3 65 d2 bd 1a 60 5d bc
       -0.06487924 0.1385936 -0.102733515 -0.013511682
000110 e0 05 03 bd 92 ec 4d 3d b9 26 12 3e 8a d7 e9 3c
       -0.031988025 0.05027444 0.14272584 0.02854516
000120 a0 3b 97 3d 74 54 1a bd 89 c9 b6 bd 2f 07 36 bd
       0.073844194 -0.037678197 -0.089251585 -0.044440445
000130 72 bf c0 bd 4b ff 05 3e 0c f4 04 be ec 12 26 3d
       -0.09411515 0.13085668 -0.12983721 0.04054539
000140 ed 12 12 3e b9 76 20 3d 3b 60 76 3d 4c ff 73 3b
       0.14265032 0.039175723 0.060150366 0.0037231026
000150 23 fc 0b bd 63 ef ed bb 92 a8 cf 3d d9 ca e1 3d
       -0.034176003 -0.007261203 0.10139574 0.11025018
000160 48 c9 63 3d dc 52 2f bd c7 4b be 3c 7d dd af 3d
       0.05561188 -0.04280363 0.023229493 0.085871674
000170 34 d7 97 bd 6c 65 b5 3d c2 b7 c9 3d 39 cc 04 be
       -0.074140936 0.08857235 0.09849502 -0.1296853
000180 24 1f 9b bd 66 48 1b 3c 63 e8 12 bc 1e c7 2d 3d
       -0.07574299 0.00947771 -0.008966538 0.04242622
000190 e5 91 ee bd 42 8c 07 bd 6c a4 6e bd 3c 26 0b 3d
       -0.11648921 -0.033092745 -0.058262274 0.03397201
0001a0 50 46 7e bd a2 f4 09 be fc 20 d5 bd 30 a0 2a bd
       -0.062078774 -0.13472226 -0.10406682 -0.041656673
0001b0 0e 63 6d bd e6 44 f3 3d 70 b6 12 be 92 28 c0 bb
       -0.057955794 0.11878376 -0.14327407 -0.0058642114
0001c0 4d 61 9b 3a bb 42 68 3d 3f c4 b7 3d d6 91 0a bd
       0.0011854559 0.056704264 0.08972978 -0.033830486
0001d0 d4 d1 7b 3c 93 28 97 3c c0 a7 22 3d fd 91 85 bd
       0.015369851 0.018451964 0.03971076 -0.06521986
0001e0 e4 b0 ad 3c 43 5a e8 bb 70 0a 8a bd 00 4a f3 bb
       0.021202512 -0.007090838 -0.06740272 -0.007424593
0001f0 6f a4 98 bb f0 fa 9c bd 48 69 89 3d 9b ee 38 3b
       -0.004658274 -0.0766505 0.06709534 0.0028218392
000200 4a 8e 20 3c e4 74 d0 bd d7 56 b7 3c ad 65 7d 3d
       0.009799549 -0.10178545 0.022380276 0.061864544
000210 ab 13 96 3d 17 de 51 bc 3f 9b 40 bd 0f 2f 09 3e
       0.0732797 -0.012809298 -0.047023054 0.13396858
000220 1d c5 bf bd 8c 8a d4 3d ac 55 89 bc bb 66 7f bd
       -0.09363768 0.10377988 -0.016764484 -0.06235383
000230 7d e8 45 3d 39 37 8f bd 27 c1 ed 3c ff bb f5 bb
       0.04831742 -0.06992955 0.029022766 -0.0074992175
000240 5b 64 02 be 9d 6c 70 3d 23 46 bd 3d c5 84 4d 3c
       -0.12733595 0.05869733 0.09241893 0.012543862
000250 f8 9e 4f bd f2 05 e5 3d d9 c9 61 bd e1 3b bd bd
       -0.050688714 0.111827746 -0.055124138 -0.092399366
000260 82 e2 0d be 68 a9 83 3d e7 50 07 be 83 df ea bd
       -0.13855937 0.06428796 -0.13214456 -0.11468413
000270 b6 5f 95 3c 86 27 ec bc 47 5e a1 bd c4 b8 0f 3e
       0.018234115 -0.02882744 -0.0787931 0.14035326
000280 90 8d f7 b9 74 ac 5f 3d 39 53 21 bd 74 26 62 bc
       -0.00047216984 0.054607823 -0.039386008 -0.013803113
000290 e8 8f 97 ba e1 ee d6 bd fb fb ed 3d de f9 c5 3d
       -0.0011563273 -0.10494781 0.11620327 0.09666799
0002a0 a4 c3 c5 bd d6 37 b3 3c 60 90 7d 3d 73 8e 0a bd
       -0.09656456 0.02187721 0.061905265 -0.033827256
0002b0 5f b6 6e bc 78 b9 22 bd 8c 6e 41 bd ee 8d ed 3c
       -0.014569848 -0.039727658 -0.047224566 0.028998341
0002c0 42 ed 1d 3e c8 be 39 3c c7 53 67 bd 2d 9d 13 3e
       0.15422538 0.01133699 -0.05647638 0.14415427
0002d0 df b1 20 bc 67 d3 13 bd 54 88 da 3d 05 a9 9d 3d
       -0.009808033 -0.03609028 0.10670534 0.076982535
0002e0 21 56 65 bd ce d5 1c bd 88 30 b8 3c 1a a9 89 3d
       -0.055990342 -0.038289838 0.022484079 0.06721707
0002f0 83 89 d8 3d 03 35 09 3d fd 50 24 3d 92 3a 95 bd
       0.10573103 0.03349782 0.0401163 -0.07286562
000300 7c e6 98 bd a7 f2 7a b9 83 ea 0b be cf 2a 99 bd
       -0.074658364 -0.00023932253 -0.13663678 -0.07478868
000310 5a cf 78 bd 07 46 7b 3c 5d 04 3c 3d 39 5d 58 bd
       -0.06074462 0.01533652 0.0459026 -0.05282328
000320 e8 e7 a2 3d 78 01 f6 3c 30 13 fd 3d 16 d5 a9 3c
       0.07954389 0.030029997 0.12357175 0.02073149
000330 43 9a c1 3c 39 2e ed 3c 0d 1f 12 3d 19 f0 ff 3d
       0.023633128 0.028952705 0.035674144 0.12496967
000340 67 01 95 bd 53 82 c6 3d 79 de 38 bd 26 3f 53 3c
       -0.07275658 0.09692826 -0.04513404 0.012893474
000350 87 e6 85 bd 4c 6a b7 3d 1a f1 bc bd 72 fa 26 bd
       -0.0653811 0.089558214 -0.09225674 -0.040766187
000360 5d f4 cb 3c 50 3c 6c 3d ff c6 93 bd 48 93 a0 bd
       0.024896795 0.057674706 -0.0721569 -0.07840592
000370 15 e3 0c bd e4 bc f2 3d 5c 53 8b 3c e4 33 ee bd
       -0.03439625 0.11852434 0.017007522 -0.11630991
000380 47 23 80 bd 3b 57 67 3d 1f 96 d9 bc 8b 88 18 be
       -0.062567286 0.056479674 -0.026560841 -0.14895837
000390 a5 99 c6 bd aa ee fc 3c 79 50 49 3c 5a be 28 bc
       -0.09697274 0.030875523 0.012287253 -0.01029929
0003a0 78 00 15 3e 74 12 06 bd bc f1 a8 bc 19 85 dc bd
       0.1455096 -0.032732442 -0.02062308 -0.10767574
0003b0 18 2c fe bd a2 5c a2 bd 9d f4 ae bd a2 0e 07 bd
       -0.12410754 -0.079278246 -0.0854275 -0.03297294
0003c0 d8 2f ee bb d8 c8 a6 bd 58 80 8a bd 3c ed 99 3c
       -0.007268887 -0.08143777 -0.06762761 0.01878988
0003d0 50 52 d7 3c c1 0a 73 bd a9 3d 7f bc 9a 33 41 3d
       0.026284367 -0.059336428 -0.015578666 0.04716835
0003e0 81 9f 0b 3e fa f8 38 bd 63 a2 ae 3d 5c 5d 38 bd
       0.13635065 -0.045159318 0.085270666 -0.04501091
0003f0 c4 26 b9 3d 44 37 8c 3d c7 1b ee 3d a5 19 d3 bc
       0.09040597 0.068464786 0.11626392 -0.025769064

lstm.bias_ih_l0_reverse f4 [256]
000000 58 54 f6 3d 4e 4d 73 3d 12 43 a4 3d 90 37 72 bb
       0.12027806 0.059399895 0.08020605 -0.0036959387
000010 d6 d3 ae 3d 2e df 82 3d b1 6c 0b 3e 27 7f 37 3d
       0.08536498 0.063902244 0.13615681 0.044798996
000020 c6 1a eb 3c 2f 92 39 3d a9 61 8c bd fd de 90 bd
       0.02869929 0.045305427 -0.06854565 -0.07073782
000030 cb 7f 02 bc f1 c1 b9 bd a3 5f 86 3d 1e dc 83 bd
       -0.0079650385 -0.090701945 0.0656121 -0.064384684
000040 d5 4d 02 3a bd 2b 24 3d 76 89 f3 3d ef 5d a7 bd
       0.00049707043 0.040080775 0.11891453 -0.08172213
000050 49 1a 0c 3d 5f f8 c2 3d 25 f9 0b bd 34 86 fb 3d
       0.034204755 0.09520029 -0.03417315 0.122814566
000060 b7 25 b7 bd 4b f1 0f 3e bd 2d 90 bd 9e c4 93 3d
       -0.089427404 0.1405689 -0.07039974 0.07215236
000070 d6 0b 31 bd c0 8a e5 3d d5 95 d2 bc ff 4c 9c 3d
       -0.04322418 0.11208105 -0.025706211 0.07631873
000080 f9 e6 ca 3d 7e 9e eb bd a5 68 ea bd ce 80 d0 bd
       0.09907336 -0.11504839 -0.114457406 -0.101808175
000090 5a ef 11 3e 5c a6 5d 3d fc 7b 4a 3d 09 e6 d5 bd
       0.14251462 0.05411373 0.049434647 -0.10444266
0000a0 d6 41 f4 3d 0d 8c 16 3c 8f 99 4f bd 8b 5e 49 bd
       0.1192662 0.009188664 -0.050683554 -0.04916243
0000b0 15 c3 17 3d 15 85 8a bd 85 15 e3 3c 44 9a 1d bd
       0.03705128 -0.06763665 0.027720222 -0.038477197
0000c0 a7 c7 b3 bd 33 ec 21 bd bc 48 f1 3d cb e0 63 3c
       -0.08778315 -0.039531898 0.11781451 0.013908575
0000d0 1b 2a d3 3d 81 19 6e bd aa cd f2 bc 97 91 af 3d
       0.10310765 -0.05812979 -0.029639084 0.08572691
0000e0 29 6a a0 bd 29 d3 71 bd 56 99 6c bc cf 74 01 3c
       -0.078327484 -0.05903927 -0.014440855 0.0079013845
0000f0 8a 6c 64 3d c6 b3 8b 3d 07 89 c5 bd 1c 10 25 bd
       0.055767573 0.068213984 -0.096452765 -0.040298566
000100 49 62 ff 3d 9a 62 37 3d cd a9 f6 3d e3 5b 85 bd
       0.12469918 0.04477177 0.12044106 -0.065116666
000110 76 60 1b 3d 3d a4 0b 3c b9 62 ba bd ec 48 66 3d
       0.03793379 0.008523044 -0.09100861 0.056221887
000120 80 f6 01 3d 49 c8 b1 bd 04 8b f6 3c df 69 cd 3d
       0.03172922 -0.086807795 0.030095585 0.10029959
000130 90 b7 9c 3d d1 8b 0b bc 7c 42 39 3d ce 5f b6 bc
       0.07652199 -0.008517222 0.04522942 -0.02226248
000140 ee 7f 6b 3d 73 61 82 3d 53 73 22 3e 5f a0 82 3c
       0.05749505 0.06366243 0.15864305 0.015945612
000150 eb fc c4 bc d3 f5 54 bd bd 6d 1f 3e bb 19 37 bd
       -0.024046382 -0.05199225 0.15569206 -0.044702273
000160 78 50 8b 3d 58 58 56 3c 31 40 4f bd 5c 18 cb 3c
       0.068024576 0.013082586 -0.050598327 0.024791889
000170 0d 92 11 3e cb 9f 8f bd 85 24 9e 3d 00 1a 79 bd
       0.1421587 -0.070129 0.07721809 -0.06081581
000180 1a 42 b3 bd bd 55 a2 3d c4 f3 87 3d dc 30 b8 3d
       -0.08752842 0.079265095 0.066382915 0.08993694
000190 1a d2 ab bd 30 b9 e7 3d 2f 54 b1 3d 67 c0 ed 3c
       -0.08389683 0.113146186 0.08658635 0.029022409
0001a0 f1 9d 05 3e db 97 65 3d 17 4a c3 3d ba 8e ff 3c
       0.13048531 0.056053024 0.09535616 0.031195987
0001b0 53 60 bf 3c a7 87 48 3d bc e4 8e 3d ea 0a 7e bd
       0.02336136 0.048957493 0.06977221 -0.062022127
0001c0 ca 97 1f bd 6b 34 a9 bd 35 47 c8 3c 8e b5 02 bd
       -0.038963117 -0.08261951 0.024448017 -0.031911425
0001d0 6e 09 51 bd f1 3d 17 3d e4 6f b0 3d 38 de eb bd
       -0.051034383 0.036924306 0.086150914 -0.11516994
0001e0 1b 0a 02 3e bc 20 46 3d 02 9a cc 3d 59 ce 7c bc
       0.12699167 0.04837106 0.09990312 -0.0154300565
0001f0 e8 91 08 3e 68 35 6a bd 99 69 8f bd 44 5b ff 3c
       0.13336909 -0.05717984 -0.07002563 0.031171449
000200 3e 56 4c 3d a1 8e 0c 3d 22 54 81 bd dd 31 34 bc
       0.049886934 0.03431571 -0.06314875 -0.010998216
000210 5c b9 41 bd f1 96 75 3d 5a 6a b7 bd e1 ce a3 bd
       -0.047295913 0.059958402 -0.08955832 -0.079984434
000220 11 81 a0 bd 76 d3 99 3d d2 5f c0 bb 82 1d f0 bd
       -0.078371175 0.07511036 -0.0058707977 -0.11724378
000230 dd e8 5a 3d f4 ab c4 bc 0d d1 05 bc 72 4a 8d 3d
       0.053444732 -0.024007775 -0.008167517 0.06898965
000240 92 3f 8c bd e1 ac 85 3d 64 66 ab 3c 68 be 09 3d
       -0.068480626 0.06527115 0.020922847 0.03362885
000250 77 eb c0 3c 4d e6 f1 bd 84 19 e9 bd 07 48 08 bd
       0.023549778 -0.118115045 -0.1138182 -0.033271816
000260 43 14 98 3d d3 ca 10 bd 4f 56 1a 3d 93 be d1 3d
       0.074257396 -0.03534968 0.037679967 0.10241427
000270 64 d9 0e 3d 8f c4 9f bd 67 70 ac 3d fb d9 34 bd
       0.03487529 -0.078011625 0.084198765 -0.044153195
000280 72 fa 95 3d aa 80 e4 3b 5d e4 e9 bd f8 4d a9 3b
       0.07323159 0.0069733458 -0.1142051 0.0051667653
000290 06 ac cc bd 0e 0a 24 bd ca 58 0a 3e dc 0c c5 bd
       -0.09993748 -0.04004865 0.13510433 -0.09621593
0002a0 e9 58 cd 3c 17 a6 79 3c 58 48 e1 3c 87 c6 dd bc
       0.02506681 0.015237353 0.027500317 -0.027072204
0002b0 64 04 8e bd 35 da be bc 49 b0 2f 3d ec fb 79 3d
       -0.06934431 -0.023297409 0.042892728 0.061031267
0002c0 9c 02 56 bd 86 b5 e0 bd 54 a6 90 bd d7 2c a4 3c
       -0.052248582 -0.10972123 -0.070629746 0.020040913
0002d0 3b 07 3d bd 42 c7 34 3d 5a e7 c7 bd 45 56 9c bd
       -0.046149474 0.04413534 -0.09760924 -0.07633642
0002e0 1f b3 e7 bb 58 48 85 3c a8 a0 20 bd b3 38 8f bd
       -0.0070709134 0.016269848 -0.039215714 -0.069932364
0002f0 4c 22 6f bd 5f 73 c9 3c 37 cb d5 3d 0c 39 49 3d
       -0.058382317 0.024591146 0.10439151 0.04912667
000300 fe 1e f1 3d 32 05 e3 bd 90 91 09 3e 12 1e c7 3d
       0.117734894 -0.11084975 0.13434434 0.09722532
000310 bc 1c a0 3d dd 58 8b bd 65 3e b7 bd 29 c3 1b bd
       0.07817981 -0.06804059 -0.08947448 -0.038027916
000320 f0 ec 3b bd 60 13 e0 bd 48 91 88 3d 8c 17 0d 3e
       -0.045880258 -0.109411955 0.06668335 0.13778514
000330 7a 05 b1 3d a5 ba ad bc b5 6c e6 3c 98 22 db 3d
       0.08643623 -0.021207163 0.028128007 0.106999576
000340 fe 18 ba bc f6 8c bd bd b6 2c 2f 3c 80 2f f0 3c
       -0.022716995 -0.09255402 0.010691812 0.029319525
000350 7a 98 cb 3c a3 47 e4 3d 6e 6b 88 bc f2 9c a3 3d
       0.02485298 0.11146476 -0.016652789 0.07988919
000360 36 27 3c 3d 31 f2 03 bd 10 da a6 bd eb e3 a1 3d
       0.045935832 -0.032213394 -0.08147061 0.079048
000370 56 fd 85 3c aa 7a d3 bd cc a8 e9 3d 78 d5 03 3d
       0.016356152 -0.10326131 0.114091486 0.032186
000380 64 3a 3a 3d 49 7d 22 bc 1d 69 8c bd a7 2e a9 bd
       0.045465842 -0.009917566 -0.06855986 -0.08260851
000390 69 16 97 3d 94 64 86 3c 0d 21 97 3d 15 55 e5 3d
       0.07377321 0.016405381 0.07379351 0.11197869
0003a0 fd e1 13 39 55 2c 4c bd 65 bd d8 3d 63 67 12 3e
       0.000141032 -0.049846966 0.10582999 0.14297251
0003b0 7d a8 ba 3d 97 14 42 3d ed 06 8f bd b1 e2 93 3d
       0.09114168 0.047382917 -0.06983743 0.07220972
0003c0 4e cd c6 bc 74 b2 e1 bd 7d 68 f9 3d 0d 9d 3b bd
       -0.024267819 -0.11020365 0.12178133 -0.045804072
0003d0 40 37 c6 3c 69 e7 c5 3d 2a 2f 0d bd 3a db c7 bd
       0.024196267 0.096632786 -0.034468807 -0.09758611
0003e0 17 ab ac bb 15 4c c9 3d 34 18 00 bd 76 88 af bc
       -0.005269419 0.098289646 -0.031273082 -0.021427374
0003f0 dc b9 12 3e 39 4b c5 3d 83 ca 1f bd 31 ac 45 3d
       0.14328712 0.09633488 -0.03901149 0.048259918
