trained_models/LSTM/LSTM_Zscore_CF5_pred_2.pth (torch, 661823 bytes, 23 tensors)

lstm.weight_ih_l0 f4 [256, 40]
-0.13130648 -0.04016413 -0.048300814 -0.05747545 -0.07316185 -0.08840539 -0.013242881 0.025892314
-0.036698136 -0.042368066 0.075149246 -0.10765597 0.09010873 0.015574805 -0.06735889 0.024993557
-0.03268967 0.092193075 0.06081425 -0.03310179 0.01674433 0.030321352 -0.1401722 0.009023653
-0.12369984 0.1911174 0.062360853 0.023983 0.10263662 -0.05514612 -0.061177514 -0.08635073
-0.0615294 0.010612873 -0.118821 -0.0786231 -0.11466559 -0.06532353 -0.117637 0.134018
-0.015867742 -0.07709151 -0.023247102 0.009711918 0.014877678 0.072155595 -0.10497757 -0.014380439
0.07179435 0.033530515 -0.12583947 -0.045222066 -0.13189463 -0.10403714 -0.017981643 0.09069026
-0.037782717 -0.045674145 0.018597644 -0.05408977 -0.017277729 -0.08265496 -0.1003735 0.025625318
0.03829754 0.04246132 0.0034250114 0.083967365 -0.12153487 -0.08338439 0.0123580145 0.048889473
0.10807104 -0.16732061 0.010190324 0.15838762 -0.008710816 -0.058644943 -0.1316067 0.0061407234
-0.044209383 -0.017837094 0.07261381 0.057722747 -0.093558595 -0.01115215 -0.10312212 0.06879544
-0.074853145 -0.061956566 -0.11282816 -0.013411394 -0.0142663885 -0.0740309 -0.0187924 0.16863878
0.021357901 0.14997992 0.0704906 -0.052774932 0.009096061 0.09273914 -0.14987001 0.10812144
-0.12672377 0.027036753 -0.013460724 0.024368413 -0.05756118 -0.06874899 0.06762043 -0.049536232
-0.12712152 0.022631269 0.03601304 0.06798025 0.0351757 -0.078825995 0.07451509 -0.09831102
-0.03730773 0.1754067 0.060069934 0.13555491 0.07848219 0.08296754 0.04217029 0.0946615
0.012929765 -0.022549756 -0.11520771 -0.116092496 -0.03972546 -0.07785091 -0.066046834 -0.0008386793
-0.0030671288 0.07481329 -0.11027329 -0.078342006 0.047652416 0.0969947 -0.12909582 -0.06866655
0.05960668 0.025271349 -0.08173705 0.049468074 -0.112963565 0.08242521 -0.06413297 -0.006690507
-0.09873439 0.03586172 -0.03647886 0.11913334 -0.13101003 -0.05069627 0.07533235 -0.06526391
0.024917275 -0.16421601 -0.02122216 -0.13760114 -0.025778715 0.013014233 0.027766867 0.07747411
-0.02199846 -0.07273984 0.03339964 0.0012826126 0.089165226 0.03544582 0.07000465 0.10011594
0.062620595 -0.05451741 -0.07405876 -0.063426025 -0.014665059 0.1328398 0.11593542 -0.02626869
0.10598284 -0.098648496 -0.010203549 -0.022543745 0.09207373 0.07285328 0.1012382 -0.11098448
-0.04124391 0.06768824 0.047353316 0.030876992 0.10822241 0.058093023 -0.09710709 -0.10974193
0.044292573 -0.15676852 0.0021084596 0.1471129 -0.12192581 -0.106051646 0.09511099 -0.017551934
-0.007034947 -0.06091937 -0.03673712 -0.03923613 -0.110805586 -0.17042284 -0.0389999 0.059909366
0.064677395 -0.10416241 -0.12235355 -0.010051009 0.086851 -0.026061792 -0.11073061 -0.05647258
-0.1350195 0.06471039 0.06618563 0.008084468 -0.038853418 -0.01640074 -0.019899523 0.0352066
-0.13792631 0.06475038 -0.06986005 -0.0450241 0.020222947 0.16631515 -0.016493458 0.031071141
-0.10231228 -0.03446326 -0.09493637 0.08995121 -0.04189266 0.10693983 -0.032509807 -0.02648914
-0.010685182 -0.038967233 -0.041906383 0.14331265 0.099599384 -0.013828908 -0.1078671 -0.064152986
00000000: 3575 06be 2583 24bd 13d7 45bd 616b 6bbd
00000010: e1d5 95bd e30d b5bd abf8 58bc 1e1c d43c
00000020: c950 16bd 238a 2dbd d9e7 993d bc7a dcbd
00000030: ed8a b83d 782d 7f3c 75f3 89bd 4abf cc3c
00000040: 9ae5 05bd b9cf bc3d 5d18 793d be95 07bd
00000050: 682b 893c 7c64 f83c 4d89 0fbe f2d7 133c
00000060: 5756 fdbd 48b4 433e 186e 7f3d ff77 c43c
00000070: 2633 d23d e6e0 61bd 4695 7abd a7d8 b0bd
00000080: 4106 7cbd 9ee1 2d3c 6d58 f3bd 2605 a1bd
00000090: cbd5 eabd 58c8 85bd abeb f0bd 043c 093e
000000a0: 11fd 81bc 27e2 9dbd b570 bebc bd1e 1f3c
000000b0: 81c1 733c 50c6 933d 7bfe d6bd ef9b 6bbc
000000c0: eb08 933d 4b57 093d 10dc 00be c63a 39bd
000000d0: 630f 07be 6d11 d5bd 3d4e 93bc d1bb b93d
000000e0: 0dc2 1abd d014 3bbd 165a 983c 3c8d 5dbd
000000f0: 068a 8dbc 0147 a9bd 9f90 cdbd 30ec d13c
00000100: e2dd 1c3d eceb 2d3d 2876 603b 15f7 ab3d
00000110: 46e7 f8bd 6fc5 aabd 4579 4a3c 5440 483d
00000120: 5954 dd3d 1856 2bbe 51f5 263c 5d30 223e
00000130: cfb7 0ebc ae35 70bd e8c3 06be 1f38 c93b
00000140: e614 35bd 191f 92bc 8db6 943d b06e 6c3d
00000150: a69b bfbd 82b7 36bc b131 d3bd a0e4 8c3d
00000160: 9b4c 99bd 2bc6 7dbd 7312 e7bd 77bb 5bbc
00000170: 92bd 69bc 839d 97bd 85f2 99bc a5af 2c3e
00000180: c4f6 ae3c 5694 193e 605d 903d 872a 58bd
00000190: a507 153c 05ee bd3d 8677 19be c66e dd3d
000001a0: e0c3 01be 2e7c dd3c 5e8a 5cbc 44a0 c73c
000001b0: 46c5 6bbd 45cc 8cbd 947c 8a3d 81e6 4abd
000001c0: 252c 02be 3665 b93c 6982 133d 3b39 8b3d
000001d0: 6514 103d 866f a1bd 5e9b 983d 4a57 c9bd
000001e0: fecf 18bd d09d 333e e40b 763d e8ce 0a3e
000001f0: 45bb a03d e3ea a93d c1ba 2c3d e3dd c13d
00000200: 5dd7 533c 44ba b8bc 05f2 ebbd e7c1 edbd
00000210: 2ab7 22bd 4c70 9fbd 9043 87bd d1da 5bba
00000220: e201 49bb b637 993d f6d6 e1bd c671 a0bd
00000230: 2e2f 433d 28a5 c63d b231 04be 0ca1 8cbd
00000240: 2226 743d dc05 cf3c c165 a7bd 099f 4a3d
00000250: 7159 e7bd 8cce a83d 2658 83bd 0a3c dbbb
00000260: 4235 cabd bde3 123d db6a 15bd 2efc f33d
00000270: 7e27 06be e4a6 4fbd d947 9a3d 16a9 85bd
00000280: 501f cc3c 3e28 28be 18da adbc 50e7 0cbe
00000290: e22d d3bc a639 553c 5777 e33c bfaa 9e3d
000002a0: 1d36 b4bc a0f8 94bd 10ce 083d 561d a83a
000002b0: 429c b63d a32f 113d 995e 8f3d 9609 cd3d
000002c0: 3a3f 803d a64d 5fbd 1fac 97bd 81e5 81bd
000002d0: b745 70bc 2807 083e 8d6f ed3d 7031 d7bc
000002e0: 880d d93d 3908 cabd c92c 27bc a9ad b8bc
000002f0: 2791 bc3d 1a34 953d f955 cf3d d54b e3bd
00000300: 60ef 28bd 22a0 8a3d 8df5 413d bff1 fc3c
00000310: b6a3 dd3d f3f2 6d3d 15e0 c6bd 61c0 e0bd
00000320: 216c 353d ed87 20be 152e 0a3b c4a4 163e
00000330: 3db4 f9bd 9b31 d9bd 8dc9 c23d 13c9 8fbc
00000340: 6a85 e6bb 9786 79bd aa79 16bd 10b6 20bd
00000350: 0aee e2bd 5383 2ebe 5cbe 1fbd 8663 753d
00000360: 9575 843d 1a53 d5bd 7f94 fabd fdac 24bc
00000370: f0de b13d 8a7f d5bc bbc6 e2bd cb4f 67bd
00000380: 8d42 0abe e286 843d 558c 873d b774 043c
00000390: c324 1fbd d85a 86bc 5304 a3bc cc34 103d
000003a0: 8e3c 0dbe d99b 843d c912 8fbd 316b 38bd
000003b0: 98aa a53c 854e 2a3e 4a1d 87bc e888 fe3c
000003c0: 1a89 d1bd 5929 0dbd 006e c2bd 5738 b83d
000003d0: a397 2bbd 4503 db3d 0129 05bd c1ff d8bc
000003e0: e710 2fbc 1b9c 1fbd 07a6 2bbd 8dc0 123e
000003f0: c3fa cb3d a592 62bc 6de9 dcbd a462 83bd

lstm.weight_hh_l0 f4 [256, 64]
0.025748845 -0.06075294 0.11756282 -0.0060586985 0.110695556 0.061274856 0.15470958 -0.0220144
0.10751955 -0.027618581 0.059906006 -0.06601829 -0.1196618 0.023793165 -0.00984525 -0.08821192
0.00047953098 -0.048087172 -0.12585217 -0.008245134 -0.120008424 -0.06947736 0.101355255 -0.010664433
-0.004778033 -0.045423746 0.08947004 -0.005710438 -0.028357254 0.07874514 0.092235506 0.032082032
0.0022628093 0.1181338 0.09596481 0.034743257 0.04079676 0.10154687 0.05974365 -0.0047233086
0.0050087515 -0.12928441 -0.11444843 -0.062703066 -0.02127807 0.06318631 0.07891138 -0.13465112
-0.0080620255 0.05603171 0.050535526 -0.021354835 -0.038040753 -0.109315336 0.006939661 -0.0047659217
0.0033968918 -0.015573679 0.027193727 0.024812436 0.09896114 0.07914957 -0.012610821 0.13784488
0.088736765 0.05630434 0.08902145 0.046251 0.0021911701 -0.06485706 0.15283187 -0.07270518
-0.041059606 -0.014430476 -0.0088676885 -0.11674778 -0.037350837 -0.04593437 0.101813674 -0.12062308
-0.061401885 0.092262045 0.0025984894 -0.0054751374 0.08572134 -0.016971251 0.059918184 0.12133256
0.050316483 -0.037577346 -0.0892663 0.120937526 0.0063854055 0.03469128 -0.017899955 -0.014264064
-0.08043957 -0.034498863 -0.02353299 -0.054518327 -0.0034762027 0.07437677 0.035537057 -0.071458295
-0.103466116 0.03983161 0.08354 -0.023750052 0.064057454 0.018902654 0.14497283 0.08958991
-0.086826846 0.04861661 0.020182164 -0.0004884645 0.07783332 0.049386334 0.17558847 -0.040030498
-0.0150465695 -0.050798375 0.020946918 0.060057037 0.059119552 -0.05339789 0.11219401 -0.019519605
0.10143688 -0.11575934 -0.082174085 -0.1303994 -0.04775444 -0.2025367 -0.026863972 0.0054421118
0.12215008 -0.028669607 -0.03377604 -0.011947756 -0.050967794 0.034298673 0.08768079 0.08389682
-0.06721122 -0.08316233 0.08540929 -0.12204153 0.090403475 0.14662755 0.12288956 0.07617662
0.06362101 -0.19303253 -0.039050527 -0.025214775 -0.09001996 -0.01741483 0.12873733 0.08105984
-0.11749645 0.09332219 -0.06640395 -0.046260335 0.019758563 -0.0032061331 0.020007754 -0.102878235
-0.034528825 -0.12631053 -0.046806116 -0.14464998 0.19935481 -0.02081664 -0.045940746 -0.05409811
0.07024733 0.020893646 -0.115313865 -0.1494652 0.1291195 0.07335056 -0.00884078 0.011001019
0.14795744 -0.022891615 -0.004971438 0.15441544 0.0004605934 0.15795548 0.041511778 -0.07496976
0.026149148 0.05978311 0.012852991 -0.0190843 0.04586599 -0.099379696 0.010298016 -0.03680322
0.00087722286 0.062468924 -0.048785817 0.018874537 -0.057089023 -0.09085881 0.0037697474 0.06565847
-0.08371579 -0.112899706 -0.13463445 0.010858734 0.135042 0.011555343 0.06792483 -0.022911428
-0.080132365 0.082452424 0.10425537 0.103964165 0.027881764 -0.040974077 -0.051043272 0.121589385
0.1339021 -0.049390823 0.045368705 -0.13121507 0.078270406 0.026480675 -0.11939402 0.057631545
0.11628229 0.04595634 0.06448144 0.06613647 -0.06316949 0.013803478 0.002739119 0.08649637
0.057505805 0.0023604566 -0.03333648 0.043035034 -0.030773297 0.05329242 0.11434481 0.08850546
0.10720806 -0.11724159 -0.063096166 0.12687701 -0.1042451 -0.10394876 0.094621055 0.02700516
00000000: 3eef d23c 13d8 78bd c7c4 f03d 0c88 c6bb
00000010: 5ab4 e23d 58fb 7a3d 306c 1e3e 8b57 b4bc
00000020: 3633 dc3d 5d40 e2bc 0060 753d 9934 87bd
00000030: 3f11 f5bd e2e9 c23c f94d 21bc 73a8 b4bd
00000040: 8f69 fb39 0ef7 44bd 64df 00be 9916 07bc
00000050: fac6 f5bd 254a 8ebd 5893 cf3d e0b9 2ebc
00000060: 0c91 9cbb 400e 3abd 113c b73d a01e bbbb
00000070: 794d e8bc 2245 a13d f8e5 bc3d 7368 033d
00000080: a44b 143b 22f0 f13d 3389 c43d f24e 0e3d
00000090: 811a 273d cef7 cf3d c2b5 743d fcc5 9abb
000000a0: 7420 a43b 2263 04be f063 eabd 776a 80bd
000000b0: 594f aebc d367 813d 4a9c a13d fce1 09be
000000c0: 9616 04bc 8281 653d 57fe 4e3d 56f0 aebc
000000d0: 9fd0 1bbd b8e0 dfbd 1966 e33b 732b 9cbb
000000e0: 639e 5e3b be28 7fbc 61c5 de3c 7343 cb3c
000000f0: 23ac ca3d 2b19 a23d 9e9d 4ebc 3527 0d3e
00000100: 9fbb b53d 619f 663d e150 b63d b071 3d3d
00000110: bc99 0f3b c7d3 84bd f57f 1c3e 74e6 94bd
00000120: 1e2e 28bd ce6d 6cbc c849 11bc 7619 efbd
00000130: 31fd 18bd ae25 3cbd b083 d03d 3c09 f7bd
00000140: 8b80 7bbd e2f3 bc3d 6b4b 2a3b c868 b3bb
00000150: ab8e af3d 4b07 8bbc c56c 753d 357d f83d
00000160: a818 4e3d b4ea 19bd 40d1 b6bd 18ae f73d
00000170: aa3c d13b 7218 0e3d eda2 92bc d2b3 69bc
00000180: 80bd a4bd ae4e 0dbd 42c8 c0bc 9c4e 5fbd
00000190: 01d1 63bb d952 983d 4e8f 113d ba58 92bd
000001a0: 0be6 d3bd 7826 233d 0517 ab3d 788f c2bc
000001b0: 8e30 833d bdd9 9a3c c273 143e ea7a b73d
000001c0: 46d2 b1bd 3622 473d 1155 a53c 4c0c 00ba
000001d0: 1367 9f3d 5349 4a3d 77cd 333e 05f7 23bd
000001e0: e385 76bc f511 50bd df98 ab3c 5efe 753d
000001f0: 5827 723d bfb7 5abd f9c5 e53d 94e7 9fbc
00000200: 24be cf3d 3c13 edbd e34a a8bd 6c87 05be
00000210: 299a 43bd c865 4fbe d511 dcbc be53 b23b
00000220: d229 fa3d 86dc eabc bf58 0abd 85c0 43bc
00000230: 9bc3 50bd c47c 0c3d fc91 b33d 19d2 ab3d
00000240: 09a6 89bd 0351 aabd 11eb ae3d e9f0 f9bd
00000250: 7525 b93d 8825 163e 86ad fb3d 7d02 9c3d
00000260: bb4b 823d 52aa 45be 72f3 1fbd 378f cebc
00000270: 635c b8bd 8ca9 8ebc b8d3 033e b402 a63d
00000280: fba1 f0bd b41f bf3d cbfe 87bd 7a7b 3dbd
00000290: b6dc a13c fd1d 52bb 4de7 a33c d3b1 d2bd
000002a0: 196e 0dbd 8c57 01be c5b7 3fbd 201f 14be
000002b0: ab23 4c3e a987 aabc 5d2c 3cbd fb95 5dbd
000002c0: d5dd 8f3d 2729 ab3c ad29 ecbd 680d 19be
000002d0: e737 043e d238 963d ebd8 10bc 9e3d 343c
000002e0: 2882 173e 3287 bbbc 72e7 a2bb 151f 1e3e
000002f0: cd7b f139 15bf 213e 4108 2a3d bf89 99bd
00000300: bd36 d63c 22df 743d 5a95 523c ae56 9cbc
00000310: fadd 3b3d 9587 cbbd 02b9 283c f9be 16bd
00000320: 6ef5 653a 6adf 7f3d a3d3 47bd c69e 9a3c
00000330: 2ed6 69bd 2f14 babd de0d 773b f377 863d
00000340: 2f73 abbd f637 e7bd 9ddd 09be d5e8 313c
00000350: 7348 0a3e 9f52 3d3c 2c1c 8b3d bfb0 bbbc
00000360: 701c a4bd d1dc a83d d783 d53d 2aeb d43d
00000370: 4c68 e43c 6fd4 27bd c012 51bd db03 f93d
00000380: a21d 093e 084e 4abd 89d4 393d 3e5d 06be
00000390: 3c4c a03d 00ee d83c da84 f4bd 0e0f 6c3d
000003a0: 6925 ee3d b73c 3c3d d80e 843d 8f72 873d
000003b0: 015f 81bd fc27 623c cb82 333b 0225 b13d
000003c0: 358b 6b3d e4b1 1a3b d58b 08bd 8145 303d
000003d0: 4818 fcbc 2749 5a3d 9d2d ea3d 5a42 b53d
000003e0: e68f db3d 5c1c f0bd 9038 81bd 0cec 013e
000003f0: 747e d5bd 16e3 d4bd afc8 c13d ed39 dd3c

lstm.bias_ih_l0 f4 [256]
0.07081981 -0.027784383 -0.0043913764 -0.10552872 -0.04486791 -0.028906576 -0.014294615 0.09078586
-0.09486221 0.061706446 0.07370689 -0.09582924 0.085260555 0.095121875 0.08108283 -0.10906825
0.116601 -0.012559487 -0.06549237 0.124520764 0.11567657 -0.052269977 -0.014837375 -0.12019831
-0.048144672 -0.019323224 0.13120075 -0.023062378 0.13977417 0.10156239 0.076103635 0.13447757
-0.0018975633 0.03272628 -0.093231946 0.012807362 0.04313047 0.035867754 0.061708894 0.095029
-0.05646816 0.068415135 0.062091667 0.072289124 -0.07095141 0.08938197 -0.058850423 0.09011351
0.13968576 0.028072394 -0.06880385 -0.013904945 -0.0050814264 -0.060194246 0.0025767495 -0.10924733
-0.04768828 -0.046949103 -0.030855458 0.10063752 0.065960206 -0.077026755 -0.043881454 0.048939224
-0.045262918 0.044090282 -0.05987453 0.10571888 0.08978729 0.13245746 0.063032396 0.13450305
0.029525636 -0.026287751 0.13417158 0.083004944 -0.06047831 0.10159103 -0.004519199 0.13527006
0.056497034 -0.10194198 -0.08250257 -0.007971031 0.01277338 0.13715063 -0.012228883 0.09495864
0.041761324 -0.0632881 0.01905809 -0.06752354 0.12880695 0.083856866 -0.016878745 0.12260546
0.095196694 0.06822651 -0.08789088 -0.011361327 -0.048568755 0.05161859 0.11992108 0.0257557
0.004308594 0.12060298 0.08384307 0.0503036 0.13134706 0.14678486 0.12388479 0.12594044
0.13812883 0.08259407 -0.12564008 -0.06817774 -0.01436061 -0.070272446 -0.046119854 0.017140634
-0.102859326 -0.06817761 -0.05057277 -0.056900933 -0.086989574 0.123427086 -0.07242888 0.17611338
0.120128766 -0.06853316 -0.06164404 -0.053197224 -0.013785439 0.039100274 0.08430458 0.09415619
-0.109245755 0.054055683 0.08984621 -0.056002088 0.102119274 0.025460225 -0.116715334 -0.052781917
-0.13109921 0.0021260472 0.0028304958 0.04000085 -0.09802448 -0.10044941 0.0495522 -0.006420864
-0.091783896 -0.044846643 -0.0827106 0.040662885 0.13717505 -0.008887122 -0.06716069 0.11945197
-0.06512889 0.016208244 -0.064074986 0.12377541 -0.010591423 0.06667182 -0.12674357 -0.055120688
0.10213674 -0.12235989 -0.0921467 0.0018185402 -0.087688096 0.07054356 0.018390512 -0.11323301
0.10453542 0.08371609 -0.023824805 0.032853335 0.012206873 -0.08211 0.116879664 -0.11909314
0.038190715 -0.10770397 -0.100473285 0.13952844 -0.004479024 0.057262044 0.046597447 -0.04308047
0.06266385 -0.017011316 0.13728705 0.07858491 0.072936125 0.07475426 0.08710805 0.09669931
0.07213992 -0.009822139 0.06862965 0.054559726 0.06326255 0.116811275 -0.06915519 0.11592553
0.083300635 -0.09958577 0.09933141 -0.015424663 0.14987235 -0.055054005 -0.11382017 0.069329776
-0.07536113 0.035845827 0.053203344 -0.0113262525 -0.07793178 -0.065963164 0.09668082 0.12816302
0.0111631965 -0.06939518 0.07687816 0.08622907 -0.05770667 0.072306305 0.094689064 -0.014337275
0.06563439 -0.05670965 0.10656039 0.10482918 0.027177462 0.058563378 -0.0028083948 0.103864364
0.08956602 0.122659296 -0.11296954 0.069599025 -0.07101467 0.063485585 0.123298414 0.07849625
0.1446656 0.04237317 -0.040385276 -0.06836454 -0.02347332 0.013481519 -0.007505562 0.057798114
00000000: fa09 913d 139c e3bc 89e5 8fbb 711f d8bd
00000010: 6ac7 37bd 7ccd ecbc f633 6abc f0ed b93d
00000020: 1e47 c2bd e6bf 7c3d a3f3 963d 1f42 c4bd
00000030: 169d ae3d 42cf c23d c10e a63d 2d5f dfbd
00000040: 81cc ee3d 4ec6 4dbc dd20 86bd be04 ff3d
00000050: d6e7 ec3d 0b19 56bd 7618 73bc 882a f6bd
00000060: 5933 45bd bd4b 9ebc 7d59 063e 50ed bcbc
00000070: f620 0f3e f1ff cf3d 39dc 9b3d 7db4 093e
00000080: a9b7 f8ba fe0b 063d 64f0 bebd f8d5 513c
00000090: 93a9 303d 11ea 123d 77c2 7c3d 909e c23d
000000a0: 284b 67bd 3c1d 8c3d d553 7e3d 520c 943d
000000b0: f94e 91bd e50d b73d 240d 71bd 6f8d b83d
000000c0: c909 0f3e 14f8 e53c 08e9 8cbd 91d1 63bc
000000d0: 1882 a6bb 3e8e 76bd afde 283b 10bd dfbd
000000e0: c954 43bd b44d 40bd 96c4 fcbc 0b1b ce3d
000000f0: 2516 873d 34c0 9dbd 0abd 33bd 7f74 483d
00000100: 9c65 39bd 0398 343d ff3e 75bd 2483 d83d
00000110: 66e2 b73d eea2 073e 2117 813d 2bbb 093e
00000120: bfdf f13c 6959 d7bc 4664 093e 7ffe a93d
00000130: 1bb8 77bd f50e d03d ca15 94bb 3c84 0a3e
00000140: 6f69 673d f5c6 d0bd 1bf7 a8bd ed98 02bc
00000150: 7047 513c 3771 0c3e a75b 48bc ad79 c23d
00000160: ec0d 2b3d 319d 81bd b61f 9c3c c849 8abd
00000170: f8e5 033e 26bd ab3d 4b45 8abc 9218 fb3d
00000180: 7cf6 c23d 57ba 8b3d 2200 b4bd dc24 3abc
00000190: 08f0 46bd 046e 533d 2f99 f53d 9efd d23c
000001a0: 1b2f 8d3b b2fe f63d eab5 ab3d 260b 4e3d
000001b0: d87f 063e c54e 163e 4fb7 fd3d 88f6 003e
000001c0: a571 0d3e 1427 a93d cba7 00be c5a0 8bbd
000001d0: c448 6bbc 00eb 8fbd 2ce8 3cbd 846a 8c3c
000001e0: e9a7 d2bd b4a0 8bbd 6525 4fbd f410 69bd
000001f0: 9727 b2bd 57c7 fc3d 9855 94bd 1157 343e
00000200: 1206 f63d 1d5b 8cbd 767e 7cbd 55e5 59bd
00000210: 52dc 61bc 9c27 203d e1a7 ac3d f6d4 c03d
00000220: 3dbc dfbd 7e69 5d3d 4a01 b83d 7262 65bd
00000230: e923 d13d f691 d03c 7308 efbd da31 58bd
00000240: df3e 06be 2755 0b3b d77f 393b eed7 233d
00000250: 0fc1 c8bd 6cb8 cdbd 3ff7 4a3d 1c66 d2bb
00000260: 32f9 bbbd 1db1 37bd 2d64 a9bd 208e 263d
00000270: 9e77 0c3e 4b9b 11bc 8b8b 89bd 3ca3 f43d
00000280: 4c62 85bd 27c7 843c bf39 83bd f67d fd3d
00000290: a687 2dbc 3c8b 883d 11c9 01be 3bc6 61bd
000002a0: 112d d13d d297 fabd 69b7 bcbd 155c ee3a
000002b0: d195 b3bd 2479 903d b3a7 963c b5e6 e7bd
000002c0: ab16 d63d 5773 ab3d 3d2c c3bc 3891 063d
000002d0: 56ff 473c 4a29 a8bd 9b5e ef3d 1be7 f3bd
000002e0: de6d 1c3d e693 dcbd f0c4 cdbd 8be0 0e3e
000002f0: c7c4 92bb 9b8b 6a3d f7dc 3e3d 2675 30bd
00000300: e855 803d 515b 8bbc fa94 0c3e 20f1 a03d
00000310: 895f 953d c318 993d b565 b23d 4a0a c63d
00000320: 18be 933d 09ed 20bc b48d 8c3d 057a 5f3d
00000330: cc8f 813d c03a ef3d 3ca1 8dbd 5d6a ed3d
00000340: 8699 aa3d a0f3 cbbd 446e cb3d bab7 7cbc
00000350: 2378 193e 4f80 61bd 8d1a e9bd c5fc 8d3d
00000360: f056 9abd 13d3 123d c0eb 593d bf91 39bc
00000370: b29a 9fbd b217 87bd 9800 c63d 2b3d 033e
00000380: d7e5 363c 0f1f 8ebd 4c72 9d3d de98 b03d
00000390: d45d 6cbd 5415 943d 57ec c13d e4e6 6abc
000003a0: 536b 863d 6148 68bd 553c da3d aeb0 d63d
000003b0: 45a3 de3c 27e0 6f3d 0c0d 38bb d7b6 d43d
000003c0: 646e b73d cc34 fb3d 935c e7bd ef89 8e3d
000003d0: 2470 91bd bb04 823d e183 fc3d a4c2 a03d
000003e0: 3823 143e 7d8f 2d3d 086b 25bd b502 8cbd
000003f0: 1f4b c0bc 97e1 5c3c 38f1 f5bb b7bd 6c3d

lstm.bias_hh_l0 f4 [256]
-0.051210895 0.17450713 -0.08684106 -0.050098643 0.15252666 0.09080013 -0.009802219 0.032926768
0.13782474 -0.023436368 0.103383236 0.06705796 -0.021375386 0.020741127 0.116610534 -0.03788347
0.124225765 0.029404633 0.0012942095 0.05669535 0.0015630414 -0.09715611 -0.048862226 0.07176838
0.00059098005 -0.0071659493 0.040242687 -0.06562163 0.10965304 0.026445653 0.008445033 -0.011474233
0.12751377 -0.0372061 0.019544294 0.043704644 0.066426516 -0.06862805 -0.06776253 0.056244295
0.0036155875 -0.049110997 0.124078155 -0.067182384 -0.05934853 0.0006441415 -0.057548285 0.08979425
-0.07580581 0.035883956 -0.08650031 -0.050588444 -0.08868325 -0.09784094 0.09169426 0.13058847
0.014114239 -0.05884045 -0.03512034 0.05821835 -0.059861172 0.04291025 -0.0393493 -0.03433506
0.14556478 0.12137159 0.12186737 0.024473876 -0.06503012 0.057960123 -0.09157326 0.113367364
0.007353425 -0.07073311 0.12854114 -0.02660834 0.1363461 0.09165678 0.015885834 -0.07506456
0.01645446 0.10193356 0.039051898 -0.018613983 0.08717912 0.0137171615 0.07387728 0.0867048
-0.09872844 0.10663554 0.021234171 0.006492075 -0.07102909 0.06212849 -0.0777933 0.030419087
0.12027441 0.09976165 -0.01729327 0.022631448 0.10097062 -0.09375823 -0.026074197 0.014663415
0.11906883 0.024652978 -0.08039212 -0.07287522 -0.026968354 -0.0701116 0.045042984 0.079200074
0.1553514 0.063796155 0.007714888 -0.08049884 -0.015314513 -0.055535924 0.07480205 -0.044077523
-0.02865426 0.118538454 -0.059922975 0.11720838 0.057997856 0.09955305 0.038003966 0.026279228
0.046772197 0.077395886 0.10013307 -0.10546284 0.12223591 0.050680034 0.022659387 0.03308684
0.06580042 0.06799749 -0.11504541 0.024178911 -0.11479894 -0.0109119555 -0.05334029 -0.06726723
-0.13666649 0.024553897 -0.06569587 -0.0113524925 0.04837023 0.08225763 0.084308505 -0.078187056
0.11202045 -0.00036676248 -0.11601435 0.06614724 -0.011172355 0.12055655 0.12602113 -0.00510516
0.10431484 0.15094224 0.017787514 0.026054723 0.02543389 -0.056610674 0.0050023147 0.09807147
-0.077224515 0.02964193 0.12515073 -0.073296905 0.015258295 -0.0964918 -0.015296306 0.056351397
0.01474001 0.094850026 -0.040504005 -0.01708438 -0.108525954 0.03922784 0.10668988 -0.07163185
0.044149604 0.042875905 0.06627963 0.13017334 0.12193665 0.0045871367 0.09380866 -0.08639161
-0.015955245 0.084130004 -0.0068551837 -0.0031957862 0.051966496 0.100197524 0.016123604 0.11059639
0.0006976348 0.1625155 -0.02433027 -0.09187926 0.08460209 0.009358345 -0.03761279 0.04867475
0.06355573 -0.08911452 0.10525349 0.12763888 -0.03857766 -0.041873977 -0.06408605 0.13495618
0.060667556 0.076805465 0.085946806 0.060693234 -0.041812256 -0.040890917 0.027165627 0.048400488
-0.060990855 0.15243012 0.062484834 -0.09223771 0.09870967 0.0452542 -0.105162255 -0.067494646
0.053980194 -0.025073286 -0.013172269 0.0013827834 -0.1032602 2.4259365e-05 0.028405989 -0.022029763
0.12878226 0.032863818 -0.11823235 0.13944928 -0.064735495 -0.09835749 0.019483287 -0.016612047
0.09433268 0.14670609 -0.06067538 0.0323477 -0.04532391 0.057722006 0.02063643 0.10334098
00000000: 84c2 51bd ffb1 323e bad9 b1bd 3c34 4dbd
00000010: f32f 1c3e 6bf5 b93d 7d99 20bc 38de 063d
00000020: ee21 0d3e a0fd bfbc 97ba d33d af55 893d
00000030: 6f1b afbc 4ce9 a93c 81d1 ee3d b32b 1bbd
00000040: 146a fe3d fce1 f03c 77a2 a93a 6239 683d
00000050: f7de cc3a c8f9 c6bd c223 48bd 4dfb 923d
00000060: 00ec 1a3a 57d0 eabb 84d5 243d a264 86bd
00000070: c691 e03d 8ea4 d83c 095d 0a3c 6cfe 3bbc
00000080: f892 023e 6c65 18bd 5b1b a03c a403 333d
00000090: a00a 883d dd8c 8cbd 15c7 8abd 6b60 663d
000000a0: 7ef3 6c3b 9d28 49bd b01c fe3d eb96 89bd
000000b0: 7217 73bd 9bdb 283a c0b7 6bbd 0ce6 b73d
000000c0: 1440 9bbd 0efb 123d 1327 b1bd d435 4fbd
000000d0: 909f b5bd d560 c8bd 33ca bb3d fcb8 053e
000000e0: 693f 673c af02 71bd 58da 0fbd 5d76 6e3d
000000f0: fd30 75bd a9c2 2f3d bb2c 21bd eba2 0cbd
00000100: ef0e 153e ab91 f83d 9a95 f93d 707d c83c
00000110: 832e 85bd 9867 6d3d c38a bbbd 262d e83d
00000120: 00f5 f03b 85dc 90bd 4aa0 033e bcf9 d9bc
00000130: 509e 0b3e 8db6 bb3d 0223 823c 73bb 99bd
00000140: 81cb 863c 8bc2 d03d e2f4 1f3d 5a7c 98bc
00000150: f78a b23d f2bd 603c f94c 973d 4992 b13d
00000160: 2332 cabd bc63 da3d 49f3 ad3c 79bb d43b
00000170: b377 91bd 727a 7e3d 1852 9fbd 7331 f93c
00000180: 6e52 f63d d64f cc3d 9eaa 8dbc 9665 b93c
00000190: afc9 ce3d 5104 c0bd 8e99 d5bc d23e 703c
000001a0: 5cda f33d 0bf5 c93c a0a4 a4bd 9a3f 95bd
000001b0: bdec dcbc ac96 8fbd fe7e 383d a633 a23d
000001c0: 7014 1f3e 8fa7 823d 2ccd fc3b 93dc a4bd
000001d0: b9e9 7abc a379 63bd d131 993d a28a 34bd
000001e0: 57bc eabc 4ac4 f23d cb71 75bd f20a f03d
000001f0: 298f 6d3d 78e2 cb3d 0caa 1b3d 8947 d73c
00000200: 3494 3f3d bc81 9e3d 9112 cd3d e7fc d7bd
00000210: d256 fa3d de95 4f3d 2ea0 b93c 1186 073d
00000220: 5fc2 863d 4542 8b3d ee9c ebbd da12 c63c
00000230: b51b ebbd 0fc8 32bc 597b 5abd 67c3 89bd
00000240: 4df2 0bbe 4125 c93c 8e8b 86bd ceff 39bc
00000250: dd1f 463d b076 a83d f0a9 ac3d 8920 a0bd
00000260: fa6a e53d 074a c0b9 ee98 edbd 3478 873d
00000270: 410c 37bc 5ae6 f63d af0b 013e 3049 a7bb
00000280: 05a3 d53d 9a90 1a3e 1fb7 913c b770 d53c
00000290: bc5a d03c 98e0 67bd 75ea a33b b2d9 c83d
000002a0: e327 9ebd a2d3 f23c 8327 003e b01c 96bd
000002b0: eefd 793c 7e9d c5bd 5c9d 7abc b9d0 663d
000002c0: 1580 713c bb40 c23d 87e7 25bd 8bf4 8bbc
000002d0: db42 debd 5fad 203d 3980 da3d b8b3 92bd
000002e0: 37d6 343d a59e 2f3d 9dbd 873d 294c 053e
000002f0: ecb9 f93d b14f 963b c11e c03d 16ee b0bd
00000300: 93b4 82bc 5a4c ac3d 73a1 e0bb 6570 51bb
00000310: d2da 543d 5c34 cd3d a615 843c 5c80 e23d
00000320: 7be1 363a 776a 263e 4650 c7bc 322b bcbd
00000330: dc43 ad3d be53 193c de0f 1abd 2d5f 473d
00000340: 8229 823d ac81 b6bd 248f d73d c4b3 023e
00000350: 9c03 1ebd 0c84 2bbd 8c3f 83bd f431 0a3e
00000360: 8b7e 783d 2f4c 9d3d e104 b03d 7899 783d
00000370: 5443 2bbd 3c7d 27bd 738a de3c 973f 463d
00000380: 8cd1 79bd a416 1c3e 19f0 7f3d 20e7 bcbd
00000390: 4c28 ca3d 785c 393d 4f5f d7bd a23a 8abd
000003a0: 561a 5d3d 7e66 cdbc 80d0 57bc 833e b53a
000003b0: 157a d3bd 9780 cb37 adb3 e83c c377 b4bc
000003c0: 7fdf 033e 369c 063d cd23 f2bd cbcb 0e3e
000003d0: 0b94 84bd a76f c9bd 6a9b 9f3c fd15 88bc
000003e0: 7e31 c13d 1f3a 163e bf86 78bd 067f 043d
000003f0: 90a5 39bd e96d 6c3d bb0d a93c 70a4 d33d

lstm.weight_ih_l0_reverse f4 [256, 40]
-0.087147646 -0.033019353 -0.12901963 -0.10059285 -0.049649466 0.083293535 0.1079715 0.049630202
0.0966188 0.12024711 0.061705697 -0.110530846 -0.09315796 -0.076939255 -0.11719873 -0.06589071
0.027803516 -0.110791706 -0.022137629 -0.031672437 0.077291094 0.088528164 -0.037947074 -0.048464883
-0.091861844 0.00020564909 0.059922334 -0.047255825 -0.11893138 -0.0940819 0.0130389705 -0.09469138
0.06545672 -0.04488324 0.07711742 -0.0042025787 -0.008541791 0.07120177 -0.047240943 -0.04318102
0.12619574 -0.06422436 0.09417939 -0.07795022 -0.073303275 0.05217376 -0.057472613 0.1248959
0.089350134 -0.04018929 -0.07558303 -0.014949216 0.09726312 0.1175541 -0.01581275 0.0872472
-0.018897472 -0.06270155 -0.054814737 -0.03391943 0.064120226 0.06929044 -0.101666704 0.04920102
0.09902504 -0.046888284 0.022773607 -0.12770517 -0.012734545 -0.0010303754 -0.027439306 0.014833756
-0.01020191 0.12921666 0.115339026 0.06200996 -0.0010294088 0.090423845 0.069602616 0.10228281
-0.050144672 -0.13831477 -0.06858811 0.036791842 -0.14460547 0.06729766 -0.14779545 -0.034041446
-0.11141193 0.0042811446 -0.08823215 0.113669746 -0.10357111 0.012190258 0.06000229 0.09716761
0.047890376 -0.037990905 0.03216739 -0.057807468 0.026388988 -0.076747686 -0.1062124 -0.063993
-0.14099017 0.09288561 -0.13726258 -0.08432698 -0.029610375 -0.041319385 -0.1493474 -0.12577976
-0.08373667 0.07608663 -0.05183394 -0.11830714 -0.08759429 -0.06973248 -0.1166371 -0.01745779
0.016728392 -0.14919971 -0.013989193 -0.06753816 0.032700457 0.08614699 -0.10481687 0.070981726
-0.10876907 -0.14738585 0.002364177 0.0104668345 -0.07681383 0.093275644 -0.048482694 -0.0063600037
-0.018043017 0.033098835 0.0018937504 -0.015082472 0.034368306 0.11449776 0.039441235 -0.0649687
-0.1294492 -0.0077077677 -0.09700263 -0.02713704 -0.1245295 -0.012120378 -0.009515545 0.018873293
-0.11069834 0.04165194 -0.11882203 -0.013716911 0.08145645 0.05869136 0.045826193 0.17217483
-0.11301839 -0.047044843 -0.051392637 0.16341013 -0.0623388 -0.06190293 0.022490166 -0.08354088
0.03166043 -0.02999082 0.006169247 -0.09352026 -0.10488996 -0.17552762 -0.095332816 0.18804169
-0.118991 0.13101336 0.036931884 -0.06219172 -0.09524303 0.034462783 0.033411525 0.019590905
-0.043389782 0.11788371 -0.053274617 0.06307163 -0.07485742 0.06325824 0.04013295 0.08500158
-0.079571605 0.038965568 -0.04510125 0.0021425465 0.016720897 -0.042210456 0.042471267 0.06841054
0.08859429 0.001693014 -0.06328841 0.13267475 -0.04713659 0.08486266 -0.12273015 0.09585015
-0.031211467 0.0021810979 0.054291528 0.077861175 0.103461504 0.0071225893 -0.009453179 0.1239559
-0.113608316 0.012729215 -0.04817924 0.099745244 0.03557702 0.057686467 0.0048467717 0.09932945
-0.111884296 -0.025290828 -0.11073842 -0.04371979 0.0014273196 0.10882594 0.10376142 0.09532892
0.092913285 -0.014097909 -0.073393896 -0.09971639 -0.023214782 0.08228714 0.026432732 -0.07582955
-0.08809 -0.06196184 0.0470125 0.010717589 0.00707138 0.09873189 0.050286617 0.041488055
-0.12553701 0.1161406 0.0653425 0.053207878 0.10728825 0.09654881 -0.038364194 0.0056396
00000000: 777a b2bd 4d3f 07bd b91d 04be a003 cebd
00000010: 3d5d 4bbd cd95 aa3d 2920 dd3d 0a49 4b3d
00000020: 14e0 c53d 1e44 f63d 1dbf 7c3d ff5d e2bd
00000030: 9ac9 bebd 5492 9dbd e305 f0bd b5f1 86bd
00000040: 33c4 e33c c3e6 e2bd f959 b5bc f5ba 01bd
00000050: cb4a 9e3d 414e b53d 646e 1bbd 1d83 46bd
00000060: 1022 bcbd 82a3 5739 1f71 753d 538f 41bd
00000070: 4c92 f3bd 03ae c0bd 68a1 553c 8eed c1bd
00000080: 2c0e 863d 7dd7 37bd bdef 9d3d c9b5 89bb
00000090: def2 0bbc 3cd2 913d b87f 41bd 95de 30bd
000000a0: 7539 013e 1088 83bd 20e1 c03d 5da4 9fbd
000000b0: 0720 96bd 27b4 553d 6768 6bbd 6cc9 ff3d
000000c0: 34fd b63d 869d 24bd 47cb 9abd 8eed 74bc
000000d0: e331 c73d 34c0 f03d be89 81bc a9ae b23d
000000e0: dfce 9abc ac69 80bd 6b85 60bd 1aef 0abd
000000f0: 7751 833d 25e8 8d3d a236 d0bd 0287 493d
00000100: a4cd ca3d ee0d 40bd b78f ba3c 25c5 02be
00000110: 8ea4 50bc a90d 87ba 65c8 e0bc 4809 733c
00000120: e925 27bc 5f51 043e de36 ec3d 28fe 7d3d
00000130: 3aed 86ba 2330 b93d d18b 8e3d a679 d13d
00000140: 8064 4dbd 63a2 0dbe ec77 8cbd 0bb3 163d
00000150: 7513 14be 5bd3 893d b157 17be 0b6f 0bbd
00000160: f02b e4bd d848 8c3b 0fb3 b4bd afcb e83d
00000170: 171d d4bd a6b9 473c f6c4 753d d0ff c63d
00000180: b328 443d 5a9c 1bbd f4c1 033d 86c7 6cbd
00000190: b82d d83c e42d 9dbd e385 d9bd c30e 83bd
000001a0: ba5f 10be d03a be3d 908e 0cbe a0b3 acbd
000001b0: 7591 f2bc 843e 29bd 86ee 18be 69cc 00be
000001c0: 227e abbd 4fd3 9b3d d34f 54bd 044b f2bd
000001d0: a364 b3bd e7cf 8ebd 6fdf eebd a403 8fbc
000001e0: fb09 893c cfc7 18be ee32 65bc 7251 8abd
000001f0: eaf0 053d d56d b03d 3aaa d6bd de5e 913d
00000200: 51c2 debd 51ec 16be 4ff0 1a3b 167d 2b3c
00000210: 9250 9dbd 4d07 bf3d ca95 46bd 9467 d0bb
00000220: f3ce 93bc a592 073d b837 f83a 791c 77bc
00000230: c8c5 0c3d cd7d ea3d 228d 213d 4f0e 85bd
00000240: 558e 04be 7191 fcbb 51a9 c6bd 7f4e debc
00000250: 5309 ffbd 8d94 46bc 17e7 1bbc 2a9c 9a3c
00000260: d0b5 e2bd 3a9b 2a3d f758 f3bd e5bc 60bc
00000270: a4d2 a63d 5a66 703d 3fb4 3b3d 994e 303e
00000280: 3076 e7bd 18b2 40bd 1681 52bd fc54 273e
00000290: f856 7fbd ed8d 7dbd 4c3d b83c 7b17 abbd
000002a0: 5eae 013d 4faf f5bc 6527 ca3b 8d87 bfbd
000002b0: 8cd0 d6bd 83bd 33be da3d c3bd 008e 403e
000002c0: 8eb1 f3bd 5e28 063e e345 173d bfbc 7ebd
000002d0: c70e c3bd d928 0d3d 86da 083d 1b7d a03c
000002e0: 7cb9 31bd 046d f13d 7c36 5abd b32b 813d
000002f0: d94e 99bd 898d 813d 7362 243d 4f15 ae3d
00000300: 70f6 a2bd 5c9a 1f3d 17bc 38bd f769 0c3b
00000310: 43fa 883c dfe4 2cbd 5af6 2d3d d31a 8c3d
00000320: ec70 b53d 20e8 dd3a 5b9d 81bd e4db 073e
00000330: 4c12 41bd 79cc ad3d f259 fbbd 154d c43d
00000340: 31af ffbc c0f0 0e3b cb60 5e3d ae75 9f3d
00000350: a0e3 d33d 9c64 e93b 82e1 1abc 97dc fd3d
00000360: 7aab e8bd 338e 503c 9857 45bd 3c47 cc3d
00000370: 36b9 113d a548 6c3d abd1 9e3b 3d6d cb3d
00000380: 9823 e5bd b62e cfbc d3ca e2bd 8613 33bd
00000390: e614 bb3a 22e0 de3d de80 d43d cf3b c33d
000003a0: 5249 be3d ebfa 66bc 8a4f 96bd 1b38 ccbd
000003b0: ed2c bebc 2986 a83d 7589 d83c 864c 9bbd
000003c0: 8868 b4bd b3cb 7dbd 2e90 403d d498 2f3c
000003d0: 09b7 e73b f233 ca3d 57f9 4d3d 61ef 293d
000003e0: c68c 00be 1fdb ed3d 4ad2 853d 81f0 593d
000003f0: f1b9 db3d 62bb c53d c623 1dbd 65cc b83b

lstm.weight_hh_l0_reverse f4 [256, 64]
-0.0066203265 0.015950715 0.10677609 0.07013979 0.04543889 -0.07780529 -0.033415273 -0.041673806
-0.03373072 0.13751535 0.088748224 0.09890533 0.03953468 0.09131388 -0.02661217 0.00043720417
0.025825035 0.05285983 -0.09553217 0.13946968 -0.0631592 0.01832091 0.08780955 0.13716859
-0.09074084 -0.07590708 -0.10018541 0.08827786 0.076685935 -0.03814699 0.05657279 -0.10044894
0.0072151376 -0.015285628 -0.12420383 0.0018540848 0.060013924 -0.09520395 0.026131487 -0.06365017
-0.051508944 0.022557886 -0.08432007 0.033790227 0.07840748 -0.04257929 -0.053785015 0.08140107
0.048915513 0.031523686 -0.06476962 -0.11781644 0.045226317 -0.0023059724 -0.07494279 -0.12356693
-0.084583454 0.09841485 -0.10207515 0.03708709 0.08699024 -0.07271964 -0.053065002 0.035563316
0.05805212 -0.062153563 -0.07785526 -0.042257126 0.042578034 -0.0032512906 -0.081167914 -0.0046658325
-0.006205743 0.1291659 -0.1168187 -0.08663777 0.09299919 0.036986116 0.069748685 -0.12381937
0.050290596 0.04378129 0.075698234 0.10627532 -0.063081816 0.14822017 -0.049766846 0.10410891
-0.13084877 -0.013220211 -0.051190194 -0.017403586 -0.06320069 0.10925932 0.0083601335 0.03767953
-0.054256804 -0.006082879 0.071477324 0.043537613 -0.012212361 0.09483672 0.07438799 -0.06279888
0.015581334 0.004521286 -0.09085123 -0.024607167 -0.047177102 -0.08909981 0.0027997822 0.11793337
0.1123601 -0.12492119 0.031222008 0.10418035 0.058926515 0.1467761 0.1035335 -0.029263813
-0.14031878 0.044323426 0.058775242 0.17552365 0.029729992 0.025193756 0.059572868 0.03663046
0.10930021 -0.12668465 0.10743154 0.0030715072 0.059094783 -0.0065534697 0.086945765 0.080791995
-0.020006502 0.08679941 -0.048232503 -0.13927403 -0.013026264 0.1101503 0.005406553 0.048904438
0.009275473 -0.0124616055 -0.09800369 0.020845985 0.09749381 0.06337005 0.10056814 0.11255767
0.11689114 -0.05826906 0.039040525 0.11360149 0.031383954 0.110114194 -0.0021370042 0.011509881
0.036212772 -0.12413975 0.02658392 -0.06407598 -0.07528989 -0.05314789 -0.06371192 -0.033683505
-0.03391266 -0.0003873861 -0.083266556 -0.04082276 -0.09236091 0.039317954 -0.10507709 -0.068146974
-0.060086053 0.14528258 -0.12544626 0.02981469 -0.1397478 0.064205036 -0.09252567 -0.06862057
0.02042534 -0.046184376 -0.014810524 0.05787233 -0.17347613 -0.16183284 -0.03000099 -0.11512395
0.065834075 0.09170644 -0.024812011 -0.10450377 -0.013758074 -0.074728526 0.10603681 0.040253855
0.05945999 0.03305004 -0.12315553 0.0881204 -0.109681726 0.063709505 0.0025762538 -0.04218629
-0.07296194 -0.00091527525 0.08364713 0.056314226 -0.027537014 0.0809393 -0.037070353 -0.06314562
-0.04150698 -0.02220515 0.007375366 0.01306169 -0.008598126 -0.022695912 0.08744106 0.07633767
0.076104276 0.001926241 -0.010994339 0.012881927 -0.07801746 0.080164105 -0.06353168 -0.0032933285
0.10238679 -0.054618992 -0.105013594 0.04444171 0.00706917 -0.041617118 -0.03150606 -0.10064575
0.13505185 -0.097290345 -0.04787788 0.11038179 0.035398245 -0.03858584 0.12544514 0.15592514
0.10871497 0.0863644 -0.0779334 0.08912248 -0.10544501 0.07492785 0.04050594 0.03694459
00000000: 53ef d8bb 13ab 823c 6cad da3d 73a5 8f3d
00000010: 211e 3a3d 6158 9fbd 74de 08bd 27b2 2abd
00000020: 3929 0abd d3d0 0c3e a1c1 b53d e18e ca3d
00000030: 1eef 213d c602 bb3d c401 dabc 8d38 e539
00000040: 068f d33c 8d83 583d 5fa6 c3bd 24d1 0e3e
00000050: 9c59 81bd bc15 963c 7ed5 b33d ec75 0c3e
00000060: 55d6 b9bd 2c75 9bbd 022e cdbd 06cb b43d
00000070: 840d 9d3d 0540 1cbd dfb8 673d 2db8 cdbd
00000080: f66c ec3b 9270 7abc 945e febd c304 f33a
00000090: 29d1 753d 4afa c2bd b311 d63c 055b 82bd
000000a0: 0bfb 52bd 51cb b83c 00b0 acbd 9f67 0a3d
000000b0: 1a94 a03d 9f67 2ebd ad4d 5cbd 9bb5 a63d
000000c0: a25b 483d fb1e 013d efa5 84bd bf49 f1bd
000000d0: 3b3f 393d cc1f 17bb 9b7b 99bd a910 fdbd
000000e0: 173a adbd ba8d c93d c70c d1bd a2e8 173d
000000f0: f027 b23d 09ee 94bd b05a 59bd d7aa 113d
00000100: 0fc8 6d3d bc94 7ebd 9472 9fbd cf15 2dbd
00000110: 4e66 2e3d 9b13 55bb 5d3b a6bd d7e3 98bb
00000120: 8c59 cbbb 1144 043e a53e efbd 256f b1bd
00000130: 5c76 be3d c17e 173d 66d8 8e3d 0395 fdbd
00000140: 83fd 4d3d 0354 333d ad07 9b3d e0a6 d93d
00000150: 0a31 81bd 07c7 173e 52d8 4bbd 0d37 d53d
00000160: 38fd 05be 9599 58bc cfac 51bd f791 8ebc
00000170: 5d6f 81bd 5ac3 df3d f1f8 083c da55 1a3d
00000180: 623c 5ebd e352 c7bb b462 923d 7f54 323d
00000190: 5b16 48bc c139 c23d bb58 983d b39c 80bd
000001a0: da48 7f3c 4c27 943b 3610 babd f894 c9bc
000001b0: c73c 41bd f679 b6bd 8d7c 373b 0d87 f13d
000001c0: 0d1d e63d aed6 ffbd 4cc5 ff3c 825c d53d
000001d0: ee5c 713d 794c 163e 5f09 d43d aaba efbc
000001e0: baaf 0fbe 7b8c 353d 4fbe 703d 79bc 333e
000001f0: 508c f33c 2363 ce3c ae02 743d d209 163d
00000200: cad8 df3d 9fb9 01be 1105 dc3d 574b 493b
00000210: 5f0d 723d 7dbe d6bb 9f10 b23d 4676 a53d
00000220: ade4 a3bc e4c3 b13d 728f 45bd da9d 0ebe
00000230: 1c6c 55bc 7b96 e13d 7429 b13b 0550 483d
00000240: 27f8 173c c32b 4cbc 29b6 c8bd 33c5 aa3c
00000250: d6aa c73d 28c8 813d abf6 cd3d a384 e63d
00000260: 9f64 ef3d 8aab 6ebd f5e8 1f3d e6a7 e83d
00000270: 768c 003d 8d83 e13d fb0c 0cbb f193 3c3c
00000280: d853 143d fb3c febd 85c6 d93c 443a 83bd
00000290: 9631 9abd 9ab1 59bd 657b 82bd b7f7 09bd
000002a0: 00e8 0abd 151a cbb9 a887 aabd c435 27bd
000002b0: b727 bdbd dd0b 213d a832 d7bd a490 8bbd
000002c0: cb1c 76bd f5c4 143e fc74 00be f03d f43c
000002d0: 0c1a 0fbe ee7d 833d 197e bdbd f188 8cbd
000002e0: 0b53 a73c d42b 3dbd d7a7 72bc 890b 6d3d
000002f0: baa3 31be 82b7 25be a3c4 f5bc 1bc6 ebbd
00000300: 04d4 863d 96d0 bb3d 8f42 cbbc 1306 d6bd
00000310: 8b69 61bc 450b 99bd d429 d93d 3ae1 243d
00000320: 528c 733d 7b5f 073d f738 fcbd 7878 b43d
00000330: d0a0 e0bd 217a 823d 5ed6 283b 88cb 2cbd
00000340: 126d 95bd 15ef 6fba 304f ab3d bfa9 663d
00000350: 4e95 e1bc 81c3 a53d 15d7 17bd 7e52 81bd
00000360: 3903 2abd 93e7 b5bc 0ead f13b b300 563c
00000370: 27df 0cbc c7ec b9bc 4c14 b33d ed56 9c3d
00000380: 8fdc 9b3d ec79 fc3a 9a21 34bc b80e 533c
00000390: 9ec7 9fbd 142d a43d e61c 82bd e2d4 57bb
000003a0: 2ab0 d13d 2ab8 5fbd 5e11 d7bd 8308 363d
000003b0: 7fa4 e73b b676 2abd 800c 01bd 5c1f cebd
000003c0: 084b 0a3e 2940 c7bd 991b 44bd d90f e23d
000003d0: c0fd 103d 300c 1ebd b174 003e d7aa 1f3e
000003e0: f4a5 de3d d2df b03d 8c9b 9fbd d985 b63d
000003f0: 8ef3 d7bd c673 993d 8ee9 253d 3653 173d

lstm.bias_ih_l0_reverse f4 [256]
-0.049301747 -0.12254555 -0.08229695 0.040266506 -0.008328176 0.0468986 0.09014114 -0.043637287
0.042101886 0.040518567 0.08173364 0.08134088 -0.0014249709 0.054540053 -0.07719814 -0.03420362
-0.018614728 0.05856726 -0.08176008 0.062303428 -0.027555777 -0.100802705 0.12641123 0.12152395
-0.05837223 0.01435479 0.17442054 -0.0030375088 0.1075199 0.088353306 3.399558e-05 0.13160294
0.005148814 -0.05863035 -0.02021531 0.15768416 0.1314367 0.01832959 -0.07757781 0.055697642
0.08708664 0.0779487 -0.030855827 0.024814287 0.017798377 0.15948723 0.10344634 0.12282342
-0.009803616 -0.033462316 0.13959524 0.006569823 0.071067035 3.1622445e-08 0.091775276 0.14242633
0.07972846 -0.081194855 -0.06707767 -0.008186277 -0.047147587 0.012614761 0.08268803 0.05854024
-0.12377441 0.09951804 -0.0038276599 0.06673914 -0.07722034 0.06294788 0.09316925 0.13970146
-0.019028563 0.08400859 0.026706312 -0.002161668 0.0018406771 0.12559053 -0.06754612 -0.11273856
0.12938702 -0.0787237 -0.028802805 -0.0361143 0.028540412 0.06391053 0.06389468 -0.0045088595
0.059435252 0.1357071 -0.02617138 0.09709818 -0.0144325765 0.10748502 -0.049961433 0.04506513
0.019003285 0.040737983 -0.09109364 -0.06045309 -0.03190636 -0.04801638 0.016398171 -0.016331643
0.044521183 0.034898877 -0.056615584 0.10173565 0.056201227 0.07712757 0.10336109 -0.052672587
-0.030289965 0.011195647 -0.00045664952 -0.08544755 -0.021456437 0.102335624 0.15232016 0.04074487
0.09147722 0.096696876 0.047884587 0.017268578 -0.047757782 0.003269816 -0.02336347 0.1286963
0.04715168 0.043425206 -0.054409932 0.059084117 0.09829789 0.09136249 0.035920188 0.021172855
-0.08126323 -0.14222114 -0.09063132 -0.10367825 -0.062857985 0.019081187 -0.011815494 -0.0040088445
0.026534839 -0.07367706 -0.10787238 -0.13594551 -0.1454943 -0.064919084 0.056032684 -0.00031920412
-0.040924728 -0.13457096 -0.023684522 0.0023922836 -0.022740057 0.102734014 -0.03073191 0.027607806
-0.08465659 -0.04645447 0.10113005 -0.061882846 0.08088313 -0.035849757 -0.12743339 0.046234023
-0.13217503 0.023504682 0.05221204 0.09099034 -0.07238108 -0.11277836 0.06949102 -0.06396676
0.109406985 0.03382849 -0.09978521 0.07695739 -0.03548395 -0.12592259 0.020764587 0.12889588
-0.03453327 0.06654921 -0.011944879 0.08298532 -0.0486421 0.017356751 -0.09002585 -0.109219804
-0.08010815 0.07724123 -0.04243783 0.12152271 0.036671694 -0.023088608 -0.07254744 0.094748974
-0.054550942 -0.06427736 -0.045885816 -0.022951484 0.047282215 0.0766862 -0.027117927 -0.036083516
0.10850135 0.02803349 -0.019210637 -0.030352697 0.13965468 0.11179792 0.15664473 0.13794822
0.06647578 0.072822094 0.052799784 0.10057905 -0.009452872 0.04589294 0.0013961424 -0.013276526
0.021486375 0.030608572 0.11812315 0.14910555 -0.028221484 0.007068756 0.028803604 -0.011881279
0.07399247 -0.10928311 -0.084602214 0.12274353 -0.053935 0.14460592 0.029721929 0.06179475
0.056830615 0.041601103 -0.036029715 -0.0049897227 0.0015754619 -0.076692455 0.10855686 -0.0130519
0.10999736 -0.024053399 -0.04379896 0.1299573 -0.039678343 0.011834948 0.011055979 -0.04859977
00000000: a1f0 49bd 29f9 fabd 4e8b a8bd 7eee 243d
00000010: e772 08bc bf18 403d eb9b b83d 03bd 32bd
00000020: 0773 2c3d ccf6 253d f763 a73d 0c96 a63d
00000030: 17c6 baba 6465 5f3d 0f1a 9ebd 1819 0cbd
00000040: ea7d 98bc 39e4 6f3d d471 a7bd e131 7f3d
00000050: a7bc e1bc a671 cebd f271 013e 8ce1 f83d
00000060: b817 6fbd 5a30 6b3c 4c9b 323e f110 47bb
00000070: 6533 dc3d 94f2 b43d 7a96 0e38 ecc2 063e
00000080: 62b7 a83b 6126 70bd 949a a5bc f577 213e
00000090: 5897 063e f027 963c 1de1 9ebd 3623 643d
000000a0: 7b5a b23d 91a3 9f3d 5cc5 fcbc 5547 cb3c
000000b0: e7cd 913c 9f50 233e addb d33d d88a fb3d
000000c0: 599f 20bc c80f 09bd 0ef2 0e3e ab47 d73b
000000d0: 988b 913d 3fd1 0733 adf4 bb3d 35d8 113e
000000e0: ad48 a33d 7d49 a6bd 0460 89bd bc1f 06bc
000000f0: d41d 41bd 24ae 4e3c 5858 a93d e4c7 6f3d
00000100: 707d fdbd 1dd0 cb3d 7ad9 7abb 88ae 883d
00000110: b325 9ebd d1ea 803d 85cf be3d e60d 0f3e
00000120: cae1 9bbc b20c ac3d 32c7 da3c c5aa 0dbb
00000130: e042 f13a ce9a 003e 9f55 8abd 79e3 e6bd
00000140: 087e 043e e439 a1bd dcf3 ebbc 97ec 13bd
00000150: 95cd e93c 86e3 823d 37db 823d 0ebf 93bb
00000160: 6172 733d cdf6 0a3e 5d65 d6bc 69db c63d
00000170: 9d76 6cbc 1b21 dc3d 5ca4 4cbd 3796 383d
00000180: c7ac 9b3c dfdc 263d 4d8f babd a99d 77bd
00000190: 3eb0 02bd d3ac 44bd 7555 863c f0c9 85bc
000001a0: d85b 363d 20f2 0e3d bee5 67bd c85a d03d
000001b0: 4233 663d 0ff5 9d3d fbae d33d 36bf 57bd
000001c0: a922 f8bc f26d 373c 766a efb9 20ff aebd
000001d0: 69c5 afbc 5795 d13d d1f9 1b3e 18e4 263d
000001e0: 6958 bb3d 0309 c63d a122 443d d576 8d3c
000001f0: aa9d 43bd 694a 563b bf64 bfbc f6c8 033e
00000200: 1f22 413d a1de 313d f3dc 5ebd 3002 723d
00000210: 6750 c93d 421c bb3d 0c21 133d b272 ad3c
00000220: 566d a6bd 6ba2 11be ea9c b9bd 4355 d4bd
00000230: b0bb 80bd 2650 9c3c c695 41bc a05c 83bb
00000240: 975f d93c 00e4 96bd 32ec dcbd 4d35 0bbe
00000250: 75fc 14be 4cf4 84bd 8782 653d da5a a7b9
00000260: b0a0 27bd f8cc 09be 0b06 c2bc dcc7 1c3b
00000270: 5b49 babc 3666 d23d 7dc1 fbbc c429 e23c
00000280: 6f60 adbd 0b47 3ebd 461d cf3d de78 7dbd
00000290: 0ea6 a53d 32d7 12bd e67d 02be e35f 3d3d
000002a0: e458 07be e48c c03c 4bdc 553d 2559 ba3d
000002b0: 883c 94bd 57f8 e6bd 4f51 8e3d 0101 83bd
000002c0: c510 e03d be8f 0a3d 305c ccbd d69b 9d3d
000002d0: 9e57 11bd daf1 00be 7f1a aa3c 48fd 033e
000002e0: c272 0dbd f44a 883d 74b4 43bc 35f4 a93d
000002f0: f03c 47bd bf2f 8e3c 795f b8bd a2ae dfbd
00000300: be0f a4bd a630 9e3d 4ad3 2dbd e6e0 f83d
00000310: 0f35 163d 5224 bdbc c193 94bd c00b c23d
00000320: cf70 5fbd d9a3 83bd c4f2 3bbd c004 bcbc
00000330: ffaa 413d a80d 9d3d 6a26 debc 4fcc 13bd
00000340: f535 de3d 7da6 e53c a05f 9dbc 38a6 f8bc
00000350: a301 0f3e 4ff6 e43d 7a67 203e 4c42 0d3e
00000360: 7424 883d c023 953d 9644 583d 64fc cd3d
00000370: 38e0 1abc 3cfa 3b3d c4fe b63a c985 59bc
00000380: 3204 b03c d4be fa3c 8dea f13d 20af 183e
00000390: be30 e7bc 06a1 e73b 89f5 eb3c b2a9 42bc
000003a0: 5d89 973d d3cf dfbd ed43 adbd f660 fb3d
000003b0: f2ea 5cbd 9313 143e 677b f33c 7e1c 7d3d
000003c0: 38c7 683d eb65 2a3d e593 13bd d480 a3bb
000003d0: bb7f ce3a ef10 9dbd 0f53 de3d a3d7 55bc
000003e0: 4c46 e13d a20b c5bc 8a66 33bd 8713 053e
000003f0: c285 22bd 5fe7 413c 2324 353c 8d10 47bd
