trained_models/LSTM/LSTM_Zscore_CF8_pred_4.pth (torch, 661823 bytes, 23 tensors)

lstm.weight_ih_l0 f4 [256, 40]
00000000: 80ac 82bd def8 3dbd 9f26 60bd 9e7c 53bd
00000010: 4958 86bd d61b d83d 78d3 803d a8e5 343c
00000020: 3be4 8f3d 3733 cc3d 53df 96bd ee44 e73c
00000030: 34ab 27bd be8a c7bd 2b93 b7bd 8870 763d
00000040: c486 a6bd 4559 283e 5934 70bd a184 94bd
00000050: 59f9 fabc 7f47 023c 0867 a43d 40eb afbd
00000060: fac3 803c b4e4 173e 6afd b1bd 74f3 01be
00000070: 9492 9b3c ef82 333e aab4 f03c 1d02 973d
00000080: 505a 96bd cdff bebd d32f 1dbd 6358 e3bd
00000090: db10 93bc 6174 603d 6aef c0bd e58c bbbd
000000a0: 1650 ec3c 1c8f e13b 71fa 18be 3907 11be
000000b0: d376 c13c ec2c 833d 9e1f 4ebd bfc5 2e3e
000000c0: d200 9f3d 5e3c c3bd 52df 723d 5420 92ba
000000d0: fabc bebd e166 89bd f9b1 733d eabb c4bc
000000e0: e4c9 d4bc 1faa cbbd c16f d73c 0408 0dbd
000000f0: bf32 65bd c90f 42bd b8c5 fd3b 203e 133b
00000100: 9fd5 c13d ab11 083e ce9b ca3d 4b93 b6bd
00000110: df95 aabd 73fa 093e bbf6 92bc 92a2 3dbe
00000120: cad2 cfbb b57a d53c 885d a93d 6e90 ccbd
00000130: cdd3 a9bd 6292 da3d d3c4 2d3c 0765 723b
00000140: 0290 063e eb11 56bd df82 113e c8c7 ebbc
00000150: 9f48 18bc 8a75 903d 3e78 c73d 9ebc b23c
00000160: 7607 543c e092 4ebc d618 033e ea75 d9bd
00000170: 342c f83d 8a25 72be 0e5a 8bbc 9b74 9f3d
00000180: a301 b9bd 2453 bfbe 059b 5abd 9598 7bbe
00000190: 872f 203d 3fa4 d9be b182 4d3d 03d7 63be
000001a0: 29d2 053e 75a8 07be 2d74 143e 0d60 9bbc
000001b0: 6227 f53d 1650 b3bd b29d d23d be8b 67bc
000001c0: b6be 5a3d a764 933a 751b 7abd 7d7f 4c3d
000001d0: 473f bcbd 8deb db3d 1241 e73d 7729 50be
000001e0: af15 1b3e e4aa 1ebd 09b8 973d ce5c 51bc
000001f0: 43fe e33d 5bdd afbd a872 fb3b ec77 32be
00000200: 8c5b 963c 8be3 a1bd 41c0 9b3d 0367 0bbd
00000210: 4c02 c93d 09b8 0cbe 4207 1ebd 236e 513d
00000220: 6f26 6ebc 8bd9 99bd d8a4 82bc cc59 2abd
00000230: 822f fbbc 42c0 e33d ceec 133c 61ad 97bd
00000240: d281 b4bd 50b7 913d 81fc e339 108c a4bc
00000250: fbae 203e 7252 553d c69d 53bd f818 b0bd
00000260: 4351 1c3d fb05 343d 626e 06ba 8dd9 1abe
00000270: f032 80bc 0277 27be 3e7f 0e3e 1c9a 153d
00000280: d8fb 393c f0e3 bebd f9be b13d ba21 37bd
00000290: 6949 1fbc 2c4f e93d d43e 20bc fce0 ddbd
000002a0: 17b4 033d 95ab 3b3d 1aa7 a0bd 30de 483e
000002b0: 1074 32bd 1d8c 4bbd f4d5 6a3d e816 4b3e
000002c0: d837 9e3c 06e8 0cbe 8fff c53d 8825 273c
000002d0: c64d 4fbc 58ae 1e3d 488d f6bd f0ec aa3d
000002e0: 5b02 2bbd ef00 2b3e 11fd d43d 8d61 b03d
000002f0: 2076 a53d 4737 b83d 31a5 b23d 5baf 96bd
00000300: 8a71 bcbd 4805 973d 4905 0fbd 9dc4 1c3e
00000310: beb2 a5bc 9337 f43d ba74 b8bb c515 d93d
00000320: db31 5ebd a04c c8b9 d7db 8bbd 0372 c73c
00000330: cedc 10be dd8e f9bc 0200 b9bd 25cc 92bd
00000340: c8f0 39bd 6900 293c ae90 a8bb b807 dabd
00000350: 59e7 8abd 90f8 543c 999d d5bc ea35 853b
00000360: e9eb e43b cfaf 25bd a7de f5bd 42e2 823d
00000370: af9a 29bb 2c1d 3abd d4cd 17bc 41b7 033e
00000380: d9d9 843d 1ca5 1a3e 17de 473d 0799 2e3d
00000390: 14ac c7bb 2503 e5bd ba98 f93c 3da6 b0bd
000003a0: c5c8 9fbb b65d 98bd 13a4 d03d 5a40 99bb
000003b0: eb27 b43d 5c3d fbbc f386 babc dd8a 00be
000003c0: 58d2 d43c abf3 0ebd 1d9b b2bd 2787 913d
000003d0: 23de 4fbd 0f4c 15be 18af 29bd 60be 703d
000003e0: f511 183e e652 5c3d 45b7 d33d 5f72 ed3c
000003f0: eca7 fdbc ec8e e4bd 0f2a 69bd 1526 a3bd
-0.06380558 -0.046379916 -0.054724332 -0.051632516 -0.06559808 0.10552184 0.062903345 0.011041082
0.070259534 0.09970706 -0.073668145 0.02823111 -0.040934756 -0.0974326 -0.08963617 0.060165912
-0.08131173 0.16440304 -0.058643673 -0.072518595 -0.030636476 0.007951616 0.08027464 -0.08589792
0.015718449 0.14833337 -0.08690913 -0.12690526 0.018990792 0.17530416 0.029383022 0.0737345
-0.073414445 -0.09326134 -0.038375687 -0.11100843 -0.017952373 0.054798488 -0.094206646 -0.09157733
0.028846782 0.006883515 -0.14939286 -0.14162911 0.02361623 0.064050525 -0.05032312 0.17067622
0.07763828 -0.095329985 0.059295006 -0.001114855 -0.09313388 -0.06709076 0.0594959 -0.024015386
-0.025975175 -0.099445574 0.026298406 -0.034431472 -0.0559566 -0.047378335 0.007744517 0.002246745
0.09464573 0.1328799 0.09892999 -0.08914813 -0.08329367 0.13474445 -0.017939916 -0.18519047
-0.0063422667 0.026059488 0.08269793 -0.09988485 -0.08292351 0.106724516 0.010606009 0.0036986487
0.13140872 -0.05226318 0.1421008 -0.028781787 -0.009294658 0.07053669 0.09739731 0.021818455
0.012941232 -0.01260826 0.12802443 -0.106181934 0.12117806 -0.23647133 -0.017010715 0.077859126
-0.09033515 -0.3736812 -0.053370494 -0.24569924 0.039107826 -0.42508122 0.050173465 -0.22249989
0.13068451 -0.13247855 0.14497443 -0.018966699 0.11970402 -0.087555096 0.10283984 -0.014132438
0.053404532 0.0011245207 -0.06106134 0.04992627 -0.09191757 0.10738287 0.11291708 -0.20328318
0.1514499 -0.038737193 0.07408149 -0.012778474 0.11132481 -0.08587142 0.00767358 -0.17428559
0.0183542 -0.079047285 0.07605029 -0.034033787 0.09814891 -0.13742079 -0.03858114 0.051130425
-0.0145355305 -0.07512196 -0.015947744 -0.041589543 -0.030662302 0.11120655 0.009028627 -0.07406116
-0.08813824 0.07115042 0.00043484944 -0.020086318 0.1569175 0.05208058 -0.051664136 -0.085985124
0.038163435 0.043951016 -0.00051281427 -0.15122052 -0.015649289 -0.16353992 0.13915727 0.036523923
0.011351548 -0.093208194 0.08679003 -0.0447099 -0.009722092 0.11392054 -0.009780604 -0.10833928
0.03215417 0.04581793 -0.07844372 0.19616008 -0.043567717 -0.04969417 0.057332948 0.19832957
0.019313738 -0.13760385 0.096678846 0.010201819 -0.01265282 0.038740486 -0.12038666 0.083459735
-0.041750293 0.16699575 0.10399831 0.08612356 0.08079171 0.08994918 0.08722914 -0.07357665
-0.09201343 0.07374054 -0.03491715 0.15309377 -0.020226832 0.119246624 -0.0056291493 0.10599855
-0.054246765 -0.00038204063 -0.068290405 0.024346357 -0.1414673 -0.03046363 -0.090332046 -0.07167844
-0.045395643 0.010315039 -0.0051442003 -0.106460035 -0.06782407 0.012998715 -0.026076125 0.004065265
0.0069861305 -0.040450867 -0.12005358 0.063908115 -0.0025879552 -0.045437977 -0.009265382 0.12862875
0.06486864 0.15102047 0.048795786 0.042626407 -0.0060935114 -0.111822404 0.030468334 -0.086254574
-0.0048762285 -0.07439749 0.10187545 -0.0046768608 0.08796676 -0.030668907 -0.022769427 -0.12552972
0.025979206 -0.03490035 -0.08720992 0.071058564 -0.050748955 -0.14579795 -0.041426748 0.058775306
0.148506 0.053789996 0.1033769 0.0289852 -0.03096386 -0.11160073 -0.056924876 -0.07966248

lstm.weight_hh_l0 f4 [256, 64]
00000000: aceb f83d ab4d 0abd 6e88 a63b f85e 54bd
00000010: 18ff 943c 4732 0cbe 6563 fdbd c97c 0b3d
00000020: d770 1bbe c971 d6bd 0577 fd3d 1a25 bfbb
00000030: d56c a33b 94db 46be f2f8 bebd 88f3 cb3d
00000040: 3d58 66bd 6db1 353d 4b12 ad3d 5891 d23d
00000050: ca8f 11bc cef4 5dbd 1a5b 133d d0bc 16bd
00000060: 49ab c73d 5ebc cfbc 3dd4 2abc dcb1 493c
00000070: 62bc c83d de1e 69bc 5775 82bd 89c9 f2bc
00000080: be84 51bd 62eb 61bd 3bfc e03d f0a4 9ebd
00000090: b140 d8bd d6f8 83bd 701d afbd 12c5 1bbe
000000a0: 7eeb 1cbe 9416 62bc c67a e6bc 0842 073e
000000b0: c736 b53d 90ff 973d 10ac b93d 1dca a03d
000000c0: 9c80 0abc 0cbd abbd 2066 6a3d fb06 4a3d
000000d0: 4280 5b3d f6bd 30be a1fb ab3d 998a 8dbd
000000e0: 5ad0 923d 174e 563c c74b 79bd b96a 2a3d
000000f0: c2d8 9bbd 9d03 cf3d 077c 0bbe f4d1 fe3d
00000100: f649 e3bd a1e8 aabd 6ff5 a23c 2703 0ebe
00000110: 7834 d0bc e674 303e cfd5 3abe a15a 06bd
00000120: dfce 103e bb8a 55be 8eca 703e b63f 2b3e
00000130: d117 50be 6825 fd3c 864b e53d 5229 bf3d
00000140: 4fe4 0dbe 0bee f23d 88e6 1fbe 5f6a 87bd
00000150: 0a41 d63d c5fd 93bc 4dc0 123d faa2 c73d
00000160: 594e 4ebd d209 1abd 040d 22be de3f a33d
00000170: 46db ccbd 212f 98bd 13e2 c93d 0890 a23d
00000180: 2f1e 0bbe c8bb 233d e600 00be 2958 20bd
00000190: c3ff 25be 97aa 1d3d b110 4a3e 1949 803d
000001a0: b83a 093e df1d 30be a89f 973d 171b 1a3d
000001b0: 002b 92bd d18a 12bd 3606 0c3e 444d 0d3e
000001c0: 6fa6 373d 1d47 473d c233 1bbe c2d3 083e
000001d0: 8493 a33d fbad 81be 76f2 ecbd 224b 0ebe
000001e0: ff3b e63d 1a2f d93d ae42 953d 44da 49be
000001f0: d46c 9f3d 5037 14be 8a7d 273e 7137 443e
00000200: 7ffd 1dbe 4cef 153e 1088 113e 17b8 88be
00000210: a717 01be f24c e0bd 04a2 90bd e6df 543d
00000220: 242f bf3d 06ca 05bc 9a59 0d3d 5446 773e
00000230: 3f1f 0fbc 6c79 6dbe 03c6 a4bd ac3c 9dbb
00000240: acfc 493e 5e3f c83c bd99 833b b434 f33d
00000250: 2ac2 fabd 09b8 83be 9a09 93bc 638a 4c3e
00000260: 4af3 2b3e 32c8 863d 1b52 3cbd f5b9 003e
00000270: 92d5 9abd 3e61 e43d ec89 88bd e96f 3d3d
00000280: c4f8 2ebd e5d8 11bd 85cf 8fbd 154a 733d
00000290: 9fdd 8f3d 48c6 7e3d 1db9 883e a7bd 9abc
000002a0: 38ba 863d 7893 44bd c156 923c 8726 0b3e
000002b0: 12cc 48be ad1f 0abe afb6 d4bc 7aca 52bd
000002c0: 2d0d f7bb e917 293e 74f2 09bd 9fa3 e53c
000002d0: 1fab d3bd 8a5d be3b 6b21 af3d e4e0 bcbd
000002e0: faf0 803b 9c82 a83e ad27 2abe 4227 2a3d
000002f0: 756e a8bd e6b3 533e b998 2f3d 2376 9d3e
00000300: 2b8a a2bd 8151 b53d 4246 af3d e77f cfbd
00000310: a5df a43d d8ef d8bd a7bc c9bd 9e73 bebc
00000320: f251 5f3c 9897 0abe a603 16bd 031f e63c
00000330: 14a8 f33d 5cdd 0ebe 858c 2fbe 30bf be3d
00000340: 883c 923d b793 25bd de4c 4ebd 73ac 96bd
00000350: d92f c43d c02f 9f3c e13c 1b3d d206 643d
00000360: e3b2 143d d6d5 5abd 2afe f2bc fbbb d93c
00000370: ba1b d33d a1d7 aabd 59ac 0fbe 90c2 c33d
00000380: fc10 e9bd 26a1 dabc 415e d33c 9b9f 233e
00000390: 8d40 503c c3c4 debc b9e4 3d3e d1e1 b03b
000003a0: 60df 2f3e 80bf b33d bd8a df3b 97e8 04bd
000003b0: 7676 0f3b a943 96bd 14c2 bebb 3c9f 04bc
000003c0: 19c1 d3bd b2d6 09bd 9ac2 eebc a4ca 8b3d
000003d0: 63d1 d9bd ba59 d9bd 3298 2abc 0532 c83d
000003e0: 38cf 66be c5b4 19bd 9efb ad3d c0af df3b
000003f0: ecb8 0cbe 353e 8c3d e107 2f3c a6ce d13d
0.12154326 -0.033765476 0.0050821817 -0.05184838 0.018188044 -0.13691054 -0.123724736 0.03405455
-0.15179764 -0.104709215 0.12376217 -0.0058332803 0.004987339 -0.194197 -0.09324826 0.09958559
-0.056236494 0.04435866 0.08450755 0.10281628 -0.00888438 -0.054188542 0.035975553 -0.03680116
0.09749467 -0.025358375 -0.010426578 0.012310471 0.09801556 -0.014228551 -0.06370037 -0.029637115
-0.051151983 -0.05515612 0.10985609 -0.07746303 -0.10559214 -0.06443946 -0.08550537 -0.15211895
-0.15324208 -0.013799328 -0.028134715 0.13208783 0.088483386 0.074217916 0.090660214 0.0785105
-0.008453514 -0.08385667 0.0572263 0.049323063 0.053589113 -0.17259964 0.08397604 -0.06911201
0.07168646 0.0130801415 -0.060863283 0.041605685 -0.07609703 0.10108111 -0.13621531 0.12442389
-0.11098091 -0.08345152 0.019892422 -0.1386839 -0.025415644 0.17232093 -0.18245624 -0.032801274
0.14141415 -0.20853703 0.23514768 0.16723523 -0.20321585 0.030901626 0.111960456 0.09334053
-0.13856624 0.11861809 -0.15615284 -0.066120856 0.10461624 -0.018065343 0.035827924 0.09747882
-0.050367687 -0.03760702 -0.15825278 0.07971166 -0.100027606 -0.07430864 0.09857573 0.07937628
-0.13585733 0.039974004 -0.12500343 -0.039146576 -0.16210847 0.038492765 0.1973293 0.06263942
0.13401306 -0.17198895 0.07403499 0.03762349 -0.07137108 -0.035776917 0.13674244 0.13799006
0.044836458 0.048651803 -0.15156463 0.13362029 0.07987121 -0.2532805 -0.11569683 -0.13895848
0.11241912 0.10604687 0.07288109 -0.19712168 0.07784429 -0.14474225 0.16356483 0.19161774
-0.15428732 0.14642066 0.1421206 -0.2670295 -0.12606679 -0.10952176 -0.07062152 0.05197134
0.09335163 -0.008165842 0.03450928 0.24147922 -0.008735477 -0.2319085 -0.0804558 -0.0047984924
0.19725293 0.024444278 0.0040161298 0.11875287 -0.12244065 -0.25726345 -0.017948914 0.19974665
0.16792026 0.06581153 -0.04597674 0.12570937 -0.075602666 0.1115136 -0.066669315 0.046249304
-0.04271771 -0.035607237 -0.07022003 0.059396822 0.07024693 0.062200814 0.2670373 -0.018889261
0.06578487 -0.0479922 0.017863633 0.13588916 -0.19609097 -0.13488646 -0.025966017 -0.051462628
-0.0075394125 0.16513027 -0.033678487 0.028032122 -0.10335373 0.0058094906 0.08551296 -0.09222582
0.0039349766 0.32912147 -0.16616698 0.041541345 -0.08224193 0.20674095 0.042870257 0.30754194
-0.0793651 0.08853436 0.085583225 -0.10131817 0.08050469 -0.105926216 -0.09850436 -0.02324849
0.013630377 -0.13534391 -0.036624573 0.02809096 0.11897293 -0.1395163 -0.17143448 0.0931381
0.07140452 -0.040424075 -0.050366275 -0.07357111 0.09579439 0.019431949 0.037899856 0.055670567
0.036303412 -0.053426586 -0.02966221 0.026578894 0.10308023 -0.08341909 -0.14030589 0.09558594
-0.11380193 -0.02668817 0.02580178 0.15978853 0.012710703 -0.027193433 0.18544282 0.005398013
0.17175055 0.0877676 0.006821959 -0.032448377 0.0021890677 -0.07337124 -0.0058214758 -0.008094605
-0.10339565 -0.033652015 -0.029145528 0.0682576 -0.106356405 -0.10612817 -0.010412263 0.097751655
-0.22539985 -0.03752591 0.08495258 0.006826371 -0.13742417 0.068478025 0.010683031 0.10244493

lstm.bias_ih_l0 f4 [256]
00000000: c843 69bc 323b 643d 27e9 323e 77ca e03c
00000010: 622f d5bd 6b54 0a3e b66f 453d 8e5e 6f3d
00000020: b357 443d 8ee6 cf3d 07ac 463e f487 373e
00000030: 7486 943c bc84 ae3d d90d 113e 3baf dcbc
00000040: 739a 09bd 48a2 2b3d 121a f33d ebd8 e83d
00000050: de9d 9f3d 2f58 1e3d c960 b4bc ce25 293d
00000060: eff8 36bd 992f 123e 137b 043d 2f87 913c
00000070: 4bfd 8f3d 4887 8f3d a52c 0e3e dacc a7bc
00000080: 4900 433d 7dc3 bb3d 2ee4 8abc 2b88 be3c
00000090: 5915 76bd 659d 0e3e d424 c6bd 0f34 64bd
000000a0: f3f1 bf38 8de7 b53d e4cf 203e 7760 62bc
000000b0: 0f84 973d 7d45 c63b 2e25 873a 345a aa3d
000000c0: 22ef cbbd 4083 823d 314c 313d 5be6 9d3d
000000d0: f7b6 843d a11f 733d 0f72 e73b 5ba2 3d3e
000000e0: c953 a5bd f489 70bc c5b5 9e3d a800 0d3d
000000f0: ea95 0d3c ec0d d83c 358a 343c 8a47 08bd
00000100: 8ba8 68bc 8000 c33d 22c8 ba3c 44e7 2a3d
00000110: 7a00 1f3d 6608 85bd e5e7 aa3c 4310 5abc
00000120: 31c9 0d3e 2538 123e 5ce7 ddbc ce60 263e
00000130: ee0e 333e 4481 0d3d ba55 87bd 9d1a 153d
00000140: d0f1 333d 3aed 9c3c 9dd7 3c3e bb56 ff3c
00000150: 4596 4cbd 2a08 363d cdad 5cbb 8b9c 033e
00000160: 41e7 223d 93d7 ac3d a599 44bd fc8e b13d
00000170: 4200 173e ec20 9dbd 8a2f 60bd f577 9bbd
00000180: 6100 473d dd6f 36bc dbac 823d f08f 203d
00000190: 24c0 863d ae5b 023e 68fa 413d 69d9 dfbc
000001a0: 40fc 153e 729c 27bd bc45 ce3d 8b90 de3c
000001b0: 6e51 0d3e 9761 a73d f177 debd eab0 3b3d
000001c0: fff6 173e d946 0b3e 47b0 073e 7aa1 f23d
000001d0: b76d 11bd 0da5 353d 7e78 32bd 541f 70bc
000001e0: f0c4 a1bd c6bc 6b3d 6940 323d e4bf 753c
000001f0: 7671 963d cb4d 823c 66c2 ddbc 3b09 1d3c
00000200: 2e2b 64bc 6a0d a03d d48d 4f3d 98c3 97bd
00000210: c091 3d3d 8a3b 8abd 1313 82bc 9f2a d4bd
00000220: 5854 48bd e472 8c3d 9008 a1bb c350 073e
00000230: fc37 723d 67a2 95bd 7956 fc3d e3e1 d8bd
00000240: fcb5 613d fc47 083e 2577 283c d64f f63c
00000250: c92c a43d d599 c73d 0b8b e93c d125 babd
00000260: 79a7 ce3c afda aabd 62c6 0abe 44ff 453d
00000270: 5556 ca3d a7ee b1bd 5bed b5bd 7264 66bd
00000280: c61b 383c d081 9b3d 5ac3 a7bd d9a5 f4bd
00000290: 95cb 00be e600 dc3d b2e8 a23d ca5e 9cbd
000002a0: ce9d 8c3d 3b50 c43d 30eb 7a3d 1bdc a4bd
000002b0: 743c 063d 2bba 833d 7847 1fbb 1d30 b0bd
000002c0: f73b 50bd 679d 383d 3b08 1c3d 9c87 013e
000002d0: 37fc 42bd e96f 18be b810 2fbd a3ca a5bd
000002e0: f019 5ebd f0ff b93d 3439 bbbc ac46 fbbd
000002f0: fce9 bfbd 2a80 523d 74cb 7b3b e450 c43d
00000300: 42a2 d9bd e431 9a3d ca30 bf3d cd55 4eb9
00000310: 0f50 4dbd 91fe 553c 996f 6a3d 7405 343e
00000320: 7e18 d53d 7904 453c e511 ca3d c44a 6a3d
00000330: 1ccd 543d 7e2a cc3c d375 283e 9767 c13d
00000340: e15c 953b 1f7c ee3b 914a 8f3c e880 533d
00000350: 9fc5 eb3d 89e5 293e df7f bfbd b914 483d
00000360: 66b8 8abc 4ed3 183e fc26 383e e1f0 f33d
00000370: 1ab0 4c3d d8ba f1bc 5266 3c3d 0fe6 c23d
00000380: 0345 ca3d 8403 ca3b dd65 0fbd 2788 993d
00000390: c1bb cfbc 7ebc e83c 9d87 e43c 8786 763d
000003a0: afd9 99bd dfc7 8dba ea25 8cbd 616f de3d
000003b0: 3ca4 f5bb 2427 65bc d413 b53c 269f f63d
000003c0: d759 e2bd d2b5 ddbc d272 de3d 0b52 2f3e
000003d0: 8c6e d73c 91a0 29bc 8f27 f5bc da1c bb3d
000003e0: 7dc5 a7bc 011e c5bd b19d 29b9 ffb9 d7bd
000003f0: 21fd 423e fc92 01bb 1552 debd b3a5 77bd
-0.014237352 0.055720516 0.17471753 0.027440293 -0.10409428 0.13508765 0.04820224 0.058439784
0.0479352 0.10151397 0.1940156 0.17922956 0.018130518 0.08521411 0.14165439 -0.026939025
-0.03359456 0.04190281 0.11870207 0.11369499 0.07793783 0.038658317 -0.022018807 0.04129582
-0.044670995 0.1427597 0.032343935 0.017764656 0.07030734 0.07008225 0.13884218 -0.020483423
0.047607694 0.09168146 -0.016954508 0.02325829 -0.060078952 0.13927229 -0.09674993 -0.05571371
9.152656e-05 0.088820554 0.15704304 -0.013816944 0.07398235 0.006050764 0.0010310763 0.08317986
-0.0995772 0.0637269 0.043285552 0.077099524 0.0648021 0.059356336 0.0070631574 0.18518965
-0.080726214 -0.014681328 0.077495135 0.034424454 0.008641699 0.026373826 0.011019279 -0.03327135
-0.01420034 0.0952158 0.022800509 0.04172446 0.038818814 -0.064957425 0.020862529 -0.013309541
0.1384628 0.1427923 -0.02708786 0.16247866 0.17486164 0.034547105 -0.06608148 0.036402334
0.043931782 0.019156087 0.18441625 0.031169286 -0.049947996 0.04444138 -0.003367293 0.12852685
0.039771322 0.08439555 -0.04799809 0.0866985 0.14746192 -0.07672295 -0.054732837 -0.07591239
0.048584346 -0.011135069 0.06380626 0.03919977 0.06579617 0.12730286 0.047357947 -0.027325349
0.14647007 -0.040920682 0.100718945 0.027168533 0.13800594 0.08172911 -0.10862721 0.045823015
0.14840315 0.13601245 0.13250838 0.118472055 -0.035505023 0.044346858 -0.04357194 -0.014655907
-0.07898891 0.057553075 0.043518458 0.014999364 0.0734586 0.015906235 -0.027070235 0.00958472
-0.01392631 0.078150585 0.050672367 -0.074103534 0.046281576 -0.067496374 -0.015878236 -0.10359692
-0.04890856 0.06857851 -0.004914351 0.13214402 0.059135422 -0.073063664 0.12321181 -0.105899595
0.055105194 0.1330871 0.0102823125 0.030067366 0.080163546 0.09746138 0.028508684 -0.09089244
0.025226342 -0.08342492 -0.1355224 0.048339143 0.09879748 -0.086880974 -0.088831626 -0.056248136
0.01123709 0.07593119 -0.08191557 -0.119456954 -0.1257766 0.10742359 0.07954539 -0.07635267
0.06866036 0.09585615 0.06125945 -0.08049794 0.032772496 0.06431993 -0.0024304073 -0.08602927
-0.050838437 0.045071986 0.038093787 0.12649387 -0.047603812 -0.1488644 -0.042740554 -0.080952905
-0.054223955 0.09082019 -0.022854425 -0.12269339 -0.09370801 0.051391758 0.0038420828 0.09585741
-0.10626651 0.07529047 0.09335478 -0.00019677654 -0.050125178 0.013061182 0.057235334 0.17580205
0.10405062 0.012024992 0.09866694 0.05720021 0.05195342 0.024922606 0.16451196 0.09443586
0.004558191 0.00727798 0.01749161 0.051636606 0.115123026 0.16591467 -0.09350561 0.048847888
-0.016933631 0.14924356 0.17983621 0.119111784 0.04997263 -0.02950804 0.045996018 0.095165364
0.09876444 0.00616497 -0.035009254 0.07496672 -0.025358083 0.028410193 0.027896697 0.06018689
-0.07512223 -0.0010817013 -0.06843169 0.108610876 -0.007496385 -0.013986383 0.022104181 0.12042074
-0.11052292 -0.027064238 0.10861744 0.1712114 0.02629783 -0.010353223 -0.02992609 0.091363624
-0.020479912 -0.096248634 -0.0001617584 -0.10533523 0.19041874 -0.0019771447 -0.108555 -0.060460757

lstm.bias_hh_l0 f4 [256]
00000000: 516e 933b 938e ec3c 2779 503d fffa f8bc
00000010: 362c c6bd ed9a d93d a958 dc3d 5206 143e
00000020: dcba e9bb d101 873d be63 4a3e bdd7 d43d
00000030: fe43 faba 18cc 273e 04c5 0f3e 16e7 a3bd
00000040: 2782 c1bd c09d 88bd 77db 553d ebaf 8abd
00000050: eab5 5c3d 2ee2 18bd 09ab cbbd 2ca6 d03d
00000060: aad3 45bc 755f 0b3c 919f 333e 2019 ad3d
00000070: a9a7 0fbd 0e17 b03d 3063 133e 2596 31bd
00000080: 632d f3bc 95b7 dd3d 955c 8f3d bc9e eb3d
00000090: 89e2 273e 9778 b43d cd5b 13bd bea9 35bd
000000a0: 4d00 e73d f128 1d3e 41b1 9f3d a646 963c
000000b0: 0dd5 173d 462e 5d3d b74f 69bd bfde 333e
000000c0: c70f 56bb 256e 1e3d 33de 1e3d ba3c 083d
000000d0: 1cc4 723d 3339 223e 8345 b93c 9a8d 853d
000000e0: d33a 8ebd acaf b53d a169 9f3d b018 1fbd
000000f0: f52a 953d 6f2f bcbd cf48 8bbd a6e7 51bd
00000100: c960 d63d f116 1d3e 7615 bc3b d25c 24bd
00000110: 5ea4 d8bd 7d41 fe3d a293 273e 4323 203e
00000120: ca4b 82bd 4adf 1c3e 8b07 6cbd 9fd7 8d3d
00000130: b737 8e3d 2b5d 613d f942 023e 7b43 ec3c
00000140: 7f46 0f3c 6a62 bebd d44a c03d 0a04 44bd
00000150: 688c 013e ab15 4d3d 3394 8f3d babd bd3d
00000160: 5bca 81bd 5c26 e43a 1c41 453d 6aea 2f3e
00000170: 1d3c df3d 5447 0b3e 12e1 9b3d b767 ba3d
00000180: 3312 8ebd c240 153e b440 063e c7e9 e8bc
00000190: 275c db3d 9ac6 2a3e 9f04 063e d9ed bbbc
000001a0: e93f b13d 33a9 e63b 081a c23d 0d8c 72bd
000001b0: 3962 9c3d b612 61bd 5929 f43d 8527 15bd
000001c0: 62dd 51bd 184f ed3c 37dd 76bd 8db8 e33d
000001d0: 92ac 823d 0aac 4fbd 3a84 8e3d aca0 25bd
000001e0: 9699 803d 2891 36bd 11b1 eb3d fdd0 30bd
000001f0: d828 0c3d dc37 ab3d fe6e 7f3c fda5 ec3d
00000200: f948 083e bcf6 88bd 35b4 fb3d 368c bfbd
00000210: f4fd 8ebd 4010 b5bb c3b5 0abe e963 b43d
00000220: d9ed ea3d 1e3c cfbd 01f9 073e c80a 863d
00000230: af23 a93d 9124 acbd cf8c ea3d 2aae ec3d
00000240: a0db 33bd bf79 6c3d 4766 1fbd c408 2c3c
00000250: 01cf 3d3c 15c9 a93d 851b 06be 2a8c 983c
00000260: 9fc4 273d 05aa d2bd 7209 233d f67b ad3d
00000270: d97d e9bd 0c3b e8bd fbb2 fdbd c3fb 99bd
00000280: 95a0 e3bd 1909 8d3d ae61 ffbd 09db a539
00000290: 9cd6 883d 28e2 f13d 6878 26bd 7315 0d3d
000002a0: d588 033d 70d8 ec3d beef f23d 68d0 c2bd
000002b0: 67e7 b13b 1609 edbd 40d5 d7bd 02b1 213d
000002c0: 3cd7 6abd cf87 9bbc ed20 3d3d 7cd3 53bc
000002d0: 3985 0bbe 5b37 efbd 11b0 b53d 8c95 3d3d
000002e0: c54d e13d abd8 b63d 20d3 f1bd c63c d23d
000002f0: 3b32 6b3d 9d84 8ebd 3a5e f0bd 3e26 36bd
00000300: 59bf 16bd 0cab 1c3e 5ccf c33c 0c3a 153e
00000310: 978a 81bd 0547 21bd 7d64 1c3d 6b1b c73d
00000320: 87cf 0b3e eafa 933d 9d1f 9d3c 2109 bd3d
00000330: c89a 3dbb 121f 7a3d f0aa ffbc c7c0 83ba
00000340: 0e28 0f3b 3cc8 2bbd 5946 4c3c e9fe 153e
00000350: d08c bd3d 2447 c13d 1f90 6fbd a91c 2a3c
00000360: 629f f53d c782 91bd a67b 0abd fc6d 253e
00000370: 5c6a ec3d d88f ff3d 49b9 bb3d e1b6 823d
00000380: be1a 5e3d cff9 4d3e f718 f23d 84f7 b33d
00000390: 591f 223c b4e7 0e3d 470d 563d d1bf 073e
000003a0: 60de 7f3d aa13 4a3e 169d 43bd 1f18 c0bc
000003b0: 54a9 b0bc 59ab 30bd d66e 973d c502 ce3c
000003c0: 817e 18bd 9499 2bbd 1cb4 883d 7ba5 3b3e
000003d0: 6488 d43d 3110 f43d eff8 fb3d 824b 8c3d
000003e0: f3e4 3c3b 29f4 bb3d 86f6 0e3e 37da 91bd
000003f0: 5193 e33d 97a2 163d 67b5 e33c 9b49 2b3d
0.0044992347 0.028876578 0.05089679 -0.030393122 -0.09676401 0.10625253 0.10759098 0.14455536
-0.007132871 0.06592143 0.19764611 0.10392711 -0.001909375 0.1638645 0.14039999 -0.080030605
-0.09448653 -0.066707134 0.05221125 -0.06771835 0.053884424 -0.037325077 -0.09944732 0.10187945
-0.01207439 0.008506645 0.17541339 0.08452058 -0.035072003 0.08598147 0.14393306 -0.04335608
-0.029684728 0.10826031 0.070000805 0.115048856 0.1639501 0.08812063 -0.03597622 -0.044351332
0.11279354 0.15347649 0.077974804 0.018344235 0.037068415 0.053999208 -0.056960788 0.1756544
-0.0032663213 0.03867926 0.038786124 0.03326104 0.059269056 0.15842132 0.022616154 0.06521149
-0.069448136 0.088713974 0.07783819 -0.038841903 0.07283584 -0.09188735 -0.068009965 -0.051246308
0.10467679 0.15340783 0.005739863 -0.040127583 -0.105782256 0.12414835 0.16364911 0.15638451
-0.06362112 0.15319553 -0.05762438 0.06925892 0.069442205 0.055020493 0.1272086 0.028840771
0.008744835 -0.09296115 0.09389272 -0.047855414 0.12651217 0.050069492 0.07010689 0.09264703
-0.06337424 0.0017406452 0.048157796 0.17179266 0.109001376 0.13601428 0.07611288 0.09101813
-0.06937065 0.14575484 0.1311062 -0.028431786 0.10710936 0.16677323 0.130877 -0.022940563
0.08654768 0.007039213 0.09477621 -0.059215594 0.07635922 -0.054949485 0.11921949 -0.036414642
-0.051236518 0.028968379 -0.06026956 0.11119185 0.063805714 -0.05070118 0.06958814 -0.04043643
0.06279294 -0.044572026 0.11508382 -0.043168057 0.03421864 0.08360264 0.015590427 0.11555097
0.13309087 -0.06687686 0.12290231 -0.09352915 -0.069820315 -0.005525619 -0.13545899 0.08808119
0.11471147 -0.10118888 0.13278581 0.06545025 0.08258759 -0.08405412 0.11452638 0.11556657
-0.043910623 0.057733294 -0.0389159 0.010500137 0.011584998 0.082903065 -0.13096435 0.018621523
0.040958997 -0.10286335 0.03980393 0.08470909 -0.11400957 -0.11339387 -0.123876534 -0.07518723
-0.11114613 0.06886501 -0.12469803 0.00031634446 0.066815585 0.11810714 -0.040642172 0.034444284
0.032112915 0.1156472 0.118621334 -0.095124066 0.0054291966 -0.11573999 -0.10538721 0.03947545
-0.05733417 -0.018985657 0.04617398 -0.01292884 -0.13625039 -0.1168048 0.088714726 0.046285197
0.110011615 0.08928045 -0.11807847 0.10265498 0.05742095 -0.06958888 -0.11736722 -0.044470064
-0.036803577 0.15299624 0.023902588 0.14572924 -0.06325262 -0.03937437 0.03818177 0.097220264
0.13653384 0.072255924 0.019180113 0.09230257 -0.0028931368 0.061064787 -0.031209439 -0.0010051959
0.0021843943 -0.041939005 0.012467944 0.14648022 0.092553735 0.09437397 -0.058487054 0.01038281
0.119932905 -0.07105022 -0.033809327 0.16155237 0.11543724 0.12478608 0.091662 0.06382538
0.054224722 0.20114826 0.11821168 0.08787444 0.009895169 0.034888938 0.052258756 0.13256766
0.062467933 0.19734064 -0.04775723 -0.023449002 -0.021565117 -0.04313216 0.07394187 0.025147805
-0.03723002 -0.04189451 0.06674978 0.18324845 0.10377577 0.11917151 0.1230334 0.068503395
0.0028822988 0.09177429 0.13961229 -0.07121699 0.11112083 0.03677615 0.02779646 0.041818243

lstm.weight_ih_l0_reverse f4 [256, 40]
00000000: 2633 ecbd ec2f 41bd 7011 28ba 9d02 c33c
00000010: ed25 64bd ddc6 25be b684 9d3d 1adb 013e
00000020: 4d54 ab3d 42a9 ce3d bec9 b33c 57fd 5bbc
00000030: 9437 1cbe 88a2 7a3c 2598 7cbd a8ab 2a3d
00000040: 0060 edbc 4156 8c3c 15b2 9c3d c500 36bd
00000050: ca4c b93c d53f 7dbd 1c84 913d dfa1 89bd
00000060: a4bb 0dbc bf90 913c 474a 0fbe 290b 7f3d
00000070: 2c72 90bd 5c29 5abd c43e 67bd 3bbb 8f3d
00000080: ffae 453d a8ec 30bc 4f84 153b 9499 9b3c
00000090: f2e7 00bc 7f5e 573d 1bb8 2dbd 8ccc 45bd
000000a0: d685 6fbd a488 16be dc5b ebbc 4f0b 0f3d
000000b0: f7a3 f43d 7a05 99bd b743 803d d253 e6bd
000000c0: 3ee4 bf3d d1af 87be b0be dcbc 04ec ebbd
000000d0: 4704 0c3d 22c9 bdbd ec98 ae3d cbad 403d
000000e0: 92d9 7f3d 1053 b53d 611f 6b3d 04d6 8f3d
000000f0: f86d fe3d ca12 703d 4ee0 5bbd 1dcc 3abd
00000100: 8d05 80bd 93d7 8b3c 84b0 6fbd 7b7e 0ebe
00000110: f06c 99bd c811 b9bd 9704 d73d 7934 993d
00000120: 0cf7 b73d 700a 533d 5a9e 5b3d 2c87 1abc
00000130: 0fca fbbc 12b3 403d 59c8 0a3e bb14 f23d
00000140: 3a56 f8bd 2db6 d3bd bd81 82bd 37d2 263e
00000150: 05bb 363d f82e c2bd f4d0 a13d 0dc9 c3bc
00000160: 15a0 a0bd 4c64 003e 9902 463c 551b 19bd
00000170: d27e e03d f66e 133d eb61 47bc 1f86 3d3d
00000180: 825f b5bd 4e28 3cbd 0f46 a7bd 26e2 65bd
00000190: ec54 403d 3b8a 553d 5b66 aebd 20d6 1cbd
000001a0: 739e d93d 94c3 49bd 8247 1ebd 2d7a acbb
000001b0: e05f c6bd 1318 2b3e 3c26 0d3c 00ba 3dbd
000001c0: ac26 f63d 29dc 0ebc c325 ee3c 0e22 c5bc
000001d0: dc9b a4bd 06c3 103a 0582 963d 1348 43bd
000001e0: 9aa5 15bd 3d39 fb3d aaa9 b1bd b67c e1bd
000001f0: 8dcf 83bd 2636 ab3c 1041 bfbd 61cf a43d
00000200: 856a f23c 8760 a6bc a323 99bc 0d84 9abd
00000210: 2e39 6c3d ab87 983a 6f80 c73d 1775 07bd
00000220: 701f d83d 0d8e 3abd c2cf 28bd 7148 4dbc
00000230: 5a0e 2cbd 5ca6 55bd 8a80 44bd 835d e63d
00000240: 8487 80bd 3fab 7a3d 09b9 e03d 78fe 4bbd
00000250: 5502 e23d a228 b1bd dbc3 c53d 1f8b 0e3e
00000260: 2552 df3d 4142 e23d 518b cabc 693f b53d
00000270: fd2a e4bc 758c bf3d e457 953d faf8 2cbd
00000280: 43e4 6d3c 3091 5c3c 0786 d83d aa79 3cbd
00000290: 9f23 b43d 785b 3b3e 4e41 e8bc 80d1 873c
000002a0: 853a 343b 1878 f53b 8323 0e3d 2053 d83d
000002b0: 5825 9bbd 3e8f 03be 2732 8a3c ee89 db3c
000002c0: e7ef 72bd 94a8 0a3d 6da3 7abd bb5d 4abd
000002d0: 4c3c 30bd 615e fa3c 5cc2 153d c0e5 4bbd
000002e0: 0342 293d 57f0 2f3b ed6e 783d abe9 843d
000002f0: 6600 4cbd fb12 c93d 85f1 533c bc57 ca3d
00000300: 236b 7cbd ee4f 14bd b91c 763c c96f 92bd
00000310: 1ca8 003e 7a83 12bd e810 a0bd aa40 503d
00000320: 04a1 4e3d 7abf b33d 30cc 883d 0ad7 82bc
00000330: 2d4b 8b3d 0c9a e1bd fd59 b2bd dbc3 23be
00000340: 2c69 623b da19 27bd 08fc 9dbd 2a7e 44bd
00000350: 3ce5 fabd 50c7 023d e957 02bd 9820 84bc
00000360: 7430 6cbc 12b5 d93d 533d d93d 77e3 023e
00000370: 3711 313d 6077 37bd 36fb 2c3c 6a54 06bd
00000380: 0e61 a93d ba0e 223d ab18 54bd 1183 32bd
00000390: 7ec6 afbd dd6e 6f3d 1c5d 213d d6be 04be
000003a0: a1a5 a4bd de62 0cbd dccd d13d 5aef 983d
000003b0: 5dc9 043d dd63 cf3d a1da 00be dbe0 043e
000003c0: d9a2 e1bd 9ce3 ad3d 9339 843d b82f 6c3d
000003d0: 2c3d a6bd 74ee 3c3c 0125 c43b f251 33bd
000003e0: e8cb 2b3a 740c 03be 60c9 30bd 9182 9b3c
000003f0: 444c 6c3d de9c b2bc 76ca 5b3c 868c c93d
-0.11533193 -0.047164842 -0.000641129 0.023804957 -0.05570023 -0.16189142 0.07691328 0.12681237
0.083656885 0.10090877 0.021946784 -0.0134271 -0.15255576 0.0152975395 -0.061668534 0.04166761
-0.02897644 0.017130973 0.07651154 -0.044434328 0.022619624 -0.061828453 0.07105276 -0.067203276
-0.008650694 0.017769216 -0.13993178 0.062266503 -0.070530266 -0.0532621 -0.056456342 0.07018133
0.048262592 -0.010798611 0.0022814458 0.01899413 -0.0078678 0.052580353 -0.042411905 -0.048290774
-0.058477245 -0.14700562 -0.028730325 0.034922894 0.11945336 -0.07471748 0.062629156 -0.11246456
0.093697056 -0.26501325 -0.026946396 -0.11519626 0.034183767 -0.09266879 0.08525261 0.047040742
0.06246335 0.088537335 0.057402972 0.07023242 0.124233186 0.05861167 -0.05368071 -0.045604814
-0.06251059 0.017070567 -0.058517948 -0.13915436 -0.07491481 -0.09036595 0.10498922 0.074807115
0.08982667 0.051523626 0.053617813 -0.009431642 -0.030735997 0.047045775 0.13552989 0.1182036
-0.121258214 -0.10337482 -0.06372402 0.16291128 0.04461195 -0.09481615 0.07901183 -0.02389958
-0.07843033 0.1253826 0.01208558 -0.03737958 0.10961689 0.035994492 -0.012169342 0.046270486
-0.08856107 -0.045936875 -0.081676595 -0.056123875 0.046955988 0.05213378 -0.085156165 -0.038290143
0.10625925 -0.049258783 -0.038642414 -0.005263588 -0.096862555 0.16708402 0.008615073 -0.04631996
0.12019095 -0.008719482 0.02907074 -0.02406409 -0.0803754 0.0005522225 0.07349018 -0.047676157
-0.036534883 0.12266777 -0.08674939 -0.11010115 -0.064360715 0.020899843 -0.093385816 0.08047367
0.029591808 -0.0203097 -0.01869375 -0.07544718 0.05767172 0.0011637112 0.09741294 -0.03307065
0.10552871 -0.045545626 -0.04121376 -0.012529478 -0.042005874 -0.052160606 -0.047974147 0.11248305
-0.062758476 0.06119847 0.10972793 -0.049803227 0.11035601 -0.08650328 0.09656497 0.13920258
0.1090434 0.11047793 -0.024724634 0.08849985 -0.02785253 0.09352962 0.072921544 -0.04222963
0.014519754 0.01346235 0.10572439 -0.046014465 0.08795857 0.18296611 -0.028351452 0.01657939
0.00275007 0.007491123 0.034701835 0.1056273 -0.07575482 -0.12847611 0.016869618 0.026799168
-0.05931082 0.033852175 -0.06119101 -0.049405795 -0.043026254 0.030562581 0.03656231 -0.049779654
0.04132272 0.0026846135 0.060652662 0.06489881 -0.049805067 0.09818073 0.012936001 0.09880015
-0.06162561 -0.03620904 0.015021496 -0.071502276 0.12564129 -0.035769917 -0.078157246 0.05084292
0.050446525 0.08776756 0.06679571 -0.01597168 0.06801448 -0.1101571 -0.0870857 -0.15992682
0.003454755 -0.04079614 -0.07714087 -0.047971882 -0.12250754 0.03192836 -0.03182212 -0.016128823
-0.014415849 0.106302395 0.106074 0.12782083 0.043229308 -0.04479158 0.01055794 -0.032795347
0.08270465 0.039564826 -0.051781338 -0.043582026 -0.08582781 0.058455337 0.039395437 -0.12963423
-0.08039404 -0.034273975 0.10244343 0.07467528 0.032418597 0.10126469 -0.125834 0.129764
-0.11017389 0.08490679 0.06456294 0.057662696 -0.08117136 0.011531461 0.0059858565 -0.04377932
0.0006553517 -0.12797719 -0.043160796 0.018983157 0.05768992 -0.021803316 0.01341497 0.09841256

lstm.weight_hh_l0_reverse f4 [256, 64]
00000000: cffd 393d 3f7c 9e3d 958e ea3d d209 08be
00000010: c481 db3d a5cd 2dbd 0919 b63d 32e6 953d
00000020: 81f7 273d 427e ad3c 295d 83bd ff54 9fbd
00000030: f794 d83c 800b bf3d 0daa 68bc b7fd 51bd
00000040: 37f2 9f3d 56f1 25bb 3ee7 ac3d adf8 0d3c
00000050: 761d 7f3b c4b2 793d 0420 c6bd 13dc ccbd
00000060: 5d0c e0bc 612b 323d b26c 4b3c d87a a8bd
00000070: e5d2 3bbd 7eb5 38bc a441 dfbd d5a8 c13b
00000080: 47eb d2bd b05b bf3d f9d0 303d a58e b5bd
00000090: 40ff a63d 7614 8cbd 54a8 77bd c312 483d
000000a0: 6fb6 643e 96d1 2bbd c06c 2f3e cc26 3ebd
000000b0: 2846 debd 3d1a 0d3d a7d6 113e 02a9 8dbd
000000c0: 34d3 12bc 36dc a53d 8203 2e3d 6f24 563d
000000d0: 1d74 523d f6d1 69bd b7c8 0b3e dfc2 c43d
000000e0: 3112 a03d f92e 0fbd 6c04 163e 51e5 b53d
000000f0: 94c7 c13d cc93 2a3e b0b8 b1bc a1df 15be
00000100: edd9 5ebd d47a 873c 9447 793b 85cd b03d
00000110: 3b49 adbd 4ad0 ffbc dd27 8f3d a8e1 f53d
00000120: f161 93bd 1c55 eb3c b658 3cbd 74e1 ad3d
00000130: b545 94bd 18c3 da3d 9e3e afbd e349 a43c
00000140: 5870 1a3e 7f2e 423c c3b3 f63c 716e fdbd
00000150: a876 3abd 49a6 463d 53b5 043e 9444 c33d
00000160: e142 b33c ed1f b7bd 33e8 6ebc 4a28 583d
00000170: 2168 a43c 300d 32bc a67c e4bd ac02 e7bd
00000180: 962d 3bbd fd2b 353d 7b91 cc3d fb28 c3bc
00000190: 8bf8 23be 213e c6bd 06cd 7d3d e31f 093e
000001a0: bd0f d2bb ef53 503c af90 ad3c 3419 233e
000001b0: bbe0 b13c ea2d a63d f919 edbd 17da b0bd
000001c0: c53e 6b3d bb7d 72bd 83f2 1c3d 0002 c4bd
000001d0: 588f e5bd 05cf d8bd e4ad 223d 627e b8bd
000001e0: bf0b 1a3d c84b c0bd 7e64 e33c 68f8 0f3d
000001f0: b5d0 fc3d 2800 c73d 1402 f0bb 6d37 52bd
00000200: bff2 153e 679b 8abc 16a6 ce3d 6125 943d
00000210: ac3e f9bd 6f46 64bb f8c9 16be 626a b9bd
00000220: efd3 e3bd 8170 94bc 60c1 04bc 32fc d6bd
00000230: 299e 1d3d 1302 bfbd 9dda 8cbd 7495 0cbd
00000240: c088 923c 300c 3f3b 1624 f43d aa32 af3b
00000250: 681f f7bd 587b 273e f869 1ebe 8428 35bd
00000260: e0ce 083d a594 a63d 3c1d cc3d 956c 383d
00000270: 2096 ba3d b0f1 35bd 840b 983d 4ff6 a5bd
00000280: 4bb2 0dbd d087 fc3c d8dc 17bd dc1a 0e3c
00000290: c9c1 f23d d7a3 94bd 55d2 31bc 94dd 62bc
000002a0: 1f00 adbb 3bc2 663c ece9 64bd 3df6 afbb
000002b0: 8574 f8bd 883d 123d ad1b 0dbe b789 80bd
000002c0: 54a8 43bd 5ee7 c9bd 705e 433d 11a7 cabd
000002d0: e872 f1bd 7d1f b5bc 3eef ae3d e104 5c3d
000002e0: ad2c 6cbd 38c1 dc3c b8f4 babd 86c8 47bd
000002f0: 7440 02bd 724c d9bd c8f4 dc3d e98d 3e3c
00000300: b48b 01bd f56e a93c 5c83 aabd 64ee cd3d
00000310: 0db4 b4bd ceb6 35bd d126 94bc 05f0 513b
00000320: 28b7 6abd 0914 50bc 44f8 1fbb bbfc 5abc
00000330: 7e24 18bc 4e18 1cbd 5c41 9dbd 19a6 a2bd
00000340: 5177 713c 23ab b03d aad5 c6bd 8e53 223d
00000350: 3b13 f1bc 6ed9 4c3d aa4d f33c 12ee 1ebd
00000360: ddaa 96bd 5d46 f0bd ecbc d8bd 433a 2538
00000370: e99e 37bd 88e3 7dbc c191 8d3d 2aca 7c3d
00000380: e988 a63d 6009 8b3d b42b 39bd 2598 fe3d
00000390: f03f b23d 484d 9a3c b5ee 1f3d b29c b6bc
000003a0: 9f6a a53d ee10 fd3b d894 cd3d b036 b83d
000003b0: 5ed3 d63d 76d1 e7bd b229 b33d dbc9 ed3d
000003c0: 3e72 2cbd faf2 853d a35f dc3c fc6e 993d
000003d0: f7d6 b5bd 4111 eabd 95fe ecbd 83b6 a33d
000003e0: 5cde 5b3d a1cb 123b ad15 0fbe 967a f23d
000003f0: be62 2cbd f0c8 bebd ed2b afbd 8d14 83bd
0.045408066 0.07738542 0.114529766 -0.13284996 0.1071811 -0.042432446 0.08891494 0.07319297
0.041007522 0.021178368 -0.06414253 -0.077798836 0.02643822 0.09328365 -0.0142006995 -0.051267352
0.07809871 -0.002532085 0.084425434 0.008665246 0.0038927472 0.0609615 -0.09674075 -0.10002913
-0.027349645 0.0434984 0.012416052 -0.082265556 -0.04585542 -0.01127374 -0.10901192 0.005910019
-0.10298782 0.0934366 0.04316804 -0.08865098 0.08154154 -0.0683984 -0.060463265 0.048846018
0.22335218 -0.041947924 0.17131329 -0.04642372 -0.10853225 0.03444885 0.1424204 -0.06917001
-0.008961488 0.080986425 0.042483814 0.05228084 0.051380266 -0.057085 0.13650785 0.09607481
0.0781597 -0.034956906 0.14650124 0.08881629 0.09461895 0.16657943 -0.021694511 -0.14636089
-0.05440705 0.016538061 0.0038037049 0.0863295 -0.08461233 -0.03122725 0.06990025 0.12005931
-0.07196415 0.028727107 -0.04598304 0.084902674 -0.07239858 0.106817424 -0.08556865 0.020054763
0.15081918 0.011851906 0.030115014 -0.12374581 -0.045523316 0.048498426 0.12959795 0.095345646
0.021882476 -0.08941636 -0.014581728 0.052772798 0.020069184 -0.010867402 -0.11156587 -0.112798065
-0.04569777 0.044231404 0.09988686 -0.023823252 -0.1601278 -0.09679819 0.061963104 0.1339107
-0.0064105676 0.012715324 0.021187155 0.15927583 0.021713605 0.08114226 -0.115772195 -0.08635347
0.05743291 -0.059201937 0.038317215 -0.09570694 -0.11208981 -0.10586361 0.039716616 -0.090084806
0.03760886 -0.09389454 0.02775788 0.035149008 0.12344495 0.09716827 -0.0073244665 -0.05132239
0.14643382 -0.016919805 0.10090272 0.07233692 -0.12170157 -0.003483202 -0.14725482 -0.09053494
-0.111244075 -0.018120052 -0.008102745 -0.10497321 0.03848091 -0.093265675 -0.06877635 -0.034322217
0.017887473 0.0029151551 0.11920945 0.005346616 -0.12066537 0.16355646 -0.15470111 -0.04422809
0.033400416 0.081338204 0.099665135 0.045025427 0.09110665 -0.044419944 0.074240714 -0.0810362
-0.03459386 0.03082648 -0.037075847 0.008673396 0.11853368 -0.072578125 -0.01085337 -0.013846774
-0.0052795555 0.014084394 -0.055887148 -0.00536993 -0.12131599 0.035703212 -0.13780089 -0.06276267
-0.047767952 -0.09858583 0.047697484 -0.09895147 -0.11789495 -0.022109741 0.085417256 0.05371559
-0.057659794 0.026947603 -0.09128708 -0.04877522 -0.03179975 -0.10610284 0.10788876 0.011630514
-0.031627372 0.020682791 -0.08325836 0.10055235 -0.088234045 -0.04436379 -0.018084915 0.0032033932
-0.057303578 -0.012700089 -0.0024409452 -0.01336592 -0.009286044 -0.038109116 -0.07678482 -0.07941837
0.01473792 0.08626392 -0.09708722 0.039630465 -0.029428115 0.050012045 0.029700119 -0.03880126
-0.07356808 -0.11732171 -0.10582909 3.9393326e-05 -0.044829283 -0.015496142 0.06912566 0.061716236
0.08131582 0.067888975 -0.045207694 0.12431363 0.08703601 0.018835679 0.03904601 -0.022291515
0.08076977 0.0077229654 0.10038155 0.08994806 0.10489534 -0.113192484 0.08748187 0.116107665
-0.042101137 0.06540485 0.026901072 0.07491872 -0.08878892 -0.11429072 -0.11571995 0.07993796
0.053678855 0.0022399204 -0.13973112 0.11839788 -0.042086355 -0.093156695 -0.085533 -0.06400404

lstm.bias_ih_l0_reverse f4 [256]
00000000: f318 bfbc 84d4 9e3d 43fe ac3c 47c0 e43c
00000010: 84af dd3c ed48 6b3d aa23 e43c eab6 a33d
00000020: 4161 48bd c787 aa3c 40af 443d 481d e93d
00000030: 7423 d83c 9235 afbc abdf 733d 6077 eabd
00000040: 3b93 b73d d8ab 2dbd 96ac fc3c 5623 47bd
00000050: 6b81 273d feaa 523a 0cc4 f33d c2b7 6f3d
00000060: 4771 5b3d 9cdd 413d 9076 46bd 1b40 fc3c
00000070: 807b bc3d dd99 a33d 7f84 b83d 32bb e0bc
00000080: 54dd 903d d63c 22bc 15ab 153c 3198 533e
00000090: 9ce3 1a3d ed0d 15bc a694 843b 3df9 153e
000000a0: de8f 3bbc e152 14bd fd7f 853d f80c 313d
000000b0: 4532 95bb f512 9abc 2ff3 d03d a28a 6f3d
000000c0: c027 813d 16b0 c63d 3938 f1bc 90a6 153e
000000d0: 5db2 a53d 446a 26bd 36ca 2dbd 7547 c13d
000000e0: 326b d43d d1cb 7a3d edd2 183e 261d 9bbd
000000f0: 49d0 d53d 9f34 11bd 3a20 0e3e 1efd 1a3e
00000100: 391f ba3d ff37 ae3d ebaf 19bd a3a9 94bc
00000110: 2c27 90bd 8b7e 473e dec6 233d b475 003c
00000120: 8499 39bd 0ffb b5bc 7537 a9bd 965b 2a3e
00000130: 8b4a b9bd ea98 1a3d 5048 9e3d e3be 88bd
00000140: 2227 d43d 37ac 263e d6b6 c53d 53ce 72bd
00000150: 2ac9 c0bc f618 7a3d d163 243d 2794 003e
00000160: d99e 19bd 486f 013e a3f4 0d3e fbc5 383d
00000170: 98d1 343e 66da ca3d 29c3 2a3e 4819 cb3d
00000180: d39a 053e 8780 e43d dad4 81bd 85f6 c73d
00000190: 0d2b 22bd 5f24 253d 5d5e b83d f3dd 163e
000001a0: 1a32 3e3e 5a87 133e db8d 0a3e 9d6f 083e
000001b0: c8d6 1a3e 5961 993b 5168 2abd 3592 5d3d
000001c0: 8d16 d4bd ff72 fe3d 67e4 2a3d d1cf 443d
000001d0: ec98 ab3d b53f 3c3d c782 093e 8e71 07bc
000001e0: bf33 053c 11bc 6d3b 8899 473d a1d6 283e
000001f0: 7b74 1b3d 0367 333d 08ed 473d 2e79 a13d
00000200: db40 cf3d 620c 963d 8388 583d 212d aabd
00000210: 35c4 c1bd 3278 82bd ab43 5f3d 5490 403d
00000220: 8be6 823b 938b 2fbd 1d5c 35bd a287 00bd
00000230: 7af4 ec3d 3344 ba3c 0da3 1fbe 2edb 453d
00000240: ff7a d43c bde8 bebd 4e0e 5b3c d987 75bd
00000250: 39b1 3dbd ffd8 e6bd 137b b43d 8fd8 06bc
00000260: 67c4 0ebd 4cbd 89bd 0959 a6bd ac7c 6abc
00000270: 79d1 8f3d fc6e d53c a7a8 86bd 1a41 973d
00000280: 9b50 09be 13c0 1f3d d387 9d3d 2c5e cd3d
00000290: c431 fcbd 8e20 fcbc fe45 cbbd 1203 84bd
000002a0: 2a9a 80bc 100c 8e3d e15b e73d 68fd e13c
000002b0: 541d d13b e3f8 4b3d 5da4 e3bb ce86 92bd
000002c0: 7f02 823d ff87 9b3d 5553 6c3d d04b 38bd
000002d0: 90a4 aebd 9fad e1bd 4f94 963b d1ea 713c
000002e0: d5a5 173d 64ea fdbd 8eba 0e3e f867 513d
000002f0: 8164 583c 48fb 0e3c 2037 a5bd de42 57bd
00000300: ba78 ff3d cd86 a13d eae3 babd fbe9 b8bd
00000310: 0a48 14bc 36f3 14bd f89c d63b 30a8 503c
00000320: 1d4a 75bc 0aaa e83d db51 843d a6b1 92bc
00000330: c40e e0bd d9ab 4bbd 8fac d2bb ddd4 c23d
00000340: 20d3 443e fa44 583d 8433 1b3e e446 823d
00000350: 56c4 1a3e 8c8d f13d de79 2cbd 5e20 0e3d
00000360: 5925 63bd ed5a 073e 2f52 cb3b 8b94 bdbd
00000370: b966 3bbd 41bc b13d ef75 dc3d e9e0 0abd
00000380: 6fcc 1c3e f8ec 153e 1257 83bd 759a 0d3e
00000390: 153a bf3d 78e8 cd3d 14b5 71bd 645a 373d
000003a0: c097 8f3c 6fff fd3c e168 0e3e 75ca 25bd
000003b0: 735c 59bd a0af b0bd 841d 85bc ca98 e33c
000003c0: 1b77 bc3c 59b9 bd3c 091b 123e 6d46 dc3d
000003d0: a2cb 473c e1cf a9bd ed02 bfbd 6ade c83d
000003e0: e5cb 54bd 7891 eb3d e339 9abd fa2a 81bb
000003f0: 72e8 d83d 7532 7ebd d1f3 d6bd 21af 153e
-0.023327326 0.07755378 0.021117335 0.027923716 0.027061231 0.057442594 0.027849037 0.079938725
-0.048920874 0.020816697 0.048018694 0.11382538 0.026384093 -0.021387849 0.05953948 -0.1144855
0.08963629 -0.04240021 0.030844014 -0.048617683 0.040894907 0.0008036344 0.11902627 0.058524854
0.053574827 0.047330484 -0.048452914 0.030792287 0.09203243 0.079883315 0.090096466 -0.027433012
0.07073465 -0.0099022 0.009135027 0.20663525 0.03781472 -0.009097558 0.0040460406 0.14645858
-0.011447875 -0.036211852 0.065185525 0.04322526 -0.0045531117 -0.018807868 0.102026336 0.05848182
0.0630641 0.097015545 -0.029445754 0.1461432 0.08090661 -0.040628687 -0.04242917 0.094374575
0.103720084 0.06122953 0.14924212 -0.07573919 0.10440118 -0.035450574 0.13879481 0.15135619
0.090879865 0.08506774 -0.037521284 -0.018147295 -0.070387214 0.19481866 0.039984576 0.007840563
-0.04531242 -0.02221444 -0.08262531 0.166365 -0.09047421 0.037743486 0.07728636 -0.06677034
0.103590265 0.16276632 0.09654014 -0.059278797 -0.023533422 0.06105896 0.040134255 0.12556516
-0.037505005 0.12640107 0.13862853 0.045110684 0.17658079 0.099049374 0.1667601 0.099169314
0.13047342 0.11157327 -0.06339426 0.09763817 -0.039591838 0.04031789 0.09002373 0.14733104
0.185738 0.14407101 0.13530676 0.13323827 0.15120995 0.004680794 -0.04160339 0.054094512
-0.10355864 0.124242775 0.041721728 0.04804975 0.08378777 0.045959193 0.13428794 -0.00826682
0.008130013 0.0036275426 0.048730403 0.16488124 0.03795288 0.04379941 0.048810035 0.07884441
0.10119792 0.073265806 0.052864563 -0.08309389 -0.09461252 -0.06370582 0.054507893 0.047012642
0.003994768 -0.042857718 -0.0442773 -0.03137935 0.11570068 0.022737598 -0.15589543 0.04830473
0.025937555 -0.09321735 0.01337011 -0.059944008 -0.04631159 -0.112718575 0.08812537 -0.0082303425
-0.034855273 -0.06725559 -0.08122451 -0.014311951 0.070223756 0.026053898 -0.06575137 0.07385464
-0.13409655 0.039001536 0.07691922 0.100277275 -0.123141795 -0.030777242 -0.09925459 -0.06445898
-0.015698511 0.069358945 0.112968214 0.027586654 0.00638167 0.049797904 -0.006947084 -0.07154618
0.06348132 0.075942986 0.05769666 -0.044994175 -0.085274816 -0.11019444 0.0045953165 0.014765457
0.037023384 -0.12398222 0.13938352 0.051124543 0.013207556 0.008726902 -0.08067155 -0.052554004
0.12474199 0.07887039 -0.091255024 -0.09029003 -0.009050379 -0.036364757 0.006549474 0.0127354115
-0.014971283 0.113605574 0.06460925 -0.017906975 -0.10940316 -0.049724434 -0.006429262 0.09513257
0.19221163 0.052800156 0.1515637 0.063611776 0.15113959 0.11794576 -0.04210841 0.034698837
-0.05545554 0.13218279 0.0062048654 -0.09256848 -0.04575226 0.08678485 0.107646815 -0.033905897
0.1531236 0.14641178 -0.06413092 0.13828452 0.0933725 0.100541055 -0.05901058 0.044763938
0.017528415 0.03100559 0.13907196 -0.04047628 -0.053066682 -0.08627248 -0.016249426 0.027782816
0.023006013 0.02315967 0.14268126 0.1075562 0.012194546 -0.08291603 -0.0932673 0.09808047
-0.05195226 0.11502355 -0.07530572 -0.003941891 0.105912104 -0.06205984 -0.10495723 0.14617588

lstm.bias_hh_l0_reverse f4 [256]
00000000: 6639 08bd 5e9f 1b3d 1515 45bd 9c64 ffbd
00000010: 7bd7 2abb 95df f4bc 2da3 0a3e c0a1 a4bc
00000020: 603b 5dbd 6d45 e43d 86b9 cabd bdd5 d13d
00000030: d7da 383d e4d3 f23a 801d b0bc 80a0 7ebd
00000040: 9de3 1f3e 0e81 8f3d 07a9 803b 4a06 663d
00000050: ca49 d9bd 3a26 183e e99c 383e 96d5 3d3d
00000060: d450 c83d a048 993d d84f bc3d c6e7 3e3d
00000070: a1a6 d3bd 226f 063e 48ba 08bd f68f 1cbd
00000080: c6e9 073e ee92 aa3d d844 1ebd 4328 e23d
00000090: 71f3 303d 7df9 f73d 39cd 753d ed86 073e
000000a0: eacb fe3c fbf0 c4bd 319e 113e 603e 053e
000000b0: dce1 6cbc 4e3e 17bd 2dc2 27bd 7835 aebd
000000c0: 4c45 813d 3ba1 993c 2476 8b3d 295a df3c
000000d0: 56e1 973d d43c 9dbc a223 b4bd ffa4 bbbb
000000e0: f060 583d 4c4c 023b fa87 073e f677 3bbd
000000f0: cb14 e43d e47d 1abd 8fb7 0c3e d511 89bd
00000100: f2a7 d13d d646 1abd 5de7 7e3c 7966 2ebd
00000110: 5c7f 43bd 7542 af3d e05b c2bc 2b79 42bd
00000120: 35b9 cebd d856 7cbc f3e0 ff3d 8094 ba3c
00000130: 3fac 8fbd 1622 1f3d d247 cd3d 8dda 9c3c
00000140: 4776 013e 63b6 a1bc 81ff b43d 8be4 8abc
00000150: 5974 82bb b280 cb3d 1b67 bf3d c6ba af3c
00000160: a9f4 433e 525e 59bd 1967 b43d a56a 033c
00000170: d04a e03c 0254 b0bc da39 553d acb5 d33d
00000180: f95a 1e3e 4a29 0b3e e56b b33c 0e67 fc3d
00000190: 3f62 38bc d010 473d 8f15 133d b1c7 ab3d
000001a0: b8f4 e0bc f0ab a13d 975c 66bd b8c1 50bb
000001b0: 3bb2 253d 096d 903d ccdd ecbd e735 0cbd
000001c0: 8f74 acbc bbdf 0cbd 857e 313e 8ea4 1a3e
000001d0: fa4b 8cbd 92ee 06bb 9754 3c3e 4dbd fb3d
000001e0: 28e7 0a3c da92 05bd 5b71 023e ac53 353e
000001f0: d458 d23d bbf5 d7bb 5bf3 0a3e 70f3 43bd
00000200: 99d6 d9bd 43d3 39bc 9a42 cf3d 5f82 b73d
00000210: 9a61 5ebd 9a08 a8bd b467 31bc fb0d dfbd
00000220: 9956 debc b154 d2bd ff39 613d 4b18 b03d
00000230: 11a6 3cbd 7eaa fd3d b502 91bd a83e eabd
00000240: 32c3 01bd 6d52 d03d 8a32 d2bd 9b38 5fbd
00000250: 6591 163d 8fcd ecbd c7e1 fb3c 3cfb 873d
00000260: 2971 cc3d 036c 73bc 4759 c0bd 99d8 94bd
00000270: 6353 d33d 9440 bf3d 8ea0 033c f2c9 dcbd
00000280: ca91 8ebd a08f febd 3190 2ebc 7386 093c
00000290: 53e5 94bd c23e c6bd a194 86bc 330a 033e
000002a0: cb77 d73d 11e4 f53b 7569 ed3d 3bbb ffbd
000002b0: ba36 bc3d 8876 043e 1340 90bd 687c 08bd
000002c0: cdcc e2bc f196 383b 9afd ff3d 80ff fabd
000002d0: 256b 313d 8d9a 03be 11d0 5c3c f187 033e
000002e0: bf43 9bbd 3feb c8bd ac64 be3d b8e3 2ebd
000002f0: 5a7e 323d a86a 8fbd d592 1fbe e8e7 dcbd
00000300: b083 3abd 3f97 0e3d e449 e5bd 5d8c c83d
00000310: fe9e de3d 50ed 983d e7fe c3bd b96d c13d
00000320: fc6d c9bd 8cbf d93d 88de 063e 1d35 a5bd
00000330: 7664 2a3d 7eba 3ebd d24d fa3d f8dc 52bd
00000340: 9864 b93d d443 c0bd e854 8bbc f31a 84bd
00000350: c62f 9c3c 858b 173e b415 3d3e 4134 97bd
00000360: 4de7 14bd 2a10 bfbd 542b c53c 49bf bf3d
00000370: a017 0b3e 0bf7 fa3c 9f28 86bd e756 cbbc
00000380: d1ab f5bc 5721 1dbd 9bb9 ca3c 2131 cd3d
00000390: 6018 e43d 6690 1c3d 03d5 89bd e23e 1e3d
000003a0: 5125 853d 51ff 033e 99c2 ed3d 4d89 9b3d
000003b0: 9036 243e b33f 45bc 70e1 d73c 0754 9fbd
000003c0: fcf9 a63d e253 4abd 361f 5a3d 25a3 ecbb
000003d0: 640d 9b3d 77ca bc3d 72ce 063e 1a7b 8c3d
000003e0: b84d 993d 9864 c33d ee90 f03d 5412 9ebc
000003f0: 85ce 243d 0114 be3d 0e0a 87bd dcd3 513d
-0.033257864 0.03799378 -0.04811581 -0.124703616 -0.0026068378 -0.029891768 0.13538809 -0.02009666
-0.054011703 0.111460544 -0.09898667 0.102458455 0.045130577 0.0018526283 -0.021498442 -0.062164783
0.15614171 0.07007037 0.0039263996 0.05615834 -0.10609777 0.14858332 0.18028606 0.04634627
0.09781042 0.07484555 0.091949165 0.046607755 -0.10334516 0.13128331 -0.033380777 -0.03822323
0.13272771 0.08328806 -0.038639873 0.110428356 0.043200914 0.12108133 0.06001017 0.13235064
0.031103093 -0.09616276 0.14220501 0.13012075 -0.014458146 -0.036924653 -0.040956665 -0.08506292
0.063120455 0.018753638 0.06809643 0.027264671 0.07416026 -0.019194044 -0.08795859 -0.005726456
0.05282682 0.0019881902 0.13235465 -0.0457687 0.111367784 -0.037717715 0.13741897 -0.06692854
0.10237111 -0.03766521 0.015558091 -0.042578194 -0.04772888 0.085575975 -0.02372545 -0.047478836
-0.10093919 -0.015401565 0.124940775 0.022775888 -0.07015275 0.038850866 0.10023464 0.019147182
0.12642775 -0.01974029 0.08837796 -0.01695468 -0.003981155 0.09936656 0.09345838 0.021451365
0.19136299 -0.053068466 0.08808727 0.0080210315 0.027379423 -0.021524433 0.052057125 0.103373855
0.15464391 0.1358997 0.021902034 0.123243436 -0.011253892 0.048600018 0.03590923 0.083876975
-0.027460441 0.078941226 -0.056240644 -0.0031853747 0.040453177 0.07052047 -0.11565742 -0.034231093
-0.021051673 -0.034393054 0.1733342 0.15101835 -0.06850429 -0.0020588976 0.18391643 0.12291966
0.0084779635 -0.03261075 0.12738554 0.177077 0.10270849 -0.0065905727 0.13569395 -0.047839582
-0.106366344 -0.011341873 0.10120125 0.08960413 -0.0542923 -0.082047656 -0.010827947 -0.108913384
-0.027140902 -0.1027006 0.05498695 0.085983835 -0.04605681 0.123860344 -0.070805945 -0.11437732
-0.031680293 0.101719715 -0.10263546 -0.054497343 0.036759753 -0.11562645 0.030747307 0.06639716
0.09982521 -0.014857295 -0.09392028 -0.07267875 0.10318639 0.09338489 0.008033885 -0.107807055
-0.06961401 -0.12429738 -0.010654495 0.008393872 -0.072703026 -0.09679939 -0.016428294 0.1279686
0.105208956 0.0075039943 0.1159238 -0.12486883 0.09190126 0.12935841 -0.07043471 -0.033321768
-0.027685547 0.002816614 0.124995425 -0.12255764 0.04331507 -0.12851925 0.013477341 0.12844826
-0.07581281 -0.09810495 0.092965454 -0.04269764 0.04357753 -0.07002765 -0.15583356 -0.1078642
-0.045535743 0.03481221 -0.11195734 0.09792397 0.10870169 0.07467139 -0.09570103 0.09444756
-0.09835431 0.10632238 0.13170826 -0.08066771 0.041599713 -0.04656457 0.12221874 -0.051480263
0.0905239 -0.09387937 -0.01700826 -0.06450453 0.019065749 0.14799316 0.1846531 -0.073830135
-0.036353398 -0.09329255 0.024068512 0.093626566 0.13583231 0.030635377 -0.065507166 -0.024821712
-0.029989155 -0.038361873 0.024746707 0.10019136 0.11137462 0.038223647 -0.06730082 0.03863419
0.06501258 0.12890364 0.11609382 0.075945474 0.16036439 -0.012039113 0.026352614 -0.07779699
0.081531495 -0.049396403 0.05325242 -0.007221597 0.075709134 0.092183046 0.1316469 0.06859417
0.07485527 0.09540671 0.11746393 -0.019295849 0.040236015 0.09281159 -0.06593715 0.051227435
