trained_models/LSTM/LSTM_Zscore_CF3_pred_0.pth (torch, 661823 bytes, 23 tensors)

lstm.weight_ih_l0 f4 [256, 40]
0	0xbdbf0f09	-0.093290396
1	0x3c48a28e	0.012245787
2	0xbd3b3876	-0.045708142
3	0xbd1287a7	-0.0357739
4	0xbbb45671	-0.0055034687
5	0x3dd326e8	0.10310155
6	0xbcd4cb1c	-0.025975756
7	0xbca005b0	-0.019533962
8	0x3d577e75	0.052610833
9	0xbdc76317	-0.09735697
10	0x3b9e4ae2	0.004830704
11	0x3db61713	0.0889112
12	0xbdbb2af9	-0.09139056
13	0x3cb56d9f	0.022146998
14	0x3cb24310	0.021760494
15	0x3d3bef32	0.04588241
16	0xbc4e4516	-0.012589714
17	0xbe0738a9	-0.13205208
18	0x3dee3b40	0.11632395
19	0xbd1a7fda	-0.037719585
20	0x3da00571	0.07813538
21	0xbe02e8e0	-0.12784147
22	0x3d0a62e0	0.0337857
23	0x3da77347	0.08176284
24	0x3d8274f1	0.06369961
25	0x3d8bedaf	0.06832444
26	0x3da5b298	0.08090705
27	0xbcbec04e	-0.023285057
28	0x3c94898d	0.018131996
29	0xbda02f52	-0.07821526
30	0x3e09fdf7	0.13475786
31	0xbc8ab114	-0.01693014
32	0xbd5ff377	-0.054675546
33	0xbadaf5b0	-0.0016705301
34	0xbc9dc7dc	-0.01926034
35	0x3d1155d7	0.035482254
36	0xbd8851b3	-0.06656208
37	0x3dcec62d	0.10096393
38	0x3adbee5d	0.0016779412
39	0x3d11e734	0.035620883
40	0x3d92f546	0.071756884
41	0x3d64e47c	0.055881962
42	0x3cb6049a	0.022218991
43	0x3b53871c	0.0032276576
44	0xbd88e197	-0.06683653
45	0xbda6aa01	-0.081378944
46	0xbbd86f52	-0.0066050673
47	0xbd7f86a4	-0.062384263
48	0x3d956229	0.07294113
49	0xbb986abc	-0.0046513956
50	0xbc43cc8f	-0.011950626
51	0xbe234baf	-0.1594684
52	0x3e2622fa	0.1622428
53	0xbe06e3db	-0.13172857
54	0x3ddd4a3b	0.10805174
55	0xbd1dce4a	-0.03852681
56	0x3c5e8745	0.013582055
57	0xbd958781	-0.07301236
58	0x3e18664d	0.14882775
59	0xbe17d3a8	-0.14826834
60	0xbd4398fe	-0.047753327
61	0x3c860236	0.016358476
62	0x3df30328	0.118658364
63	0x3d61afa2	0.055099137
64	0xbd8d2bf1	-0.06893147
65	0xbde54081	-0.11193944
66	0xbd00dc82	-0.031460293
67	0xbd52fef0	-0.05151266
68	0x3d0dbe11	0.03460509
69	0xbe0f0608	-0.13967144
70	0x3da2fb6b	0.079581104
71	0xbd0496ad	-0.032370258
72	0x3b805f47	0.003917608
73	0x3c43c297	0.011948249
74	0x3cdcc9d7	0.026951713
75	0x3d1affab	0.03784148
76	0x3dcc16f2	0.09965314
77	0x3d52b95d	0.051446307
78	0xbd27b21a	-0.040941335
79	0xbbae529f	-0.005319908
80	0x3d9de5e8	0.07709867
81	0xbda9bdae	-0.08288132
82	0xbd78b49b	-0.060719114
83	0xba59741a	-0.00082951935
84	0x3d8738e9	0.066026516
85	0x3dfe6c8e	0.12423049
86	0x3cd74a6d	0.026280606
87	0xbd5fb5c3	-0.0546167
88	0x3e095ee2	0.13415101
89	0x3cdb68b0	0.026783317
90	0x3d61696f	0.05503219
91	0xbcd35d6b	-0.025801381
92	0x3e2329eb	0.15933959
93	0xbd5004f5	-0.050785977
94	0x3ce4d83e	0.027935144
95	0x3b817437	0.0039506215
96	0x3db18d1f	0.08669495
97	0x3d9de4e8	0.07709676
98	0xbc55e731	-0.013055609
99	0x3d413a0e	0.047174506
100	0xbd03460e	-0.03204923
101	0xbc6d81ce	-0.01449628
102	0x3ddc5a7d	0.10759447
103	0xbe0d4e6e	-0.1379945
104	0x3d292ccf	0.0413025
105	0xbc443209	-0.01197482
106	0x3d0a8e56	0.03382715
107	0x3d2e9b91	0.04262883
108	0x3e0ca1d1	0.13733603
109	0x3d032a9d	0.03202306
110	0x3d46df79	0.048552964
111	0xbce2144c	-0.027597569
112	0x3def08e6	0.11671619
113	0xbd97748f	-0.07395279
114	0x3def517b	0.11685463
115	0x3dc28f38	0.09499973
116	0x3dfcd94c	0.123461336
117	0xbd33c2a2	-0.04388679
118	0xbd038706	-0.03211119
119	0xbb58cd24	-0.0033081258
120	0xbc143958	-0.009046875
121	0xbd267c69	-0.04064599
122	0x3c52240c	0.012825977
123	0x3c5a1fe5	0.013313268
124	0x3da363dc	0.07978031
125	0xbd3eeee8	-0.046614558
126	0xbd45a96b	-0.048257273
127	0x3de0eb53	0.109823845
128	0xbd4111a4	-0.047135964
129	0xbd4a1f95	-0.049346525
130	0xbdbe22ea	-0.09284003
131	0xbc85b6f2	-0.016322587
132	0x3d708873	0.058723878
133	0x3d9b8ade	0.07594846
134	0xbe0ace2a	-0.13555208
135	0x3dc4ce16	0.0960962
136	0x3d30a2ff	0.043124195
137	0x3e0955af	0.13411592
138	0x3d986a5d	0.07442162
139	0x3d9b9555	0.07596842
140	0xbe0d2062	-0.13781884
141	0x3dadc09e	0.084840044
142	0xbd397ab4	-0.045283034
143	0xbdb6a5fa	-0.08918376
144	0xbd9b9f7d	-0.07598779
145	0x3d94b370	0.072607875
146	0xbd3a6531	-0.04550666
147	0x3e1ab9cc	0.15109938
148	0xbdd71953	-0.10502877
149	0x3dc174d8	0.09446114
150	0xbc6c1e18	-0.014411472
151	0x3d280d94	0.041028574
152	0xbd9f7aa7	-0.07787066
153	0x3ca5ad95	0.020224372
154	0x3b5cfa5a	0.0033718557
155	0x3c740876	0.014894595
156	0xbb329e5d	-0.0027255036
157	0x3d6e1194	0.058122233
158	0xbe1d7115	-0.15375169
159	0xbd4d8605	-0.05017664
160	0x3df6de31	0.120540984
161	0xbd3089e2	-0.043100245
162	0x3cbeb850	0.023281246
163	0x3de23d87	0.11046892
164	0xbd2a51ff	-0.041582104
165	0xbd7aea3b	-0.061258536
166	0x3ca098fd	0.0196042
167	0x3cf338c7	0.02969016
168	0x3e050b76	0.12992653
169	0xbd72fc0f	-0.059322413
170	0xbd3877ba	-0.045036055
171	0xbd71cbfc	-0.059032425
172	0x3df2a6d6	0.11848228
173	0x3c4c92da	0.012486184
174	0x3caa58ff	0.02079439
175	0xbd578f77	-0.052627053
176	0x3d175e40	0.03695512
177	0xbd27cb41	-0.040965322
178	0x3cf96cfd	0.030447477
179	0x3de16423	0.11005428
180	0x3ca86185	0.020554313
181	0x3d5a9d26	0.053372525
182	0x3d79c317	0.060977068
183	0x3d8e9801	0.06962586
184	0x3da11b00	0.07866478
185	0x3c85b1cc	0.016320132
186	0x3df4166d	0.1191834
187	0xbc3e7ca9	-0.011626401
188	0x3d9d922c	0.07693896
189	0x3c5ffecc	0.013671588
190	0xbd2a3ec4	-0.041563764
191	0x3d8e5879	0.069504686
192	0x3e071735	0.13192447
193	0x3d5e384b	0.054252904
194	0xbcbc4987	-0.02298428
195	0x3b2fe6c4	0.0026840428
196	0xbc1dfd0d	-0.009642852
197	0x3dfe9627	0.12430983
198	0xbd9798e4	-0.074022084
199	0xbd77011d	-0.060303796
200	0x3dde72e0	0.108617544
201	0x3dd93414	0.10605636
202	0x3dbbcaec	0.09169564
203	0xbc778be1	-0.015109033
204	0x3e030b25	0.1279722
205	0xbd3f42f1	-0.0466947
206	0x3c094e02	0.008380415
207	0xbdfceacd	-0.12349472
208	0x3e00e11d	0.12585874
209	0x3d8fd6cf	0.07023393
210	0xbd8c26f2	-0.06843366
211	0xbe0bc405	-0.13648994
212	0xbdcc339c	-0.09970781
213	0x3d1d923d	0.03846954
214	0x3dabcaa5	0.08388261
215	0x3ac8df64	0.0015325365
216	0x3dc0e6b2	0.09419002
217	0x3ddb86da	0.1071908
218	0xbd9905a4	-0.07471779
219	0x3d8394d0	0.06424868
220	0x3df7225f	0.12067103
221	0x3b9ee463	0.004849003
222	0xbd934eca	-0.07192762
223	0x3d445834	0.04793568
224	0xbc299f42	-0.010352911
225	0x3daa584b	0.08317622
226	0xbdd482c4	-0.10376504
227	0x3ce8659b	0.028368762
228	0xbd1f27a7	-0.038856175
229	0x3d94f712	0.072736874
230	0x3dfd379a	0.12364121
231	0xbd63997e	-0.055566303
232	0x3d419365	0.047259707
233	0x3c2ab347	0.01041872
234	0x3dfbe0e3	0.12298753
235	0x3d7d480d	0.06183629
236	0x3e0ac5f9	0.13552083
237	0xbdf14827	-0.1178134
238	0xbc8fd090	-0.017555505
239	0x3ddda08d	0.10821638
240	0x3da2a2e6	0.07941227
241	0xbd9c6a29	-0.07637436
242	0x3c5b932f	0.0134017905
243	0x3db4e87c	0.088334054
244	0x3cb4984a	0.022045273
245	0x3dd3cf0c	0.103422254
246	0xbde3a4eb	-0.1111544
247	0xbc4a972a	-0.012365142
248	0xbe0f5191	-0.13995959
249	0xbd85c949	-0.06532533
250	0xbdd0ea01	-0.10200883
251	0xbda92865	-0.08259658
252	0x3d9baf01	0.07601739
253	0xbd615fe1	-0.055023078
254	0x3da0df2e	0.07855068
255	0x3dd5e0eb	0.1044329

lstm.weight_hh_l0 f4 [256, 64]
0	0x3e17ebee	0.14836094
1	0x3df90040	0.12158251
2	0x3d83c97e	0.06434916
3	0xbde61842	-0.112350956
4	0xbd9cbe58	-0.07653493
5	0xbd9759c7	-0.073901705
6	0xbd0744b5	-0.03302451
7	0x3de7ad97	0.113124065
8	0x3c1157d0	0.008871034
9	0xbdb4fd64	-0.08837393
10	0x3d02ef39	0.03196642
11	0xbccf9ccb	-0.02534332
12	0xbd8f5a46	-0.0699964
13	0xbdfefa36	-0.12450068
14	0x3df6e7d6	0.12055938
15	0x3d7f0d06	0.06226828
16	0x3dc9d8ed	0.098558284
17	0x3db3a0ae	0.087708816
18	0x3c4d0ea8	0.012515701
19	0xbc7c9103	-0.015415433
20	0x3d6ea772	0.058265157
21	0xbd5576a6	-0.052115105
22	0xbd23fbde	-0.04003512
23	0xbdc5e126	-0.09662084
24	0x3d29b812	0.04143531
25	0xbdbe6f2b	-0.09298547
26	0xbd2d1468	-0.04225579
27	0x3cc8ff42	0.024535779
28	0x3b9a1970	0.0047027394
29	0xbe0ac42f	-0.135514
30	0x3d6d82f4	0.057986215
31	0x3d8fcb1f	0.07021164
32	0xbd45e6af	-0.0483157
33	0x3e08891e	0.13333556
34	0xbc3a3b66	-0.011366701
35	0x3c413979	0.011793488
36	0xbd861dd0	-0.06548655
37	0x3e010663	0.12600093
38	0xbd912ced	-0.07088647
39	0xbd91525a	-0.070957854
40	0x3dcf5007	0.10122686
41	0xbe014487	-0.12623797
42	0xbd2c0a1a	-0.04200182
43	0x3d95fcef	0.07323634
44	0xbdcfff4d	-0.10156117
45	0xbd3a4abc	-0.04548143
46	0xbd738ea7	-0.059462216
47	0xbd6aba15	-0.057306368
48	0xbd9d8277	-0.076909
49	0xbcb8c632	-0.022555444
50	0xbc500374	-0.012696136
51	0xbd1c4d59	-0.038159702
52	0xbd4aabf7	-0.049480405
53	0xbde9beab	-0.1141332
54	0x3dc8899e	0.097918734
55	0x3d45a387	0.048251655
56	0xbda6efd3	-0.081512116
57	0x3d899269	0.06717379
58	0x3c6f28d7	0.014597139
59	0xbd5a7ebf	-0.05334353
60	0xbe0654f9	-0.13118352
61	0xbd53a911	-0.051674906
62	0xbd3343cc	-0.043765828
63	0x3e368634	0.17824632
64	0xbc2e865c	-0.010652151
65	0x3e0599d7	0.13046966
66	0xbe452f1d	-0.19256254
67	0x3bf05e60	0.007335469
68	0xbe04aac1	-0.12955762
69	0x3de02c9d	0.10946009
70	0xbd94a9c1	-0.072589405
71	0xbcb736ae	-0.02236494
72	0x3bc33bcc	0.005958056
73	0x3d3d2b11	0.04618365
74	0x3d0be123	0.034150254
75	0x3e062043	0.13098244
76	0x3c9e2127	0.019302918
77	0x3dff317d	0.12460611
78	0x3db78a89	0.0896197
79	0xbd8975f3	-0.0671195
80	0x3d01a76e	0.031653814
81	0xbd9136cb	-0.07090529
82	0xbd853944	-0.06505063
83	0xbdc4d84a	-0.09611566
84	0xbd177f33	-0.03698654
85	0xbdae27d3	-0.085036896
86	0xbd062c17	-0.03275689
87	0x3d487a55	0.04894479
88	0xbd08e7ff	-0.033424374
89	0xbd022db5	-0.03178187
90	0xbd87fb11	-0.06639684
91	0xbe031b9c	-0.12803501
92	0xbdccdd61	-0.10003162
93	0xbd772bec	-0.06034462
94	0x3d4602fb	0.048342686
95	0xbcd58382	-0.026063684
96	0xbd97732d	-0.07395015
97	0xbd9bb212	-0.076023236
98	0xbd656cf5	-0.056012113
99	0x3d63743e	0.05553078
100	0x3c3f1bb6	0.011664322
101	0xbd83dfc6	-0.06439166
102	0x3d6104bd	0.05493616
103	0x3ddafff2	0.10693349
104	0x3dc26ea8	0.09493762
105	0xbd9aa14b	-0.075502954
106	0x3d330479	0.043705437
107	0xbd7b42a8	-0.061342865
108	0xbd7ef58f	-0.0622459
109	0x3cdb2edc	0.026755743
110	0xbdaf5ea1	-0.08562971
111	0x3d68627a	0.05673454
112	0xbd08eedd	-0.033430923
113	0xbdeea8b9	-0.11653275
114	0xbdcecb12	-0.10097326
115	0x3c97cf60	0.018531501
116	0xbd7e1ba5	-0.062038083
117	0x3b9f2d33	0.004857683
118	0xbd43632d	-0.047702003
119	0xbc4e7549	-0.012601205
120	0xbd221a5e	-0.039575927
121	0x3cd43915	0.025906125
122	0xbdae773c	-0.08518836
123	0x3d3640eb	0.044495504
124	0xbe00f174	-0.12592107
125	0x3d6d70ac	0.05796878
126	0x3e193cdf	0.14964627
127	0x3c9fadd5	0.01949207
128	0xbc6fe6cd	-0.01464243
129	0x3e074ac7	0.13212119
130	0xbd855a98	-0.0651142
131	0x3c69b402	0.014264109
132	0xbe0ee94b	-0.13956182
133	0xbd6438ff	-0.05571842
134	0xbe0ff542	-0.14058402
135	0xbdd2808a	-0.10278423
136	0x3d87cc23	0.06630733
137	0x3dcf28af	0.10115182
138	0x3d81d685	0.063397445
139	0x3b80cb9c	0.003930522
140	0xbc2b72f2	-0.010464417
141	0xbd48ceba	-0.049025275
142	0x3d2e0e22	0.042493947
143	0x3dde2699	0.10847206
144	0xbc3267c0	-0.010888994
145	0xbb87ffca	-0.0041503655
146	0x3d844adc	0.06459591
147	0xbe01cf03	-0.12676625
148	0x3dfa3a0e	0.12218104
149	0xbbce9443	-0.0063042953
150	0xbdd51ce3	-0.104059
151	0xbbec310c	-0.0072079953
152	0xbe017f1e	-0.12646148
153	0x3e08a501	0.13344194
154	0x3df85d17	0.121271305
155	0xbd2001e8	-0.039064318
156	0x3d3b3211	0.045702044
157	0x3d783dd1	0.060605828
158	0xbda36758	-0.07978696
159	0x3d6aa41f	0.057285424
160	0x3d4e578c	0.05037646
161	0xbdbce6d1	-0.09223712
162	0xbbb1a4e6	-0.0054212688
163	0xbd791c55	-0.060818035
164	0xbc9abffd	-0.018890375
165	0xbd224b6a	-0.0396227
166	0xbd715f50	-0.058928788
167	0x3dbe13fe	0.09281157
168	0xbda56af6	-0.08077042
169	0xbdac6c74	-0.08419123
170	0xbd1e0e98	-0.038588136
171	0x3d910137	0.0708031
172	0xbe32af34	-0.17449647
173	0xbd3f6b97	-0.046733465
174	0x3d8447b1	0.064589866
175	0xbc2a5f33	-0.010398674
176	0x3d0fc17c	0.03509663
177	0x3d5cb851	0.053886715
178	0x3bca64da	0.006176573
179	0x3e0a3f44	0.13500696
180	0x3d250a14	0.040292814
181	0xbc256eec	-0.010097247
182	0xbd484882	-0.048897274
183	0x3da3ebd3	0.08003964
184	0x3c1b1ad8	0.009466849
185	0x3d1d1d75	0.03835817
186	0xbdfa7d92	-0.12230982
187	0x3e20f3e4	0.15718037
188	0xbd82153c	-0.063517064
189	0xbd6149ae	-0.055001907
190	0x3e0934a9	0.13398995
191	0x3d7f9b55	0.062403996
192	0x3da9b30b	0.08286103
193	0x3c919b1b	0.017774155
194	0x3ae2d46f	0.0017305742
195	0x3daa506a	0.08316119
196	0x3dd85c4a	0.10564478
197	0xbd26eab3	-0.04075117
198	0x3d860b26	0.06545095
199	0x3d3b1315	0.045672495
200	0xbe1981a8	-0.14990866
201	0x3d7877c6	0.0606611
202	0x3decabc4	0.11556199
203	0x3d95b36a	0.07309611
204	0x3d2813fc	0.041034684
205	0xbd661055	-0.05616792
206	0x3dbeb73e	0.093122944
207	0xbd826ec5	-0.06368784
208	0x3e11ae00	0.14226532
209	0xbdff07ba	-0.124526456
210	0x3cb5caa0	0.022191346
211	0xbdd75315	-0.105138935
212	0x3bb2d35b	0.0054573244
213	0x3e09451a	0.13405266
214	0xbde8e20a	-0.113712385
215	0xbc811a8d	-0.01575973
216	0x3e1ca7e4	0.1529842
217	0xbdbfdcb7	-0.0936827
218	0x3c8d2eaa	0.017234165
219	0xbcd47cbe	-0.025938388
220	0x3d275ec0	0.040861845
221	0xbdd670f4	-0.10470763
222	0x3ae695ad	0.0017592214
223	0xbca5bc80	-0.020231485
224	0x3d330736	0.04370805
225	0xbcd31bc7	-0.025770081
226	0xbd8e6bfc	-0.0695419
227	0xbd7d729d	-0.061876882
228	0x3dd9e832	0.10639991
229	0xbc0d18d1	-0.008611874
230	0xbda784cd	-0.081796266
231	0xbd6e77f5	-0.05821987
232	0xbd5f8716	-0.054572187
233	0xbd6a7945	-0.057244558
234	0x3d6100a6	0.05493226
235	0x3dc2adcc	0.095058054
236	0x3da1ee89	0.07906825
237	0x3dd2ba67	0.1028946
238	0xbe05ff6b	-0.13085715
239	0x3d321eba	0.043486334
240	0xbc74c336	-0.01493912
241	0x3d855b24	0.06511524
242	0xbda32979	-0.07966895
243	0xbe100cf5	-0.14067443
244	0x3dedf37a	0.11618705
245	0x3e020108	0.12695706
246	0x3ca19f0a	0.019729156
247	0x3d657b41	0.056025747
248	0x3dc774fc	0.0973911
249	0xbc977454	-0.018488087
250	0xbd1a8fef	-0.037734922
251	0x3dbd16c7	0.0923286
252	0xbe0d24e4	-0.13783604
253	0x3c887849	0.016658919
254	0xbd1ebdab	-0.0387551
255	0xbe2340f6	-0.1594275

lstm.bias_ih_l0 f4 [256]
0	0x3dad3e6e	0.08459173
1	0xbbeed69a	-0.007288766
2	0x3d39b792	0.045341082
3	0x3df74952	0.120745316
4	0x3d1930d9	0.0374001
5	0x3de956b4	0.113934904
6	0x3d08bb93	0.03338201
7	0xb9d43574	-0.00040475617
8	0x3da4e504	0.08051494
9	0x3c87a137	0.016556365
10	0xbdcd626d	-0.10028539
11	0x3d7fd573	0.06245942
12	0x3e091cfb	0.13389961
13	0xbd6e5ac3	-0.058192026
14	0x3e00d80e	0.12582418
15	0x3ded5188	0.115878165
16	0x3d9adb5c	0.07561371
17	0xbd448767	-0.047980692
18	0x3c5424dc	0.012948241
19	0x3e00cd0b	0.12578218
20	0x3cf76f59	0.030204462
21	0x3dd00f28	0.10159141
22	0x3dbe29fe	0.09285353
23	0x3d2a9e5e	0.041654937
24	0xbd9045c2	-0.07044555
25	0xbc51b38e	-0.012799157
26	0x3d4dba9f	0.050226804
27	0xbbd416e3	-0.006472455
28	0xbcaf1566	-0.021372508
29	0x3dcaeb00	0.09908104
30	0x3d6a2013	0.057159495
31	0xbc8bdd87	-0.017073406
32	0x3cafdea6	0.021468472
33	0xbdeeefe1	-0.11666847
34	0xbb7e70e2	-0.0038824608
35	0xbd98874d	-0.074476816
36	0x3dc598d1	0.09648288
37	0x3b9c6de8	0.004773844
38	0x3ded24c8	0.11579281
39	0x3d385437	0.04500219
40	0x3d8a60df	0.06756758
41	0x3dd3690e	0.10322772
42	0xbd5086dc	-0.050909862
43	0x3d1f4f4a	0.038893975
44	0xbdc1fa2c	-0.094715446
45	0x3ac37932	0.0014913438
46	0x3d2b09fb	0.041757565
47	0x3cc1c953	0.02365557
48	0xbd72a0a6	-0.059235238
49	0x3b1bf26f	0.0023795625
50	0xbdafc858	-0.085831344
51	0x3db11dda	0.08648272
52	0x3beca70c	0.007222062
53	0xbdb0be13	-0.08630004
54	0xbcf4ca97	-0.029881759
55	0x3d3b22b2	0.045687385
56	0xbb9c2621	-0.0047652875
57	0xbd48f5ad	-0.04906242
58	0x3ce81b43	0.028333312
59	0x3d8f3ebb	0.06994387
60	0x3d6e371a	0.058158018
61	0x3cd233cc	0.025659464
62	0xbd869ac9	-0.06572492
63	0x3d800aa3	0.06252029
64	0x3dd0ae78	0.10189527
65	0xbc1c9026	-0.009555852
66	0xbd0663c0	-0.032809973
67	0xbc4a7274	-0.012356389
68	0xbd62ab03	-0.05533887
69	0x3dea8dc6	0.114528224
70	0xbd49dfa2	-0.04928554
71	0x3dc724da	0.09723826
72	0x3dbb226b	0.09137424
73	0x3d83ec6b	0.064415775
74	0xbc91ffa3	-0.017822092
75	0xbd17f11e	-0.03709518
76	0x3d76ac0c	0.06022267
77	0xbdea29a0	-0.114337206
78	0x3da10a72	0.078633204
79	0xbde3b7b7	-0.11119025
80	0x3d8471a2	0.06466986
81	0x3d2ff7d3	0.042960953
82	0x3d3db3e9	0.046314154
83	0x3dd6bfb6	0.10485785
84	0x3c749eef	0.014930471
85	0x3dbe9562	0.09305836
86	0xbd9376b8	-0.07200378
87	0xbd69b4aa	-0.05705706
88	0x3dcc1a2d	0.0996593
89	0xbdadfb60	-0.084952116
90	0x3db71c02	0.08940889
91	0x3dd3f936	0.103502676
92	0xbcd3edda	-0.025870252
93	0xbc4d44ae	-0.012528582
94	0x3bff581f	0.0077924873
95	0x3d168f9f	0.03675806
96	0xbcff87e8	-0.031192735
97	0x3ddda1cd	0.10821877
98	0xbd28978c	-0.04116015
99	0xbd63cba8	-0.055614144
100	0xbcbf3678	-0.023341402
101	0xbdbb1a56	-0.091358826
102	0x3cdb6503	0.026781565
103	0x3b943f78	0.0045241676
104	0x3d7fe08b	0.06247
105	0xbcc4ba38	-0.024014577
106	0x3d97bfdb	0.074096404
107	0x3d5dc0ef	0.054139074
108	0xbdca1b4c	-0.09868488
109	0xbd67cb4c	-0.056590363
110	0xbc2d009b	-0.010559226
111	0xbcb1bda4	-0.021696873
112	0x3d148d07	0.036267307
113	0x3e123612	0.14278439
114	0xbdc4b3b2	-0.09604587
115	0xbd8f41f2	-0.06995
116	0xbd331987	-0.043725517
117	0xbd3c0a62	-0.04590834
118	0xbd16b2de	-0.036791675
119	0xbd529341	-0.051409964
120	0x3c5eb832	0.01359372
121	0xbcad6cf1	-0.021170111
122	0xbdbcfa24	-0.09227398
123	0x3d79d48e	0.060993724
124	0xbbd7aa3e	-0.0065815737
125	0xbd9dcbf6	-0.07704918
126	0x3de2ba17	0.1107065
127	0xbc1f0e1b	-0.009707953
128	0x3d3c23f2	0.045932718
129	0x3d38c526	0.04510989
130	0xbdb7488f	-0.08949386
131	0xbd4acd9b	-0.049512487
132	0xbbe176e1	-0.0068806265
133	0x3d59a272	0.053133436
134	0x3e0445f3	0.12917309
135	0x3b848f6f	0.004045419
136	0x3cc7ed0e	0.024405029
137	0xbdc42389	-0.0957709
138	0x3d15d195	0.036576826
139	0x3d81f3f3	0.06345358
140	0xbdf4a24b	-0.119450174
141	0xbd8ec409	-0.069709845
142	0x3db8883b	0.09010359
143	0xbd01d7c6	-0.03169992
144	0x3dee991b	0.11650296
145	0x3dbdc565	0.09266166
146	0x3d85981c	0.06523153
147	0xbd880125	-0.06640843
148	0xbd7bae8f	-0.06144577
149	0xb930d80f	-0.00016865156
150	0x3de129fd	0.10994337
151	0x3df424cd	0.11921082
152	0x3cb39686	0.021922361
153	0x3dce55ee	0.100749835
154	0x3d12714e	0.035752587
155	0xbbffa5e1	-0.0078017567
156	0x3d460a04	0.048349395
157	0xbdce2244	-0.100651294
158	0xbd09f506	-0.03368094
159	0x3d45a422	0.048252232
160	0xbda5fa15	-0.0810434
161	0xbdb0ec46	-0.086388156
162	0x3c25b033	0.01011281
163	0x3dd560ef	0.10418879
164	0xbb07b152	-0.0020705056
165	0x3d94d0b8	0.072663724
166	0x3c890f7f	0.016731022
167	0xbcdd0d89	-0.026983993
168	0xbd3d7550	-0.046254456
169	0xbdca5ec0	-0.098813534
170	0xbda21607	-0.07914358
171	0xbdcc836e	-0.09986006
172	0xbd3a6a29	-0.0455114
173	0xbc0cf458	-0.008603178
174	0xbce79839	-0.028270828
175	0xbc4d0061	-0.012512297
176	0xbbaf8ccf	-0.005357362
177	0xba54081d	-0.0008088367
178	0x3d8b03ad	0.067878105
179	0x3b5d95bb	0.003381117
180	0xbd3ecdf0	-0.046583116
181	0x3da7b732	0.081892386
182	0xbd5244bb	-0.051335078
183	0xbdddaac5	-0.10823587
184	0xbdde9e06	-0.10869984
185	0xbd71051a	-0.058842756
186	0xbda84553	-0.082163475
187	0x3d94a264	0.07257536
188	0x3d429d15	0.047513086
189	0xbbc7e885	-0.0061007165
190	0xbd9f7e4c	-0.07787761
191	0x3cf1ad9b	0.029501727
192	0x3e03eadb	0.12882559
193	0xbd6b1fb9	-0.0574033
194	0x3de495a2	0.11161353
195	0xbd2ff9f8	-0.042963
196	0x3de4498e	0.11146842
197	0x3d9e7b54	0.07738367
198	0x3cd700c7	0.026245488
199	0xbdea7244	-0.11447576
200	0x3df0e4f0	0.11762416
201	0xbd557911	-0.05211741
202	0xbdbe9e72	-0.09307565
203	0x3c2b9f68	0.010475017
204	0x3d02d691	0.031942908
205	0x3d346120	0.044037938
206	0x3caa7654	0.020808376
207	0x3d022e9a	0.031782724
208	0xbd5248c7	-0.051338937
209	0x3cb2b0c5	0.021812806
210	0x3a9c0298	0.0011902628
211	0xbc802fe5	-0.015647838
212	0xbdb3c5bd	-0.0877795
213	0x3dfbfd68	0.12304193
214	0xbcb35bc2	-0.02189434
215	0xbd0e3f2a	-0.034728207
216	0x3c990136	0.018677335
217	0x3d9d9ca7	0.07695895
218	0x3b943597	0.00452299
219	0xbdc4fb24	-0.09618214
220	0x3d502ea8	0.050825745
221	0x3cc0b95e	0.02352589
222	0x3d4888ab	0.04895846
223	0xbc547878	-0.012968175
224	0xbcde2baf	-0.02712044
225	0xbd8fc110	-0.070192456
226	0x3c4d0a0b	0.012514601
227	0x3d080c41	0.03321481
228	0xbd8a1762	-0.06742741
229	0xbbd62835	-0.006535555
230	0xbd4677eb	-0.048454206
231	0x3d38fcf6	0.045163117
232	0x3d93bd5c	0.07213852
233	0x3d86a272	0.06573953
234	0xbd501a1c	-0.05080615
235	0x3d2ec4bb	0.042668086
236	0x3dddb0f4	0.10824767
237	0x3cb07db2	0.021544311
238	0x3dbee97a	0.09321876
239	0x3d4b4ac7	0.04963186
240	0x3dafb376	0.08579151
241	0x3ba5e76a	0.005062987
242	0x3d2f5ffd	0.04281615
243	0xbdbeb92d	-0.09312663
244	0xbd4ff361	-0.050769214
245	0x3ce40092	0.027832303
246	0x3d98b3de	0.07456182
247	0xbd0677e1	-0.03282917
248	0xbca30060	-0.01989764
249	0x3e2150f6	0.1575354
250	0x3d17bc85	0.03704502
251	0x3e14a4e3	0.14516024
252	0x3d81d68c	0.0633975
253	0xbd13582b	-0.035972755
254	0x3ccea032	0.025222871
255	0x3d696edf	0.0569905

lstm.bias_hh_l0 f4 [256]
0	0x3d92c8fe	0.071672425
1	0x3e1fe484	0.15614516
2	0x3d6360bd	0.05551218
3	0x3df6ec83	0.1205683
4	0xbddedf66	-0.108824536
5	0x3d8941f5	0.067020334
6	0x3de8bb0e	0.11363803
7	0x3ccfb479	0.02535461
8	0xbcbcfd1c	-0.02306991
9	0x3e0242d1	0.12720801
10	0x3cdc0367	0.026857091
11	0xbdc26bff	-0.09493255
12	0xbd4e78ea	-0.05040828
13	0x3d3cf7ac	0.046134636
14	0xbd3e5ae6	-0.046473406
15	0xbdccdedd	-0.10003445
16	0xbd0aeaac	-0.033915207
17	0xb93d325f	-0.0001804321
18	0x3e0467c7	0.12930213
19	0xbceaace0	-0.028646886
20	0xbdb6c14b	-0.089235865
21	0xbd612520	-0.054967046
22	0xbe0a827c	-0.13526338
23	0xbd51a3ca	-0.051181592
24	0xbdce2b48	-0.10066849
25	0x3dc541a6	0.09631662
26	0x3d711cf0	0.058865488
27	0x3da6bdfe	0.08141707
28	0x3de52308	0.11188322
29	0x3db1317f	0.08652019
30	0x3d3ac247	0.045595434
31	0xbc5d6e3e	-0.013515053
32	0x3da8d377	0.08243459
33	0xbb813e5b	-0.003944201
34	0xbd4a2ec4	-0.049361005
35	0xbde9287f	-0.11384677
36	0x3d19ed6f	0.03757995
37	0xbdac6351	-0.084173806
38	0x3d36368b	0.04448561
39	0xbc0e54e1	-0.008687229
40	0xbd84ce4d	-0.06484661
41	0x3c9c6717	0.019092126
42	0xbde2082f	-0.11036717
43	0x3c5d6271	0.01351224
44	0x3d9b5a3a	0.07585569
45	0xbddaa993	-0.10676875
46	0x3dc50175	0.096194185
47	0x3cad836e	0.021180835
48	0xbd8e1154	-0.06936899
49	0x3dbddc9b	0.09270593
50	0xbd0b6b40	-0.03403783
51	0x3dd898b0	0.10575998
52	0xbd078a9c	-0.033091173
53	0x3e070e54	0.1318906
54	0xbc42c7c3	-0.011888447
55	0x3d7fcf7e	0.06245374
56	0xbb4e4457	-0.003147384
57	0xbd93f5f5	-0.07224647
58	0xbd91af10	-0.07113469
59	0xbde30831	-0.11085547
60	0x3bd5af37	0.0065211314
61	0xbd830d67	-0.06399041
62	0xbd8a0c2e	-0.06740604
63	0x3d3096af	0.043112453
64	0x3ddd730c	0.10812959
65	0x3e10db09	0.14146055
66	0x3d31e337	0.04342958
67	0xbdb386a3	-0.08765914
68	0x3c51e5ac	0.012811106
69	0xbdacfeae	-0.08447014
70	0x3df1cabc	0.11806247
71	0x3a5b4aa7	0.0008365311
72	0x3dd67979	0.10472388
73	0xbdb08a34	-0.0862011
74	0xbd65bf7b	-0.056090813
75	0xbcde5bf3	-0.027143454
76	0x3da9649e	0.08271144
77	0x3dbe0c04	0.092796355
78	0x3d1ef7aa	0.03881041
79	0x3dec4f03	0.11538508
80	0xbda0a279	-0.07843489
81	0x3cfe395a	0.031033207
82	0x3dc4596c	0.09587368
83	0x3e0aca9b	0.1355385
84	0xbcb0ba0e	-0.021573093
85	0xbd9cf223	-0.076633714
86	0x3ddb31c2	0.1070285
87	0xbcb3568d	-0.021891857
88	0xba0cc355	-0.0005369683
89	0x3d4138a1	0.047173146
90	0x3d17b047	0.037033346
91	0x3dd47064	0.10372999
92	0x3c7028a2	0.014658125
93	0x3db27089	0.08712871
94	0xba6167db	-0.00085985445
95	0x3db352f9	0.0875606
96	0x3d6c8fb4	0.057754233
97	0x3d8d3cfb	0.06896397
98	0x3e0ea81e	0.13931319
99	0xbc62078e	-0.0137957465
100	0x3d04ffcd	0.032470513
101	0x3cf78c5f	0.030218301
102	0xbd687a54	-0.056757286
103	0xbdb3da80	-0.0878191
104	0xbd4b18e4	-0.049584284
105	0x3d0e8286	0.034792446
106	0xbdbff007	-0.093719535
107	0x3d956841	0.072952755
108	0x3d2f7749	0.04283837
109	0x3d8143d9	0.06311769
110	0x3d5d67d7	0.054054108
111	0x3de7aacc	0.11311874
112	0xbd2a9035	-0.041641433
113	0xbb2edbc5	-0.0026681286
114	0xbcec78f5	-0.02886627
115	0x3d930c22	0.071800485
116	0x3cfaed12	0.030630622
117	0xbd77459d	-0.060369123
118	0xbd8a4cfd	-0.067529656
119	0xbd3d73fa	-0.046253182
120	0x3bde3846	0.0067816107
121	0x3d90004c	0.070313066
122	0xbdcf4676	-0.10120861
123	0x3df82d5e	0.12118028
124	0x3dba7921	0.09105135
125	0xbcad745e	-0.021173652
126	0xbd76360d	-0.06011014
127	0xb9d0f8ec	-0.00039858313
128	0x3dee3432	0.11631049
129	0x3c0d1008	0.008609779
130	0xbd54f09a	-0.051987268
131	0x3dde834a	0.10864885
132	0xbdda4101	-0.1065693
133	0x3c840616	0.016116183
134	0x3e02f95a	0.12790433
135	0x3dbc9a85	0.0920916
136	0x3c48d409	0.012257584
137	0xbc960236	-0.018311601
138	0xbce308c6	-0.027714144
139	0xbd2fb8c1	-0.042900804
140	0xbc91a8d1	-0.017780693
141	0xbdc0eb47	-0.094198756
142	0xbd9b9371	-0.075964816
143	0xbda4100d	-0.08010874
144	0xbc6f684f	-0.014612271
145	0xbd91a38b	-0.071112715
146	0xbdee5ae3	-0.11638429
147	0xbdab2803	-0.08357241
148	0x3dcb5776	0.09928791
149	0x3d22a32a	0.039706387
150	0xbc7f4fd4	-0.015582997
151	0x3df97fff	0.121826164
152	0xbdfcf845	-0.12352041
153	0xbdcaeade	-0.099080786
154	0xbdc45d6f	-0.095881335
155	0xbd319368	-0.04335347
156	0x3d593e51	0.053037945
157	0xbe03f5df	-0.12886761
158	0x3e0b4d2e	0.1360366
159	0xbca21f95	-0.01979045
160	0xbdc05e3b	-0.09392973
161	0xbddb541c	-0.10709402
162	0x3e18f77e	0.14938161
163	0x3dcbb1e3	0.099460386
164	0xbdc00fa0	-0.0937798
165	0xbd328aa4	-0.04358925
166	0x3dd7e5cf	0.105418794
167	0x3af59c91	0.0018738677
168	0xbd071487	-0.03297856
169	0xbd1d77c1	-0.038444284
170	0x3e0a55f9	0.13509358
171	0x3de485de	0.11158346
172	0x3dc4cb05	0.096090354
173	0xbdd47cf5	-0.10375396
174	0xbdbc754d	-0.09202061
175	0x3d240cfb	0.04005144
176	0xbd5a9627	-0.053365853
177	0x3df62cdd	0.12020276
178	0x3d6f90cd	0.058487702
179	0x3d871b9d	0.06597064
180	0x3e09d4cd	0.13460083
181	0xbd3c4925	-0.045968194
182	0x3cc67710	0.024226695
183	0x3d9a124b	0.0752302
184	0x3d25e37c	0.04050015
185	0xbba8c5c8	-0.0051505305
186	0x3d9c8c30	0.07643926
187	0x3dfb5b3b	0.1227326
188	0x3de25232	0.11050834
189	0x3dce5f96	0.10076825
190	0xbe003bcd	-0.12522812
191	0xbdc6be41	-0.09704257
192	0x3db08f86	0.08621125
193	0x3dfc2227	0.123112015
194	0xbd90d976	-0.070727274
195	0xbdd7ac4c	-0.1053091
196	0xbde5d72c	-0.112226814
197	0x3dcab8d8	0.098985374
198	0xbd166a91	-0.036722723
199	0xbdd4a466	-0.10382919
200	0x3da143fa	0.078742936
201	0xbd4084bf	-0.047001597
202	0xbd43148b	-0.047627013
203	0x3d59f3ce	0.053211026
204	0x3c552714	0.013009805
205	0xbd5ae3c7	-0.05343988
206	0x3dc7f349	0.097632
207	0x3d90528c	0.070469946
208	0xbda085d5	-0.078380264
209	0xbcdc4146	-0.026886594
210	0xbcdc12dd	-0.026864463
211	0x3dd2f050	0.10299742
212	0x3d08cb23	0.03339685
213	0xbd8105af	-0.06299912
214	0x3dde04cc	0.10840759
215	0x3dcde34f	0.10053121
216	0x3dad8d68	0.08474237
217	0x3d6d9faf	0.058013614
218	0xbb942821	-0.0045213853
219	0x3d5089fa	0.050912835
220	0x3db4c76f	0.088271014
221	0x3d4dc0b5	0.050232608
222	0xbd931359	-0.07181425
223	0xbdad7634	-0.08469811
224	0x3d50f40b	0.051013988
225	0x3dc95847	0.09831291
226	0x3da94665	0.0826538
227	0xbdad6d98	-0.08468169
228	0x3e0169a2	0.12637952
229	0x3ccf18e4	0.025280423
230	0xbd8f7d38	-0.070063055
231	0x3d73f819	0.059562776
232	0x3dae2a67	0.08504181
233	0x3dd0beb9	0.101926275
234	0x3d02760c	0.03185086
235	0x3d6703f5	0.056400258
236	0xbb600b9d	-0.003418661
237	0x3d0f93ab	0.035052937
238	0xbd42f1aa	-0.04759375
239	0xbc7c77a1	-0.015409381
240	0xbd90090a	-0.07032974
241	0x3d4e7ae8	0.05041018
242	0xbca9c8c5	-0.020725617
243	0x3d9ed98b	0.07756337
244	0x3d9b4f84	0.07583526
245	0xbcf062f5	-0.029344061
246	0xbca4346b	-0.020044526
247	0x3d2d4a96	0.04230746
248	0xbcf2a69a	-0.029620457
249	0x3dfa9f94	0.12237468
250	0x3dbd612b	0.09247049
251	0xbb97ab29	-0.004628558
252	0x3d530589	0.05151895
253	0xbd60eaef	-0.05491155
254	0xbd8b6853	-0.06807008
255	0x3ce51647	0.027964724

lstm.weight_ih_l0_reverse f4 [256, 40]
0	0x3db93d5c	0.090449065
1	0xbd4f9a13	-0.050684046
2	0xbdcfc965	-0.10145835
3	0xbd99fbca	-0.07518728
4	0xbd55a607	-0.05216029
5	0xbdccfb87	-0.100089125
6	0x3d0c5910	0.034264624
7	0xbded4f5e	-0.11587404
8	0xbd79f128	-0.061021
9	0xbd8297fb	-0.06376644
10	0x3cfbf1e1	0.030754985
11	0x3ddad03b	0.10684248
12	0xba94667c	-0.0011322047
13	0xbc950c2f	-0.018194286
14	0x3d09a26b	0.03360216
15	0x3d9e6a07	0.07735067
16	0x3d9354af	0.071938865
17	0xbd87c9db	-0.06630298
18	0xbdb7c9c3	-0.0897403
19	0x3daa1205	0.08304218
20	0xbb978ebd	-0.00462517
21	0x3dd8c348	0.10584122
22	0xbd2ed5b5	-0.042684276
23	0x3d29c0de	0.041443698
24	0x3c4598aa	0.012060324
25	0xbde5e2b3	-0.1122488
26	0x3dafb3b4	0.085791975
27	0xbd15e516	-0.036595426
28	0xbdf73f01	-0.12072564
29	0x3d6ea770	0.05826515
30	0xbc38a4cf	-0.011269762
31	0x3d9b224d	0.07574902
32	0x3d999429	0.074989624
33	0x3d94bd37	0.07262652
34	0x3c365958	0.0111297
35	0xbc92d3c3	-0.017923241
36	0x3cd3bec3	0.025847798
37	0x3d70d13e	0.0587933
38	0x3b8dfba9	0.0043329787
39	0x3ca21bad	0.019788587
40	0x3dee49fc	0.11635205
41	0x3c54750e	0.012967361
42	0x3d50f375	0.05101343
43	0x3d518de9	0.051160727
44	0x3dcf87a8	0.10133296
45	0xbd295d55	-0.041348774
46	0x3b9eefdc	0.004850371
47	0xbcc78770	-0.024356574
48	0x3ccd393b	0.025051704
49	0xbc9024e0	-0.017595708
50	0xbb011b8d	-0.001970026
51	0x3df09321	0.117468126
52	0x3d7de6e8	0.061987787
53	0x3dd1ddd0	0.102473855
54	0x3cd76e99	0.026297854
55	0xbdaefcfd	-0.085443474
56	0x3dc045a6	0.093882844
57	0xbdc80e5e	-0.09768365
58	0x3d9b4192	0.07580866
59	0x3d891d9a	0.06695099
60	0xbdc5e69f	-0.09663128
61	0xbafafc48	-0.0019148672
62	0x3d922a2e	0.071369514
63	0xbdfcdff1	-0.12347401
64	0xbc907782	-0.01763511
65	0x3c450485	0.012025003
66	0xbcd21494	-0.025644578
67	0xbda12285	-0.07867912
68	0xbdcd24df	-0.10016798
69	0xbde0c736	-0.109754965
70	0x3dbf8435	0.09351388
71	0x3d2be394	0.041965082
72	0x3db663b8	0.089057386
73	0xbe0aea9b	-0.13566057
74	0xbdb138f9	-0.08653445
75	0xbd49bbf2	-0.049251504
76	0x3cdcafb3	0.026939249
77	0xbdd2c3e4	-0.102912694
78	0xbd7c33a0	-0.06157267
79	0x3c871e1c	0.01649385
80	0xbc683e02	-0.01417494
81	0xbdaaeb52	-0.08345665
82	0xbd8e217e	-0.06939982
83	0xbdf7a0af	-0.12091195
84	0x3b441b07	0.0029923336
85	0xbdd4671b	-0.10371228
86	0xbc7c03cc	-0.015381765
87	0xbcfe8a63	-0.031071847
88	0xbc87b5e5	-0.016566226
89	0xbdb9d05c	-0.090729445
90	0x3d8d2bf0	0.06893146
91	0xbcb6f78f	-0.022334842
92	0x3daf971c	0.08573744
93	0x3d8bb8c8	0.068223536
94	0x3d66d6bd	0.056357134
95	0xbdbad890	-0.09123337
96	0x3d933de9	0.07189543
97	0xbd556128	-0.05209461
98	0x3cc3e870	0.023914546
99	0xbd01f38e	-0.031726412
100	0xbd6b095c	-0.057381973
101	0x3d95ab07	0.073080115
102	0xbdedf10e	-0.11618243
103	0x3d709f49	0.058745656
104	0xbbcf3b4a	-0.0063242065
105	0x3e0ec51d	0.1394238
106	0x3d7c9140	0.06166196
107	0x3b994730	0.0046776757
108	0xbdfabb73	-0.12242784
109	0x3da789bc	0.081805676
110	0xbda62e28	-0.08114272
111	0x3df5aa97	0.11995428
112	0xbe0ad4ec	-0.13557786
113	0x3c61ea49	0.013788768
114	0xbdcb9ad8	-0.099416435
115	0x3d9b2a84	0.075764686
116	0xbdf2b497	-0.11850851
117	0xbdad05f8	-0.08448404
118	0x3c90f9d2	0.017697249
119	0xbc231c22	-0.009955438
120	0xbc9a37ac	-0.018825375
121	0x3e0ba071	0.13635422
122	0x3d937c7d	0.07201479
123	0x3be70911	0.0070506413
124	0xbda5de93	-0.08099093
125	0xbd14decc	-0.03634529
126	0xbe1018cc	-0.1407196
127	0xbd94c7bd	-0.072646596
128	0xbdf9b8f9	-0.12193484
129	0x3e0263f3	0.1273344
130	0x3d845a87	0.06462579
131	0xbd7c669a	-0.061621286
132	0xbd117988	-0.03551629
133	0x3ded30b7	0.11581557
134	0xbe034503	-0.12819295
135	0xbce7750e	-0.028254058
136	0xbd0037ec	-0.03130333
137	0x3cfda222	0.0309611
138	0xbe0de9c5	-0.13858707
139	0x3d584db4	0.05280848
140	0x3c91f858	0.017818615
141	0x3d754bb0	0.059886634
142	0xbdf65568	-0.12028009
143	0x3dc7dcfd	0.09758947
144	0xbda66af2	-0.08125867
145	0x3da0991e	0.07841705
146	0xbdfa3947	-0.12217956
147	0x3e0444df	0.12916897
148	0xbd9fd88b	-0.07804974
149	0x3c66f008	0.014095314
150	0xbd8a3468	-0.06748277
151	0x3d2b2ae0	0.041788936
152	0xbe147aec	-0.14500016
153	0x3d9d782e	0.07688938
154	0xbd93d39c	-0.07218096
155	0x3d8a26fa	0.067457154
156	0xbd9b15f8	-0.075725496
157	0x3dd681b2	0.10473956
158	0x3c1c0828	0.009523429
159	0x3df3da18	0.119068325
160	0xbda98311	-0.08276952
161	0x3d9e2d1d	0.077234484
162	0xbd4ac9df	-0.049508926
163	0xbd5f676d	-0.054541994
164	0xbe02d9bd	-0.12778373
165	0xbdd08064	-0.101807386
166	0x3dc1cd78	0.09463018
167	0xbdf416c2	-0.11918403
168	0xbd801b36	-0.0625519
169	0x3de83d9a	0.113398746
170	0xbe0eada5	-0.13933428
171	0x3ce057a7	0.027385546
172	0xbdf9b7a4	-0.1219323
173	0xbc020988	-0.007936843
174	0x3dae7fbd	0.08520458
175	0x3dbf11f4	0.09329596
176	0xbd8d22fb	-0.068914376
177	0x3d3a506c	0.045486853
178	0xbb9768a1	-0.004620627
179	0x3c43f139	0.011959367
180	0xbc832f35	-0.016013721
181	0xbda89094	-0.08230701
182	0xbd588038	-0.052856654
183	0xbdd86241	-0.105656154
184	0x3d3aa389	0.045566116
185	0x3c80e340	0.015733361
186	0xbc6106d1	-0.013734535
187	0x3da36fe7	0.07980328
188	0x3d30840c	0.04309468
189	0xbdb3889b	-0.0876629
190	0xbe109524	-0.14119393
191	0x39be83b7	0.0003633776
192	0xbe06bf4b	-0.1315891
193	0x3d548b63	0.051890742
194	0xbd3be12a	-0.04586903
195	0x3d7581fd	0.05993842
196	0x3dbb86e7	0.0915659
197	0x3d2ab90f	0.041680392
198	0xbd3ae048	-0.045624048
199	0x3d6b7658	0.05748591
200	0xbcec770e	-0.028865363
201	0x3db26374	0.087103754
202	0x3d923c88	0.07140452
203	0x3da07de9	0.078365155
204	0xbcbb705a	-0.022880722
205	0x3df072f0	0.117406726
206	0x3d9dd317	0.07706278
207	0x3e11ed5c	0.14250702
208	0x3b8b3cfe	0.004249214
209	0x3c3074ec	0.010770064
210	0xbc8f5502	-0.01749659
211	0x3e16620e	0.14685842
212	0xbdfbf08a	-0.123017386
213	0xbb481bda	-0.003053418
214	0xbcc3be82	-0.023894552
215	0xbc923412	-0.017847095
216	0x3d823582	0.06357862
217	0x3d8a93eb	0.06766494
218	0x3cde153c	0.027109735
219	0x3d470593	0.0485893
220	0xbe0b0076	-0.13574395
221	0x3c604420	0.013688117
222	0xbbf694ef	-0.0075250785
223	0x3e08b84a	0.1335155
224	0xbd3f582e	-0.046714954
225	0xbc93ac06	-0.018026363
226	0xbbd429a9	-0.006474693
227	0x3e06da0f	0.1316912
228	0xbbb829fb	-0.005620239
229	0xbda7691d	-0.08174346
230	0xbdfa72e5	-0.12228946
231	0x3e258cfa	0.1616706
232	0x3d88f555	0.06687418
233	0x3c92fe6d	0.017943585
234	0xbe1cbde3	-0.15306811
235	0xbc2632f6	-0.010143986
236	0xbe0f8b15	-0.140179
237	0xbd4e7942	-0.05040861
238	0xbd8ba15b	-0.068178855
239	0xbdb7ef65	-0.08981208
240	0x3d856e4b	0.06515177
241	0xbcbfef5e	-0.023429569
242	0x3c611c35	0.013739635
243	0x3c6de436	0.014519742
244	0x3dd10ee9	0.10207922
245	0x3d7ca271	0.061678354
246	0x3cc86554	0.02446238
247	0x3da37822	0.07981898
248	0xbd4d040e	-0.050052695
249	0x3d71048f	0.058842238
250	0xbd5d7fd0	-0.05407697
251	0xbd27203f	-0.040802237
252	0xbd7d5979	-0.061852906
253	0xbc14b533	-0.009076404
254	0x3dca6787	0.098830275
255	0xbd2b8b3a	-0.041880824

lstm.weight_hh_l0_reverse f4 [256, 64]
0	0x3c474232	0.012161778
1	0x3d70ad77	0.05875918
2	0xbdb83035	-0.0899357
3	0x3ab23959	0.0013597413
4	0x3d92047a	0.0712976
5	0xbdd44bcf	-0.10366022
6	0x3c737336	0.014859011
7	0xbdbd519b	-0.09244081
8	0x3ca64ce6	0.02030034
9	0xbb8b8c78	-0.0042586885
10	0xbce28602	-0.02765179
11	0xbdef9e13	-0.11700072
12	0x3d6c6928	0.057717472
13	0x3d0ce16f	0.034394678
14	0xbdb1df08	-0.08685118
15	0xbc6a8510	-0.014313951
16	0x3bf418fd	0.007449268
17	0x3d4937bd	0.04912542
18	0x3d770067	0.060303118
19	0xbcda0723	-0.026614731
20	0x3cc9f680	0.024653673
21	0xbddf12bb	-0.108922444
22	0x3d8dcb92	0.069235936
23	0xbe302b72	-0.17204073
24	0x3ddfd68d	0.10929594
25	0xbd38ddfd	-0.04513358
26	0xbdaad3b9	-0.08341164
27	0xbdac77ac	-0.08421263
28	0xbd4d7c62	-0.05016745
29	0x3d336446	0.0437968
30	0xbdd432f0	-0.10361278
31	0x3d44aea2	0.048018105
32	0x3d297735	0.04137345
33	0x3ce78134	0.028259851
34	0xbd0c2810	-0.034217894
35	0xbd898cb5	-0.06716291
36	0x3d02fe6d	0.03198092
37	0x3d90ce3b	0.07070585
38	0xbdc7300b	-0.0972596
39	0x3cf28fe5	0.02960963
40	0x3dce33de	0.10068487
41	0x3dd3ee58	0.10348195
42	0x3caad5ef	0.020853965
43	0x3c911c6e	0.017713752
44	0xbc77eb09	-0.01513172
45	0x3d5aa6a7	0.05338159
46	0x3daa67ab	0.08320554
47	0xbd0d74b9	-0.034535144
48	0xbd39c603	-0.045354854
49	0xbd9b8751	-0.07594169
50	0x3ca5f335	0.020257572
51	0xbd81fc6a	-0.06346972
52	0xbd4f1f0c	-0.050566718
53	0x3df0b68a	0.117535666
54	0xbd675626	-0.056478642
55	0xbcba506f	-0.022743432
56	0xbbb6a0a2	-0.005573348
57	0x3def5a91	0.11687196
58	0x3dfc179b	0.1230919
59	0xbd932439	-0.07184643
60	0xbdc56087	-0.09637552
61	0xbd02c87b	-0.031929474
62	0x3c5b8482	0.013398292
63	0xbc28315e	-0.010265676
64	0xbde27f1e	-0.11059402
65	0xbd1bc9f8	-0.03803441
66	0x3e06950d	0.13142796
67	0x3dc57b80	0.096426964
68	0xbbec6c77	-0.0072150785
69	0x3caf2797	0.021381183
70	0xbdc1c200	-0.09460831
71	0x3dd09e88	0.101864874
72	0xbc79ce45	-0.015246932
73	0x3de40131	0.1113304
74	0x3cb88eb1	0.022528978
75	0xbc876de8	-0.0165319
76	0x3de25e18	0.11053103
77	0xbdc946d6	-0.09827964
78	0xbd8b4190	-0.067996144
79	0xbc88db65	-0.016706178
80	0xbd58d2e6	-0.052935503
81	0xbda915a6	-0.08256082
82	0xbd8f943a	-0.07010694
83	0xbd6dea3c	-0.05808471
84	0x3dee8c8b	0.116479
85	0xbc76d842	-0.015066208
86	0xbdcedb94	-0.10100475
87	0xbd008261	-0.03137434
88	0x3d412f89	0.047164474
89	0x3d6c78c9	0.057732377
90	0xbd61d83a	-0.05513785
91	0x3cb0a8a1	0.021564784
92	0x3d68c168	0.05682507
93	0xbd9bdd03	-0.07610514
94	0x3dabd30e	0.08389865
95	0x3daa846a	0.08326037
96	0xbd59900c	-0.05311589
97	0xbd957867	-0.072983555
98	0x3d9d692c	0.076860756
99	0x3db5e8d3	0.08882298
100	0x3e122a60	0.14273977
101	0xbdd82e62	-0.10555722
102	0x3b6951f3	0.0035601824
103	0x3d491b74	0.049098447
104	0x3dbe8b1b	0.09303876
105	0xbdbd6088	-0.092469275
106	0xbda5b9c4	-0.080920726
107	0x3cedc6c1	0.029025437
108	0xbc95327b	-0.018212548
109	0x3d8d76c1	0.06907416
110	0xbdc67af8	-0.09691423
111	0x3bd2c6e1	0.0064323996
112	0xbb8c71d1	-0.004286029
113	0xbd2b23ed	-0.04178231
114	0xbe078256	-0.13233313
115	0x3c9878ba	0.018612254
116	0xbd8a2cf8	-0.06746858
117	0xbc1a5450	-0.009419516
118	0xbd9e2625	-0.07722119
119	0xbcde07b1	-0.027103277
120	0xbd82c97b	-0.063860856
121	0x3dbfcb27	0.0936492
122	0x3c17505b	0.009235467
123	0xbde004db	-0.10938426
124	0xbda82d44	-0.08211759
125	0xbdc4df31	-0.09612883
126	0xbccefab6	-0.025266033
127	0x3dedba08	0.11607748
128	0x3cd10bf2	0.025518391
129	0x3c86d7d6	0.01646034
130	0xbb0a4034	-0.0021095397
131	0x3c989d1f	0.018629609
132	0x3b08c565	0.002086961
133	0xbd6caf94	-0.05778463
134	0x3dc20c5c	0.094750136
135	0xbc93fbfd	-0.018064493
136	0x3d689906	0.05678656
137	0x3df023d4	0.11725584
138	0x3e29ca60	0.16581106
139	0xbd8503f7	-0.06494897
140	0xbc989554	-0.018625893
141	0xbde63953	-0.112414025
142	0x3d38a364	0.045077696
143	0x3cd3fdf3	0.025877928
144	0x3dbcb181	0.09213544
145	0x3df15ebf	0.117856495
146	0xbd6664ca	-0.056248464
147	0xbe069a83	-0.13144879
148	0xbdffa674	-0.1248292
149	0xbd7de214	-0.061983183
150	0x3cfb22b5	0.030656198
151	0xbd88570f	-0.0665723
152	0xbdb3e5de	-0.08784078
153	0xbd1d2d6c	-0.038373396
154	0xbdfb6310	-0.12274754
155	0xbd9b4053	-0.07580628
156	0xbcea2ebe	-0.028586742
157	0xbd80320b	-0.06259545
158	0x3dcb8a08	0.09938437
159	0x3d3d3c88	0.046200305
160	0x3d91cc87	0.071190886
161	0x3d27c61c	0.040960416
162	0xbd7620f6	-0.060090028
163	0x3e0b9c0b	0.13633744
164	0x3dbc694e	0.09199773
165	0xbdab594b	-0.08366641
166	0x3d45b600	0.04826927
167	0x3df64880	0.12025547
168	0xbd489b1f	-0.04897606
169	0x3d814ddf	0.06313681
170	0xbd217243	-0.03941561
171	0xbd61935f	-0.055072185
172	0xbe031d49	-0.1280414
173	0xbd1211eb	-0.03566162
174	0xbd82e5c7	-0.06391483
175	0x3cf980d5	0.03045694
176	0xbd8e8933	-0.069597624
177	0xbcc6e64f	-0.024279742
178	0xbdd7136d	-0.10501752
179	0x3d666abb	0.05625413
180	0x3b5506fc	0.0032505384
181	0x3dc9c19f	0.098513834
182	0xbda863d9	-0.082221694
183	0x3db7ba02	0.08971025
184	0x3d8926a7	0.066968255
185	0x3de71dcd	0.11284981
186	0x3da5da99	0.08098335
187	0xbd4c045d	-0.04980885
188	0x3d0c5c65	0.0342678
189	0x3dc1bfed	0.09460435
190	0x3dafb4de	0.085794196
191	0xbdd6018c	-0.10449514
192	0x3cbc6cb9	0.023001062
193	0x3d06c49e	0.032902353
194	0xbdc33650	-0.09531844
195	0x3e001f38	0.12511909
196	0x3d5dcff4	0.054153398
197	0xbd981372	-0.07425584
198	0xbd97a413	-0.074043415
199	0x3d816929	0.06318886
200	0x3d92a5e1	0.07160545
201	0xbbe55bd8	-0.006999474
202	0x3cb828b6	0.02248035
203	0xbd879ddc	-0.06621906
204	0x3e16bac7	0.14719687
205	0xbda7a1fd	-0.08185194
206	0x3ddea2d4	0.10870901
207	0x3da590a7	0.08084231
208	0x3de199f1	0.1101569
209	0xbdda9ba2	-0.10674216
210	0xbd800070	-0.062500834
211	0xbe161f9e	-0.14660498
212	0xbddfcc76	-0.1092767
213	0x3d46be52	0.048521347
214	0x3de47976	0.11155979
215	0xbcd818bf	-0.026378987
216	0xbd4496e8	-0.047995478
217	0xbd9a8ecb	-0.07546767
218	0xbc14977e	-0.009069322
219	0xbd7ad3e0	-0.061237216
220	0x3d77a340	0.06045842
221	0x3cb93817	0.022609754
222	0x3c7b07fb	0.015321727
223	0x3e064ceb	0.1311528
224	0xbdbe0c50	-0.09279692
225	0x3ddb1269	0.10696871
226	0x3df4a630	0.1194576
227	0xbc315186	-0.010822659
228	0xbe08d4c7	-0.13362418
229	0xbc87d78e	-0.016582277
230	0xbe0c4161	-0.13696815
231	0x3da1ac44	0.07894185
232	0x3dcfcd2f	0.101465575
233	0x3d9446de	0.07240079
234	0x3d8dcee7	0.06924229
235	0xbb8a73b1	-0.0042252173
236	0x3d3128f4	0.043251947
237	0xbd8f396e	-0.06993376
238	0xbd3390a0	-0.043839097
239	0x3d45ae40	0.04826188
240	0x3dbc11ef	0.09183108
241	0x3db6021e	0.088871226
242	0x3dd6a2c8	0.10480267
243	0x3cae3481	0.02126527
244	0xbda4d803	-0.080490135
245	0x3d11e576	0.03561922
246	0x3d30c338	0.043154925
247	0x3ce97f15	0.02850298
248	0xbdd65fc0	-0.104674816
249	0x3d4e0eea	0.050307192
250	0x3d92f0ea	0.07174857
251	0xbdd415f1	-0.103557475
252	0xbe1c60a1	-0.15271236
253	0x3b8da45b	0.004322571
254	0x3dbc712d	0.09201274
255	0x3c3f1fb7	0.011665276

lstm.bias_ih_l0_reverse f4 [256]
0	0x3e0906d3	0.1338151
1	0xbe014b1b	-0.12626307
2	0x3cf0513c	0.02933561
3	0x3d1194c1	0.035542253
4	0x3dc5f46c	0.096657604
5	0xbdd6481a	-0.10462971
6	0x3da4ed06	0.08053021
7	0xbdda2e3d	-0.106533505
8	0xbcbbba1c	-0.022915892
9	0xbc2b4dcd	-0.010455561
10	0x3db6605f	0.089051
11	0xbdcf3e04	-0.101192504
12	0x3bf51977	0.0074798423
13	0xbd742a13	-0.059610438
14	0xbdc6722a	-0.09689744
15	0xbdeedb0f	-0.11662876
16	0xbd983148	-0.07431275
17	0x3d034b94	0.0320545
18	0xbd90b205	-0.070652045
19	0x3db10349	0.08643205
20	0x3dc14a36	0.09437983
21	0xbd8c83c6	-0.06861071
22	0xbdaa9e0d	-0.08330927
23	0xbc054dfe	-0.008136271
24	0xbcc27c4f	-0.023740916
25	0xbd575615	-0.05257233
26	0x3e045076	0.12921318
27	0xbd4961fb	-0.049165707
28	0x3cb5db04	0.022199161
29	0x3d2d9722	0.04238046
30	0xbdbccef4	-0.09219161
31	0xbcf3c298	-0.029755875
32	0x3df16be2	0.11788155
33	0x3c415d62	0.011802049
34	0xbd2cc705	-0.042181987
35	0x3c04ab5d	0.008097497
36	0x3de6df24	0.112730294
37	0x3de215b9	0.110392995
38	0x3d88909c	0.06668207
39	0xbcd17609	-0.025568979
40	0x3e1a0aee	0.15043232
41	0x3dc2bd5d	0.095087744
42	0xbd8f0fbb	-0.06985422
43	0x3dbedf69	0.09319956
44	0x3d344df5	0.044019658
45	0xbcbe23f6	-0.023210507
46	0x3d442688	0.04788831
47	0x3de152b8	0.110021055
48	0x3c2f6e11	0.010707394
49	0x3cdde2a4	0.02708561
50	0x3df3a41d	0.118965365
51	0xbd6b3ea3	-0.057432782
52	0xbdacc082	-0.084351555
53	0x3c7b6566	0.0153439995
54	0x3c5dba77	0.013533226
55	0xbb1f7391	-0.0024330358
56	0xbd7426d3	-0.05960734
57	0x3e0144bb	0.12623875
58	0x3dd3037e	0.103034005
59	0x3d84e999	0.06489868
60	0xbccc3ac9	-0.024930375
61	0xbddd2499	-0.10797996
62	0x3c169311	0.009190337
63	0xbd4cf5b1	-0.050038997
64	0x3d7ddad0	0.061976254
65	0x3d944440	0.0723958
66	0x3d31b27c	0.043383107
67	0xbd8046ee	-0.06263529
68	0x3baa2c75	0.005193288
69	0x3d80257a	0.06257148
70	0xbd344891	-0.044014517
71	0xbd970826	-0.07374601
72	0xbd6f8d38	-0.058484286
73	0x3d8b2ba5	0.06795434
74	0xbcdda209	-0.027054803
75	0x3bc6fc7d	0.0060725794
76	0x3d7692bd	0.060198534
77	0xbd890152	-0.06689705
78	0x3d002c88	0.03129247
79	0x3dbf182a	0.09330781
80	0xbd5180f5	-0.051148374
81	0x3dcf6be7	0.101280026
82	0xbda4f0b0	-0.0805372
83	0xbdedb6ad	-0.11607108
84	0x3d7ced28	0.061749607
85	0x3d8739c7	0.06602817
86	0x3da145a7	0.07874613
87	0xbd5af8dc	-0.053459987
88	0xbaf12acb	-0.0018399594
89	0x3e0e85fb	0.13918297
90	0xbce00c17	-0.027349515
91	0x3d77cc73	0.060497712
92	0x3d0b3ad0	0.033991635
93	0xbc95eb86	-0.018300783
94	0xbd7b47cd	-0.06134777
95	0xbdb81267	-0.08987885
96	0xbda67964	-0.08128622
97	0xbd80b0ac	-0.062836975
98	0x3ddfc924	0.109270364
99	0x3d73f086	0.059555553
100	0xbd269acf	-0.04067498
101	0xbd741a2f	-0.059595283
102	0xbd81942a	-0.06327088
103	0xbda3bfc7	-0.07995563
104	0x3d60d329	0.054888878
105	0xbcfa4f7d	-0.030555481
106	0x3bd1d041	0.0064029996
107	0xbd225029	-0.039627228
108	0x3dade26c	0.08490452
109	0x3d6e8aca	0.05823783
110	0x3be41f1d	0.006961717
111	0x3bb669d1	0.0055668135
112	0xbda7ec4c	-0.08199367
113	0xbdb668e5	-0.08906726
114	0x3c9ded64	0.019278236
115	0xbd540ebd	-0.051771868
116	0x3d8fad51	0.07015479
117	0xbd4e2fb4	-0.050338462
118	0x3cf0b5f8	0.029383644
119	0xbc2ddd0b	-0.010611783
120	0xbd70464f	-0.0586608
121	0x3b7ccc61	0.0038573968
122	0x3e087cce	0.13328859
123	0x3c5e0f5b	0.013553466
124	0xbd03bbf3	-0.032161664
125	0xbd9d6b76	-0.07686512
126	0x3d68f113	0.05687053
127	0xbde32f89	-0.11093051
128	0x3d45d4bb	0.04829858
129	0x3d11cf8e	0.03559833
130	0x3db8a46d	0.09015737
131	0x3decaa88	0.11555964
132	0x3e02013f	0.12695788
133	0x3e15be86	0.1462346
134	0x3cc5546a	0.024088103
135	0xbdb4f528	-0.08835822
136	0x3d973299	0.073826976
137	0xbd676ae5	-0.056498427
138	0xbd9b84c3	-0.07593682
139	0xbb2dfa54	-0.0026546912
140	0x3d879900	0.06620979
141	0xbdad8570	-0.08472717
142	0xbc728267	-0.014801598
143	0x3dc46b68	0.095907986
144	0x3da8d026	0.08242826
145	0xbd9fdfaf	-0.07806336
146	0xbc9e6fa7	-0.01934035
147	0x3dc87bff	0.097892754
148	0x3d5130ef	0.051072057
149	0x3c9e56bc	0.019328468
150	0x3c34aaed	0.01102708
151	0xbe17246c	-0.14759988
152	0xbe085c93	-0.13316564
153	0x3d961ce5	0.0732973
154	0xbb9d5aaf	-0.00480207
155	0x3e07ebc3	0.1327353
156	0xbd2dce66	-0.042433165
157	0x3da848c4	0.08217004
158	0xbdc83d38	-0.097773015
159	0xbd888719	-0.06666393
160	0x3d9711e9	0.07376463
161	0x3e0ad5f0	0.13558173
162	0xbdba249b	-0.09089013
163	0xbd13d4d7	-0.03609165
164	0xbdddb68a	-0.10825832
165	0x3d836c40	0.064171314
166	0x3d379077	0.044815507
167	0xbd4bab6c	-0.049724028
168	0x3d19aa98	0.037516207
169	0x3da34771	0.07972611
170	0xbdb5f1ca	-0.08884008
171	0xbdfbff12	-0.1230451
172	0xbc37942c	-0.0112047605
173	0x3dba3ec9	0.090940066
174	0xbd2d9884	-0.04238178
175	0x3dc978a9	0.09837467
176	0x3c9c003c	0.01904308
177	0x3d9f61ac	0.07782301
178	0x3c16dc14	0.009207744
179	0x3db89838	0.090134084
180	0xbd87f81f	-0.06639122
181	0x3e071107	0.13190089
182	0xbdc0a46b	-0.0940636
183	0xbd35e2ac	-0.044405624
184	0x3ca4d78b	0.02012231
185	0xbcff8108	-0.031189457
186	0xbcf01a10	-0.029309303
187	0xbdbdcae0	-0.09267211
188	0x3c9d1991	0.01917723
189	0x3c3035e0	0.010755032
190	0x3d72e312	0.059298582
191	0x3d9e4e8b	0.07729825
192	0x3cc6ff35	0.024291614
193	0xbda5ca9a	-0.08095284
194	0x3d8d97e5	0.06913737
195	0xbce29f2a	-0.027663786
196	0x3e08c7d3	0.13357477
197	0x3d22a0fd	0.03970431
198	0xbb5a99c9	-0.0033355823
199	0xba043553	-0.00050433463
200	0xbc0e21f0	-0.0086750835
201	0xbd8f5ec6	-0.070004985
202	0xbd40eeec	-0.047102854
203	0xbd4762c3	-0.04867817
204	0x3e156344	0.14588648
205	0x3ca4cf8b	0.020118495
206	0xbd1f4a11	-0.038888995
207	0x3da2bf1c	0.079466075
208	0x3ddc775e	0.10764955
209	0x3de2b607	0.11069875
210	0x3ddd21a3	0.10797431
211	0x3cb0b46a	0.021570403
212	0xbd8b3c36	-0.06798594
213	0x3e07d224	0.13263756
214	0x3debcbe7	0.11513501
215	0x3da7e749	0.08198411
216	0x3d821094	0.06350818
217	0xbd1c4c51	-0.03815872
218	0xbc512273	-0.012764561
219	0x3d33c7e3	0.0438918
220	0xbd889f66	-0.06671028
221	0x3ccc044b	0.02490439
222	0x3b6399fa	0.0034729228
223	0x3dc41df2	0.09576024
224	0xbd48183f	-0.048851248
225	0x3cd65f7f	0.026168583
226	0xbdc08a91	-0.094014294
227	0xbcb9fd63	-0.022703832
228	0x3bb34956	0.005471389
229	0x3e01faa4	0.12693268
230	0x3dbefb0a	0.09325226
231	0x3c0a120e	0.008427156
232	0x3d555e0b	0.05209164
233	0xbd26d05c	-0.04072605
234	0x3dfb4af5	0.12270156
235	0xbc521320	-0.012821943
236	0x3ca5ebab	0.020253977
237	0x3df327c8	0.11872822
238	0x3c4f12ec	0.012638789
239	0x3e4a3b92	0.19749287
240	0xbd7cb84e	-0.061699204
241	0xbd97490c	-0.073869795
242	0x3ded64ac	0.11591467
243	0x3d791e7d	0.06082009
244	0x3c88d58d	0.016703391
245	0x3bc45334	0.005991364
246	0x3dd6971d	0.10478041
247	0xbda63563	-0.081156515
248	0xbcb6f621	-0.02233416
249	0x3de45551	0.11149085
250	0xbc81ac78	-0.01582931
251	0x3e07f588	0.13277256
252	0xbda87ef4	-0.082273394
253	0xbdeb0c53	-0.1147696
254	0x3db7fabe	0.08983372
255	0xbdb6f7d1	-0.08933986
