trained_models/LSTM/LSTM_Zscore_CF5_pred_0.pth (torch, 661823 bytes, 23 tensors)

lstm.weight_ih_l0 f4 [256, 40]
0.089150965 0.027196148 0.024039268 0.06811425 -0.07831248 -0.00854846 -0.07077281 0.08374717
0.10428706 -0.015580021 0.02279766 -0.07258613 0.070579626 -0.054172758 0.0021745868 0.037980545
0.041289005 -0.0447236 0.09937692 0.09519413 0.039811935 0.012219413 0.08376553 -0.067781635
0.061483294 0.1221129 -0.07616546 -0.0040265494 0.069996916 -0.022837734 0.10963826 0.086690515
-0.117435515 0.10831243 -0.11044887 -0.15618993 0.09008388 -0.12691835 0.12210405 0.10526911
-0.07216182 0.098991886 -0.08347299 -0.0085615525 -0.006928002 -0.050769273 0.07093497 0.05369416
-0.11934346 -0.080012865 -0.08721327 -0.011428014 -0.079978615 -0.087816335 -0.11563743 0.041121054
-0.10214824 -0.080103554 -0.06134482 0.009454726 0.09419116 0.13452594 -0.12010538 0.03643223
-0.047502737 0.03177675 -0.13954525 -0.06597399 -0.0476808 -0.024531802 0.058570202 -0.017153133
-0.0018273297 -0.012370689 -0.08118277 -0.08759428 -0.15026708 0.027922679 -0.13997401 0.09586128
0.05297501 0.13293126 -0.07142172 0.082923144 0.09576822 -0.041779682 0.080755726 0.115929164
0.089411475 -0.014937334 0.042949118 -0.05986245 -0.0045410194 0.082560726 -0.05013548 0.0104944585
0.0108909765 -0.036038354 0.015389202 0.06420989 -0.086102225 -0.090350196 0.11199092 0.013766473
-0.044642307 -0.036338747 0.1247494 -0.029598026 0.040267527 -0.036730614 0.13094437 -0.016465563
0.050433833 0.05107294 0.011688663 -0.15211609 0.06795488 -0.021850763 -0.01040917 0.024696538
0.07685188 0.06691992 0.023515277 -0.010027988 -0.007917997 0.09937824 -0.053015895 0.049872536
-0.008980927 0.035062667 -0.036529012 -0.12096605 -0.0047056065 0.0815748 0.10051445 -0.07748448
0.05460064 -0.11949383 -0.0050635827 -0.104742154 0.059543252 -0.023085363 0.11582536 -0.10871329
-0.08602481 0.09542789 -0.064062215 -0.03263666 -0.047601115 0.071357846 0.056216 -0.04706507
0.046428703 -0.09427722 -0.03711971 -0.13681287 -0.07886498 0.09681182 -0.05098579 -0.11392375
0.13694592 0.046834182 0.03272549 -0.16180006 -0.061505605 -0.01523947 -0.0121784555 -0.10403919
0.15684119 -0.1358652 -0.0034998308 -0.07492564 0.0036538006 0.07248994 -0.059610024 0.033503182
0.14329928 -0.12988542 0.043230224 0.013232388 0.004937479 -0.15799148 0.05465435 0.06001229
0.15697029 -0.11145153 0.016303245 0.061902177 0.119363196 -0.12056611 0.10026429 -0.06584776
0.11209821 -0.044471584 0.12476183 0.058100708 -0.047529917 -0.03235769 0.017053023 0.09333247
-0.13807191 0.12063773 -0.14307061 0.10641092 -0.012383139 0.119334035 -0.06318277 -0.051777944
-0.035652425 0.038525414 0.0885238 0.10805349 -0.124029435 -0.07979153 -0.10383216 0.022375653
-0.07595517 -0.08090503 0.014612531 -0.013945253 -0.03822182 0.12824243 -0.01564745 -0.06589001
0.059506126 3.2859407e-05 -0.13731734 -0.012544583 0.034570992 0.1943447 -0.052652225 -0.018830458
-0.0011457237 0.117696226 0.0060587237 -0.007825537 0.0074133878 -0.03701976 -0.0749692 0.113839544
-0.014566335 -0.06267927 -0.074714944 0.06332322 0.15129218 0.005808409 0.15254246 0.08472231
0.08363234 -0.11918632 0.03201848 -0.006922039 0.1047179 -0.0482676 -0.08719079 0.09347241
00000000: c894 b63d 75ca de3c 00ee c43c 7c7f 8b3d
00000010: 4b62 a0bd d70e 0cbc 56f1 90bd a383 ab3d
00000020: 7494 d53d 5843 7fbc 29c2 ba3c 09a8 94bd
00000030: 0d8c 903d 41e4 5dbd 8383 0e3b 7d91 1b3d
00000040: a91e 293d 1830 37bd 2086 cb3d 24f5 c23d
00000050: d711 233d ef33 483c 438d ab3d 19d1 8abd
00000060: e8d5 7b3d 5416 fa3d a3fc 9bbd 25f1 83bb
00000070: 8b5a 8f3d 3316 bbbc 068a e03d cc8a b13d
00000080: 0882 f0bd e8d2 dd3d 0433 e2bd 41f0 1fbe
00000090: e67d b83d e2f6 01be b011 fa3d 5597 d73d
000000a0: 94c9 93bd 42bc ca3d e3f3 aabd c145 0cbc
000000b0: 4b04 e3bb 71f3 4fbd 5b46 913d 68ee 5b3d
000000c0: 586a f4bd c9dd a3bd df9c b2bd 913c 3bbc
000000d0: d4cb a3bd 0dd9 b3bd 51d3 ecbd 8d6e 283d
000000e0: 1933 d1bd 550d a4bd b544 7bbd ffe7 1a3c
000000f0: 4be7 c03d 2bc1 093e cff9 f5bd f639 153d
00000100: 3b92 42bd 5628 023d f3e4 0ebe 5f1d 87bd
00000110: f14c 43bd ebf6 c8bc 4fe7 6f3d ba84 8cbc
00000120: 0383 efba 6eae 4abc 2743 a6bd a164 b3bd
00000130: 9ddf 19be 1abe e43c 5955 0fbe eb52 c43d
00000140: 53fc 583d 221f 083e 8d45 92bd 9cd3 a93d
00000150: 2122 c43d 2c21 2bbd 4263 a53d 456c ed3d
00000160: 5d1d b73d b8bb 74bc 6aeb 2f3d 5432 75bd
00000170: d5cc 94bb 9915 a93d dc5a 4dbd f3f0 2b3c
00000180: 1170 323c f49c 13bd fe22 7c3c 7a80 833d
00000190: 5d56 b0bd 8609 b9bd 7f5b e53d c68c 613c
000001a0: dada 36bd f0d7 14bd 9d7c ff3d 8f77 f2bc
000001b0: 90ef 243d d772 16bd 4816 063e cae2 86bc
000001c0: b593 4e3d dc31 513d ce81 3f3c 52c4 1bbe
000001d0: ee2b 8b3d 5f00 b3bc 398b 2abc 6550 ca3c
000001e0: 8564 9d3d 500d 893d 1ca3 c03c 6e4c 24bc
000001f0: 7dba 01bc d286 cb3d 3227 59bd 2547 4c3d
00000200: bd24 13bc df9d 0f3d 729f 15bd 0cbd f7bd
00000210: 7d31 9abb b010 a73d 85da cd3d 2fb0 9ebd
00000220: eca4 5f3d 2eb9 f4bd 69ec a5bb 0e83 d6bd
00000230: a0e3 733d 841d bdbc d935 ed3d 13a5 debd
00000240: c72d b0bd b36f c33d 0d33 83bd 05ae 05bd
00000250: 63f9 42bd 1024 923d c042 663d 4ec7 40bd
00000260: 062c 3e3d 6a14 c1bd d60a 18bd ac18 0cbe
00000270: f683 a1bd 4745 c63d 7ad6 50bd db50 e9bd
00000280: 8d3b 0c3e 33d5 3f3d 2a0b 063d eaae 25be
00000290: 4ded 7bbd f8ae 79bc 2588 47bc 8012 d5bd
000002a0: fa9a 203e 3f20 0bbe 6b5d 65bb 9d72 99bd
000002b0: 9a74 6f3b 9b75 943d a429 74bd a23a 093d
000002c0: 0cbd 123e af00 05be 2d12 313d a8cc 583c
000002d0: 93ca a13b 85c8 21be 3ddd 5f3d 72cf 753d
000002e0: d2bc 203e b340 e4bd 628e 853c 238d 7d3d
000002f0: b174 f43d 5deb f6bd 5d57 cd3d 31db 86bd
00000300: bf93 e53d d627 36bd 2183 ff3d 02fb 6d3d
00000310: bbae 42bd 7f89 04bd c8b2 8b3c 1825 bf3d
00000320: b962 0dbe ea10 f73d 1a81 12be f8ed d93d
00000330: a6e2 4abc 6765 f43d f865 81bd 1c15 54bd
00000340: 4708 12bd d3cc 1d3d f74b b53d 264b dd3d
00000350: 2503 febd be69 a3bd f5a5 d4bd 254d b73c
00000360: 628e 9bbd 89b1 a5bd 6669 6f3c a17a 64bc
00000370: 7c8e 1cbd fc51 033e 152f 80bc 57f1 86bd
00000380: b2bc 733d 85d2 0938 eb9c 0cbe cb87 4dbc
00000390: 509a 0d3d 4c02 473e dca9 57bd 5542 9abc
000003a0: 1c2c 96ba b80a f13d 4288 c63b ae36 00bc
000003b0: 01ec f23b 08a2 17bd 7489 99bd b524 e93d
000003c0: a3a7 6ebc fd5d 80bd 2604 99bd 9baf 813d
000003d0: 56ec 1a3e 7754 be3b 1734 1c3e e482 ad3d
000003e0: 6f47 ab3d f517 f4bd cf25 033d 46d2 e2bb
000003f0: 5776 d63d 3fb4 45bd 1691 b2bd 776e bf3d

lstm.weight_hh_l0 f4 [256, 64]
0.045914788 0.00561489 -0.06178703 0.1124333 -0.166524 0.020810345 0.11318297 0.0490454
-0.08242278 0.081019156 -0.14555477 -0.004533685 -0.09955345 0.108239375 0.06325373 -0.066667415
-0.11223874 0.0066529214 -0.009687834 -0.023745138 0.14026864 -0.035748538 -0.10560642 -0.050189987
0.10340467 0.013541137 0.011953173 -0.04949318 0.11184064 -0.06280724 0.056037676 -0.009089767
-0.09832999 -0.050641492 0.054465175 -0.034793947 0.123423204 -0.11133016 0.07701479 0.0027064686
0.12053563 0.06499323 0.09375762 0.07892881 -0.040559515 0.12683429 0.030905226 -0.03739918
0.050661698 0.07750344 -0.09509461 -0.09158994 -0.044762716 0.08234804 0.13617404 -0.07446542
-0.105480716 -0.092487246 0.08100406 0.0007987253 0.115430616 -0.09979842 -0.07127358 -0.0435971
0.00802573 -0.07146603 -0.042452086 -0.098500825 0.05684611 -0.06545114 0.01206955 0.027491326
-0.082909085 -0.011334792 0.01787215 0.024725907 -0.1466034 -0.021895569 0.01130396 -0.08090082
0.009868553 0.094975665 0.043245718 -0.054979473 -0.06333409 0.010752875 -0.09573728 0.07693838
-0.03551395 0.05682704 -0.0025385462 0.0070974464 0.06286541 0.13268067 -0.07255921 0.047237985
0.100298926 -0.09667408 0.025187619 0.0107394615 0.050891206 -0.075047284 -0.069437616 0.122805774
0.08176455 -0.019689249 -0.0781755 -0.088567846 -0.08328258 0.09474939 0.11713926 -0.08917776
0.0069129383 -0.025082605 -0.11776975 -0.10114866 0.12391711 -0.12594725 0.112112865 0.016733672
0.07878991 -0.0066210693 -0.03573104 0.028489552 0.1143058 0.0050557195 -0.028060338 -0.06585993
-0.05052548 -0.007348043 0.087727085 -0.020657806 -0.024710132 0.015096612 -0.0871043 -0.07425753
0.15262786 0.04732237 -0.08737154 -0.060113594 0.013911331 0.028965047 -0.038771898 0.05659499
0.101762906 0.0004902687 0.028226836 0.092644766 -0.0024895826 0.053043295 -0.13898447 0.08524839
-0.013610357 -0.12602012 -0.05770431 -0.06248891 0.074757345 -0.117943384 0.0658331 0.066834144
0.031505 -0.10653768 0.11587976 0.09701838 -0.015646232 -0.015979705 0.021659443 -0.038073465
-0.08084898 0.045000043 -0.052386902 -0.002199579 0.052828453 -0.06155573 0.1579132 0.04503004
0.018900724 0.06252952 -0.015409277 0.0057357564 0.0324419 0.10013051 -0.024195757 -0.009658235
-0.0663097 -0.07368836 0.06332809 -0.11108908 -0.029737277 0.025070185 0.07641908 -0.055821896
-0.042231347 0.018421873 0.016950369 -0.01469388 -0.09309176 0.114040814 0.01017494 0.012468816
0.024887687 -0.07448877 -0.05573167 -0.08324912 0.08415014 -0.01866532 0.13050023 0.035078302
0.08579726 0.09145831 0.13552538 0.07608799 0.13067003 0.042645417 0.1412362 -0.09315749
-0.0698944 -0.017067384 0.049649905 0.00020574623 -0.036697794 -0.13286488 -0.06557326 0.0069900784
-0.045953922 -0.06394587 -0.07871146 -0.023540111 0.026323326 0.025421452 0.097155705 -0.044841547
0.0030771035 -0.0682437 0.10816492 -0.16824213 -0.124095984 0.13767864 0.028793097 0.16613859
0.021707442 -0.12735309 0.04769196 0.0973657 0.06403128 0.055106193 -0.022989154 0.10268813
0.12239403 0.009148883 0.105881065 -0.06230851 -0.0676492 0.05313251 0.09647513 -0.13266906
00000000: 2511 3c3d 1cfd b73b 6614 7dbd 6e43 e63d
00000010: 4485 2abe 757a aa3c 79cc e73d d4e3 483d
00000020: 46cd a8bd 5fed a53d 4f0c 15be 4e8f 94bb
00000030: aee2 cbbd 9bac dd3d 2c8b 813d ed88 88bd
00000040: 6ddd e5bd c000 da3b b9b9 1ebc 2a85 c2bc
00000050: 95a2 0f3e 0f6d 12bd 2e48 d8bd 0494 4dbd
00000060: d4c5 d33d a5db 5d3c 3ed7 433c 5cb9 4abd
00000070: b50c e53d 15a1 80bd c387 653d 3fed 14bc
00000080: 3c61 c9bd 746d 4fbd e016 5f3d 1984 0ebd
00000090: 4ec5 fc3d 1101 e4bd eeb9 9d3d 025f 313b
000000a0: 62db f63d 2c1b 853d ff03 c03d 6ea5 a13d
000000b0: bc21 26bd d9e0 013e f52c fd3c e22f 19bd
000000c0: a482 4f3d 20ba 9e3d f6c0 c2bd 8293 bbbd
000000d0: 1c59 37bd 17a6 a83d 3571 0b3e 5381 98bd
000000e0: 4606 d8bd f469 bdbd 75e5 a53d 8c61 513a
000000f0: e366 ec3d 1d63 ccbd e2f7 91bd df92 32bd
00000100: 5a7e 033c c85c 92bd 3de2 2dbd cdba c9bd
00000110: 77d7 683d 3f0b 86bd 5dbf 453c 7d35 e13c
00000120: 3dcc a9bd 90b5 39bc 9d68 923c fc8d ca3c
00000130: 341f 16be 565e b3bc 3f34 393c 54af a5bd
00000140: b6af 213c 9a82 c23d 6c22 313d 2832 61bd
00000150: 4eb5 81bd d42c 303c e811 c4bd df91 9d3d
00000160: 1377 11bd 78c3 683d bd5d 26bb b291 e83b
00000170: 94bf 803d 71dd 073e ec99 94bd 9e7c 413d
00000180: 8669 cd3d 0ffd c5bd 4456 ce3c 91f4 2f3c
00000190: 4c73 503d 64b2 99bd 4f35 8ebd 9881 fb3d
000001a0: 2c74 a73d 594b a1bc 7a1a a0bd 0f63 b5bd
000001b0: 0f90 aabd f80b c23d b5e6 ef3d d4a2 b6bd
000001c0: ee85 e23b 097a cdbc 4431 f1bd 0727 cfbd
000001d0: 41c8 fd3d 51f8 00be 6e9b e53d 0e15 893c
000001e0: 9b5c a13d 8ef5 d8bb b65a 12bd ec62 e93c
000001f0: 2919 ea3d 73aa a53b cbde e5bc 92e1 86bd
00000200: cef3 4ebd dac7 f0bb 42aa b33d 8f3a a9bc
00000210: e76c cabc c857 773c bd63 b2bd 5514 98bd
00000220: 7a4a 1c3e 1ad5 413d daef b2bd ac39 76bd
00000230: 5aec 633c 1b48 ed3c 48cf 1ebd 26d0 673d
00000240: 1269 d03d 6085 003a f73b e73c 8abc bd3d
00000250: 4428 23bb ed43 593d f251 0ebe b596 ae3d
00000260: fafd 5ebc 6b0b 01be 5b5b 6cbd 5ff4 7fbd
00000270: 611a 993d 4d8c f1bd 81d3 863d 57e0 883d
00000280: 630b 013d 6d30 dabd 5e52 ed3d 93b1 c63d
00000290: 872c 80bc dfe7 82bc 256f b13c ecf2 1bbd
000002a0: 2694 a5bd f751 383d a693 56bd d026 10bb
000002b0: a662 583d dc21 7cbd ffb3 213e 6b71 383d
000002c0: b1d5 9a3c 7a0f 803d 3177 7cbc 03f3 bb3b
000002d0: cce1 043d 3a11 cd3d 2e36 c6bc 933d 1ebc
000002e0: 61cd 87bd ece9 96bd 28b2 813d ac82 e3bd
000002f0: 979b f3bc fd5f cd3c 9b81 9c3d 80a5 64bd
00000300: c7fa 2cbd 78e9 963c 80db 8a3c 9abe 70bc
00000310: e5a6 bebd 3b8e e93d cbb4 263c 014a 4c3c
00000320: 43e1 cb3c 918d 98bd e446 64bd 847e aabd
00000330: e956 ac3d 03e8 98bc daa1 053e 44ae 0f3d
00000340: 79b6 af3d 7f4e bb3d 2ac7 0a3e 05d4 9b3d
00000350: 5dce 053e f6ac 2e3d 39a0 103e 5bc9 bebd
00000360: cc24 8fbd e6d0 8bbc b35d 4b3d 95bd 5739
00000370: 6d50 16bd bb0d 08be 464b 86bd 070d e53b
00000380: 2e3a 3cbd 0df6 82bd 7933 a1bd 31d7 c0bc
00000390: 04a4 d73c a640 d03c 92f9 c63d c5ab 37bd
000003a0: 3ba9 493b 5ac3 8bbd 9285 dd3d aa47 2cbe
000003b0: 0926 febd a1fb 0c3e 80df eb3c 3c20 2a3e
000003c0: ced3 b13c d968 02be a558 433d ab67 c73d
000003d0: d522 833d 08b7 613d c053 bcbc 284e d23d
000003e0: b9a9 fa3d 32e5 153c 2cd8 d83d 3537 7fbd
000003f0: aa8b 8abd 7aa1 593d c194 c53d 66da 07be

lstm.bias_ih_l0 f4 [256]
-0.02041257 -0.08902164 -0.08476907 -0.03316607 0.0314806 -0.039696027 0.0034049214 -0.14330974
0.03182944 -0.03347167 -0.0076470873 -0.0046060504 -0.092402615 0.037220605 0.12602673 -0.031833377
-0.03465556 0.110150926 0.08785958 -0.064338185 0.04948877 -0.10458592 0.0330857 0.12535028
0.012385625 0.020423014 -0.07121202 0.055309076 0.10534573 0.104920045 0.15808737 0.14742279
-0.025509082 0.06136462 0.06323119 0.064321764 0.078664824 0.058041573 -0.04264317 0.062181756
0.12971725 -0.0032647317 0.029154766 -0.049233723 0.045524403 0.16297252 -0.111074835 -0.06454103
-0.015914705 0.07226207 0.070088804 0.12061535 0.06983796 -0.034756947 0.04033605 0.022920499
-0.055172388 -0.0082157785 -0.10095372 0.006173571 -0.09282549 -0.07095396 0.10276973 -0.11475286
0.03969184 -0.100567564 0.053690482 0.14233921 0.10954188 -0.0009018945 -0.04106343 0.046753623
-0.011687419 -0.10920161 -0.016795905 -0.06392437 -0.058613207 -0.008921596 0.13395321 -0.039657723
-0.017143963 -0.039450526 0.065098196 0.1341259 -0.05614828 -0.045250293 0.09994333 0.08487261
0.022695577 0.13097374 -0.04600992 -0.04589991 0.119784094 -0.040908642 0.13023588 0.07511863
0.041024677 -0.06541977 0.016197149 -0.06829941 0.08881014 -0.09603063 0.009557232 0.062288366
0.13863906 0.09115388 0.014764994 -0.07047254 0.13606542 0.03948267 0.11214883 0.14026348
0.119896434 0.041975193 -0.07454724 -0.001354433 0.11643384 -0.097689755 -0.02432589 -0.10397172
-0.049056515 -0.029224178 -0.12380283 0.082762584 0.10748241 -0.05637636 0.017913856 -0.071071416
0.104986414 0.15098672 -0.06935602 0.116393425 -0.11789316 0.017995663 0.035335597 -0.005283576
0.05816318 0.16893855 -0.041004438 -0.041864727 0.009091188 0.009981596 -0.112822525 -0.06295517
0.024176598 -0.07515766 0.047622085 0.096596815 0.055818915 -0.012546456 0.011487017 0.04898856
-0.10830541 -0.08635986 0.09415524 0.09676889 0.06956006 -0.05097075 0.023310607 0.12823401
0.09682646 -0.008427722 -0.005079328 0.13841125 0.11390417 0.018659607 0.03642959 0.032936856
0.023757739 0.003911268 0.060035795 -0.116313666 0.09595892 0.05488956 0.12938823 0.024802286
0.052053876 -0.053600967 -0.09505046 -0.069920674 0.058244236 0.0045837653 0.1571001 0.07978825
0.0942089 0.09698911 0.022640422 -0.047350496 -0.051001348 -0.017979408 -0.06047462 -0.10418547
0.0068697 -0.015425933 0.15856804 -0.041388072 0.016822318 0.03699653 -0.060447134 -0.14028284
0.017613491 0.043344636 0.020426909 0.011704962 0.11623993 -0.10622852 -0.08894215 0.05760378
-0.051595107 -0.05452595 0.0802561 -0.055716712 0.1946436 -0.09798641 -0.122555204 0.14329205
-0.093357176 0.07076589 0.034808543 0.06350468 0.14769027 -0.055971835 0.14910293 0.10826132
0.09407444 -0.09203039 0.12252829 0.11636177 0.13847798 -0.04676117 0.05138961 0.030453969
0.091069676 0.07500457 0.07145917 -0.07783474 -0.095772795 0.07970382 -0.10745949 0.09926983
-0.0143886125 0.088689044 0.012720075 0.06488326 -0.11536165 0.010763086 0.08573117 0.03908325
-0.045835562 0.11326037 -0.120648056 -0.016243301 -0.12620811 -0.1157293 0.11987311 0.009720092
00000000: 4338 a7bc fa50 b6bd 689b adbd 25d9 07bd
00000010: cdf1 003d 4d98 22bd 1a25 5f3b cabf 12be
00000020: 965f 023d 9719 09bd 6b94 fabb 5aee 96bb
00000030: 953d bdbd a274 183d 270d 013e b763 02bd
00000040: fdf2 0dbd cf96 e13d b9ef b33d bdc3 83bd
00000050: bdb4 4a3d 2531 d6bd df84 073d d35b 003e
00000060: 14ed 4a3c 2a4e a73c 9cd7 91bd c58b 623d
00000070: 81bf d73d 52e0 d63d a8e1 213e 00f6 163e
00000080: 6cf8 d0bc 7859 7b3d 5b7f 813d 21bb 833d
00000090: 061b a13d 00bd 6d3d 9baa 2ebd 4cb2 7e3d
000000a0: 99d4 043e 1cf5 55bb fad5 ee3c 4da9 49bd
000000b0: cc77 3a3d 45e2 263e 347b e3bd 162e 84bd
000000c0: 8e5f 82bc 23fe 933d b88a 8f3d 2e05 f73d
000000d0: 3407 8f3d 4d5d 0ebd 6a37 253d c5c3 bb3c
000000e0: 71fc 61bd 799b 06bc d3c0 cebd ab4b ca3b
000000f0: 4a1b bebd 4f50 91bd f078 d23d 8c03 ebbd
00000100: e993 223d 5ef6 cdbd 8dea 5b3d 5fc1 113e
00000110: 7e57 e03d 1e6d 6cba 2132 28bd ba80 3f3d
00000120: 977c 3fbc 18a5 dfbd 9197 89bc c8ea 82bd
00000130: 6714 70bd e32b 12bc 082b 093e 2370 22bd
00000140: 7f71 8cbc e096 21bd 3452 853d 4d58 093e
00000150: bdfb 65bd 5f58 39bd 17af cc3d b1d1 ad3d
00000160: 13ec b93c fb1d 063e e674 3cbd 8b01 3cbd
00000170: 5d51 f53d d28f 27bd 8e5c 053e ccd7 993d
00000180: 7e09 283d cdfa 85bd e2af 843c 90e0 8bbd
00000190: 17e2 b53d b5ab c4bd f095 1c3c 1622 7f3d
000001a0: 66f7 0d3e e3ae ba3d e0e8 713c e853 90bd
000001b0: bc54 0b3e 95b8 213d 49ae e53d 3ba1 0f3e
000001c0: 438c f53d 2eee 2b3d 39ac 98bd 3b87 b1ba
000001d0: dd74 ee3d 9111 c8bd 1747 c7bc 20ef d4bd
000001e0: 7cef 48bd 8b67 efbc 578c fdbd 6e7f a93d
000001f0: bd1f dc3d e6ea 66bd 14c0 923c e48d 91bd
00000200: 1e03 d73d 439c 1a3e 870a 8ebd ad5f ee3d
00000210: f871 f1bd a46b 933c 0fbc 103d d921 adbb
00000220: 843c 6e3d 3afe 2c3e 45f4 27bd 597a 2bbd
00000230: 35f3 143c d989 233c 7f0f e7bd a4ee 80bd
00000240: 000e c63c 42ec 99bd 600f 433d 8dd4 c53d
00000250: 60a2 643d a78f 4dbc 0b34 3c3c 3aa8 483d
00000260: 3acf ddbd 70dd b0bd 76d4 c03d c52e c63d
00000270: 8175 8e3d b5c6 50bd e3f5 be3c c74f 033e
00000280: f34c c63d 6e14 0abc 7e70 a6bb aebb 0d3e
00000290: 9746 e93d 08dc 983c 3237 153d cce8 063d
000002a0: 979f c23c 182a 803b 18e8 753d dc35 eebd
000002b0: 1c86 c43d e0d3 603d 597e 043e 2a2e cb3c
000002c0: 7236 553d b08c 5bbd d1a9 c2bd 9232 8fbd
000002d0: 8291 6e3d 6933 963b d9de 203e 0668 a33d
000002e0: 99f0 c03d 3aa2 c63d 6878 b93c 98f2 41bd
000002f0: cae6 50bd 8d49 93bc 3cb4 77bd 315f d5bd
00000300: 381b e13b 0dbd 7cbc a95f 223e 8a86 29bd
00000310: f5ce 893c ac89 173d 6a97 77bd 4ea6 0fbe
00000320: 2b4a 903c 258a 313d 5556 a73c 2bc6 3f3c
00000330: 330f ee3d 578e d9bd 4d27 b6bd f1f1 6b3d
00000340: 6455 53bd 9a56 5fbd 4f5d a43d 3537 64bd
00000350: a750 473e 19ad c8bd 39fe fabd 27bb 123e
00000360: 0c32 bfbd b5ed 903d 6793 0e3d be0e 823d
00000370: 1e3c 173e b942 65bd 70ae 183e 1cb8 dd3d
00000380: 1aaa c03d 6e7a bcbd 1df0 fa3d 144f ee3d
00000390: 2ccd 0d3e a488 3fbd e97d 523d 9a7a f93c
000003a0: bd82 ba3d ff9b 993d 2f59 923d d267 9fbd
000003b0: 8724 c4bd c23b a33d b913 dcbd fb4d cb3d
000003c0: 37be 6bbc 9aa2 b53d dd67 503c 84e1 843d
000003d0: bb42 ecbd a857 303c d393 af3d c215 203d
000003e0: 12be 3bbd 0ef5 e73d 5416 f7bd ac10 85bc
000003f0: b33c 01be 7c03 edbd 0880 f53d 0541 1f3c

lstm.bias_hh_l0 f4 [256]
-0.05826253 -0.05442548 0.010204103 0.060512625 -0.025740322 -0.0027491597 -0.020201517 -0.0020374418
-0.14229128 0.011907478 -0.09180983 -0.031783953 -0.074443094 0.12835658 0.124611765 0.07362661
0.12357426 0.0068021175 0.052888136 -0.014676379 -0.046937574 -0.109174155 0.03552207 -0.063975476
0.09354863 0.048350867 0.04910611 0.031248976 -0.08279634 -0.06436596 -0.08313948 -0.029865896
0.091250926 -0.030304646 0.057551168 0.07704546 -0.029508665 -0.067968264 -0.011382178 -0.037180837
-0.042215437 0.018215856 0.10473204 -0.086143255 0.026417898 0.033212624 0.044077825 0.011214277
0.086557485 -0.11482244 -0.098577745 -0.08941229 0.118831895 -0.05003697 0.023580136 0.07492613
-0.03767071 -0.08706237 -0.073985875 0.12003895 -0.10835922 -0.06445346 -0.040317442 -0.01907499
-0.06991113 -0.10895656 0.007174918 -0.06435888 0.061742157 -0.049746554 0.061601568 0.08509441
-0.051490497 -0.02975929 -0.03630522 -0.043053284 0.04679642 0.02495996 -0.07419476 0.09489436
0.034784403 -0.031970143 0.10266562 0.04668142 -0.013981534 -0.060370184 -0.09634642 -0.06116675
0.13266572 -0.017948722 0.004668945 0.055938844 -0.07892952 0.0568433 -0.049076855 0.15983205
0.068128005 0.12616093 -0.057020567 -0.022302933 0.0036818164 -0.04655537 -0.020999976 0.020106569
0.04333375 0.0131853605 0.00447738 0.081957325 -0.068679765 -0.04821182 -0.10649291 -0.065768175
0.0819739 0.0927026 0.031207645 0.13648342 -0.11417168 -0.04361472 0.06971015 0.11336751
0.02880124 0.036050167 0.09384029 -0.052452195 -0.12630065 0.056912195 0.13201228 -0.06183087
-0.07660216 0.14139895 -0.05079842 0.101498984 0.060580645 0.07572644 -0.03465698 0.03143565
0.019076725 -0.061765112 -0.071267866 -0.054780763 -0.0123492265 0.05381527 0.025945352 0.101095855
-0.12462664 -0.004094651 0.06493501 0.07509672 -0.04856631 0.10928263 -0.03479611 0.029137343
-0.018817142 0.089264736 -0.043812975 0.034991894 -0.032931954 -0.05138542 0.042868637 0.021233572
0.034790456 -0.038914822 -0.07485731 0.06666071 -0.11228485 -0.1301033 0.12857932 0.07334866
0.028547399 -0.090040304 0.087139845 -6.874286e-05 0.004903903 0.06865786 0.13361086 -0.10475397
-0.05268071 0.12386127 -0.047420844 0.04090752 0.119879685 -0.091791935 -0.048647877 -0.016140172
-0.13216197 0.09229073 -0.03592252 -0.03121907 0.009895902 -0.002797772 -0.0013374286 0.053962763
0.10015493 0.0013820749 0.04188502 -0.0547581 0.097647935 -0.08435742 0.13003188 0.09379735
-0.1099152 -0.07617757 0.12837455 -0.08430878 0.011726185 0.009429814 0.09690208 0.06251454
-0.029677046 -0.048181176 -0.04117653 0.15085967 0.14998785 0.0333362 -0.03914523 0.09690447
0.11168711 0.065306894 0.124060564 -0.006976971 0.100561045 -0.016241878 0.01631746 0.029620571
0.017785853 -0.027363447 -0.09437359 -0.05020562 0.14541729 -0.07785768 0.12079556 -0.056551956
0.17833105 0.0059266645 0.13388418 0.11113778 -0.10537351 -0.011624824 -0.1045276 0.030285921
0.08927293 0.11197093 0.0568534 0.08362255 -0.06638161 0.052302495 -0.06962528 0.013680191
-0.057874408 0.08274305 -0.0035502107 0.0102192005 0.11566803 -0.074065246 0.046891376 -0.054394186
00000000: b1a4 6ebd 41ed 5ebd 1c2f 273c 16dc 773d
00000010: 5edd d2bc 3f2b 34bb a77d a5bc 9a86 05bb
00000020: ceb4 11be 9517 433c cb06 bcbd e42f 02bd
00000030: 9f75 98bd e86f 033e 7434 ff3d 8cc9 963d
00000040: 8014 fd3d 4ce4 de3b 3ba1 583d 3275 70bc
00000050: 9d41 40bd b396 dfbd 977f 113d 9305 83bd
00000060: 6d96 bf3d 8f0b 463d 7d23 493d dafd ff3c
00000070: 2191 a9bd 4dd2 83bd 0845 aabd 53a9 f4bc
00000080: c4e1 ba3d 7341 f8bc c6ba 6b3d 03ca 9d3d
00000090: 28bc f1bc f232 8bbd 517c 3abc ef4a 18bd
000000a0: 18ea 2cbd 6b39 953c c07d d63d e06b b0bd
000000b0: 596a d83c f609 083d f38a 343d 16bc 373c
000000c0: 0d45 b13d 0728 ebbd 21e3 c9bd ca1d b7bd
000000d0: 235e f33d 91f3 4cbd 212b c13c df72 993d
000000e0: 9a4c 1abd c14d b2bd e885 97bd fbd6 f53d
000000f0: 70eb ddbd 2d00 84bd e723 25bd 2743 9cbc
00000100: 912d 8fbd 9e24 dfbd 931b eb3b 97ce 83bd
00000110: 58e5 7c3d 0bc3 4bbd ed51 7c3d fa45 ae3d
00000120: b3e7 52bd c1c9 f3bc c8b4 14bd a458 30bd
00000130: 9aad 3f3d d478 cc3c 6cf3 97bd f957 c23d
00000140: 177a 0e3d 20f3 02bd 5a42 d23d 0435 3f3d
00000150: ce12 65bc ba46 77bd 4651 c5bd fc89 7abd
00000160: 86d9 073e 3309 93bc f3fd 983b 2120 653d
00000170: cda5 a1bd 85d4 683d d004 49bd 03ab 233e
00000180: b286 8b3d 5530 013e 668e 69bd a4b4 b6bc
00000190: a14a 713b d8b0 3ebd 2408 acbc 88b6 a43c
000001a0: bb7e 313d 6907 583c fcb6 923b 3ed9 a73d
000001b0: faa7 8cbd c279 45bd f418 dabd 77b1 86bd
000001c0: efe1 a73d dcda bd3d 2da7 ff3c 4fc2 0b3e
000001d0: d7d2 e9bd 59a5 32bd 32c4 8e3d 3a2d e83d
000001e0: 94f0 eb3c 57a9 133d 572f c03d 1dd8 56bd
000001f0: f554 01be c31c 693d 3a2e 073e 5e42 7dbd
00000200: 98e1 9cbd e3ca 103e 0112 50bd b3de cf3d
00000210: 6923 783d 7716 9b3d 7af4 0dbd abc2 003d
00000220: cb46 9c3c 6afd 7cbd e3f4 91bd cb61 60bd
00000230: 6954 4abc 676d 5c3d 598b d43c 580b cf3d
00000240: 403c ffbd 6c2c 86bb a6fc 843d 4fcc 993d
00000250: 78ed 46bd 92cf df3d 5e86 0ebd 70b1 ee3c
00000260: 6826 9abc 6ed0 b63d 3c75 33bd a953 0f3d
00000270: a8e3 06bd 8579 52bd 0697 2f3d 07f2 ad3c
00000280: 7080 0e3d 2665 1fbd ca4e 99bd 6985 883d
00000290: 99f5 e5bd cd39 05be 4caa 033e d237 963d
000002a0: 3cdc e93c 0d67 b8bd 6076 b23d 0b2a 90b8
000002b0: ecb0 a03b 7e9c 8c3d 49d1 083e 4089 d6bd
000002c0: bac7 57bd faaa fd3d 5c3c 42bd a58e 273d
000002d0: 7b83 f53d 69fd bbbd ff42 47bd 6538 84bc
000002e0: 7855 07be ec02 bd3d 7e23 13bd 23bf ffbc
000002f0: 6c22 223c d35a 37bb a84c afba 0f08 5d3d
00000300: 071e cd3d bd26 b53a a08f 2b3d 084a 60bd
00000310: a4fb c73d 95c3 acbd 1427 053e d318 c03d
00000320: 381b e1bd fc02 9cbd 9e74 033e 15aa acbd
00000330: 2f1f 403c 827f 1a3c 9974 c63d a007 803d
00000340: 471d f3bc a059 45bd b9a8 28bd f57a 1a3e
00000350: 6a96 193e 8a8b 083d c056 20bd da75 c63d
00000360: 36bc e43d 9fbf 853d 7713 fe3d 139f e4bb
00000370: f3f2 cd3d b00d 85bc 32ac 853c d7a6 f23c
00000380: a3b3 913c 4f29 e0bc f146 c1bd 68a4 4dbd
00000390: 45e8 143e d973 9fbd aa63 f73d 06a3 67bd
000003a0: 6a9c 363e 7734 c23b ef18 093e 349c e33d
000003b0: 11ce d7bd 0c76 3ebc 9112 d6bd 2e1a f83c
000003c0: bad4 b63d 0451 e53d 1cdf 683d 4d42 ab3d
000003d0: 15f3 87bd 243b 563d b397 8ebd e122 603c
000003e0: b70d 6dbd 3075 a93d a7aa 68bb 6f6e 273c
000003f0: 5ce3 ec3d 85af 97bd 2c11 403d 70cc 5ebd

lstm.weight_ih_l0_reverse f4 [256, 40]
-0.025015973 -0.010226122 -0.048175987 0.024952333 0.03504635 0.09158877 0.018348562 0.07165809
0.06090391 -0.05564277 0.046454072 0.04033132 -0.044407193 0.06597051 -0.05157187 -0.047033895
-0.07101359 -0.04701129 -0.058716837 -0.111659326 0.08280502 0.05188467 0.10227328 0.044559415
0.039363205 0.10980156 -0.053209037 -0.06391768 0.013451407 -0.10667697 -0.098109566 0.08501452
0.0510954 0.08347167 0.07973815 0.11295824 -0.007337554 -0.10077752 0.034879047 -0.10172516
0.06282569 0.105988115 0.06984361 -0.105576485 0.08798755 -0.11537625 0.09370629 -0.0211688
0.112088256 0.04304509 -0.06679127 0.105202764 0.016763512 -0.03902737 0.07827412 0.05742365
0.095351405 -0.0016554035 0.1149379 0.10116224 0.106830515 -0.08225687 0.09534288 0.016437843
0.0785503 0.04845685 -0.10369025 0.13944758 -0.080045596 0.06934351 -0.010363606 0.14204876
-0.09073706 0.024619656 -0.031133097 -0.05130062 -0.03844551 0.07829096 -0.09695281 -0.09936434
0.06417629 0.14891694 -0.03341747 0.08204627 0.009195631 0.12861432 -0.106077425 0.0698795
-0.0050712298 0.035991557 -0.07260542 -0.019747395 -0.101397514 0.08451257 0.11331348 -0.0410865
0.09384432 -0.10206816 -0.0007251153 -0.06264434 0.108479686 -0.012524233 0.0075379717 0.12839317
-0.03725541 0.07383224 -0.0041319025 0.07090132 -0.054258585 -0.12265763 -0.03608368 0.04947505
-0.12595217 0.06497301 0.07072058 -0.09064976 0.022038927 0.097478524 -0.10837803 -0.10945497
-0.0017221549 -0.0843044 -0.097891904 -0.03744442 -0.027696965 0.10150551 0.09994846 -0.029580444
0.12156605 0.10940119 -0.034627087 -0.06610268 -0.102383345 0.011757127 0.099068664 0.09723111
0.10355562 -0.08031979 -0.09358524 -0.06888108 -0.07892247 0.107636705 0.07687875 0.05873997
0.0080709215 0.07639046 -0.08069056 0.10816916 0.044420667 0.1141853 -0.038198322 0.085876845
0.03831802 0.023933047 -0.048976995 -0.019685825 0.108919315 -0.01024719 -0.104532875 0.062700324
-0.03474554 -0.0065011187 0.059159026 0.043834545 0.05324335 -0.029080087 0.07709322 0.09512702
0.15847206 -0.13498017 0.0016449124 -0.08872772 0.15568255 0.054131106 -0.060799137 0.03343682
0.048732962 -0.05863423 0.12587762 -0.13811602 0.023046158 0.029662034 0.107075006 0.05850263
-0.009740787 0.04004492 0.019905856 -0.11546471 0.04828493 0.008531153 0.037795603 -0.003636615
0.042347323 -0.182605 0.00464312 -0.02661005 0.05647751 -0.048200212 -0.0073966226 0.06988194
-0.07141012 0.12567241 -0.05244464 -0.02007756 -0.0052494826 -0.096955106 0.04977801 -0.03534333
0.1099857 -0.117045574 0.05952209 0.11714632 0.06852306 0.119158894 0.1230435 -0.04392709
0.08864578 0.041509155 -0.04829172 -0.00092008465 0.096104756 -0.041378718 -0.07260714 0.0030361365
0.04101833 -0.02597408 0.06478046 0.10639859 0.010938574 0.05311119 0.101935945 0.11634342
0.046975944 0.13171275 -0.0073797693 -0.05943487 0.059989296 -0.08948713 -0.002063677 0.020097498
0.044989157 -0.13518313 0.087317154 0.07706804 0.067391634 0.123651825 -0.063476354 0.052382894
-0.039207138 -0.08045915 -0.030584808 -0.11045919 0.11808631 -0.047353446 0.07685078 0.0861739
00000000: 4cee ccbc 778b 27bc 2f54 45bd d668 cc3c
00000010: c38c 0f3d e592 bb3d b94f 963c 7ac1 923d
00000020: 6176 793d ace9 63bd a046 3e3d 7432 253d
00000030: 51e4 35bd 8c1b 873d 063d 53bd 9da6 40bd
00000040: 936f 91bd e98e 40bd 1181 70bd a5ad e4bd
00000050: ae95 a93d 0585 543d a774 d13d ef83 363d
00000060: 503b 213d a4df e03d b8f1 59bd 46e7 82bd
00000070: 4a63 5c3c 7579 dabd abed c8bd 181c ae3d
00000080: 6949 513d 32f3 aa3d c14d a33d a656 e73d
00000090: dd6f f0bb 7264 cebd 55dd 0e3d 4855 d0bd
000000a0: c1aa 803d 4c10 d93d 2b0a 8f3d 7c38 d8bd
000000b0: d132 b43d 624a ecbd 15e9 bf3d 316a adbc
000000c0: 878e e53d 0c50 303d ddc9 88bd 8c74 d73d
000000d0: a253 893c 2adb 1fbd 2f4e a03d 1035 6b3d
000000e0: 9947 c33d 20fa d8ba 9064 eb3d 262e cf3d
000000f0: f5c9 da3d 4a76 a8bd 2143 c33d a8a8 863c
00000100: fbde a03d b17a 463d 8e5b d4bd 59cb 0e3e
00000110: f2ee a3bd f803 8e3d 1dcc 29bc 3b75 113e
00000120: 5ad4 b9bd 29af c93c d60a ffbc 9920 52bd
00000130: 0a79 1dbd 0357 a03d 328f c6bd 887f cbbd
00000140: dc6e 833d af7d 183e c2e0 08bd e007 a83d
00000150: 46a9 163c 79b3 033e 1f3f d9bd fc1c 8f3d
00000160: 8f2c a6bb e26b 133d 27b2 94bd 4ac5 a1bc
00000170: 80a9 cfbd ed14 ad3d e610 e83d 514a 28bd
00000180: 7331 c03d 1d09 d1bd aa15 3eba ad4b 80bd
00000190: 992a de3d 7132 4dbc 1701 f73b 8079 033e
000001a0: 2199 18bd 5c35 973d e964 87bb b634 913d
000001b0: 403e 5ebd ec33 fbbd 7bcc 13bd 5aa6 4a3d
000001c0: 9bf9 00be 9210 853d f4d5 903d 95a6 b9bd
000001d0: fb8a b43c d2a2 c73d 4df5 ddbd ed29 e0bd
000001e0: eeb9 e1ba c9a7 acbd 8d7b c8bd 525f 19bd
000001f0: bfe4 e2bc 1fe2 cf3d c7b1 cc3d b052 f2bc
00000200: 9ff7 f83d bb0d e03d 22d5 0dbd d860 87bd
00000210: 5cae d1bd f7a0 403c 83e4 ca3d 1b21 c73d
00000220: f814 d43d b47e a4bd 9ea9 bfbd 8611 8dbd
00000230: 1ba2 a1bd a270 dc3d 9b72 9d3d 5399 703d
00000240: e63b 043c 9a72 9c3d 1841 a5bd cb87 dd3d
00000250: 72f2 353d fcd9 e93d d875 1cbd 33e0 af3d
00000260: 5bf3 1c3d 3d0f c43c 1a9c 48bd 2b44 a1bc
00000270: 1711 df3d d4e3 27bc 5515 d6bd 0769 803d
00000280: 5751 0ebd 5607 d5bb bc50 723d da8b 333d
00000290: b315 5a3d 5d39 eebc 0de3 9d3d f4d1 c23d
000002a0: 8046 223e 3e38 0abe 1a9a d73a e1b6 b5bd
000002b0: 3f6b 1f3e 94b8 5d3d 8408 79bd 0cf5 083d
000002c0: 379c 473d 722a 70bd 10e6 003e 496e 0dbe
000002d0: 4ccb bc3c cbfd f23c 244a db3d 74a0 6f3d
000002e0: d297 1fbc 2406 243d 9b11 a33c c378 ecbd
000002f0: 6bc6 453d 40c6 0b3c 90cf 1a3d 4654 6ebb
00000300: 6374 2d3d cefc 3abe 5025 983b 52fd d9bc
00000310: f654 673d 966d 45bd 5e5f f2bb 431e 8f3d
00000320: 783f 92bd 45b0 003e 31d0 56bd b279 a4bc
00000330: da03 acbb 6690 c6bd 07e4 4b3d 2bc4 10bd
00000340: 2f40 e13d 97b5 efbd 6fcd 733d 69ea ef3d
00000350: d155 8c3d 9409 f43d 3bfe fb3d e4ec 33bd
00000360: eb8b b53d 8105 2a3d 8acd 45bd d631 71ba
00000370: 92d2 c43d bb7c 29bd 0db3 94bd ebf9 463b
00000380: d602 283d 98c7 d4bc 9eab 843d 81e7 d93d
00000390: b437 333c 1f8b 593d cbc3 d03d 7645 ee3d
000003a0: d969 403d b5df 063e fed1 f1bb fa71 73bd
000003b0: 56b7 753d 0745 b7bd c13e 07bb 82a3 a43c
000003c0: 8d46 383d 726d 0abe 56d3 b23d d9d5 9d3d
000003d0: a004 8a3d 2b3d fd3d e4ff 81bd 728f 563d
000003e0: aa97 20bd c4c7 a4bd fe8c fabc 6e38 e2bd
000003f0: 3cd7 f13d b0f5 41bd f163 9d3d f17b b03d

lstm.weight_hh_l0_reverse f4 [256, 64]
0.113047846 -0.09790712 -0.09236958 0.073982604 -0.15132566 -0.012347867 0.07355022 0.08164154
0.09463508 -0.00075397256 0.06950011 0.08580314 0.13181733 -0.045800164 -0.05873082 0.041441888
-0.007162841 0.05048171 0.00241814 0.15051714 0.14358813 0.10767716 0.024803119 0.009512675
-0.13566205 -0.07733417 0.07358993 -0.09980614 -0.038773775 -0.15409903 0.07663055 0.1133121
0.07825556 -0.016645407 0.030574506 -0.033837464 -0.08589022 -0.117258266 0.020485837 0.07624016
0.14028482 0.12236232 0.069402225 -0.11401523 -0.036145676 0.12129712 0.12941395 0.1049075
0.13092996 -0.1410857 -0.056528993 -0.09985437 0.07863137 0.02557306 0.0680236 0.07076924
0.0893593 -0.04619819 0.050966956 -0.094523825 0.011208836 -0.11004013 -0.01919431 0.07189905
0.12364409 -0.1318561 -0.09182034 -0.057426434 -0.12877832 -0.03602878 -0.0020969005 -0.028943425
0.106760286 -0.042514667 -0.057756416 -0.08812672 -0.018443227 0.0066231797 -0.10427471 -0.04635583
-0.010944069 -0.12792239 -0.2045994 -0.09292662 0.10417422 0.016006153 -0.056052685 -0.054751005
0.044980306 -0.15808766 -0.022650974 0.08722027 -0.049203407 -0.095518544 -0.008611893 -0.067789614
0.015534573 0.07854728 -0.07014851 0.024057608 -0.031581845 0.0072885025 -0.042605292 -0.06648788
0.04797205 -0.036908768 0.02621265 0.03300376 0.05978362 0.07953236 0.05481685 0.044711597
-0.0021638963 -0.107474424 0.08568665 0.081519276 -0.07199312 0.091542654 -0.14948198 -0.118981235
-0.033336513 0.07123022 -0.016670972 0.12834027 -0.09884153 -0.1290937 0.19241521 -0.037989374
-0.05453747 -0.08405964 0.044556692 -0.13531646 -0.021275388 0.06502002 -0.06211133 0.00066375686
-0.058045488 -0.04881858 0.13400172 -0.10456177 0.0074508563 -0.11085913 0.07881343 -0.090568386
-0.072535895 -0.08075389 0.08059307 -0.026855746 -0.03414522 -0.110479034 -0.02797827 -0.05031806
-0.052852567 -0.10670466 -0.10935718 0.060967088 -0.09722755 0.09805702 0.05443666 -0.053356566
-0.048978757 0.103635795 0.019772535 -0.0141021665 -0.08702752 -0.0683374 0.08188754 -0.0012125364
-0.04553035 0.049965154 -0.02935685 0.013058609 0.088767104 -0.033813164 -0.12232526 0.060680456
0.15782583 -0.05319094 -0.10247187 -0.088522404 -0.049040396 0.10440504 0.038351834 0.024215594
0.04508245 0.062245414 -0.0730519 0.106368504 0.08214148 -0.017207494 0.060060393 -0.03514108
0.03657626 0.022509314 -0.00418704 -0.012759697 0.04071063 -0.05299002 0.06932843 -0.03756223
-0.017128792 -0.09701907 0.086746946 -0.074727505 -0.12532707 -0.07540241 0.059047244 0.017050367
0.11184705 -0.041433442 0.020673612 -0.06833581 0.0006107852 0.05320178 -0.0726728 -0.104633026
-0.0054724864 -0.022420034 0.04766678 -0.0925366 -0.015805224 0.05768027 -0.011382439 0.023647144
-0.04992242 -0.097495854 0.08311978 0.0034318466 -0.06615443 -0.0128877 -0.0037516272 0.027660897
0.038506415 0.01516862 -0.08385814 -0.05939937 -0.08446878 0.030736035 0.08141882 -0.014693466
-0.08862046 -0.056625627 -0.003928788 0.090613976 0.05005642 0.019739486 0.09012796 -0.12646575
-0.04094101 0.0372665 -0.13572852 -0.038588554 0.005515849 -0.03450239 0.03505503 -0.07325877
00000000: a185 e73d 8783 c8bd 432c bdbd 3184 973d
00000010: 1df5 1abe b54e 4abc 7fa1 963d ae33 a73d
00000020: 09d0 c13d 3ea6 45ba 1356 8e3d 8fb9 af3d
00000030: 1ffb 063e f498 3bbd ba8f 70bd f8be 293d
00000040: 44b6 eabb e9c5 4e3d a879 1e3b 2a21 1a3e
00000050: c408 133e d885 dc3d e92f cb3c 0ddb 1b3c
00000060: feea 0abe 6161 9ebd 51b6 963d 2967 ccbd
00000070: 40d1 1ebd 23cc 1dbe 7af0 9c3d 2d10 e83d
00000080: 7344 a03d f35b 88bc 6377 fa3c 2799 0abd
00000090: 36e7 afbd 1a25 f0bd ead1 a73c cd23 9c3d
000000a0: d3a6 0f3e 1999 fa3d c122 8e3d d180 e9bd
000000b0: 7d0d 14bd a06a f83d 1785 043e bed9 d63d
000000c0: 8112 063e c578 10be f28a 67bd 7380 ccbd
000000d0: 7c09 a13d 987e d13c f54f 8b3d 77ef 903d
000000e0: 0202 b73d 503a 3dbd bac2 503d b595 c1bd
000000f0: 44a5 373c b85c e1bd 633d 9dbc cf3f 933d
00000100: 1d39 fd3d 4905 07be 4d0c bcbd fb37 6bbd
00000110: 77de 03be ea92 13bd 276c 09bb c31a edbc
00000120: 23a5 da3d dc23 2ebd fe91 6cbd c87b b4bd
00000130: 4016 97bc 4207 d93b fb8d d5bd 9cdf 3dbd
00000140: c14e 33bc 16fe 02be 8182 51be 5050 bebd
00000150: 4b59 d53d 561f 833c 8097 65bd 9742 60bd
00000160: 453d 383d bbe1 21be 898e b9bc 8aa0 b23d
00000170: 8389 49bd 3a9f c3bd e618 0dbc 48d5 8abd
00000180: b984 7e3c 65dd a03d 06aa 8fbd 7614 c53c
00000190: f75b 01bd 64d4 ee3b e382 2ebd cc2a 88bd
000001a0: 577e 443d a62d 17bd e9bb d63c f32e 073d
000001b0: abdf 743d dde1 a23d a287 603d 8223 373d
000001c0: 28d0 0dbb 8d1b dcbd 7b7c af3d 94f3 a63d
000001d0: 2171 93bd b77a bb3d ce11 19be 6fac f3bd
000001e0: de8b 08bd 26e1 913d 9091 88bc a26b 033e
000001f0: 6e6d cabd 2431 04be 7e08 453e bf9a 1bbd
00000200: af62 5fbd 7627 acbd 1481 363d 6690 0abe
00000210: b949 aebc 3729 853d 7368 7ebd f8ff 2d3a
00000220: 1bc1 6dbd fef5 47bd bf37 093e 7b24 d6bd
00000230: 5026 f43b 1d0a e3bd f068 a13d eb7b b9bd
00000240: b38d 94bd 4c62 a5bd fb0d a53d 9500 dcbc
00000250: dcdb 0bbd d542 e2bd af32 e5bc 4f1a 4ebd
00000260: ef7b 58bd f987 dabd a8f6 dfbd a0b8 793d
00000270: 3d1f c7bd 1ed2 c83d faf8 5e3d 6a8c 5abd
00000280: f39d 48bd 013f d43d 03fa a13c c60c 67bc
00000290: 7c3b b2bd 7bf4 8bbd a8b4 a73d f8ed 9eba
000002a0: 087e 3abd 43a8 4c3d c77d f0bc c7f3 553c
000002b0: 87cb b53d ac7f 0abd aa85 fabd 128c 783d
000002c0: 189d 213e bede 59bd c6dc d1bd 3c4b b5bd
000002d0: 95de 48bd 4fd2 d53d d016 1d3d c85f c63c
000002e0: 60a8 383d 0cf5 7e3d 3c9c 95bd bbd7 d93d
000002f0: cb39 a83d bbf6 8cbc e301 763d 18f0 0fbd
00000300: fdd0 153d 7465 b83c 7033 89bb 0c0e 51bc
00000310: 31c0 263d 100c 59bd 10fc 8d3d dada 19bd
00000320: ae51 8cbc efb1 c6bd 62a8 b13d bc0a 99bd
00000330: bd55 00be 946c 9abd 86db 713d 36ad 8b3c
00000340: 1110 e53d 1db6 29bd b55b a93c a5f3 8bbd
00000350: 1a1d 203a 1cea 593d 7ad5 94bd d749 d6bd
00000360: 8b52 b3bb 38aa b7bc 3e3e 433d d483 bdbd
00000370: f579 81bc 2642 6c3d 697d 3abc a8b7 c13c
00000380: 747b 4cbd e8ab c7bd b43a aa3d d5e8 603b
00000390: f97b 87bd ef26 53bc dcdd 75bb 1b99 e23c
000003a0: e7b8 1d3d ce85 783c d1bd abbd c14c 73bd
000003b0: f8fd acbd 23ca fb3c e9be a63d ddbc 70bc
000003c0: a57e b5bd 46f0 67bd 10bd 80bb d293 b93d
000003d0: f607 4d3d b4b4 a13c 0295 b83d 3d80 01be
000003e0: c3b1 27bd c2a4 183d 6bfc 0abe 080f 1ebd
000003f0: 4cbe b43b 6152 0dbd dd95 0f3d b208 96bd

lstm.bias_ih_l0_reverse f4 [256]
-0.087811716 0.07879496 -0.0928799 -0.015752727 0.045154747 0.10603722 -0.05674068 0.025346888
-0.08201224 0.19287904 0.013699963 -0.044995904 0.08345216 0.08200759 -0.06699676 0.0029090876
0.13441683 0.16178551 0.033634175 0.085973024 0.096528076 0.02366237 -0.056760643 -0.0056639523
0.014900024 -0.014074838 -0.01330993 0.14456904 0.110329226 0.06523286 0.07872401 -0.07705107
0.08127387 -0.056506213 0.11515016 0.024801033 -0.023281207 0.017808605 0.05736914 -0.0532737
-0.08130339 0.13658904 -0.11137596 0.113408186 0.0052481326 -0.008549846 -0.06517466 0.080318116
0.16355029 0.06602029 0.09690319 0.050710414 0.06398229 0.07136079 -0.08759505 -0.07625615
-0.10284944 0.0014082714 -0.0023964175 0.12841688 -0.030880444 0.037246313 0.0467858 0.0021047553
-0.03734738 -0.06557556 -0.10647215 0.07915625 0.092495106 -0.12900028 -0.11510155 0.10936281
0.06164011 -0.027033286 0.08004048 -0.0160411 0.005647175 0.07426927 -0.09884159 0.06631679
0.15680051 0.13470286 0.03841048 0.10193827 0.10177577 -0.06711303 0.083003126 0.065618776
-0.06984198 -0.013193915 0.0025306714 -0.051059797 0.039621167 0.058248527 0.091876656 -0.015484382
-0.113209166 0.11966088 0.11385403 -0.055388752 0.136882 0.039529055 0.06381135 -0.0010210854
-0.08971867 0.09162765 -0.017227322 0.03565881 0.097736225 -0.058628514 0.11513784 0.029729877
0.028523609 -0.02811435 0.017914817 -0.101255186 -0.032477457 -0.1316832 0.014070273 -0.018109808
0.0836207 0.02362557 0.048808213 0.034604143 -0.062078238 0.03428462 0.06541238 -0.06881983
-0.016849693 0.022589214 -0.014535885 -0.033600774 0.07423244 -0.041149944 0.09060964 -0.036486093
-0.10397962 0.06222162 0.07848656 0.07611363 0.1020553 0.045319546 0.053365044 0.055501416
-0.052159887 -0.09036613 0.11369813 0.01264793 -0.007785282 -0.07497762 -0.038989272 -0.06920178
0.10624848 -0.026232384 0.0773103 0.0086417105 0.07926692 -0.020653857 0.02888009 0.14924951
-0.046855457 -0.061289035 -0.05823826 -0.13306528 -0.096484266 0.016809756 0.007542445 -0.034107488
0.0074469615 -0.05301745 0.14925581 0.046255853 -0.041378066 -0.082583815 -0.06289969 0.019593209
0.11211525 0.043627214 -0.010971005 -0.05862205 -0.13525933 0.09139927 -0.06929379 -0.020033903
0.09260962 0.09069183 0.0531384 0.074546285 -0.09723956 0.12699139 -0.09629062 -0.025617244
0.012144432 -0.057669617 0.07216542 -0.06157175 0.03945741 0.02370567 0.020524457 0.14692268
0.020456763 0.096133254 0.043772854 0.08709583 -0.117295176 0.09715764 0.0009957845 0.042761184
0.11831823 -0.00048305697 -0.012906918 0.066101044 -0.06981322 0.13908662 -0.014592289 -0.10748568
0.1425074 0.09486774 -0.10029009 0.14107658 -0.08205913 -0.101970956 0.06274028 -0.028971003
-0.027726099 0.09037514 0.03431474 -0.09185655 0.026338002 0.09138115 0.134955 0.05274311
-0.097567126 0.18200217 -0.081378624 0.120438226 -0.044288743 0.11266756 -0.10784761 0.048476476
0.020005004 -0.0009221423 0.025910752 -0.05167158 0.120839 -0.026939794 -0.069032446 0.117455125
-0.032351278 0.12937611 0.1221559 0.0055728126 0.041622683 0.122199744 -0.08106432 0.06777405
00000000: a1d6 b3bd 415f a13d d137 bebd dd0b 81bc
00000010: 2ff4 383d 0b2a d93d ea68 68bd 47a4 cf3c
00000020: 09f6 a7bd 1582 453e cf75 603c a04d 38bd
00000030: f7e8 aa3d 98f3 a73d 9935 89bd 64a6 3e3b
00000040: 91a4 093e 1aab 253e fdc3 093d a012 b03d
00000050: 83b0 c53d 96d7 c13c d97d 68bd ad98 b9bb
00000060: 3b1f 743c 269a 66bc e511 5abc e809 143e
00000070: 4af4 e13d ce98 853d 0e3a a13d f4cc 9dbd
00000080: ea72 a63d 0f73 67bd d9d3 eb3d 892b cb3c
00000090: 3bb8 bebc 5ae3 913c e7fb 6a3d 8635 5abd
000000a0: 6482 a6bd ffdd 0b3e 1419 e4bd 8d42 e83d
000000b0: 87f8 ab3b a714 0cbc 4b7a 85bd d37d a43d
000000c0: ba79 273e a535 873d 2e75 c63d b9b5 4f3d
000000d0: 2609 833d 9b25 923d 0965 b3bd 2f2c 9cbd
000000e0: baa2 d2bd bf95 b83a 370d 1dbb b77f 033e
000000f0: fcf8 fcbc 978f 183d 78a2 3f3d efef 093b
00000100: 91f9 18bd 7b4c 86bd 120e dabd ac1c a23d
00000110: 136e bd3d a618 04be 5dba ebbd 9cf9 df3d
00000120: 577a 7c3d e974 ddbc 43ec a33d a068 83bc
00000130: f00b b93b 7d1a 983d 766d cabd 19d1 873d
00000140: 5090 203e 8cef 093e 4f54 1d3d 03c5 d03d
00000150: d16f d03d 8e72 89bd 8bfd a93d 2363 863d
00000160: 5009 8fbd 4a2b 58bc 9fd9 253b 1424 51bd
00000170: ce49 223d 0296 6e3d d429 bc3d 35b2 7dbc
00000180: 35da e7bd c310 f53d 4d2c e93d 51df 62bd
00000190: cc2a 0c3e 38e9 213d 86af 823d f1d5 85ba
000001a0: 6cbe b7bd 47a7 bb3d 5020 8dbc f90e 123d
000001b0: ee29 c83d 7424 70bd 63cd eb3d 128c f33c
000001c0: 58aa e93c 1150 e6bc 18c2 923c e15e cfbd
000001d0: 1507 05bd f6d7 06be 0187 663c 055b 94bc
000001e0: 5441 ab3d 698a c13c 1feb 473d 13bd 0d3d
000001f0: c045 7ebd 086e 0c3d edf6 853d 69f1 8cbd
00000200: 5e08 8abc 040d b93c ec27 6ebc f7a0 09bd
00000210: 2d07 983d d88c 28bd 8c91 b93d 7172 15bd
00000220: 44f3 d4bd 19dc 7e3d 90bd a03d 76e1 9b3d
00000230: 5e02 d13d fda0 393d 4e95 5a3d 7455 633d
00000240: 9ba5 55bd e111 b9bd 91da e83d 4339 4f3c
00000250: ae1b ffbb de8d 99bd 37b3 1fbd aab9 8dbd
00000260: ce98 d93d 4ce5 d6bc dd54 9e3d f695 0d3c
00000270: b256 a23d 4732 a9bc f095 ec3c ddd4 183e
00000280: 82eb 3fbd 360a 7bbd 3e8b 6ebd 4442 08be
00000290: 8b99 c5bd 9db4 893c 9d26 f73b 4bb4 0bbd
000002a0: a405 f43b d328 59bd 84d6 183e c776 3d3d
000002b0: 0c7c 29bd b421 a9bd 8dd1 80bd f081 a03c
000002c0: ae9c e53d 73b2 323d bbbf 33bc ad1d 70bd
000002d0: 6c81 0abe 8a2f bb3d e7e9 8dbd 241e a4bc
000002e0: 1daa bd3d a3bc b93d a7a7 593d b9ab 983d
000002f0: 8925 c7bd 080a 023e 0434 c5bd 41db d1bc
00000300: 71f9 463c fa36 6cbd 77cb 933d a932 7cbd
00000310: 189e 213d 6532 c23c e822 a83c e672 163e
00000320: f194 a73c 83e1 c43d 2a4b 333d 4c5f b23d
00000330: 7438 f0bd 96fa c63d fc84 823a 5a26 2f3d
00000340: d450 f23d cf42 fdb9 8a77 53bc fc5f 873d
00000350: 3cfa 8ebd b96c 0e3e 7f14 6fbc 7421 dcbd
00000360: 76ed 113e 054a c23d e464 cdbd 6176 103e
00000370: 9e0e a8bd 26d6 d0bd fa7d 803d 9954 edbc
00000380: d821 e3bc 9a16 b93d 9d8d 0c3d 491f bcbd
00000390: cbc2 d73c 0a26 bb3d a531 0a3e 2909 583d
000003a0: 46d1 c7bd c75e 3a3e d6a9 a6bd 51a8 f63d
000003b0: 1d68 35bd 40be e63d 35df dcbd 458f 463d
000003c0: 89e1 a33c ecbb 71ba c942 d43c 94a5 53bd
000003d0: 707a f73d d8b0 dcbc e260 8dbd 508c f03d
000003e0: c682 04bd 2c7b 043e df2c fa3d 249c b63b
000003f0: 8c7c 2a3d dc43 fa3d 0d05 a6bd 1fcd 8a3d
