trained_models/LSTM/LSTM_Zscore_CF8_pred_2.pth (torch, 661823 bytes, 23 tensors)

lstm.weight_ih_l0 f4 [256, 40]
0.082931966 0.1351268 0.14106 0.008236199 0.07155688 0.22442755 -0.038130168 -0.020982867
-0.024740899 -0.08014477 -0.02237296 -0.061025552 0.036398217 -0.14220232 -0.08063893 -0.063125126
0.012551208 0.085313335 0.06214785 0.12399136 0.09413777 -0.08120598 0.039748646 0.048525535
-0.028399367 0.04989249 0.010786258 -0.124239884 0.07436783 0.121213295 -0.039876178 0.056943048
0.09920272 -0.09316647 -0.054566797 -0.08507359 0.015713597 0.08724525 0.0685118 -0.060191836
-0.058712382 -0.17912805 -0.0066717253 -0.041299585 0.10468023 0.091690555 -0.029727818 0.03180822
0.11078159 0.063473165 0.07086302 0.14656039 0.087197185 0.06562984 -0.07518689 0.057195514
-0.09444383 -0.019539531 -0.09479605 0.004652917 -0.06956435 0.041110024 0.097160235 0.056383017
-0.068594836 0.14979671 0.035443567 -0.14316289 0.10054034 0.008203392 0.009102995 -0.06810084
0.097585775 -0.0680873 0.08730271 0.042200685 0.043518092 0.015266477 -0.10746474 -0.048630826
0.05157608 -0.11491297 -0.12162943 0.045503065 -0.12623772 0.015750337 -0.12601699 0.055931263
-0.06167714 -0.012346686 0.07256465 -0.13713545 0.010348556 -0.19206841 -0.11859443 0.1403344
0.08356131 0.026552899 -0.0052858796 0.040098827 0.08159722 0.123723246 -0.11250711 0.07378773
-0.11529497 0.062063638 -0.09673929 0.124331154 -0.11601622 0.006162719 -0.076717824 0.012118729
-0.14166234 0.050141376 -0.112835534 -0.0156071475 -0.07696587 -0.053102117 0.069201216 -0.0008885517
-0.03124277 0.054779254 -0.051429834 0.07190824 -0.014600204 0.037762392 -0.040030334 0.07333365
-0.16738488 0.10820789 -0.0027455084 -0.045593474 0.02687412 -0.047848266 0.006893307 0.08247493
-0.04998051 0.12678176 0.063953236 -0.0387625 -0.112772375 0.03708996 0.013425147 0.029878613
-0.17518027 -0.049293347 -0.047249172 0.011403927 0.062419318 -0.048314504 -0.12474548 0.0059882193
-0.15578862 0.03674484 0.049956825 -0.05107812 -0.03891585 0.062302828 -0.15987998 0.16173223
-0.06583208 0.026460042 -0.13391188 -0.082530536 -0.05808374 -0.06635665 0.025787711 -0.17007977
0.09679763 0.114328675 0.05860271 0.048719615 0.04713777 0.067596465 0.09807494 -0.08112267
-0.13273099 -0.0991503 -0.03729 0.16722275 0.057323728 0.18005182 0.0630768 0.09996953
0.08837109 0.1008538 0.043427162 0.089870736 -0.0703478 0.035174694 0.0367728 -0.03393669
-0.10365059 -0.052241858 -0.117579006 -0.06509806 -0.062370677 0.044136424 -0.028952096 0.043890454
0.0048275087 -0.006614627 -0.05518497 -0.08981819 0.06649914 -0.10025551 -0.073094144 -0.21521798
0.04302403 -0.09908098 0.1098705 -0.12389214 -0.06392877 -0.12062144 -0.07550856 0.16015498
0.121916175 -0.074287765 -0.0056010983 0.07559661 0.12273776 -0.055304624 0.09852578 -0.02886954
-0.09071955 0.053382445 0.07126824 -0.15313916 -0.048758432 -0.024924777 -0.051722117 -0.14233005
-0.07456799 -0.017409358 0.107168496 0.10785516 -0.040743414 0.04455997 0.049246915 0.07010698
-0.090414464 -0.08261363 -0.04334197 0.02219642 0.037572347 0.122726224 0.110601075 0.1067808
0.10086485 -0.0632766 -0.12628503 -0.09860355 -0.03096933 0.015159217 0.08687571 0.044091303
00000000: 3cd8 a93d ae5e 0a3e 0872 103e 1ff1 063c
00000010: 6a8c 923d 56d0 653e 612e 1cbd 43e4 abbc
00000020: 6dad cabc f122 a4bd 7f47 b7bc eef5 79bd
00000030: 4c16 153d 7c9d 11be 0626 a5bd bf47 81bd
00000040: 95a3 4d3c c2b8 ae3d be8e 7e3d 2fef fd3d
00000050: 4ecb c03d 524f a6bd 7acf 223d b6c2 463d
00000060: caa5 e8bc 115c 4c3d d8b8 303c 7b71 febd
00000070: 294e 983d ad3e f83d 3455 23bd 1d3d 693d
00000080: cc2a cb3d 10ce bebd 6f81 5fbd 103b aebd
00000090: cdb9 803c a3ad b23d ea4f 8c3d b78b 76bd
000000a0: 657c 70bd 586d 37be 7d9e dabb c129 29bd
000000b0: 9762 d63d 42c8 bb3d c187 f3bc 5649 023d
000000c0: 75e1 e23d 38fe 813d a220 913d ed13 163e
000000d0: 7094 b23d f068 863d 96fb 99bd d845 6a3d
000000e0: c46b c1bd 5e11 a0bc 6e24 c2bd 7f77 983b
000000f0: c177 8ebd fc62 283d f2fb c63d e1f1 663d
00000100: 737b 8cbd 4f64 193e 462d 113d 4b99 12be
00000110: 18e8 cd3d 8567 063c ba24 153c 7478 8bbd
00000120: 0ddb c73d 5b71 8bbd c3cb b23d a0da 2c3d
00000130: 0740 323d 3f20 7a3c 7916 dcbd 1e31 47bd
00000140: 7141 533d 7e57 ebbd da18 f9bd 6c61 3a3d
00000150: 7644 01be da06 813c 990a 01be 2e18 653d
00000160: 2ba1 7cbd c149 4abc c69c 943d 3c6d 0cbe
00000170: fd8c 293c 95ad 44be a3e1 f2bd d2b3 0f3e
00000180: 3122 ab3d 7785 d93c 2c35 adbb ab3e 243d
00000190: 711c a73d 9d62 fd3d 216a e6bd 051e 973d
000001a0: c51f ecbd 7136 7e3d 401f c6bd 55a1 fe3d
000001b0: e999 edbd a2f0 c93b 3c1e 9dbd a28d 463c
000001c0: ef0f 11be 0b61 4d3d 5116 e7bd 1fb5 7fbc
000001d0: 48a0 9dbd 9b81 59bd 5eb9 8d3d b2ed 68ba
000001e0: d6f0 ffbc 3660 603d 17a8 52bd a144 933d
000001f0: b235 6fbc bdac 1a3d d9f6 23bd f42f 963d
00000200: f166 2bbe 199c dd3d fded 33bb 39c0 3abd
00000210: 1d27 dc3c 8bfc 43bd 40e1 e13b 9ee8 a83d
00000220: 5db8 4cbd 14d3 013e eaf9 823d 6dc5 1ebd
00000230: 34f5 e6bd a4eb 173d 26f5 5b3c fec3 f43c
00000240: 7562 33be d2e7 49bd 5988 41bd 89d7 3a3c
00000250: 66ab 7f3d 6ee5 45bd 8f7a ffbd d338 c43b
00000260: 0d87 1fbe c281 163d 879f 4c3d 4a37 51bd
00000270: 3a66 1fbd 4031 7f3d 94b7 23be 229d 253e
00000280: f8d2 86bd bbc2 d83c 3220 09be c505 a9bd
00000290: 37e9 6dbd ffe5 87bd c040 d33c 6429 2ebe
000002a0: d63d c63d 2725 ea3d 6509 703d 388e 473d
000002b0: 8913 413d 0470 8a3d 84db c83d a423 a6bd
000002c0: a2ea 07be 500f cbbd 66bd 18bd 713c 2b3e
000002d0: 49cc 6a3d 815f 383e 692e 813d d3bc cc3d
000002e0: e7fb b43d 708c ce3d aee0 313d 260e b83d
000002f0: 8212 90bd 5713 103d 139f 163d 3301 0bbd
00000300: c346 d4bd 8ffb 55bd 43cd f0bd 2252 85bd
00000310: 6578 7fbd 65c8 343d f22c edbc 7ac6 333d
00000320: 1430 9e3b 83bf d8bb a309 62bd 99f2 b7bd
00000330: b330 883d c352 cdbd 62b2 95bd 1a62 5cbe
00000340: f739 303d f8ea cabd c903 e13d 2abb fdbd
00000350: 16ed 82bd 6008 f7bd 3ba4 9abd abff 233e
00000360: 30af f93d 2f24 98bd 6b89 b7bb 65d2 9a3d
00000370: ef5d fb3d 1a87 62bd e2c7 c93d d07f ecbc
00000380: 2ccb b9bd 8da7 5a3d 15f5 913d 83d0 1cbe
00000390: ecb6 47bd 0c2f ccbc 92da 53bd f8be 11be
000003a0: 1ab7 98bd 129e 8ebc 287b db3d 2be3 dc3d
000003b0: 91e2 26bd 8484 363d 22b7 493d 4094 8f3d
000003c0: 382b b9bd 5631 a9bd 5987 31bd 44d5 b53c
000003d0: 76e5 193d e357 fb3d d182 e23d e4af da3d
000003e0: 3b92 ce3d 2997 81bd dd50 01be a8f0 c9bd
000003f0: 64b3 fdbc 5d5e 783c e4eb b13d 1599 343d

lstm.weight_hh_l0 f4 [256, 64]
-0.21032019 0.0358609 0.18818077 -0.21557088 -0.06433859 0.035423767 -0.09170438 -0.012308804
-0.07124389 -0.13299392 -0.07781836 -0.1027711 0.094846316 0.026765374 -0.08089971 -0.054367773
-0.03574022 0.15759617 -0.02659872 0.0012682996 0.13373496 0.08494847 -0.011830838 0.05118866
-0.06408781 -0.020410843 -0.0315746 -0.13480061 0.11474346 -0.02173391 -0.10452036 -0.18831667
0.067014396 0.044889055 -0.03992272 -0.07025249 -0.08993803 -0.022346817 -0.0034288794 0.1513509
0.08306204 -0.13921128 0.008307092 -0.11004499 0.047346503 -0.113450356 0.14110057 0.16707864
0.10279928 0.05586925 0.112358384 0.16189983 0.076685995 0.13339923 0.04815546 -0.042208206
-0.10500242 0.07286746 0.13046198 0.14660057 0.17097884 -0.1021689 -0.17222396 0.08920847
-0.13224034 0.029865513 0.022787228 -0.0017871174 0.09605308 -0.2293465 -0.039898753 0.00932971
0.065198764 0.05529086 0.1491497 0.12018943 -0.10502325 0.12336982 0.07729489 -0.07038406
0.018841762 -0.07349509 0.03324966 -0.099597655 0.030808741 -0.096305266 -0.16749232 0.052356496
0.03098785 -0.13924935 -0.083222255 0.06929784 -0.037627604 0.105642304 -0.14467376 0.0038473222
0.100779265 -0.06922922 -0.019265957 -0.13118616 0.10111026 -0.044888683 -0.08009536 -0.08953854
-0.12845771 0.15602536 0.10892778 0.009553241 -0.11178667 0.14001778 0.11600854 0.10293674
-0.14521398 -0.099828996 0.12894297 0.043744087 0.05205262 -0.058467258 -0.08700149 0.0015130934
-0.011662268 0.035593882 0.078790456 -0.049422383 0.014888239 -0.015377388 0.07255109 0.13169004
-0.12921797 -0.013101946 0.0732322 0.04045985 -0.062525675 0.12396646 0.1745422 0.08673489
0.0801882 0.116278134 -0.038806178 0.0661913 0.0858716 0.119695224 0.015443678 0.020217462
-0.013795781 0.10678026 -0.027412137 -0.07113052 -0.039273813 0.110283926 -0.062625505 -0.08741777
-0.055724118 -0.03200193 0.016098218 -0.07877449 -0.048441876 0.035021216 -0.07045399 0.1713539
0.043939058 0.097142704 -0.11008367 0.13284196 0.012748288 0.20317774 0.07988451 0.10998865
-0.0639012 -0.07299841 0.019928018 -0.030414606 0.015685981 0.0036215254 -0.01751835 -0.059131496
0.06956536 0.083543845 0.19201654 0.06651592 -0.10579022 0.08291668 0.0642383 -0.08676254
0.037007093 0.09932593 0.10797684 -0.07660016 0.008775972 -0.16903754 -0.049576074 0.020381324
-0.117372595 -0.18708716 -0.1162745 0.14049543 -0.0014752236 -0.08015412 -0.08783669 -0.111444995
0.013728548 0.026381258 0.0502029 -0.13204947 0.08236117 0.08443327 -0.13291894 -0.034263946
0.12081211 0.16647391 0.035661798 -0.014311993 0.13339041 -0.003165235 -0.031987 -0.050156914
-0.013871816 -0.07158568 0.033927478 0.02101831 0.00221265 0.13648172 0.07930569 -0.062735215
0.000115566 -0.08131537 -0.0010063528 -0.04622678 0.029422361 -0.19551618 -0.036116976 0.09967156
-0.19866703 0.1159321 -0.024727223 0.19571532 -0.07464339 0.06659952 -0.0408478 -0.049549017
-0.027330425 -0.03117683 -0.18232045 -0.059565384 -0.07342257 -0.0076592495 -0.06915645 -0.07496221
-0.039694007 -0.011630491 0.055871144 0.14623177 -0.0665974 0.095206216 0.18674184 0.007804218
00000000: 2d5e 57be e1e2 123d 76b2 403e 9dbe 5cbe
00000010: f3c3 83bd 8318 113d 82cf bbbd deaa 49bc
00000020: 51e8 91bd 8f2f 08be 3b5f 9fbd a879 d2bd
00000030: c93e c23d 0f43 db3c bfae a5bd beb0 5ebd
00000040: 5664 12bd e460 213e 8fe5 d9bc 133d a63a
00000050: d1f1 083e 77f9 ad3d 22d6 41bc 33ab 513d
00000060: 7840 83bd a434 a7bc 5e54 01bd 2c09 0abe
00000070: 9ffe ea3d 500b b2bc c50e d6bd 16d6 40be
00000080: d83e 893d 96dd 373d 0286 23bd 8ae0 8fbd
00000090: 6e31 b8bd ac10 b7bc 0db7 60bb bbfb 1a3e
000000a0: 6e1c aa3d 678d 0ebe 781a 083c 455f e1bd
000000b0: 68ee 413d a958 e8bd ab7c 103e aa16 2b3e
000000c0: 6e88 d23d 28d7 643d 271c e63d 12c9 253e
000000d0: 8c0d 9d3d cf99 083e a93e 453d 83e2 2cbd
000000e0: 820b d7bd 893b 953d d397 053e 761e 163e
000000f0: 1415 2f3e ee3d d1bd 7a5b 30be eeb2 b63d
00000100: 036a 07be 85a8 f43c 48ac ba3c b63d eaba
00000110: 7ab7 c43d cfd9 6abe e06c 23bd a4db 183c
00000120: ee86 853d ab78 623d b3ba 183e e025 f63d
00000130: 6e16 d7bd 51a9 fc3d c94c 9e3d 8525 90bd
00000140: 0a5a 9a3c 9884 96bd cc30 083d dbf9 cbbd
00000150: 9d62 fc3c b23b c5bd 1b83 2bbe c473 563d
00000160: 3bda fd3c 6297 0ebe 6e70 aabd 07ec 8d3d
00000170: 671f 1abd fe5a d83d 5c25 14be 5b23 7c3b
00000180: 5c65 ce3d 0dc8 8dbd a4d3 9dbc aa55 06be
00000190: e512 cf3d 32dd 37bd 0909 a4bd fb5f b7bd
000001a0: 6b8a 03be 1dc5 1f3e 8715 df3d 3285 1c3c
000001b0: 69f0 e4bd d260 0f3e e395 ed3d 7fd0 d23d
000001c0: f9b2 14be 2573 ccbd a009 043e 002d 333d
000001d0: 2135 553d 5d7b 6fbd d62d b2bd fd52 c63a
000001e0: 1913 3fbc e4ca 113d e45c a13d 206f 4abd
000001f0: cded 733c 71f1 7bbc aa95 943d c1d9 063e
00000200: b751 04be 8ba9 56bc c4fa 953d 3ab9 253d
00000210: 760d 80bd 21e2 fd3d 31bb 323e 10a2 b13d
00000220: b639 a43d 3b23 ee3d 3af3 1ebd 4e8f 873d
00000230: 73dd af3d c522 f53d 7b07 7d3c 179f a53c
00000240: b307 62bc 9caf da3d 6b8f e0bc e1ac 91bd
00000250: 94dd 20bd 8adc e13d cd41 80bd 1608 b3bd
00000260: f93e 64bd 7514 03bd 69e0 833c 8554 a1bd
00000270: fd6a 46bd 6872 0f3d 2e4a 90bd 6677 2f3e
00000280: 71f9 333d c1f2 c63d 8c73 e1bd b907 083e
00000290: 32de 503c d30d 503e 7d9a a33d bb41 e13d
000002a0: a2de 82bd 3180 95bd 1540 a33c 0d28 f9bc
000002b0: e37f 803c 1d57 6d3b a582 8fbc de33 72bd
000002c0: 4978 8e3d 0919 ab3d fc9f 443e 8039 883d
000002d0: 8ba8 d8bd 38d0 a93d 5f8f 833d 8fb0 b1bd
000002e0: c094 173d 656b cb3d f622 dd3d 8be0 9cbd
000002f0: 18c9 0f3c 2d18 2dbe 4810 4bbd bcf6 a63c
00000300: 0b61 f0bd c793 3fbe 5321 eebd 09de 0f3e
00000310: 4a5c c1ba d827 a4bd b9e3 b3bd 463d e4bd
00000320: b4ed 603c 821d d83c 8ea1 4d3d fa37 07be
00000330: f9ac a83d 5aeb ac3d e71b 08be 5a58 0cbd
00000340: 576c f73d 2378 2a3e 1b12 123d d97c 6abc
00000350: 7f97 083e d56f 4fbb cd04 03bd 5671 4dbd
00000360: 9d46 63bc 839b 92bd 8af7 0a3d 972e ac3c
00000370: 1b02 113b ddc1 0b3e 066b a23d 527b 80bd
00000380: 065c f238 ac88 a6bd 99e7 83ba 4b58 3dbd
00000390: 2a07 f13c 6535 48be 65ef 13bd 9a20 cc3d
000003a0: 5f6f 4bbe cf6d ed3d bf90 cabc 9969 483e
000003b0: a2de 98bd 5465 883d 0650 27bd e9f3 4abd
000003c0: 0ee4 dfbc 8d66 ffbc 36b2 3abe d5fa 73bd
000003d0: 935e 96bd 71fa fabb e6a1 8dbd ca85 99bd
000003e0: 2f96 22bd d18d 3ebc 24d9 643d c8bd 153e
000003f0: 3864 88bd 7afb c23d 4139 3f3e 87ba ff3b

lstm.bias_ih_l0 f4 [256]
-0.120167926 -0.050620593 0.040588263 0.10390614 0.07051914 0.004455983 0.13965999 -0.096380085
0.1263411 -0.011543898 -0.06202451 0.13648917 0.12886189 0.034601618 0.08103205 -0.060934156
0.107105695 0.016390922 -0.059181973 0.1925576 -0.039393734 -0.007629759 -0.06463029 -0.055744193
0.00018754577 -0.08166954 0.1342743 -0.062303085 0.02272742 -0.05412866 -0.04787108 0.028785467
0.11214495 0.16301389 0.09335223 0.1088572 0.020746041 0.12044741 -0.04840537 0.0018334839
0.020155517 0.033493835 -0.07519043 0.0951616 0.011497788 -0.02166358 -0.10736054 0.033399314
0.06532297 0.03680887 0.12154108 0.025605356 0.13853092 0.04574785 0.050519425 0.061159734
0.13573931 0.09771203 -0.09943957 -0.01132436 -0.01110466 -0.013013554 -0.06591053 0.0710181
-0.1018071 0.07873292 0.031920947 -0.11777014 0.01603539 -0.059109874 0.030807858 0.0786881
0.13944447 0.004933039 0.14777891 0.12716834 0.10149487 0.14655572 -0.061096646 -0.008777993
0.004102801 0.020538833 -0.10091865 -0.005381786 0.09938944 -0.08366561 0.09595254 0.04803265
-0.07609267 -0.0032873545 -0.03409884 -0.058852065 -0.0554112 0.06710706 -0.04197857 0.036673956
-0.041103367 0.09759191 0.10805703 -0.018453656 0.03070388 -0.00653325 -0.08307998 0.19630536
0.15222916 -0.02958068 -0.09639881 0.11594152 0.10472323 -0.016756065 -0.0566485 0.094749875
0.049547296 0.045450035 -0.00094711 0.119551785 -0.049157016 -0.08679774 -0.089339636 0.049194332
0.05662542 0.08121626 0.0736803 0.059890024 -0.019076545 -0.09225069 0.09965451 0.057057954
-0.13331655 -0.077370405 -0.06631879 -0.074595764 -0.121592246 -0.10366581 -0.07492588 -0.061795603
0.12066914 0.14387076 0.022679476 0.06467288 0.050350804 0.055565536 0.012592945 -0.029648652
0.08132969 -0.05253448 -0.016089674 0.100895494 -0.060815826 -0.067217425 -0.055268425 0.020418746
0.03962336 -0.09645957 -0.0058423406 0.029000012 0.1059933 0.049751922 -0.12948988 -0.08000154
0.10499657 -0.10048236 0.017459648 0.010546901 -0.05084981 -0.087538645 0.047625076 0.12064164
-0.12209364 0.002865445 -0.030279836 0.04438989 -0.022821948 0.026875501 -0.0656862 0.08881945
-0.1173633 -0.09553001 -0.04923547 0.049718447 0.01586519 -0.055709228 0.018962782 0.006051869
0.007900385 -0.04717009 -0.12405324 0.09617159 -0.040279217 -0.12378478 -0.013242685 0.11543319
0.12361367 0.045821097 0.009405944 0.13745493 0.020768208 -0.025891436 0.13544363 -0.0077053453
0.004346443 -0.02178643 0.0999743 0.15752363 0.15514931 0.06553495 -0.025056181 0.039604433
0.08685574 -0.03337883 0.14747523 0.12072547 -0.0010909104 -0.028063111 0.08354014 -0.041938853
0.13628468 -0.047283266 -0.08123506 -0.05661243 0.060557365 0.05910217 -0.048547175 0.08722952
-0.02957631 -0.08304989 0.02984443 0.04078074 0.017833991 -0.050009772 0.057476185 0.008986065
0.027518593 -0.09643684 0.09883507 0.08711039 0.12741195 -0.053896327 0.029824052 -0.048916705
0.06965923 -0.032674972 -0.04061395 0.035348658 0.08965826 0.12697193 -0.0111600645 0.07286084
0.12847388 -0.058570202 0.061643295 0.07627436 0.03477782 0.10186509 -0.011388873 0.12236698
00000000: 9a1a f6bd 8a57 4fbd e13f 263d becc d43d
00000010: 576c 903d 7f03 923b 0703 0f3e ec62 c5bd
00000020: 905f 013e 9e22 3dbc 6a0d 7ebd d1c3 0b3e
00000030: 5ff4 033e 6dba 0d3d 22f4 a53d 1896 79bd
00000040: 3b5a db3d 4146 863c cc68 72bd d22d 453e
00000050: 535b 21bd 0f03 fabb e35c 84bd 0654 64bd
00000060: efa7 4439 5c42 a7bd 347f 093e 8531 7fbd
00000070: db2e ba3c 04b6 5dbd 7714 44bd 80cf eb3c
00000080: 40ac e53d 1ded 263e 742f bf3d 86f0 de3d
00000090: 9af3 a93c 22ad f63d b644 46bd 8351 f03a
000000a0: 2f1d a53c d530 093d 71fd 99bd 16e4 c23d
000000b0: 3861 3c3c d277 b1bc d8df dbbd b8cd 083d
000000c0: 0dc8 853d e6c4 163d 88ea f83d 53c2 d13c
000000d0: 0ddb 0d3e 1962 3b3d 75ed 4e3d a182 7a3d
000000e0: 3fff 0a3e 3f1d c83d f9a6 cbbd cf89 39bc
000000f0: 52f0 35bc cd36 55bc 1afc 86bd f071 913d
00000100: 3e80 d0bd ba3e a13d 8abf 023d 7931 f1bd
00000110: a65c 833c 321d 72bd c360 fc3c 3a27 a13d
00000120: 88ca 0e3e 55a5 a13b 5b53 173e 6b38 023e
00000130: 8bdc cf3d b412 163e 7a40 7abd 92d1 0fbc
00000140: ca70 863b 0e41 a83c 70ae cebd b159 b0bb
00000150: b18c cb3d e058 abbd c482 c43d e2bd 443d
00000160: 79d6 9bbd a870 57bb 3aab 0bbd dd0e 71bd
00000170: dbf6 62bd 6d6f 893d b9f1 2bbd 6e37 163d
00000180: 015c 28bd 44de c73d 014d dd3d 1f2c 97bc
00000190: b486 fb3c e014 d6bb d625 aabd 4604 493e
000001a0: f6e1 1b3e 2f53 f2bc bd6c c5bd bf72 ed3d
000001b0: 2279 d63d 0444 89bc 4208 68bd 390c c23d
000001c0: 1bf2 4a3d d129 3a3d 7a47 78ba 91d7 f43d
000001d0: de58 49bd 03c3 b1bd b3f7 b6bd ff7f 493d
000001e0: 0ef0 673d b654 a63d b2e5 963d 3e4f 753d
000001f0: 6a46 9cbc eeed bcbd aa17 cc3d 9ab5 693d
00000200: 2284 08be 6074 9ebd 25d2 87bd aac5 98bd
00000210: 5b05 f9bd bd4e d4bd bd72 99bd 631d 7dbd
00000220: 6221 f73d db52 133e 4fca b93c 3773 843d
00000230: a53c 4e3d b098 633d a452 4e3c bbe1 f2bc
00000240: 2e90 a63d 652e 57bd 7ece 83bc 4ca2 ce3d
00000250: 041a 79bd 4aa9 89bd 2561 62bd 3745 a73c
00000260: 1b4c 223d 988c c5bd 1b71 bfbb 6f91 ed3c
00000270: 0413 d93d acc8 4b3d ff98 04be d9d7 a3bd
00000280: 7108 d73d b2c9 cdbd 8907 8f3c e9cc 2c3c
00000290: e447 50bd 7647 b3bd 8312 433d f712 f73d
000002a0: 3b0c fabd 31ca 3b3b 6b0d f8bc 2cd2 353d
000002b0: 18f5 babc 032a dc3c 7d86 86bd f9e6 b53d
000002c0: 2b5c f0bd 3da5 c3bd 22ab 49bd 92a5 4b3d
000002d0: b7f7 813c 5c2f 64bd d657 9b3c c24e c63b
000002e0: 9e70 013c 6d35 41bd a00f febd 9cf5 c43d
000002f0: d2fb 24bd e082 fdbd d9f7 58bc 3c68 ec3d
00000300: 2a29 fd3d e7ae 3b3d 631b 1a3c fcc0 0c3e
00000310: 1722 aa3c 471a d4bc bcb1 0a3e 1f7d fcbb
00000320: 9b6c 8e3b 7579 b2bc 53bf cc3d e04d 213e
00000330: 76df 1e3e 3037 863d 9f42 cdbc 4238 223d
00000340: 6ce1 b13d 3db8 08bd bf03 173e ea3e f73d
00000350: e1fc 8eba 9ce4 e5bc 1817 ab3d 13c8 2bbd
00000360: 368e 0b3e 19ac 41bd 915e a6bd 6fe2 67bd
00000370: 000b 783d 1e15 723d 67d9 46bd 64a5 b23d
00000380: 054a f2bc 1016 aabd 4e7c f43c b509 273d
00000390: 9718 923c 0cd7 4cbd 266c 6b3d 4a3a 133c
000003a0: ac6e e13c ae80 c5bd 0b6a ca3d ef66 b23d
000003b0: 4778 023e 65c2 5cbd 9251 f43c e25c 48bd
000003c0: 80a9 8e3d 31d6 05bd d05a 26bd c1c9 103d
000003d0: c09e b73d ee04 023e b4d8 36bc 1038 953d
000003e0: a88e 033e 4fe7 6fbd ae7d 7c3d bb35 9c3d
000003f0: 3073 0e3d a59e d03d 6598 3abc 8a9b fa3d

lstm.bias_hh_l0 f4 [256]
0.09210919 0.04503747 0.11734496 0.21945268 0.10002549 -0.1263603 0.086755425 0.092818916
-0.04816692 0.14559527 0.013372257 -0.0099196015 -0.07985296 0.011293049 -0.050895557 0.025166744
0.01960163 0.19827819 -0.07088562 0.021850334 0.07488656 -0.03576891 0.07341164 0.09083622
0.048662387 0.06327315 0.04773694 0.14296623 0.11024755 0.110248625 0.15472536 0.06530892
-0.079335414 -0.07012479 -0.08136496 0.114189744 0.11900651 0.057073094 0.059549063 -0.023319855
-0.05131829 -0.033280857 0.10750007 -0.06085378 -0.07467699 0.023690851 -0.057646286 0.055734713
0.06420813 -0.007916963 0.0018160974 0.025367972 0.16728558 0.08027254 -0.09027174 -0.03522414
0.058261055 0.08277915 0.11850018 -0.060140297 -0.012873474 0.062585175 0.07446122 -0.07245984
-0.005635909 0.09678565 0.11316331 0.10745828 0.040463544 0.019801093 0.10011718 0.17255847
-0.0027381214 -0.10728388 0.025336457 -0.039981425 0.12903395 0.03895714 -0.093539536 0.10196847
0.19232048 0.073731355 0.12097576 0.002084743 0.08314939 0.066516474 -0.09227675 0.14615716
-0.053085696 0.09419177 0.07068168 0.09297236 0.0024906758 -0.045338158 -0.009471468 0.029070701
-0.06981437 0.13282417 -0.05680315 -0.0860279 0.0887925 0.05532807 0.03537202 0.18494438
0.03754204 -0.0147734815 -0.09421375 0.10659588 0.026988737 -0.10139782 0.08839725 -0.0077583077
0.069368474 0.12703352 0.1257054 -0.0732257 -0.03443829 0.14989173 -0.0408458 -0.06046128
0.047705956 -0.11165713 -0.057047453 0.05894363 0.16969359 -0.087893754 0.12050581 -0.028600384
-0.037110582 0.022544382 -0.09340502 0.1094484 0.114893675 -0.098766804 0.01890598 0.09913898
0.03988829 0.094864964 -0.043177832 -0.03284423 -0.0038928376 0.00879033 -0.09726228 -0.086217366
0.08094561 0.13005646 -0.084125295 0.11703311 0.068063825 -0.13135342 -0.007994223 0.09281538
0.1079334 0.13399996 0.093188785 0.08763413 -0.103660725 0.122973576 -0.13261354 0.031311262
0.013036859 0.12656178 0.013713712 0.096300386 0.010409409 -0.016672699 0.054898225 0.0020051387
-0.14616282 0.0746973 0.098101996 0.08933229 -0.102303565 -0.030229889 -0.07141785 -0.089579016
-0.050889716 0.048111558 -0.055344798 -0.09338733 -0.09736918 0.042179003 0.10629872 -0.00970761
0.09399336 0.009778104 -0.10295328 -0.009006417 -0.05305884 0.050988186 0.0030558864 0.116596475
0.019702503 -0.046635315 0.1820733 0.06362588 0.011774753 0.09382107 0.09158137 0.019123973
-0.034284715 0.037253797 0.13944297 0.09206741 0.024870193 0.001719028 -0.07151261 0.10982109
0.038945485 -0.031414542 -0.078012936 0.15178555 0.015717931 0.0698372 0.14226253 0.043192934
0.10897446 0.05580878 0.034657035 0.09789605 0.022897845 -0.034141876 -0.015723294 -0.0041920114
0.014249124 0.11278027 -0.079919785 0.12404757 0.12775831 0.020752901 0.09240251 0.13152395
0.14161098 0.07426265 -0.045149602 0.04323779 0.08403517 -0.008240299 0.06669288 0.050495666
-0.015086629 0.08665924 -0.051007446 -0.0138064455 -0.028349666 -0.012760233 0.07310885 -0.04276928
0.089927465 -0.005282451 0.04973508 0.043847263 0.093660705 0.036624923 -0.030659739 -0.05872676
00000000: bea3 bc3d 3679 383d 8e52 f03d 34b8 603e
00000010: 2ada cc3d 9864 01be d4ac b13d d817 be3d
00000020: ad4a 45bd ed16 153e 5017 5b3c d385 22bc
00000030: f389 a3bd 7b06 393c dc77 50bd 7d2a ce3c
00000040: 9993 a03c 7009 4b3e 7b2c 91bd 79ff b23c
00000050: 205e 993d 6c82 12bd d858 963d 5708 ba3d
00000060: 3652 473d 5a95 813d cf87 433d bd65 123e
00000070: 78c9 e13d 08ca e13d 5370 1e3e afc0 853d
00000080: 9b7a a2bd 969d 8fbd aca2 a6bd 50dc e93d
00000090: afb9 f33d 7ac5 693d b8e9 733d 4809 bfbc
000000a0: 2133 52bd 8251 08bd ff28 dc3d d041 79bd
000000b0: 40f0 98bd 5113 c23c 831e 6cbd 154a 643d
000000c0: 8d7f 833d 26b6 01bc 1e0a ee3a 7ed0 cf3c
000000d0: e94c 2b3e ee65 a43d 64e0 b8bd 3047 10bd
000000e0: 25a3 6e3d 1d88 a93d 39b0 f23d ac55 76bd
000000f0: 43eb 52bc a82c 803d 207f 983d d365 94bd
00000100: 6ead b8bb 8e37 c63d 2ac2 e73d 1613 dc3d
00000110: 1abd 253d e735 a23c 3c0a cd3d 2bb3 303e
00000120: 0e72 33bb a7b7 dbbd 678e cf3c 90c3 23bd
00000130: 7a21 043e 8691 1f3d a891 bfbd d8d4 d03d
00000140: a9ef 443e 7700 973d 24c2 f73d 2fa0 083b
00000150: 3a4a aa3d ca39 883d 98fb bcbd 39aa 153e
00000160: 6370 59bd 9de7 c03d 8fc1 903d 4b68 be3d
00000170: 9b3a 233b 81b4 39bd 372e 1bbc ae25 ee3c
00000180: d6fa 8ebd 0f03 083e 6baa 68bd 652f b0bd
00000190: d8d8 b53d b09f 623d 40e2 103d 0f62 3d3e
000001a0: afc5 193d 790c 72bc 23f3 c0bd f14e da3d
000001b0: 7c17 dd3c a9a9 cfbd 9e09 b53d 6739 febb
000001c0: 0f11 8e3d 1315 023e ebb8 003e 5bf7 95bd
000001d0: 2a0f 0dbd 387d 193e ed4d 27bd 3fa6 77bd
000001e0: 5267 433d 7eac e4bd 97aa 69bd e06e 713d
000001f0: 28c4 2d3e a401 b4bd c0cb f63d 5a4b eabc
00000200: 4401 18bd ffae b83c 224b bfbd 7c26 e03d
00000210: 604d eb3d 4046 cabd b7e0 9a3c 6109 cb3d
00000220: e761 233d 9048 c23d 3ddb 30bd ac87 06bd
00000230: fa1e 7fbb 5105 103c 7231 c7bd bb92 b0bd
00000240: d0c6 a53d 852d 053e e249 acbd 0eaf ef3d
00000250: 0c65 8b3d 8381 06be 34fa 02bc fd15 be3d
00000260: 300c dd3d 4937 093e c3d9 be3d 8679 b33d
00000270: 134c d4bd 92d9 fb3d d8cb 07be 3d40 003d
00000280: 8d98 553c 6999 013e 7aaf 603c 2339 c53d
00000290: 3a8c 2a3c 2f95 88bc f6dc 603d a568 033b
000002a0: b5ab 15be e6fa 983d b3e9 c83d d9f3 b63d
000002b0: 8884 d1bd aca4 f7bc 8643 92bd 3475 b7bd
000002c0: bc71 50bd a010 453d 3ab1 62bd db41 bfbd
000002d0: 7e69 c7bd e4c3 2c3d 25b3 d93d ab0c 1fbc
000002e0: 977f c03d 5734 203c 2bd9 d2bd a78f 13bc
000002f0: 3a54 59bd fdd8 503d 4445 483b 22ca ee3d
00000300: 2567 a13c ac04 3fbd 6c71 3a3e 494e 823d
00000310: e5ea 403c 4325 c03d 038f bb3d e1a9 9c3c
00000320: 216e 0cbd 7097 183d 23ca 0e3e d78d bc3d
00000330: 93bc cb3c 0251 e13a 3475 92bd e1e9 e03d
00000340: 4d85 1f3d 89ac 00bd 3fc5 9fbd ac6d 1b3e
00000350: e4c2 803c ce06 8f3d 45ad 113e 13eb 303d
00000360: 002e df3d bf97 643d 89f4 0d3d b97d c83d
00000370: 4394 bb3c 5ad8 0bbd 23ce 80bc 245d 89bb
00000380: 2875 693c 58f9 e63d fcac a3bd a70c fe3d
00000390: 13d3 023e fd01 aa3c 873d bd3d 37ae 063e
000003a0: 7802 113e 0417 983d caee 38bd 1c1a 313d
000003b0: a21a ac3d 5202 07bc 4796 883d 8bd4 4e3d
000003c0: e92d 77bc 667a b13d 2fed 50bd 6e34 62bc
000003d0: 8f3d e8bc 4c10 51bc 18ba 953d d72e 2fbd
000003e0: e42b b83d 6918 adbb 03b7 4b3d 3099 333d
000003f0: 2fd1 bf3d 0404 163d 222a fbbc 798b 70bd

lstm.weight_ih_l0_reverse f4 [256, 40]
-0.014220015 -0.072683714 0.014337555 0.079844356 0.005613672 0.11307261 0.09636623 -0.07918119
0.1298636 0.08611566 -0.08428663 -0.05732237 -0.045301948 -0.107443675 -0.005774854 -0.09196874
-0.02703193 0.06771042 0.14658402 0.005215049 -0.0846036 0.024680749 0.14699373 0.06063397
-0.018441064 -0.19422883 -0.042206567 -0.008751397 -0.055223305 -0.119155936 -0.044282254 0.019345857
0.116052605 0.063911416 -0.01759106 -0.2872419 0.072215065 -0.061476022 -0.017891128 0.010091547
-0.0625915 0.16660851 -0.08812958 -0.17521343 -0.112535216 0.13582765 0.0065012095 0.009618121
-0.07754916 -0.12727405 0.0017171601 -0.14428069 0.119219914 0.10146317 0.019848818 0.03264403
0.02263646 -0.08466876 0.07917684 0.07134607 -0.0021320605 0.0072111106 0.08700888 0.07465582
-0.05649475 -0.17661521 -0.016863605 0.038838938 0.023044277 0.025505483 0.10252053 -0.06759894
-0.09973679 0.06877516 0.08587022 0.12489045 0.024263505 0.03840453 -0.11977493 0.023330046
0.017166741 -0.17352678 -0.065798864 0.040531367 0.031470954 0.12739834 0.0324435 -0.008776989
-0.12851053 0.030506203 -0.115187235 -0.024306193 -0.011775421 -0.01932124 0.016873311 -0.005898306
-0.13092092 0.05228832 0.0032894593 0.07656244 0.028056953 -0.052510053 -0.060194418 0.0027281933
-0.12934624 0.23348197 0.060140915 0.054363996 -0.053971004 0.055875026 -0.0013127429 -0.029202476
-0.033379786 0.06777968 0.068837695 -0.026889322 0.027069006 -0.12217082 0.022165222 0.14737841
-0.040991314 -0.1581215 -0.09785758 -0.022373348 0.11349943 0.17563614 -0.03150179 0.16911528
-0.1145547 -0.19080013 -0.034538314 -0.16844691 0.06286083 0.21579213 -0.030139713 0.1613588
0.07973892 -0.16320606 -0.019011512 -0.008719217 0.087798536 0.110029384 -0.026956243 -0.09037182
-0.0730921 0.1129845 0.0028533626 0.006566129 -0.13251756 -0.11420857 -0.034895875 -0.080950454
-0.022461625 0.077592686 0.086342216 0.07619328 -0.058843426 0.030624673 0.07256544 0.12752162
-0.15917346 -0.121570796 -0.12919621 -0.03986727 0.015251278 -0.054588016 -0.1375232 -0.022478009
-0.02520892 0.17365791 0.057960633 -0.058847222 0.061044637 -0.07886066 -0.14311127 0.117420666
-0.027574237 -0.1017361 0.060294677 0.14774252 0.046478085 -0.0032799807 -0.15586048 -0.07364491
-0.13555546 0.10377315 0.036864012 0.15132588 0.061624266 0.066534966 -0.14879483 -0.05244173
-0.16203268 0.0863794 -0.09346114 0.026470713 -0.0056131273 0.020255191 -0.10285887 0.07180335
-0.031943306 -0.07842651 -0.0076738787 0.27723634 -0.13894998 0.07695766 0.0012263536 0.15143919
0.08212443 0.022760725 -0.06375423 0.108795695 -0.0738141 0.14948629 -0.009966242 0.06287508
0.038010094 -0.14083482 0.09745694 0.14140424 0.08634831 0.011735501 -0.04036398 -0.13588963
0.099105865 0.05281793 -0.12054715 -0.01545811 -0.051900405 0.14171207 -0.098875314 0.06118445
-0.08957714 -0.070478044 0.09551317 0.27788708 0.08037149 -0.006204075 -0.10834275 0.0673653
0.09200576 -0.042982373 0.111203134 -0.015899044 -0.10471929 0.36669645 0.06892091 0.12101443
0.0040927785 -0.025134848 0.021067163 -0.16649702 0.04400084 0.019595813 0.030066002 0.15828577
00000000: 11fb 68bc 33db 94bd 10e8 6a3c 7085 a33d
00000010: e5f2 b73b 9d92 e73d a85b c53d bf29 a2bd
00000020: f7fa 043e 685d b03d 789e acbd ddca 6abd
00000030: 898e 39bd 6e0b dcbd fd3a bdbb 1b5a bcbd
00000040: 1172 ddbc c3ab 8a3d 1f1a 163e 00e3 aa3b
00000050: a744 adbd 482f ca3c 8685 163e 535b 783d
00000060: b711 97bc ece3 46be cbe0 2cbd 0562 0fbc
00000070: d531 62bd 0708 f4bd 4f61 35bd 347b 9e3c
00000080: fdac ed3d fde3 823d 201b 90bc 5f11 93be
00000090: 7ee5 933d 48ce 7bbd 6a90 92bc 0457 253c
000000a0: f92f 80bd 6c9b 2a3e 487d b4bd 266b 33be
000000b0: dd78 e6bd 6716 0b3e 1908 d53b 5395 1d3c
000000c0: 18d2 9ebd 2154 02be 5512 e13a 51be 13be
000000d0: 9229 f43d eccb cf3d fd99 a23c bfb5 053d
000000e0: 1970 b93c d166 adbd 7827 a23d e31d 923d
000000f0: 0aba 0bbb 2e4b ec3b b631 b23d 27e5 983d
00000100: 0a67 67bd 9eda 34be 8b25 8abc 9415 1f3d
00000110: 5ac7 bc3c e0f0 d03c 49f6 d13d 5071 8abd
00000120: cd42 ccbd fed9 8c3d badc af3d 90c6 ff3d
00000130: 42c4 c63c 124e 1d3d 8f4c f5bd a71e bf3c
00000140: 44a1 8c3c 01b1 31be 8ec1 86bd 3804 263d
00000150: b0e7 003d b674 023e 7ae3 043d 5ccd 0fbc
00000160: 4498 03be 25e8 f93c 49e7 ebbd c81d c7bc
00000170: b2ed 40bc 9447 9ebc e639 8a3c 9446 c1bb
00000180: 2210 06be 472c 563d f893 573b c5cc 9c3d
00000190: b2d7 e53c c814 57bd 6c8e 76bd 7dcb 323b
000001a0: 5773 04be e615 6f3e 5256 763d c8ac 5e3d
000001b0: b310 5dbd 36dd 643d 5810 acba 083a efbc
000001c0: 3eb9 08bd 13d0 8a3d c7fa 8c3d ff46 dcbc
000001d0: d2bf dd3c b234 fabd d793 b53c 5eea 163e
000001e0: 82e6 27bd 9aea 21be 8e69 c8bd 5048 b7bc
000001f0: 6472 e83d f6d9 333e 0508 01bd 8e2c 2d3e
00000200: a89b eabd 1c61 43be 0c78 0dbd 597d 2cbe
00000210: 2ebd 803d 9df8 5c3e 8fe7 f6bc 3e3b 253e
00000220: 294e a33d 7d1f 27be 08be 9bbc 0cdb 0ebc
00000230: b8cf b33d 1657 e13d 57d3 dcbc dc14 b9bd
00000240: 50b1 95bd 6b64 e73d 7bff 3a3b af28 d73b
00000250: afb2 07be 2fe6 e9bd faee 0ebd 5ac9 a5bd
00000260: 7101 b8bc eae8 9e3d 30d4 b03d 390b 9c3d
00000270: ce05 71bd 98e0 fa3c 309d 943d 0795 023e
00000280: 5efe 22be 1cfa f8bd 034c 04be dd4b 23bd
00000290: 7fe0 793c af97 5fbd e2d2 0cbe cd23 b8bc
000002a0: f082 cebc 61d3 313e 2168 6d3d c909 71bd
000002b0: f109 7a3d b381 a1bd c38b 12be 3f7a f03d
000002c0: 5ee3 e1bc 045b d0bd 8df7 763d d149 173e
000002d0: ce5f 3e3d f2f4 56bb e499 1fbe 24d3 96bd
000002e0: 0dcf 0abe 0487 d43d b8fe 163d 2cf5 1a3e
000002f0: ba69 7c3d 7c43 883d ac5d 18be 24cd 56bd
00000300: e5eb 25be afe7 b03d 8e68 bfbd 1cd9 d83c
00000310: 53ee b7bb 37ee a53c aca7 d2bd a20d 933d
00000320: fcd6 02bd 149e a0bd 2975 fbbb ecf1 8d3e
00000330: e748 0ebe fa9b 9d3d 99bd a03a e012 1b3e
00000340: da30 a83d b374 ba3c 9491 82bd 47d0 de3d
00000350: d92b 97bd ef12 193e 7349 23bc a6c4 803d
00000360: 79b0 1b3d 0137 10be 8197 c73d 46cc 103e
00000370: 62d7 b03d 4246 403c b354 25bd a726 0bbe
00000380: 04f8 ca3d 9d57 583d 6de1 f6bd 0344 7dbc
00000390: 8595 54bd f81c 113e 247f cabd 8c9c 7a3d
000003a0: 3874 b7bd cb56 90bd 699c c33d 3747 8e3e
000003b0: cf99 a43d 8e4b cbbb cee2 ddbd d2f6 893d
000003c0: 846d bc3d 490e 30bd 78be e33d b63e 82bc
000003d0: 1177 d6bd a3bf bb3e 6826 8d3d 6ad6 f73d
000003e0: b71c 863b 99e7 cdbc 0b95 ac3c 327e 2abe
000003f0: 3a3a 343d 6687 a03c fa4c f63c aa15 223e

lstm.weight_hh_l0_reverse f4 [256, 64]
0.0016535752 -0.017041948 0.02333914 0.009008477 0.01216871 -0.0342291 -0.0035766137 0.11778999
-0.013303247 0.059019793 -0.14391285 0.04753656 -0.07268099 -0.1026563 0.0019408662 0.07542603
-0.13930325 0.08640106 -0.1546858 -0.011196517 -0.053083777 -0.04480106 0.14423296 -0.07367578
0.17379726 -0.14374287 -0.06992205 0.064031586 -0.08531423 0.021659585 -0.0379258 -0.093556516
0.027551904 0.08254086 -0.016885292 -0.008161812 -0.008626421 0.008525355 -0.04434571 -0.053286985
0.08607179 -0.00055819534 0.05144734 0.120370835 0.06286936 0.018829854 -0.04797385 -0.16207635
0.036247104 0.018561509 0.013064981 -0.010763825 -0.027018743 0.09416866 0.053924553 -0.08274728
0.06407679 0.0318342 -0.036882173 0.06844967 0.12989807 -0.07561751 -0.10595384 -0.0003872389
-0.039126165 -0.08555994 0.04081076 0.13620082 -0.077532224 -0.15388405 -0.07136311 -0.0824404
0.13405578 -0.08874517 -0.058389388 -0.089871846 0.03724395 0.043807045 -0.0892771 -0.19260587
-0.0028644805 -0.04417173 0.03994126 0.1313853 -0.00980037 0.029607456 0.068982325 0.056340072
-0.008188442 0.02114147 0.003138136 0.02071985 0.029247276 0.11098484 -0.0549111 -0.093033284
0.02229474 0.013699301 0.129735 -0.13743262 -0.14612232 -0.1576384 0.016276589 0.06714472
0.0074185138 -0.13252208 0.09907457 0.08168831 0.05727075 0.13015895 0.01190249 -0.086121134
0.07326155 0.043863483 -0.104368426 -0.12585281 -0.12119791 -0.06643262 -0.09067811 -0.020325651
0.0023499324 0.013243281 -0.13087597 0.14188868 -0.10853763 0.06281737 0.09779497 -0.11261543
0.02527202 0.010290443 0.05215306 0.023683347 -0.06636734 -0.07679615 -0.03322102 0.037731677
0.06818174 0.015789356 -0.10261307 -0.12990977 -0.13377501 -0.045523148 -0.03840665 0.037783593
-0.03450292 -0.061995376 0.11948872 0.005863573 0.05665185 -0.13825561 0.07685168 0.12133152
-0.011461856 -0.062424693 0.13339274 0.13232708 0.061546884 -0.00067370816 0.08245826 0.09490791
0.022919968 0.14555362 -0.07634758 0.005893409 -0.060143508 -0.05976172 0.06252637 0.04685476
0.122710675 -0.07711465 0.085490376 0.05896148 -0.20604049 0.08999442 0.09691412 -0.062042214
-0.1197797 0.057130437 -0.14532503 0.13532928 0.13915807 0.12169402 -0.12213811 -0.00018668809
-0.04408091 -0.01452244 0.018450808 -0.12956364 -0.041920524 0.010880705 -0.012401788 0.1356728
0.22810075 -0.13238636 -0.04177466 -0.29473087 0.20016286 0.16085914 0.32235005 0.044009645
0.110316224 -0.049590025 0.0829519 -0.07916705 0.03100985 0.17752582 0.17406495 -0.10229802
0.1268479 -0.012720874 0.046938747 0.10386761 -0.104248606 -0.00842614 -0.10935776 -0.022631396
-0.28419682 0.01106184 0.1850428 0.12548293 -0.16829969 -0.056909196 0.098390594 0.03949865
0.088717684 -0.06669321 0.11113026 -0.12609947 -0.025056165 0.2139039 0.2767754 0.10321888
-0.2669043 0.071999304 -0.019325064 -0.24900837 -0.014136448 0.0016623324 -0.010352378 -0.064637356
-0.15619503 -0.050101243 -0.034788117 0.13303496 0.0016550724 0.23941049 -0.04319416 -0.08266255
-0.07388328 -0.096526 0.11614965 0.00071578345 -0.03952005 0.052857276 -0.08701799 0.10685715
00000000: c7bc d83a 8e9b 8bbc b931 bf3c 4b98 133c
00000010: 455f 473c d033 0cbd 9f65 6abb e13b f13d
00000020: ddf5 59bc bdbe 713d e45d 13be b2b5 423d
00000030: c5d9 94bd 773d d2bd aa64 fe3a f678 9a3d
00000040: 83a5 0ebe 0af3 b03d f465 1ebe 9971 37bc
00000050: 606e 59bd 5181 37bd ceb1 133e 54e3 96bd
00000060: e9f7 313e 5531 13be 4b33 8fbd fe22 833d
00000070: 3ab9 aebd 716f b13c 1558 1bbd 8f9a bfbd
00000080: 88b4 e13c 2f0b a93d 0653 8abc 1fb9 05bc
00000090: d555 0dbc eead 0b3c d9a3 35bd 7443 5abd
000000a0: 6846 b03d db53 12ba 72ba 523d fc84 f63d
000000b0: a7c1 803d 1141 9a3c 3a80 44bd 58f7 25be
000000c0: d877 143d 4e0e 983c 810e 563c c15a 30bc
000000d0: 6956 ddbc 80db c03d fedf 5c3d 6877 a9bd
000000e0: b13a 833d 9464 023d c311 17bd 572f 8c3d
000000f0: 0004 053e 5add 9abd 54fe d8bd 5306 cbb9
00000100: c242 20bd 0d3a afbd 2f29 273d 3a78 0b3e
00000110: 37c9 9ebd c893 1dbe d226 92bd 83d6 a8bd
00000120: eb45 093e 07c0 b5bd b629 6fbd bb0e b8bd
00000130: 1d8d 183d 046f 333d ead6 b6bd 793a 45be
00000140: 02ba 3bbb 6aed 34bd 7299 233d de89 063e
00000150: bb91 20bc 568b f23c 9b46 8d3d d9c4 663d
00000160: d128 06bc e030 ad3c 2fa9 4d3b adbc a93c
00000170: fc97 ef3c 054c e33d 76ea 60bd 3c88 bebd
00000180: 75a3 b63c 0873 603c 40d9 043e 23bb 0cbe
00000190: 17a1 15be f66b 21be 7b56 853c 2c83 893d
000001a0: 0117 f33b deb3 07be 9ce7 ca3d 334c a73d
000001b0: bc94 6a3d 6348 053e a902 433c 4760 b0bd
000001c0: 270a 963d 32aa 333d 1dbf d5bd 8fdf 00be
000001d0: 9c36 f8bd d30d 88bd 72b5 b9bd fb81 a6bc
000001e0: 5301 1a3b 59fa 583c 5a04 06be 444b 113e
000001f0: fa48 debd 65a6 803d bb48 c83d eba2 e6bd
00000200: 4407 cf3c 3f99 283c 729e 553d 9403 c23c
00000210: 9aeb 87bd 4d47 9dbd c412 08bd 888c 1a3d
00000220: dea2 8b3d ae58 813c cd26 d2bd 1107 05be
00000230: 51fc 08be 7b76 3abd 4b50 1dbd f8c2 1a3d
00000240: ef52 0dbd ddee 7dbd 81b6 f43d 3723 c03b
00000250: c50b 683d e192 0dbe 6a64 9d3d a97c f83d
00000260: 82ca 3bbc 09b1 7fbd 1b98 083e c080 073e
00000270: 9618 7c3d ca9b 30ba e0df a83d 145f c23d
00000280: a8c2 bb3c 020c 153e 1f5c 9cbd 7f1d c13b
00000290: 0a59 76bd b5c8 74bd d30d 803d c7ea 3f3d
000002a0: bc4f fb3d 49ee 9dbd 9415 af3d 9881 713d
000002b0: 47fc 52be ff4e b83d e97a c63d fa1f 7ebd
000002c0: 0f4f f5bd 9b01 6a3d 16d0 14be c293 0a3e
000002d0: 747f 0e3e b73a f93d 8c23 fabd b4c1 43b9
000002e0: 2f8e 34bd 87ef 6dbc 2626 973c 55ac 04be
000002f0: dbb4 2bbd fc44 323c de30 4bbc cfed 0a3e
00000300: 3e93 693e 4a90 07be e81b 2bbd f7e6 96be
00000310: 7ef7 4c3e 42b8 243e 110b a53e 7543 343d
00000320: 79ed e13d e91e 4bbd b0e2 a93d 5622 a2bd
00000330: 5e08 fe3c 54c9 353e 153e 323e a081 d1bd
00000340: 6ae4 013e 366b 50bc d842 403d 8bb8 d43d
00000350: 4b80 d5bd cb0d 0abc f6f6 dfbd 7a65 b9bc
00000360: 3f82 91be b83c 353c dc7b 3d3e 997e 003e
00000370: c156 2cbe 9e19 69bd 0281 c93d 56c9 213d
00000380: 9eb1 b53d 7396 88bd 4398 e33d 3820 01be
00000390: 9642 cdbc a009 5b3e 81b5 8d3e 6c64 d33d
000003a0: aea7 88be 5f74 933d 994f 9ebc 0dfc 7ebe
000003b0: 8f9c 67bc 9fe2 d93a 059d 29bc 9760 84bd
000003c0: 97f1 1fbe f636 4dbd fc7d 0ebd 513a 083e
000003d0: 04ef d83a 0628 753e 5cec 30bd fc4a a9bd
000003e0: 1e50 97bd 6caf c5bd dedf ed3d 6aa3 3b3a
000003f0: c7df 21bd df80 583d 7d36 b2bd ecd7 da3d

lstm.bias_ih_l0_reverse f4 [256]
0.10098465 -0.020411776 0.03996224 -0.12512612 0.048952226 -0.096481316 -0.013684205 -0.066675924
0.066652544 0.06147927 0.07404486 -0.1020256 0.10658585 0.023607248 0.19286911 -0.027528359
0.04478965 0.14093569 -0.08243336 0.046241783 0.14069858 0.044641346 0.0022564633 -0.03693548
0.08413089 -0.053360034 -0.082489796 -0.07638871 0.09907387 -0.0065345694 0.061495993 0.12036424
-0.030359315 0.040339552 0.15360953 0.027786259 -0.11232 -0.04731344 0.040830944 -0.06590809
0.03212216 -0.017025601 -0.06607799 0.009861758 0.044243623 0.11856088 -0.07733582 -0.030799102
0.06689266 0.044119984 0.15136836 0.06967263 0.039874554 0.0063117794 0.018253267 0.0116627
0.077460565 -0.018793415 -0.014706817 -0.0286003 0.1138226 0.15289037 -0.005390315 0.19847433
-0.00012585321 0.11372562 -0.022792494 -0.007277249 -0.08480212 0.09303142 0.14578901 0.16096033
-0.029630091 0.0737287 0.0320953 0.10244446 -0.07961078 0.070831686 -0.03351356 0.07524677
-0.039266642 0.027813403 0.07676695 0.1409697 0.13555118 -0.04727522 0.04715466 0.04194658
0.056249913 0.090146534 0.07059737 0.15614188 0.1180817 0.18930782 0.05622508 0.13715912
-0.009186782 0.053305276 0.0926629 0.018034628 0.008386507 -0.062212743 0.18355024 0.11425125
0.020353924 0.10392383 0.10336291 0.18276548 -0.033475712 0.04602224 0.13036749 -0.006113167
0.124880575 0.004576367 0.008744061 0.0783166 0.15219596 0.052975975 0.08582388 0.21930654
0.063879594 -0.090888254 0.20684956 0.057979085 0.09603004 0.07885674 0.06141657 0.05111497
-0.0723634 -0.0031313554 0.06330221 0.12932192 0.0072572595 -0.0650765 -0.085324936 -0.016436016
0.098981515 -0.13862877 -0.028412128 0.015533069 -0.049888406 -0.0753665 0.12255856 -0.0684582
-0.037929032 -0.0022165088 0.026705597 0.030439205 -0.124251105 0.018055992 0.10386371 0.0092621185
0.022218969 0.09367157 -0.042545244 0.05455629 -0.038836107 0.009756016 -0.054858204 0.020876627
-0.07439732 -0.0099771535 0.051068567 0.059500474 0.09911193 -0.0855304 -0.013167681 0.078514725
0.033676688 -0.014565005 0.11977521 0.030628895 -0.082920104 -0.06585271 -0.025945956 -0.013905778
-0.12935765 -0.08880759 0.048185106 0.064449325 -0.06681359 0.0082108 0.023227789 -0.030418186
0.0775179 0.054934442 -0.11699368 -0.067936845 0.081008725 0.08477533 -0.058679536 -0.08408987
0.102130614 0.15452531 -0.064840905 -0.011288506 -0.030607149 -0.06728959 0.12805639 0.09076577
0.059924573 0.0060934452 -0.005094406 0.09876434 0.0964435 0.11048536 0.11122755 0.19492167
0.0758143 0.084353596 -0.006191758 0.1469945 0.06069214 0.07627755 -0.013115362 0.10673642
0.16461906 0.120432444 0.037265886 -0.05973471 0.051347494 0.07406425 0.00848556 -0.01680959
0.047009565 0.05855867 0.029179249 0.042364784 0.04671338 0.13102302 0.11335212 0.011012732
0.08414987 0.0069526765 0.14653647 0.16604574 0.06180184 -0.01939828 0.03434877 0.14891872
0.20457391 0.06088537 0.10241309 -0.06405857 0.0947265 0.024213511 0.13830486 0.13100739
0.0020346984 0.14191835 0.12925546 6.1969295e-05 0.098116204 -0.012387742 0.019771341 0.075932994
00000000: 0ad1 ce3d 9936 a7bc 72af 233d 1021 00be
00000010: 2182 483d ff97 c5bd b733 60bc 638d 88bd
00000020: 2181 883d b0d1 7b3d d5a4 973d ccf2 d0bd
00000030: af49 da3d fd63 c13c 7b7f 453e 2783 e1bc
00000040: 5a75 373d 7251 103e d2d2 a8bd 0668 3d3d
00000050: 4a13 103e d8d9 363d 2ce1 133b a849 17bd
00000060: d14c ac3d 0d90 5abd 69f0 a8bd af71 9cbd
00000070: 3ee7 ca3d f11f d6bb 39e3 7b3d 8781 f63d
00000080: 19b4 f8bc 163b 253d d14b 1d3e 02a0 e33c
00000090: 0708 e6bd bdcb 41bd 593e 273d d2fa 86bd
000000a0: 8792 033d 4679 8bbc e653 87bd 3693 213c
000000b0: cd38 353d 0cd0 f23d 3e62 9ebd 664e fcbc
000000c0: 05ff 883d 28b7 343d 4f00 1b3e 86b0 8e3d
000000d0: 8053 233d 0bd3 ce3b e087 953c e914 3f3c
000000e0: a5a3 9e3d a6f4 99bc ddf4 70bc 2d4b eabc
000000f0: d31b e93d 4b8f 1c3e 3da1 b0bb db3c 4b3e
00000100: 77f7 03b9 fae8 e83d 53b7 babc fd75 eebb
00000110: bcac adbd 4287 be3d b749 153e c9d2 243e
00000120: ceba f2bc 13ff 963d 5c76 033d 67ce d13d
00000130: fa0a a3bd 3410 913d 8445 09bd fb1a 9a3d
00000140: 0fd6 20bd efd8 e33c fe37 9d3d 5c5a 103e
00000150: eecd 0a3e a9a3 41bd 3f25 413d 2dd0 2b3d
00000160: 4f66 663d bf9e b83d 5b95 903d a8e3 1f3e
00000170: d1d4 f13d e9d9 413e 454c 663d 7173 0c3e
00000180: 2884 16bc a256 5a3d 0cc6 bd3d 5bbd 933c
00000190: 8f67 093c cad2 7ebd 98f4 3b3e 8ffc e93d
000001a0: 46bd a63c 04d6 d43d efaf d33d e026 3b3e
000001b0: d41d 09bd d181 3c3d 0e7f 053e f650 c8bb
000001c0: 63c1 ff3d 59f5 953b 4043 0f3c 7464 a03d
000001d0: 42d9 1b3e 56fd 583d 6ec4 af3d e591 603e
000001e0: 4ed3 823d 9f23 babd 5fd0 533e 7a7b 6d3d
000001f0: 66ab c43d a47f a13d f18f 7b3d ee5d 513d
00000200: 4333 94bd 6d37 4dbb 97a4 813d f76c 043e
00000210: 4ece ed3b d446 85bd d7be aebd d3a4 86bc
00000220: d2b6 ca3d b3f4 0dbe 8dc0 e8bc 6a7e 7e3c
00000230: c957 4cbd c059 9abd fbff fa3d d033 8cbd
00000240: 795b 1bbd d942 11bb b2c5 da3c a45b f93c
00000250: 5d77 febd 29ea 933c 7fb6 d43d 24c0 173c
00000260: 8e04 b63c e1d6 bf3d ec43 2ebd 6b76 5f3d
00000270: 9c12 1fbd b2d7 1f3c ffb2 60bd 7605 ab3c
00000280: 9f5d 98bd 3777 23bc 462d 513d c5b6 733d
00000290: 32fb ca3d 902a afbd 42bd 57bc 54cc a03d
000002a0: 91f0 093d 0fa2 6ebc b54c f53d 73e9 fa3c
000002b0: 04d2 a9bd c9dd 86bd 9d8c d4bc 0fd5 63bc
000002c0: 5576 04be c1e0 b5bd bf5d 453d 02fe 833d
000002d0: 90d5 88bd 9786 063c 3448 be3c 8f2f f9bc
000002e0: b4c1 9e3d f002 613d 629a efbd 7922 8bbd
000002f0: e7e7 a53d b09e ad3d f459 70bd 4f37 acbd
00000300: db29 d13d e23b 1e3e 4fcb 84bd 6df3 38bc
00000310: d8bb fabc 20cf 89bd 3721 033e 67e3 b93d
00000320: 7873 753d 86ab c73b faee a6bb f544 ca3d
00000330: 2b84 c53d 2646 e23d 45cb e33d 8c99 473e
00000340: 8744 9b3d 94c1 ac3d 3be4 cabb ba85 163e
00000350: 5298 783d 6737 9c3d d1e1 56bc a098 da3d
00000360: e691 283e 49a5 f63d 1da4 183d 62ac 74bd
00000370: c051 523d ffae 973d 0507 0b3c 44b4 89bc
00000380: 1a8d 403d 37db 6f3d 5209 ef3c b286 2d3d
00000390: 8756 3f3d e62a 063e 2825 e83d bf6e 343c
000003a0: c456 ac3d 47d3 e33b a80d 163e e507 2a3e
000003b0: ed23 7d3d 24e9 9ebc 4cb1 0c3d 267e 183e
000003c0: d37b 513e f062 793d f4bd d13d 2431 83bd
000003d0: f8ff c13d 6a5b c63c ca9f 0d3e cd26 063e
000003e0: 9358 053b 0b53 113e 8b5b 043e 83f5 8138
000003f0: 26f1 c83d f5f5 4abc 82f7 a13c c282 9b3d

lstm.bias_hh_l0_reverse f4 [256]
-0.016011916 0.017907048 0.095865436 -0.058798227 -0.08905796 0.12804736 0.12765613 0.105238505
-0.08490497 0.16567129 0.04979853 0.105581075 0.12348241 -0.01435987 0.13765295 0.027741335
0.12849188 0.039146185 -0.035825547 0.14098774 0.17740077 -0.07704654 0.10023957 0.034025062
-0.048917502 0.074940115 -0.06349865 -0.017849032 0.09897566 0.07954879 0.05416895 0.043948773
-0.084729865 0.028197287 0.11068391 0.059347596 0.041503314 -0.02234994 -0.07713615 0.08914589
-0.04186898 0.006354248 0.030176139 -0.0023811376 0.039685365 -0.031319786 0.08205902 0.04788374
0.1588611 0.07052336 -0.008244882 0.1395552 0.06015265 0.12830274 -0.0034627754 0.04863172
0.06537118 -0.057151556 0.098247066 -0.022145454 0.065943405 0.14258602 -0.021700783 -0.026652562
0.042791978 -0.05026698 -0.075494684 0.15009189 -0.04538734 0.17429772 0.14353074 -0.07653447
0.10407903 0.02054684 -0.06391351 0.20764264 -0.0100314 0.029985057 0.18329357 0.008518282
0.088794194 0.07481228 0.086988084 0.016024493 -0.054196212 0.01086314 -0.0023147482 -0.028872179
0.041161202 0.17872989 -0.08866872 0.034651373 0.022350878 0.025362559 0.045416087 0.024241908
-0.06485496 -0.026779456 0.02035963 0.0072958637 -0.024016995 0.16130213 0.12606254 0.16108373
0.04726702 0.12509818 0.11891158 0.0155127365 -0.045694828 0.113760605 -0.02838325 0.13627209
0.07612161 0.05595839 0.05902399 0.092090495 -0.04788582 -0.0048902133 0.091384105 0.068921566
0.14568003 -0.029076817 0.03670048 0.108294375 0.0959642 -0.055212893 0.046165247 -0.00071584794
-0.022405004 0.013271887 -0.0024485488 -0.0903664 -0.014679064 -0.074970625 -0.110545084 0.09102329
-0.0025412599 0.097103424 0.0032199484 -0.09082533 0.089578114 -0.033024937 0.07460217 0.06499863
0.14340863 -0.07288789 -0.10640998 0.056366306 -0.10394826 0.057898857 0.053557657 0.0028869011
0.08136791 -0.047726184 0.039366122 -0.010885876 -0.13253112 0.03864421 -0.13047045 0.022147836
0.043684926 -0.10463545 -0.030301595 0.09579424 0.079970315 0.055018317 -0.046298467 0.010341959
-0.07017182 -0.031936135 -0.08175803 0.042783506 0.12147215 0.12762769 -0.13778764 0.07595937
0.0604634 -0.1278047 0.028928101 0.09720827 0.014298132 -0.09349554 -0.015352507 -0.039116807
-0.11735402 -0.03978068 -0.07412963 0.059380315 0.0065678754 -0.045834493 -0.008406904 0.049778424
0.12097783 0.064617634 -0.099351846 0.0641134 -0.025632761 0.09155347 -0.015041291 0.11171216
0.0047831624 0.06912503 0.08604038 0.030505441 0.02552165 0.06577085 0.09812475 0.048176944
-0.041665953 -0.051112644 0.2044943 -0.03200706 -0.0810809 0.08344596 0.116306454 0.028264243
-0.012282207 0.167015 -0.0773383 0.08251088 -0.06294464 0.04971611 -0.07384984 0.14818718
-0.03843595 0.023496417 0.17351758 0.16515522 0.1395862 0.14497438 0.07399191 0.16346769
-0.0013072196 -0.013833653 0.07335269 0.17607574 0.12071538 0.1716788 -0.08093413 -0.016007692
-0.022791987 0.16334943 -0.03959348 -0.039975133 0.24756631 0.08988462 0.04274574 0.24132447
0.1254677 0.08565655 0.04985739 0.06714187 -0.00049119344 -0.033316337 0.12474138 -0.015125785
00000000: 6c2b 83bc cdb1 923c 1955 c43d 69d6 70bd
00000010: 0564 b6bd d91e 033e 4ab8 023e 4987 d73d
00000020: a8e2 adbd bca5 293e 8bf9 4b3d e43a d83d
00000030: 59e4 fc3d a945 6bbc e5f4 0c3e cc41 e33c
00000040: 6093 033e c057 203d cfbd 12bd 175f 103e
00000050: 8ca8 353e 94ca 9dbd 674a cd3d dd5d 0b3d
00000060: b85d 48bd 347a 993d 950b 82bd 2238 92bc
00000070: c0b3 ca3d 7aea a23d 43e0 5d3d a103 343d
00000080: da86 adbd fffd e63c 3fae e23d 7716 733d
00000090: 61ff 293d 3917 b7bc 8ff9 9dbd 1f92 b63d
000000a0: cf7e 2bbd 4c37 d03b f333 f73c dc0c 1cbb
000000b0: 1f8d 223d 2d49 00bd 8f0e a83d be21 443d
000000c0: 7cac 223e 8d6e 903d 8b15 07bc 8fe7 0e3e
000000d0: a062 763d cb61 033e bbef 62bb 0e32 473d
000000e0: 53e1 853d c017 6abd c235 c93d 626a b5bc
000000f0: 560d 873d 1202 123e d7c5 b1bc 7956 dabc
00000100: a446 2f3d c0e4 4dbd f59c 9abd b0b1 193e
00000110: 13e8 39bd 1a7b 323e b9f9 123e 1bbe 9cbd
00000120: 6327 d53d d951 a83c 16e5 82bd 46a0 543e
00000130: be5a 24bc 39a3 f53c 4fb1 3b3e 4490 0b3c
00000140: bbd9 b53d 2e37 993d cf26 b23d cc45 833c
00000150: d9fc 5dbd 50fb 313c 08b3 17bb 5985 ecbc
00000160: a698 283d f804 373e f297 b5bd 99ee 0d3d
00000170: 3019 b73c 24c5 cf3c 3806 3a3d f796 c63c
00000180: add2 84bd 9760 dbbc 3dc9 a63c 2412 ef3b
00000190: 4abf c4bc 632c 253e 8a16 013e 22f3 243e
000001a0: 109b 413d bd19 003e ea87 f33d 2229 7e3c
000001b0: 802a 3bbd 52fb e83d fd83 e8bc e98a 0b3e
000001c0: a6e5 9b3d a034 653d 24c3 713d f199 bc3d
000001d0: ec23 44bd 153e a0bb 9727 bb3d c026 8d3d
000001e0: 252d 153e 8132 eebc 3e53 163d 71c9 dd3d
000001f0: e188 c43d ea26 62bd c517 3d3d bea7 3bba
00000200: b38a b7bc 5472 593c d577 20bb 0512 b9bd
00000210: 7580 70bc 338a 99bd 7665 e2bd 6b6a ba3d
00000220: 448b 26bb 29de c63d c505 533b a102 babd
00000230: bb74 b73d 2845 07bd 06c9 983d 001e 853d
00000240: b6d9 123e 3f46 95bd 7aed d9bd 5be0 663d
00000250: d3e2 d4bd 5a27 6d3d 465f 5b3d 2a32 3d3b
00000260: 38a4 a63d 887c 43bd 5f3e 213d ac5a 32bc
00000270: 3db6 07be 6449 1e3d 0c9a 05be 616f b53c
00000280: f7ee 323d 1c4b d6bd 0d3b f8bc c52f c43d
00000290: 7ac7 a33d e35a 613d 76a3 3dbd 5271 293c
000002a0: 3eb6 8fbd 77cf 02bd c170 a7bd c23d 2f3d
000002b0: 64c6 f83d d5b0 023e 3418 0dbe 9690 9b3d
000002c0: 78a8 773d 3cdf 02be a0fa ec3c 2115 c73d
000002d0: b642 6a3c 977a bfbd 1589 7bbc f238 20bd
000002e0: 4e57 f0bd 11f1 22bd 47d1 97bd c638 733d
000002f0: 5537 d73b f3bc 3bbd 1cbd 09bc 76e4 4b3d
00000300: 39c3 f73d 4056 843d fb78 cbbd e34d 833d
00000310: ccfb d1bc 6380 bb3d bf6f 76bc 58c9 e43d
00000320: 13bc 9c3b 6c91 8d3d f035 b03d 8ce6 f93c
00000330: c812 d13c deb2 863d a1f5 c83d 3055 453d
00000340: eba9 2abd 7e5b 51bd f466 513e d619 03bd
00000350: be0d a6bd b7e5 aa3d 1432 ee3d 6a8a e73c
00000360: 4f3b 49bc fb05 2b3e 8b63 9ebd 77fb a83d
00000370: 1fe9 80bd 1fa3 4b3d 963e 97bd 61be 173e
00000380: 046f 1dbd 8f7b c03c 98ae 313e 731e 293e
00000390: afef 0e3e 2a74 143e 1289 973d 1364 273e
000003a0: 0357 abba 8ca6 62bc ef39 963d 334d 343e
000003b0: a039 f73d 91cc 2f3e cbc0 a5bd 9022 83bc
000003c0: 43b6 babc 1345 273e c62c 22bd f7bc 23bd
000003d0: 0682 7d3e 6d15 b83d 2816 2f3d c31d 773e
000003e0: 9b7a 003e b46c af3d 4337 4c3d ad81 893d
000003f0: 6fc3 00ba b676 08bd 6978 ff3d 24d2 77bc
