trained_models/LSTM/LSTM_Zscore_CF1_pred_4.pth (torch, 661823 bytes, 23 tensors)

lstm.weight_ih_l0 f4 [256, 40]
0	0xbca74f2b	-0.020423492
1	0x3db9d415	0.090736546
2	0xbdcf81ed	-0.10132203
3	0x3d55008e	0.052002482
4	0xbd0bbe41	-0.034116987
5	0x3d816486	0.063180014
6	0xbe043fe0	-0.12914991
7	0xbd5b0009	-0.05346683
8	0x3cf15345	0.029458651
9	0x3dd52431	0.104072936
10	0x3d8686a8	0.065686524
11	0x3e0fc7b0	0.14041018
12	0xbdf052f9	-0.11734576
13	0xbd3a68db	-0.045510154
14	0xbd6bf8c3	-0.057610285
15	0x3bf165da	0.007366878
16	0xbdde022f	-0.1084026
17	0xbd61fceb	-0.055172842
18	0xbd1eee7b	-0.03880165
19	0xbd562c7b	-0.052288514
20	0xbdd39576	-0.10331242
21	0xbd3a97f4	-0.04555507
22	0x3d9c6aa4	0.076375276
23	0xbd0cb4a8	-0.034351975
24	0xbd858e73	-0.06521311
25	0xbddffaad	-0.109364845
26	0xbdd619ad	-0.10454116
27	0x3dd2572f	0.10270535
28	0x3dd38558	0.10328168
29	0x3d1caa9b	0.03824864
30	0x3cf867db	0.03032296
31	0xbc9df4f8	-0.01928185
32	0x3de54526	0.1119483
33	0x3d865bf7	0.0656051
34	0x3dd7d21b	0.10538121
35	0x3d22dcaf	0.03976124
36	0xbcb23835	-0.021755317
37	0x3dea82a9	0.11450703
38	0x3dc87770	0.09788406
39	0xbc90213f	-0.017593978
40	0x3dddb611	0.10825742
41	0xbd742c5c	-0.059612617
42	0xbdefd35b	-0.11710235
43	0x3d9056b1	0.07047785
44	0xbb0c8e19	-0.0021447001
45	0xbd169ffb	-0.036773663
46	0xbdac7f40	-0.084227085
47	0x3d9eb883	0.077500366
48	0xbdbe61b8	-0.09295982
49	0xbd8368e4	-0.06416491
50	0xbdb6e1e7	-0.08929806
51	0xbd76f4ea	-0.060292162
52	0x3d9738bb	0.07383867
53	0xbd4a91e9	-0.049455557
54	0x3d57d88d	0.052696753
55	0x3dd046a4	0.10169724
56	0xbd1271ec	-0.035753176
57	0x3d4a8a0d	0.04944806
58	0x3bdc9ced	0.006732574
59	0x3d878624	0.06617382
60	0x3be1b875	0.006888444
61	0xbda12d58	-0.07869977
62	0x3dd952ae	0.10611473
63	0x3de15ed7	0.110044174
64	0xbe08eac2	-0.13370803
65	0xbdceeda6	-0.101039216
66	0x3d9d02f9	0.076665826
67	0xbc75478e	-0.014970673
68	0xbdeb6540	-0.11493921
69	0x3de364ad	0.11103187
70	0x3d251f25	0.040312905
71	0xbcc1d4c7	-0.02366103
72	0x3d6eab4c	0.05826883
73	0x3d222bb6	0.039592467
74	0xbdb5d4ae	-0.08878456
75	0xbd5a77b0	-0.0533368
76	0xbe084b79	-0.1331004
77	0x3d2403a5	0.04004254
78	0xbd9701da	-0.073734
79	0x3cf7c205	0.030243883
80	0xbd80d927	-0.062914185
81	0xbd9b37d1	-0.075790055
82	0xbd4fa07e	-0.050690167
83	0xbd4fb3c8	-0.050708562
84	0xbb52d2ba	-0.003216906
85	0xbcb7b9a2	-0.022427384
86	0x3bd2cb0b	0.006432896
87	0x3e063424	0.13105828
88	0xbde3cff7	-0.111236505
89	0x3e03b187	0.1286069
90	0xbe12ffb4	-0.14355356
91	0xbd2676d2	-0.04064066
92	0xbdf49114	-0.11941734
93	0x3dc6fe28	0.09716445
94	0xbda38a70	-0.07985389
95	0xbdbc65bf	-0.09199094
96	0xbd96de23	-0.07366588
97	0x3e27fa8d	0.16404171
98	0xbe094897	-0.13406597
99	0x3d0b4b6f	0.034007486
100	0x3c0af071	0.008480177
101	0xbbee194a	-0.0072661983
102	0x3cfb155e	0.030649837
103	0x3e156121	0.14587833
104	0xbdd240f1	-0.10266293
105	0xbd8260c3	-0.06366112
106	0xbb0412b5	-0.0020152752
107	0xbd10b05f	-0.03532445
108	0x3d20d9b3	0.039270114
109	0x3d83214d	0.06402836
110	0xbdb26d8d	-0.087123014
111	0x3dece744	0.11567548
112	0xbe00d1a7	-0.12579976
113	0x3e0000fa	0.12500373
114	0x3bcd6596	0.0062682135
115	0xbd5e8841	-0.05432916
116	0xbb876b9e	-0.004132702
117	0x3d9e8ce6	0.07741718
118	0xbe14001f	-0.14453171
119	0x3de7d6b8	0.11320251
120	0xbd8ddcb8	-0.069268644
121	0x3e099c54	0.1343854
122	0x3df0056d	0.11719785
123	0xbdaecfb6	-0.085357115
124	0x3d6a5a6d	0.057215143
125	0xbda6d9d1	-0.08147014
126	0x3d52b40f	0.05144125
127	0xbe02bc48	-0.12767136
128	0x3dfe26fe	0.12409781
129	0xbd489238	-0.04896757
130	0x3ddbfb01	0.107412346
131	0x3d131249	0.03590611
132	0xbdd4b488	-0.10385996
133	0xbdf5c682	-0.12000753
134	0x3c2edc7c	0.010672685
135	0x3da36bbe	0.079795346
136	0xbdf47919	-0.1193716
137	0xbe013803	-0.12619023
138	0x3b78c034	0.003795636
139	0x3e0dd6e0	0.138515
140	0x3d99ee2b	0.0751613
141	0x3cdaa5d4	0.026690401
142	0x3d43f439	0.04784033
143	0xbd52c7cb	-0.05146007
144	0xbda70d32	-0.08156814
145	0xbc8b2aab	-0.01698812
146	0x3dc19a07	0.094532065
147	0xbda1fa19	-0.079090305
148	0x3e021573	0.12703495
149	0x3da835a2	0.08213355
150	0xbdbb288d	-0.09138594
151	0xbdcd6b3a	-0.100302175
152	0xbcf00bdc	-0.02930253
153	0x3c5935e0	0.013257474
154	0x3de9e0eb	0.11419853
155	0xbd223516	-0.039601408
156	0x3de17bcd	0.11009941
157	0xbd942a19	-0.07234592
158	0xbd850c63	-0.06496503
159	0xbd8a6cc8	-0.067590296
160	0x3d1873db	0.037219863
161	0xbe0aef68	-0.13567889
162	0xbd9e5639	-0.077312894
163	0x3d3bc56c	0.045842573
164	0x3d0ccf4c	0.03437738
165	0x3e08e1a2	0.13367322
166	0x3dc001e1	0.093753584
167	0xbdde660b	-0.10859307
168	0x3d1e352c	0.038624927
169	0x3dabd7a7	0.08390742
170	0xbc21fde2	-0.009887191
171	0x3d4ba0aa	0.049713768
172	0x3d2b53b8	0.041827887
173	0x3d98a8ae	0.07454048
174	0xbddab2d0	-0.10678637
175	0xbd64cc97	-0.055859175
176	0x3c05edfc	0.008174416
177	0xbd1ce61f	-0.038305398
178	0xbcc10600	-0.023562431
179	0x3d85b51d	0.06528685
180	0xbd37e9af	-0.044900592
181	0x3dde5922	0.108568445
182	0xbcebefe4	-0.028800912
183	0x3de71c6b	0.11284717
184	0xbe0810a0	-0.13287592
185	0xbd4526e0	-0.048132777
186	0xbd872b06	-0.06600003
187	0xbd9b78da	-0.0759141
188	0x3d9a8685	0.07545189
189	0xbd1d36b1	-0.038382236
190	0xbdaea30d	-0.08527193
191	0x3dd84cbc	0.10561511
192	0xbd2a3eb5	-0.04156371
193	0xbde01b84	-0.10942748
194	0xbd5cd93f	-0.05391812
195	0x3e07c9a0	0.13260508
196	0xbd4b9ad1	-0.04970819
197	0xbe013588	-0.12618077
198	0x3d9d55ab	0.076823555
199	0x3dfa398a	0.12218006
200	0x3d88cdbf	0.06679868
201	0xbda88183	-0.082278274
202	0x3d31cd5d	0.04340874
203	0x3d68074b	0.05664758
204	0x3dbdbe0c	0.09264764
205	0xbd9cc4e2	-0.0765474
206	0xba9f46ed	-0.0012151875
207	0xbdf41290	-0.11917603
208	0x3cfcf2b4	0.030877449
209	0xbd7737fd	-0.06035613
210	0xbdb5b909	-0.08873183
211	0xbd1d360e	-0.03838163
212	0x3c86e19a	0.016464997
213	0x3df54930	0.1197685
214	0xbd5ac6cb	-0.05341224
215	0xbdd4263e	-0.103588566
216	0x3db9dcaa	0.090752915
217	0x3de762d8	0.1129815
218	0xbdecfa58	-0.11571187
219	0x3d4a75a9	0.049428616
220	0xba7045a5	-0.0009165651
221	0x3dc33e0b	0.09533318
222	0x3dd4a97c	0.10383889
223	0xbdc7237a	-0.097235635
224	0x3dd7ca67	0.10536652
225	0x3d2d9c4d	0.04238539
226	0xbe0f9e12	-0.14025143
227	0xbd83da9f	-0.06438183
228	0x3d8dadbb	0.06917902
229	0xbd73a54f	-0.059483822
230	0x3ccfe76a	0.025378902
231	0x3db09691	0.08622468
232	0x3d06b6ca	0.032889165
233	0x3d964715	0.073377766
234	0xbbef2b77	-0.0072988826
235	0xbd946f64	-0.072478086
236	0xbde6ca0d	-0.11269007
237	0xbdc26451	-0.0949179
238	0x3dd535cf	0.10410654
239	0x3ddec749	0.108778544
240	0xbaeb83cb	-0.0017968355
241	0x3c2b1b25	0.0104434835
242	0xbd88ff13	-0.066892765
243	0x3d87e7d8	0.066360176
244	0x3de3068c	0.11085233
245	0xbd77ffa5	-0.060546536
246	0xbd2dd7e3	-0.042442214
247	0x3e00318c	0.125189
248	0xbd0ff3d7	-0.035144653
249	0xbdd70d1b	-0.105005465
250	0xbb4622a3	-0.0030233047
251	0x3e19a3bf	0.1500387
252	0xbdc1d230	-0.09463918
253	0x3cfac7ad	0.030612791
254	0xbdb1136e	-0.08646284
255	0xbdaef555	-0.08542887

lstm.weight_hh_l0 f4 [256, 64]
0	0x3c8fc336	0.017549139
1	0x3e0521ec	0.13001221
2	0xbd5e91f9	-0.05433843
3	0xbd97092b	-0.073747955
4	0x3dcf8a85	0.101338424
5	0xbdcdaebc	-0.100430936
6	0x3d1ee52a	0.038792767
7	0x3c8f65c5	0.017504582
8	0xbd8c1c70	-0.068413615
9	0x3c91b232	0.017785165
10	0x3dd537aa	0.10411008
11	0xbde98e84	-0.11404136
12	0xbe002f4d	-0.12518044
13	0xbe05ea2c	-0.1307761
14	0x3d34f94a	0.044183053
15	0x3def6eef	0.11691081
16	0xbcd48f35	-0.025947193
17	0x3dcb464a	0.09925516
18	0xbda438ec	-0.080186695
19	0x3dcba404	0.09943393
20	0xbcc8e4d0	-0.024523169
21	0x3de1aca0	0.11019254
22	0x3c4de888	0.012567647
23	0x3d197713	0.037467074
24	0x3c51d02c	0.01280598
25	0xbc24f001	-0.010066987
26	0x3c8399e3	0.01606459
27	0xbc81b8c2	-0.01583517
28	0x3dbca6bb	0.09211489
29	0xbc65c01a	-0.014022851
30	0x3d077b94	0.033076838
31	0xbe0edfb2	-0.1395252
32	0xbdb509d0	-0.08839762
33	0x3cbf4b44	0.02335132
34	0x3dba0a41	0.09083987
35	0x3bf85608	0.007578615
36	0xbd6ec8b2	-0.058296867
37	0xbdb1b387	-0.0867682
38	0xbdeb8b1f	-0.115011446
39	0x3cd494da	0.025949884
40	0xbd16a191	-0.036775175
41	0x3b76a552	0.003763516
42	0xbdf4b260	-0.11948085
43	0x3dc6ff99	0.0971672
44	0x3d7d5693	0.06185014
45	0x3c2b21b5	0.010445048
46	0x3d4e2b52	0.050334282
47	0xbde77734	-0.11302033
48	0xbda084bb	-0.07837816
49	0x3daeeaf3	0.08540907
50	0xbd604c7c	-0.05476044
51	0x3cd0574b	0.02543225
52	0x3d949425	0.07254819
53	0x3d76b23d	0.060228575
54	0xbc1f4d50	-0.009723023
55	0xbd9e140f	-0.077186696
56	0x3d28f098	0.041245073
57	0xbd085503	-0.0332842
58	0x3d534120	0.05157578
59	0x3b25368b	0.0025209512
60	0xbd38e256	-0.045137726
61	0xbdef9faf	-0.11700379
62	0xbcfc85c4	-0.030825503
63	0x3d73b1ff	0.059495922
64	0x3d5cf63d	0.05394577
65	0x3bf86fa6	0.007581669
66	0x3c80e8a3	0.01573593
67	0x3c320040	0.010864317
68	0x3d6c9ee7	0.05776873
69	0xbd0fe3d3	-0.03512938
70	0x3d8d1c36	0.068901464
71	0xbdf87ca8	-0.12133151
72	0xbcf9445c	-0.030428104
73	0x3dc50c7a	0.0962152
74	0x3d7e97f0	0.062156618
75	0x3d8dc3a4	0.06922081
76	0xbd802eb4	-0.06258908
77	0x3d9658c5	0.0734115
78	0x3e05fcac	0.13084668
79	0x3d0c3311	0.03422839
80	0x3ce38d0f	0.027777223
81	0x3c3f1401	0.011662484
82	0x3e0f7bbc	0.14012045
83	0x3be3dfc0	0.0069541633
84	0x3db30e7d	0.08742998
85	0xbdcf443e	-0.10120438
86	0x3d3a41d9	0.045472953
87	0x3c9ac0b5	0.018890718
88	0xbd9020bb	-0.07037493
89	0xbd75a561	-0.05997217
90	0x3d9d17c3	0.07670548
91	0x3da2c0ef	0.079469554
92	0x3d766aef	0.060160574
93	0x3dfb48a2	0.12269713
94	0xbd3a6c5f	-0.045513507
95	0xbe045c0b	-0.12925737
96	0xbdc1be5e	-0.09460138
97	0xbd8e3906	-0.0694447
98	0x3d06acfe	0.032879822
99	0xbdb6013d	-0.08886955
100	0x3ca58e94	0.020209588
101	0x3d53d50a	0.05171684
102	0x3d78eb01	0.060770992
103	0xbbbd321b	-0.0057737953
104	0x3db2a399	0.0872261
105	0xbc14ccd6	-0.00908204
106	0xbdc08898	-0.09401053
107	0x3c8290a4	0.01593811
108	0xbdf2ed5f	-0.11861681
109	0xbdc1d334	-0.09464112
110	0xbbd04e58	-0.0063569956
111	0x3d259a03	0.04043008
112	0xbd2321bf	-0.039827105
113	0xbde4478f	-0.11146461
114	0xbc4f41b4	-0.012649942
115	0x3cb06a02	0.021534923
116	0xbe058973	-0.13040714
117	0x3d59f709	0.053214107
118	0xbc40761f	-0.011746912
119	0x3d474c54	0.048656777
120	0xbd998368	-0.07495767
121	0x3d537a1b	0.05163012
122	0xbdad488e	-0.08461104
123	0x3df944e6	0.121713445
124	0x3d16ce77	0.036817994
125	0xbdccba66	-0.0999649
126	0x3dd718af	0.10502755
127	0x3d8b6285	0.068059005
128	0x3be7c463	0.0070729717
129	0x3df0b24f	0.1175276
130	0xbd453399	-0.04814491
131	0xbbb49ddd	-0.005511983
132	0x3db7c379	0.0897283
133	0xbdaf15e0	-0.08549094
134	0x3d4e9d94	0.050443247
135	0xbdc25e77	-0.09490674
136	0xbb2d0088	-0.0026398022
137	0x3d387ab6	0.0450389
138	0xbdb81ccb	-0.08989867
139	0xbddec300	-0.10877037
140	0x3b38454a	0.0028117471
141	0xbda7c3ae	-0.0819162
142	0x3d30d8fa	0.043175675
143	0x3ca82c01	0.020528795
144	0xbccd0054	-0.02502457
145	0x3d55dd3f	0.05221295
146	0xbd3fa3da	-0.04678712
147	0xbcacd369	-0.021096902
148	0xbd79e54c	-0.06100969
149	0xbdbad18e	-0.09122001
150	0x3c3bb19a	0.011455918
151	0x3ca740ed	0.020416701
152	0x3dbbafca	0.091643885
153	0xbe1b0b7b	-0.15141098
154	0xbd2038e2	-0.039116748
155	0x3cf18af1	0.029485198
156	0x3cf8eb9b	0.030385783
157	0x3e0a1317	0.13483845
158	0x3d668ac2	0.056284674
159	0x3da2fda7	0.079585366
160	0x3cad2d9c	0.021139912
161	0xbda636d0	-0.081159234
162	0xbca57908	-0.020199314
163	0xbd3f698b	-0.046731513
164	0x3df7cd59	0.12099714
165	0x3e07e397	0.13270412
166	0xbd3dcb68	-0.04633656
167	0xbda495eb	-0.08036407
168	0x3ccf89dc	0.025334291
169	0x3d04db5c	0.03243576
170	0x3d4f0056	0.05053743
171	0x3d180d17	0.03712186
172	0x3db07e36	0.08617823
173	0xbdf54f87	-0.11978059
174	0x3daa4bac	0.083152145
175	0x3d8df3b5	0.06931249
176	0x3cbadb41	0.022809627
177	0x3d478877	0.048714127
178	0x3bf87753	0.007582584
179	0x3d75d580	0.060018063
180	0xbd798731	-0.060919944
181	0xbd5ad5b3	-0.053426456
182	0x3d099230	0.03358668
183	0xbd33c92b	-0.04389302
184	0xbde2f98b	-0.11082753
185	0x3e1dcb6c	0.1540963
186	0xbd435ff9	-0.04769895
187	0xbdadf562	-0.08494069
188	0xbd689030	-0.056778133
189	0x3de13126	0.109957024
190	0x3df7767e	0.120831475
191	0x3d02991a	0.03188429
192	0x3cde3676	0.027125578
193	0x3de499ac	0.11162123
194	0x3d97a09d	0.074036814
195	0x3cec5210	0.028847724
196	0x3ce1647f	0.02751374
197	0x3d990522	0.07471682
198	0xbd46a1c9	-0.048494134
199	0xbd3383b2	-0.043826766
200	0x3e0ed257	0.13947426
201	0xbda6f854	-0.081528336
202	0x3dcbaf03	0.0994549
203	0xbdfbba1f	-0.12291359
204	0xbd89e9ae	-0.06734024
205	0x3dce0afb	0.10060688
206	0x3da5b63f	0.08091401
207	0x3de349aa	0.11098035
208	0xbddbf726	-0.10740499
209	0xbda0216f	-0.07818877
210	0xbad8199b	-0.0016487123
211	0x3d1bc80d	0.03803258
212	0x3b924872	0.0044642026
213	0x3dca289a	0.098710254
214	0x3d9558c3	0.072923206
215	0xbda2ddd2	-0.07952465
216	0xbbc39e55	-0.0059698024
217	0x3cf84be0	0.030309618
218	0x3d858896	0.06520192
219	0x3df41882	0.11918737
220	0x3c83c284	0.016083963
221	0x3d9e2b16	0.07723062
222	0x3cf60691	0.030032428
223	0xbd759f08	-0.059966117
224	0x3ce3681c	0.027759604
225	0x3dd58f26	0.10427694
226	0xbb9e95dc	-0.004839642
227	0xbd436559	-0.047704075
228	0xbdfe334d	-0.124121286
229	0xbc2c668a	-0.010522494
230	0x3bfd2474	0.007725293
231	0xbc9725bc	-0.01845061
232	0x3d8528bd	0.06501911
233	0x3dac00d2	0.08398594
234	0xbd7cf4fe	-0.06175708
235	0xbc829028	-0.01593788
236	0xbd9337c6	-0.07188372
237	0xbc54d697	-0.012990615
238	0xbe1feea1	-0.15618373
239	0xbdc7fbad	-0.097648
240	0xbd868869	-0.06568987
241	0x3c1bea2d	0.009516281
242	0xbd3a1004	-0.04542543
243	0xbd525a18	-0.05135545
244	0x3d8d9558	0.06913251
245	0x3e0afd1f	0.1357312
246	0x3c2df329	0.010617056
247	0x3dac3308	0.08408171
248	0x3de4a3e8	0.11164075
249	0x3d96e7c6	0.07368426
250	0xb9d4ee44	-0.00040613313
251	0xbdb19340	-0.08670664
252	0xbd7527f9	-0.059852574
253	0x3d02352d	0.031788994
254	0x3dc9471d	0.09828017
255	0x3dc1b1ae	0.09457718

lstm.bias_ih_l0 f4 [256]
0	0xbdc5938f	-0.09647285
1	0x3dab3374	0.08359423
2	0xbd88fe25	-0.06689099
3	0x3cee106b	0.029060563
4	0x3ddc9b47	0.10771804
5	0x3d50935c	0.050921783
6	0xbd786c52	-0.060650177
7	0x3d55e8b4	0.052223876
8	0x3ddb2f71	0.10702408
9	0xbdc4a2ed	-0.09601388
10	0xbdb1e24f	-0.08685743
11	0x3dd6bfd5	0.10485808
12	0xbdc3abf6	-0.09554283
13	0x3d197779	0.037467454
14	0x3d8ea6d8	0.06965417
15	0x3d60ae29	0.054853592
16	0x3d1ac3f1	0.03778452
17	0x3d391e4f	0.04519492
18	0xbd9c68ab	-0.07637151
19	0x3cd0c2ee	0.025483575
20	0xbd2246d3	-0.039618324
21	0xbdb8f80d	-0.09031687
22	0x3d1b5a78	0.037928075
23	0xbcfbc213	-0.03073219
24	0x3dfd4ae5	0.123678006
25	0xbca97709	-0.020686643
26	0xbd31bd02	-0.043393143
27	0xbd524407	-0.051334407
28	0xbdb17076	-0.08664028
29	0x3d0db626	0.03459754
30	0xbd3b538f	-0.045733985
31	0x3d92e4b4	0.07172528
32	0x3d91bed1	0.071164735
33	0x3da4f69f	0.08054852
34	0x3db58fea	0.0886534
35	0x3df07488	0.117409766
36	0xbd2efdb3	-0.042722415
37	0xbd884cde	-0.06655286
38	0xbc1458b6	-0.009054353
39	0x3dbb3d79	0.09142584
40	0xbc941412	-0.018075977
41	0x3d26a36c	0.040683195
42	0x3d98a92b	0.07454141
43	0xbd98e596	-0.07465665
44	0xbd30c6d3	-0.043158364
45	0x3e194e56	0.14971289
46	0xbd785d28	-0.060635716
47	0x3de3b28b	0.11118039
48	0x3d0902ff	0.033450123
49	0x3dfc6bff	0.12325286
50	0xbc47960a	-0.012181768
51	0x3d30d5b8	0.043172568
52	0x3da2ec0c	0.079551786
53	0x3d815f35	0.063169874
54	0xbd3933e9	-0.04521552
55	0x3deb20e6	0.11480884
56	0x3d83058d	0.06397543
57	0x3e1199d3	0.14218836
58	0x3de8b4dd	0.11362622
59	0xbd87251f	-0.06598877
60	0x3e0f135a	0.13972226
61	0xbd9b79d7	-0.075915985
62	0xbd8d2889	-0.06892497
63	0x3e045cd1	0.12926032
64	0x3cd0ac62	0.025472824
65	0x3cf98af8	0.030461773
66	0x3d091095	0.03346308
67	0x3ac3f63d	0.0014950704
68	0xbda4015d	-0.080080725
69	0x3c367df3	0.011138427
70	0xbdb8795a	-0.09007521
71	0xbb9ffcab	-0.0048824153
72	0x3e02f711	0.12789561
73	0x3cfc8cf0	0.030828923
74	0x3db3fec5	0.08788828
75	0xbd525643	-0.051351797
76	0xbbc90fb3	-0.0061359047
77	0xbca5ed61	-0.020254793
78	0x3d18d9da	0.037317134
79	0x3e0f9595	0.14021905
80	0xbd912b61	-0.07088352
81	0xbd996cc5	-0.07491449
82	0xbb38e55b	-0.0028212878
83	0x3d97c164	0.07409933
84	0x3e0fcfa9	0.1404406
85	0x3cedce3e	0.029029008
86	0xbd522e1c	-0.051313505
87	0xbb87a2fe	-0.004139303
88	0x3dbe77f8	0.09300226
89	0x3d93a475	0.07209102
90	0xbcb2d25f	-0.021828828
91	0x3d7b9965	0.061425585
92	0x3c3967ce	0.011316253
93	0x3bf4a708	0.0074662007
94	0x3c98f77f	0.018672703
95	0xbd2190ab	-0.039444607
96	0x3d113c89	0.03545812
97	0x3d5ff8f3	0.054680776
98	0x3e23bc99	0.15989913
99	0x3d6ae6c9	0.057349
100	0xbce012b1	-0.027352663
101	0x3df562f0	0.119817615
102	0xbda14206	-0.07873921
103	0xbd4c6f04	-0.04991056
104	0x3d4c8f58	0.04994139
105	0x3e076075	0.13220389
106	0x3d933624	0.07188061
107	0xbd9449d5	-0.07240645
108	0x3d19fc38	0.03759405
109	0x3e131443	0.14363198
110	0xbda0b770	-0.07847488
111	0x3c83da02	0.016095165
112	0xbc66ad46	-0.014079398
113	0xbc0b1860	-0.008489698
114	0x3d6e4bc7	0.058177736
115	0x3d722994	0.059121683
116	0x3df872bc	0.12131259
117	0xbca14d99	-0.019690322
118	0x3da1251c	0.07868406
119	0xbd96700c	-0.0734559
120	0x3ca9525f	0.02066916
121	0xbd1ab9a5	-0.0377747
122	0x3d859b2c	0.06523737
123	0x3df78d9b	0.12087556
124	0x3e0a08fa	0.13479987
125	0x3d6c89ae	0.05774849
126	0xbd81d8bf	-0.06340169
127	0x3e0e9e7f	0.13927649
128	0x3d09d3dd	0.033649314
129	0x3d89da69	0.067311116
130	0x3cfddb1d	0.03098827
131	0xbc0f53e9	-0.008748033
132	0xbc348b1e	-0.011019496
133	0x3d633b21	0.05547631
134	0xbcee0e40	-0.02905953
135	0x3e05e326	0.13074932
136	0xbdf431d4	-0.119235665
137	0xbd96a4a9	-0.07355625
138	0x3d896ad0	0.06709826
139	0xbaa0d4b4	-0.0012270422
140	0x3d88210d	0.06646929
141	0x3cc6ceb7	0.024268491
142	0xbd32d6f3	-0.043662023
143	0x3de1bb99	0.110221095
144	0xbd80a43a	-0.06281324
145	0x3d93d8c1	0.07219077
146	0x3e095a18	0.13413274
147	0xbdc75181	-0.097323425
148	0x3dc8a9ea	0.097980335
149	0xbdd4abe8	-0.10384351
150	0x3ca61619	0.020274209
151	0xba7d6508	-0.0009666239
152	0xbd8d5965	-0.06901816
153	0xbdbeeae0	-0.093221426
154	0xbd74466f	-0.059637483
155	0x3d8e6e9a	0.06954689
156	0xbc543e77	-0.012954346
157	0x3cdb0b40	0.026738763
158	0xbd97de89	-0.07415492
159	0xbdfc885b	-0.12330695
160	0xbd06d296	-0.032915674
161	0x3dab187e	0.08354281
162	0x3d85c934	0.06532517
163	0xbdcbd13f	-0.0995202
164	0x3d646349	0.05575875
165	0xbd6ad4fc	-0.057332024
166	0xbcc01e9a	-0.023452092
167	0xbbb33cb9	-0.005469885
168	0xbd9eaf49	-0.07748277
169	0x3dcf3592	0.101176396
170	0xbdb1e169	-0.08685572
171	0x3d9b003c	0.07568404
172	0x3ddf1c58	0.10894078
173	0x3dd2120d	0.10257349
174	0x3a872dc1	0.0010313318
175	0x3da713bf	0.08158063
176	0xbc956e28	-0.018241003
177	0x3e09a912	0.13443401
178	0xbd8f24c3	-0.069894336
179	0xbd5715aa	-0.052510895
180	0x3d12b86c	0.03582041
181	0x3e13fdcb	0.14452283
182	0x3d8c064e	0.0683714
183	0xbc64cbd9	-0.013964617
184	0xbc355730	-0.01106815
185	0xbd22e110	-0.039765418
186	0xbda2390d	-0.07921038
187	0x3d764c84	0.060131565
188	0x3db5bad9	0.08873529
189	0x3d1e46c8	0.03864172
190	0xbdafd735	-0.08585969
191	0xbdd1b926	-0.102403924
192	0xbd85b2ac	-0.065282196
193	0x3d91ef02	0.07125665
194	0x3df5f6a7	0.12009936
195	0x3dbafb65	0.09129981
196	0x3d526f56	0.05137571
197	0xbd471387	-0.048602607
198	0x3d70cfec	0.05879204
199	0x3da3ccc2	0.07998039
200	0x3d80747f	0.0627222
201	0x3df2e56a	0.118601635
202	0x3d7c9fa5	0.061675686
203	0xbd601545	-0.054707784
204	0x3dd8f3a4	0.10593346
205	0xbdc8cb9c	-0.098044604
206	0xbd513b07	-0.051081683
207	0x3d6b9509	0.057515178
208	0xbda5762a	-0.08079179
209	0x3dc9f1c8	0.09860569
210	0xbd36dc30	-0.04464358
211	0x3d93a4a2	0.072091356
212	0xbd42e117	-0.047577944
213	0xbc24f24e	-0.010067536
214	0xbd09fd6a	-0.03368894
215	0xbd9a008f	-0.07519638
216	0xbdc3d369	-0.09561808
217	0x3da14ad4	0.078756005
218	0x3c3d14e6	0.011540627
219	0x3d166b5a	0.036723472
220	0xbd5a6b7b	-0.053325158
221	0x3d82e87e	0.063920006
222	0xbdd74e49	-0.105129786
223	0x3c5cae8c	0.01346935
224	0x3e0f8823	0.14016776
225	0x3cbbcb02	0.02292395
226	0xbcdc1c1d	-0.026868874
227	0xbc52b118	-0.012859605
228	0x3d23938d	0.039935637
229	0xbd5904f1	-0.052983228
230	0xbcf55d4f	-0.02995172
231	0x3b067f36	0.00205226
232	0x3e063797	0.13107143
233	0x3d92e9e3	0.071735166
234	0x3d785539	0.06062815
235	0x3e028302	0.12745288
236	0x3d307a1f	0.043085214
237	0x3c4ce220	0.012505084
238	0x3c95fa96	0.018307965
239	0xbdab7b3a	-0.08373113
240	0x3dab8695	0.08375279
241	0xbdbc82a9	-0.09204609
242	0x3e18c55c	0.14919037
243	0xbbe0ba8c	-0.0068581756
244	0xbc051d68	-0.008124687
245	0x3dc9e273	0.09857645
246	0x3cfea212	0.03108314
247	0x3da000c9	0.0781265
248	0xbdeed4ec	-0.116617054
249	0xbdc5da0e	-0.09660731
250	0x3c9cad5d	0.019125635
251	0x3ce23373	0.027612424
252	0x3dece14a	0.11566408
253	0xbd024399	-0.031802747
254	0x3ddfc86d	0.109269
255	0xbc276e84	-0.01021922

lstm.bias_hh_l0 f4 [256]
0	0x3d8a2dd8	0.06747025
1	0xbdc852a7	-0.0978139
2	0xbd3f1eff	-0.04666042
3	0x3de59f67	0.11212044
4	0xbdac9f3b	-0.08428808
5	0xbd1f40c1	-0.038880114
6	0xbd098790	-0.033576548
7	0x3cd04be1	0.025426807
8	0x3c16ef6b	0.009212355
9	0x3ddf07f1	0.108901866
10	0x3b6fd340	0.003659442
11	0xbc3451b5	-0.011005809
12	0x3b515ac0	0.003194496
13	0x3d83f5bd	0.06443355
14	0x3d40118d	0.046891738
15	0xbca3cb35	-0.019994358
16	0x3de5981f	0.112106554
17	0x3de39a87	0.11113458
18	0xbd743bbe	-0.059627287
19	0xbd637e64	-0.055540457
20	0x3e1abc21	0.15110828
21	0x3e08d266	0.1336151
22	0x3e04ec55	0.12980779
23	0xbc0b4743	-0.008500877
24	0xbc95f8b0	-0.01830706
25	0xbdd0c6a8	-0.10194141
26	0x3c8a9fdf	0.016921936
27	0x3da9f660	0.082989454
28	0x3e0fa6b4	0.14028436
29	0xbd7c5fb9	-0.061614726
30	0x3d64a854	0.055824593
31	0x3dca18b0	0.0986799
32	0xbd61354a	-0.05498246
33	0x3d44b76b	0.048026484
34	0xbd2bcd5a	-0.041943885
35	0xbcad125e	-0.021126922
36	0xbd18524a	-0.037187852
37	0xbda7ea30	-0.081989646
38	0x3d2ad9cf	0.041711625
39	0xbc77006c	-0.015075784
40	0x3dd7504b	0.105133615
41	0xbdd8e1e3	-0.105899595
42	0x3daa9adf	0.083303206
43	0x3d8ad7fc	0.06779477
44	0x3df31298	0.11868781
45	0xbcf71ab4	-0.0301641
46	0xbd5e8959	-0.054330204
47	0x3dee68af	0.116410606
48	0xbdacbb59	-0.08434171
49	0xbd80f315	-0.06296364
50	0x3c431c4d	0.011908603
51	0x3c8e83e5	0.017396877
52	0xbcc2600c	-0.02372744
53	0xbdd05d38	-0.1017403
54	0xbd83b6ef	-0.06431376
55	0x3cc70368	0.024293616
56	0xbd884ce8	-0.06655294
57	0x3d055654	0.032553032
58	0xbde81f63	-0.113341115
59	0xbd95feef	-0.07324015
60	0x3c4ae15b	0.0123828305
61	0x3e1e371b	0.15450709
62	0x3e0affee	0.13574192
63	0xbd71c774	-0.059028104
64	0x3d876c90	0.066125035
65	0x3e017203	0.12641148
66	0xbcee4ccf	-0.02908936
67	0x3a1a1bcc	0.0005878776
68	0xbda6a5bd	-0.08137081
69	0xbd3871e7	-0.0450305
70	0x3df06470	0.11737907
71	0xb9bfbf38	-0.00036572828
72	0x3cebe68c	0.028796457
73	0x3caa27e7	0.02077098
74	0x3e0dda32	0.13852766
75	0x3e00d456	0.12581
76	0x3df5f1ca	0.12009008
77	0x3c6e6479	0.014550322
78	0xbca0e3a9	-0.019639807
79	0xbda470fc	-0.080293626
80	0x3e013582	0.12618068
81	0xbdaaa117	-0.08331507
82	0xbbeae227	-0.0071680727
83	0x3da15376	0.07877247
84	0x3c3ac911	0.011400477
85	0x3df804d0	0.12110293
86	0xbd2e75b6	-0.042592727
87	0x3e06dce2	0.13170198
88	0x3da22762	0.07917668
89	0x3d6826f2	0.056677766
90	0x3d84a0e4	0.06476
91	0xbdd10fd0	-0.10208094
92	0xbcef5b51	-0.029218348
93	0x3da602c5	0.08105997
94	0x3e0cf307	0.13764583
95	0x3cb532de	0.022118982
96	0xbd272acb	-0.040812295
97	0x3dad8f50	0.084746
98	0xbd2f3e2c	-0.0427839
99	0x3d91fe42	0.07128574
100	0x3d8d92f9	0.069127984
101	0xbd3f94df	-0.046772834
102	0x3dad96f7	0.0847606
103	0x3d5a156a	0.05324308
104	0x3dc69fe9	0.09698469
105	0xbd46b344	-0.048510805
106	0x3cc32431	0.023820968
107	0x3dc4a89f	0.096024744
108	0xbd28db5e	-0.04122483
109	0x3cd8be2e	0.026457872
110	0xbb83973d	-0.0040158317
111	0x3dc3c1a9	0.09558422
112	0xbdca4c99	-0.09877891
113	0x3e161a2b	0.1465842
114	0xbc999250	-0.018746525
115	0x3d521516	0.05128964
116	0xbd070e58	-0.032972664
117	0xbd2c3e0a	-0.042051353
118	0xbdbe9f0f	-0.09307682
119	0xbadd1444	-0.0016867002
120	0x3c32abff	0.010905265
121	0xbdb52237	-0.088444166
122	0x3e0d3497	0.13789593
123	0x3e2469ff	0.1605606
124	0x3d8d709d	0.06906245
125	0x3d584a30	0.052805126
126	0x3e06e1c2	0.13172057
127	0x3d1b92a9	0.037981663
128	0xbdf33504	-0.11875346
129	0x3d422e4f	0.047407445
130	0x3adf2c4b	0.001702675
131	0x3ce5129c	0.027962975
132	0xbc3c28c3	-0.011484328
133	0x3d508401	0.05090714
134	0x3de10c37	0.10988658
135	0xbd9e08c0	-0.07716513
136	0x3db7659a	0.08954926
137	0x3dd48e33	0.10378685
138	0xbdaf55ee	-0.08561312
139	0x3cd22e62	0.025656883
140	0x3d675e5a	0.056486465
141	0xbd61389c	-0.054985628
142	0x3d4ebbd1	0.050472084
143	0x3da38546	0.07984404
144	0x3dde82c9	0.10864789
145	0x3d5582d6	0.052126728
146	0x3e0516c0	0.1299696
147	0xbdf22163	-0.11822774
148	0x3d88f7b2	0.06687869
149	0xbdd5d1a2	-0.10440375
150	0xbda5935d	-0.08084748
151	0x3d806de7	0.06270962
152	0xbdd8f281	-0.10593129
153	0x3de2f6a0	0.11082196
154	0xbd1aa3e3	-0.03775395
155	0x3dc6ad14	0.09700981
156	0x3c794276	0.015213599
157	0xbcedf569	-0.029047685
158	0xbd5ebff9	-0.0543823
159	0xbc6b8a22	-0.014376195
160	0xbd841bc4	-0.064506084
161	0x3be0b92d	0.006858012
162	0x3da0af70	0.07845962
163	0x3c7b7b5d	0.015349236
164	0xbe0285aa	-0.12746301
165	0x3dc8cfad	0.09805236
166	0x3ce9c005	0.028533945
167	0xbd5e2b3d	-0.054240454
168	0x3dd81f81	0.10552884
169	0x3b8b027f	0.004242241
170	0x3d2451f9	0.040117238
171	0x3dd966ca	0.106153086
172	0xbd944e69	-0.07241518
173	0xbc7f715a	-0.01559099
174	0xbdd84840	-0.105606556
175	0x3de5eab5	0.112264074
176	0xbcf86aea	-0.030324418
177	0x3d8ed918	0.06975001
178	0x3d8e2d1f	0.069422
179	0x3d15dfae	0.03659027
180	0x3c488d37	0.0122406995
181	0xbd972c12	-0.073814526
182	0x3d435f75	0.047698457
183	0xbd0baaa0	-0.034098268
184	0x3da3db4d	0.08000813
185	0x3d9fb366	0.077978894
186	0xbdb2009d	-0.08691523
187	0xbcbd53e0	-0.023111284
188	0x3d31329e	0.043261163
189	0xbda14583	-0.078745864
190	0xbcd94544	-0.026522286
191	0x3d1ec239	0.038759444
192	0x3d9de72b	0.077101074
193	0xbba37e07	-0.004989389
194	0xbd8e4a67	-0.06947785
195	0xbbe2fef1	-0.006927364
196	0x3ca42697	0.020037932
197	0x3d1ba066	0.037994765
198	0xbda138fb	-0.07872196
199	0xbba99269	-0.005174924
200	0x3de5b5d1	0.11216319
201	0x3e18434c	0.14869422
202	0xbd26a89f	-0.040688153
203	0x3d190b1e	0.037364118
204	0x3dfb727e	0.12277697
205	0xbcb99970	-0.022656173
206	0x3d9b27cd	0.07575951
207	0x3dd0a01b	0.10186788
208	0x3db3794c	0.0876337
209	0x3d2fa2fc	0.042880043
210	0x3c811b61	0.015760126
211	0x3db157a4	0.08659294
212	0x3e042271	0.12903763
213	0x3d5c7d96	0.053830706
214	0x3dfdb838	0.123886526
215	0x3d5598f9	0.05214784
216	0xbd9aa249	-0.07550485
217	0xbd6505e4	-0.05591382
218	0xbc71c72e	-0.014756961
219	0x3cc9fcde	0.02465671
220	0xbd8469f9	-0.06465525
221	0x3de1d982	0.110278144
222	0x3d8f3dee	0.06994234
223	0xbd836b2c	-0.06416926
224	0xbdde9c42	-0.108696476
225	0x3bbf1e62	0.0058324793
226	0xbcd06b23	-0.025441712
227	0x3c830cf8	0.015997395
228	0xbb7e75cc	-0.0038827537
229	0xbdc564bc	-0.09638354
230	0x3dbdcb3a	0.09267278
231	0x3df3149f	0.118691675
232	0x3ddcb411	0.107765324
233	0xbdbcd5b6	-0.092204496
234	0xbd2d9be2	-0.04238499
235	0xbcdb30f4	-0.026756741
236	0xbd6f7f61	-0.058471087
237	0x3d9151aa	0.07095654
238	0x3d0bba1a	0.034113027
239	0x3def1d90	0.116755605
240	0xbc5ae789	-0.013360866
241	0x3d50d887	0.050987747
242	0x3d6deabd	0.058085192
243	0x3cfa4016	0.030548137
244	0xbd875bf6	-0.06609337
245	0x3d66ffbb	0.056396227
246	0xbd4bce97	-0.049757566
247	0x3e17cd2f	0.14824365
248	0x3de37a3e	0.111073
249	0x3c129fe4	0.008949254
250	0x3d76991d	0.060204614
251	0xbd71400f	-0.05889898
252	0xbc65166c	-0.013982397
253	0xbd4a4002	-0.04937745
254	0xbdd05ced	-0.10173974
255	0x3ca3f93a	0.020016301

lstm.weight_ih_l0_reverse f4 [256, 40]
0	0x3df91143	0.121614955
1	0x3d0369b9	0.032083247
2	0x3d860016	0.06542985
3	0x3d9d3356	0.07675807
4	0x3d9ba4d4	0.07599798
5	0xbd768d8c	-0.060193583
6	0xbd434642	-0.047674425
7	0x3d7a07b7	0.061042514
8	0x3dcc54f4	0.09977141
9	0x3c9e4812	0.019321475
10	0x3de2fc95	0.110833324
11	0x3dbcc173	0.09216585
12	0xbdb7cf00	-0.08975029
13	0x3dbdb397	0.0926277
14	0xbd34a5e9	-0.044103537
15	0x3e0296be	0.12752816
16	0x3de16400	0.110054016
17	0x3d4db0a0	0.05021727
18	0xbd37f114	-0.044907644
19	0x3d39eb49	0.0453904
20	0xbc19b6d1	-0.009381966
21	0x3deca9df	0.11555838
22	0xbd891d28	-0.06695014
23	0x3d27598f	0.040856894
24	0x3d53fa6a	0.051752485
25	0x3d0536a9	0.03252283
26	0x3c1396af	0.009008094
27	0xbd8c5c3b	-0.06853529
28	0x3ded7950	0.11595404
29	0x3d9e0a7f	0.07716846
30	0xbdb34013	-0.087524556
31	0xbc735089	-0.014850744
32	0x3db0023e	0.08594178
33	0xbd0e743e	-0.034778826
34	0x3d2a165f	0.04152524
35	0x3cb48df8	0.022040352
36	0x3d99c1c0	0.07507658
37	0xbd853ea9	-0.06506092
38	0xbdf335bd	-0.11875484
39	0x3d7512ef	0.05983251
40	0xbda1278a	-0.078688696
41	0xbccfda45	-0.025372634
42	0x3de0525f	0.10953211
43	0x3c645d29	0.013938227
44	0xbdab6378	-0.083685815
45	0xbdb4b30a	-0.088232115
46	0xbd2274a7	-0.03966203
47	0x3d168c11	0.03675467
48	0x3d6d6723	0.057959687
49	0xbb76d2c7	-0.0037662254
50	0xbd83bdf8	-0.06432718
51	0x3ddcce11	0.107814915
52	0x3d8c5423	0.06851985
53	0xbe05a587	-0.13051425
54	0xbd32904b	-0.04359464
55	0xbdea9b9b	-0.11455461
56	0x3dc89eb2	0.09795894
57	0x3ccd22fc	0.025041096
58	0xbd1b000f	-0.037841853
59	0x3d8acc20	0.06777215
60	0x3d5c561f	0.05379307
61	0x3dada8c5	0.08479456
62	0x3cca948c	0.024729036
63	0x3d9d5a14	0.07683197
64	0x3db9844e	0.09058438
65	0x3d9b8187	0.07593065
66	0xbd6bd68b	-0.05757765
67	0xbd169e9f	-0.036772367
68	0xbdebaa68	-0.11507112
69	0x3d5bed91	0.053693358
70	0x3d7057fc	0.05867766
71	0x3df0f2ab	0.11765035
72	0xbc456552	-0.012048082
73	0x3dcbafb2	0.099456206
74	0x3ce5622b	0.028000912
75	0xbd8fd93e	-0.070238575
76	0xbdacadf7	-0.08431619
77	0x3dac7190	0.08420098
78	0xbd90182a	-0.07035859
79	0x3e076e85	0.13225754
80	0xbdeec15f	-0.11657976
81	0x3c291619	0.01032021
82	0x3a0c987f	0.00053633
83	0x3d3b541e	0.045734517
84	0x3c13f8cb	0.009031485
85	0x3dc47865	0.09593276
86	0x3d985f59	0.07440061
87	0x3da3e2da	0.08002253
88	0xbc8c31c8	-0.017113581
89	0x3dc6bfc1	0.09704543
90	0xbd845e14	-0.064632565
91	0xbc5c25a7	-0.013436711
92	0x3ccce2a5	0.025010416
93	0xbdab8d38	-0.08376545
94	0xbda8e504	-0.08246806
95	0xbd75a226	-0.05996909
96	0x3cc1fc98	0.023680016
97	0xbd8b9f1a	-0.068174556
98	0x3df5dbaf	0.12004792
99	0x3e00e925	0.12588938
100	0x3c1c92bb	0.009556468
101	0x3cfad179	0.030617462
102	0x3cc11844	0.023571141
103	0xbccd13da	-0.02503388
104	0xbd6637b0	-0.05620545
105	0xbd8ccb7d	-0.0687475
106	0xbd859c55	-0.065239586
107	0xbde3e654	-0.11127916
108	0x3dffe494	0.1249477
109	0xbda37009	-0.079803534
110	0x3d16af57	0.03678831
111	0xbda6fd0f	-0.08153736
112	0x3d998822	0.074966684
113	0xbddb7386	-0.10715394
114	0x3c8fd52b	0.017557701
115	0x3d3a6a7f	0.04551172
116	0xbc80120b	-0.015633604
117	0xbce49865	-0.027904699
118	0xbd5b5fd1	-0.053558175
119	0xbcb0bdcc	-0.021574877
120	0x3deec37b	0.11658379
121	0x3d03a4d5	0.032139618
122	0xbd97ae6e	-0.07406317
123	0xbde7454c	-0.11292514
124	0x3dc5587f	0.0963602
125	0xbe069417	-0.1314243
126	0x3ddeb98d	0.10875235
127	0xbc713529	-0.014722147
128	0x3dcd0251	0.100102074
129	0xbd9131fb	-0.07089611
130	0x3dee1a00	0.11626053
131	0x3d8083e6	0.06275158
132	0xbda07eec	-0.078367084
133	0x3daa7084	0.08322242
134	0xbd8a0bdd	-0.06740544
135	0xbc403c07	-0.011733062
136	0xbde0fa2b	-0.10985216
137	0xbda445b2	-0.08021106
138	0x3c199a8e	0.009375228
139	0x3d2db662	0.042410262
140	0xbd827180	-0.06369305
141	0x3e03bf67	0.12865983
142	0xbd1ee6a9	-0.038794193
143	0xbde539a0	-0.11192632
144	0xbcc0a0f8	-0.023514256
145	0xbd2a3d7d	-0.041562546
146	0x3defecbb	0.11715075
147	0xbcdfd50b	-0.027323266
148	0xbd2f2352	-0.042758293
149	0x3d83e0f9	0.064393945
150	0x3da5f5f4	0.081035525
151	0xbda66fc6	-0.08126788
152	0x3d8aa041	0.06768847
153	0xbcd2f9c5	-0.025753865
154	0xbdb17a0c	-0.08665857
155	0xbd8f0166	-0.069826886
156	0xbdef588f	-0.11686813
157	0x3db706d1	0.08936847
158	0x3df49a84	0.11943534
159	0x3d8412b0	0.06448877
160	0xbca5c9a7	-0.020237757
161	0xbc2efbf6	-0.010680189
162	0xbdfcb789	-0.12339694
163	0x3d971734	0.073774725
164	0x3d9ea742	0.07746746
165	0xbdb8c309	-0.09021575
166	0xbd13a324	-0.036044255
167	0xbdad78e4	-0.08470324
168	0xbcec27c2	-0.028827552
169	0x3d8cc988	0.068743765
170	0xbd063edf	-0.032774802
171	0x3c9f0192	0.019409928
172	0xbd9d5053	-0.07681336
173	0x3db6592b	0.08903726
174	0xbd35d6da	-0.04439435
175	0x3d607107	0.05479529
176	0x3dd93e8c	0.10607633
177	0x3dcd8469	0.10035021
178	0x3d91f2f9	0.071264215
179	0x3de30a56	0.11085956
180	0x3d186e6c	0.03721468
181	0x3d6f0948	0.05835846
182	0xbd8813da	-0.066444114
183	0x3da62afd	0.08113668
184	0xbe054647	-0.1301509
185	0x3d94a722	0.072584406
186	0x3d0ecaf9	0.03486154
187	0xbdaa653b	-0.083200894
188	0xbdc77558	-0.097391784
189	0x3da6ffce	0.081542596
190	0x3a2fc384	0.00067048543
191	0x3ce9f0cd	0.028557206
192	0x3d9e53b3	0.07730808
193	0xbdea32e0	-0.11435485
194	0x3d4e23bf	0.05032706
195	0xbd931e50	-0.07183516
196	0xbd8a0ad9	-0.0674035
197	0x3c1bd8db	0.009512152
198	0x3d4a31c4	0.049363866
199	0x3dd683c3	0.1047435
200	0xbcfd541a	-0.030923892
201	0xbc4b8816	-0.012422582
202	0x3da28755	0.07935969
203	0x3dca969a	0.09892006
204	0xbcc36cb4	-0.023855545
205	0x3dd143d9	0.10218019
206	0xbd8de1b6	-0.069278166
207	0x3c9de7f9	0.019275652
208	0xbdafa8ba	-0.08577104
209	0x3df69cc2	0.12041618
210	0xbd81a499	-0.06330223
211	0x3ce7b40b	0.028284093
212	0xbd51cf51	-0.051223103
213	0xbe0a7168	-0.13519824
214	0x3d88cd7f	0.0667982
215	0x3d068e31	0.032850448
216	0xbcb249fc	-0.021763794
217	0xbc8028e2	-0.015644494
218	0xbd916859	-0.07099981
219	0xbd8365d7	-0.06415909
220	0xbce4f1f2	-0.0279474
221	0xbd6bc487	-0.05756047
222	0xbcf64438	-0.030061826
223	0x3de7047d	0.11280153
224	0xbd1d8a91	-0.038462225
225	0x3dc05071	0.09390343
226	0xbdb68fa7	-0.08914118
227	0x3c04994f	0.008093192
228	0x3d90b0b0	0.070649505
229	0x3c190535	0.00933962
230	0xbd5225d2	-0.0513056
231	0xbd4f18e7	-0.050560858
232	0xbd6d90b6	-0.057999335
233	0xbd1f0fee	-0.03883355
234	0x3d98b30c	0.074560255
235	0xbe075992	-0.13217762
236	0xbd18dd5f	-0.03732049
237	0xbdadfd26	-0.0849555
238	0xbe11cdd0	-0.14238667
239	0x3d4f6a32	0.050638385
240	0xbe03340f	-0.12812828
241	0xbd915688	-0.07096583
242	0xbda712bc	-0.0815787
243	0x3db870be	0.09005879
244	0xbdf0f6bf	-0.11765813
245	0xbda08cda	-0.07839365
246	0x3d8a8b26	0.06764822
247	0x3dc83b88	0.0977698
248	0x3d603144	0.054734483
249	0x3e06efc9	0.13177408
250	0xbda57325	-0.08078603
251	0xbd5ef021	-0.054428224
252	0x3de44149	0.11145265
253	0xbc1a444f	-0.0094157
254	0xbdd83968	-0.105578244
255	0xbd6e6874	-0.058205083

lstm.weight_hh_l0_reverse f4 [256, 64]
0	0xbd922f3f	-0.07137918
1	0x3b01efd6	0.0019826791
2	0xbe00abb1	-0.12565495
3	0x3bccd3c2	0.0062508294
4	0x3da8cf68	0.082426846
5	0x3d010ccc	0.031506345
6	0xbca7d7b6	-0.020488601
7	0x3c85f4ce	0.016352084
8	0x3ccc61b2	0.024948929
9	0x3d93637a	0.07196708
10	0x3d49e6e4	0.04929246
11	0x3d414ef2	0.04719443
12	0xbd9e92e6	-0.077428624
13	0x3d464ca4	0.048412934
14	0xbe04df1c	-0.12975734
15	0x3a83dbfc	0.0010060067
16	0x3da009df	0.07814383
17	0xbdb4581b	-0.08805867
18	0xbde319a4	-0.11088875
19	0x3d9137cf	0.07090723
20	0x3e00f557	0.1259359
21	0xbdc0b9cd	-0.09410439
22	0xbd332ba5	-0.043742795
23	0xbd8b3543	-0.06797268
24	0x3d53cf31	0.051711265
25	0x3d3a551e	0.04549133
26	0xbe0c0262	-0.13672784
27	0x3c040e8b	0.008060108
28	0x3ddf8f9f	0.109160654
29	0x3d9c824e	0.07642041
30	0x3c3b97d1	0.01144977
31	0x3e01cd7b	0.12676041
32	0x3ddfd4e7	0.1092928
33	0x3dac6492	0.0841762
34	0xbde84822	-0.11341883
35	0xbcf78290	-0.030213624
36	0x3d6d92e1	0.058001403
37	0xbda26776	-0.0792989
38	0x3d640f4e	0.05567866
39	0x3d04c076	0.032410108
40	0xbddfcea2	-0.10928084
41	0xbd0e11a8	-0.034684807
42	0x3d713a94	0.058893755
43	0xbd30b011	-0.04313666
44	0x3cee2147	0.029068602
45	0xbae5ddd0	-0.0017537419
46	0xbddac891	-0.10682786
47	0xbc0a7c58	-0.008452497
48	0x39326a61	0.00017015032
49	0x3d393f70	0.045226514
50	0xbdfcc076	-0.123413965
51	0xbde642f0	-0.11243236
52	0x3d4f7cdb	0.05065618
53	0x3d9989bf	0.07496976
54	0x3d124303	0.03570844
55	0x3daa0f65	0.083037175
56	0x3d5f52a1	0.05452216
57	0xbdbba987	-0.09163194
58	0x3d828591	0.06373132
59	0x3e08b37f	0.13349722
60	0xbdda6f73	-0.106657885
61	0xbd240926	-0.040047787
62	0xbdbbb97e	-0.09166239
63	0x3b3f0357	0.0029146278
64	0x3db390bf	0.087678425
65	0x3dad08e4	0.084489614
66	0xbd6233bf	-0.05522513
67	0x3d701e0b	0.0586224
68	0xbdb02b47	-0.086020045
69	0xbdab857f	-0.08375072
70	0x3d419333	0.04725952
71	0xbde252bf	-0.11050939
72	0xbc14dda6	-0.009086048
73	0x3d4f62eb	0.050631445
74	0x3ced4ae6	0.028966378
75	0x3d849045	0.0647283
76	0xbdb29fd7	-0.08721893
77	0x3dc25d1c	0.094904155
78	0xbc5b1a0d	-0.01337291
79	0xbd3810b9	-0.044937823
80	0xbdb00c4d	-0.08596096
81	0x3de96e63	0.11398008
82	0xbc9147c1	-0.01773441
83	0xbd868415	-0.065681614
84	0xbd9c0e6a	-0.07619937
85	0x3d3fed82	0.046857364
86	0xbc82eccc	-0.015982054
87	0xbd49f774	-0.049308255
88	0x3e085f26	0.13317546
89	0xbdc025e1	-0.09382225
90	0x3d3fea0b	0.04685406
91	0xbcc9e050	-0.024643093
92	0x3bcb53c6	0.006205055
93	0x3dcb6152	0.09930672
94	0x3d80f33d	0.06296394
95	0x3db76cc5	0.08956293
96	0xbca1718f	-0.01970747
97	0x3d55937c	0.052142605
98	0x3cbdbca1	0.023161234
99	0xbd88926c	-0.06668553
100	0xbd72f8d6	-0.05931934
101	0xbdf80529	-0.12110359
102	0x3c344555	0.011002858
103	0xbc1553c2	-0.009114208
104	0xbb668310	-0.0035173334
105	0x3d141e36	0.036161624
106	0xbd5dba94	-0.054133013
107	0x3d3f67c6	0.046729825
108	0x3dd67442	0.10471393
109	0x3db7deef	0.08978068
110	0xbe08d072	-0.13360766
111	0x3af30e36	0.0018543664
112	0x3ce58a22	0.028019968
113	0x3e040f4a	0.12896457
114	0xbc9dd4b1	-0.019266458
115	0xbd8d6f2a	-0.069059685
116	0x3dd2aaf9	0.10286517
117	0xbdbf2c2f	-0.09334599
118	0xbcd2af59	-0.025718378
119	0x3d170897	0.036873426
120	0xbc0c33dc	-0.008557286
121	0x3dedbea5	0.11608628
122	0xbd6eb292	-0.058275767
123	0xbc8bc64b	-0.017062327
124	0x3d0b5b3a	0.034022547
125	0x3dd8051a	0.10547848
126	0x3c586cf1	0.013209567
127	0x3bf62256	0.0075114174
128	0x3d3893a1	0.045062665
129	0xbd5fc800	-0.054634094
130	0x3d9af5b0	0.075663924
131	0xbd49ca0a	-0.049264945
132	0x3d6a7664	0.057241812
133	0x3cea8973	0.028629994
134	0xbdcd4656	-0.10023181
135	0x3d43f744	0.047843233
136	0xbba10e38	-0.004915025
137	0xbdea471c	-0.11439344
138	0xbe224f32	-0.15850523
139	0x3ca21a1d	0.019787842
140	0xbdb04547	-0.086069636
141	0x3bd3e5df	0.0064666118
142	0xbcca1e92	-0.02467278
143	0x3dcae479	0.09906859
144	0xbd97ad75	-0.07406131
145	0xbdac31e8	-0.08407956
146	0xbd9d4c09	-0.07680518
147	0x3a9d42f2	0.0011998101
148	0x3d866816	0.065628216
149	0x3e0075ec	0.12544984
150	0x3dd98a79	0.10622115
151	0xbdf2f9d2	-0.11864056
152	0x3c26b893	0.010175842
153	0x3e0e8053	0.1391614
154	0x3d7d4972	0.06183762
155	0xbd3dd6dd	-0.046347488
156	0xbbf1186b	-0.007357647
157	0x3c50f9db	0.012754883
158	0x3db34533	0.08753433
159	0xbc33576e	-0.010946138
160	0x3e0af099	0.13568343
161	0x3d015032	0.03157062
162	0x3d92776b	0.071516834
163	0x3dfcbe4d	0.123409845
164	0xbd9d0005	-0.07666019
165	0xbcfc68a7	-0.03081162
166	0x3d8fe989	0.07026965
167	0x3d4b3176	0.049607717
168	0xbcb803c6	-0.022462737
169	0x3de84cce	0.11342774
170	0x3d02be37	0.031919684
171	0xbdbbe711	-0.09174932
172	0xbd8adb7d	-0.06780145
173	0xbdca05a8	-0.0986436
174	0x3d3e0bcf	0.04639798
175	0x3de014b6	0.1094145
176	0x3da7ec87	0.08199411
177	0xbc6e3b82	-0.014540555
178	0x3d8351ad	0.06412063
179	0xbdebb651	-0.115093835
180	0x3de72308	0.112859786
181	0x3d173171	0.036912385
182	0xbdd0bd06	-0.10192303
183	0x3d8a112a	0.06741555
184	0x3ce3f19c	0.02782517
185	0xbb3da936	-0.002893997
186	0xbce285d5	-0.027651707
187	0x3c5b4d88	0.013385184
188	0xbdf1145d	-0.11771462
189	0xbc51f94a	-0.012815783
190	0xbc217103	-0.009853604
191	0x3c3493c8	0.011021562
192	0x3dac286f	0.084061496
193	0xbdb7d4fc	-0.089761704
194	0x3ddc217b	0.107485734
195	0xbcb75d9b	-0.022383502
196	0x3d9a6f10	0.07540715
197	0xbd797215	-0.060899813
198	0x3da98e16	0.08279054
199	0xbde498e2	-0.111619726
200	0xbe0a03b8	-0.13477981
201	0x3d68b5a9	0.05681387
202	0x3d9a6bfa	0.07540126
203	0xbd9eb99f	-0.07750248
204	0xbd99bd06	-0.075067565
205	0xbdc23a9c	-0.09483835
206	0xbc8c53a0	-0.01712972
207	0x3c4d7ade	0.012541501
208	0x3d8f95a3	0.07010963
209	0x3bd77669	0.006575395
210	0xbe0c8f21	-0.13726474
211	0xbc053932	-0.008131312
212	0x3dc99eac	0.098447174
213	0xbde6f00c	-0.11276254
214	0xbe07f219	-0.13275947
215	0x3d50d159	0.0509809
216	0xbc01e2ac	-0.007927578
217	0xbde82fb7	-0.11337226
218	0x3dc07308	0.093969405
219	0x3bbb204e	0.005710638
220	0xbc1d3c57	-0.009596906
221	0xbdfeea4e	-0.12447034
222	0x3d0b52da	0.03401456
223	0x3d860898	0.06544608
224	0xbd2e2a29	-0.042520676
225	0x3d62eed7	0.055403557
226	0x3d9bbae6	0.076040074
227	0xbd9607f8	-0.07325739
228	0x3d6e24bb	0.058140498
229	0x3df9b649	0.12192971
230	0xbc81a5a1	-0.015826048
231	0xbd237b8f	-0.039912757
232	0x3d0a0e9d	0.033705343
233	0x3dc0b4a7	0.09409457
234	0x3df889af	0.12135636
235	0xbdbefb3f	-0.09325265
236	0x3d005f68	0.031340986
237	0x3db247a4	0.087050706
238	0x3d254adc	0.040354595
239	0xbd90541b	-0.07047292
240	0xbd3922ec	-0.04519932
241	0x3db063bc	0.08612773
242	0xbdcb12a9	-0.099156685
243	0xbd98eebf	-0.07467412
244	0x3d2e919a	0.042619325
245	0x3df062a2	0.11737563
246	0x3c9f6c97	0.01946096
247	0x3d922889	0.07136638
248	0xbd4a48e5	-0.049385924
249	0x3dff6d05	0.12471966
250	0xbd36983a	-0.04457877
251	0xbdbb7768	-0.09153634
252	0xbc953f5d	-0.01821869
253	0xbdcf2171	-0.101138
254	0xbe01bf48	-0.12670624
255	0x3d756fcb	0.059921067

lstm.bias_ih_l0_reverse f4 [256]
0	0xbcf54eb1	-0.02994475
1	0xbda71cb8	-0.081597745
2	0x3df845ff	0.12122726
3	0x3c10e789	0.008844265
4	0x3d48b792	0.04900319
5	0x3e0edb8b	0.13950936
6	0x3d6f1a2c	0.05837457
7	0xbd1a74a6	-0.0377089
8	0xbd84f5cd	-0.06492195
9	0xbd8a1bd5	-0.0674359
10	0xbbb421f4	-0.0054972116
11	0x3dff67ce	0.12470971
12	0xbcd8f90b	-0.02648594
13	0x3de27f74	0.11059466
14	0x3dfe74c9	0.12424619
15	0x3e09a107	0.13440333
16	0x3d9dbd5c	0.07702133
17	0x3d2256db	0.039633613
18	0xbdc77369	-0.097388096
19	0xbd130246	-0.03589084
20	0x3e04fe40	0.12987614
21	0xbbfb332a	-0.0076660113
22	0xbd75c232	-0.059999652
23	0xbdc659a5	-0.09685067
24	0xbccc6c86	-0.024954092
25	0x3dda9f96	0.1067497
26	0x3c8b20a3	0.016983336
27	0xbd2dd219	-0.042436693
28	0x3d9596da	0.07304163
29	0xbd982738	-0.074293554
30	0xbc75d382	-0.015004041
31	0xbd77fbdc	-0.060542926
32	0x3ddb656f	0.10712706
33	0x3ca2aea3	0.019858664
34	0x3c8e2fd5	0.017356792
35	0x3de068d3	0.10957494
36	0x3bfc551d	0.007700576
37	0x3da6a15d	0.08136246
38	0x3d681da5	0.056668896
39	0x3c9aa774	0.018878676
40	0x3c989afa	0.018628586
41	0x3dd7966e	0.10526739
42	0xbbd5780d	-0.0065145553
43	0x3dd29220	0.102817774
44	0x3d7e621a	0.062105276
45	0xbd447fbf	-0.04797339
46	0x3d73e0a2	0.0595404
47	0xbcda5807	-0.026653303
48	0xbd95297a	-0.07283302
49	0xbd85736c	-0.065161556
50	0x3d996a26	0.07490949
51	0x3d55e16c	0.052216932
52	0x3d1c0ad6	0.03809627
53	0x3be0063c	0.0068366807
54	0x3c4b6970	0.012415275
55	0x3cc07dfe	0.023497578
56	0xbd0df4a0	-0.03465712
57	0x3de035a3	0.109477304
58	0x3dde71d6	0.10861556
59	0x3e1403cd	0.14454575
60	0x3e152e40	0.14568424
61	0xbc368b33	-0.011141586
62	0x3cdec4dc	0.02719348
63	0xbcfaef7f	-0.030631779
64	0x3dcb4902	0.099260345
65	0x3d7e16e6	0.062033556
66	0xbd35b15e	-0.044358604
67	0x3d3e37d8	0.046439976
68	0xbd1f599b	-0.038903814
69	0x3d5c142d	0.05373018
70	0x3d5fed8c	0.0546699
71	0xbd8653ae	-0.065589294
72	0xbcdd8bc3	-0.027044183
73	0xbdbeab9a	-0.09310074
74	0x3dd27756	0.10276668
75	0x3d68eb9e	0.056865327
76	0xbc2b1d44	-0.010443989
77	0x3d13f769	0.03612462
78	0x3dc37d46	0.095453784
79	0xbdc745dc	-0.097301215
80	0xbd481208	-0.04884532
81	0xbd6d5531	-0.057942573
82	0x3cd98a4b	0.026555201
83	0x3d4361a0	0.047700524
84	0xbcc28e62	-0.023749534
85	0xbd03df94	-0.032195643
86	0xbd6b8598	-0.05750045
87	0x3cae9ffa	0.021316517
88	0xbcfb2549	-0.030657427
89	0xbd70e3b4	-0.058810905
90	0x3e073f5f	0.13207768
91	0x3dfefaa7	0.12450152
92	0x3d2c367a	0.04204414
93	0x3d9dc0ce	0.0770279
94	0xbd899a80	-0.06718922
95	0xbc66e850	-0.014093474
96	0xbdafe39f	-0.08588337
97	0x3e119d81	0.14220239
98	0x3d9af7a5	0.07566766
99	0x3d37a183	0.044831764
100	0xbd723444	-0.059131876
101	0x3d03566d	0.032064844
102	0xbcfa266e	-0.030535903
103	0xbdd104c4	-0.10205987
104	0x3daf98a3	0.08574035
105	0x3e07f71d	0.1327786
106	0xbd17900a	-0.0370026
107	0x3b7c9f51	0.0038547108
108	0x3be42f67	0.0069636586
109	0x3b1152b4	0.002217454
110	0x3d150ac7	0.03638723
111	0x3d00ced9	0.031447265
112	0x3dcd4fe3	0.10025003
113	0xbc2647ec	-0.010148983
114	0xbda5819e	-0.08081363
115	0x3e0aa0a7	0.13537847
116	0x3d3a3b75	0.04546686
117	0x3dbfc6e1	0.09364105
118	0xbcd85297	-0.02640657
119	0xbdb6eab3	-0.08931484
120	0x3db4a1f6	0.08819954
121	0xbdb326c3	-0.087476276
122	0x3d94e730	0.07270658
123	0x3db00c8d	0.08596144
124	0xbd616290	-0.055025637
125	0x3cc6aa21	0.024251046
126	0x3cf1c626	0.02951343
127	0x3de48e7e	0.11159991
128	0x3da5ac27	0.08089476
129	0x3d58ad12	0.052899428
130	0xbe0c2b5a	-0.13688412
131	0x3d21ab91	0.03947026
132	0x3ddc6816	0.1076204
133	0x3d595a58	0.053064674
134	0x3d737ae4	0.05944337
135	0x3dda68b4	0.10664502
136	0xbdc8ce45	-0.09804968
137	0x3da8c28f	0.08240234
138	0x3d99e076	0.07513516
139	0xbdc5a1b7	-0.09649985
140	0x3d394565	0.045232195
141	0x3c5307ca	0.012880275
142	0xbcf5810d	-0.029968763
143	0x3d691867	0.056908038
144	0xbdbac5f6	-0.09119789
145	0xbdc11fe9	-0.094299145
146	0xbd4530cd	-0.048142243
147	0xbde2c50d	-0.11072741
148	0xbd1b5f28	-0.037932545
149	0xbde6123c	-0.11233947
150	0xbd435ffd	-0.047698963
151	0xbd84efa5	-0.06491021
152	0x3d1af4f6	0.03783127
153	0x3d692825	0.05692305
154	0xbbd6e49c	-0.006558014
155	0x3df40f9a	0.11917038
156	0xbc2cebc4	-0.010554258
157	0x3d9b52ca	0.0758415
158	0xbdd93917	-0.10606592
159	0x3e022620	0.12709856
160	0x3e100586	0.14064607
161	0xbdfe8c1d	-0.12429068
162	0x3df36bd9	0.11885805
163	0x3dbcc5f2	0.092174426
164	0x3ba85567	0.005137134
165	0xbc8446cf	-0.016147045
166	0x3d4844b0	0.04889363
167	0xbd26eb3f	-0.040751692
168	0x3d7e2a82	0.062052257
169	0x3dfc229c	0.12311289
170	0xbcbb4d76	-0.022864085
171	0xbd3a984c	-0.045555398
172	0xbd5e4647	-0.05426624
173	0x3de499b0	0.11162126
174	0xbc890a48	-0.016728535
175	0xbdc4a084	-0.096009284
176	0xbd5ee50c	-0.054417655
177	0x3b7e378f	0.003879044
178	0xbd40587a	-0.046959378
179	0x3be319d7	0.0069305706
180	0xbb69dac9	-0.0035683385
181	0x3df51a67	0.119679265
182	0xbd32106b	-0.04347269
183	0x3d8f6a62	0.07002713
184	0x3dd7f9f0	0.10545719
185	0x3e0316ab	0.12801616
186	0xbde45ad0	-0.111501336
187	0x3dc479da	0.09593554
188	0xbdac5a7d	-0.08415697
189	0xbdf7f288	-0.12106806
190	0xba806f51	-0.00097988
191	0x3df0f7bf	0.11766004
192	0x3de0d73f	0.10978555
193	0xbdc7efb1	-0.097625144
194	0x3cf61d65	0.030043313
195	0xbdaa927f	-0.08328723
196	0x3dc8c027	0.09802275
197	0xbd0688bd	-0.032845248
198	0x3e10a0d1	0.14123847
199	0xbd916ab6	-0.071004316
200	0xbde3a283	-0.11114981
201	0x3e00cff5	0.1257933
202	0x3dd780cd	0.10522614
203	0x3d734569	0.059392367
204	0xbd78e1c9	-0.0607622
205	0x3d391232	0.045183368
206	0xbd25a7b5	-0.04044314
207	0x3d4ab563	0.04948939
208	0xbb2f647a	-0.002676277
209	0x3de5e847	0.11225944
210	0xbd92fd11	-0.07177175
211	0x3d9537bd	0.07286022
212	0xbd1a4e11	-0.037672106
213	0xbb38c664	-0.0028194422
214	0x3de04a22	0.1095164
215	0xbccbebdd	-0.024892742
216	0x3e0dae29	0.13835968
217	0xbc146095	-0.00905623
218	0xbdb2cb1b	-0.087301455
219	0xbdb79ed0	-0.08965838
220	0x3d0258b6	0.031822883
221	0xbac0de65	-0.0014714716
222	0xbdb21641	-0.08695651
223	0x3dd0363f	0.101665966
224	0xbd10df15	-0.035368998
225	0x3d792057	0.060821857
226	0x3dd9be3b	0.10631987
227	0xbd7f2c02	-0.06229783
228	0x3de0e0ec	0.109804004
229	0xbca99a32	-0.020703409
230	0xbd9c7d32	-0.076410666
231	0xbd9d39af	-0.07677018
232	0xbc8c2345	-0.017106662
233	0x3dcc8e75	0.09988109
234	0x3e06156f	0.13094114
235	0xbcea50ff	-0.028603075
236	0xbdc24ad6	-0.0948693
237	0x3e0699bd	0.13144584
238	0x3dbdfdc7	0.0927692
239	0x3cb997bc	0.02265536
240	0x3d533e85	0.051573295
241	0x3dd339b7	0.103137426
242	0x3e08c430	0.1335609
243	0x3d11e8fc	0.03562258
244	0xbdb7cddf	-0.08974814
245	0x3e0dda72	0.13852862
246	0xbdd4784d	-0.10374508
247	0xbc8cecf1	-0.017202826
248	0x3daab2ad	0.08334861
249	0x3e097bf4	0.1342619
250	0x3e11768c	0.14205378
251	0xbda99260	-0.08279872
252	0x3d9c0e67	0.076199345
253	0x3e05a78d	0.13052197
254	0x3d97b07c	0.074067086
255	0xbca45da6	-0.020064186
