trained_models/LSTM/LSTM_Zscore_CF3_pred_4.pth (torch, 661823 bytes, 23 tensors)

lstm.weight_ih_l0 f4 [256, 40]
-0.09216821 0.1057317 0.02328309 -0.075605705 0.0673493 0.1112392 -0.062319964 0.01910037
-0.10068155 -0.10095592 -0.1308076 0.16852756 -0.103928335 0.111867055 0.056093495 -0.074862584
-0.00858918 0.12123823 -0.033706 0.050277676 -0.03983061 0.05366007 -0.09115316 -0.1161397
-0.037734643 -0.090829715 -0.030986423 -0.07199979 0.007828234 -0.04120137 0.082137346 -0.045941364
-0.12285075 0.021215867 0.031676374 0.038050085 0.021219207 -0.008098322 -0.008234894 0.019254243
0.01593348 -0.010830745 0.0024727797 0.04229814 -0.036390577 0.08669572 0.0967739 -0.09500422
-0.12142589 0.15674254 -0.09398665 -0.11517033 -0.10740942 0.122282304 -0.077184655 0.10754823
0.030545492 -0.064106636 -0.03461141 0.06515535 0.09103355 -0.08211273 0.048860542 0.099955596
-0.056197118 -0.03035632 -0.13352244 0.0648426 -0.097245336 0.07788481 -0.05117058 -0.101433
-0.04345648 -0.06421906 -0.007964662 -0.11874694 -0.022930184 -0.08961531 -0.11542823 0.1306065
-0.081715524 0.078113176 0.05268877 0.09236033 0.022257702 0.074884295 0.05052038 -0.12201647
-0.051391166 -0.05228668 -0.07757823 0.08003355 0.008089149 0.06967159 -0.06795423 0.06423218
-0.03265029 -0.09546891 -0.067478165 -0.08209953 0.05370508 -0.114194 0.0042171036 -0.10416102
-0.11728295 -0.02457757 0.08372505 -0.09561242 -0.06753345 -0.027237551 -0.020872813 0.024858568
-0.12431802 0.10258517 -0.08752874 -0.022928307 -0.004982871 -0.04192266 0.056857664 -0.06755956
-0.080348976 -0.12652314 -0.07778154 0.11305264 -0.02962459 -0.098080754 0.11095037 0.037942283
-0.06934298 -0.061561488 -0.049054857 0.055345345 0.0074944575 -0.017876659 -0.013057063 -0.023586296
-0.06901468 -0.11158583 -0.10812557 0.044986706 -0.04794146 -0.05698956 -0.027242659 -0.09990097
-0.060741834 0.060795773 0.11674141 -0.11361423 -0.082369834 -0.006757537 -0.12600447 0.08733973
0.024905851 -0.07781351 -0.055162 0.06697133 -0.035243347 0.061964806 0.026541615 0.0809013
-0.064329386 0.06749139 0.006024022 -0.026820276 0.08193326 0.0025453127 -0.07913959 0.010187176
0.021769784 0.064193286 0.041524116 0.05251244 -0.010553451 0.007652136 0.06074709 0.057371125
-0.09806135 0.074978046 0.08396196 0.05034749 -0.04424487 -0.027064862 0.06528638 -0.076031625
0.034763478 -0.037537005 -0.099364415 0.09173124 -0.030880388 -0.102837406 0.13122903 0.060866084
-0.058445316 0.10157057 -0.04891604 0.036735203 0.034037 0.15634064 0.107538216 -0.12027063
-0.10791913 -0.022747884 -0.0022900756 0.10367034 0.02755004 0.11968733 0.030140843 -0.05970161
-0.0378589 0.086517654 0.055327978 0.028628984 -0.03440142 0.11899082 0.081847355 -0.009151974
0.0028631794 -0.021523973 0.09335208 -0.102265485 -0.06753814 -0.096848376 -0.049982302 -0.1190771
0.0996184 -0.06350005 0.081350714 -0.04297176 0.07804872 0.055611145 0.013873784 0.13972366
-0.0032170734 -0.02469802 0.010510951 0.1170615 -0.013800851 0.12818806 0.07710508 0.030820321
-0.1258391 -0.092456356 -0.072726876 -0.026166974 0.025346369 0.0008440113 0.04654763 0.10903379
-0.06908638 0.06998178 -0.14813961 0.13212335 -0.05534636 0.028327946 0.046563882 0.04263146
00000000: b0c2 bcbd dd89 d83d 2ebc be3c 2ad7 9abd
00000010: 6eee 893d 61d1 e33d 3843 7fbd 6178 9c3c
00000020: 2132 cebd fac1 cebd 6df2 05be 7d92 2c3e
00000030: 61d8 d4bd 8e1a e53d 4bc2 653d 8e51 99bd
00000040: a2b9 0cbc c04b f83d 4d0f 0abd f7ef 4d3d
00000050: 6c25 23bd a9ca 5b3d 82ae babd a7da edbd
00000060: a48f 1abd ee04 babd 3dd7 fdbc a074 93bd
00000070: fe41 003c c5c2 28bd a037 a83d 032d 3cbd
00000080: 2d99 fbbd e6cc ad3c 16bf 013d 68da 1b3d
00000090: e7d3 ad3c d3ae 04bc a6eb 06bc 13bb 9d3c
000000a0: ee86 823c 7073 31bc 5c0e 223b d040 2d3d
000000b0: 490e 15bd 878d b13d 6531 c63d 9391 c2bd
000000c0: 23ae f8bd 1e81 203e 137c c0bd 6cde ebbd
000000d0: 78f9 dbbd 256f fa3d fd12 9ebd 3f42 dc3d
000000e0: 8a3a fa3c 574a 83bd b2c4 0dbd 2b70 853d
000000f0: cc6f ba3d b82a a8bd fe21 483d 85b5 cc3d
00000100: f32e 66bd d1ad f8bc 1bba 08be 32cc 843d
00000110: 9028 c7bd 1282 9f3d 3e98 51bd 1bbc cfbd
00000120: 6cff 31bd 4885 83bd 377e 02bc 9831 f3bd
00000130: 15d8 bbbc 3b88 b7bd a365 ecbd b6bd 053e
00000140: 785a a7bd cdf9 9f3d 2ed0 573d 6a27 bd3d
00000150: c955 b63c f05c 993d 75ee 4e3d c5e3 f9bd
00000160: 8b7f 52bd 8f2a 56bd 56e1 9ebd a1e8 a33d
00000170: 5a88 043c fbaf 8e3d 962b 8bbd 298c 833d
00000180: 4fbc 05bd 3485 c3bd fe31 8abd cc23 a8bd
00000190: dcf9 5b3d 8bde e9bd a12f 8a3b 5f52 d5bd
000001a0: 0b32 f0bd e656 c9bc 0a78 ab3d 72d0 c3bd
000001b0: fa4e 8abd 4921 dfbc 76fd aabc 32a4 cb3c
000001c0: 729a febd 2c18 d23d 4542 b3bd 25d4 bbbc
000001d0: 5a47 a3bb 18b7 2bbd 95e3 683d ab5c 8abd
000001e0: 018e a4bd 488f 01be ee4b 9fbd 2488 e73d
000001f0: 45af f2bc 90de c8bd f339 e33d 5e69 1b3d
00000200: b103 8ebd e627 7cbd bfed 48bd cdb1 623d
00000210: 1194 f53b 1272 92bc 4bed 55bc 0c38 c1bc
00000220: 9257 8dbd 1d87 e4bd f070 ddbd fb43 383d
00000230: 445e 44bd e36d 69bd ff2b dfbc e198 ccbd
00000240: 6ecc 78bd fd04 793d 1f16 ef3d 94ae e8bd
00000250: 84b1 a8bd 546e ddbb 5107 01be 2cdf b23d
00000260: 5b07 cc3c b15c 9fbd 8df1 61bd 4428 893d
00000270: 545b 10bd cfce 7d3d cd6d d93c 95af a53d
00000280: 20bf 83bd ed38 8a3d 2965 c53b 32b6 dbbc
00000290: a0cc a73d 43cf 263b f013 a2bd 1de8 263c
000002a0: 8c56 b23c c577 833d 3115 2a3d 4917 573d
000002b0: 62e8 2cbc c5be fa3b f1d1 783d fcfd 6a3d
000002c0: 64d4 c8bd 178e 993d 40f4 ab3d 2b39 4e3d
000002d0: 1c3a 35bd 21b7 ddbc deb4 853d 78b6 9bbd
000002e0: 2664 0e3d 67c0 19bd 927f cbbd 97dd bb3d
000002f0: def8 fcbc 6b9c d2bd e760 063e b74e 793d
00000300: 5b64 6fbd 3b04 d03d 305c 48bd a777 163d
00000310: 626a 0b3d c317 203e ff3c dc3d 7350 f6bd
00000320: b404 ddbd c559 babc 1815 16bb 1d51 d43d
00000330: 9fb0 e13c a21e f53d eee9 f63c ad89 74bd
00000340: ef11 1bbd 2b30 b13d 979f 623d 5587 ea3c
00000350: 81e8 0cbd 76b1 f33d 969f a73d 29f2 15bc
00000360: 2ea4 3b3b 0b53 b0bc 602f bf3d 9170 d1bd
00000370: 7051 8abd 7158 c6bd 3eba 4cbd b2de f3bd
00000380: bb04 cc3d 500c 82bd 349b a63d 2803 30bd
00000390: 02d8 9f3d 83c8 633d de4e 633c b813 0f3e
000003a0: 89d5 52bb 8153 cabc 2036 2c3c f1bd ef3d
000003b0: f71c 62bc bb43 033e 45e9 9d3d e67a fc3c
000003c0: f7db 00be c259 bdbd d4f1 94bd 1f5c d6bc
000003d0: 30a3 cf3c a440 5d3a baa8 3e3d 1c4d df3d
000003e0: 297d 8dbd 9c52 8f3d e9b1 17be 584b 073e
000003f0: ddb2 62bd 0210 e83c c5b9 3e3d 539e 2e3d

lstm.weight_hh_l0 f4 [256, 64]
-0.047444306 0.046864808 -0.08678222 -0.041556478 0.07059081 -0.038625788 0.12560868 -0.08379991
0.07763312 0.16611914 -0.11993984 0.14169185 0.032179423 0.042878937 0.034660112 0.07980818
-0.04144542 0.0143803535 -0.119276196 -0.06327627 -0.06742922 0.072057165 0.040687192 -0.011054294
-0.069600984 -0.0054611256 0.13230671 0.06213456 0.05729205 0.036245637 -0.06408009 0.07007935
0.054953303 0.016977053 0.13506237 0.14651814 0.027367905 0.018499672 -0.061884865 -0.12845238
0.021650547 -0.054085843 0.05493338 -0.038418844 0.0792209 -0.11177197 -0.046273027 -0.02775534
0.03441336 0.11515684 0.100777686 -0.054518577 -0.02602572 -0.02495921 -0.09925438 -0.11006884
0.044192847 -0.018486295 0.08629014 0.13828138 0.14299744 -0.029722257 0.046434816 0.005898869
-0.15226366 -0.07395446 0.1637884 0.08495163 0.034927882 0.048766855 7.783962e-05 0.057364624
0.008480487 0.033546187 0.060914062 -0.093925774 -0.021665322 0.045523297 0.080844395 0.01346853
0.059951823 0.02224684 0.08684981 0.13269171 0.09773817 -0.0038636466 -0.09333248 0.10080276
-0.045486845 -0.01752115 -0.055489834 -0.14800464 0.09926794 -0.09074929 -0.035942934 0.02847511
-0.045862805 0.07567492 0.12641802 0.028548392 0.11058527 -0.14195013 0.091597095 -0.09575608
-0.025137318 -0.015678868 -0.020582488 0.04690682 -0.14159095 -0.027214602 0.09864278 -0.023851935
0.0008027393 -0.06844826 0.019847058 -0.13142858 -0.02914706 -0.030413548 0.044403058 -0.06921423
0.050134923 0.055739243 0.026438916 -0.014723768 0.016103063 -0.040442478 -0.023879495 0.03653006
0.007824751 -0.06720379 0.10356674 -0.08186305 0.05954663 -0.11532713 -0.015048478 0.12366834
-0.019322809 -0.037097927 0.065212116 0.10213113 0.12474844 0.04100624 -0.022736937 -0.06845864
0.004181088 -0.063879736 -0.11502394 0.09562581 0.032037955 0.0011716379 -0.11399732 0.08797445
-0.057017658 0.042590335 -0.052336454 -0.019275744 -0.09624714 0.06584571 -0.016220784 -0.005180709
-0.017530495 -0.07756238 -0.0782609 0.06298723 -0.10956578 0.03357518 0.07906446 -0.15329614
0.0378748 -0.09613861 -0.021817012 0.19417681 -0.0050406433 -0.035610635 0.10389985 -0.053939417
0.038803805 0.025826415 0.09115386 -0.02397801 0.12213782 -0.047167223 0.074363515 0.0036531328
0.069119394 0.06879599 -0.063046694 0.11792907 0.015453017 -0.02198878 -0.09178835 0.055428974
-0.090774894 -0.12145655 0.054102495 -0.005477736 0.052944824 -0.10721261 -0.052408278 0.06432997
-0.017001411 0.08752801 -0.08125054 -0.113497905 -0.04061495 0.043912947 -0.003962541 -0.11749897
0.011863147 0.029809102 -0.033628743 0.07123391 -0.095622234 0.048087902 -0.08895646 -0.12900141
0.01843722 0.010908508 0.00047589003 -0.03673335 0.045359485 0.02602765 -0.022212809 0.07914306
-0.10727699 0.11044211 0.039882276 -0.041430686 0.04672038 -0.08313605 -0.06231457 -0.07616973
-0.088685006 0.027280128 0.063053966 -0.10588877 0.03469582 0.0211069 -0.11281999 0.13331787
-0.122469105 -0.1414664 -0.045088638 0.010503009 -0.12574893 0.085895285 -0.019297983 0.10410573
0.008747869 0.065268196 0.08159133 0.098734915 0.08252077 0.044507265 -0.05296327 -0.11763502
00000000: f654 42bd 50f5 3f3d e0ba b1bd 2037 2abd
00000010: ea91 903d 1336 1ebd 909f 003e 4a9f abbd
00000020: 1dfe 9e3d 231b 2a3e 05a3 f5bd ab17 113e
00000030: 92ce 033d d3a1 2f3d c3f7 0d3d 7972 a33d
00000040: acc2 29bd 939b 6b3c 1447 f4bd fd96 81bd
00000050: 5518 8abd b592 933d 9da7 263d 121d 35bc
00000060: f68a 8ebd 3ef3 b2bb 697b 073e cf80 7e3d
00000070: 12ab 6a3d 4e76 143d 6c3c 83bd c385 8f3d
00000080: b716 613d 7613 8b3c ca4d 0a3e da08 163e
00000090: a832 e03c a08c 973c fc7a 7dbd 0589 03be
000000a0: 7d5c b13c 1e89 5dbd d301 613d 145d 1dbd
000000b0: 913e a23d b4e8 e4bd c988 3dbd 2b5f e3bc
000000c0: 06f5 0c3d 59d7 eb3d 8864 ce3d df4e 5fbd
000000d0: e433 d5bc 4277 ccbc e145 cbbd c66b e1bd
000000e0: 8f03 353d 9270 97bc e3b8 b03d a299 0d3e
000000f0: ec6d 123e 177c f3bc 6f32 3e3d 4d4b c13b
00000100: 01eb 1bbe 7075 97bd 25b8 273e 1ffb ad3d
00000110: 8a10 0f3d c1bf 473d d43d a338 2bf7 6a3d
00000120: bef1 0a3c ba67 093d 0681 793d 285c c0bd
00000130: 797b b1bc a376 3a3d bf91 a53d 1cab 5c3c
00000140: 0b90 753d 013f b63c 50de b13d 56e0 073e
00000150: f32a c83d 3c35 7dbb 1925 bfbd ad71 ce3d
00000160: 6a50 3abd 8488 8fbc 4f49 63bd 878e 17be
00000170: fd4c cb3d c4da b9bd e638 13bd a244 e93c
00000180: a3da 3bbd 74fb 9a3d ba73 013e 51de e93c
00000190: 887a e23d 605b 11be 4297 bb3d c31b c4bd
000001a0: c7ec cdbc f870 80bc 9b9c a8bc 5e21 403d
000001b0: 38fd 10be 28f1 debc 3a05 ca3d 2265 c3bc
000001c0: ec6e 523a 9a2e 8cbd 4c96 a23c 3795 06be
000001d0: d1c5 eebc d525 f9bc fbdf 353d 31c0 8dbd
000001e0: 475a 4d3d d54e 643d 6d96 d83c f63b 71bc
000001f0: 92ea 833c 03a7 25bd ee9e c3bc 8ba0 153d
00000200: 6233 003c 24a2 89bd cd1a d43d d1a7 a7bd
00000210: 2be7 733d a130 ecbd e48d 76bc d445 fd3d
00000220: de4a 9ebc fff3 17bd ee8d 853d 202a d13d
00000230: 1c7c ff3d 29f6 273d d042 babc 0b34 8cbd
00000240: 8201 893b 61d3 82bd ac91 ebbd 77d7 c33d
00000250: 3b3a 033d a591 993a 6d77 e9bd f32b b43d
00000260: 598b 69bd 3473 2e3d c05e 56bd 2ae8 9dbc
00000270: 381d c5bd 1eda 863d 73e1 84bc f0c2 a9bb
00000280: 1d9c 8fbc 06d9 9ebd 4047 a0bd 73ff 803d
00000290: 0664 e0bd 2186 093d 8cec a13d aaf9 1cbe
000002a0: 9b22 1b3d 52e4 c4bd 97b9 b2bc 49d6 463e
000002b0: fb2b a5bb 75dc 11bd 72c9 d43d 94ef 5cbd
000002c0: bdf0 1e3d eb91 d33c e0ae ba3d 886d c4bc
000002d0: 6523 fa3d 6b32 41bd e64b 983d 6669 6f3b
000002e0: 788e 8d3d e9e4 8c3d a01e 81bd cc84 f13d
000002f0: a72e 7d3c d021 b4bc 88fb bbbd 7e09 633d
00000300: 30e8 b9bd 36be f8bd 949a 5d3d 947e b3bb
00000310: acdc 583d 4992 dbbd 10aa 56bd 6ebf 833d
00000320: 8b46 8bbc e341 b33d af66 a6bd 9771 e8bd
00000330: dd5b 26bd 10de 333d 34d8 81bb 4da3 f0bd
00000340: a55d 423c 3832 f43c 4bbe 09bd 16e3 913d
00000350: 97d5 c3bd d2f7 443d ce2e b6bd f218 04be
00000360: a709 973c 99b9 323c e180 f939 b675 16bd
00000370: deca 393d f037 d53c a3f7 b5bc c215 a23d
00000380: 0ab4 dbbd 792f e23d 995b 233d 39b3 29bd
00000390: df5d 3f3d 3c43 aabd 903d 7fbd e0fe 9bbd
000003a0: 7ca0 b5bd 937a df3c 7022 813d 36dc d8bd
000003b0: 341d 0e3d 61e8 ac3c 2b0e e7bd 7b84 083e
000003c0: 15d1 fabd 91dc 10be ddae 38bd d014 2c3c
000003d0: 54c4 00be dee9 af3d ce16 9ebc 6335 d53d
000003e0: 3953 0f3c 55ab 853d 5b19 a73d 8835 ca3d
000003f0: a600 a93d 404d 363d 04f0 58bd a1ea f0bd

lstm.bias_ih_l0 f4 [256]
-0.03954981 -0.061757606 0.091888726 0.13364182 0.07996292 0.067465805 -0.094189286 0.06819544
-0.07866801 0.0049135564 0.12866364 -0.08564019 0.085937604 -0.03733093 0.13126116 0.024462733
0.12959969 -0.056839675 -0.08018911 -0.061515518 0.04172858 0.020321239 0.10891869 0.06643405
-0.03999219 0.11913927 -0.028672026 0.006023925 0.08348823 0.054396365 0.06690981 0.012006174
-0.045936335 0.17421976 0.11747559 -0.0776817 0.10600348 -0.07748618 0.016890751 0.12803563
-0.006390802 0.09837081 0.10579341 -0.012065296 0.04217339 0.09808452 0.05615462 -0.078211695
-0.008122828 0.0076167905 0.03151575 0.044700805 0.006039131 0.12402107 0.04731144 -0.054639272
-0.11944151 0.024530387 0.06539932 0.030758513 0.14261828 0.06227659 0.011545575 0.0173532
0.15982981 0.045908235 0.010136403 0.03429046 0.110745326 0.1163032 -0.03962572 0.1087208
0.080101445 -0.0315619 -0.08619152 -0.07817894 0.029836647 -0.10006703 -0.019141763 0.13837917
-0.075802974 0.12695554 -0.070580274 -0.087329455 0.13891809 0.02055999 0.07370375 0.10270273
-0.030684752 0.059792314 -0.04653972 0.011150865 -0.040911905 -0.10029874 0.0827228 0.14060636
0.086902365 0.14411266 0.019043924 0.009345684 0.122765526 -0.05524712 -0.021507956 0.106351
0.11679644 -0.009210139 -0.047890835 0.1687631 0.08269546 -0.014731689 0.11169252 -0.04802884
0.03980751 0.15634787 0.049787607 0.11268231 0.011394477 0.052821126 0.022643574 0.051981486
-0.021420198 -0.041204404 -0.02689361 -0.0118582025 0.07907189 0.055645525 0.09633264 0.14177957
-0.10094653 -0.120679624 -0.020475443 0.027646938 0.054171212 -0.10061209 0.06547662 0.0771572
-0.08830515 0.029718384 -0.020514611 0.07946229 0.017076658 0.038918436 -0.13064075 -0.123017825
0.1422696 -0.016387949 -0.123840705 -0.068968326 0.05105898 0.10099456 -0.041805852 -0.012851587
0.14133483 -0.008706524 -0.01923455 -0.013503408 -0.08924243 0.08470484 -0.12422182 -0.040194035
-0.09110978 0.052626066 -0.12130256 0.0983876 -0.06290257 0.08809438 0.102264255 -0.045142695
0.10387267 0.012368493 -0.036824893 0.11116127 -0.070204005 -0.045931246 -0.013704 0.062423006
-0.11118227 -0.022906464 -0.07612897 -0.022509856 -0.062817276 -0.09968496 -0.09105197 -0.040118404
-0.049189504 -0.06430854 -0.0038252466 -0.018272053 -0.023516014 -0.132299 -0.14060074 -0.027961237
-0.05075482 -0.08028665 0.13229437 0.017166307 -0.04880772 0.0733416 -0.09379696 0.012304318
-0.06754556 0.023555081 0.07836531 0.08270128 0.017611269 -0.086306944 -0.06539894 0.062711336
0.09209099 -0.022257041 -0.02070035 -0.101013035 -0.0671057 -0.1114707 -0.07183738 -0.095541716
-0.03494037 -0.012807112 0.025200117 0.06857719 -0.08620498 -0.05496523 -0.07538191 -0.074184164
0.06881743 -0.029407028 -0.017582018 0.014803728 -0.09734776 -0.0566812 0.0029917487 0.14865245
0.037613913 -0.087304555 -0.06764326 -0.033052564 0.035679605 0.123750456 0.030872483 -0.084350556
-0.06428554 -0.05061828 0.060501613 0.07608296 0.018747149 0.057869192 0.083874814 0.04938799
0.08532501 0.041277513 0.1381156 0.14249252 0.030574381 0.06616701 0.094684005 -0.054151963
00000000: fbfe 21bd 8bf5 7cbd 2830 bc3d 67d9 083e
00000010: 99c3 a33d 832b 8a3d 50e6 c0bd 0daa 8b3d
00000020: b21c a1bd e601 a13b 67c0 033e 2064 afbd
00000030: 0e00 b03d 51e8 18bd 5369 063e 1266 c83c
00000040: c8b5 043e b8d0 68bd 303a a4bd b2f7 7bbd
00000050: 96eb 2a3d ba78 a63c c310 df3d 930e 883d
00000060: dace 23bd 4aff f33d 99e1 eabc 5864 c53b
00000070: e1fb aa3d b9ce 5e3d 0308 893d 8bb5 443c
00000080: bd27 3cbd aa66 323e 0b97 f03d 9517 9fbd
00000090: 5a18 d93d 13b1 9ebd 795e 8a3c c61b 033e
000000a0: ef69 d1bb a376 c93d 37aa d83d 85ad 45bc
000000b0: 01be 2c3d 89e0 c83d 6302 663d 742d a0bd
000000c0: 9c15 05bc 4596 f93b a916 013d 3118 373d
000000d0: e7e3 c53b c2fe fd3d a4c9 413d 6ecd 5fbd
000000e0: c09d f4bd f3f3 c83c 14f0 853d 47f9 fb3c
000000f0: 870a 123e bd15 7f3d a729 3d3c 4c28 8e3c
00000100: 6daa 233e 460a 3c3d 2813 263c 2774 0c3d
00000110: 72ce e23d 5f30 ee3d 944e 22bd 03a9 de3d
00000120: 3a0c a43d 0d47 01bd 2e85 b0bd 481c a0bd
00000130: fc6b f43c f1ef ccbd 30cf 9cbc 45b3 0d3e
00000140: 973e 9bbd a200 023e 648c 90bd c9d9 b2bd
00000150: 8b40 0e3e 6d6d a83c fef1 963d cf55 d23d
00000160: 975e fbbc c9e8 743d 6fa0 3ebd 1eb2 363c
00000170: 3e93 27bd 6d69 cdbd 926a a93d 1dfb 0f3e
00000180: def9 b13d 4592 133e 0102 9c3c a41e 193c
00000190: 7e6c fb3d ce4a 62bd 7431 b0bc 8ece d93d
000001a0: f932 ef3d 1fe6 16bc 2e29 44bd 3cd0 2c3e
000001b0: 3d5c a93d 2f5d 71bc 0cbf e43d e4b9 44bd
000001c0: 330d 233d a819 203e 17ee 4b3d fcc5 e63d
000001d0: e7af 3a3c f75a 583d 047f b93c 8aea 543d
000001e0: 6979 afbc f3c5 28bd fd4f dcbc e848 42bc
000001f0: 71f0 a13d 90ec 633d 0c4a c53d aa2e 113e
00000200: 0ebd cebd e126 f7bd 1ebc a7bc d57b e23c
00000210: a2e2 5d3d b60d cebd 9b18 863d 9804 9e3d
00000220: 55d9 b4bd f873 f33c 420e a8bc 20bd a23d
00000230: 59e4 8b3c f068 1f3d b0c6 05be c5f0 fbbd
00000240: 1faf 113e 0540 86bc 32a0 fdbd 443f 8dbd
00000250: 3923 513d 3cd6 ce3d 9d3c 2bbd 768f 52bc
00000260: 14ba 103e cfa5 0ebc c691 9dbc 663d 5dbc
00000270: bcc4 b6bd bb79 ad3d 0268 febd 80a2 24bd
00000280: c497 babd 6e8e 573d 7a6d f8bd 707f c93d
00000290: 10d3 80bd d46a b43d ec6f d13d 8ce7 38bd
000002a0: 32bb d43d 38a5 4a3c b3d5 16bd 85a8 e33d
000002b0: 1ec7 8fbd 6722 3cbd be86 60bc 44af 7f3d
000002c0: 88b3 e3bd 56a6 bbbc 81e9 9bbd 9766 b8bc
000002d0: 58a6 80bd a127 ccbd 7579 babd 3253 24bd
000002e0: ef7a 49bd 32b4 83bd fdb0 7abb 46af 95bc
000002f0: a8a4 c0bc 6479 07be a4f9 0fbe f70e e5bc
00000300: 49e4 4fbd 546d a4bd 2d78 073e 5ba0 8c3c
00000310: 9bea 47bd 1f34 963d 9f18 c0bd 0d98 493c
00000320: 5455 8abd 96f6 c03c fe7d a03d 4a5f a93d
00000330: 8245 903c b2c1 b0bd e1ef 85bd cd6e 803d
00000340: 339a bc3d 6654 b6bc c893 a9bc ecdf cebd
00000350: b76e 89bd c04a e4bd 7a1f 93bd 60ab c3bd
00000360: a21d 0fbd ecd4 51bc 7a70 ce3c 3372 8c3d
00000370: 3d8c b0bd 3923 61bd d561 9abd deed 97bd
00000380: 27f0 8c3d 02e7 f0bc 2a08 90bc 568b 723c
00000390: 435e c7bd 8c2a 68bd 3711 443b 5938 183e
000003a0: 0c11 1a3d bbcc b2bd 8d88 8abd 2062 07bd
000003b0: c724 123d e170 fd3d 4ae8 fc3c fcbf acbd
000003c0: 23a8 83bd 1d55 4fbd 8ad0 773d 62d1 9b3d
000003d0: 9f93 993c 3f08 6d3d 8fc6 ab3d 104b 4a3d
000003e0: e1be ae3d 9c12 293d 2d6e 0d3e 8fe9 113e
000003f0: 2077 fa3c 9282 873d b0e9 c13d 73ce 5dbd

lstm.bias_hh_l0 f4 [256]
-0.07741552 -0.04598405 0.13665633 0.116782725 -0.052240793 0.080610216 -0.09350376 0.0236898
0.00062445586 0.11811623 -0.09482869 0.07999252 -0.017057274 0.000895039 0.0090824645 0.04940108
-0.033338014 -0.1039095 0.020455563 0.0149354935 0.10202379 -0.0048846593 -0.030334352 -0.051768705
0.02867894 -0.073438406 0.06716987 0.058717992 0.04158073 -0.07594297 0.12921603 0.06162837
-0.12067211 -0.05470211 -0.103145175 -0.08196246 0.09481412 0.10093411 -0.06307796 0.14141898
-0.03140927 -0.07868954 -0.019227866 0.008827989 -0.07827676 0.00671751 0.106645614 -0.07779449
0.11827781 0.14150083 0.014143235 -0.10588774 0.0009501584 0.042552873 0.028621279 -0.04284576
0.024534026 0.06746371 0.030353978 -0.08916099 -0.05920234 -0.08275934 0.085015036 0.1453838
0.16249464 0.13361627 -0.026823044 0.107655376 0.017229294 0.09837163 0.15723144 -0.055149246
0.03389816 0.14961207 0.072561815 0.12282515 -0.07946583 0.024587477 -0.08163877 0.15483966
0.068881765 0.097560264 -0.06159317 0.019144574 0.04283801 -0.10517995 -0.07662796 -0.03740127
0.06189456 -0.028471144 0.1173575 -0.06298417 0.050367724 -0.009821016 0.13152042 -0.041140314
-0.041757483 0.13506126 0.14019974 0.021929016 0.020883264 0.10100535 0.14392692 0.07141717
-0.11364986 -0.05276927 0.083349615 -0.049509484 0.101878114 0.058293782 0.06564522 0.13420753
0.108570755 -0.032987546 -0.00066269725 0.06455611 0.06911958 0.07383844 0.035485726 0.099560015
-0.037069153 0.13660932 0.03844076 -0.04227757 0.04339048 0.09376974 0.044909034 -0.042753246
0.010149948 -0.028261872 -0.01845894 0.07869459 0.051584706 -0.12076449 -0.11291689 -0.083883554
-0.004826821 -0.046291742 -0.07221796 -0.08443633 0.031791218 0.07929392 0.048742943 0.047168486
0.06504607 0.11299849 -0.11229739 -0.009606696 0.0701372 -0.008765426 0.007453882 -0.025274176
0.05377615 -0.062110215 0.07160803 -0.086131014 -0.03970506 -0.038737416 -0.0041549234 0.12568039
0.049441066 0.010005473 0.11470462 -0.05987387 0.023049137 -0.013622972 -0.0074210158 0.099457435
0.11470547 -0.09104752 -0.08860635 0.0016050248 -0.09982894 0.053023625 0.0019270332 0.14201082
-0.0027332774 -0.018878616 0.09293146 -0.12414607 -0.026579902 -0.1003721 0.06538689 0.11876925
-0.09001123 -0.0001321551 0.060285088 -0.009507677 0.10286586 -0.042023625 -0.12061274 -0.10801865
0.028347123 -0.009171031 0.057143338 0.05602379 0.049763266 -0.05160096 -0.07986546 -0.038128182
-0.10277463 0.14346185 0.013885636 0.034949314 0.01662225 0.12548491 -0.01603874 0.11086482
0.13861676 -0.060078114 0.008208917 0.043486472 0.032988627 -0.07091411 0.13230006 -0.08913882
0.028707178 -0.043865472 0.09167144 0.03815431 0.1129638 -0.04925025 0.08877982 0.07342368
0.12513393 -0.091645755 0.050961502 0.14222223 0.09943276 0.017186591 -0.060241673 0.05178714
-0.093755625 0.13057071 0.11038725 -0.013026084 0.091694675 -0.00021116834 -0.08364658 -0.049275972
0.09361618 -0.0021033832 0.07336829 -0.05345793 0.05318945 0.07693364 0.11447516 0.010981277
0.024340529 0.15232298 0.09505562 0.06749429 0.120145254 0.06794996 0.08347579 -0.061657213
00000000: 078c 9ebd c559 3cbd a3ef 0b3e c82b ef3d
00000010: 71fa 55bd f816 a53d e67e bfbd 1d11 c23c
00000020: 86b2 233a ece6 f13d 8b35 c2bd 1ed3 a33d
00000030: b2bb 8bbc 0da1 6a3a 9ece 143c c958 4a3d
00000040: 718d 08bd 81ce d4bd 6d92 a73c 00b4 743c
00000050: d9f1 d03d 7e0f a0bb bf7f f8bc 6c0b 54bd
00000060: 19f0 ea3c e066 96bd 5b90 893d 4782 703d
00000070: 8e50 2a3d fd87 9bbd 3551 043e 086e 7c3d
00000080: f022 f7bd 520f 60bd c73d d3bd efdb a7bd
00000090: e82d c23d 8bb6 ce3d 042f 81bd 23d0 103e
000000a0: 02a7 00bd fb27 a1bd c283 9dbc 45a3 103c
000000b0: 914f a0bd 8f1e dc3b 0469 da3d b852 9fbd
000000c0: a33b f23d 98e5 103e 07b9 673c acdb d8bd
000000d0: 0d14 793a ec4b 2e3d 2c77 ea3c 097f 2fbd
000000e0: 95fb c83c 6a2a 8a3d e8a8 f83c 0a9a b6bd
000000f0: 277e 72bd bb7d a9bd 5d1c ae3d 7edf 143e
00000100: ff64 263e b4d2 083e 00bc dbbc 6c7a dc3d
00000110: 7324 8d3c 1177 c93d 4701 213e 2de4 61bd
00000120: ccd8 0a3d e833 193e 4a9b 943d c18b fb3d
00000130: fbbe a2bd ad6b c93c 3a32 a7bd 4a8e 1e3e
00000140: e211 8d3d adcd c73d 1f49 7cbd 15d5 9c3c
00000150: e976 2f3d 9668 d7bd 1fef 9cbd 1332 19bd
00000160: 2685 7d3d 513c e9bc 2159 f03d d8fd 80bd
00000170: 634e 4e3d 54e8 20bc 4aad 063e bf82 28bd
00000180: e509 2bbd 804d 0a3e 8590 0f3e 7ba4 b33c
00000190: 6113 ab3c e5db ce3d 9461 133e 2a43 923d
000001a0: 42c1 e8bd 9724 58bd 34b3 aa3d 75ca 4abd
000001b0: 79a5 d03d 76c5 6e3d 0071 863d b36d 093e
000001c0: 585a de3d f31d 07bd dcb8 2dba fe35 843d
000001d0: 918e 8d3d 9c38 973d 7b59 113d 1fe6 cb3d
000001e0: d3d5 17bd 50e3 0b3e 0f74 1d3d 3f2b 2dbd
000001f0: 37ba 313d 590a c03d 89f2 373d 071e 2fbd
00000200: f84b 263c 7185 e7bc 3437 97bc a12a a13d
00000210: 7c4a 533d 5f53 f7bd f840 e7bd 24cb abbd
00000220: 4f2a 9ebb 699c 3dbd 03e7 93bd f4ec acbd
00000230: 8237 023d da64 a23d aea6 473d be33 413d
00000240: e036 853d c16b e73d 2dfc e5bd 6765 1dbc
00000250: 18a4 8f3d dd9c 0fbc b23f f43b ca0b cfbc
00000260: 6144 5c3d 4867 7ebd 3ba7 923d 7565 b0bd
00000270: c6a1 22bd 20ab 1ebd 0626 88bb 5cb2 003e
00000280: b782 4a3d ffed 233c 41ea ea3d 4e3e 75bd
00000290: 8bd1 bc3c e332 5fbc fe2b f3bb 57b0 cb3d
000002a0: b4ea ea3d 1f77 babd 3f77 b5bd b25f d23a
000002b0: 1e73 ccbd 4d2f 593d 8194 fc3a 496b 113e
000002c0: c920 33bb 54a7 9abc d952 be3d 4b40 febd
000002d0: 18be d9bc e38f cdbd 90e9 853d 4b3d f33d
000002e0: cf57 b8bd 1d93 0ab9 7fed 763d 16c6 1bbc
000002f0: 56ab d23d f720 2cbd d003 f7bd e238 ddbd
00000300: 3a38 e83c 1842 16bc 220f 6a3d 3479 653d
00000310: 91d4 4b3d 875b 53bd 8190 a3bd 4c2c 1cbd
00000320: 817b d2bd aae7 123e 9480 633c 0327 0f3d
00000330: 632b 883c 1e7f 003e ad63 83bc 180d e33d
00000340: 8df1 0d3e 7814 76bd b27e 063c df1e 323d
00000350: 151f 073d 6b3b 91bd ab79 073e 6a8e b6bd
00000360: 512b eb3c 48ac 33bd 3cbe bb3d b247 1c3d
00000370: 9159 e73d a1ba 49bd 32d2 b53d 285f 963d
00000380: 1c23 003e c5b0 bbbd 02bd 503d b4a2 113e
00000390: 67a3 cb3d e5ca 8c3c f9bf 76bd c11e 543d
000003a0: f302 c0bd 54b4 053e b612 e23d 5b6b 55bc
000003b0: 6bca bb3d 126d 5db9 e64e abbd 9ad5 49bd
000003c0: d7b9 bf3d ead8 09bb 1d42 963d b4f6 5abd
000003d0: 2edd 593d 628f 9d3d f471 ea3d d0ea 333c
000003e0: ca65 c73c 8efa 1b3e 85ac c23d 723a 8a3d
000003f0: b70e f63d 5929 8b3d 5bf5 aa3d 468c 7cbd

lstm.weight_ih_l0_reverse f4 [256, 40]
0.062025562 -0.022810848 0.11069916 0.07059798 -0.07529885 0.094168946 0.026313784 -0.020671975
0.07812803 0.020945363 -0.10347626 -0.087947816 -0.098350465 -0.11885813 -0.030871497 0.037355036
-0.028032357 0.037345164 -0.09813783 -0.13287991 -0.0028193125 -0.13458337 0.0048125354 -0.048795637
0.064437434 0.018518336 0.1171263 -0.017211713 -0.11256334 0.018295018 -0.024754845 0.014740959
-0.052486673 -0.0040034377 -0.03337636 -0.11134924 0.039109193 0.05386755 0.10967373 -0.11525233
0.02786666 -0.02490268 -0.1272131 -0.003370646 -0.09089041 0.00034697782 -0.11148611 0.07334352
0.026298348 -0.11360033 -0.041419078 -0.11721985 -0.055806678 0.050427835 -0.09008418 0.046259075
-0.12149069 0.018613372 0.07569164 0.0007170298 0.09720577 -0.081966676 0.09897511 0.025095554
0.084134996 0.033221982 -0.1260063 -0.09272326 -0.11593164 0.04558101 -0.10020735 -0.07405331
0.020762175 0.02180895 -0.1172359 0.004921212 0.05666639 0.10021595 -0.12370596 0.07513402
0.011189842 0.08897341 0.019110432 -0.0202199 -0.040644366 -0.009892352 -0.07832358 0.13828667
-0.011117956 0.0002762267 -0.09771354 -0.08349646 -0.036935613 -0.014866116 -0.03883848 0.03898071
-0.0677515 0.13027954 -0.0013279483 0.14294246 0.09553492 0.0645042 0.08948077 -0.05253456
-0.07407423 0.03844614 -0.049555574 0.01000847 0.004197986 -0.034528762 -0.0014870405 -0.028586358
-0.050703466 -0.0088130105 0.004166247 0.06884754 -0.04445121 0.071131475 0.014271052 0.14847907
0.075033665 -0.035413574 0.07980494 0.077709034 -0.015969226 -0.02641596 -0.06176751 -0.07013414
-0.025372691 -0.06370706 0.102537975 0.06727051 -0.037699144 0.1026761 0.051512424 0.03439306
-0.11154674 0.123812094 0.030989429 0.0037018815 0.116571166 0.11609965 -0.055091247 0.009943625
-0.028171498 0.092085816 0.10569862 -0.048733827 -0.080528446 -0.030600151 -0.0654381 -0.04956439
0.0153713245 -0.019231569 -0.084823504 -0.0599938 0.069954954 0.08655294 0.010938215 -0.03861897
0.09533495 -0.06285722 0.052334085 -0.049373787 -0.10025244 -0.011357057 0.052330196 -0.09604896
-0.051650554 0.11597049 -0.044915073 -0.05602919 0.0923091 0.082677744 0.048169542 0.031429015
-0.031399928 -0.033688925 -0.056844424 -0.02173059 -0.063435614 0.038786262 -0.02874145 0.021898268
0.088060476 -0.044988435 0.124977335 0.043248817 0.08351001 0.1182475 -0.0051592644 0.12648708
0.10828709 0.049201272 -0.053372838 -0.05461151 0.028103791 0.038635436 -0.086952835 0.11381359
-0.10937921 0.13516308 -0.05046284 -0.007843598 0.10212979 -0.0445451 -0.08219874 0.05700428
-0.10444204 -0.0900125 -0.05027613 0.05678298 -0.09511821 0.040116243 0.11351035 0.0057992167
-0.095367804 -0.10614825 0.004642146 0.10239483 -0.058386967 -0.0008352922 0.09262591 -0.10596668
-0.08466059 -0.07835715 0.019183766 -0.08352554 -0.03851327 0.07414598 -0.07687841 0.16090249
0.010541205 0.057173293 0.055309862 0.05963611 -0.018363098 0.03339457 -0.0628059 0.066155955
-0.06735872 0.11150929 -0.07581393 -0.12715931 -0.08493781 0.16305862 -0.095761836 0.028796313
-0.10007626 0.060567442 0.12562697 0.088598296 -0.10971971 0.045691967 -0.0071077566 -0.062270395
00000000: 840e 7e3d d1dd babc 3eb6 e23d ac95 903d
00000010: 4936 9abd a6db c03d 0190 d73c 4658 a9bc
00000020: 9701 a03d 9c95 ab3c 5deb d3bd fc1d b4bd
00000030: f86b c9bd e46b f3bd 39e6 fcbc 9801 193d
00000040: 1da4 e5bc 3ef7 183d 7dfc c8bd ac11 08be
00000050: 37c4 38bb 39d0 09be 79b2 9d3b efdd 47bd
00000060: c6f7 833d c4b3 973c eadf ef3d 94ff 8cbc
00000070: 9c87 e6bd 6fdf 953c acca cabc 1084 713c
00000080: 44fc 56bd 452f 83bb a6b5 08bd 120b e4bd
00000090: f630 203d 38a4 5c3d 9f9c e03d 6a09 ecbd
000000a0: 9f48 e43c b500 ccbc 2744 02be 0ee6 5cbb
000000b0: c024 babd 93ea b539 d452 e4bd 2135 963d
000000c0: a26f d73c 4aa7 e8bd 0da7 29bd f610 f0bd
000000d0: 8b95 64bd 6b8d 4e3d 0e7e b8bd 287a 3d3d
000000e0: 1cd0 f8bd 127b 983c 3804 9b3d 0ef7 3b3a
000000f0: d213 c73d 25de a7bd 76b3 ca3d 3195 cd3c
00000100: f84e ac3d c613 083d cc07 01be b1e5 bdbd
00000110: 916d edbd 27b3 3a3d 8339 cdbd 43a9 97bd
00000120: 7015 aa3c afa8 b23c 6019 f0bd 1e42 a13b
00000130: 041b 683d 053e cd3d 8d59 fdbd dddf 993d
00000140: 9955 373c b137 b63d 7b8d 9c3c 34a4 a5bc
00000150: b57a 26bd 8813 22bc 1d68 a0bd 059b 0d3e
00000160: 1628 36bc 85d2 9039 091e c8bd 3100 abbd
00000170: cc49 17bd 0391 73bc 1915 1fbd 3daa 1f3d
00000180: 4cc1 8abd 0068 053e 8d0e aeba 825f 123e
00000190: d0a7 c33d c71a 843d b241 b73d 7b2e 57bd
000001a0: 3bb4 97bd b379 1d3d c9fa 4abd 91fa 233c
000001b0: 428f 893b 086e 0dbd cde8 c2ba f02d eabc
000001c0: 70ae 4fbd 7264 10bc 0385 883b f0ff 8c3d
000001d0: 7912 36bd 61ad 913d 21d1 693c e60a 183e
000001e0: 40ab 993d d30d 11bd c670 a33d ea25 9f3d
000001f0: e5d1 82bc 4966 d8bc eeff 7cbd 7da2 8fbd
00000200: 64da cfbc d978 82bd 6eff d13d 1fc5 893d
00000210: 6b6a 1abd d947 d23d b1fe 523d bddf 0c3d
00000220: 9e72 e4bd 3291 fd3d 8bdd fd3c 449b 723b
00000230: ddbc ee3d a7c5 ed3d 5ca7 61bd 96ea 223c
00000240: eac7 e6bc 7d97 bc3d 8578 d83d 1f9d 47bd
00000250: 19ec a4bd 2bad fabc 6904 86bd 0804 4bbd
00000260: 02d8 7b3c 868b 9dbc f2b7 adbd 0fbc 75bd
00000270: 8b44 8f3d ab42 b13d 3336 333c ed2e 1ebd
00000280: f83e c33d 49bb 80bd 445c 563d 2b3c 4abd
00000290: 2751 cdbd f312 3abc 3058 563d 51b5 c4bd
000002a0: 888f 53bd f081 ed3d def8 37bd dd7e 65bd
000002b0: 8e0c bd3d f352 a93d 6d4d 453d b6bb 003d
000002c0: 369d 00bd 66fd 09bd b3d5 68bd 5a04 b2bc
000002d0: 88ea 81bd 58de 1e3d 3073 ebbc ff63 b33c
000002e0: 0d59 b43d cb45 38bd 1ef4 ff3d ac25 313d
000002f0: 4c07 ab3d bf2b f23d 0c0f a9bb d485 013e
00000300: 9fc5 dd3d 4687 493d 7a9d 5abd 52b0 5fbd
00000310: ec39 e63c 3140 1e3d 5414 b2bd 1917 e93d
00000320: 3502 e0bd 3168 0a3e 1fb2 4ebd 6f82 00bc
00000330: 6c29 d13d ec74 36bd d057 a8bd 527d 693d
00000340: b5e5 d5bd 7958 b8bd 58ee 4dbd 4595 683d
00000350: 56cd c2bd ee50 243d 1d78 e83d 5b07 be3b
00000360: 3250 c3bd 4164 d9bd 251d 983b 61b4 d13d
00000370: 2c27 6fbd 83f7 5aba a7b2 bd3d 0f05 d9bd
00000380: 8862 adbd b779 a0bd 4627 9d3c 700f abbd
00000390: 17c0 1dbd d9d9 973d 6e72 9dbd 9fc3 243e
000003a0: 05b5 2c3c 8b2e 6a3d 988c 623d fe44 743d
000003b0: 356e 96bc bfc8 083d 61a0 80bd c67c 873d
000003c0: 5ef3 89bd fc5e e43d 5544 9bbd 0d36 02be
000003d0: e0f3 adbd d7f8 263e c81e c4bd 3fe6 eb3c
000003e0: c8f4 ccbd 9115 783d 5ba4 003e 0673 b53d
000003f0: bab4 e0bd 8027 3b3d 2fe8 e8bb 3e0f 7fbd

lstm.weight_hh_l0_reverse f4 [256, 64]
0.0030378217 -0.13167012 -0.041432615 0.0243107 -0.09646766 0.04234048 -0.024822095 0.07992364
-0.052114267 0.0046282187 0.04937656 -0.1293502 -0.0049170423 -0.120722175 0.06555915 0.013842045
0.09882189 -0.03001559 -0.13067384 0.05166921 -0.08819759 -0.048945535 -0.0045559937 0.087697834
-0.02941764 -0.11214127 0.09526066 0.11306754 0.050417162 -0.008795443 0.12253129 -0.0054531326
-0.13246824 -0.07570912 -0.0366493 0.05243824 -0.029775856 0.036691487 0.09793619 -0.017213833
0.014655908 -0.016240068 0.03028988 -0.0033829727 0.106640995 0.14083491 -0.013878336 0.0032105471
0.13403492 -0.13075763 0.1214638 0.07307942 -0.083152264 -0.0618808 0.111273445 -0.1017648
-0.024239175 -0.027530996 0.048367042 -0.02209448 0.06523336 -0.05027023 -0.068822406 -0.027799975
0.09791812 -0.013218087 0.04634137 0.06133486 0.049246944 0.051730633 -0.106623344 -0.08395481
-0.002088825 0.03623428 -0.024974983 0.13344687 -0.03451444 -0.07406744 0.05086884 -0.07854634
-0.053014554 0.11378855 0.054592267 -0.07189793 0.005463314 0.10004951 0.077796504 -0.12718622
-0.112050995 -0.004130727 -0.048975367 0.04477787 -0.029676717 -0.097754665 0.025197167 -0.035992574
-0.121024854 -0.037256066 -0.036476098 -0.02888313 0.11133086 -0.047952916 -0.0559105 -0.005934552
-0.044394292 0.08403048 0.09045381 -0.02161394 0.08566467 -0.03225933 -0.052430592 0.01895012
0.059883982 -0.085153855 -0.018457789 0.06397756 -0.11822863 0.04159657 0.10317213 -0.114850715
0.11514725 0.09834371 0.0074313516 -0.07092316 0.045722764 -0.10955312 -0.0125459535 -0.09437457
-0.05282029 0.12703048 0.023618685 -0.105267145 0.049179055 -0.027280854 -0.034873676 0.011046067
0.011635974 -0.11258791 0.09265995 -0.13744876 0.019512484 0.07833347 0.06855949 -0.03280696
0.042583037 -0.090911984 -0.11077787 -0.08554603 0.14572853 -0.02946978 -0.01109038 0.09373368
0.0068731504 0.019717008 -0.05079735 0.039891373 0.011653992 0.057510264 0.037017778 -0.06837528
-0.07970187 -0.11641708 -0.03553281 -0.006890834 0.028441366 -0.07159894 0.111051835 0.14015482
-0.0645246 -0.075724885 0.1089428 0.031363163 0.08219504 0.014506077 0.0696093 -0.1306283
-0.12076997 -0.048781194 -0.102283016 0.10488545 0.0026283644 0.057599343 -0.05125945 0.07607723
0.107635334 -0.040187337 -0.09519973 -0.121054225 -0.077596165 -0.03437365 -0.06272725 -0.081848025
0.023440853 -0.070602685 0.10675708 -0.03966318 0.05397052 0.040125597 0.015906055 0.036536224
0.008699683 -0.09447103 -0.08289926 0.0041150437 0.05280136 0.1295647 -0.025126228 0.017702071
0.0066110096 0.12983242 -0.024347505 0.065410666 -0.003177396 0.026353326 -0.1055876 0.018558238
0.104762025 0.012259637 0.09274235 0.05253524 -0.030774668 -0.06854217 -0.10299603 0.08304187
-0.121401146 0.045419954 -0.027767165 -0.011848031 -0.020962892 -0.04445821 0.03256213 -0.065339915
-0.0069299378 0.09682909 0.009483394 0.023121517 0.08254365 0.06567704 -0.018356597 -0.018128242
-0.09660403 -0.06405412 -0.088996135 0.105577774 0.023426402 -0.09772632 0.027408207 -0.07970457
0.11551492 0.043237668 0.14396796 -0.13320725 -0.11384512 -0.013723979 0.120584644 -0.121106945
00000000: 3116 473b 88d4 06be 3fb5 29bd 3c27 c73c
00000010: d690 c5bd 366d 2d3d b557 cbbc 01af a33d
00000020: c575 55bd 50a8 973b 133f 4a3d 6174 04be
00000030: 241f a1bb 303d f7bd e043 863d bfc9 623c
00000040: 2263 ca3d 41e3 f5bc 5dcf 05be 18a3 533d
00000050: f0a0 b4bd 1d7b 48bd 724a 95bb ec9a b33d
00000060: 43fd f0bc 52aa e5bd 0518 c33d f48f e73d
00000070: 3a82 4e3d c31a 10bc aff1 fa3d 31b0 b2bb
00000080: c1a5 07be 620d 9bbd 941d 16bd 7bc9 563d
00000090: 7fec f3bc d049 163d c592 c83d 0604 8dbc
000000a0: 551f 703c e409 85bc 7b22 f83c ddb4 5dbb
000000b0: 9866 da3d 0737 103e f661 63bc 0b68 523b
000000c0: 7340 093e 54e5 05be 03c2 f83d aaaa 953d
000000d0: bc4b aabd b976 7dbd 55e3 e33d 106a d0bd
000000e0: 3c91 c6bc af88 e1bc 851c 463d 7cff b4bc
000000f0: 1199 853d 28e8 4dbd c3f2 8cbd c6bc e3bc
00000100: 4c89 c83d ad90 58bc 73d0 3d3d 433a 7b3d
00000110: 2ab7 493d 80e3 533d 575d dabd 80f0 abbd
00000120: abe4 08bb 656a 143d 5698 ccbc 4ca6 083e
00000130: 035f 0dbd acb0 97bd d85b 503d e7dc a0bd
00000140: ca25 59bd f909 e93d 249c 5f3d 393f 93bd
00000150: 9905 b33b c2e6 cc3d c653 9f3d 1b3d 02be
00000160: fe7a e5bd 0d5b 87bb 659a 48bd 0069 373d
00000170: 961c f3bc 9933 c8bd 4a6a ce3c f36c 13bd
00000180: e1db f7bd d199 18bd f667 15bd 509c ecbc
00000190: 6f01 e43d 476a 44bd 6902 65bd a176 c2bb
000001a0: cad6 35bd 2c18 ac3d d93f b93d b80f b1bc
000001b0: f570 af3d 5c22 04bd 76c1 56bd 483d 9b3c
000001c0: e848 753d 2565 aebd ca34 97bc ab06 833d
000001d0: da21 f2bd 2a61 2a3d e94b d33d da36 ebbd
000001e0: 52d2 eb3d 6d68 c93d b282 f33b 2940 91bd
000001f0: cb47 3b3d 635d e0bd 8b8d 4dbc 7447 c1bd
00000200: 175a 58bd 4714 023e f97b c13c 4d96 d7bd
00000210: fa6f 493d 197c dfbc b3d7 0ebd 90fa 343c
00000220: d0a4 3e3c 7d94 e6bd 80c4 bd3d 5ebf 0cbe
00000230: a5d8 9f3c 4c6d a03d eb68 8c3d 9760 06bd
00000240: 8d6b 2e3d 1030 babd 82df e2bd c232 afbd
00000250: dc39 153e 9c6a f1bc 6db4 35bc 72f7 bf3d
00000260: 2a38 e13b 9085 a13c e210 50bd 2365 233d
00000270: 63f0 3e3c e28f 6b3d f49f 173d 5708 8cbd
00000280: bc3a a3bd 146c eebd da8a 11bd 81cc e1bb
00000290: defd e83c 77a2 92bd 256f e33d bf84 0f3e
000002a0: 7925 84bd a615 9bbd 671d df3d a976 003d
000002b0: e055 a83d e6aa 6d3c 528f 8e3d 6dc3 05be
000002c0: 3f56 f7bd cace 47bd c279 d1bd 2fce d63d
000002d0: a340 2c3b 4aed 6b3d 6ef5 51bd 61ce 9b3d
000002e0: ea6f dc3d 7a9b 24bd 13f8 c2bd 47eb f7bd
000002f0: bdea 9ebd 62cb 0cbd 2577 80bd f09f a7bd
00000300: 0807 c03c 2498 90bd 75a3 da3d dc75 22bd
00000310: 3110 5d3d bd5a 243d 6a4d 823c 02a7 153d
00000320: 1d89 0e3c 077a c1bd 16c7 a9bd 7dd7 863b
00000330: 3d46 583d 9cac 043e 85d5 cdbc ef03 913c
00000340: 2ba1 d83b caf2 043e 6b74 c7bc 07f6 853d
00000350: dc3b 50bb eee2 d73c 503e d8bd 7207 983c
00000360: 798d d63d a5dc 483c b4ef bd3d 312f 573d
00000370: 281b fcbc d65f 8cbd 95ef d2bd db11 aa3d
00000380: 2aa1 f8bd 460a 3a3d f777 e3bc 3e1e 42bc
00000390: 5fba abbc d019 36bd de5f 053d efd0 85bd
000003a0: 8814 e3bb 544e c63d 3d60 1b3c 5669 bd3c
000003b0: a50c a93d af81 863d 9360 96bc ae81 94bc
000003c0: 55d8 c5bd ce2e 83bd 9b43 b6bd 2939 d83d
000003d0: bae8 bf3c bd24 c8bd 2d87 e03c 263c a3bd
000003e0: 1693 ec3d fb19 313d 566c 133e 7b67 08be
000003f0: a127 e9bd 8ada 60bc 15f5 f63d eb06 f8bd

lstm.bias_ih_l0_reverse f4 [256]
0.021864697 -0.046061996 -0.080082424 -0.019411692 0.011224711 0.041731488 0.035851467 0.103104
-0.1251497 0.02799421 0.09268162 0.14405248 0.1097498 0.10685068 0.14363037 -0.03164703
0.12596248 0.1109204 0.110587284 0.091428846 0.026124908 0.084528945 -0.055947807 -0.093955815
-0.046304632 0.13119122 -0.07517715 0.10692375 -0.018436711 -0.072022945 -0.030904053 0.06758607
-0.009982055 -0.049195003 0.013858988 0.059441388 -0.023921743 0.068002254 0.057411928 -0.11064449
0.10348221 -0.0705535 0.076864004 0.106528044 0.045994822 0.04918847 -0.040499903 0.0487316
-0.0040706582 -0.09584469 0.09283786 0.008336953 0.01467068 -0.05419061 -0.001928279 0.05502824
0.03789825 0.062427174 0.14288864 0.051945228 0.05477605 -0.03909552 0.10194326 0.08821413
0.039318398 0.12582405 0.13377097 0.1454921 0.06329921 -0.05747547 -0.00026520315 -0.07148139
-0.012942247 -0.08231186 -0.09436556 -0.021087354 -0.015538711 0.12706368 0.077879526 0.14836021
-0.07215782 0.08531102 -0.032788716 -0.07066622 0.0814165 -0.096700475 0.07184482 -0.062253896
0.15074392 -0.049624484 -0.0285128 -0.05078834 0.049262542 0.10233962 0.12397558 -0.01574403
0.021272413 0.05574635 0.13258348 0.14453255 0.036137056 -0.08984511 -0.05251604 0.09406306
0.07743825 0.10737978 -0.039743453 -0.08667178 0.044811316 -0.042022612 0.095400475 0.10985493
0.09506464 0.080097996 0.038030334 0.09957871 0.060136773 -0.0537441 -0.009407595 -0.051041503
-0.06004367 -0.05251283 0.061964322 0.0072056474 -0.027000092 0.08574623 -0.009163455 -0.0494495
-0.13726622 -0.045809444 -0.068647906 -0.0017554517 0.11641835 0.028175661 0.10224099 0.017757058
-0.029667012 -0.029243141 -0.05749823 -0.1177987 0.06529274 -0.10751241 0.08901195 -0.09462858
-0.064935066 0.06758461 -0.012951194 0.12826727 -0.04180521 0.09833926 -0.12858005 -0.03814061
-0.082252525 0.051302675 0.02835092 -0.15390927 0.05420634 -0.04800717 0.113650754 -0.1084665
-0.017183485 -0.08332675 -0.009107496 0.013951651 -0.0724613 -0.12800212 -0.008710067 0.06205184
-0.15114185 -0.008396427 0.037217744 0.09308729 0.091504805 -0.038525354 0.082735285 -0.06820986
0.11807656 0.0042116805 -0.0032992787 -0.05291359 0.036158178 0.06810783 -0.14665729 -0.075377405
-0.003315608 0.0006769605 0.093446 -0.04906571 0.01615889 -0.06688069 0.12988736 0.057380363
-0.019520646 0.1238557 0.13907696 0.029591499 0.10368254 0.03090372 -0.00638416 -0.077328645
0.04267602 0.12034928 -0.028813398 0.12607376 -0.106785715 0.041853327 -0.07917869 -0.054412667
0.13139378 0.051397808 0.0026158302 0.10472946 0.078631066 0.03719994 -0.05657563 0.09083202
0.044135354 0.12614815 0.07359532 0.060731594 0.15262137 0.061606932 -0.02709249 -0.046111625
-0.06868113 0.051825244 0.10068146 -0.096961305 0.02606183 0.046667006 -0.06650032 -0.0005429637
-0.059787877 0.07092693 0.10166097 -0.01954547 0.03478244 0.033041947 -0.07838127 0.012626265
0.022527628 0.16402538 0.08452883 -0.055531345 -0.08857074 0.037600737 0.054861743 0.020227838
0.13422956 0.09923681 -0.04172252 0.083161324 0.094211 -0.09418554 0.14818943 0.040288553
00000000: 981d b33c 81ab 3cbd 4102 a4bd 4505 9fbc
00000010: dae7 373c a3ee 2a3d fdd8 123d 3128 d33d
00000020: 3e27 00be 1d54 e53c dccf bd3d 7e82 133e
00000030: 81c4 e03d 88d4 da3d d713 133e 51a0 01bd
00000040: 4ffc 003e 3c2a e33d 967b e23d 0c3f bb3d
00000050: e703 d63c 831d ad3d 8729 65bd e86b c0bd
00000060: eda9 3dbd fe56 063e 7af6 99bd d7fa da3d
00000070: 9608 97bc c480 93bd 7f2a fdbc 916a 8a3d
00000080: c68b 23bc b380 49bd cf10 633c d078 733d
00000090: 88f7 c3bc c444 8b3d c528 6b3d 9499 e2bd
000000a0: 7bee d33d 5a7e 90bd e06a 9d3d 602b da3d
000000b0: 1165 3c3d d979 493d 3ae3 25bd c99a 473d
000000c0: 2863 85bb 394a c4bd c721 be3d b797 083c
000000d0: 4b5d 703c f9f6 5dbd 4ebe fcba 4b65 613d
000000e0: 323b 1b3d a3b3 7f3d 6651 123e 85c4 543d
000000f0: da5c 603d a022 20bd a1c7 d03d 9ca9 b43d
00000100: 540c 213d 05d8 003e 42fb 083e e2fb 143e
00000110: 04a3 813d 666b 6bbd f70a 8bb9 d664 92bd
00000120: b80b 54bc 1f93 a8bd bb42 c1bd 63bf acbc
00000130: 1496 7ebc fb1c 023e 4d7f 9f3d bdeb 173e
00000140: 7bc7 93bd 8bb7 ae3d 764d 06bd 73b9 90bd
00000150: b2bd a63d e60a c6bd 6123 933d f1fd 7ebd
00000160: 9d5c 1a3e 0b43 4bbd ad93 e9bc 6f07 50bd
00000170: 85c7 493d 6f97 d13d e9e6 fd3d a0f9 80bc
00000180: 7c43 ae3c 4956 643d f7c3 073e 5700 143e
00000190: 7304 143d b700 b8bd 0f1b 57bd 22a4 c03d
000001a0: f297 9e3d eee9 db3d 08ca 22bd f980 b1bd
000001b0: 128c 373d e71f 2cbd 5361 c33d 9ffb e03d
000001c0: 40b1 c23d 6b0a a43d b2c5 1b3d ecef cb3d
000001d0: fa51 763d c622 5cbd 5022 1abc e510 51bd
000001e0: 5af0 75bd b117 57bd 4dce 7d3d 5a1d ec3b
000001f0: 4c2f ddbc b89b af3d 5122 16bc 8f8b 4abd
00000200: 848f 0cbe afa2 3bbd 4697 8cbd 2f17 e6ba
00000210: be6c ee3d a5d0 e63c b963 d13d 4077 913c
00000220: 3c08 f3bc 508f efbc 4483 6bbd 7240 f1bd
00000230: 33b8 853d 772f dcbd e64b b63d a1cc c1bd
00000240: adfc 84bd cd69 8a3d 3f31 54bc 7f58 033e
00000250: f13b 2bbd 1866 c93d 7daa 03be 5439 1cbd
00000260: 0374 a8bd c122 523d 3040 e83c 649a 1dbe
00000270: 7807 5e3d 2ba3 44bd bac1 e83d af23 debd
00000280: 61c4 8cbc 37a7 aabd 9b37 15bc 7795 643c
00000290: 9766 94bd fd12 03be abb4 0ebc 122a 7e3d
000002a0: eec4 1abe 2b91 09bc a271 183d 8da4 be3d
000002b0: df66 bb3d c3cc 1dbd 1e71 a93d 9cb1 8bbd
000002c0: 20d2 f13d 2302 8a3b b638 58bb ecbb 58bd
000002d0: 991a 143d 1e7c 8b3d 542d 16be 785f 9abd
000002e0: ac4a 59bb 0d76 313a 9e60 bf3d 20f9 48bd
000002f0: a65f 843c bef8 88bd 3101 053e ac07 6b3d
00000300: c3e9 9fbc 0fa8 fd3d 316a 0e3e df69 f23c
00000310: 8357 d43d cc29 fd3c 3732 d1bb 7b5e 9ebd
00000320: 0dcd 2e3d af79 f63d 130a ecbc 7b19 013e
00000330: 78b2 dabd 656e 2b3d 7028 a2bd d1df 5ebd
00000340: 178c 063e 8286 523d 596e 2b3b 667c d63d
00000350: 5309 a13d f75e 183d d9bb 67bd 2306 ba3d
00000360: 46c7 343d fb2c 013e 25b9 963d b1c1 783d
00000370: c748 1c3e 8d57 7c3d 12f1 ddbc 8bdf 3cbd
00000380: b1a8 8cbd b546 543d 1532 ce3d a693 c6bd
00000390: 9e7f d53c e725 3f3d 5231 88bd ad55 0eba
000003a0: 22e4 74bd 2342 913d a033 d03d d21d a0bc
000003b0: 0878 0e3d fe56 073d 5c86 a0bd 65de 4e3c
000003c0: dc8b b83c 45f6 273e 741d ad3d d674 63bd
000003d0: 9364 b5bd 3b03 1a3d b5b6 603d dab4 a53c
000003e0: 7973 093e ab3c cb3d 3ce5 2abd 7c50 aa3d
000003f0: b2f1 c03d 59e4 c0bd f8be 173e 9c05 253d
