trained_models/CNN/CNN_Zscore_CF8_pred_4.pth (torch, 37564 bytes, 10 tensors)

conv2d.weight f4 [16, 1, 4, 40]
000000 93 82 40 3d 5b 52 a6 3e da 96 42 bd 60 0e 13 be
       0.046999525 0.32484707 -0.047507145 -0.14360952
000010 5e 75 16 bd e3 27 c5 3d d1 50 39 bc bf 4e 57 3c
       -0.036733024 0.096267484 -0.011310772 0.013141333
000020 db bd b8 bc fb 1c e3 3d 98 1b 7a bd be 64 d9 3b
       -0.022551468 0.11089512 -0.06106147 0.006634324
000030 18 cd ab bd d7 7c 7e 3e 57 72 b2 bb 7b e6 64 3d
       -0.08388728 0.2485231 -0.0054457593 0.055883866
000040 e2 49 1b bd be ce b5 3d d8 ba f9 bc fe f3 8e 3d
       -0.037912257 0.088773236 -0.030484602 0.069801316
000050 c3 5e c5 bd b7 74 ca bc 6b 58 a6 bd 02 85 1e bd
       -0.09637215 -0.024713857 -0.08122333 -0.038701065
000060 f1 53 d3 3a 66 d2 14 3d 02 49 98 bc d3 d4 bc bd
       0.0016123039 0.036333464 -0.0185895 -0.092202805
000070 b1 a5 a5 bd eb fb a8 bd 48 a2 2d bd 1d 09 ff bc
       -0.08088244 -0.082511745 -0.04239109 -0.031132275
000080 f2 ea 57 bd 23 1e d7 bd 7f 41 7e bd 92 f5 c1 3d
       -0.052714296 -0.10503795 -0.06207418 0.09470667
000090 89 9c a6 bd 9c 9e 92 bd 4e 1f 4b bd a0 7b 76 3d
       -0.081353255 -0.071591586 -0.0495904 0.06017649
0000a0 61 0b 3e 3d 0d 72 60 3e 3a 19 5b bc ab 0e 26 be
       0.04639757 0.21918507 -0.013372714 -0.16216533
0000b0 b7 c5 3e bd 4c ac 17 3e 07 2c 6b bc 05 b7 ef 3c
       -0.046575274 0.1481182 -0.014353759 0.029262075
0000c0 d1 78 09 3d 63 4e a6 bc b7 47 b1 3c a4 aa fa 3c
       0.033562485 -0.02030105 0.021640642 0.030598946
0000d0 d7 6e 75 ba 9c 56 41 3e 08 39 f9 bc a1 a8 c3 bc
       -0.0009362525 0.18880695 -0.030422702 -0.02388412
0000e0 22 98 57 3d 2f 1c 79 3d 21 ab f7 3c 6e 85 5b bd
       0.05263532 0.060817894 0.030232968 -0.053594045
0000f0 34 9e ba bd e8 14 a1 bd 30 f5 52 3d 9e 02 44 3d
       -0.09112206 -0.07865316 0.05150336 0.04785406
000100 43 24 01 bd 0d e1 c9 3d 8b c1 5f 3d 0e 6c 5a bd
       -0.031528722 0.09857378 0.054627936 -0.053325705
000110 b6 cb c3 bd 33 ef 42 bd 1c ef 55 bd 2a a1 fb bc
       -0.09560339 -0.0475914 -0.052229986 -0.030716497
000120 95 ed d4 3c 55 11 a7 b9 97 64 b0 bd 40 82 41 bc
       0.025992194 -0.00031865636 -0.08612936 -0.011810839
000130 df 73 91 3c 40 00 e1 bd b2 5b bc 3a 34 09 d3 3d
       0.017755447 -0.10986376 0.0014370589 0.1030449
000140 36 34 2b 3d eb 24 2e 3e 0b b2 a5 bb 71 c4 b9 bb
       0.04179784 0.1700627 -0.0050566248 -0.0056691696
000150 f1 e8 98 bd 3f 6f 90 bd b3 21 0f bd 27 95 93 bd
       -0.07466305 -0.070524685 -0.034944247 -0.07206183
000160 85 91 57 3a f2 17 38 3a 41 a5 62 b9 ce a5 e7 3d
       0.0008223283 0.0007022611 -0.00021614601 0.113109216
000170 db 47 85 bd 42 41 5e 3e eb 70 c9 bc d3 32 b9 3d
       -0.06507846 0.21704581 -0.024589976 0.09042897
000180 20 4d 43 3c d6 d7 d4 3d ef d0 9a ba 6c a5 e6 bc
       0.0119202435 0.1039273 -0.0011811535 -0.028155051
000190 c1 f3 2d 3c 0c 9b ee 3c 82 3b 82 bd e2 d2 c7 bc
       0.0106171975 0.029126666 -0.063590065 -0.024392549
0001a0 c8 e7 b6 bd d5 24 bd 3d 07 6e 01 bc 8a 2a 36 be
       -0.089309275 0.09235541 -0.007899768 -0.17789665
0001b0 1e 64 ed 3c af 2a f4 bd d6 64 8b 3c c3 0c 8f 3c
       0.028978404 -0.11922204 0.017015856 0.01746214
0001c0 de e9 a8 3b 56 29 16 be 0a f8 cf bd 97 c7 06 3e
       0.0051548323 -0.14664206 -0.101547316 0.13162075
0001d0 09 24 8f 3c 57 ef 6a be 97 0e 08 bd e0 0d 6a 3e
       0.017473238 -0.22942863 -0.03321704 0.22856855
0001e0 07 56 b8 bd c1 6d b6 3b a9 7d 50 bd 34 a1 cd 3c
       -0.090007834 0.005567283 -0.05090109 0.025101282
0001f0 8f dc 0b 3d 8d 4f 80 bd c2 99 d8 3c 27 f0 79 3c
       0.034145888 -0.06265173 0.026440505 0.015255011
000200 ba c5 82 bc 94 f0 8b bd 86 06 5b bd 64 4d 79 3d
       -0.015963424 -0.06832996 -0.053473018 0.06086482
000210 97 1a 56 bd eb 07 2f 3e 1a de 98 bd f0 51 20 bd
       -0.05227145 0.17092864 -0.074642375 -0.03914064
000220 3e a9 9d bc b8 20 26 3e 8b e1 b6 3c 94 2c 79 3d
       -0.01924574 0.16223419 0.022324344 0.06083353
000230 14 fd cc b9 5f d6 d9 3d e6 3f ba bd a2 44 23 3c
       -0.0003909847 0.10636591 -0.09094219 0.009965094
000240 17 07 c1 bd 12 5d 0c 3e 23 ab 6b bd e5 74 0d be
       -0.094251804 0.13707379 -0.057536256 -0.13814123
000250 3a 1a bc 3c 87 80 16 bd b9 45 c7 bd 6c a0 95 bd
       0.022961725 -0.036743667 -0.097300954 -0.07305989
000260 f2 71 ed 3c 9c 83 1c be 27 9a 4a 3d 7b 84 40 3e
       0.028984997 -0.1528458 0.049463417 0.18800537
000270 47 47 c9 3b 95 27 70 be 08 fe 41 bd 18 66 7a 3e
       0.00614253 -0.234526 -0.047361404 0.24453008
000280 61 50 13 3d fc 35 05 be a5 cf e4 bb 0d e8 e2 bb
       0.035965327 -0.13008875 -0.006982761 -0.0069246353
000290 cd 5c 77 bd b3 f2 22 3e 9d 9b 3d 3d 31 2a 0e 3e
       -0.060391236 0.15912895 0.046290983 0.13883282
0002a0 d4 e2 67 3d 95 93 ce bd e1 b7 58 3d 3d f0 a3 bd
       0.056612805 -0.10086743 0.052909736 -0.08004806
0002b0 0b 75 07 3d 79 11 5a ba a9 88 c5 bc 6f f0 e0 3d
       0.033070605 -0.00083186437 -0.024113016 0.10983359
0002c0 3c 12 58 bc 53 9d 86 bd 0b 0b 55 bd e5 7c 2c 3e
       -0.013187941 -0.06572976 -0.052012485 0.16844518
0002d0 a9 03 6f 3c 63 b9 86 3d 3a ef 69 bc da 3f 31 3e
       0.014588275 0.065783285 -0.014278227 0.17309514
0002e0 2c fb 3d bc e2 7e b9 bd 1c 7e df 3c f0 49 96 bc
       -0.011595529 -0.09057404 0.027281813 -0.018345803
0002f0 9c 13 91 3c 81 38 f5 bd a4 29 c9 3c 28 a3 87 3d
       0.017709546 -0.11973668 0.024555989 0.066229165
000300 46 64 ce 3b 87 ba 25 be c2 b4 5c bd 36 ae 5e be
       0.0062985746 -0.16184436 -0.05388332 -0.21746144
000310 c2 98 10 3d f8 6b 60 3b 44 57 38 3d 53 b7 da 3d
       0.03530193 0.0034244042 0.045005098 0.106794976
000320 83 f8 7c 3c 9f f6 3f 3d cc cf 96 bd a5 cd 09 3d
       0.015440109 0.046866056 -0.07363853 0.033643384
000330 89 c2 42 3c c4 32 46 3e 54 35 95 bd 35 b3 55 3d
       0.011887201 0.19355303 -0.07285562 0.05217286
000340 8c 3a 72 bc 62 41 ed bc 89 23 a4 bc 37 ef 92 bd
       -0.0147844665 -0.028961841 -0.020036476 -0.07174533
000350 a7 d5 67 bd af d9 95 3c 72 bc 21 bd 77 4f 0a 3e
       -0.05660024 0.018292276 -0.039486356 0.13506876
000360 2f e5 b0 bc be e6 36 bd 63 2f 25 3d 95 07 a6 3d
       -0.021593658 -0.044653647 0.040328395 0.08106915
000370 e8 e7 81 3d 22 8e 9e bb 5c f2 6a 3b c6 46 10 3e
       0.06343061 -0.004838721 0.0035850024 0.14089498
000380 d2 30 85 3d ff 7d ee bd cf 6d 21 3b 11 d4 78 bd
       0.06503452 -0.116451256 0.0024632101 -0.060749117
000390 f3 67 92 bb c1 af 9a bd cb 94 19 3d 83 a0 2b 3e
       -0.004467958 -0.07553054 0.037495416 0.16760449
0003a0 1f 57 17 bd c0 e3 c0 bd 35 0a 74 3d 4c 7e 27 bd
       -0.03694832 -0.0941844 0.059580047 -0.04089193
0003b0 b5 cf 45 bd 15 7d bf 3d 46 b7 5f 3d 54 63 0c 3e
       -0.048293788 0.093500294 0.054618143 0.13709766
0003c0 fb 62 51 ba 49 ab 93 bd a9 7b 85 3c 06 66 f3 bd
       -0.00079874665 -0.072104044 0.016294317 -0.11884694
0003d0 38 4c ca 3c 8c b9 b7 3d 8b d3 0b 3c 7a 12 1b 3e
       0.024694547 0.08970937 0.0085343225 0.15143767
0003e0 2c 05 97 bd a5 0d 19 be 55 5f 86 bd 11 ff 61 3d
       -0.07374033 -0.14946611 -0.06561152 0.05517489
0003f0 fb 88 34 3a 6a 9e 60 bc b1 a3 75 3a 38 5b ef 3c
       0.0006886867 -0.013709644 0.00093704 0.029218301

conv2d.bias f4 [16]
000000 95 ea 82 3d ce a3 06 3c c5 61 46 3d 27 98 ba bc
       0.06392399 0.008217765 0.048433084 -0.02277763
000010 36 72 c7 3d c7 50 ac 3d 6c 77 a9 3d 8c 1b be bc
       0.09738581 0.084138446 0.08274731 -0.023206495
000020 88 cb 5b 3d 59 bd 78 bd e1 02 5b 3a 4f d1 a8 3d
       0.0536609 -0.06072745 0.0008354616 0.082430474
000030 7b fd 31 3d 7a 9b f0 bc 81 d8 36 3d 58 43 88 bc
       0.04345463 -0.029371012 0.044640068 -0.016633675

conv1d_1.weight f4 [16, 16, 4]
000000 6b 1b 96 3d 4d c3 a8 3d be 72 02 be b0 13 00 be
       0.07329448 0.08240376 -0.12739083 -0.1250751
000010 ed 4a ee 3c 9f 88 22 be 84 bf 92 bd 4d 27 32 be
       0.029088462 -0.1587243 -0.07165435 -0.17397805
000020 26 51 01 be 96 0c 16 3d 12 00 1f 3e 88 d3 83 3d
       -0.12628612 0.036633097 0.1552737 0.06436831
000030 1a b3 aa 3d 5e b6 18 bd 3a db db bd a7 be e5 bd
       0.08334942 -0.037283294 -0.107351735 -0.11218005
000040 f6 aa 84 bd 05 cb b7 bd c6 67 e4 3d cd 03 f9 3c
       -0.06477921 -0.0897427 0.11152606 0.03039732
000050 77 74 ce 3b cd 86 02 3d ba ad e6 3d 04 f7 a5 3d
       0.006300505 0.031866837 0.112636045 0.08103755
000060 f4 84 00 3e 2c 82 e1 3d 9d 0e 99 bb 57 31 3a 3d
       0.12550718 0.110111564 -0.0046709315 0.04545721
000070 ff a6 a6 bc ab df 1b 3e dd 91 7e bd 14 50 40 bc
       -0.020343302 0.15222041 -0.062150825 -0.011737842
000080 26 7a 18 bd b1 1f 9f 3c 8c 4c f5 bd cf 1f 1e bd
       -0.037225865 0.019424291 -0.11977491 -0.038604554
000090 26 e2 bc 3d c7 e5 ec 3d e3 df 4a 3c a5 0c ac bd
       0.09222822 0.11567264 0.01238248 -0.08400849
0000a0 6e 72 db bd 6a 58 d3 3a 5f 67 22 bd 43 24 a0 bc
       -0.10715185 0.0016124372 -0.039649364 -0.019548541
0000b0 79 41 9d 3d f1 85 f5 bc be ce 0b 3e 14 07 66 3c
       0.076785035 -0.029971095 0.13653085 0.0140397735
0000c0 38 2e 8d bd 65 cb 8a bd c2 b1 8d be 79 c8 7f be
       -0.06893581 -0.06777076 -0.2767468 -0.24978818
0000d0 c2 fa 09 3e d0 45 2d bd 19 ec b0 3c 26 e2 2a be
       0.13474563 -0.042302907 0.021596955 -0.16687831
0000e0 84 1f e4 bd c3 74 90 3d fa f9 13 3e f3 5e 91 bd
       -0.11138824 0.070535205 0.14450827 -0.07098188
0000f0 4e 9f 14 3e 91 22 07 3e a5 27 dd 3b 70 7e fc bc
       0.14513895 0.1319678 0.0067491108 -0.030822009
000100 17 e8 9a 3d df 72 f3 3d db 15 0c 3e be 79 8a 3d
       0.07563799 0.11887144 0.13680212 0.06761502
000110 38 78 3f 3d 8d e0 72 bd 7b d0 92 3c 4a 5b ee 3d
       0.04674551 -0.05929618 0.017921677 0.11638506
000120 e1 ef 30 3c 8c 98 ea 3d fb a5 5b 3d e0 10 53 3e
       0.010799379 0.11454877 0.05362509 0.20611906
000130 4b b9 bc 3d 0c 62 73 3d 06 46 a2 bc ec 64 73 bb
       0.09215029 0.059419677 -0.01980878 -0.0037139012
000140 7f 01 cb 3c ab 0d 80 3d f7 fb 34 bd ea 55 d3 3d
       0.024780987 0.06252607 -0.044185605 0.10319121
000150 c5 25 06 bd 4b 59 83 3d b5 e0 11 bd 33 01 e2 3d
       -0.032750864 0.06413516 -0.035614688 0.11035385
000160 a5 43 a1 3d d4 aa 46 bd cf b8 da 3d bf 27 3f 3d
       0.0787423 -0.04850276 0.10679781 0.046668764
000170 05 59 95 bd 66 ab 00 3d cc 65 20 be 72 27 4a be
       -0.0729237 0.03141346 -0.15663832 -0.1974161
000180 d0 7f 51 be 4e 01 e2 bb f7 57 64 3c f4 19 45 be
       -0.20458913 -0.006897128 0.013936988 -0.19248182
000190 36 fe 6d bd 89 7f 12 be c4 bf f3 bd 0c 7f 47 be
       -0.058103763 -0.14306463 -0.11901811 -0.19482058
0001a0 2d 66 c1 bd de f3 9e 3d b0 47 dd bc 8a 37 95 bd
       -0.094433166 0.07761358 -0.027011722 -0.07285984
0001b0 fb d4 b0 bd d3 39 8c 3d d2 ca 01 be 51 f7 21 bd
       -0.08634373 0.068469666 -0.12675026 -0.0395425
0001c0 b0 83 b5 3c 90 8b 00 be f9 23 88 bd 14 8c e6 bd
       0.02215752 -0.12553239 -0.06647486 -0.112571865
0001d0 ea 69 66 3d dd 1d c4 3d 8b 1d 0b be c2 e2 1c be
       0.05625335 0.095760085 -0.13585488 -0.15320876
0001e0 06 e7 ba bd c3 65 10 bd dd ce 73 3d d2 af 92 3d
       -0.091260955 -0.035253298 0.059523452 0.07162441
0001f0 43 78 a5 bd 03 0e 15 3d 26 44 a1 bd 54 b3 de 3d
       -0.08079579 0.036390316 -0.078743264 0.10874048
000200 a3 a8 16 3e 45 c6 e0 3d 73 1b 80 bc 04 19 ba 3d
       0.14712767 0.10975317 -0.015638089 0.090868026
000210 5e 12 85 3d 2e 6d 97 bc ab 6c 21 ba ec c6 0e 3e
       0.06497644 -0.018484678 -0.00061578554 0.1394307
000220 40 1b 75 3d 8f 8e ff 3d 95 4c 80 bd f7 40 98 bd
       0.05984044 0.12478363 -0.06264607 -0.07434266
000230 39 43 44 bc 5a 35 66 3c 91 61 6c 3d c9 ff 27 3d
       -0.011978918 0.014050806 0.057710234 0.04101542
000240 47 87 4c ba 76 c8 50 bd f8 95 ef bc 06 5a d6 3d
       -0.00078021403 -0.050972424 -0.029246315 0.10466389
000250 a8 7e a6 bd a9 3c 87 bd 70 4c ce bd a0 99 ea 3d
       -0.081296265 -0.06603367 -0.10073173 0.11455083
000260 c1 c7 df bc d1 2d ac 3d b7 3e 95 3d bd 2e 8d 3c
       -0.02731693 0.08407176 0.072873525 0.0172342
000270 57 b5 9b bc ba fc b0 bc b0 4e 88 3d 7f bd 6d bd
       -0.019007368 -0.021604884 0.066556334 -0.058042046
000280 c5 ad 70 3c 37 05 3a 3e 9d 52 28 3e 8c 81 2e 3e
       0.014689867 0.18166052 0.16437764 0.17041606
000290 53 51 cc bd bd d5 0c be 8a ab 25 3d 40 0a 88 3d
       -0.09976449 -0.1375341 0.040446796 0.0664258
0002a0 62 8a 9b bd d7 95 8a 3d de dc f5 3d f4 17 51 bb
       -0.07594754 0.06766861 0.12005018 -0.0031905146
0002b0 26 84 dd bd a7 05 2d 3d ac 87 0f 3d 3f 6c 2a 3e
       -0.10816221 0.04224172 0.035041496 0.16642855
0002c0 ba d7 db 3b 9d e4 e7 bc e4 b0 69 bd 1e 67 30 3e
       0.006709066 -0.028307253 -0.05705346 0.17226836
0002d0 1c 87 10 bd a6 41 03 bc 8c 53 0b 3e 45 4b bf 3c
       -0.0352851 -0.008011257 0.1360609 0.023351321
0002e0 23 d2 01 bd 41 b3 94 bd 19 2e e3 3d fc c1 cb 3d
       -0.031694543 -0.072607525 0.11092777 0.09949109
0002f0 d1 69 c6 3c c5 b4 ca bd 5c 5f c3 3c 52 7a bc bd
       0.02422038 -0.0989776 0.023849182 -0.09203018
000300 21 ff 45 3d 71 84 bc bd 07 b1 93 3c 3a 51 8e bc
       0.048339013 -0.09204949 0.01802875 -0.017372716
000310 e7 f3 fd bc e4 9e 74 3c c9 fe b5 3d 27 7f 20 3e
       -0.03100009 0.014930461 0.08886487 0.15673505
000320 9e 0c a6 bc 8a 7d 07 3e d0 d5 7e 3b 39 ad 11 3d
       -0.020269688 0.13231483 0.0038884766 0.03556559
000330 90 bf 0e be 38 f1 12 be 20 96 d8 bd 6d 63 e3 bc
       -0.13940263 -0.1434983 -0.10575509 -0.02775737
000340 27 52 b3 bd 18 75 60 bd 10 78 c3 3b d4 5a 71 3c
       -0.08755904 -0.05479917 0.0059652403 0.014731128
000350 0c cc 11 3e ae ce 88 bd 1c d6 59 bd 13 ba 17 3e
       0.14237994 -0.06680046 -0.053182706 0.14817075
000360 2e 2e 05 3e 00 51 bb 3d 23 16 b3 bd 9d f8 b1 3d
       0.13005897 0.09146309 -0.087444566 0.08689997
000370 81 7d 9b 3d 5e 7d 13 3e 27 c2 f6 3d e9 43 c3 3c
       0.07592297 0.14403293 0.1204875 0.023836093
000380 68 7d 00 3e 55 37 a3 bd 2a 4d c5 bd bf cc 1c bc
       0.12547839 -0.07969538 -0.096338585 -0.0095703
000390 2c 3d 9a bd 0c d2 94 bd 01 f4 9c 3d 52 00 53 bc
       -0.07531199 -0.07266626 0.076637276 -0.012878494
0003a0 c9 06 91 3c 36 70 cc 3d 2e 63 3e bd a9 e2 ed bd
       0.01770343 0.0998234 -0.046481304 -0.116154976
0003b0 5b 59 df 3d 64 af 2b 3e 0b 8f 42 3d 10 af 48 3b
       0.10905715 0.16766125 0.047499698 0.0030621924
0003c0 ec 3c 8f bc 2e 56 85 3d b9 cd a3 bb 1f 33 10 38
       -0.017485105 0.06510578 -0.0049988893 3.4379886e-05
0003d0 48 bc b2 bd 92 52 1d bd b5 37 d2 bd 82 80 ab bd
       -0.08727318 -0.038408823 -0.102645315 -0.0837412
0003e0 cd 10 39 3e 9d cd df 3d c3 fe f9 3c 53 bc f1 3d
       0.18072815 0.109278895 0.030516988 0.11803498
0003f0 f4 d1 b0 3d 40 aa 8d bd 2f e8 f6 bc 0c 0f a3 3d
       0.086337954 -0.06917238 -0.03014001 0.07961854

conv1d_1.bias f4 [16]
000000 b0 d6 0a 3e 2a eb 80 bd 0f a6 82 bd 70 79 09 3e
       0.1355846 -0.06294854 -0.063793294 0.13425231
000010 77 94 dc 3c 17 26 ee 3d f5 4a 07 3e 35 63 65 3d
       0.026926262 0.11628359 0.13212188 0.056002814
000020 a1 1d 10 bd b6 58 96 3d e1 5e 0a 3d 54 3a 30 3d
       -0.035184506 0.07341139 0.03378189 0.043024376
000030 ea 9d d3 3d 9c 20 c5 bc ed c1 e4 bc fb 6e 4e 3c
       0.10332854 -0.0240634 -0.027924502 0.012599702

conv1d_2.weight f4 [32, 16, 3]
000000 c5 91 51 3e cf 33 65 3c 4d 10 f8 3c 7c 65 08 bd
       0.20465763 0.013989403 0.03028121 -0.033299908
000010 c5 86 4f 3e ff 5f 66 3e c5 5e 97 bc 96 2b ea 3d
       0.20266254 0.22497557 -0.018477807 0.114340946
000020 89 8a ad 3d 1b 7d 27 3e 35 3a 90 bc 57 d6 4c 3e
       0.08473689 0.16356318 -0.01760588 0.20003639
000030 42 88 27 3e a9 29 85 bc cd 08 b9 bd 54 79 8b bd
       0.16360572 -0.016255217 -0.09034882 -0.06810251
000040 ae 4c 05 3d 5b 65 8b 3d 75 51 0d 3e 37 83 f3 3d
       0.03254383 0.068064414 0.13800605 0.118902616
000050 e3 59 5a 3e 48 44 3a 3d a9 6d bc 3d 37 fa 42 3c
       0.21323352 0.045475274 0.092006035 0.011900476
000060 a1 ba 2d bd 82 a6 fd bd 9f c6 2d 3e 3d 55 13 3e
       -0.04241431 -0.123852745 0.16970299 0.14387985
000070 33 4a 79 bd 0f 3d ad 3d 98 86 dd 3d 61 58 34 bc
       -0.060861778 0.08458912 0.10816687 -0.011007399
000080 51 93 90 bd bc f7 f1 3d 05 be d8 3d 46 98 d1 3d
       -0.070593484 0.1181483 0.10583118 0.10234122
000090 01 6c 1c 3d 94 b3 ac 3d 41 bc 00 3e 7f 81 02 3e
       0.038188938 0.08432689 0.12571813 0.12744711
0000a0 e4 16 1c bc 4b 44 b3 bb d7 81 ee bd d3 d4 51 3c
       -0.009526942 -0.0054707876 -0.11645859 0.012807089
0000b0 25 1b 46 bd aa c1 5c bc 60 a7 38 3e dd 65 4c 3e
       -0.04836573 -0.0134739075 0.18032598 0.19960733
0000c0 b8 50 49 be 22 4c fd bd 84 49 8e 3d 04 3a c7 3d
       -0.19659698 -0.12368037 0.06947616 0.097278625
0000d0 5f da 85 3c a7 e3 85 bd 4e 27 fc 3d 74 10 0c 3e
       0.016339479 -0.06537562 0.12312184 0.13678151
0000e0 cf 47 c1 3d 7d 0a c1 3d f1 ef 10 bd de ea 2b 3e
       0.094375245 0.094258286 -0.035385076 0.16788813
0000f0 0f 5e b3 bd e6 67 15 3d 9b 18 95 bd 5a 3b 34 bd
       -0.08758175 0.03647604 -0.07280084 -0.044001915
000100 fc 77 d8 bd 95 94 b0 bd a1 31 94 3d 27 73 2b 3e
       -0.1056976 -0.0862209 0.072360285 0.16743146
000110 53 fc a3 bd aa 43 20 be a7 ff 19 3e 44 21 4a 3e
       -0.080071114 -0.15650812 0.1503893 0.19739252
000120 cb a2 84 3e 80 a9 a6 3e 13 ed 1d 3e 83 25 bd 3c
       0.2590545 0.32551193 0.15422468 0.023089176
000130 c3 84 b4 3d 53 5b 73 3c fe 06 13 be 50 ba b3 ba
       0.08814385 0.014853316 -0.14358136 -0.0013712142
000140 03 d6 5f bc 51 c5 4f 3e 08 fa 66 3e 15 5c 73 3d
       -0.013661864 0.20290114 0.22556317 0.05941399
000150 a0 49 6f bc 4a 03 cd 3c 55 c5 2f 3d f5 6b 8a bc
       -0.014604956 0.025025982 0.0429128 -0.016897181
000160 48 1a 1f 3e 9f 82 0f bd c3 db 7a 3e 0f 8f 46 3e
       0.15537369 -0.03503668 0.24497895 0.1939051
000170 e8 1a 4b 3e 5b 98 49 3d 44 14 ab bd c9 c4 86 be
       0.19834483 0.049217563 -0.08353475 -0.2632201
000180 93 b6 24 bc d6 bc 1a 3e d3 4e 70 3e 25 af 0e bd
       -0.010053295 0.15111098 0.23467569 -0.034835
000190 06 8d 91 bc e9 90 d2 3d 9f e9 87 3d 54 a1 66 3d
       -0.01776744 0.10281546 0.066363566 0.0563062
0001a0 06 ce fb 3c 03 d0 6b 3c c8 fa b2 3d f5 3a 1c 3e
       0.030737888 0.014392856 0.08739239 0.15256865
0001b0 b4 e4 96 3d 5e 66 97 3d 10 53 7b 3d 2f 96 0b bc
       0.073678404 0.07392572 0.06135851 -0.008519693
0001c0 89 d1 3f bd b7 ef 14 3b a0 82 7b bd b9 0a 4b 3e
       -0.046830688 0.002272589 -0.06140387 0.19828309
0001d0 3e 39 49 3e 6b 27 4f 3d bf c4 ff 3d fd 22 f8 3b
       0.19650742 0.0505747 0.12488698 0.0075725303
0001e0 b1 d1 e6 3c d7 87 5c bc 92 6c ae bd 1d 71 9b 3d
       0.02817616 -0.013460121 -0.08516802 0.07589934
0001f0 a9 7f b3 bd 11 38 17 bd db 75 9f bd e8 75 21 3e
       -0.087645836 -0.036918703 -0.07786151 0.15767634
000200 35 d2 45 bd 96 13 24 3d 1e 50 bf 3d cc 89 5a 3e
       -0.048296172 0.04005774 0.09341453 0.21341628
000210 b3 73 51 3e b8 43 ab 3d 4b ed 25 3e 2c f7 d0 bd
       0.20454292 0.08362526 0.16203801 -0.10203394
000220 62 1f cc 3c 25 1f fe 3c 2c 21 9f bd 53 66 c3 bc
       0.024917308 0.03102071 -0.07769999 -0.023852503
000230 67 2b d8 3d 46 f6 1c 3d 92 08 7a bd 37 3f 9f 3d
       0.10555153 0.038320802 -0.06104333 0.07775729
000240 be e6 54 3d bb 6e 36 3d 32 d5 0c be c8 ab eb bd
       0.051977865 0.044539195 -0.13753203 -0.11507374
000250 dd dd 09 3d ee 63 30 be ef 38 ac 3d 3e 8d 0e 3e
       0.03365885 -0.1722562 0.08409297 0.13921067
000260 47 93 d4 3d 7d a7 d5 3d fc 90 02 3d 0b a5 a6 3d
       0.103796534 0.104323365 0.03187655 0.08136948
000270 9b 88 1a 3e a1 b6 88 bd cf 62 94 3c d2 51 8f bd
       0.15091173 -0.06675459 0.018113522 -0.06998028
000280 11 59 d2 3d b0 58 f8 3d 8c 57 93 bd f7 dc fc 3d
       0.10270894 0.12126291 -0.071944326 0.12346833
000290 63 f9 83 bd 12 19 a2 3d ac dc d7 bd 7e 6b d4 3b
       -0.06444051 0.07914938 -0.10540137 0.0064825406
0002a0 2b 80 06 3e 3c d1 2a 3e 4d e2 0d 3e 06 22 68 3d
       0.1313483 0.16681379 0.13855858 0.056673072
0002b0 be 72 c6 3d 5a 82 0d 3d fc c3 02 bd 08 f2 c2 bd
       0.09689854 0.03454814 -0.031925187 -0.0951882
0002c0 46 57 28 3e de 6f 32 bd 3f 24 1b 3e d5 2a 24 3e
       0.16439542 -0.043563716 0.15150546 0.16031964
0002d0 62 33 44 3e 5b 78 11 3e 7d 9e 56 3e f7 e9 aa bd
       0.19160226 0.14206068 0.20958896 -0.083454065
0002e0 70 10 b1 3d 73 a3 a6 3c da 51 3a 3d 58 8b 5f 3d
       0.08645713 0.02034161 0.045488216 0.054576248
0002f0 ab 51 be 3c 37 ba 0f 3d 56 a4 d2 3d a3 e8 c1 3d
       0.023232302 0.035089698 0.10285251 0.094682
000300 2d 75 6f 3d 45 3d e3 3d 05 18 12 3e 45 da 2f 3e
       0.058461357 0.110956706 0.14266975 0.17173107
000310 9f 05 d6 bc c6 f0 a5 3d 58 df 43 bc 5a 37 59 bd
       -0.026125727 0.081025645 -0.011955105 -0.053031303
000320 53 ce 40 3d b6 e8 39 3e 7e c1 65 3c d2 99 1d 3e
       0.047071766 0.18155178 0.014023183 0.15390709
000330 51 2d 01 bd 02 24 fd 3d 4b 41 08 3e 7d d1 f1 3c
       -0.031537358 0.123603836 0.13306157 0.029518837
000340 ea 6c f4 3d cb 75 d2 3b 66 c3 97 bd d4 91 e9 3d
       0.11934836 0.0064227334 -0.07410316 0.11404768
000350 be ed a4 3d 15 b5 e0 3c 67 eb 00 3e ed e1 cb 3c
       0.08053158 0.027430097 0.12589799 0.024888003
000360 28 5f ee 3c 82 02 c1 bd 39 a0 b1 bd f4 5a 4a bd
       0.029098108 -0.094243065 -0.08673138 -0.049403146
000370 da 8e 55 3d 0f 62 3f bd 6a 0d 33 3d c3 14 bf bd
       0.052138187 -0.046724375 0.043713965 -0.09330132
000380 22 e7 3b bd 36 8a 3a bd 01 7b ea 3c 0f e8 59 3c
       -0.045874722 -0.045541964 0.028623106 0.013299956
000390 5b 05 c6 3d cf 1f cf 3c ac fd 6f bd 2f d0 a5 ba
       0.0966899 0.025283722 -0.05859153 -0.0012650545
0003a0 f0 88 15 3e ad 37 8b bd ba e4 03 3e da 96 0f be
       0.14603019 -0.06797729 0.12880221 -0.14022389
0003b0 6f 9c 01 be 10 e4 e5 bc a4 52 c5 3d 14 e0 bd 3d
       -0.12657331 -0.02806285 0.09634903 0.09271255
0003c0 99 9b 31 bd 1f 74 0b be b6 f7 ed bd c7 85 fb 3d
       -0.04336128 -0.13618515 -0.11619513 0.122813754
0003d0 54 db 0c 3e 71 31 17 be c9 1f ff 3d 2c 33 20 3e
       0.13755542 -0.14764954 0.124572344 0.1564452
0003e0 d9 15 85 bd 65 41 e9 bc 0a 31 e1 3c e1 c8 c3 3d
       -0.06498308 -0.028473565 0.027489204 0.09559799
0003f0 4b 3a d4 bd 61 4b 6f 3c e4 89 26 be 0c 59 12 3e
       -0.10362681 0.014605374 -0.16263539 0.14291781

conv1d_2.bias f4 [32]
000000 40 87 db bb d7 3e 9a bc 0f 92 d1 bd 9e 71 46 bd
       -0.0066994727 -0.018828792 -0.102329366 -0.048448198
000010 4d 1e 17 3e 3b 4d 77 bd 94 5d 95 bc 3f f3 34 bd
       0.14757653 -0.060376387 -0.018233098 -0.04417729
000020 36 99 c4 3d e6 7c ca 3d 06 1e 94 3d 05 bb 56 bd
       0.09599535 0.09887104 0.07232289 -0.05242445
000030 00 ae 2d bc 11 89 d1 3d 1a 97 a0 bc 4b 78 f5 bb
       -0.010600567 0.102312215 -0.0196033 -0.0074911467
000040 67 72 85 bd ee a7 dd 3d a2 77 e3 3d fd cd 04 3e
       -0.06515961 0.10823046 0.111068025 0.12969203
000050 e8 af bc 3d 5b 57 07 bd ec 03 a7 3d 67 4d e7 3d
       0.09213239 -0.033042293 0.08155045 0.1129406
000060 98 f2 ad 3c 60 ee 62 bd f3 15 30 bd 16 3e 97 3d
       0.021233842 -0.055403113 -0.042989682 0.07384889
000070 d6 bf 22 bc 84 11 0c 3e bc 04 07 be ff 17 89 3d
       -0.009933433 0.13678557 -0.131854 0.0669403

conv1d_3.weight f4 [32, 32, 3]
000000 8e 47 85 bd c7 5c f5 3c fe 60 1b be 3d aa c0 bd
       -0.065077886 0.029951466 -0.15173718 -0.094074704
000010 43 30 44 3c 37 0e 31 be 31 f4 57 3d 85 76 06 3d
       0.011974397 -0.17290579 0.052723113 0.032827873
000020 7d 2a 94 bd 52 43 ee bc 51 8a 62 bd 6c 33 95 3d
       -0.072346665 -0.029084835 -0.05530769 0.072851986
000030 9a f9 a7 3d e7 c6 7a 3d e6 af 98 bd c8 48 ec bb
       0.082019046 0.061224844 -0.07455425 -0.0072108246
000040 09 f1 98 3d 97 56 80 3d 3d 95 33 3e 64 25 23 3e
       0.07467849 0.06266516 0.17537399 0.15932232
000050 5b dd ee 3d 49 c4 7e 3d e6 66 de 3d 13 14 00 3e
       0.11663314 0.06219891 0.1085947 0.12507658
000060 48 40 6d 3d 50 dd 74 3d a3 e4 25 bd 5b af 32 bd
       0.05792263 0.059781373 -0.040501248 -0.043624263
000070 41 82 44 bd 5f eb 4f bd 3a b8 45 bc a1 82 b5 3d
       -0.047975782 -0.050761577 -0.012067849 0.08862806
000080 a2 b4 c9 3d e6 ed 61 3d 8d 99 fa bd 91 b9 4a bd
       0.09848906 0.05515852 -0.12236319 -0.049493376
000090 d3 97 98 bd 9b 20 26 3c a9 4c 0a bc c7 a8 00 3b
       -0.07450833 0.01013961 -0.008441129 0.001963185
0000a0 20 be d6 bc a3 4f 3f be fa a4 26 bd d4 27 e2 3d
       -0.026213706 -0.18682723 -0.040684678 0.11042753
0000b0 05 6b df bb ef 4e d1 bd 57 80 c9 bd 02 4e fc bd
       -0.0068181776 -0.102201335 -0.09838932 -0.12319566
0000c0 38 f0 d2 bd 6a f1 95 bd fe a7 56 3d 2b ea ae bd
       -0.10299724 -0.07321437 0.052406304 -0.08540758
0000d0 b3 60 98 bc a9 1b 19 bd 4f 8c b1 bb e0 aa 99 3c
       -0.018600797 -0.037379894 -0.0054183374 0.018758237
0000e0 c6 30 99 bd 6f 04 5c bd cf 2f a3 bc f6 25 1a bd
       -0.07480006 -0.053715166 -0.019920258 -0.03763386
0000f0 20 00 fa 3c 44 51 0d bd 70 bd 2a 3d 55 e7 c6 bd
       0.030517638 -0.03450133 0.041684568 -0.09712092
000100 f8 dd 9f bd 60 21 8d bb 44 56 dc bd 2a d8 bf bd
       -0.07806009 -0.004306957 -0.10758641 -0.09367402
000110 3f dd 1d bd 33 4d 3b 3e b2 ca 60 3d a7 03 3c 3e
       -0.038541075 0.18291168 0.054880805 0.18360768
000120 b0 ae b2 3c cb 6a d4 3d be 32 10 3e b7 13 a4 bd
       0.021811813 0.10371932 0.14081857 -0.08011573
000130 83 21 0e bd 40 c6 0a 3d 53 d3 fa 3d 39 80 a6 3c
       -0.034699928 0.033880472 0.12247338 0.020324813
000140 9a 97 f3 3d 56 ee 97 3d dd 54 b0 3d 60 7e bc bc
       0.1189415 0.07418506 0.086099364 -0.023009479
000150 5c f8 3d 3e f6 7a 62 3e cd d6 24 3e dd a0 a7 3b
       0.18551773 0.22117218 0.16097565 0.005115612
000160 9f d6 23 bc c8 e8 8f bd 60 82 09 be 74 2e 4d bd
       -0.0099999 -0.070268214 -0.1342864 -0.05009313
000170 ae ff db bd 26 ff 85 bd 05 92 0e 3d bf 2f 48 bd
       -0.107421264 -0.06542806 0.034807224 -0.04887366
000180 c8 98 01 3d cd 3c a4 3d d1 a1 5c 3d c1 f2 84 bd
       0.031639844 0.08019409 0.053865258 -0.06491614
000190 2a ef bd bd 07 79 89 3b f4 0c 2a 3c 8f 93 85 3d
       -0.092741325 0.004195336 0.010379065 0.06522285
0001a0 d5 bb fc bc 3f 34 00 3e c6 1c 44 bd 8e 20 7b bd
       -0.030851284 0.1251993 -0.047879003 -0.061310343
0001b0 da d5 c4 3d 77 02 f8 bc 01 aa 04 3e 83 50 05 3d
       0.096111014 -0.030274613 0.12955476 0.032547485
0001c0 61 13 ca bc 6f 5c e2 bd 04 62 10 3c 4f 30 b5 3d
       -0.024667444 -0.110527866 0.008812431 0.08847105
0001d0 f1 c6 ee 3d f5 a5 fd 3d c9 36 d7 3d e4 5e 57 bd
       0.11659039 0.123851694 0.10508496 -0.05258073
0001e0 04 c0 f8 3d b9 56 8b bd 0d 64 0e bd dc f4 39 be
       0.12145999 -0.068036504 -0.034763385 -0.18159813
0001f0 3f 9c f7 bd e5 be f9 bd d5 10 0f bd 8b 8c 06 3c
       -0.120903485 -0.12194613 -0.03492816 0.008212219
000200 6f 8c 34 3e c3 dd e5 bc 74 f1 1a bd 79 14 b9 bd
       0.17631696 -0.028059846 -0.037827924 -0.09037108
000210 c2 c1 44 bd 2e fa ee 3d 19 72 b2 bb 8d bc 00 be
       -0.048036344 0.11668812 -0.0054457304 -0.12571926
000220 86 37 f9 bd 77 0e f9 3b 81 0b d6 3b 9f bb 91 bd
       -0.121687934 0.0076006013 0.006532133 -0.07115864
000230 a9 5c e1 3a 32 ef a7 bc d7 a5 da bc a4 b4 a1 3d
       0.0017193753 -0.0204998 -0.026690407 0.078957826
000240 cf 82 8f bd e6 b2 9e bc a6 f3 5d 3b 47 fc 02 bd
       -0.07007372 -0.019372415 0.003386715 -0.03197887
000250 80 66 bb 3d 7d 49 d3 3c 7d f4 bd bc db bf 0f 3d
       0.0915041 0.025791878 -0.02318787 0.035095077
000260 59 8d 9e 3c 21 2c 2c 3d e4 eb d3 3d 35 e6 be bd
       0.01935451 0.042034272 0.10347727 -0.09321252
000270 9b e4 db 3c 63 8c 5a 3d e5 3a e2 3d 8d 19 35 3d
       0.026842406 0.05335654 0.110463895 0.04421382
000280 57 a2 c7 3d ce 5a 31 bd 31 1f b2 bc f2 6d 77 3c
       0.09747761 -0.04329949 -0.021743389 0.015101897
000290 d9 e1 06 be 77 9b 2c 3e 49 89 d8 3b b3 ef 86 3d
       -0.13172092 0.1685618 0.0066081625 0.06588688
0002a0 f1 cb 28 3e ad b8 f3 3d 50 61 bc 3d bf c9 d5 bd
       0.16484047 0.119004585 0.091982484 -0.10438871
0002b0 11 e6 ab bd 56 d6 ce 3d 8e 71 cf 3d 80 c0 e8 3d
       -0.08393491 0.10099475 0.10129081 0.113648415
0002c0 6b 66 2d 3e 85 2c 28 3d 13 4b 38 bd b2 a6 89 3d
       0.169336 0.041058082 -0.04499347 0.06721248
0002d0 ed 1f 60 3d e7 da 8a 3d 71 be c8 3a 5d a5 03 bd
       0.054717947 0.067800336 0.0015315545 -0.032140125
0002e0 a1 6e 49 3d 9e 0a 20 3e 17 2a a4 bd 47 51 05 bd
       0.04917777 0.1562905 -0.080158405 -0.032548215
0002f0 4d b8 64 bd 10 51 29 3c 35 88 0b 3d 2c ed d5 3d
       -0.055839825 0.010334268 0.034065444 0.104456276
000300 69 a7 ba bc cf f2 5b 3d 5d 1f 61 bd 74 5e d2 bd
       -0.022784906 0.053698357 -0.05496155 -0.10271922
000310 8e 0e 86 bd 83 7e 18 3e f9 f5 04 3d be cf 4a 3d
       -0.06545745 0.1489201 0.03246114 0.049514525
000320 db 7b 4a 3d b6 ad b4 3d 8b 40 20 3d 6e 7f d3 3d
       0.049434524 0.08822195 0.039124053 0.1032704
000330 db 59 eb 3b 14 d6 da 3c 8a 74 11 bd f7 f1 ed 3c
       0.0071823425 0.026713409 -0.03551153 0.029046042
000340 c2 dc 07 3e 82 e0 8d 3d ad b0 7f 3d bd 98 46 bd
       0.13267806 0.06927587 0.06242435 -0.048485506
000350 85 18 fe 3a 96 34 27 be 0d 8f 30 bd 1a 0c c2 3b
       0.001938597 -0.16328654 -0.043105174 0.005921853
000360 3a e8 3f 3d 6e fb 9a bd 54 4d 63 bc 9c 84 e5 3d
       0.046852328 -0.07567488 -0.013873417 0.11206934
000370 13 41 57 3d 2d f9 35 3c f3 45 34 bd c4 57 31 be
       0.052552294 0.011106771 -0.04401202 -0.17318636
000380 17 57 19 be 8f 0b 83 bd b3 84 8b 3d 25 81 e7 3d
       -0.14974628 -0.06398689 0.0681242 0.11303929
000390 d1 88 0a bc a4 3e c6 3d be 1a df 3c 0a 93 f6 3b
       -0.008455471 0.096799165 0.027234431 0.0075248526
0003a0 ef 69 21 bd fc dc 5f 3d 84 92 17 3e aa 86 90 bd
       -0.039407667 0.054654106 0.14801985 -0.07056935
0003b0 2a 93 de 3c f6 a1 b8 bd ed ed 61 bc 37 c5 36 bd
       0.027169783 -0.090152666 -0.013789636 -0.044621672
0003c0 92 2f aa 3c 8a 21 36 3c f0 97 1a be e3 e9 15 3e
       0.020774636 0.011116395 -0.15097022 0.14640002
0003d0 ef 5f 40 3c d5 bd 39 bd b6 66 97 3d 91 49 da bc
       0.011741622 -0.045347054 0.073926374 -0.026646407
0003e0 1f 82 90 3c 89 1f 0c be 0b 8e b0 bd 1e 6a 1c bd
       0.017640172 -0.13683905 -0.086208425 -0.03818714
0003f0 6c f8 23 bd 84 1a a9 3d f2 79 63 bd f9 e6 08 ba
       -0.040031835 0.082570106 -0.055536218 -0.0005222406

conv1d_3.bias f4 [32]
000000 98 a8 1d 3c cb 20 70 bd 78 1b 01 3d 8f 0c e4 3c
       0.009622715 -0.058625024 0.031520337 0.02783802
000010 fe cf 07 3d 97 49 d1 3d 99 11 48 bd c9 3c 92 bd
       0.03315734 0.10219114 -0.048844907 -0.071405
000020 22 ca 12 3d 9e e5 4c 3d b6 fe ba bc 85 10 af bd
       0.0358373 0.050023668 -0.022826534 -0.08548073
000030 98 f4 88 3c 16 37 2b bc d1 b9 e3 3d 77 03 a6 3d
       0.016718194 -0.010450145 0.11119426 0.081061296
000040 69 c7 6b bd 65 13 9b bd 99 c7 17 3d c6 89 e1 3d
       -0.05756322 -0.075720586 0.037055586 0.11012606
000050 af c4 e2 bc 21 1c 5d bc b3 e0 05 3d ac 97 45 bd
       -0.027681677 -0.013495476 0.032684993 -0.04824035
000060 3a 97 27 bd 99 d1 0a 3d 64 03 33 3d 04 62 a3 3d
       -0.040915705 0.033891294 0.043704405 0.07977679
000070 17 d4 76 3d 31 28 61 bd 28 b1 f2 3c ef 97 4a 3d
       0.06026086 -0.05496997 0.02962549 0.0494613

fc.weight f4 [3, 32]
000000 38 04 a9 3a 12 6b 8b be d6 02 8e 3e 31 8e 27 be
       0.0012894934 -0.27230126 0.2773654 -0.16362835
000010 18 6e 39 be f1 c1 03 3d 7a 85 3c be 4a 28 44 3e
       -0.18108404 0.03216738 -0.18410292 0.19155994
000020 75 fc 99 3d 90 93 99 be a6 58 a2 3c 1f 7d 42 be
       0.075188555 -0.29995394 0.019817661 -0.18993042
000030 28 d3 60 3e 77 35 67 bd bc cd 65 be e4 c1 25 3c
       0.2195555 -0.056447472 -0.22441763 0.010117028
000040 13 ee 2c be e1 7a 89 be 9a 20 d9 3d 79 3f 8c bd
       -0.16887693 -0.26851562 0.106019214 -0.06848044
000050 f1 c6 87 be c1 34 45 3e 0b 7c 15 be b4 62 73 be
       -0.26518968 0.19258405 -0.145981 -0.23768121
000060 c0 d9 e1 3d d0 20 f3 39 f9 dd d0 bd 4e 48 60 bd
       0.11027861 0.0004637302 -0.10198588 -0.054756455
000070 a4 5a 3a bc 0a 85 2d 3d d2 ff 2b 3d ee d4 02 be
       -0.0113741495 0.042363204 0.041992016 -0.12776539
000080 3a f2 81 3e eb 5e 85 3e c2 62 ad 3d c0 b3 0d bf
       0.25380117 0.2604898 0.08466102 -0.553524
000090 61 26 a2 3e 8f 30 8f be 7a df 59 3e b2 ae 85 bd
       0.31669906 -0.27966735 0.21276656 -0.06527461
0000a0 d3 e3 a2 be 58 aa 76 3e 7f 63 73 be ea 58 88 3e
       -0.3181444 0.24088418 -0.23768423 0.26630336
0000b0 9f ed 87 be c6 06 98 be bf 15 f8 ba fe 55 1e 3e
       -0.26548478 -0.29692668 -0.0018927379 0.15462491
0000c0 b4 7d ae 3e 55 df 98 3e e5 6c cb bd cf 24 5a be
       0.3408028 0.2985789 -0.09932879 -0.21303104
0000d0 77 cb 98 3e 5f 98 c3 bd e2 a7 bc bd c8 d3 69 3e
       0.2984273 -0.09550547 -0.092117086 0.22834694
0000e0 32 af 7c 3e 00 4d a1 be 19 76 8b be 6e 9b 6a 3e
       0.24676207 -0.3150406 -0.2723854 0.22910854
0000f0 d8 a2 57 be 28 84 92 3e 3e 4e 67 be a6 cf 9a be
       -0.21058214 0.28616452 -0.22588441 -0.30236548
000100 e5 2d 8a 3d 4e ba 2d 3e 05 f7 53 be 49 5b 5a 3e
       0.06747035 0.16965601 -0.20699699 0.21323885
000110 c7 5c 2d be 47 30 17 3e 57 ea 2a be 7e 2e b9 3c
       -0.16929923 0.1476451 -0.16690956 0.022605177
000120 e5 3c fd 3d 5c 10 e4 bd 2a a7 72 3e a0 a4 4a be
       0.1236513 -0.11135933 0.2369658 -0.19789362
000130 72 ba f7 bd 1e 5d 42 bd cb 8d 43 be 55 ec 4d be
       -0.120961085 -0.047452085 -0.19097058 -0.20109685
000140 2c 23 4d be 58 62 92 bd f9 f3 89 3d b1 ed 00 3e
       -0.20032948 -0.07147664 0.06735987 0.12590672
000150 4e 4e f1 3d 06 2d f6 bd 8c 3e 4b 3e 4a 8d a4 be
       0.117825136 -0.12020306 0.19848078 -0.32139045
000160 1b 7d 8a be 0c fd c5 3d c0 93 05 3e b9 51 ac bd
       -0.27048573 0.096674055 0.13044643 -0.08414025
000170 b3 63 49 3c 31 75 47 be d0 6c 8a 3d cb b4 1f 3e
       0.012291837 -0.19478299 0.067590356 0.15596311

fc.bias f4 [3]
000000 af 73 bf 3d df d8 4c bb f4 c5 35 3d
       0.09348237 -0.0031257195 0.044378236
