trained_models/CNN/CNN_Zscore_CF8_pred_0.pth (torch, 37564 bytes, 10 tensors)

conv2d.weight f4 [16, 1, 4, 40]
000000 f2 15 ec 3c a3 c6 97 bc dd b9 0e bc 92 f8 32 bc
       0.028819058 -0.018527335 -0.008711305 -0.010923522
000010 bf 9c c0 3b da 44 10 3d 33 17 65 3d c8 3f 23 3d
       0.0058780606 0.035221912 0.055930328 0.03985575
000020 15 b2 f5 bc ae 9e 96 3d 4f c9 3e 3d e0 95 39 bd
       -0.029992143 0.073544845 0.0465787 -0.045308948
000030 3c ed 62 3c bb c6 29 3d 86 e7 d1 3d 2a f4 81 3b
       0.013850506 0.04144929 0.10249238 0.003965874
000040 db ce 29 bd c2 90 5a 3d e4 15 1c 3d b7 a5 f5 3c
       -0.04145704 0.053360708 0.038106814 0.029986246
000050 21 04 3a bd 97 74 76 bc 03 27 aa 3d 7f c2 32 3d
       -0.045414094 -0.015042446 0.08308222 0.043642517
000060 83 26 cd bc b5 50 a2 3b 63 df b5 3d eb bc 83 3d
       -0.025042778 0.0049534687 0.08880498 0.064325176
000070 a1 cf 60 3d 7e e4 e9 bd e0 bb 24 3d 5f 59 28 3d
       0.05488551 -0.114205346 0.040218234 0.041100856
000080 7a e1 b7 3d 2f 89 75 bd d4 3b fa bc 61 c9 7f 3d
       0.08978553 -0.05994528 -0.030546106 0.06244791
000090 23 a6 f8 3c 16 3d 80 3d d8 4b 8d bb 6b 28 b4 3b
       0.030352658 0.06261651 -0.00431202 0.0054979823
0000a0 a1 9c 99 3c 47 d8 56 bd 6b 19 38 bd 71 d7 f7 3d
       0.018751444 -0.052452352 -0.044946115 0.12101639
0000b0 c3 4f 4e bd 9e ac b1 bc 87 f7 41 bd cf 33 b3 3c
       -0.050369035 -0.021688756 -0.0473552 0.02187529
0000c0 19 80 b1 bc a3 ca f6 bc 73 95 85 3d 37 21 b9 3b
       -0.021667527 -0.030125922 0.06522646 0.0056497115
0000d0 48 0e cf 3d 25 c1 06 bd 1c 92 93 3d 02 1a a6 bc
       0.10110146 -0.03289904 0.072056025 -0.020276073
0000e0 23 4c c2 3c 1d 5f ae 3c 0c b9 a8 3d c6 8e 8b bd
       0.023717945 0.021285588 0.0823842 -0.06814341
0000f0 f0 e9 70 3d 53 80 a6 3c 08 8e aa 3d b6 da eb 3b
       0.05881685 0.020324862 0.083278716 0.0071977032
000100 a1 dd 34 3d 7d 39 cc bd b0 31 c2 3d 24 ec 08 3a
       0.044156674 -0.099719025 0.094821334 0.0005223176
000110 56 90 fe 3b 95 82 53 bd 12 8a c7 3d 28 5b 38 3d
       0.007768671 -0.051638205 0.09743132 0.04500881
000120 ae 44 fb bc e3 05 6a bc a5 3f 05 bc 45 e8 da 3d
       -0.030672397 -0.01428363 -0.00813285 0.10688833
000130 f4 39 2e 3d c8 1d c1 bc a9 e3 5d 3d 8d f7 4c 3d
       0.042535737 -0.023573771 0.05417219 0.05004077
000140 c8 96 f1 bb 96 e7 89 bc 7a 99 f4 ba 89 b2 78 bb
       -0.007372711 -0.016834062 -0.0018661462 -0.0037948212
000150 e7 a8 95 3c c6 f3 09 bc 61 fe 9b 3d fc 92 90 bb
       0.018269015 -0.0084199365 0.07616878 -0.004412053
000160 ee 5f 2a bd 8f 14 33 3d 09 25 0b bd 7b 05 3d bd
       -0.041595392 0.043720778 -0.033970866 -0.046147805
000170 fa e5 50 3d 15 cf 6f bc 99 91 9d bc 95 22 89 3c
       0.051000573 -0.014636775 -0.019234465 0.016740123
000180 3c 0b c6 bc 36 c9 8a 3d 5a 65 c1 3d d8 a5 b3 bb
       -0.024175279 0.06776659 0.094431594 -0.0054824166
000190 cc 7a 6f 3c 9b 63 78 bd 98 4a 2d 3d 2a 01 03 bd
       0.014616679 -0.060641866 0.042307466 -0.031983532
0001a0 b0 f8 fe bc 8e 47 e6 bd 73 d9 d2 3c 74 b5 0a bd
       -0.031124443 -0.11244117 0.025738453 -0.033864453
0001b0 73 3b 89 bc 38 dd 12 bd 04 7b 52 bb 1e d3 87 3d
       -0.01675198 -0.035855502 -0.003211678 0.06632064
0001c0 8a 67 aa 3d 39 76 92 bd 0b f5 a3 bc 72 76 d4 3d
       0.0832053 -0.071514554 -0.020014307 0.10374154
0001d0 98 a4 27 3d 32 bd 6f bd c7 5b a3 3c b2 97 53 3c
       0.040928453 -0.05853004 0.019941224 0.012914585
0001e0 0a 04 d0 3d 85 71 d8 3c b5 72 1a bd f7 b8 07 3d
       0.101570204 0.026421318 -0.03770705 0.03313538
0001f0 c0 53 95 3c 5c d5 88 bd 76 6e bd 3d 77 b0 d1 3d
       0.018228412 -0.0668132 0.092495844 0.10238736
000200 0a 65 f5 bc bd 77 84 3c 97 7e a5 bc 02 f1 b7 3d
       -0.029955406 0.016170377 -0.020201964 0.089815155
000210 25 45 bb 3c 1a 00 16 bd d7 24 ba 3d e1 70 85 bc
       0.02286012 -0.03662119 0.09089058 -0.016289176
000220 81 7d be 3d 0a a1 b8 3c 8a 28 af 3d 15 66 92 bd
       0.09301282 0.022537727 0.08552654 -0.07148377
000230 78 83 a3 3d 1d c8 b9 bc 8d 2f 30 bd 56 08 0d bd
       0.0798406 -0.02267843 -0.043014098 -0.034431778
000240 33 f8 51 3d 10 b0 ea bd 56 f9 a6 bc d7 9a 82 bd
       0.05126209 -0.114593625 -0.020382565 -0.063771896
000250 5c 51 50 bd df 92 98 bb 5b 02 6d 3d a7 5e 4d bd
       -0.05085884 -0.0046561803 0.057863574 -0.050139096
000260 29 2a 7d 3c 2e 22 da bd 83 c5 63 3d 9e 38 94 3c
       0.015451946 -0.106510505 0.055608284 0.018093403
000270 9f b8 f5 bc 40 8f 12 bc e9 14 bb 3d ae e3 0c 3d
       -0.02999526 -0.008945286 0.09134848 0.03439682
000280 c9 a3 0d 3d e9 75 c2 bc 90 29 bb bd db 44 98 3b
       0.034580026 -0.023737865 -0.09138787 0.00464688
000290 01 96 35 bd 74 66 a8 3c 83 91 97 bd d6 04 ed 3c
       -0.044332508 0.020556666 -0.07400801 0.02893297
0002a0 65 05 af 3c 84 bc 40 3e 28 58 c9 ba e4 a2 8b 3c
       0.021364877 0.18821913 -0.0015361356 0.017045446
0002b0 76 9a 75 bd 1a 72 fa bb 02 24 54 bc 90 0e ff bc
       -0.05996176 -0.0076429965 -0.012948038 -0.031134874
0002c0 17 df bb bd 58 fa 86 3d 2f 61 fd bc 62 96 9e 3d
       -0.091734104 0.06590718 -0.03093013 0.07743527
0002d0 5f 03 8f 3c 38 3c 95 3c 5a 42 c2 3c c0 98 c3 3d
       0.017457662 0.018217191 0.02371328 0.09550619
0002e0 c3 48 5e 3d fd 4d f4 bb 3d 08 4e bd 31 44 5d bd
       0.05426861 -0.007455586 -0.050300825 -0.05402011
0002f0 fd c0 51 bc 17 4f c3 bb ef b8 d0 3c 08 22 a5 bc
       -0.01280236 -0.005960356 0.025478808 -0.020157829
000300 07 33 9f bd db 1b 1d bd 31 6e 10 bd 22 ce 30 bd
       -0.077734046 -0.038356643 -0.035261337 -0.043165334
000310 5c 75 83 bd 2e 9e a9 3d 90 1a 3a bd 2b 36 da 3c
       -0.06418869 0.082821235 -0.04543549 0.026637157
000320 7d 0b 75 3d 47 d3 64 bd 17 27 6f bd 62 2e 22 3b
       0.05982541 -0.055865552 -0.05838689 0.0024746885
000330 9a 86 d6 bc 09 ff b0 3c 01 7f 92 bd e8 bf 86 3d
       -0.02618723 0.021605985 -0.0715313 0.06579572
000340 04 1d c3 bd 46 95 41 3e d4 0c 22 bd 23 78 83 bc
       -0.09527019 0.189046 -0.039563015 -0.016048497
000350 d6 bf 98 3c cf 1f 48 3d 5c d6 a2 bd 68 4d fc bd
       0.018646162 0.04885846 -0.07951042 -0.123194516
000360 ea 68 08 bd af 14 cc 3d e6 30 cc 3c 83 5b b4 bc
       -0.03330318 0.099648826 0.02492566 -0.022016292
000370 0f 69 6d 3d c6 5d 42 bd 49 ce 9d bd 58 da 87 3d
       0.05796152 -0.04745271 -0.077053614 0.06633443
000380 39 ee 7c bd a6 f3 c6 bc 7d cf b8 bc 05 08 93 bd
       -0.061750624 -0.024286103 -0.022559876 -0.07179264
000390 de 43 84 bc 8c 88 7b bd 9c 59 00 3c cb 3f 4e bc
       -0.016145643 -0.061409518 0.007833865 -0.012588452
0003a0 12 8e 4e 3d 17 ed bc 3d 61 15 79 bd 5c b4 92 bc
       0.050428458 0.09224909 -0.060811404 -0.017908268
0003b0 77 3d 26 bd eb f0 6a bd 2f 91 76 bd 1a a1 12 3d
       -0.04058596 -0.057358664 -0.06019705 0.03579817
0003c0 81 b3 f7 bc 44 d1 70 3d 21 02 12 bc 89 2a 08 3d
       -0.030236961 0.05879332 -0.00891164 0.03324369
0003d0 9f 41 99 bd d0 a3 41 3b 5a 8a 8e bd d8 0d d1 3b
       -0.07483219 0.0029547103 -0.06959982 0.006379824
0003e0 50 b9 8e bd 9e 52 b9 3d 1b fe 4e bc 85 f0 56 3d
       -0.06968939 0.09048961 -0.012633826 0.05247547
0003f0 fa cf 23 bd fd f4 48 bd 7a 41 28 3c ad ff 02 be
       -0.039993264 -0.049061764 0.010269517 -0.12792845

conv2d.bias f4 [16]
000000 93 46 40 bd 3f be ca 3c 31 56 a0 bd 73 ff 72 bd
       -0.046942305 0.02474892 -0.0782894 -0.059325647
000010 ab bc 1b bd 51 f7 8b bd 25 cb 02 bd 35 45 4e 3d
       -0.038021725 -0.06834281 -0.031932015 0.05035897
000020 03 5c 21 bd 89 1e 4f bd e2 f9 0d 3d 09 94 da bb
       -0.03939439 -0.05056623 0.034662135 -0.006670479
000030 73 35 34 bc ff c9 e4 bc a4 4a 9d 3c 84 61 49 bd
       -0.010999071 -0.02792835 0.01920063 -0.049165264

conv1d_1.weight f4 [16, 16, 4]
000000 52 ed e9 bd bc fc b6 3c 1f d8 d6 bd 28 a2 38 3b
       -0.114222184 0.02233731 -0.104904406 0.0028172825
000010 63 10 d4 3d 8f 52 98 bd fb 3d 6e bd a8 69 80 bd
       0.10354688 -0.07437622 -0.058164578 -0.06270152
000020 d9 e7 db 3c 34 64 0d 3e e8 e6 89 3d 25 1f 7b bd
       0.026843952 0.13807756 0.06733495 -0.061309
000030 8a 89 87 bc 41 e3 a4 bd 18 6f 9f bb f0 4e 93 3d
       -0.016545076 -0.08051158 -0.0048655383 0.071927905
000040 1e 76 36 3d 9a 28 3f bd 0a af ed 3c ed 98 2a 3d
       0.04454624 -0.04666958 0.02901413 0.041649748
000050 15 6e 3a be 16 c8 35 be 2a bb 29 be 15 db 23 be
       -0.18206055 -0.17752108 -0.16575304 -0.16001542
000060 94 f6 e9 bd 62 af b9 bc ae 88 95 bd 81 6f 88 bd
       -0.11423984 -0.022666637 -0.0730146 -0.06661893
000070 10 1a ac 3c fd af 01 3d d7 31 7e 3d e0 96 20 bd
       0.021008521 0.031661976 0.06205925 -0.039206386
000080 4e 53 c3 bc ed 5a 38 bc 61 ad b3 3d bf 60 0e 3e
       -0.023843434 -0.011252147 0.08773304 0.13904093
000090 01 f0 41 bd 34 76 a7 3d c5 61 45 3d ac 08 a3 3d
       -0.047348026 0.08176842 0.048188943 0.079606384
0000a0 4f 01 87 bb 6f 53 e5 3c 84 25 13 3e 5d e1 8e 3d
       -0.004120029 0.027993886 0.1436978 0.069765784
0000b0 98 16 d4 bd ad 6a 5a bc 6d 05 6c bd a9 82 26 be
       -0.10355872 -0.013331098 -0.057622362 -0.1626078
0000c0 9b 72 e9 3d d7 2a f1 3c 51 6b 5a bc 25 77 7e 3d
       0.113988124 0.029439373 -0.01333125 0.062125344
0000d0 4c 89 15 3e 66 51 0d bd d9 01 b5 3d d2 d7 a0 bd
       0.14603156 -0.034501456 0.08838243 -0.078536645
0000e0 eb 5c 09 be 63 d5 40 3c fa f8 e1 bd 0f 2c 56 be
       -0.13414352 0.011769625 -0.11033817 -0.20915245
0000f0 de 19 02 3d 04 a3 98 3d d8 e1 2d 3e 53 0a 33 3e
       0.03176295 0.07452968 0.16980684 0.17484407
000100 b2 b5 d8 bc cb e0 3e 3d 82 fc 74 3c 58 5b 27 3c
       -0.026453827 0.046601098 0.014952781 0.010214649
000110 31 0d 8e 3c 99 cd bc bd 96 34 00 bd 6d 6b a8 bc
       0.017340275 -0.09218902 -0.03130015 -0.020559037
000120 e3 37 fa 3d 6e 00 ac bc 71 3c 64 3c d8 76 73 3d
       0.12217691 -0.020996299 0.013930426 0.05943951
000130 db a8 14 be 57 7d 0a be d5 32 08 be 08 cf 76 bd
       -0.14517538 -0.13524376 -0.13300641 -0.060256034
000140 77 12 b4 bd 0e 8c 59 3c 8e 27 30 be fa e8 eb bd
       -0.087925844 0.013278021 -0.17202589 -0.11519046
000150 a5 aa bc 3d 9c 2d 9e 3d 66 0d 07 bd cb 0f eb 3d
       0.09212235 0.07723543 -0.032971762 0.11477622
000160 32 9b 23 be 03 cb 13 be ab 11 5e bc e5 b8 0c be
       -0.15977171 -0.14432912 -0.013554017 -0.13742407
000170 e0 ab 12 3d 68 53 70 3d 12 59 b4 bc e5 b0 bf bd
       0.035808444 0.058673292 -0.022015128 -0.09359912
000180 09 ca 10 bd fd 86 fb bc aa c3 ca 3d c5 f3 a6 3c
       -0.035348926 -0.030704016 0.09900601 0.02037991
000190 73 1f 5c bd 1b 16 ed bc 0d 77 d7 bd a7 33 07 3d
       -0.05374093 -0.028941205 -0.10520754 0.033008244
0001a0 5a 61 09 bc fa 1b 20 bc 1a 45 bd 3d 06 1e 01 3e
       -0.008385027 -0.009772295 0.09241696 0.1260911
0001b0 b5 6e 0c be d2 b2 df bd db 08 13 be 11 0b b8 3b
       -0.13714106 -0.10922779 -0.14358847 0.0056165536
0001c0 75 e2 1b bd 56 43 0d 3d da 76 1c 3d 8e 6e fa 3d
       -0.038057763 0.034488045 0.038199283 0.12228118
0001d0 7c 62 37 3d 48 2b a9 bc 0a 70 08 3d 94 75 00 3d
       0.044771656 -0.02065052 0.033309974 0.03136213
0001e0 2f 29 8e bd 2e 1e e9 bd da 09 a7 bd 0d 45 32 3d
       -0.06941449 -0.113827094 -0.08156176 0.043522883
0001f0 5c db 95 3d 87 fa 2e bc 67 bb 9f 3d 61 ce ac bd
       0.0731723 -0.010679848 0.07799416 -0.08437801
000200 04 14 c6 bd 7f 32 32 bd d7 f1 4f bd 1d 13 8b 3d
       -0.096717864 -0.043505188 -0.050767746 0.06790755
000210 03 9c 7d bd 37 f5 e0 38 84 42 00 bc 63 7c 60 3c
       -0.061916362 0.00010726827 -0.007828359 0.013701531
000220 c7 45 8d 3d 45 36 93 3d 18 59 75 bd f1 39 5c 3d
       0.068980746 0.071880855 -0.05989942 0.053766195
000230 e2 5f e7 3d a3 dd 2b 3e 3e 7e 0e 3e 99 d7 43 3e
       0.11297585 0.16783766 0.13915345 0.19125213
000240 61 fb 06 3e 22 67 c4 bc 6d 83 91 3c 87 98 1d 3d
       0.13181831 -0.023974959 0.017762864 0.03847554
000250 2d f3 d3 3c 58 db 66 3c 7f a4 e6 3d 17 71 0f 3e
       0.025872791 0.014090382 0.11261844 0.14007984
000260 c3 14 fa bd a9 9b 17 be 25 73 1a be 0a f3 24 be
       -0.12210991 -0.14805473 -0.15082987 -0.16108337
000270 f3 1b 23 3e a3 88 e1 3d 68 e0 21 3e 04 3d 8e 3d
       0.1592863 0.110123895 0.1580826 0.069452316
000280 13 2e 9a 3d 92 69 0c be 9a db 17 3d ea 58 ea bd
       0.07528319 -0.13712147 0.037074663 -0.1144274
000290 4a b7 2d 3e 12 f9 f0 bc 44 64 22 3e 85 1e 8e 3d
       0.1696445 -0.029415641 0.15858561 0.06939415
0002a0 a4 1b ed bd c9 56 94 bd bd 61 e7 bd 87 ad 69 bd
       -0.11577538 -0.072431155 -0.11297939 -0.057050254
0002b0 3a b8 64 3d c6 17 a0 3d a8 a6 b7 bd 80 81 f6 3c
       0.055839755 0.078170344 -0.08967334 0.030091047
0002c0 0d 47 77 3d a0 e2 01 3e 8c 90 ac bd ec 1f 91 3c
       0.060370494 0.12684107 -0.08426008 0.017715417
0002d0 f5 38 2a 3d 0c d3 ae bc 6c 6b 15 bd 9b 87 dd bd
       0.041558225 -0.02134087 -0.0364794 -0.1081688
0002e0 c0 dc 44 bc 51 14 aa bd b5 1b 1a 3e 97 9b a5 3b
       -0.0120155215 -0.08304656 0.15049632 0.005053948
0002f0 72 58 8d bd 09 1c 83 3d ec 69 a2 3d 2f a8 21 3e
       -0.06901635 0.06401832 0.07930359 0.15786813
000300 54 1a 0e 3e c5 7d c6 bd 35 3a fe 3c a9 43 15 3e
       0.13877231 -0.096919574 0.031033615 0.14576592
000310 04 2b 8f bd 4e 06 df 3c 5b 8c ef 3d 0e 7d 0a 3e
       -0.069906265 0.027224686 0.116966926 0.13524267
000320 89 58 dd 3d c4 f7 c6 3d f5 3b 01 3e cc 24 6d bd
       0.10807902 0.09715226 0.12620528 -0.05789642
000330 aa 58 e6 3c d4 48 9c 3d 9f c8 23 3e aa c0 34 3d
       0.02811845 0.07631078 0.159945 0.04412905
000340 b6 e7 ca 3d f0 ee ff bc e1 6e ef 3d b0 49 18 3e
       0.099074766 -0.031241864 0.1169107 0.1487186
000350 1f 90 15 bd 91 42 73 bb c8 48 70 3d de 0a 71 bd
       -0.036514398 -0.0037118534 0.05866316 -0.058848254
000360 3b 0c 00 bd 82 d1 83 3d d8 c9 9a bd f5 0c bf bc
       -0.031261664 0.06436445 -0.0755803 -0.023321608
000370 19 77 ae bc 75 fe 2b ba be 8f 69 3d b7 fe 36 bc
       -0.021297025 -0.00065610494 0.05702185 -0.011169127
000380 7e 27 94 3b a0 a5 e3 bc 8d 7b f8 bc 5c 74 b6 bd
       0.0045213094 -0.027788937 -0.030332351 -0.089089125
000390 86 19 b2 bd fb 10 a9 bc 7d f5 2b 3c df 75 e5 3c
       -0.086962745 -0.02063798 0.010495541 0.028010307
0003a0 d2 42 f1 bd 8a f7 9f 3d 04 4c 0a be 2f d2 38 bd
       -0.11780323 0.07810886 -0.1350556 -0.04512232
0003b0 2d 8a 1a 3e bd 63 c8 bc 3b 48 61 bd ce cd 00 bd
       0.15091772 -0.024461621 -0.055000525 -0.03144627
0003c0 1d 38 fe 3d a5 a8 16 bd 3c 19 c1 3d ae a6 04 bd
       0.124130465 -0.036781926 0.09428641 -0.03238552
0003d0 1d f4 f9 bd a2 e5 7f bc 9e 7a 78 bd 54 61 4e bc
       -0.12204764 -0.015618714 -0.06066381 -0.012596447
0003e0 c8 fa d9 3a 2b c0 19 3e e3 65 e7 3d 45 04 ee 3c
       0.0016630525 0.15014713 0.1129873 0.02905477
0003f0 d4 23 d3 3d 71 95 ff bc c2 48 a7 3d b1 eb 92 3c
       0.10309568 -0.031199189 0.08168174 0.017934652

conv1d_1.bias f4 [16]
000000 54 98 06 3d ee 93 0d bd f3 eb b1 bc 43 c5 c3 3d
       0.032860115 -0.034564905 -0.021718955 0.09559109
000010 5d d5 8b 3d 43 09 31 bd e3 5c 9f bd 64 fd c1 3d
       0.06827805 -0.043221723 -0.077813886 0.094721586
000020 ee a6 b4 bd 42 a5 97 3d 78 fb c4 3d c9 54 5b ba
       -0.08820902 0.07404567 0.09618276 -0.0008366821
000030 36 5d 29 3d 44 b7 aa 3d 25 b4 84 bd 32 9c 37 bc
       0.04134866 0.083357364 -0.06479672 -0.011206673

conv1d_2.weight f4 [32, 16, 3]
000000 92 6e 1f bd 5c df 40 3c b3 a1 0e 3e 1b 12 2c 3d
       -0.038923807 0.011772003 0.13928871 0.042009454
000010 2e d2 13 3e 7f b0 1c 3e 9a c4 40 bd 03 b2 a1 3d
       0.14435646 0.15301703 -0.047062494 0.07895281
000020 20 d1 2c 3d 94 e1 60 3d 06 11 09 bd 7d 56 59 3d
       0.042191625 0.054902628 -0.0334635 0.053060997
000030 23 58 20 be b4 4e d0 bd fe d2 ba bb c2 c5 92 3c
       -0.15658621 -0.101712614 -0.0057014218 0.017916564
000040 8e 59 91 3d b4 13 a1 3d a0 97 28 3d da 8b 78 3e
       0.07097159 0.07865086 0.041160226 0.24272099
000050 6b 95 5a 3e 34 b5 ba 3d e5 51 62 3d 11 5d e3 3c
       0.21346061 0.09116593 0.055253882 0.027754338
000060 65 92 39 3e f0 8c 82 3d a6 f7 47 3e 7a 1f eb bd
       0.18122251 0.06374538 0.19528064 -0.11480613
000070 75 62 c8 bd 9e 1f 79 bd 8d 35 86 bd 34 ab e5 3d
       -0.09784404 -0.060821168 -0.06553183 0.11214295
000080 54 cd 35 bd 11 a2 b9 bc 6c 8b e8 bc 0e d7 5e bc
       -0.04438527 -0.022660287 -0.028386794 -0.013601078
000090 40 45 e5 3d 62 a4 2b 3d 94 02 00 3d 92 c1 98 3d
       0.11194849 0.041904815 0.03125246 0.074587956
0000a0 f4 c3 01 3d 76 75 0b be 34 eb bd bd df 3f 00 3e
       0.031681016 -0.13619027 -0.09273377 0.12524365
0000b0 5c 73 1b bd 74 24 33 3c b2 d6 00 be 97 07 1b bd
       -0.037951812 0.010933984 -0.125819 -0.037849035
0000c0 c3 73 a4 3d 24 e0 69 3d 72 7f c9 ba 98 cf 06 bd
       0.08029892 0.057098523 -0.0015373065 -0.03291282
0000d0 43 ff db bd 82 82 29 bd 15 4d fb bc ae 0c 8e 3d
       -0.10742047 -0.041384228 -0.030676404 0.06936012
0000e0 c1 43 75 bd ac 68 df ba 00 ed 68 bd f6 8b 7f 3c
       -0.05987907 -0.0017044744 -0.056866646 0.015597334
0000f0 83 9d d4 bd 2a cf fa 3d 3b dd 04 3e e8 f7 c7 bd
       -0.103816055 0.12246545 0.12975018 -0.09764081
000100 a7 db 21 be 0d 50 87 bd e0 1c 8a bd 35 38 3e be
       -0.15806447 -0.06607065 -0.06743789 -0.18576129
000110 38 48 9d 3d 67 5b e8 3d a7 c1 24 3e 70 73 98 3d
       0.0767979 0.113455586 0.16089498 0.07443893
000120 43 a7 de bd 18 bc 0f bd 36 2c 60 3d 29 6b be bd
       -0.108717464 -0.03509149 0.054729663 -0.09297783
000130 2b 37 0d 3d c1 82 92 3c f8 07 37 3d f4 58 fa 3c
       0.03447644 0.017884614 0.044685334 0.030559994
000140 b4 99 7b 3d ba 9a e8 3d b8 f5 1d 3e 3b dc c5 3d
       0.06142588 0.11357637 0.15425766 0.09661146
000150 fe 1b 8c bd bd 54 ad 3c 9d 8b 03 3e d2 a0 36 be
       -0.068412766 0.02115857 0.12846227 -0.17834786
000160 ce 11 20 3c 3a 62 4d be b8 44 16 3e 74 22 0c 3e
       0.00976987 -0.20057002 0.14674652 0.13685018
000170 07 4a d2 bc 73 a6 08 3e 68 d4 7d ba 9a 22 31 3e
       -0.025670065 0.13344745 -0.0009682835 0.17298356
000180 80 80 a4 3d 13 39 9f 3d 8a 22 ba 3d 18 3c 3d be
       0.08032322 0.07774558 0.09088619 -0.18479955
000190 b2 0f 9d 3d f5 de ab b9 f1 bf 2a 3b 62 4d ee 3d
       0.07669009 -0.00032781778 0.0026054347 0.11635853
0001a0 4d 41 ec bc a5 3b 22 3d 7d be d7 bd 55 78 de bd
       -0.028839732 0.039607663 -0.1053438 -0.10862795
0001b0 ab 5b eb 3d 13 b1 1d 3c 82 f3 ff 3d 0e 8d fd bd
       0.11492094 0.009624737 0.12497617 -0.1238042
0001c0 11 af 7a 3d 37 93 13 be 90 41 8d 3d 1a c4 d3 bd
       0.061202113 -0.14411627 0.06897271 -0.10340138
0001d0 93 71 15 be 28 d5 a4 bd a4 34 0a bd 09 da ca bc
       -0.14594106 -0.08048469 -0.03374161 -0.02476217
0001e0 62 5a 34 be cd bc 04 be 7e 05 a4 3c 9a 5f c0 bd
       -0.17612603 -0.12962647 0.02002215 -0.093932346
0001f0 e2 2f e5 3d 22 06 d8 3d 1e f7 e3 bc 5f df ea ba
       0.111907735 0.10548045 -0.027827796 -0.0017919353
000200 fb 33 b4 bd 7c b6 16 3e b7 64 09 3e 1e 89 1d 3e
       -0.08798977 0.1471805 0.13417326 0.15384337
000210 e1 7e 13 bd 5d 83 0f 3e f8 8f 35 3e fb bf e0 bd
       -0.036009673 0.14014955 0.17730701 -0.10974117
000220 70 6f 3e be 93 38 3d be 1e 3c 69 bd 35 0d 91 3d
       -0.18597198 -0.18478613 -0.056942098 0.07082597
000230 0e 7b 02 3e 50 83 30 3e 2d 54 9c bd e6 02 3f 3e
       0.12742254 0.17237592 -0.07633243 0.1865345
000240 66 4e a6 3d 84 55 7f bd 3e 6d 36 3e f1 b3 1a 3d
       0.08120422 -0.062337413 0.1781511 0.03776926
000250 bb 55 bd 3d b7 87 a3 3b 17 94 76 bc 34 c3 f8 3c
       0.092448674 0.0049905437 -0.015049956 0.030366518
000260 75 16 79 bd e1 85 cf bd 6d 78 15 be 99 75 09 be
       -0.060812432 -0.10132957 -0.1459672 -0.13423766
000270 70 d2 97 3d 06 c1 e8 bd ed 5a 36 3d ee 7e 02 b9
       0.07413185 -0.11364941 0.044520307 -0.00012445051
000280 0d 56 e4 bc b3 3c fb 3d 72 30 c3 3d d8 a4 8d bd
       -0.027873063 0.12267437 0.095307246 -0.06916207
000290 70 c6 44 3e 9c e4 0e 3d 7b c3 07 3e af 03 b4 3d
       0.19216323 0.034885988 0.13258164 0.08789765
0002a0 12 46 15 bd 1f 87 01 3e c8 71 cb 3d db 38 81 3c
       -0.036443777 0.12649201 0.099338114 0.015774181
0002b0 8a 4f 61 3d 69 22 1d 3e 98 65 79 bd bb 22 f6 bd
       0.055007495 0.15345158 -0.060887903 -0.12018343
0002c0 00 fe b7 bc e3 cc 0e 3e e5 26 56 bc 59 1e bf bd
       -0.022459984 0.13945346 -0.013070797 -0.0933196
0002d0 8b 57 fa bd 8d 5e ec 3c 71 84 92 3d df 9d a3 3c
       -0.12223729 0.02885368 0.071541674 0.01997274
0002e0 47 2b a6 bd c4 55 b6 3a 27 08 0a 3e ec a2 90 bd
       -0.08113723 0.0013911058 0.13479672 -0.07062325
0002f0 f2 f6 d3 3d 0d 67 00 be c3 51 40 bd 13 40 cc 3d
       0.103498355 -0.12539311 -0.046952974 0.09973159
000300 cc 27 b3 3d f3 30 16 3e 58 41 ec 3b 75 55 0f 3c
       0.08747825 0.1466711 0.007209938 0.008748402
000310 e3 6c 04 3c 30 d4 1a be 62 fc 9f 3d 7b 5b 84 bd
       0.008082601 -0.15120006 0.0781181 -0.06462761
000320 7b 71 bd 3d fe bd 9d 3d 4c 0d 82 3d 8b 42 03 bd
       0.0925016 0.07702254 0.063501924 -0.032045882
000330 69 2b 31 bd 81 ff 07 3d 08 03 12 3e 48 99 cb bd
       -0.04325429 0.033202652 0.14258969 -0.099413455
000340 0c 17 be 3d 4c 1a 0d bd 21 54 cf bd a6 1c 1e be
       0.092817396 -0.034448907 -0.10123468 -0.15440616
000350 50 47 58 be f1 d9 97 3d d7 e7 54 3d f7 69 99 bd
       -0.21120954 0.07414616 0.051978912 -0.07490914
000360 08 b7 6e bb 87 cc 46 bd a1 29 2b be 66 e8 7a 3c
       -0.0036425013 -0.048534896 -0.16715099 0.015314197
000370 7d e1 49 bd ee 28 df 3c cd be b2 bc 91 98 6f bd
       -0.049287308 0.027241196 -0.021819497 -0.058495108
000380 bf 5f af 3d 3c a6 de bd e0 e4 c2 3c 10 82 c6 bc
       0.08563184 -0.108715504 0.023790777 -0.02423194
000390 fc db 23 3e ad 04 ca bd 86 20 a0 3d 2b 8d a5 3c
       0.16001886 -0.09864173 0.07818703 0.020208916
0003a0 54 37 2e be e5 6c f6 bc dd 9f 33 3e 16 7c 1d 3e
       -0.17013294 -0.030081222 0.17541452 0.15379366
0003b0 12 35 bb 3d 50 54 07 3c 1f 40 3d bd 49 0d 1a 3e
       0.09140982 0.008259848 -0.04620373 0.1504413
0003c0 95 e2 80 3d e5 a1 bb bc 59 74 2e bd 23 2e 00 be
       0.06293217 -0.022904346 -0.042591427 -0.125176
0003d0 3a 65 1a be 51 72 8e bd 38 d1 36 bd fc 58 1d 3e
       -0.15077677 -0.06955398 -0.04463312 0.15365976
0003e0 fa 85 20 3e 70 06 ee bc 93 79 15 3e 2c 9b e1 bc
       0.15676108 -0.029055804 0.14597158 -0.027539812
0003f0 f2 fb c0 bd 3f 64 03 be db 9e a4 3d 7b ba a7 3d
       -0.09423055 -0.1283121 0.08038112 0.08189865

conv1d_2.bias f4 [32]
000000 56 f2 09 be 3a 07 96 bd a7 52 f7 bc a2 8c 19 bd
       -0.1347135 -0.07325597 -0.030190779 -0.037487634
000010 2c 4d 20 bd bf 02 0c be 7b 11 93 3d 42 6a 2e 3e
       -0.039136097 -0.13672923 0.071810685 0.17032722
000020 17 01 ab 3d eb 00 b3 3d 2a ac 54 3c 74 d2 29 bc
       0.08349817 0.087404095 0.0129805 -0.010365117
000030 70 c7 9c 3d e4 07 00 be 32 06 e2 bd 8f 3c 38 bb
       0.07655227 -0.1250301 -0.11036338 -0.0028112268
000040 5e 6c c8 3d 98 e0 0e bc 53 84 90 3d 1e 64 99 bc
       0.097862944 -0.0087205395 0.07056489 -0.018724497
000050 7b 81 e0 bd 32 2c f7 bb 4a 56 94 bd f6 4b 1e 3e
       -0.109621964 -0.0075431103 -0.07243021 0.15458664
000060 73 c6 78 3d ff 58 9f bd 3c 30 f1 bd 98 e5 17 be
       0.06073613 -0.077806465 -0.11776778 -0.14833677
000070 ac 4a 60 3d 57 41 b2 3d a9 3e 92 bc e6 54 93 bd
       0.054758713 0.08703869 -0.017852144 -0.071939275

conv1d_3.weight f4 [32, 32, 3]
000000 2b f5 48 bc 55 b1 17 3c 56 b1 11 bd a6 c8 3c bd
       -0.012265484 0.009258588 -0.03556951 -0.04608979
000010 e2 a6 14 3e 40 90 cd 3d df 89 1c 3d 7e 6c fd 3d
       0.14516786 0.10037279 0.03821742 0.12374209
000020 3e 65 bf 3c dd f8 4b bc c2 6e 4f 3d 63 0c d2 3d
       0.023363706 -0.01244947 0.050642736 0.10256269
000030 29 dc 95 bc 01 bf b0 bc 30 78 b1 3d 52 45 9b 3b
       -0.018293457 -0.021575453 0.08665502 0.0047384882
000040 5a a0 0c 3e 2d 37 08 bc 5d 86 36 3d 8c 35 1e 3d
       0.13733044 -0.008313936 0.044561733 0.038625285
000050 b5 2d 97 3d a3 ce bd 3b 4e 69 2d bb 4b 3e 7a bd
       0.07381765 0.0057924553 -0.0026460472 -0.061094563
000060 4d f0 34 bd 16 e3 47 3c 01 ed 9b 3d a8 62 0a 3e
       -0.04417448 0.012200138 0.07613564 0.13514197
000070 5f 51 9c 3d 38 0c 81 3d 87 a7 87 bd d6 aa 96 3d
       0.07632708 0.06301159 -0.0662375 0.07356803
000080 67 e9 0f bc 30 60 19 3d 50 76 7b 3d 17 ec 66 3d
       -0.008783675 0.037445247 0.06139213 0.056377497
000090 07 14 af 3d d0 55 1c bd 93 53 b3 bc f9 06 e8 bc
       0.08548742 -0.038167775 -0.021890437 -0.028323637
0000a0 c3 fe 41 bd a1 0b 3d 3c d2 2e 58 bd 29 7d 85 bd
       -0.0473621 0.011538417 -0.052779026 -0.06518013
0000b0 f4 4f 44 3b de a5 76 bb 13 b1 30 3b 94 57 5c 3c
       0.0029954882 -0.0037635486 0.0026961013 0.013448615
0000c0 6d 0e fe bc ab d8 95 3d b3 4b d6 3d 82 a2 06 3d
       -0.031012738 0.07316717 0.10463657 0.032869823
0000d0 a6 32 1e 3e f0 f4 80 3d e6 30 85 3c b3 9f 00 bd
       0.15449008 0.06296718 0.016258668 -0.0314023
0000e0 13 76 c7 3c f5 27 12 3e 6c 76 22 3d dd 42 20 3d
       0.024348294 0.14273055 0.039663717 0.039126266
0000f0 bf ac 34 3c 7c 08 b4 bd 7c 4a 6c 3d 29 bd b5 3d
       0.011027514 -0.08790681 0.05768822 0.0887397
000100 87 a8 c1 3c 65 3a 25 3d 07 25 0a 3c 52 06 a6 bd
       0.02363993 0.040338892 0.00843168 -0.08106674
000110 dd 69 eb bd 95 ff c3 bd e1 5b 9e 3d 30 bd 31 bd
       -0.11494801 -0.09570233 0.07732368 -0.043393314
000120 f6 f1 e1 bc fb c7 7f bd 36 5e c7 3d e0 71 05 3e
       -0.027581196 -0.062446576 0.09734766 0.13031721
000130 5a 26 bb 3d 71 66 4f 3e c9 bd 3d 3e 55 70 04 3e
       0.09138174 0.20253922 0.18529429 0.12933476
000140 3e 52 fa 3d 3d e9 a5 3d b6 a8 c2 3d 88 07 f6 bc
       0.12222718 0.08101127 0.09504835 -0.030032888
000150 1f ba 3d 3c 98 48 3d 3e b9 bd 3d 3e 5d 3c 47 bd
       0.011580019 0.18484724 0.18529405 -0.04864155
000160 0a 48 65 bd f6 dd 4e bb 17 9a 96 3d 3e a0 56 3c
       -0.055976905 -0.0031565404 0.07353609 0.013099728
000170 11 49 fd 3d 94 f9 f4 bb 71 ca 78 3d bc 27 b1 bd
       0.12367452 -0.007476041 0.06073994 -0.08650157
000180 f7 1b 4c bc a1 5c 4a bd a9 37 e1 3c 4f af 07 3d
       -0.012457839 -0.049404744 0.027492361 0.03312617
000190 50 a6 16 3d 5c f9 40 3d 11 5d c0 bd 22 ba e0 bc
       0.0367797 0.047112808 -0.09392751 -0.027432505
0001a0 54 da f8 bc 4c 5d 88 bd d6 4f a3 bd db 87 81 bd
       -0.030377544 -0.0665842 -0.07974212 -0.063247405
0001b0 3a 6a 25 3d 36 4a 83 bd 48 1f a0 bd 0c 4c f3 bd
       0.04038451 -0.06410639 -0.078184664 -0.11879739
0001c0 5b 74 cb bc 76 ae 8e bd 0f 48 93 3d e2 32 ce 3d
       -0.024835756 -0.069668695 0.071914785 0.10068299
0001d0 e7 a1 99 bd ce 8b 34 3d e6 c2 7d bc c7 42 fb 3d
       -0.075015835 0.04407864 -0.015488362 0.12268596
0001e0 b6 56 60 bd 01 e9 be 3d ca 79 98 3d e3 df 49 3d
       -0.054770194 0.09321786 0.074451044 0.04928578
0001f0 79 25 96 3d d2 c2 68 3d 90 ba a3 bb 82 16 93 3d
       0.07331366 0.05682642 -0.004996605 0.071820274
000200 c7 50 2d 3c 57 25 81 bd 9d 2d a8 3c d4 91 46 3d
       0.010578341 -0.0630595 0.020529563 0.048478916
000210 39 11 2f bd 64 98 57 bd 38 bb d3 3d 09 8e 01 3d
       -0.042741034 -0.052635565 0.103384435 0.031629596
000220 c6 23 15 bd e5 88 b2 3d c8 1f 64 3c b0 88 2f 3d
       -0.03641107 0.08717517 0.013923593 0.042854965
000230 ec 02 61 bd ae 93 a3 3d ab 17 c6 bc f9 37 95 bd
       -0.054934427 0.07987152 -0.024181208 -0.072860666
000240 e5 ed a9 bc 5d d9 04 bd 90 f9 06 bc 2b d1 d9 3b
       -0.02074332 -0.032433856 -0.008238211 0.006647249
000250 9d 1b af bd 4e f4 c5 3a 86 fb 68 3d a7 dd 1f 3d
       -0.08550189 0.0015102716 0.056880496 0.039029744
000260 94 d4 0d 3d 3b c8 89 bd 15 7b 71 3d 29 a2 d1 3c
       0.03462656 -0.06727644 0.05895527 0.02559002
000270 45 c1 47 3b 5f 0a 55 3d c4 a8 e5 bd 31 c3 e0 bd
       0.0030480188 0.052011844 -0.1121383 -0.1097473
000280 b5 f3 a2 3d d9 b7 2d 3d 2c 77 22 bb 69 4d af bc
       0.0795664 0.04241166 -0.002479027 -0.021399217
000290 2e 3a c3 bd 93 a5 4d 3d 20 c6 a6 3d bf eb 87 bd
       -0.09532581 0.050206732 0.08143258 -0.06636762
0002a0 97 b7 dc bc fb f1 80 bd 75 f2 56 ba 5d cd 20 3c
       -0.026943011 -0.06296154 -0.0008199581 0.009814587
0002b0 6e b1 01 be e7 75 c8 bd 33 7e 90 3a b5 0b 09 be
       -0.1266534 -0.09788113 0.0011023938 -0.13383372
0002c0 65 10 26 bc 7d 24 09 be 29 5a 0c be b9 e6 16 be
       -0.010135745 -0.13392825 -0.13706268 -0.14736451
0002d0 4a fb 2b 3d 02 6e 98 bd 2a 2b 92 bd f7 13 96 bd
       0.041987695 -0.07442857 -0.07137139 -0.07328027
0002e0 2c b1 31 bd 8f d9 a1 bd da 5e 51 bd c6 bb 05 be
       -0.043381855 -0.07902824 -0.051115848 -0.13059911
0002f0 86 a7 ef 3c b1 4b 83 3d cb 54 c7 bd 4b f7 b0 b9
       0.029254686 0.06410921 -0.0973297 -0.00033753584
000300 91 6d f4 3c d1 d3 cf bd 66 7a a5 bd 85 47 03 3d
       0.029837402 -0.10147823 -0.08079986 0.03205063
000310 0c 20 91 bc c4 d6 63 bd fb 06 8b 3d 59 7b fa bc
       -0.017715476 -0.05562474 0.06788441 -0.030576395
000320 f6 59 7e 3d e7 0e c7 3d ae a8 39 bd d7 6d 80 bd
       0.062097512 0.09719639 -0.04532688 -0.0627095
000330 33 18 91 bd 92 5b ed bd 2d 9d c3 bd 21 b9 57 3d
       -0.07084694 -0.11589731 -0.09551463 0.052666787
000340 85 f5 19 3d a4 8e 33 3d 16 4c 83 bd ee 4a 81 bd
       0.03758766 0.043837205 -0.064109966 -0.0631312
000350 49 e6 ff bc ac 4d 92 3c e3 31 56 3d 74 ba 43 3d
       -0.031237738 0.017859302 0.05229367 0.047785237
000360 46 13 c3 3d 10 4d 1a bd 32 02 b6 bc 52 f4 9a 3d
       0.095251605 -0.03767115 -0.022217844 0.07566132
000370 76 b8 23 3d d8 5a bb 3d 93 ea af 3b 2c 82 b4 bd
       0.039970838 0.091481864 0.0053685396 -0.08813891
000380 49 88 a3 3d 28 08 d0 bd 19 cc 7d 3c 20 6b c2 bd
       0.07984979 -0.10157806 0.015490555 -0.09493089
000390 44 59 a1 3d e1 e1 f0 3d ac f4 11 bd f3 7f ae bd
       0.07878354 0.11761833 -0.035633728 -0.08520498
0003a0 fb 9f 4a bd 45 e0 80 bd a0 86 cd bd ae 9e e4 bd
       -0.049468976 -0.06292776 -0.10035443 -0.11163078
0003b0 b5 67 75 3d ca fc 94 3c 06 45 00 3e f9 9f f4 3d
       0.059913356 0.018186945 0.1252633 0.11944575
0003c0 ed 87 31 bd 19 b1 69 3d f7 19 3e 3b 54 3c ae bc
       -0.04334252 0.05705366 0.0029007175 -0.021269001
0003d0 6d 46 01 be cb 68 db bd 98 84 9e 3c 57 50 dc 3c
       -0.12624522 -0.10713347 0.019350335 0.026893778
0003e0 26 ad 1b 3d 18 52 e3 3b d9 e6 0a be 2b c0 0f be
       0.038006924 0.0069372766 -0.13564624 -0.1403815
0003f0 92 dc b7 3b a5 b8 61 bd 6b 2e 2f 3d 68 7c a2 3d
       0.005611011 -0.05510773 0.042768877 0.07933885

conv1d_3.bias f4 [32]
000000 4b da 63 3c 0b 26 e0 3d 24 ab e9 3d a5 20 1a bc
       0.013907026 0.10944756 0.114095956 -0.009407197
000010 34 49 94 3d 81 57 31 bd 09 6f 19 bd bc 67 63 3d
       0.07240525 -0.04329634 -0.037459407 0.05551885
000020 b6 e4 95 3d 23 6a 50 bc 56 63 46 3d df 95 f4 bd
       0.07319014 -0.0127206175 0.048434578 -0.11942648
000030 9d 35 a4 3d 8b cd 63 bd 5b 77 82 3d cc df 33 3d
       0.080180384 -0.055615943 0.063704215 0.0439146
000040 90 1b f2 3c 27 f2 ae 3b 2d b4 bf 3d bf 44 d5 3b
       0.029554158 0.0053389254 0.09360538 0.0065084393
000050 07 46 a7 bd e1 99 2e 3d e1 0c 4e bb 55 ea a3 bd
       -0.081676535 0.04262722 -0.0031440782 -0.0800368
000060 f0 34 60 bb 54 36 3b 3d c7 00 6e bd 51 45 90 3d
       -0.003421124 0.04570611 -0.05810621 0.07044471
000070 eb 5b d0 bb 98 79 12 bd 65 7c 00 3c bd 88 c6 bd
       -0.0063586137 -0.035760492 0.007842158 -0.096940495

fc.weight f4 [3, 32]
000000 32 44 b9 3d bb d6 0f 3e ae 91 e6 3c 13 5f eb 3c
       0.0904621 0.14046757 0.028145637 0.028731858
000010 e0 53 d4 3d ea 0e 01 3d 70 d2 00 3e 09 6d 72 bd
       0.103675604 0.031508364 0.12580276 -0.059186015
000020 42 df b7 3d 42 f3 10 3d 21 5c ce 3d 06 c1 fa 3d
       0.0897813 0.03538824 0.10076166 0.122438475
000030 d3 37 14 3d c8 92 cd 3c 75 1a ba bd bb 1f 59 be
       0.03618605 0.025094405 -0.090870775 -0.2120351
000040 8a 6a 38 3e 8f 5a 07 3e a8 90 8a 3d bc 7b 63 be
       0.18009391 0.13218139 0.06765872 -0.2221517
000050 22 ce 50 be df 19 ab 3d 67 0e 62 bd ec 29 3b 3e
       -0.20391133 0.08354544 -0.055189516 0.1827771
000060 18 42 91 bd c5 97 51 be 0b 06 d6 bc de e6 18 be
       -0.070926845 -0.20468052 -0.026125928 -0.14931819
000070 ce 90 30 3e 3a 17 0e be de f1 2e be 5d c5 3a be
       0.17242739 -0.13876048 -0.17084453 -0.1823935
000080 3a c1 67 3e e2 c5 04 be 94 3e 09 be 15 3b 83 be
       0.22632304 -0.12966111 -0.13402778 -0.25631014
000090 8a 69 36 bd b6 94 6a 3e 7c 69 16 be c2 f3 39 3e
       -0.044534244 0.22908291 -0.14688677 0.18159392
0000a0 53 b0 6c be 21 de 2f 3e 4c 24 29 be 11 d5 04 be
       -0.23114137 0.17174579 -0.16517752 -0.12971903
0000b0 7e 74 0a 3c db 65 02 3e 35 2f 5a 3e 63 bf 86 3d
       0.008450625 0.12734167 0.2130707 0.06579473
0000c0 10 bc b3 3c e8 2e eb bd f6 bc 76 bd 9b 9d f1 3d
       0.021940261 -0.11483556 -0.0602388 0.11797639
0000d0 f1 44 a2 bc bd 07 30 be ef c2 10 3e 75 75 40 bd
       -0.019808264 -0.17190452 0.14136861 -0.046987016
0000e0 8e b5 e5 bd 1c 74 fa 3d 16 f4 21 be 82 77 ad 3c
       -0.112162694 0.12229177 -0.15815768 0.02117515
0000f0 a4 1f 4c be c1 63 ae 3d 66 ad a2 3d 74 f9 06 3e
       -0.19933945 0.0851512 0.079432294 0.13181096
000100 94 b5 10 3e d0 76 43 bd ff 7d b4 bd cf 9f 29 3e
       0.14131767 -0.04772073 -0.08813094 0.16564868
000110 b6 7c 32 3d e7 7a 4d be 48 81 56 3d da 4b b3 3d
       0.043575965 -0.20066415 0.052369386 0.08754702
000120 28 bc 00 3e 49 09 e9 bd 3c 3e 1b be ab c4 d6 bd
       0.12571776 -0.11378724 -0.1516046 -0.1048673
000130 c7 92 29 3e 8c 2e 0e be d9 df f8 bd fa 52 a9 bd
       0.16559897 -0.13884944 -0.121520706 -0.0826778
000140 63 25 72 bd 91 4d 4f 3e d2 13 7c 3e e3 a4 3c bd
       -0.059117686 0.20244433 0.24616936 -0.046055686
000150 21 2c 3d bd c1 ba 48 3e 80 22 a0 bc 75 5f 9a bc
       -0.046184663 0.19602491 -0.0195477 -0.018844346
000160 6f a6 d8 3d 8c 05 43 be ec b7 8e 3e ca c9 85 bd
       0.1057862 -0.19045085 0.27874696 -0.06532629
000170 2b 48 56 3e 66 4f 71 3c b0 44 e6 bd df 18 15 bd
       0.20925967 0.014728403 -0.1124357 -0.036400672

fc.bias f4 [3]
000000 a9 d7 30 3d 3c 70 b7 3d 16 2c ab bd
       0.04317442 0.08956954 -0.08358018
