trained_models/CNN/CNN_Zscore_CF3_pred_4.pth (torch, 37564 bytes, 10 tensors)

conv2d.weight f4 [16, 1, 4, 40]
00000000: 75e2 3a3d 0d3b b33d d74c 29bd df13 8b3d
00000010: 9748 0abd 6ecc da3c 22be 59bc 6766 aa3d
00000020: 4c79 72bc 941f b3bd 6f8e 093d c87c 153c
00000030: e6ad 6cbd 7bf4 233d aaa5 8ebd b94e 29bc
00000040: 53e6 a2bb 88b1 fbbc 7fb9 ee39 83ab cb3b
00000050: 80c4 4a3d 6f46 10bd b011 413c b6c4 debd
00000060: 3b72 233c a663 c4bd a2d5 7abd 922f 733c
00000070: 70b9 a6bd 9b44 a839 8858 a83c 3bbd c23c
00000080: e3eb a5bd 78d0 15bd 5e33 50bc 6534 1a3d
00000090: c9e5 3a3d eae2 05bd cb0a 023d 293d d6bd
000000a0: f2d1 553d cde6 163d 78b6 32bd 9a1b 763d
000000b0: 43ff c93c 52b8 cd3d e425 e8bc 65a1 18bc
000000c0: 2bda 50bd 5d26 41bd a2c1 aebd 547f 443c
000000d0: 894f a83c 1bff e13c 6d2b 723d 5759 cf3d
000000e0: 5b7d 723d 6668 453d 7fca a0bd c7d5 b33c
000000f0: 6830 953c 39b0 91bd 7a8b 54bc 5730 1fbe
00000100: 0fd8 93bd ac34 7dbd 4734 213d 27cd 61bc
00000110: 7cb6 18bd 38f7 3f3d 4992 033d 5225 a63c
00000120: a214 a33c b09f 73bd a12a 013d 7442 13bd
00000130: 3514 0e3d 1b1b 073c 4322 7b3d ac62 e13c
00000140: 75ea a3bd 249e 9c3d 1a6c 7bbb 68a1 dfbc
00000150: 1b64 f13b 3b7c d03c 8641 543d 4d5c 8dbb
00000160: 91da 28bd 0839 3d3d 0f6c 97bd 1540 073d
00000170: 226d 47bc c914 b73d 36a7 a4bd e51f 273e
00000180: 4560 6abc 6eb5 7e3c e407 cb3c f9cf 39bd
00000190: 1a9e 35bc b6f7 8e3c af46 833d 0477 4cbd
000001a0: 353b 433c a128 37bd 094a 873c 01b6 a83c
000001b0: d27c 923b 5b3e 9c39 727d a2bd 45ca 90bb
000001c0: 249c 98bd 2a8c a8bd 9eb3 6fbd d069 92bd
000001d0: e8f3 173d 2f73 8ebd d31d 5c3d 28d7 1b3d
000001e0: ea50 d93c be73 d3bc 9e5c 01bd 0659 7a3d
000001f0: 0f41 49bc a65e 143b 00f4 27bd 65ce 97bc
00000200: 39d0 583d c026 1a3b 87a5 a33c d510 a53d
00000210: 5d47 b93b f6bb 963d 4f9a 383d 8b47 f43d
00000220: 75bb e23c 0c2d 523d 0767 abbc dba0 2336
00000230: bd51 92bd 1a22 60bb e902 93bc 690a 07bd
00000240: ac2e 833b 032b 0ebc e3ab 713d 3daf 963d
00000250: bc1d 5cbd 15fd 483d 0e3a ed3c 745b cbbd
00000260: aa06 8e3c 6e62 49bd 1813 66bc 8a8c 87bc
00000270: b15d 763d 1809 b2bd e55f 383d caa9 81bc
00000280: 76f1 033d 1490 87be 3a7b e63b f7a6 283d
00000290: 8161 0abd 4dcc 8a3d 66e0 2ebd 1364 643d
000002a0: 2fab 54bd 47f7 d13c e676 84bd 8bf1 46bc
000002b0: 3dd4 64bd ae78 e33c c81e f13c 79c1 3fbd
000002c0: 8b58 bdbc a4e7 eebd 272c bbb9 573b aebc
000002d0: 3a03 65bc 1b4f 42bd f91e 783d b620 473a
000002e0: bacf 4a3d a73f babd e929 1cbd 2b59 fb3d
000002f0: 2ad3 65bd f3e8 a6bd bf79 643d 0690 9bbc
00000300: 0902 4d3a 4680 a6b9 4421 9cbb c408 14bd
00000310: c319 01bb 9698 1cbd 6aa0 293c 2466 0fbd
00000320: ec6b 453d a7f3 65be d92a 31bc d505 5cbc
00000330: 8ebd 563d 3cc1 d93c 3efa 543d 2c56 0eba
00000340: 6121 563b 889a 7e3d 2a11 b53c e32c 9abd
00000350: 586f 9bbc 18a9 52bc 025c c43c 455c c9bd
00000360: 140e b33c ac22 3fbd a6d0 9b3c 5005 edbc
00000370: 3e72 1abd 81da 1ebd ead1 41bd 9451 cebc
00000380: 8d64 213d 617c 6c3c b177 7d3d 9faf 113e
00000390: bcf4 30bd 81d4 a73d 42f2 8ebc a764 c73d
000003a0: 9f5d 8b3d 9ae2 e8bd e8ba 6f3c 8cfe a1bc
000003b0: fe5d 04bd e7d7 88bd cc60 17bd df61 19bc
000003c0: a75a bb3b 3e2b 80be 4b16 133d caf5 783d
000003d0: e99d f6bc 9fca 49bd 3d03 353b bc8f 88bd
000003e0: 2115 143d 7b08 963d 2002 8abd ea81 c6bd
000003f0: 0561 aa3b d058 813d 6730 fc3c 221f 46bd
0.045626123 0.087514974 -0.041333046 0.067908995 -0.033760633 0.026708808 -0.01328996 0.08320313
-0.014799427 -0.087462574 0.0335831 0.009123988 -0.05778303 0.040028077 -0.06965192 -0.01033371
-0.0049713044 -0.030724302 0.00045533103 0.006215514 0.049503803 -0.03522342 0.011784002 -0.108773634
0.009975965 -0.09589319 -0.061238892 0.014842885 -0.08140838 0.00032094572 0.020550027 0.023771873
-0.081016324 -0.036575764 -0.012707559 0.037647624 0.045629296 -0.032687105 0.031748574 -0.10460884
0.052202173 0.036841203 -0.043631047 0.060084917 0.024657851 0.10044922 -0.02833838 -0.009315823
-0.05098931 -0.047155727 -0.08533026 0.011993248 0.020545738 0.027587464 0.059123445 0.10124462
0.05920158 0.048195265 -0.07851123 0.021952523 0.018211558 -0.0711369 -0.012972707 -0.15545784
-0.07218944 -0.06181781 0.039356496 -0.013781822 -0.037283406 0.046866626 0.03212193 0.020281468
0.0199073 -0.05947846 0.031534795 -0.035952047 0.03468724 0.008246209 0.06131197 0.02751287
-0.080037035 0.076473504 -0.0038363994 -0.027298644 0.00736667 0.025449863 0.0518203 -0.0043139816
-0.041224066 0.046196967 -0.073936574 0.033020098 -0.012172015 0.08939511 -0.080397055 0.1632076
-0.014305179 0.015546186 0.024784036 -0.045364354 -0.011085058 0.017452102 0.06409966 -0.04991819
0.0119159715 -0.04471648 0.016514795 0.020594599 0.004470446 0.00029801097 -0.07934083 -0.0044186437
-0.074516565 -0.08229859 -0.058520906 -0.071490884 0.03709784 -0.06955563 0.05373938 0.038046986
0.02652784 -0.025812026 -0.031582467 0.061120056 -0.012283578 0.0022639423 -0.04100418 -0.018531034
0.05293295 0.0023521632 0.01997639 0.08059851 0.005654259 0.073600695 0.045069035 0.11927708
0.027677277 0.05131249 -0.02092315 2.4382523e-06 -0.071444966 -0.0034200014 -0.017945724 -0.032968912
0.0040033665 -0.008677247 0.059001815 0.07357643 -0.053739294 0.049069483 0.028958347 -0.09929553
0.017337162 -0.049166135 -0.014042638 -0.016546506 0.060147945 -0.08693141 0.045013327 -0.015828032
0.032212697 -0.2647711 0.0070337327 0.041174855 -0.033784393 0.067772485 -0.04269447 0.0557595
-0.051921066 0.025630606 -0.064679906 -0.012142549 -0.05586647 0.027767505 0.029433623 -0.04681537
-0.02311351 -0.11665276 -0.00035700315 -0.02126853 -0.01397782 -0.047438722 0.060576413 0.0007596122
0.04951451 -0.09094172 -0.038125906 0.12272867 -0.056109585 -0.081499 0.05578017 -0.018989574
0.00078204327 -0.00031757558 -0.0047647078 -0.036141172 -0.0019699193 -0.038231455 0.010353187 -0.03500952
0.048198625 -0.22456227 -0.010813438 -0.013429125 0.052426867 0.0265814 0.051996462 -0.0005429711
0.0032673704 0.06215909 0.022102911 -0.07528093 -0.018973991 -0.012857698 0.023969654 -0.09832052
0.021857299 -0.046663925 0.01902039 -0.028933197 -0.037706606 -0.0387826 -0.04731933 -0.025185384
0.039402533 0.014433951 0.061881725 0.1422715 -0.043202147 0.08194829 -0.017449502 0.09735995
0.06804966 -0.11371346 0.014631964 -0.019774698 -0.0323162 -0.06681805 -0.036957547 -0.009361713
0.0057175937 -0.2503299 0.035909932 0.060781278 -0.030104594 -0.0492655 0.0027620338 -0.0666804
0.036152963 0.07325836 -0.067386866 -0.09692748 0.005199554 0.06315768 0.030784799 -0.048369534

conv2d.bias f4 [16]
00000000: 1318 0cbd 0f09 9b3a aa40 763d cedc 653d
00000010: c4d0 283d c20b 823d 3019 693d ed0f 3d3d
00000020: 56c4 6e3b bdea cfbc fc45 74bd 3332 553d
00000030: b7c8 5ebd ffde a5bc e9a2 843c 7142 80bd
-0.034202646 0.0011828261 0.060120262 0.05611878 0.04121472 0.06349899 0.056908786 0.046157766
0.0036432943 -0.025380487 -0.059637055 0.052049827 -0.054390635 -0.020247934 0.016190963 -0.06262673

conv1d_1.weight f4 [16, 16, 4]
00000000: d5cf 1ebb 9dd8 933d 836a 3fbd 7177 d9bd
00000010: 3519 f9bd 8524 74bd 8cf2 b03d 17ed c53d
00000020: 7eed 9cbd 63bf a53d d6f6 48bd fbbb 813d
00000030: acb2 a83d a7cf a2bd a115 6e3d 5c01 6abd
00000040: 9f93 09be 1846 c33d 49d5 45bd bdef 093d
00000050: d1b3 cebd d36b abbb 5905 6ebd 87d6 da3d
00000060: 3c1f fa3c 1a84 cebd 1687 033d e58f fbbd
00000070: 94d5 edbd 1d15 e03c 7728 d2bd 1d73 613c
00000080: 909f 933d f937 823d 1ad3 fdbc 1e79 133d
00000090: dba7 8f3b 376c 9e3d 5efb 3ebd d85f e8bd
000000a0: cc57 3abd 13be b2bb a909 2b3e daa3 333e
000000b0: d5b4 bd3d b79f adbd b37b 8e3d 9398 c9bd
000000c0: cbf8 34bd 4998 2c3d 2804 ab3d b649 ab3d
000000d0: 500e ccbd 2188 c73d 99e7 8cbd 6a64 4d3d
000000e0: bfc2 df3d a001 41bc 5fed d73d 5523 e23d
000000f0: d404 dd3d 1903 93bd bce4 353c 680d 5c3c
00000100: 7c57 cbbd d7c7 64bd f35e 80bd 53ea ffbc
00000110: 4801 a03c 3a58 5f3c 7af2 243e 6392 9e3d
00000120: 253c 0ebe 025a a3bc 3e5b a0bd e604 06be
00000130: c461 1bbd ce58 ed3d 9597 db3d 8b32 2a3e
00000140: 701f 1a3e 8758 293e d535 633d d5d8 2b3c
00000150: deee 643d 3428 903d ed74 f73c b077 6f3d
00000160: 2ca5 523d 42f9 1bbd 8a98 2ebe 1ae9 bcbb
00000170: de6d 1e3e 6901 3c3c a1f1 833d 62d4 b13c
00000180: 7b9f 583d 3a28 10be d2c9 a4bd fd06 763d
00000190: 010c f2bd 7f77 e8bc 5ce0 f5bd 67c4 0bbb
000001a0: a9b1 80bd 98ba ab3d 1534 053c c967 42bd
000001b0: 2686 76bd 1b6b a5bd ffa9 b1bd 51f1 e1bc
000001c0: d668 183e 558b 8f3d 938a 55bc d1d7 973d
000001d0: 8763 b83d e68a 553e 705d e83c c0da e03c
000001e0: c971 18bd 666d a5bd cc10 813d fd21 81bd
000001f0: b21b 27bc 2e51 923c f7d2 8dbd 1a90 1cbe
00000200: 6fa8 cb3d 2828 09be ec6f 17be 6d1e bbbd
00000210: 2cbc dc3a 6e98 a43d 69df c23d d030 0b3e
00000220: 6a61 443d 9379 95bd d07b 033e b701 e43d
00000230: 6d86 29bd d4f3 6c3b fd08 97bd b72f 85bd
00000240: d4a9 13be 8db3 bfbd dcb7 cfbd ea0e d5bd
00000250: c6dd ffbd 7fb4 043c 31f6 cfbd feb7 c9bd
00000260: d455 8839 d6c8 e23d 5222 783d 24e8 103e
00000270: 116f 7a3d a4cf 82bd 62a9 87bd 6485 a0bc
00000280: 6669 263c 3bef 283c 8189 b93d 74d9 153e
00000290: f035 82bc a11d 933c 4073 a9bc b779 a0bd
000002a0: e28d 7bbd 99b5 1b3d ff57 bd3d 4e08 b13d
000002b0: ee88 8ebc 2c1a d93c 19f7 80b8 d5c5 f4bc
000002c0: b2f8 5ebd d1c9 b9bd 9fba 1b3e 839c ee3d
000002d0: 6e5d 983c e3e5 d53d b92b 28bd 48a0 bd3d
000002e0: 74d6 9e3d 9588 c13c 3703 97bd 552e b0bd
000002f0: ba3c 8cbc b2c0 763c 2b09 0c3e 51a5 1e3e
00000300: 90c2 003e 5722 0139 d152 b73d 59e9 513c
00000310: 309f 4f3d 3a17 223e e4a3 c33d 68f2 253e
00000320: fbd7 353d b59c 493d f01c 5cbd 2434 c43d
00000330: 6c1b b6bc 042b ecbb c3ad f6bd 254b 2fbc
00000340: e944 27bd 01ad 4abd e768 75bd e1fe 9fbd
00000350: bced 70bb 5ca2 9bbd 2be6 afbc 4d17 70bd
00000360: f0f6 113d bb34 7d3d c676 acbd ebc2 7d3d
00000370: 5b59 86bd 8776 b93b 02a4 72bc 0b5c 9fbd
00000380: de1d ee3d 0284 263d ecc0 09bd 3f15 09bd
00000390: b7bf 2fbd 4b24 e6bd 0043 d5bd 59a8 073d
000003a0: 10de e93d d557 193e 0e92 a03d 97d1 1d3e
000003b0: eaf0 c83d e561 153e 0bb4 6cbd ecc2 f23b
000003c0: 646f 033e f1d0 98bc 5933 3e3e c36d 313e
000003d0: a4a2 aabc 7d9c d6bc c403 ff3d 7a3a c4bd
000003e0: 001a 2c3c 9ff8 aa3d 5272 66bd 9146 f13d
000003f0: 6734 e73d a6e5 163d 10da 403e 1e52 673d
-0.0024232764 0.0721905 -0.046732437 -0.10618485 -0.12163011 -0.05960514 0.08640012 0.09664362
-0.076624855 0.08093145 -0.049063526 0.063346826 0.08237204 -0.07949763 0.058126096 -0.057130203
-0.13435219 0.09534854 -0.048299108 0.033675898 -0.10092891 -0.0052313595 -0.05811057 0.10685449
0.030532472 -0.1008379 0.03211125 -0.12283305 -0.116130024 0.027353818 -0.10261624 0.013760355
0.072081685 0.06358332 -0.03098445 0.03600418 0.0043840236 0.07735484 -0.04662644 -0.11346406
-0.045493886 -0.0054547875 0.16702904 0.17542973 0.092630066 -0.08477729 0.069571875 -0.09843554
-0.04418258 0.042137418 0.08350402 0.083636686 -0.099636674 0.097427614 -0.06880111 0.05014459
0.10925817 -0.011780173 0.10543322 0.11041895 0.107919365 -0.07178325 0.011101898 0.013430931
-0.09928796 -0.055854645 -0.0626811 -0.031239664 0.019531861 0.013631875 0.16108122 0.07742765
-0.13890131 -0.01994038 -0.07829903 -0.13087806 -0.037935033 0.11589204 0.10722271 0.16620843
0.15051055 0.16537677 0.05547126 0.0104887085 0.055891864 0.07038918 0.030207122 0.058463752
0.05142705 -0.038079508 -0.17050377 -0.0057650926 0.15471599 0.011474946 0.064425714 0.021707717
0.052886467 -0.14077845 -0.08046307 0.06006526 -0.11818696 -0.028377293 -0.12005684 -0.0021326782
-0.06283886 0.08385199 0.008130093 -0.04746226 -0.060186528 -0.08077069 -0.08675002 -0.027580889
0.14883742 0.07008997 -0.013033527 0.074142106 0.09003358 0.20853767 0.028364867 0.027448058
-0.03721789 -0.08077507 0.06302032 -0.06305311 -0.010199474 0.017860975 -0.06925004 -0.15289345
0.099442355 -0.13394225 -0.14788789 -0.09136663 0.0016840748 0.08036886 0.09515268 0.13592839
0.047944464 -0.07298579 0.128402 0.111331396 -0.041387964 0.0036156075 -0.07374761 -0.065032415
-0.14420253 -0.093604185 -0.1014249 -0.10403235 -0.12493472 0.008099674 -0.10154379 -0.09849547
0.00026003888 0.11073463 0.060579605 0.14151055 0.061141077 -0.063872606 -0.06624104 -0.019594856
0.010156965 0.010310943 0.0905943 0.14633733 -0.01589486 0.017958464 -0.020684838 -0.07835715
-0.061414607 0.038014982 0.092452995 0.08644162 -0.017399278 0.026501738 -6.149541e-05 -0.02987949
-0.054436393 -0.090716965 0.15207909 0.11650946 0.018599238 0.10444238 -0.041057322 0.09259087
0.077557474 0.023624698 -0.0737366 -0.08602587 -0.0171188 0.015060591 0.13675372 0.1549275
0.1257422 0.00012315191 0.08951343 0.012811982 0.050688922 0.15829173 0.09552744 0.16205752
0.04439543 0.049221713 -0.053738534 0.095802575 -0.022229873 -0.0072072763 -0.12044861 -0.010699068
-0.040837202 -0.049481396 -0.059914496 -0.07812286 -0.0036762794 -0.07599327 -0.021472057 -0.05861597
0.03563589 0.061817866 -0.08421092 0.061953466 -0.06560012 0.0056598815 -0.01480961 -0.07781228
0.116267905 0.040653236 -0.03363125 -0.033467527 -0.042907443 -0.11237391 -0.1041317 0.033119533
0.11419308 0.14974912 0.07840358 0.15411983 0.09811576 0.14588125 -0.05778889 0.0074084904
0.12835461 -0.018654319 0.18574275 0.17327027 -0.020829506 -0.026197666 0.1245189 -0.09581466
0.010504246 0.08348202 -0.056261368 0.117810376 0.11289292 0.036840104 0.18833184 0.056474797

conv1d_1.bias f4 [16]
00000000: d5f7 cebd 5e19 9a3c d651 ab3d ce51 8e3d
00000010: 6113 63bd 01b5 e8bd 6256 e63d 6959 fa3d
00000020: aae0 033e d466 103c a65b 083d deae 823d
00000030: c118 7f3d a2c6 b7bc 4cf1 1abd 1872 a83d
-0.10105864 0.018810924 0.08365218 0.06949197 -0.055438403 -0.11362649 0.11246945 0.12224085
0.12878671 0.008813579 0.033290528 0.063810095 0.062279467 -0.022433583 -0.037827775 0.08224887

conv1d_2.weight f4 [32, 16, 3]
00000000: 75cb 34be 00e5 65bc f376 ebbd 3312 153e
00000010: 81ea e1bc f00f 2b3e 8cbc 5abd 9598 ae3d
00000020: e270 ecbd cfb5 23be f436 d43d 4309 34be
00000030: 014c 25be 67ea 42bd c0d7 acbd 2396 d3bd
00000040: 3a10 093d 30da 4cbe 451b df3d ca06 a13d
00000050: 204f d93d 3781 533e 6c64 853d c874 20bc
00000060: 7a8e 8abd ee80 b43b 3c21 053d dc0c c83d
00000070: 2341 5cb9 6884 f43d c6e5 05be 76e5 0fbe
00000080: c399 303c 6f1e 20bd 5620 b7bd 7f9d efbc
00000090: 34ad 29be d400 32bc 24da 63be e3f5 a6bd
000000a0: d887 fd3d 9d05 0ebe 816f 913d 6ea0 86bd
000000b0: 999d 223e 040b d73d 9023 3b3d 32a6 46bd
000000c0: 9119 043e 3002 4c3d 2eda 4c3e 9102 d7bc
000000d0: b25f fd3c d0fb 26bb d985 b53d 319b 17bd
000000e0: eb23 2f3e 1c6d 033d d5ce cbbc 0e24 203e
000000f0: 82a9 d13d 354c 98bd 1870 d73d dc0f 9fbd
00000100: 567c d13d 0c43 e4bd e5ad 713d f44e ffbc
00000110: 640e 823c eee1 813d c0ba c1bd 5882 98bc
00000120: a50a adbd da1b 213c 6752 6c3d 952c 09be
00000130: 56c9 8fbd cff7 17be 970f fb3d 1bfb a3bb
00000140: 5831 d2bc 3971 eebd 0caa dcbc e106 babd
00000150: 040a 733d b781 323e 1e0c c43c d622 113e
00000160: 4bcc 6d3d 19df 303e b03e 953d f526 58bd
00000170: efbd be3d 2d8a 83bd e6a9 293e 1c56 2a3e
00000180: 58e3 dabd cf5a 42bd 55c3 4dbe 6258 ff3d
00000190: dac2 553e 7935 ca3d 5e77 0e3d 913b e4bd
000001a0: dc98 adbd d165 8b3c 9f6e 12be 387a f5bc
000001b0: dd55 afbd ac51 323c ff23 313c 58ec 48be
000001c0: 099f 39be f6e4 77be c7f1 d3bb 0bb9 2fbd
000001d0: 16e5 f53c 75c3 913d f72b b43d 3d2c 183e
000001e0: 6a28 88bc 46da d0bd eaab a4bd 3ce3 943e
000001f0: 26cf 843c 68a3 623e 56e2 e33d 3e2f 10bd
00000200: 8188 dbbd c864 52be f8e7 01bd 19ce 1fbe
00000210: a81a 18be 854f f7bd 0e3f aebd 8705 b1bd
00000220: 5bfc b53d baae aabd 5f53 98bd 8184 ad3d
00000230: 77d4 f93d ab65 f43d c62d 333c 3b79 c9bd
00000240: 9996 033d 0c1f 69bc 9c03 29bd 46d2 eabd
00000250: 38d3 583d b53c c1bd e48c f73d 9572 8c3d
00000260: 5e91 99bd 837e e83d b6a5 ccbc a2c0 603d
00000270: 5802 333c 4ae5 fe3d fd27 9d3d 48ae c23d
00000280: 6f7c 8bbd d42f de3d 32af 38bc fc7a 953d
00000290: 1d40 363e 51ae 8c3d 24a1 a8ba 670c debd
000002a0: 551d 123e f995 bd3d 7add 083d aba7 5b3d
000002b0: 764a 2abe 0da2 ecbd 29d5 76bd 5507 1f3e
000002c0: 0d29 0e3e af5b c5bd e02e 073e 808f 84bd
000002d0: 39a8 2c3e 3c29 463d 3f98 5cbd d3f4 2a3e
000002e0: 4090 103e 99e0 313e 6c0c 2f3d fc60 963d
000002f0: 4a1d b63d 40a8 a53d 50da d93d f1ec 40bd
00000300: 85bf 053e 3c42 0a3e 4573 01bd 295f 91bd
00000310: 79d3 36bd c86e cabd 1337 813c 1194 8dbd
00000320: 6336 5a3d 94dc 9ebd 7e31 1ebe b78d 783d
00000330: 141b d13d e5e9 d93d a3da 243d c250 e4bd
00000340: 6671 d6bd c675 923d 778f bd3d 92ef 973d
00000350: da1c d13d 7f90 b6bc 64e8 0bbe 0c67 1fbd
00000360: deb5 bb3c 0aec 143e f483 a2bd 82fd f4bd
00000370: 2c41 30be 1cea 313d b1c9 82bd 4430 db3d
00000380: 3973 0f3e 55e4 333e a783 5e3d 069b 263e
00000390: 0598 e2bb 91fd 183e c36a 2b3d eddd 9fbc
000003a0: 06e2 883d 79a6 e03d 62ac 673d ee7b dfbc
000003b0: 827f b23d bf96 923c 8893 af3d d787 933d
000003c0: d125 e13d 5aa3 4ebd 1f4a 84bd 3bbb ef3b
000003d0: 176f 80bd f79c 7abd 2f8c 003d bddf b3bd
000003e0: 47c5 3a3d d6b5 b43c f127 24be 5d7f 29be
000003f0: 53f8 493e 8135 2b3e 67f5 08ba 62cc 7fbc
-0.17655738 -0.014031649 -0.11497297 0.14557724 -0.02757764 0.16705298 -0.05340247 0.085251965
-0.11544968 -0.15987323 0.10362044 -0.17581658 -0.16142274 -0.047586825 -0.084395885 -0.10331371
0.03346274 -0.20005107 0.10893873 0.07862623 0.10610795 0.2065476 0.065132946 -0.009793468
-0.067654565 0.0055085337 0.032502398 0.09768078 -0.000210051 0.11939317 -0.13075933 -0.14052376
0.010778847 -0.039091524 -0.089417145 -0.029249905 -0.16569978 -0.010864455 -0.22251183 -0.08152368
0.12379426 -0.13869329 0.07101346 -0.06573568 0.15880431 0.10500148 0.045688212 -0.04849834
0.12900378 0.049806774 0.20005104 -0.026246341 0.03092942 -0.0025479682 0.0886342 -0.037013236
0.17103545 0.032086477 -0.024878899 0.15638754 0.10237409 -0.0743641 0.10519427 -0.07766697
0.10228793 -0.11145601 0.05900373 -0.031165577 0.015876003 0.06341921 -0.09459448 -0.01861684
-0.08449296 0.0098333005 0.057695772 -0.13395913 -0.07020824 -0.14840625 0.12258833 -0.0050042993
-0.025658295 -0.11642689 -0.026936553 -0.09083343 0.059335724 0.17432295 0.02393156 0.14173445
0.058056157 0.17272605 0.07287347 -0.052771527 0.09313571 -0.06422839 0.16568717 0.1663441
-0.10687894 -0.047449883 -0.20094045 0.124680296 0.20875111 0.0987348 0.034781806 -0.11144174
-0.08476421 0.017016323 -0.14300011 -0.029965505 -0.08561299 0.01088373 0.010811805 -0.19621408
-0.18127073 -0.24208435 -0.006468031 -0.04290108 0.030016463 0.071173586 0.08797448 0.14860626
-0.016620833 -0.10197882 -0.080406025 0.29079616 0.016212057 0.22132647 0.111271545 -0.035201304
-0.107193954 -0.20546257 -0.031715363 -0.15605964 -0.14853919 -0.12075714 -0.085081205 -0.086436324
0.088860236 -0.08334108 -0.07437777 0.08472539 0.121987276 0.11933454 0.010936206 -0.09837576
0.032126043 -0.014228594 -0.041263208 -0.11465888 0.05293581 -0.09435407 0.1208742 0.06857792
-0.0749843 0.11352255 -0.02498136 0.05487121 0.010925852 0.12446077 0.07673643 0.09505898
-0.06810843 0.10848966 -0.011272239 0.07298848 0.17797895 0.06869186 -0.0012865406 -0.10842209
0.14269002 0.09257121 0.03341434 0.053626698 -0.16629967 -0.11554346 -0.06026188 0.1553014
0.13882847 -0.09636628 0.13201475 -0.06472683 0.16861047 0.048379168 -0.05385613 0.16694956
0.14117527 0.17370833 0.042736456 0.07342717 0.08892305 0.08088732 0.10637343 -0.047100965
0.1306134 0.13501829 -0.03160407 -0.070982285 -0.04463527 -0.09884411 0.015773332 -0.06913007
0.053274523 -0.07756916 -0.15448567 0.060682025 0.10210243 0.10640315 0.04024757 -0.11148216
-0.10470848 0.0715137 0.09255879 0.07418741 0.10210581 -0.022285698 -0.13662869 -0.038916633
0.02291387 0.14543167 -0.07935324 -0.11962415 -0.17212361 0.043436155 -0.06386126 0.10702565
0.14008798 0.1756757 0.054324772 0.16270074 -0.006915095 0.14940478 0.041849863 -0.019515002
0.066837355 0.10969252 0.05656088 -0.027280774 0.087157264 0.017894147 0.08573061 0.07203644
0.10993541 -0.050448753 -0.0645945 0.007316021 -0.06271189 -0.06118485 0.03138369 -0.08782909
0.045598295 0.022059362 -0.16030861 -0.16552491 0.19723634 0.16719629 -0.0005224556 -0.0156126935

conv1d_2.bias f4 [32]
00000000: a67c 163e d4f4 663d c03b 333e e0c8 de3c
00000010: fe78 febd 529e 943d fcfc 8bbd 36e7 9cbd
00000020: 54e6 b23d 76e8 a8bd a344 883d ce6a 0d3e
00000030: d3f6 bcbc 9787 15be 7a70 e53d deaa 6f3d
00000040: 1bac a2bd b5f8 b83d 59fb 0e3e 99d9 12bd
00000050: 7ffd fa3d fda5 9cbd eda5 193e a254 1c3e
00000060: 65bf b63d 26c9 fbbd 5b73 8c3d 1709 f53d
00000070: c8e6 0c3e 61c2 093e 4b22 24be 5e97 02bd
0.14695987 0.05638583 0.17503262 0.027195394 -0.12425421 0.0725676 -0.06835362 -0.076612875
0.08735338 -0.082474634 0.066537164 0.13810274 -0.023066914 -0.14602505 0.11203094 0.05851256
-0.07942983 0.09031812 0.13963069 -0.03585205 0.12255382 -0.07648847 0.15004702 0.1526666
0.08923224 -0.122942254 0.0685794 0.119646244 0.13759911 0.13453056 -0.16028707 -0.031882636

conv1d_3.weight f4 [32, 32, 3]
00000000: 59bf 203e 85ec 053d 1708 193e af65 22bd
00000010: ccb4 603c b00d 7b3d d0a6 863d c35a f53d
00000020: 3348 053e 327c 85bd b1bb 77bc d204 1ebd
00000030: 0c25 19bc b0c2 03bc 2843 a4bd f509 c63c
00000040: adcc aa3d 0379 eb3c 2c89 abbd 9d98 bbbd
00000050: cead 83bd fe9a c9bd 4b64 67bd 5d4a 203d
00000060: 698c 853c 3120 82bd 230b c13c 605b e1bc
00000070: 2768 d0bb 3304 52bd 4da6 a73d 4fc3 bb3d
00000080: 8611 b83d 0e7e 7bbb a920 5b3d 0954 42bd
00000090: 9f77 043c 7a7a d4bd 6c37 b5bd a1b7 533d
000000a0: 5cf4 3abc 58a3 9bbd 6480 f33d 1aa2 2ebc
000000b0: 9500 6e3b 328b afbd f83b d2bd 2fa3 553d
000000c0: c618 5fbe c98f b7bd 9b5c 1dbd a171 c1bd
000000d0: ff10 8f3d 778b a3bd 7017 013e 924e 9b3d
000000e0: 7aef 153e d27a d9bc 8ce5 eabc 4e42 95bd
000000f0: 0003 fbbc 4164 b1bd d5cf 18bc 668a b63d
00000100: 466a 463e 44f3 333e 432c 053d d45c 8a3d
00000110: d3b1 abbc 3659 d63c bfec 263d 686f 79bc
00000120: c6bd c7bc ef21 e6bd a1c3 c8bd ddd1 9cbd
00000130: 7713 1cbe 20ed bf3b e633 2a3d 2c1d d6bd
00000140: 62ce b4bd 8cdb 1e3e 9b62 2d3e 7736 253d
00000150: 52a5 8c3d 556f 403b 9601 343e 2a9f 373d
00000160: 3c2e f53d 00e5 c33d 21ae 18bd 68e3 b9bd
00000170: 58e5 fe3c ebc5 6abd f438 67bc 01fa f2bd
00000180: e4b8 0b3e 5697 173d 99cf aa3d 6c59 0bbd
00000190: be97 f1bc 0d27 283d bf60 553e 4b8d 6a3d
000001a0: b506 0c3e 4973 0d3c 94a8 873d 1e3f 73bd
000001b0: c753 383d cb7a c2bd 13cc c7bd e548 dbbd
000001c0: d726 c0bd fcd5 62bd f733 9fbb 794f 86bd
000001d0: 4e0a 8b3d 07ff 733d 3e69 8a3c 55cc d4bd
000001e0: ba14 9c3d d2da 01bb 4b56 7d3d 15a3 6bbc
000001f0: b3b8 80bd 5d7f 82bd d7f7 f43d 099a 1e3e
00000200: b036 94bc bb7c 73bd dfea 283d 2d54 76bd
00000210: 8aa2 05bd 16a5 2cbc eeb3 fcbc 4301 233d
00000220: f24d 8fbd 0963 e0bd 19c8 6fbd 69cf e8bc
00000230: 7c7d 133d 9968 6bbd aa03 343d c9d8 03be
00000240: 3bcd 09bd dccf a9bd 9740 06be c5e3 893c
00000250: 3e1c 0abe 2f08 86bd 8854 023d 412d af3c
00000260: a58d 073d 228c d2ba 7b77 b1bd 3f2b 36bb
00000270: 6e56 77bd a638 013d fc61 073d 8fa2 0c3e
00000280: 780a 493d 1cf6 eebb aa69 b1bd d2de 113d
00000290: 4094 06bd 1c57 4c3d 1e89 393c 4a8b 313e
000002a0: 38c3 893d 4363 643d a6ab e4bd 914c bfbd
000002b0: 4e80 293d 77d9 fd3c 6da5 ccbc 3a04 37bd
000002c0: 7f4f fa3b a1dd 553e a2ee 173e 4537 df3d
000002d0: c494 ea3d 8230 9e3d d89c a13c 3710 173e
000002e0: deaf ca3d f264 4d3d 5d06 c63c 5e0a 2dbd
000002f0: 2d6d 26bd 25db cabd c528 95bd 899f 483d
00000300: 24e3 833d bfd0 eb3c 763e 343e c760 ddbd
00000310: f030 c2bd 9ecd f3bd a25f 013e dbee 593d
00000320: a7c7 c93d b8ab 26bd 5fff 283c 44bc d6bd
00000330: 42e0 a43d e429 97bd 84a7 cebd e0c0 283e
00000340: c021 f83d 74ee 103d 8c9a 30bd 770f 0ebb
00000350: b738 01be fabd 873b b252 dbbd 3d06 83ba
00000360: 236b e2bc 6a5b 483d 708d 11bd 930e 9e3b
00000370: 7225 acbd 8582 a5bb f18f 1abc 6229 af3d
00000380: cce9 b1bc ccd3 1a3d 2f62 1ebc 227b aa3d
00000390: 6a71 76bb 01c9 f6bd 3a0b c5bc c0a3 aebd
000003a0: 933c f0bd 4a7e 9f3c 19f0 073e 3cb2 603d
000003b0: 9b7d 133e 55cf 45bc 2176 5abd 9d4c 46bd
000003c0: f9b1 14be cd87 17bd d7e8 b5b8 9a32 aabd
000003d0: 2199 37bc 5011 3bbd bfb6 02bc 029f a33b
000003e0: 773f b93d 49b5 77bd 48c0 6e3c 8645 d33c
000003f0: ddc3 a1bc 0283 b6bc adbd 1a3d f79d fe3d
0.15697993 0.032696266 0.14944492 -0.039647754 0.01371498 0.06129235 0.06574786 0.11980202
0.13015823 -0.06517829 -0.015120433 -0.038578816 -0.009347212 -0.008042023 -0.080206215 0.02417467
0.0833982 0.028744226 -0.08375773 -0.09159968 -0.06429635 -0.098440155 -0.05649213 0.03913342
0.016302304 -0.06353796 0.02356488 -0.027509391 -0.006360072 -0.051273536 0.08186016 0.091681115
0.08987717 -0.0038374695 0.053497944 -0.047443423 0.0080851605 -0.10374923 -0.088484615 0.051688794
-0.011410799 -0.07599515 0.11889723 -0.010658765 0.0036316265 -0.08571471 -0.102653444 0.052157577
-0.21786794 -0.08962972 -0.038418394 -0.09445501 0.069856636 -0.07985585 0.12606597 0.075833455
0.14642134 -0.026547823 -0.02867391 -0.07288037 -0.030641079 -0.086617 -0.009326895 0.08913116
0.19376478 0.17573267 0.032512914 0.06755987 -0.020958817 0.026165586 0.040753122 -0.015224315
-0.024382483 -0.11236941 -0.09802938 -0.07657216 -0.152418 0.005857125 0.0415534 -0.10454783
-0.08828427 0.15513438 0.16932146 0.040335145 0.0686747 0.0029363234 0.1757873 0.044829525
0.11971709 0.09565163 -0.037275437 -0.090765774 0.031115219 -0.057317656 -0.0141127 -0.11864091
0.13644749 0.03700956 0.08340377 -0.034020826 -0.029491302 0.041052867 0.20837687 0.057263654
0.13674434 0.008633443 0.066239506 -0.059386365 0.04500177 -0.09496077 -0.09755721 -0.10707263
-0.09382408 -0.055379853 -0.0048584896 -0.06558127 0.06789075 0.059569385 0.016895887 -0.10390536
0.07621141 -0.0019814265 0.061849874 -0.0143821435 -0.062852286 -0.06371949 0.11961334 0.15488447
-0.018092483 -0.059445124 0.041239616 -0.06013887 -0.032625712 -0.010537406 -0.030847516 0.039796125
-0.06997289 -0.109563895 -0.058540437 -0.028419213 0.036008343 -0.0574728 0.043948807 -0.12875666
-0.03364299 -0.08291599 -0.13110577 0.016832242 -0.13487336 -0.0654453 0.031818897 0.021383883
0.033094067 -0.0016063491 -0.08665367 -0.0027796773 -0.06038516 0.031548165 0.03305243 0.13733886
0.04908225 -0.007292522 -0.08662732 0.03561289 -0.032856226 0.04988776 0.011324195 0.17338291
0.06726688 0.055758726 -0.11165552 -0.09340776 0.041382127 0.030987484 -0.024981225 -0.044681765
0.007638871 0.20885326 0.14837125 0.10899214 0.11454156 0.07724096 0.01972811 0.14752279
0.09896825 0.050145097 0.024172956 -0.042246215 -0.040631462 -0.0990508 -0.07283167 0.04898027
0.06439808 0.028786061 0.17601952 -0.108094744 -0.0948199 -0.11904453 0.12634137 0.053206306
0.09852534 -0.040691108 0.010314791 -0.104851276 0.08050586 -0.07381037 -0.10090545 0.16479826
0.12115812 0.035383657 -0.043116137 -0.0021676698 -0.12619291 0.00414252 -0.10709132 -0.0009996366
-0.027638977 0.048915304 -0.035535276 0.0048235147 -0.084055796 -0.0050509595 -0.009433732 0.08552815
-0.021717928 0.03779964 -0.0096669635 0.08324267 -0.003760422 -0.12050057 -0.024053205 -0.085273266
-0.117303036 0.019469399 0.13275184 0.054857478 0.14403383 -0.012073358 -0.053335313 -0.048412908
-0.14521016 -0.036994744 -8.6741224e-05 -0.08310433 -0.011205942 -0.045670807 -0.00797814 0.0049933204
0.09045308 -0.06047562 0.014572211 0.025789987 -0.019746715 -0.022279266 0.037778545 0.12432473

conv1d_3.bias f4 [32]
00000000: d728 983d 1851 cb3d 5e59 89bc d39b 13bd
00000010: 1767 90bd b2e1 f83b 9a9e c03d 6a83 073d
00000020: 045c 96bd 2d49 e93d fb27 80bd 6fa9 d53d
00000030: 8e3f b63c 8de3 18bd b076 7abd a69d 7f3d
00000040: 4bae aeba fce2 3a3d 2c0d c6bd 75b5 573d
00000050: 9a6c 18bd 3e27 96bc 291d 943d 1e2a 9abd
00000060: 0669 a03c 3344 b9bd 9f3c d63d 888e b63c
00000070: 4b31 2e3c e482 d83d 2177 83bd d34f 903d
0.074296646 0.09927577 -0.016766246 -0.036037277 -0.07050913 0.0075952644 0.09405251 0.03308431
-0.07341769 0.1139091 -0.06257626 0.104327075 0.022247102 -0.037326384 -0.061148345 0.062406205
-0.001332709 0.045626625 -0.09670481 0.052663285 -0.037212946 -0.018329259 0.07232124 -0.075275645
0.01958133 -0.09046211 0.10460781 0.022284761 0.01063187 0.105718404 -0.064192064 0.07046475

fc.weight f4 [3, 32]
00000000: e80b 45bd 69c0 d3bd a0cd 44be 5363 e53d
00000010: 0d67 16be 34d3 5fbe 44a1 cabd ad5a 23bd
00000020: be8a be3a 67ad 39be d71a 093e ef69 3bbd
00000030: 14ea 563d f474 ba3c e077 ae3c 0b4f b5bd
00000040: 3124 a0bc da2b 1cbd 5237 403b 6eee d23d
00000050: e8bd adbd 4455 323d a679 93bd e078 2c3e
00000060: c52c 103e 4601 19be 6dff 14bd 00e2 5bbe
00000070: 39d2 413d 40e4 8c3d ff8b 8fbd 6ea3 1ebd
00000080: e18e 633e 6533 cc3d 8854 903e 953e 8abd
00000090: 925d 573e aa15 6b3e 78ce 0fbe c36b 89be
000000a0: 6ffc 92be bc16 503e bbf1 8d3e cd4c b03e
000000b0: 3e43 8ebe a657 183e fe35 563c 0e3f 5b3e
000000c0: d52a a1be f94b 2e3e cd69 423e 6d3d 42be
000000d0: 8be6 70be e363 96be eb2e 6e3e 1b4c 65be
000000e0: 9502 7fbe f988 7abd 0542 35be 5380 d33c
000000f0: 202c 0bbe b5cf 50be 826b 0c3e c218 683d
00000100: e627 0c3c f1f5 17be a0fd 0c3d 2799 55bc
00000110: 3e12 65bd de06 de3d 5aa4 dc3d 91f2 8bbd
00000120: d624 a6bd 9858 3a3e 7f31 a7bc 279c 7dbe
00000130: cd1f e8bd f405 34be 38f9 b9bc e3e1 2a3a
00000140: 3cde 4b3e 960a b4bd 8f06 c4bc 4587 283d
00000150: 9a08 a5bd b592 573c f914 43bd 9ff6 1cbc
00000160: b760 2e3e ea1b 08bd 13c5 313e 44ae 02be
00000170: f06d 75bd a7e1 603d 3302 b2bd d6fe 25be
-0.048107058 -0.10339434 -0.19219065 0.11200585 -0.14687748 -0.21857911 -0.0989404 -0.039881397
0.0014537198 -0.18132554 0.13389145 -0.045755323 0.052469328 0.022760846 0.021297395 -0.08852967
-0.019548507 -0.038127758 0.0029329848 0.10299383 -0.08483487 0.043538347 -0.07200937 0.16842985
0.14079578 -0.14941892 -0.036376406 -0.21472931 0.047319625 0.06879473 -0.07009124 -0.038730077
0.22222473 0.0997074 0.28189492 -0.06750218 0.21031788 0.22957483 -0.14043605 -0.26840028
-0.28708217 0.20321172 0.27723488 0.34433594 -0.27785677 0.14877185 0.013074396 0.21410772
-0.3147799 0.17021169 0.18985672 -0.18968745 -0.23525445 -0.29373083 0.23260085 -0.22392313
-0.24903329 -0.061165784 -0.17700966 0.025818026 -0.13591051 -0.20391734 0.13712886 0.056664236
0.008554434 -0.14839913 0.034421563 -0.013037003 -0.0559256 0.108411536 0.10773535 -0.06833375
-0.08112495 0.18197858 -0.020409344 -0.24766599 -0.113341905 -0.17580396 -0.022701845 0.0006518645
0.19908994 -0.087910816 -0.023928909 0.041144628 -0.08058281 0.013157536 -0.047627423 -0.009580283
0.17029081 -0.033229746 0.17360334 -0.1276179 -0.059919298 0.0549027 -0.08691826 -0.16210493

fc.bias f4 [3]
00000000: c9f9 b3bd 7e8a c63d 099b 2cbd
-0.08787877 0.09694384 -0.04214004
