trained_models/CNN/CNN_Zscore_CF5_pred_0.pth (torch, 37564 bytes, 10 tensors)

conv2d.weight f4 [16, 1, 4, 40]
00000000: 8b17 07bd b5fa a83d 90cc ed3b 4f76 6c3d
00000010: ccd9 8abd 1785 ff3c b553 9139 eb51 e63c
00000020: e768 823d 3835 4f3d aec5 46bd 6cc4 5e3d
00000030: baa8 e3bc e4b0 c1bc 58d3 62bd a005 883c
00000040: 5323 9abd dd56 143d c964 a2bd 7654 383d
00000050: 0c1a cebb 9db0 0f3d e32a 013d f323 01bc
00000060: aa5c 99bc 5424 043d bce4 98bc 792a 86bd
00000070: b873 7abd 252c b03d fa1b 343d ac96 0b3d
00000080: 05bf 553d 2d30 55bd 8d32 9ebd bedf 643d
00000090: ce85 d6bb 6998 973b bcfd 813d d966 373e
000000a0: bf91 463d e079 873a b8a4 33bd 7dac 8b3d
000000b0: 4943 933d cced 173d 90d4 9bbd a0e3 62bd
000000c0: 02fc 83bd 2492 19bd ad9b b93b 97dd 103e
000000d0: 239b 9ebd c1b9 98bd fed4 10bb cd42 82bc
000000e0: e6ec 923c fb4b 87bd 5059 65bd 27f7 c9bc
000000f0: 9f8c 7b3d 0add b7bd a291 633d 55a0 f13b
00000100: efbf 8abd 36ff f63b a0d1 893d bef8 cbbb
00000110: 5f9a 013c d983 2abd 0d2b 9bbd e938 e6bc
00000120: c9ec 6a3d 3dd3 4a3d deef 173d 00ca 903d
00000130: c28c aabd 3560 12bd 76e3 f33c 6f82 8f3d
00000140: a00a 3bbd 3db0 c0bc 1b60 c93b f996 48bd
00000150: f955 4abd bb33 99bd fb6e a7bd 88ef a2bc
00000160: 7d16 7fbc 2563 433c 17a8 04bd 95cc e43c
00000170: 1f64 823c 2324 98bd e0c1 9fbd c4db 8ebd
00000180: ba0d 37bd 32ff 703c 9940 6cbd 4d79 153d
00000190: 9108 97bd 2116 fcbc 5882 70bd cd71 13bd
000001a0: e30c 3fbd 52ee 20bc 758e afbc 18f6 af3d
000001b0: 7f2c a7bc dce3 923d 1b5c 933b c57c 843d
000001c0: 1e93 5f3c f489 7f3c 6dc9 36bc c6ee 353d
000001d0: f91a 36bd 5669 88bd afc2 80bc b982 143e
000001e0: f972 90bd 15fe 1c3d cfce 8dbd c4d9 993d
000001f0: 038a 4c3d 64b4 393d 3d6f 73bd f449 743d
00000200: ed06 51bd bbe8 ac3c 4242 933d 41e3 123d
00000210: c2a8 66bd 705b 873c 859e 773d 597d 95bd
00000220: fbaf f2bc 60bb 69bc cc88 573d a242 a53d
00000230: 04c8 593d 2875 3bbd 3d5c 05bc f3cf 853b
00000240: 2e89 5e3d 2d8b 5a3d bdf9 4fbd 9d91 1bbd
00000250: f3f9 323d c22d 0abc 478c b13b e6cd 883c
00000260: 9b7c 31bd 77d1 2a3c e837 523d 5c79 623d
00000270: fe1a 00bd 025a cbb9 b2bb 8dbd 0fd3 d83d
00000280: 849a 1bbc ffdf cb3d 9dae 4f3d ae71 47bb
00000290: b8c3 67bb 8b89 593c e481 ab3d 9b1d e43d
000002a0: 1300 943d 2da7 b8bb ff13 1cbc 944c 683d
000002b0: 7bf6 c0bc 5137 a03d 8ada cb3d 92c0 9b3d
000002c0: 6926 2dbd 5188 24bd 778b 9d3c 6a1d a73d
000002d0: 99aa 603d c2a7 eb3b 8a45 913c 5073 7dbc
000002e0: 0363 2f3d a32f 38bd e805 9d3d f66c ce3c
000002f0: 5572 a43d a575 3cbd cd48 0fbb 967e 123c
00000300: 3872 9b3d f646 60bd 6ef9 e83d 7ea7 b0bc
00000310: f3f6 ad3d 13ad 323c 59f1 ef3d 2db6 693d
00000320: 6c18 bfbc 1602 873d fbb7 6e3c 3c2d c13a
00000330: 8368 cabb c4af a73d 50e7 bb3c 2a77 8f3d
00000340: 30d4 803d 42d5 a63d 8b60 ec3d b298 093c
00000350: f555 b53d 7726 edbb 7dda 11bb 7834 073d
00000360: 391e e73c 75fc 813d ec2e c33d 90e6 a93d
00000370: 4f26 bb3d a486 a03c e911 8dbb cb77 41bc
00000380: c1e4 6f3c ddad bdbd 4a01 b5ba 67fb 0cbd
00000390: ea84 193c 5d0f acbc 6249 843d 164b 403c
000003a0: fde5 c7bb 0209 37bd 6f54 c2bc a392 d83d
000003b0: 756b 973d 7995 19bd 9451 f33c 3b50 fb3b
000003c0: 0547 e63d 0004 b83d d6ac a2bc b445 f43c
000003d0: d382 3c3c 4d11 6b3d 18b1 9d3c e05c 45ba
000003e0: 4ccc d03d 96b5 473d 8141 ab3c a856 e03d
000003f0: 047a 393d df71 dbbc 65ef 663d 3c5a f73d
-0.032981437 0.082509436 0.0072570518 0.057730015 -0.06779823 0.031191392 0.00027718922 0.028115233
0.06367665 0.050587863 -0.048528366 0.05438654 -0.027790416 -0.023643918 -0.055377334 0.016604245
-0.07526269 0.03621565 -0.079293795 0.045002423 -0.006289726 0.03508054 0.03153504 -0.007882106
-0.018720943 0.032261208 -0.018663757 -0.0655107 -0.061145514 0.0860217 0.043971993 0.03407924
0.052184124 -0.052047897 -0.077244855 0.05587744 -0.0065467125 0.004626323 0.06347224 0.17910327
0.048478838 0.0010336004 -0.04385826 0.06820009 0.07190568 0.037092015 -0.076089025 -0.05539286
-0.06444551 -0.037492886 0.00566431 0.1414703 -0.07744434 -0.07457305 -0.002209961 -0.015900994
0.017935228 -0.06606289 -0.05599338 -0.024653984 0.061413404 -0.08977707 0.05555881 0.0073738494
-0.0677489 0.0075377477 0.06729436 -0.0062247207 0.00791034 -0.041629646 -0.07576571 -0.028103309
0.057354722 0.04951786 0.03709399 0.070697784 -0.08327629 -0.03573628 0.029771548 0.070073
-0.04566443 -0.023521537 0.00614549 -0.048972104 -0.049398396 -0.0748057 -0.08175465 -0.019889608
-0.0155693265 0.011925493 -0.032386865 0.027929584 0.015916882 -0.074287675 -0.078006506 -0.06975511
-0.044690825 0.014709281 -0.057678793 0.036492635 -0.07374681 -0.03077227 -0.058718055 -0.0359972
-0.04664315 -0.009822445 -0.021430233 0.085918605 -0.02040696 0.07172367 0.004497064 0.064691104
0.013645915 0.015596855 -0.011156422 0.044417165 -0.044459317 -0.06660716 -0.015717832 0.14502992
-0.07053179 0.03832825 -0.06924211 0.075122386 0.049936306 0.04533805 -0.059432257 0.05964084
-0.051031996 0.021107068 0.07190372 0.035861257 -0.056313284 0.016523093 0.06045391 -0.07299299
-0.02962493 -0.014265865 0.052620694 0.0806935 0.053169265 -0.045766026 -0.008139667 0.0040836274
0.054330043 0.053355385 -0.05077528 -0.037980665 0.0436954 -0.008433761 0.0054183337 0.016699743
-0.043331724 0.010425917 0.051322848 0.05529152 -0.03127574 -0.00038786238 -0.06920566 0.10587131
-0.009497289 0.09954833 0.050703634 -0.0030432749 -0.003536446 0.013277422 0.08374384 0.11138459
0.07226577 -0.0056351633 -0.009526252 0.056713656 -0.023555031 0.07823051 0.099537924 0.07605089
-0.04227296 -0.040169064 0.019231541 0.08159907 0.054850195 0.007191629 0.017733354 -0.015469387
0.042819034 -0.044967305 0.07667142 0.025198441 0.080296196 -0.046010632 -0.002186346 0.008941313
0.07590145 -0.054755174 0.113757 -0.021564241 0.084943675 0.010905522 0.11715955 0.057058502
-0.023327075 0.06592195 0.014570232 0.0014738212 -0.0061770095 0.081878215 0.022937447 0.070051506
0.062904716 0.081461444 0.115418516 0.008398222 0.08854286 -0.0072372514 -0.0022255473 0.033009022
0.028212653 0.063469805 0.09530434 0.082959294 0.09138166 0.019595452 -0.0043051136 -0.011808346
0.0146419415 -0.092616774 -0.0013809588 -0.034419443 0.009370068 -0.02100342 0.06459309 0.011736652
-0.006100415 -0.044686325 -0.023721902 0.10574844 0.07393543 -0.037496064 0.029701985 0.0076694763
0.11244015 0.08985138 -0.019857805 0.029818393 0.0115058 0.057389546 0.019249484 -0.0007528793
0.101952165 0.04875716 0.020905258 0.10954028 0.04528238 -0.026787696 0.05638065 0.12077758

conv2d.bias f4 [16]
00000000: ca98 44be 80e8 41bd 474f 02be 2c29 1ebe
00000010: 3ec5 adbd c0dc 49bd 10c4 7fbd 4540 44bc
00000020: 7ba5 0f3d 6d43 683d 2cd8 423d 04b3 f4bd
00000030: ccda 4e3d d002 25be 83a9 5abd 96ce bd3d
-0.1919891 -0.04734087 -0.12725554 -0.15445393 -0.084848866 -0.04928279 -0.06244284 -0.011978214
0.035069924 0.056704927 0.04756944 -0.11948207 0.05050163 -0.16114354 -0.053384315 0.09267919

conv1d_1.weight f4 [16, 16, 4]
00000000: cd4b 5b3d 6701 85bd 32c5 bd3c c556 dd3d
00000010: a89a 223c a321 02be a249 c5bd e6e3 2c3c
00000020: d45c be3d 987b 9a3d e8a3 1a3d 6648 bd3d
00000030: f8a1 7a3d bacf 0b3e 3ff3 de3d 302c cc3d
00000040: 4b48 07bd 541b cbbd e46e b4bd 794a 28be
00000050: 5c93 a0bd e601 383b dd7f f23c c1d7 aebd
00000060: 837b bb3d faa4 25bd fec0 be3d 41c8 a2bc
00000070: 874c 903a 38e3 1bbe 4cd3 e73b b18b 183e
00000080: 6520 a73d 1309 8abd 1d98 c0bd 55ea dcbc
00000090: c925 ff3c 2c5a abbd 09c3 16bc e75f 683d
000000a0: 1cde c83d 7ee6 ca3d 49ec 9dbd b14f 893c
000000b0: 3863 0f3d c122 98bd 5d8b a53d 3228 93bc
000000c0: 92b3 0ebd b510 05be b268 19be 539a 1abe
000000d0: 4e64 bc3d a379 1c3e 1544 8abd a593 3a3d
000000e0: e0b2 ea3d 01d8 55bd e5b6 d43d 602f 31bd
000000f0: 4f3f afbc 7bd9 dabd 7c8e 6c3c ccd2 e23c
00000100: 0281 f539 75de 7b3d 880b 69bc ad05 533d
00000110: ae81 cd3d 48ab a4bc ed00 233e 6de2 953d
00000120: 7394 99bd 0060 ea3c 6ae8 cf3d e299 a1bd
00000130: 2321 743d 47f4 063d 2fca 3fbc ee16 11bc
00000140: 63d5 cb3d 8df7 6e3d 4126 a13d d2d8 603c
00000150: 791b cc3d 69ba 9c3d a978 9b3d a1cd 19bd
00000160: ae84 50bd 4807 89bd 6a8e 313d 6f12 4abd
00000170: 0a0d 0e3e d16a 5c3c 2c41 13bd ac0e 153e
00000180: 5e59 61bc 4341 51be 4bf0 02be 1c52 ebbd
00000190: cfce 10be b027 bf3c fee8 79ba 6ba9 59bd
000001a0: 2e4b 263e 189b 05bd 558d 193e b099 31bd
000001b0: 1568 4dbe f74b 113c c3cf 063d 85a0 11be
000001c0: d8ca 813d 0f3d 673d 44ac adbd 6d52 7a3d
000001d0: 48e9 1dbe 39cd 1ebd b0a1 babd b0a5 5ebd
000001e0: 7b00 543a e131 f03d b620 55bc 0c87 e53d
000001f0: 84be 40bd 0153 afbd f399 0cbc a4f5 4bbd
00000200: 2ce7 a23d 736e 043e 4c64 a9bc ec8e 84bd
00000210: 8d44 083d f7c0 e83d 8e3f 203c f971 143e
00000220: 1a8b d63d d8a7 83bd 3d15 9f3d 53b7 33bd
00000230: 121e b03d c647 ba3c 681f 06bd 935c 053e
00000240: 7b8b c53d 9c47 fc3d 9910 0f3e d0d1 34bd
00000250: 22c4 babc add3 94bd 3434 213d 0af4 923d
00000260: 2794 bb3d 86f3 993c d0c3 833d ddde 043e
00000270: 9a7c 1bbd 6d8e d73d c059 733d baab 51bc
00000280: b5b0 2bbe 29c0 1dbd 0108 19be a833 7a3d
00000290: 179c 48bd b81a febb e0fc 863d ee71 c8bd
000002a0: be6e e63c 7387 83bd f1c4 f5bb c2da d73d
000002b0: 2cd7 50bd 7b18 a83d 1cfe 5d3d 9af6 92bd
000002c0: caf9 b8bc 9ae7 4abd db51 c93d 16a1 cc3d
000002d0: dd93 9ebd 95e4 b63d 8bfa 5c3d eb9c dd3c
000002e0: 3f4d 0bbd f91e ae3d 1fc1 f8bc 6c0a b7bd
000002f0: 8f7a 3cbd 5f38 a8bd e201 87bd ba77 be3c
00000300: c840 f73d 6180 5ebd 1e39 f53c bf38 8e3d
00000310: e1ba 5bbd f6b3 69be b293 5fbe 9b15 49be
00000320: f23c 24bd 9364 d53d aa3f 2b3e 3c46 803d
00000330: 71ca f73d 4d25 9bbd a27d 8f3c eee7 7fbd
00000340: bec2 37bd 9340 d5bc 7193 073b 5843 41bc
00000350: 60e4 18bd c75c 063e 51ff 02bc f928 423d
00000360: 0cf6 22be 3188 afbd 471d a2bd a23b 97bd
00000370: 7b48 af3d 2b29 aabc 79dd a9bd e729 c93c
00000380: 431b 71bd 05f3 b53a 46bf bbbc e9ef ffbb
00000390: 2a1a 093d 9cf9 f7bd 2a9a 9c3c bb0a 2fbd
000003a0: f12a 35be 099a 013d 331a a1bc 5a03 51be
000003b0: e38b 673d 9d39 543d cdd3 ecbd 7187 2a3d
000003c0: f54a 583d c33d 053d 43fd 023e af30 a2bc
000003d0: 0358 6a3c c189 ff3b 0629 65bd ef5f f33c
000003e0: 12a7 513d b664 933c 1530 85bd 6cd4 10bd
000003f0: 029a 173d 7bcb f53d 7a5b 073d 7d0f c9bd
0.053539086 -0.06494408 0.02316532 0.108075656 0.009924568 -0.12708144 -0.09633185 0.010552382
0.09295049 0.07543105 0.03775397 0.092423245 0.06118962 0.1365346 0.10886239 0.099693656
-0.03302793 -0.09917322 -0.08810213 -0.16434659 -0.078406066 0.0028077303 0.029601986 -0.085372455
0.09154417 -0.040440537 0.09314154 -0.01987088 0.0011009135 -0.15223396 0.007074749 0.14897038
0.08160476 -0.06740012 -0.09404013 -0.026967207 0.031145947 -0.08366808 -0.009201773 0.056732085
0.09807989 0.09907244 -0.077110834 0.016761633 0.03500673 -0.07428504 0.08083222 -0.017963503
-0.03483922 -0.12994654 -0.14981344 -0.15097933 0.09198819 0.15280776 -0.06751267 0.04555096
0.11459899 -0.05220795 0.10386447 -0.04325807 -0.021392493 -0.10686012 0.014438268 0.027688406
0.0004682616 0.06149145 -0.014223941 0.051519085 0.100345 -0.020101205 0.15918322 0.07318578
-0.074990176 0.02861023 0.10151751 -0.07890679 0.059601914 0.032947805 -0.011705919 -0.0088555645
0.0995281 0.05834155 0.078686245 0.013723569 0.099661775 0.076527424 0.075913735 -0.03754962
-0.050907783 -0.06690842 0.043348707 -0.049333986 0.13872162 0.013453201 -0.035950825 0.14556378
-0.013754217 -0.20435052 -0.12786977 -0.114902705 -0.14141391 0.023334354 -0.0009533315 -0.053140085
0.16239616 -0.032618612 0.1499532 -0.04335946 -0.20059235 0.008868209 0.03291298 -0.1422139
0.063375175 0.056454714 -0.08480123 0.061113764 -0.15421021 -0.038769934 -0.09112871 -0.05435723
0.000808723 0.11728264 -0.013008287 0.11207399 -0.04705669 -0.085607536 -0.008581626 -0.049794808
0.07954249 0.12932758 -0.020677708 -0.06472573 0.0332685 0.1136493 0.009780778 0.14496602
0.1047575 -0.06428498 0.07767723 -0.043876003 0.085994855 0.022739302 -0.032744795 0.13023596
0.096457444 0.12318346 0.13971175 -0.044145405 -0.022798602 -0.072669365 0.039356425 0.07175453
0.09159117 0.018792879 0.06433833 0.1297564 -0.037960626 0.105252124 0.059411764 -0.01279729
-0.16766627 -0.038513336 -0.1494446 0.06108442 -0.048976984 -0.00775465 0.06591201 -0.09787355
0.028128978 -0.06422319 -0.007500284 0.105397716 -0.050986454 0.08207794 0.054197416 -0.07175942
-0.022580046 -0.04953728 0.09830066 0.09991662 -0.077430464 0.08930317 0.053949874 0.027052363
-0.034009214 0.08502001 -0.030365525 -0.08937535 -0.04601532 -0.08213877 -0.06592156 0.02325045
0.12072903 -0.05432165 0.029934462 0.06944417 -0.05364502 -0.22822556 -0.21833685 -0.19637148
-0.040097184 0.10419574 0.16723505 0.06263396 0.120991595 -0.07575474 0.017515961 -0.062477045
-0.044863455 -0.026031768 0.0020687247 -0.011795841 -0.03732717 0.13121329 -0.0079954425 0.047402356
-0.15914172 -0.08570898 -0.079157405 -0.07384421 0.085587464 -0.020771584 -0.08294196 0.024556113
-0.05886389 0.001388163 -0.022918355 -0.007810582 0.033472218 -0.12108156 0.01911648 -0.042734843
-0.17692162 0.03164104 -0.019665813 -0.20411435 0.05652989 0.051812757 -0.11563835 0.041633073
0.05280586 0.032529604 0.12791924 -0.019798605 0.01430321 0.007798404 -0.055947326 0.02970883
0.05118472 0.017992359 -0.065033115 -0.03535883 0.037012108 0.120017014 0.033046223 -0.09817407

conv1d_1.bias f4 [16]
00000000: 7a3a 383c a800 583c 2e74 f2bc 9150 b03d
00000010: 64cc ea3d 1c18 8f3b 4ce5 fe3d d5eb 8a3c
00000020: 1ebe e2bd e871 d2bd 356e 01be 190a 613c
00000030: f615 07be 8d44 cebd 8d96 843c 07a2 8c3d
0.011244411 0.01318375 -0.029596414 0.08609117 0.11464766 0.0043668877 0.12446079 0.016958157
-0.11071418 -0.10275632 -0.12639697 0.013735318 -0.13191971 -0.10071669 0.01618507 0.06866842

conv1d_2.weight f4 [32, 16, 3]
00000000: 0397 093e e586 48bd cb02 e63d 799d f83d
00000010: 0532 a43d dbcb 333d dd55 69bc 6a8d fe3a
00000020: ace1 ecbb f8ac 1f3d 3714 57bd 6d15 e6bd
00000030: 3eb9 88be 0d6c ebbd 16de 65be 9d50 db3d
00000040: fad8 c33d 0a20 3fbd 0bbb f23d 6f03 b1bd
00000050: 5bfe 0d3e 4dd3 f53d 93d6 45bc 0015 0e3e
00000060: 816a d2bd 7016 9f3d a866 8bbd 8514 9a3d
00000070: e412 273e 174d 693d 1c7b 2f3e 2350 93bd
00000080: 5a09 193e c4b3 94bb 1bdc 09be 09a2 9bbd
00000090: 6dc5 9a3d 76d4 3f3d f6d1 883d 8d69 87bd
000000a0: dee9 883c 8309 153d 9b1c 123e e232 c9bd
000000b0: dfdd c33d 93db 893d eb63 81bc 2cb3 adbd
000000c0: 02a8 5c3d d569 a03d 92c5 893d 7318 953d
000000d0: 0e3a 743d 4733 8d3d c6fb 62bd 5afd 743c
000000e0: 19a1 813c 80b2 c43d 87b1 6d3b 0f22 f73b
000000f0: 0082 433d 0ce2 503e b4ef df3b e20e 0ebe
00000100: 6a7d 0b3e bb70 023e 8946 acbd df70 3f3d
00000110: 8701 8abc a12a bfbc 1599 d53b 3f8f 763d
00000120: 6ac5 98bd 7c16 b83d bf02 f2bd f285 5cbd
00000130: c621 9f3c 6551 31bc 0fbc 923d 9063 7bbd
00000140: 252b e2bd ac35 08be 24b0 ccbb bfc7 b13d
00000150: 5d3c ed3c e92b 1bbe f1f2 7e3d a8d7 f73c
00000160: fa3e 8b3d 6c21 efbc 3218 09bc bd45 133e
00000170: 2779 6cbd 6a66 b6bd 9bc3 40bd c00e bcbd
00000180: e230 c2bd 8feb d13b 69f2 9f3d 70b3 c6bd
00000190: 1fc7 a9bd fa22 dabc c28b ccbd 3327 2b3b
000001a0: 11b5 c7bd 5d5f 603c 444d 50bd 6bb7 93bd
000001b0: cc42 36bb 77be c23d 88ef 86bc f16b e0bd
000001c0: dd4c 87bd 9b50 1d3c 1709 6abd 8038 753d
000001d0: 6338 e23d be5d debd 3221 073e 1b50 483d
000001e0: 1a56 bebd 6cc3 903c c025 3e3d d7d7 063e
000001f0: d8de d93a 45aa a2bd 5931 08bc f636 b83d
00000200: 6258 77bd b995 ba3c dff4 dbbd 7cf3 313d
00000210: 4a02 89bd 5949 d53c ce54 f13c 7567 dabd
00000220: c7a8 48bd f55d fd3d 15bf 073e 36a2 07bd
00000230: 8037 e43b 53b1 093e e50f 86bd 5d9d aebd
00000240: a14c d3bd e5d4 42bc c3bf ffbc 3256 b43b
00000250: 9742 073e 6a8c 053e 659b a03d fa5f bebd
00000260: b9f0 13bb db34 a63d 2f1c d4bc c803 08bd
00000270: e540 8abe 0d25 793c c4a5 3abe 5305 1e3d
00000280: 3558 953d c301 993d 7f73 9c3d 5762 adbd
00000290: d010 afbd d4a2 00be b15a d93d b986 293d
000002a0: 6ddb d03d 327e 29bd ab73 113b 9fb4 9ebd
000002b0: df67 253e c46b 1abc be67 8ebd 76db 9bbd
000002c0: b779 a73b 6ac7 b73c 9d69 c23d 097a 63bd
000002d0: e267 9dbd d8b4 153e 5510 063e 99b1 353e
000002e0: a2d4 4cbd 2705 5cbd 3b43 da3d 2b4d 223e
000002f0: 178c d8bd ff1a 863d a451 2c3e c95c 2a3e
00000300: f381 823d 2fcc ab3d 773a 0b3e be9f 09bd
00000310: e189 1f3e e5c0 c3bd dcb7 3c3c 29b5 97bd
00000320: cd43 ba3b 6c2d e3bd a27c 1fb9 ee13 563c
00000330: 5fc2 09be 556d 85be 96d8 f4bd d7bc 083e
00000340: 6a4e 203e ce0d 4a3e d215 c1bd 630d f8bd
00000350: f202 0b3d 1c52 343d 9ace c83d a77a 65bd
00000360: a7ae c4bd ff4d 233e 8d33 1b3e 667a 393e
00000370: 1b50 d3bc c417 143e 4f9b cb3d 90f7 5cbd
00000380: 57e8 173d d08e 95bd 49e0 93bd 40c8 24bc
00000390: 8b90 8e3b e012 86bd 3c82 3d3e f6d3 f03d
000003a0: 321b 6d3e 4425 9b3d 7460 eb3d 047c cb3d
000003b0: b8b3 2bbd f269 33bc abec 483d d23b b6bd
000003c0: 1ac4 c2bc a591 ddbd cf14 66bd f2fb dbbd
000003d0: e63e 903b bb6b f43a 45a5 903d 9b71 ecbd
000003e0: 9eea fbbd 1cfa a5bd c07a 3e3e 8c82 383c
000003f0: 974a a63d 46b2 b73d 909d e83d 9960 c13c
0.13436513 -0.04895677 0.112310015 0.121394105 0.08017353 0.043895584 -0.014241663 0.0019420807
-0.0072290506 0.038983315 -0.052509513 -0.112345554 -0.2670383 -0.114952184 -0.22448 0.10708735
0.09562869 -0.046661414 0.11852082 -0.08643233 0.1386656 0.12003193 -0.012075084 0.13875198
-0.1027422 0.077679515 -0.068066895 0.07523445 0.163158 0.056958284 0.17136806 -0.07193019
0.14944974 -0.0045380313 -0.1346287 -0.07599265 0.07557187 0.046833478 0.06680672 -0.06611929
0.016713079 0.036386024 0.14268725 -0.09824158 0.09563803 0.067313336 -0.015794715 -0.0848144
0.053871162 0.07832686 0.06727137 0.07280054 0.059625678 0.06894546 -0.05541589 0.014952982
0.015823888 0.09604359 0.0036269145 0.007541902 0.0477314 0.2039873 0.0068339948 -0.13872865
0.1362206 0.12738316 -0.08411891 0.0467385 -0.016846431 -0.023335757 0.006518493 0.060195204
-0.07459529 0.089886636 -0.1181693 -0.053838678 0.019425284 -0.010822629 0.071647756 -0.061374247
-0.110433854 -0.13301724 -0.0062465835 0.08680677 0.028959448 -0.15153469 0.062243406 0.0302542
0.06799121 -0.029190741 -0.008367585 0.14382072 -0.057732727 -0.08906253 -0.047061544 -0.09182501
-0.0948198 0.0064062546 0.07809908 -0.09702194 -0.082899325 -0.026628006 -0.09987594 0.0026115894
-0.097513326 0.013694611 -0.050854936 -0.072127186 -0.002781081 0.095089845 -0.01647164 -0.10958088
-0.066064574 0.009601737 -0.057137575 0.059868336 0.11045911 -0.10857724 0.13196257 0.04890452
-0.09293766 0.01767131 0.04642272 0.13168274 0.0016622199 -0.079426326 -0.008312547 0.08994858
-0.060387023 0.022776471 -0.10740065 0.043445095 -0.0668989 0.026035951 0.029459383 -0.10664264
-0.048989084 0.123714365 0.13256486 -0.03311368 0.006964624 0.1344655 -0.065460004 -0.085261084
-0.1031735 -0.011891578 -0.031219369 0.0055034393 0.13208996 0.13041845 0.07842139 -0.0929565
-0.0022573902 0.0811555 -0.025892345 -0.03320673 -0.27002636 0.0152065875 -0.18227297 0.038579296
0.07292215 0.07471039 0.07639217 -0.084660225 -0.085481286 -0.12562114 0.10613001 0.041388247
0.10198102 -0.041380115 0.0022194188 -0.077492945 0.16152905 -0.009425107 -0.06953381 -0.07610218
0.005110945 0.022433955 0.094928004 -0.055536304 -0.0768583 0.14619768 0.13092168 0.1774353
-0.05000747 -0.05371585 0.106573544 0.1584975 -0.10573595 0.06548118 0.16828018 0.16636957
0.06372442 0.08388554 0.13596521 -0.033599608 0.1557994 -0.09558276 0.011518445 -0.074076004
0.005684352 -0.11092648 -0.00015209851 0.013066275 -0.13453053 -0.26059976 -0.11955373 0.13353287
0.15654913 0.19731829 -0.0942799 -0.12111928 0.033938356 0.044023618 0.09805031 -0.056025174
-0.09603625 0.15947722 0.15156384 0.18113098 -0.025795033 0.14462191 0.09941732 -0.05394703
0.03708681 -0.0730263 -0.072205134 -0.010057509 0.004350727 -0.06546569 0.18506712 0.11759178
0.23154905 0.07575467 0.11493006 0.099357635 -0.04191944 -0.010950552 0.04905383 -0.088981286
-0.02377515 -0.10818795 -0.05617219 -0.10741414 0.0044020293 0.0018647829 0.07062773 -0.11545106
-0.12300609 -0.08104345 0.18601513 0.011261594 0.08119696 0.0896955 0.11358178 0.023605632

conv1d_2.bias f4 [32]
00000000: 0457 21bd b181 853c e311 313e 1f4b fe3d
00000010: a4f9 e9bd 4a90 b63b c3ec 3ebc bdee b53d
00000020: d567 933c 044b 99bd befc 883d be4e 72bb
00000030: e233 40be 9ba4 8c3d cce6 35bd c460 f3bd
00000040: 2b4b a63d 62fc 7fbd 64b8 4a3d 0b5d 60bd
00000050: 3598 37bd fdfc 0c3e 1a9d a73d c409 1f3e
00000060: ba1f b53d 7295 e83c 66dd 17bc 8a09 35bc
00000070: c34e b4bd bd4e 81bd 6701 043e d196 ebbb
-0.039389625 0.016297193 0.1729198 0.12416672 -0.11424568 0.0055714 -0.011653128 0.08883426
0.017993847 -0.07485011 0.06688832 -0.0036973204 -0.18769792 0.068673335 -0.04440956 -0.11883691
0.08119806 -0.06249655 0.049492255 -0.054776233 -0.04482289 0.13768382 0.081842616 0.15531069
0.08843942 0.028391574 -0.009269094 -0.011049638 -0.08804085 -0.06313846 0.1289116 -0.0071896096

conv1d_3.weight f4 [32, 32, 3]
00000000: 2745 ccbc fe21 583d 1410 b1bd 2881 ec3c
00000010: ea4e 93bc 4a94 8dbd 06c0 e33d 7ef3 853d
00000020: 37db 873d e5e3 873d 521e f5bd d5d1 c5bc
00000030: 3abf 30be 3f73 55be 6b97 8cbe a865 163d
00000040: 9285 9fbd d994 ce3c a639 a73b e295 1ebd
00000050: 7a3a 87bc 5961 d33d f7a2 ac3d 75f2 5ebc
00000060: 16d2 fabd bef8 ab3c 1417 473d c8f8 09bc
00000070: 9bdc a23b c2cb 3b3d 22dd 073d a943 5ebd
00000080: e22e 43bd d5e3 793c 5501 92bd 26b2 f2bc
00000090: 4116 4cbe d642 10be f80c 10be 0e6b eebd
000000a0: a41c bebd a286 0cbe 5e49 03be 9f6e 62be
000000b0: 99ce 45be 7249 9dbd 1c20 6e3d 40aa a6bd
000000c0: 2ea6 1a3d f1a7 00bd 06a5 acbd 4fec cdbc
000000d0: 7a23 ed3b 2367 293c 023e e1bd 5d0b 03be
000000e0: df51 0dbe a877 b8bd be19 0f3c c6a2 bcbd
000000f0: a3eb a5bd 5046 a5bd 6694 43be f68a 333d
00000100: 3f7c 873d d3c1 303c fb67 a6bd 3295 023c
00000110: 906f dc3c 4e0a 16bd d7f3 d3bc 87fc 8ebd
00000120: 7e27 dcbd f55b b1bc b56c 5b3d 60fc e5bd
00000130: 6cda 7a3c fe63 2cbd 5ebf 2e3a 124e 73bd
00000140: da18 d9bd e952 c1bd 910f 153d d79e eebd
00000150: 5e97 28bc a948 31be 1570 5cbd 3812 febd
00000160: 191b b3bd 4754 39b9 4fef 323d 90bd 063d
00000170: cd18 b1bd db95 bcbc d218 653d 1aac 02be
00000180: 516d a13d ea49 6f3c 84c2 d63d 7da5 cebb
00000190: e39a a23d 7dcf a2bd be8e 09bc fd64 e3bd
000001a0: ab66 fbbd 14c2 953d aedc 0fbd 7012 bf3d
000001b0: ae86 803d 89c1 1a3e 3ee9 6b3e beee 573c
000001c0: a584 8e3d 7981 643d c155 193d a6da 77bd
000001d0: a4ab f7bd f731 1ebb 7ee8 9dbd 2f67 c7bc
000001e0: 42cd ec3d 4565 7ebc 6681 973d 3f70 2dbd
000001f0: a496 15be dbbc f9bd b134 e53d 9518 603d
00000200: 091b e53d 646a 5b3d 8db8 243d 79b3 cb3c
00000210: 5e1f 2b3e 2fc2 e03d e8eb 0f3e b11b 54bd
00000220: 6c2f e43d 3f55 b5bb 2aa8 143c fe88 2e3d
00000230: 016f b83d f4fd 833d 957b 28bb 9f98 81bd
00000240: 4378 56bd 0550 bb3d f7e8 82bc 65e1 e43d
00000250: 6004 d53d 8018 b53d 1ad1 fa3d 069c 893d
00000260: 5fa4 0d3e 5119 f13c 4e81 c13d a1f5 843c
00000270: a68e 26bd 5f5e 633d 8a0a 133e f0ba f03d
00000280: c6a3 2cbc a0f1 773d b3ca 4d3c 9372 d43d
00000290: 5db5 973c add9 b6bd be9f f9bd d347 bbbd
000002a0: b2ae bebc 7de5 c53c bfe9 3ebd 82c9 023e
000002b0: 251f 45bd 077e e43d d547 fcbc 5ece ccbc
000002c0: ad10 7fbd d1af b9bc 75f3 d93d 329b ee3d
000002d0: a4a6 22ba dbce cf3d 3f92 c03d b20a ff3d
000002e0: 760f 82bc de0b 10bd 827f f33c 2105 db3d
000002f0: ffab 9b3d 6914 b93d a63f 0a3e 3547 883d
00000300: 93f3 a4bc 2450 d03d 6bed 203d 6100 eebd
00000310: f58b 463d 5c45 a13d 92a4 16bd 4a59 09be
00000320: a099 4cbd 1714 633d 9b7a 7a3d 4419 1cbd
00000330: 9949 553e e8b9 b33d 6aa9 d53d a03a 88bd
00000340: c76b 8d3d 4d65 683d 2abd 8fbd 6e5d 5abd
00000350: 55aa 23bd d985 3e3d 380b d13c 11f3 053d
00000360: de92 17bc 60b8 e8bc 8b5e 88bd 8b4e d2bd
00000370: bb22 0fbe f396 b9bb 4013 343d 2c6d 963d
00000380: 0eec ca3d b653 a53d 34ab d13d ee55 0a3d
00000390: 5efe 483e ef37 223e 56ac e33d c4b8 043d
000003a0: c9d4 e43c 51bf d03d ce3d 403e c064 b43d
000003b0: 0787 3a3d 9a0a a5bb 8e2e e8bd 8ca2 d9bc
000003c0: 30b3 903d ef19 8abd 9d81 823d 74ef ef3d
000003d0: c054 263e 4305 083e 15c2 1cbd c328 833d
000003e0: 3726 c63d 4511 a93d f7f4 9e3d 8a10 53bd
000003f0: 1096 633d fa18 b8bc 77ba 0e3e e040 3b3d
-0.024935318 0.052766792 -0.08645645 0.02887018 -0.017981965 -0.069130495 0.1112061 0.06540583
0.06633609 0.06635264 -0.11968674 -0.024147907 -0.17260447 -0.20844744 -0.27459273 0.03671804
-0.077891484 0.02521746 0.005103308 -0.03871716 -0.016507376 0.10321302 0.084295206 -0.013607611
-0.12247102 0.020992633 0.048605993 -0.0084211305 0.004970146 0.045848615 0.033169873 -0.054263745
-0.047652133 0.015252073 -0.0712916 -0.029625963 -0.19930364 -0.14087996 -0.14067447 -0.11641513
-0.092828065 -0.13723233 -0.12820956 -0.22112511 -0.19317092 -0.07680024 0.05813609 -0.08137941
0.037756138 -0.03141016 -0.08429913 -0.025137095 0.007236895 0.010339531 -0.10998155 -0.12797303
-0.13800763 -0.090071976 0.008734165 -0.09210734 -0.08101585 -0.08070052 -0.19099578 0.043833695
0.06615495 0.010788399 -0.081253015 0.007970141 0.026908666 -0.03663092 -0.025873108 -0.069817595
-0.1074972 -0.021650294 0.053570468 -0.11229777 0.015310865 -0.042087547 0.0006666089 -0.059400626
-0.10600443 -0.09439642 0.0363918 -0.1165139 -0.010289995 -0.17312874 -0.053817827 -0.12405819
-0.08745403 -0.0001767437 0.043685254 0.032895625 -0.086473085 -0.023020675 0.055931874 -0.12760964
0.078821786 0.014605025 0.1048632 -0.006306349 0.079396985 -0.079497315 -0.008395849 -0.11103246
-0.12275442 0.07312408 -0.035122566 0.093296885 0.06275688 0.1511289 0.23038194 0.013179479
0.06958894 0.055787537 0.037435297 -0.060511254 -0.12093285 -0.0024138668 -0.0771036 -0.024341194
0.11562587 -0.015527074 0.07397728 -0.042343374 -0.14608246 -0.121942244 0.11191691 0.054710943
0.11186797 0.05356826 0.040215064 0.024865853 0.16711184 0.109745376 0.14054835 -0.05178422
0.111418575 -0.0055338438 0.009073297 0.042611115 0.09005547 0.06444922 -0.0025708426 -0.06327938
-0.052360784 0.09146122 -0.015980227 0.11175803 0.10401225 0.08842564 0.12246914 0.06719212
0.13832234 0.029431017 0.09448491 0.016230406 -0.040663384 0.05550992 0.14359489 0.117544055
-0.0105370935 0.060533166 0.012560534 0.10373416 0.018519098 -0.08928237 -0.121886715 -0.09144559
-0.02327666 0.02415728 -0.046609636 0.12772182 -0.048125405 0.1115685 -0.030795971 -0.025000747
-0.062271763 -0.022666844 0.10642139 0.11650695 -0.0006204641 0.101468764 0.09402894 0.12453212
-0.015876513 -0.035167567 0.029723886 0.10694338 0.07601165 0.09037096 0.13500842 0.06654207
-0.020135676 0.101715356 0.03928892 -0.11621166 0.048473317 0.078745574 -0.03677804 -0.13412967
-0.049951196 0.05543908 0.061152082 -0.038110033 0.20828857 0.08775693 0.10432704 -0.06651807
0.069053225 0.056737233 -0.07018502 -0.053311758 -0.039957363 0.046514366 0.025518045 0.03270251
-0.009251324 -0.02840823 -0.06658658 -0.10268887 -0.13978092 -0.0056637465 0.04396367 0.07345042
0.09908305 0.08072607 0.102377325 0.033773355 0.19628283 0.1584165 0.11116855 0.03240277
0.027933495 0.10192741 0.18773577 0.08808279 0.04553893 -0.005036664 -0.113370046 -0.026566766
0.07065427 -0.06743228 0.06372378 0.11715594 0.16243267 0.13283257 -0.03827103 0.06404259
0.09675258 0.08255247 0.07761567 -0.051529445 0.055563033 -0.022472847 0.13938318 0.045716166

conv1d_3.bias f4 [32]
00000000: 206d aebd 460e 96bd 7157 093d 2b17 96bd
00000010: 5cde d73d 371e 8c3d f43a 783c 0ab0 a83d
00000020: 56bd a0bd f28d d43b 998a 2a3d c48d b8bd
00000030: 9448 5b3d 3bba 29bd 4d2b babd 0245 bbbd
00000040: 365b 06be 8541 84bd b933 a53d 4105 e43d
00000050: a8ed a73d 0cf8 323d 6c27 e53c 2481 fa3c
00000060: 4044 993d d453 363d 1b7e a0bd d45b b93d
00000070: eadb 91bb 1b8a 88bd 45e5 3d3b a208 f33c
-0.08516908 -0.07326941 0.033530656 -0.07328638 0.105404586 0.068417005 0.015150774 0.08236702
-0.07848613 0.0064866478 0.041636083 -0.09011415 0.053536013 -0.04143737 -0.0909029 -0.091440216
-0.13120732 -0.06457809 0.08066506 0.111338146 0.08199626 0.043693587 0.0279729 0.030579157
0.07483721 0.04451354 -0.07836553 0.09050718 -0.0044512646 -0.066669665 0.0028975767 0.029667202

fc.weight f4 [3, 32]
00000000: e6eb d5bc 4b68 a2bd 6fde 1bbe 50e2 0f3e
00000010: 4ad7 1bbe f9f0 3dbe 8259 05be 47f2 da3c
00000020: de93 3f3d 525e c9bd 1180 f13d 70df 093d
00000030: 24ac f0bd e413 3d3e f7b7 c1bd d86f b3bd
00000040: 9dd6 e2bd 7743 5dbe ea85 c6b9 328c 373e
00000050: a125 79bd b20f e9bd c13f c9bd d053 133e
00000060: fb22 bbbc 7bdb 71be 756f 40bd 4ebb 39bd
00000070: d1fe debd ba0e 9f3d a939 b63d eff0 f1bd
00000080: c5ba 53be 19da 973d 6f10 5cbc 1766 a8bd
00000090: 4460 69bd d907 1cbe 8b56 a43d 414a 7cbc
000000a0: 4d60 5a3e 39d4 733d 4f8e 003e fb9c 1abe
000000b0: f9df f23d c2a1 103d e06f e33b 51b1 0e3d
000000c0: 480c d9bd ed6a 5bbc d2a0 233e 67aa fabc
000000d0: de95 053e a32b fdbd 3747 4d3e 32ae cd3d
000000e0: f2c9 eebd 8a77 df3d 2228 2abe 0c8b 043e
000000f0: a374 d1bd f38c 023e a44d c53d aa04 373e
00000100: 7b2b 93bd 1774 2cbe d03b 17be 2996 e7bd
00000110: b5ac 243e 7d08 d73d abb0 3abe c1b3 e0bd
00000120: eb21 05be c069 88bc 0c16 88bd 3ade 193e
00000130: 20f2 f6bb fdc6 af3d 46c4 febd 7a4a 37bc
00000140: 082e 533e 5faa 20be 665b b93d a142 0abe
00000150: ae3e 033e 37ba 913c 66f4 f93d 56ba 00be
00000160: abec 563e 005a 023e e385 913d 4ff6 c9bd
00000170: 7f32 083e 41c8 3fbe 4d48 ebbd 45ac c33d
-0.026113462 -0.079300486 -0.1522157 0.14051175 -0.15218845 -0.18548955 -0.13022426 0.026726855
0.046771877 -0.09832443 0.11792005 0.033660352 -0.11751583 0.18464619 -0.09458917 -0.08761567
-0.110760905 -0.21607767 -0.00037865277 0.17924574 -0.0608269 -0.11379947 -0.09826613 0.1438744
-0.022843828 -0.23618881 -0.046981294 -0.045344643 -0.10888446 0.07766481 0.088977166 -0.118135326
-0.20676716 0.07414646 -0.013431652 -0.08222597 -0.05697657 -0.15237369 0.08024319 -0.015398563
0.21325798 0.059528563 0.12554286 -0.15098946 0.11859126 0.035310514 0.006940827 0.03483707
-0.105980456 -0.013392192 0.15979317 -0.030598832 0.13045451 -0.12361839 0.20046698 0.10042991
-0.11659612 0.10911472 -0.16616872 0.12943667 -0.10227325 0.1274908 0.096339494 0.17872873
-0.071860276 -0.1684116 -0.1476891 -0.11307938 0.16081508 0.10499666 -0.18231456 -0.10971785
-0.1300122 -0.016651988 -0.0664483 0.15026179 -0.007536188 0.08582876 -0.1243978 -0.01118719
0.20623028 -0.15689991 0.09050636 -0.1350198 0.12816879 0.01778899 0.122048184 -0.12571082
0.20988719 0.12729645 0.07105615 -0.09861433 0.13300513 -0.18728735 -0.114884 0.09554342

fc.bias f4 [3]
00000000: c266 f43c 832d 0dbe fc3e 0f3e
0.029834155 -0.13786893 0.1398887
