trained_models/CNN/CNN_Zscore_CF3_pred_2.pth (torch, 37564 bytes, 10 tensors)

conv2d.weight f4 [16, 1, 4, 40]
00000000: 24ab 9f3d 88bb 5d3d 6c9b 933d 1c4b a73d
00000010: 189c 19bd e39b 043e 3f6d 453c a6e4 803d
00000020: be5d 153d c2b8 853d 7c6b bd3c 7415 773c
00000030: 3641 58bd 8ec7 1fbd 4fa2 71bd a770 e63c
00000040: 2373 033d 28d0 8c3b 5774 703d f511 063e
00000050: 96c4 783c 1723 943c aee1 ac3b 184f 77bd
00000060: f671 36bd b9fd 13bd cb84 05bc e3f6 b33c
00000070: 992b 80bd 72ef 173d c598 8a3c 1a30 91bd
00000080: 2343 dc3c 31a4 27bd dd16 adbc 84b9 67bd
00000090: 89fb 833d c1b8 53bc ff00 1e3d e06f d4bd
000000a0: 239e 8ebd 1479 133e 9289 3dbd 9ab3 dc3d
000000b0: dbba b73c 68ec bc3d f00f 933d 002d e13d
000000c0: e7e6 2b3d 7c21 1dbd caa1 7c3d 240a 81bc
000000d0: 4e51 b8bc d3de 0ebd 15a3 093d ef32 983d
000000e0: 9288 0dbb c158 fbbc 9df1 523d 43d8 8cbc
000000f0: 5e65 c63b 4975 90bd 80d8 1dbc cad8 603d
00000100: 6286 47bc 4288 9dbc 2a40 5a3c 3c29 163d
00000110: 9017 a03d 84f1 fd3c 0ab0 93bb 9e55 31bd
00000120: 416c 5bbd 4aa2 f43c ebdb ad3d d3a3 07bc
00000130: e012 c53b 0e69 933d b07d d4bc d017 1cbd
00000140: 4093 f53c 54d0 1d3e c377 2d3d 6a69 063d
00000150: cac2 1c3d e32a e23d cc37 8abd f72c e13d
00000160: 4a32 bc3c 7c6a dcbc 3818 473d 3a91 6a3d
00000170: f3d9 803c e7dc bb3d 7000 72bb ecf8 633d
00000180: eb36 50bd c740 85ba 6908 15bc 7c6a 433d
00000190: 5920 09bd d79f aabd a56a 3e3c 9688 91bd
000001a0: 0a7b b43c 6bbc 97bd a2ab cbbc a27e 973d
000001b0: 9334 29bd 0d19 293c 6fd0 c13c 34b3 ab3c
000001c0: ff00 a43d 4d95 df3d 16b1 a83d d650 8d3d
000001d0: 2baf d4bc 46c1 9fbc 26f3 043d cddf c1bd
000001e0: e8b7 8abd 99b1 053e 8d7a 633c 2bfb e53d
000001f0: 695e 3abc ae65 bc3d aaa3 9f3c 5a90 683d
00000200: 0331 3c3d 6e11 56bd 7410 17bd 2252 c3bb
00000210: 3a08 64ba 3b98 ae3d b814 863d f936 8ebb
00000220: 81ab e6bc d723 fdbc ab0a 993d 35d5 b73d
00000230: 3cd6 74bb fd84 53bc 2ae7 453d 5a99 93bd
00000240: 184a 833d 6ec1 723d a3d1 213d a3d9 cdbb
00000250: 0cae 1f3d 2f61 8e3d 9e11 a93d e82f b0bb
00000260: 42a0 4c3d 66a6 50ba 71ea 713d efb7 9b3d
00000270: 9b08 60bd 2d7d c33b f156 823d 503d 9dbc
00000280: a145 7dbc b191 003d 1345 c9bd de76 8f3c
00000290: e9dd 99bd 9edd febc 44c0 083d 23f2 76bb
000002a0: 6f75 9f3c 120b d7bd e4b6 0fbd 84bd 87bc
000002b0: 3ceb 81bd 9498 8f3c 2e62 c03c 5a56 bd3c
000002c0: e703 7bbc 1e07 3fbd 8284 fa3b 916d 6b3d
000002d0: 6fcc f03c 4dc0 44bd c84c 173c 5043 36bd
000002e0: 037f 64bd 7d8b e0b9 5c3c b6bd 5bc5 223d
000002f0: 1966 91bd 6787 21bd 9226 573d 0a9e 58bd
00000300: 19aa 703d 4750 e43d bc4c cebc edd0 14bd
00000310: 9729 b8bd 0a6d f23c 65e3 17bc b931 cb3c
00000320: 6838 91bd e12d 3aba 361d 2ebd 0110 6d3d
00000330: 54c1 93bd 4167 aeb7 1080 57bc baec babd
00000340: 1191 b4bb 0dd4 d2bd 50af 213d 6d60 87bb
00000350: c62e abbc d206 243c fee3 223d fbb4 abba
00000360: 9a42 073c 0eec 953d 1418 25bd 4a0e 8b3c
00000370: d499 323d 9aa8 1b3d 11c9 98bd 1a34 7abd
00000380: 75a6 7ebd 104d d5bc 8d8f 033b 8b71 ba3c
00000390: f95b a5bd 972d 20bd b3a5 28bd 4cb2 6c3c
000003a0: 7533 70bc 75bd 5b3d 2f3e 2ebd a9b6 12bd
000003b0: 9f68 503c 5f97 b23d c814 663d 8fb2 babc
000003c0: 45ab 103d e892 993d 7966 90bb 67c6 f63b
000003d0: 1037 533d 2e5b cabc d08d b8bd 8c02 f3bd
000003e0: 286f 88bd 449b 46bc dacd 163d 037e d53b
000003f0: 1a93 8fba 02d7 b83d 6b43 a8bc 782a 78bd
0.07796314 0.05413392 0.07207379 0.08168623 -0.03750238 0.12950091 0.012049972 0.06293611
0.036466353 0.065293804 0.023122542 0.015080798 -0.052796565 -0.03900867 -0.05899268 0.028129889
0.032092225 0.004297275 0.0587047 0.13092788 0.0151835885 0.018083138 0.0052759266 -0.060378164
-0.044542275 -0.03613064 -0.008149336 0.02196831 -0.062583156 0.037093587 0.01691855 -0.07089253
0.026887482 -0.04092807 -0.021129066 -0.056573406 0.06444461 -0.012922467 0.03857517 -0.10372901
-0.06963756 0.14401656 -0.046273775 0.10776444 0.022427967 0.092247784 0.07180774 0.10994911
0.041968253 -0.03836201 0.06167773 -0.015751906 -0.022499707 -0.03488047 0.033602793 0.0743159
-0.0021596295 -0.03068197 0.05149995 -0.017192965 0.0060545644 -0.0705362 -0.009634137 0.054894246
-0.012178035 -0.019230012 0.013320962 0.036660418 0.07816994 0.030998953 -0.0045070695 -0.04329454
-0.053570036 0.029862542 0.08489212 -0.008278805 0.006014213 0.07197772 -0.025938839 -0.038108647
0.02997744 0.15411502 0.04235054 0.032815374 0.038271703 0.11043336 -0.06748924 0.109949045
0.022973198 -0.026906244 0.04860708 0.057267405 0.015728926 0.09172993 -0.003692653 0.055657312
-0.050833624 -0.00101664 -0.009096243 0.047708973 -0.033478115 -0.08331268 0.011622106 -0.0710613
0.022031326 -0.07408985 -0.024862114 0.073972 -0.041309904 0.010320914 0.02365896 0.020959474
0.080080025 0.10917149 0.082369015 0.06900184 -0.025962433 -0.01950134 0.032458447 -0.09466515
-0.067733586 0.1305603 0.013884199 0.11229547 -0.011375048 0.09199081 0.01948722 0.05677829
0.04594518 -0.052262716 -0.036880925 -0.0059607187 -0.00086987356 0.085251294 0.065469205 -0.0043400493
-0.028157951 -0.030900879 0.07472738 0.08976213 -0.003735914 -0.012910125 0.04831616 -0.07206984
0.06410617 0.0592665 0.039506566 -0.006282048 0.038984343 0.0695213 0.08255313 -0.0053768046
0.04995752 -0.00079593656 0.05906147 0.07603442 -0.054695707 0.00596585 0.06364239 -0.019194275
-0.015458495 0.031388942 -0.09827628 0.017512735 -0.07513029 -0.031111535 0.033386484 -0.0037680946
0.019465176 -0.10500158 -0.035086527 -0.01656986 -0.063436955 0.01752881 0.023484316 0.023112465
-0.015320755 -0.046637647 0.0076451907 0.057477538 0.029394357 -0.048034955 0.009234615 -0.044497788
-0.05578519 -0.00042828536 -0.088982314 0.039738994 -0.07099552 -0.03943577 0.052527018 -0.052885093
0.058755968 0.11148124 -0.025183074 -0.03633206 -0.08992308 0.02959301 -0.009270524 0.024803983
-0.07090837 -0.00071021734 -0.042508326 0.05787659 -0.07214609 -2.0790498e-05 -0.013153091 -0.09127183
-0.0055104573 -0.10294352 0.03947383 -0.004131368 -0.020896327 0.010011392 0.03976821 -0.0013100201
0.008255625 0.073204145 -0.040306166 0.016974587 0.043603733 0.038002588 -0.074602254 -0.061084844
-0.062170465 -0.026037723 0.0020074577 0.02275922 -0.08074183 -0.039105978 -0.041173648 0.014446806
-0.014660706 0.053647477 -0.04253977 -0.03581873 0.012720256 0.08720278 0.056172162 -0.022790221
0.035319585 0.07498723 -0.004406747 0.0075309756 0.051566184 -0.024701681 -0.090114236 -0.1186572
-0.06661826 -0.012121979 0.03681741 0.006515266 -0.0010953874 0.090253845 -0.02053996 -0.060587376

conv2d.bias f4 [16]
00000000: fef5 843d fca2 ec3c c55b 1fbd 6c90 3abd
00000010: e706 0bbb 3c04 40bc fd67 dfbc 2663 6d3d
00000020: 3fca 0fbd ea53 9a3c 3625 82bc 8838 15bd
00000030: f4aa 683d 446a 733c 4d0d 1a3c 6e11 c43c
0.06492232 0.02888631 -0.038905878 -0.045547888 -0.002121383 -0.01171976 -0.027271265 0.057955883
-0.035104986 0.018838841 -0.015886884 -0.036430866 0.05680366 0.014856879 0.009402585 0.023934092

conv1d_1.weight f4 [16, 16, 4]
00000000: ef78 b1bd bb8e efbd 4125 933d 1e86 e73d
00000010: b992 bfbd 1103 e93c 1d79 bd3d af77 1e3d
00000020: c23f a9bb a95b 99bd c71c efbd 029a 723d
00000030: 9851 dd3d 46f5 0fbd fc0c 11bd 0d02 a63d
00000040: 529e 873d 4363 893c ad9a c73d ab3c 943d
00000050: 21b4 363d dc65 283d 6289 ab3d c6ec 943d
00000060: 3660 ce3d 5a0f cebc fa3c bc3d 9005 8e3d
00000070: 7151 433d 4159 ed3b 9b90 55bd 459e 293d
00000080: 6c80 a53d c48d cebc ea16 353e e88a 86bd
00000090: 4a8d 1e3d e65c 80bd 2b59 dc3d 9b0d 66bd
000000a0: cc66 b03c 9541 91bd cbc5 bb3d e5b6 af3d
000000b0: 3c76 3fbd f4b8 a33d 7580 1ebd 1d52 ed3d
000000c0: 7b57 7b3c 59f1 dfbd 9c46 593d 3d26 993d
000000d0: d8c9 ad3d d4bb 0a3e f8ff 93bd 788e fdbc
000000e0: 5dc6 6d3d 9ff0 25bc ac6c f73d bdf9 c6bb
000000f0: 7fca 51bd 9236 ffbc 9557 843d 01d1 0cbe
00000100: 7a9e 3dbc cdb6 1e3d 462f d33d dd18 6a3d
00000110: ca76 fabd a45b a93d cbad b43c 6305 60bc
00000120: 6cb5 d73d 8f0d f53d b84d ad3d 4b55 193d
00000130: a361 703c ebee aebd 39b0 a43d 7cca ca3d
00000140: 6138 babd 29a8 a9bd 07a2 163c fbe3 853d
00000150: 1284 bb3c 87bc 4f3d 4ac5 933d 1ffa de3c
00000160: 661f a33d 47fd fbbd 1672 1abd 62c6 bebd
00000170: 8ab6 82bc 8d03 fc3d 824c d83d f435 dbbd
00000180: 26e0 c9bd 375a 003e 1761 383d 155d eebd
00000190: c90e 0c3d 3e54 df3c 7559 d13d 690b 823d
000001a0: 7739 a8bd d55b 8abd 75f9 9abd 494e fc3d
000001b0: 8968 c7bd c776 a3bd 60a9 5ebd 74e7 213c
000001c0: 5827 e0bc 165a d6bd a6ca ba3d fcd0 233d
000001d0: b1e3 d93d 05d7 2cbc 7805 1a3d ce92 9dbd
000001e0: 801b b23d dc81 a3bd 59ac 163e 070c 053e
000001f0: da28 a53d e7a3 fa3c 0a8f cbbd 15a1 3a3d
00000200: b67f 4cbe 26fa 39be 1219 54be c630 42be
00000210: cd22 933c d365 953d 5d10 17bd eae8 063c
00000220: f3f3 37bc 58f8 963d 6dac 643d 5c7c 8bbd
00000230: 6a3e dcbd 8410 a6ba 8f21 8ebd 0294 d7bd
00000240: dedc 11bd 9d83 a13d 8bcc 0a3e 0312 8abd
00000250: b522 0d3e 841a 443d 5f23 77bb c922 4d3d
00000260: 9cf4 c0bd 08b4 d83d 5fb8 f53d 156b 763d
00000270: 1761 463d 37ae d3bd 8fb7 22bb e555 85bd
00000280: 3178 193d 0fd6 b03c daac a23d b9db 7cbd
00000290: ec6e 173d e974 c0bd 8573 fdbd d48c cabc
000002a0: 8393 8b3a 87f7 033e 3628 b8bd ab39 b6bd
000002b0: 512c adbc e4c1 023e 20c0 a8bd d698 383d
000002c0: 1f6c a93d 31cc e43c 568e 0d3d d3f8 9abd
000002d0: 60ad dd3c 7cb4 ad3d c30f 28bd 3457 053e
000002e0: db6d e13d 9fe5 763b e802 c7bc 9b3e 523d
000002f0: 5437 d83d b580 c2bd 7e23 6d3c ce0d b23d
00000300: c01b f93d 0f07 8bbc cbc5 a1bd a15d cbbb
00000310: 1bf6 053e 47c5 a33d 33a4 073e 68de d5bc
00000320: 7d45 c6bd e675 8abc 3856 62bd 6419 a7bd
00000330: fdb4 13bd 0a5e 6abd 6d49 21bd 6e1e a7bc
00000340: 1f6f a63d e464 d6bd aa9f 04be 45d9 0fbe
00000350: f0de 213e 7e5f edbd ef7d b93b 2155 d0bd
00000360: 96ea 833d 01f0 f93d 38ee 833d 504e e6bc
00000370: f0ec 9c3d d282 013e 0874 003d a7b2 a83d
00000380: 026c ec3d a62c 253c 7b87 763d 1601 19be
00000390: 3609 07bd d67a be3d cd11 113e 1a0a 2b3e
000003a0: e1e9 e0bd 21bc 46bc 5ef6 493c fe06 35bd
000003b0: b4e2 143d 4f64 dabc 706f 9fbd 5265 edbd
000003c0: 4a10 51be 8e05 7bbd 8473 7fbe fd2d c3bd
000003d0: ac96 b5bd e58c 2cbe ae7c 0fbe daa6 8f3d
000003e0: e1de 8b3d 40f7 e8bd 036d cebd f3d3 efbd
000003f0: d3d7 9e3d b0e5 cc3d 341b 82bb 9c5b 16bd
-0.086656444 -0.116971456 0.0718484 0.11304878 -0.09354157 0.028443845 0.09251616 0.038688358
-0.005165071 -0.07488186 -0.11675411 0.059228905 0.108065784 -0.03514602 -0.035412773 0.0810586
0.06621994 0.016770964 0.09746299 0.07238134 0.044605378 0.041112766 0.08375813 0.072717234
0.100769445 -0.025153805 0.09191318 0.06934655 0.04768509 0.007243306 -0.05213986 0.041410703
0.08081135 -0.025214083 0.17684522 -0.06569463 0.038708963 -0.06267719 0.10759195 -0.05616532
0.021533392 -0.07092587 0.091685854 0.08579806 -0.046743616 0.079942614 -0.038696725 0.115879275
0.015340681 -0.10934705 0.053045854 0.074779965 0.08485764 0.13548213 -0.072265565 -0.030951723
0.058050502 -0.010128169 0.120812744 -0.0060722516 -0.051218506 -0.03115395 0.064620174 -0.13751604
-0.011573428 0.03874855 0.10311751 0.057152618 -0.122296885 0.08269432 0.022055527 -0.013673159
0.1053265 0.11965477 0.08462089 0.037434857 0.014671716 -0.08541664 0.08041424 0.09901902
-0.09092785 -0.08284027 0.009193904 0.065376244 0.022890124 0.050716903 0.07215364 0.027218876
0.07964973 -0.12304168 -0.037706457 -0.09315182 -0.015956182 0.12305365 0.10561468 -0.1070365
-0.09857206 0.12534414 0.045014467 -0.11638848 0.034193788 0.02726185 0.10222141 0.063498326
-0.082140855 -0.06755797 -0.075671114 0.12319619 -0.097367354 -0.07981639 -0.054360747 0.009881843
-0.02736251 -0.10466401 0.09120683 0.039994225 0.10639132 -0.0105493115 0.03760287 -0.076940164
0.086966515 -0.07983753 0.14714183 0.1299287 0.080644324 0.030595733 -0.09939392 0.045563776
-0.19970593 -0.1816183 -0.20712689 -0.18963918 0.01796093 0.07294812 -0.03688084 0.008234242
-0.011227596 0.073715866 0.0558285 -0.06810829 -0.10754092 -0.0012669717 -0.069399945 -0.10526277
-0.035611026 0.07886431 0.1355459 -0.06741717 0.13782771 0.04787685 -0.0037710292 0.050082
-0.094216555 0.10581213 0.119980566 0.060160715 0.048432436 -0.10335963 -0.0024828648 -0.06510524
0.03746814 0.021586446 0.07943125 -0.06173298 0.036971018 -0.09397299 -0.12375549 -0.024725355
0.001064882 0.12887393 -0.08992045 -0.08897718 -0.021139296 0.12769276 -0.0823977 0.04506763
0.082725756 0.027929397 0.03455957 -0.07566991 0.02706021 0.0848169 -0.041030657 0.13021547
0.110072814 0.0037673486 -0.024293378 0.051329236 0.10557428 -0.09497205 0.014473794 0.08694039
0.12163496 -0.01697114 -0.07899054 -0.00620623 0.13082163 0.07996612 0.13246231 -0.026107028
-0.096812226 -0.016901921 -0.055258006 -0.0815914 -0.036061276 -0.05721859 -0.039376665 -0.020400252
0.081266634 -0.10468462 -0.12951532 -0.14047725 0.158077 -0.11590479 0.0056607644 -0.10172487
0.06441228 0.1220398 0.06441921 -0.028113514 0.0766238 0.1264756 0.031360656 0.082372
0.11544038 0.010081446 0.060187798 -0.1494182 -0.03296777 0.09300773 0.14166947 0.16703072
-0.10982109 -0.012129814 0.012326805 -0.04419612 0.036349013 -0.026659159 -0.07784927 -0.11591591
-0.2041637 -0.061284594 -0.2494641 -0.09530256 -0.08866629 -0.16850622 -0.14012405 0.07014246
0.0682962 -0.11375284 -0.10079386 -0.11710348 0.07756009 0.10004747 -0.003970528 -0.03670846

conv1d_1.bias f4 [16]
00000000: 2f68 c5bd 6d19 393d 7c83 93bc d76b a6bd
00000010: d4f8 b6bd c6ff 09bb c489 ab3d 0c94 7fbd
00000020: 21c9 0fbe 68ae 4bbd 8057 d6bd b6eb 6d3d
00000030: cfa3 ac3d 15ef 00be 2028 cc3d 625d 073e
-0.09639012 0.045190264 -0.018007033 -0.081260376 -0.08934179 -0.0021056994 0.08375886 -0.062397048
-0.14041568 -0.049726874 -0.10465908 0.05808612 0.084296815 -0.12591203 0.09968591 0.13219216

conv1d_2.weight f4 [32, 16, 3]
00000000: 9844 0fbd 4273 02be ee3f c3bc b656 8d3d
00000010: afab aa3c 072d 3c3d a2ab 893d 7c71 b03c
00000020: b6f9 903d 2ef4 97bd 386f f1bd 4d0d 8fbd
00000030: 1486 c13d 55fd 953d b0b2 93bd fd5a c33d
00000040: 9f7f ebbd ffa8 d93d 8177 b1bc 33db 3fbe
00000050: 0844 97bc 1f71 b8bb 4a5d 4f3d dde6 0c3a
00000060: e6f7 873d 1237 f03d 3764 a73d 3672 333b
00000070: ab31 9f3d e0df 1a3e a295 243e 1a08 433e
00000080: 4b00 c63d 578d b83c 230a 82bd 92cb adbd
00000090: 9407 503d acef abbd 7d73 243e 5f62 203e
000000a0: 552c ef3d 5cc1 993d 733e 8dbe 220b 0fbe
000000b0: bab7 23be aaa2 00be 8b17 093d 6a21 45bd
000000c0: bed1 93bd 06b5 b4bd 8469 e13c 6c8c 013e
000000d0: b151 b4bd 4a1b 183e e8c3 18be 5e6e a9bd
000000e0: 252c e9bd 3e24 08be de4a 8e3c e005 033e
000000f0: bf4b 87bd c45a 22be f515 8a3c 734b abbd
00000100: fe5c d4ba 6b56 2fbd e0ae 11be e784 453d
00000110: 0343 ac3c a788 0dbe 9033 d6bd 43cb 763d
00000120: 9c4f 2f3e cb71 e7bd 1080 78bc c078 f5bd
00000130: 6a9d 16be 1a85 2ebd cc45 a9bd ed85 143c
00000140: a455 59be 50be 833d 8837 153e 73f3 a43d
00000150: 0455 f0bd 45ff 013e d4ef 093e 8ba0 0c3e
00000160: 723d d1bc 1638 55bd e106 fcbc abbc 1d3d
00000170: 6a86 11be bd7d aebd 33b8 f3bc 1b20 afbd
00000180: cbe7 0d3e 3053 76bd d42a ef3d 32e2 b33d
00000190: 241f f13d c5b1 0bbd 6700 f33b 0d71 e1bd
000001a0: 1c83 7fbd 5499 c4bd 5404 31be ce35 32be
000001b0: 5fcf 91bc 14f1 d63d bf73 9f3d 6232 9fbd
000001c0: 98fd aebd 73e6 cc3d 2621 75be df8a 81be
000001d0: 2b8c 11bd 28dd 633c c1d3 e83c b65f 183d
000001e0: a7f0 923d c286 a53b 1941 b33d 44e2 af3d
000001f0: 404a 143e aeb4 f03d a057 0f3e 87ed 2a3e
00000200: f39e eb3d 4ab9 debd 37bb 043e f902 003e
00000210: 170e 243e 6065 f7bd cd8f d63d c7e6 4abd
00000220: 67d3 17bd 76de 163d 3c33 f4bd 5d88 47be
00000230: 73a5 7abe a58a d7bd c094 5d3d 50c2 603d
00000240: 542a bb3d c9f0 cf3d 42aa 433a f30e 053d
00000250: da5c d1bd 0c1c 5bbd b7ff d4bd 8fed 823d
00000260: debf 1b3e 5dad 52be bbe9 0bbe e0f7 bcbd
00000270: a9eb c23d e580 b53d edee d6bc 3a06 c43d
00000280: 9240 5abd fbd0 36bd d535 70be 99ec 80be
00000290: b94d 1dbe 5bd7 683d bfef 0b3e 8ec3 1a3e
000002a0: 5855 0c3e 23d6 f63d 5702 6a3c 3b0e eebc
000002b0: c597 6bbd fad7 383d c1ea 823d fd0d 563e
000002c0: 6371 0c3e 739f 7b3d 5bb9 d0bd 5116 b33d
000002d0: 2694 9d3c e94a e73d bb42 c5bd 13bd e0bc
000002e0: 5089 edbd fe06 863c 35ce 83be da56 1bbd
000002f0: 7ace 6dbe 47e7 4dbd db03 9a3d 252c bb3b
00000300: 6059 083d 3085 6b3d 4b50 15bc 5f65 b73d
00000310: 0005 103e 2dd4 e0bd feb1 2e3d 54ef f73c
00000320: cd11 ba3d 4de7 3abd c1c8 cc3d 51fe fcbb
00000330: 7abf 033e 9a5e 7a3d 67be 48bd e084 833d
00000340: 76f0 85bd 7213 c5bc f039 fb3d 3e54 3b3e
00000350: 2acb b03d 8308 863d c81c fe3d a018 91bd
00000360: 94a5 6b3b 7eda 03bd 13f7 05be 5206 d6bc
00000370: 3411 afbd 4be6 f0bd 553a 4ebd 9d1c 57bd
00000380: d306 a13d 6589 b13d 470f 0bbd f86e 40bd
00000390: fb33 cc3d 3cd3 1abe 3b1b fc3d f34e cc3d
000003a0: 923e a13c 8d91 b6ba c4be 3f3e 3291 0bbd
000003b0: 4213 2f3e 5296 053e 023e 95bd 13e4 d2bd
000003c0: cb9d aa3b bdbd a53c 18bc f4bc 2033 ba3d
000003d0: dfd7 07be d273 90bd 9b06 433d 9c1e 953d
000003e0: 04ef 43bd 33d5 8c3d f129 e73d 7fb1 c7bd
000003f0: 215a 4fbd 5034 0abe 0ef3 7a3d 05d5 233d
-0.034977525 -0.1273928 -0.023834195 0.069013044 0.020833818 0.04594138 0.067221895 0.021538489
0.070788786 -0.074196205 -0.117887914 -0.06984959 0.094494015 0.0732371 -0.07211816 0.09538839
-0.11498951 0.106279366 -0.02166343 -0.18735962 -0.018465057 -0.0056287195 0.050626077 0.00053749775
0.0663908 0.11729254 0.08173411 0.0027381307 0.07773145 0.15124464 0.16072705 0.19046059
0.09668025 0.022528334 -0.0634959 -0.084860936 0.050788477 -0.08395323 0.1605968 0.15662526
0.116783775 0.075075835 -0.27586707 -0.1396909 -0.15988055 -0.12562051 0.033469718 -0.04812757
-0.072177395 -0.0882359 0.027516134 0.12651223 -0.08804644 0.1485416 -0.14918482 -0.08273004
-0.11385373 -0.13295075 0.017369684 0.1279521 -0.06606244 -0.15854937 0.016856173 -0.08364
-0.001620203 -0.042807024 -0.14226866 0.04822245 0.021028047 -0.1382166 -0.104590535 0.06025244
0.17120212 -0.11301001 -0.015167251 -0.11985922 -0.14708486 -0.042607404 -0.08265266 0.0090651335
-0.21224076 0.064327836 0.14571965 0.08054247 -0.117349654 0.12695034 0.13470393 0.13733117
-0.025541995 -0.05205544 -0.030764999 0.038510006 -0.14211431 -0.085200764 -0.029750919 -0.085510455
0.13857953 -0.060137928 0.11678091 0.08783378 0.11773518 -0.03410508 0.0074158194 -0.11007891
-0.062380895 -0.095995575 -0.17286807 -0.17403337 -0.017799078 0.10495201 0.07785749 -0.07773282
-0.08544463 0.10004892 -0.23938426 -0.25301263 -0.035534065 0.013907708 0.028421285 0.037200652
0.07174807 0.005051465 0.08752651 0.085880786 0.14481449 0.11753212 0.1399827 0.16692172
0.115049265 -0.10875185 0.12962042 0.12501134 0.16021 -0.120798826 0.104766466 -0.049536493
-0.037066843 0.03683325 -0.11923835 -0.19485612 -0.24477176 -0.10524491 0.054096937 0.05487281
0.09138933 0.10153348 0.000746403 0.03248496 -0.10222788 -0.053493544 -0.10400336 0.06392967
0.1520991 -0.20573945 -0.1366338 -0.09226966 0.09517605 0.08862475 -0.026236976 0.095715
-0.053284235 -0.044632893 -0.23458035 -0.2518051 -0.1536168 0.056846004 0.13665675 0.1511366
0.13704431 0.12052562 0.014282784 -0.02905952 -0.057517786 0.045127846 0.06392432 0.20903774
0.13715129 0.06143136 -0.10191604 0.08744491 0.019235682 0.11293585 -0.096318685 -0.027433908
-0.11598456 0.016360756 -0.2574326 -0.037924625 -0.23223296 -0.05026939 0.075202666 0.0057120495
0.03328836 0.057500064 -0.009113382 0.08954882 0.14064407 -0.10977969 0.042650215 0.030265488
0.090854265 -0.045630742 0.09999228 -0.0077207466 0.12866011 0.061125375 -0.049009707 0.06421828
-0.06540005 -0.024057124 0.1226691 0.18293855 0.086325005 0.06544592 0.12407833 -0.07084775
0.0035956847 -0.032190792 -0.13082533 -0.02612606 -0.08548203 -0.11762675 -0.0503486 -0.052517522
0.0786263 0.08668784 -0.033950116 -0.046980828 0.09970852 -0.15119642 0.12309881 0.09975996
0.019683156 -0.0013928876 0.18725115 -0.034074016 0.1709719 0.13045624 -0.07287218 -0.10297408
0.0052067987 0.020232076 -0.029874846 0.090917826 -0.13265942 -0.07053341 0.04761372 0.07281229
-0.047835365 0.06876602 0.112872966 -0.097506516 -0.050623063 -0.13496518 0.06126695 0.039998073

conv1d_2.bias f4 [32]
00000000: 207a d63d 8bbd 323b b81f e1bd 35b2 14be
00000010: 61f5 693d 8805 e53c a6f0 243d 03c7 e4bd
00000020: a5af d03c d349 e33d d937 0abe 40a0 153d
00000030: e590 4abd b4e8 a83d 05d7 18bc 4fe4 813d
00000040: 85d9 b8bd 5b03 033e 6819 9ebd 84b6 a8bd
00000050: 3985 c0bd 5b0f 06be 9285 813d 7bc1 a63d
00000060: 535c 273e 9da0 b03d 96cf 243d 55a1 153e
00000070: 0cc0 cd3c aa8a 143e d7dd e9bd b02e 983d
0.10472512 0.002727362 -0.10992378 -0.14521106 0.057118777 0.027956739 0.040268563 -0.11170771
0.025474379 0.11098065 -0.13497867 0.03652978 -0.04945459 0.082475096 -0.009328608 0.063423745
-0.090258636 0.12794249 -0.077196896 -0.08237937 -0.0940041 -0.13091795 0.06324305 0.08142372
0.16343813 0.086243846 0.040237032 0.14612325 0.02511599 0.14506021 -0.11419266 0.0743078

conv1d_3.weight f4 [32, 32, 3]
00000000: bbaa 913d c2fa b23d d84f c5bd e1f7 ac3c
00000010: bc07 1dbd a7ed 9ebc 8120 263d 3c63 3ebd
00000020: c3c0 0abd 0de9 03be d0a9 03be a522 0abe
00000030: fb58 053e f4ff 213d c555 8bbc 2b4e 833d
00000040: b337 ae3d 7378 a6bd fe48 9ebb 16df 37bd
00000050: fbca 43bd e091 0e3c 9592 b0bc 1d43 85bd
00000060: 3bed cb3d 7e12 b53d 41ab e23c ba61 96bd
00000070: a9e6 8f3c a8f4 643a b371 323c 3c85 e03c
00000080: 10c5 a3bd 7919 533d 04e8 67bd 2caa a2bd
00000090: bc3c 59bd 9181 073d 9673 98bd 20ea 4d3d
000000a0: 705b 883d 5f7e 793d 21e6 a13d 278f 1c3d
000000b0: 0cdb 83bd 67ff 8b3d 1cdf 73bd af2e 563d
000000c0: 77c9 da3d 995c 93bb 38a5 bebd e7db 243e
000000d0: cd26 c53d ed73 5abb f287 123d 74fd c9bc
000000e0: 0e14 fabd cb70 a4bc 5379 363b daf6 593e
000000f0: 1902 a3bd 8cb7 bcbd 1948 b9bd ae87 d23d
00000100: 7ad2 94bd 43b5 983d 23ca 153d 515b c03d
00000110: 339e 663d 24a2 5e3d e5fd 9abd d57f ef3c
00000120: 63f9 dd3d e6b8 0d3e 24c7 f83d 18f2 183c
00000130: ec59 2abc 8287 dcbc ad33 2abd 0146 05be
00000140: ae95 2c3d 63d8 ef3d 42cc e93d 893a 863d
00000150: f3dc d63d 9fb1 69bd c374 163d f2ae 683d
00000160: 0f61 e83d a3af 253d 85ce 413c 2a13 513d
00000170: 3d77 e2bd 7e8d 67bc 0fd7 713d 50fb 4a3d
00000180: 2414 183d 9eac 8b3c 4320 833d ce20 d1bb
00000190: a2fd 983c 4993 23bd 9765 c63d 5934 793d
000001a0: 3d0d b83d 235d 3e3d fb40 0a3e 823a f73b
000001b0: df93 883c 9ac8 02be 16af c5bb 4b7f 95bc
000001c0: 5952 033e 351c 9b3d 5769 9abc 7587 8e3c
000001d0: 4125 49bc 6c9d 5d3c b76f 0f3e 65b8 053e
000001e0: 2580 c53b 04a5 b9bd d18a 30bd f64e c23d
000001f0: 9388 98bd 4ddc 7abd a871 663c 9896 a3bd
00000200: b8fc 8e3c e4b7 533d a096 ea3d 3d5e 923d
00000210: 0e02 043d 3c7a 173d c099 983d 04b3 92bb
00000220: 70a7 c93d 422c 06bd 1792 17bd ec61 d53d
00000230: aa21 8f3d 2af1 da3d fe90 3f3d 265e a33d
00000240: fb0e 323d ef71 683d 1d5c 403d a475 6fbd
00000250: 39ae 28be 9c20 05be 0a67 eb3d 961a 9d3c
00000260: e038 ad3d 39a0 85bd 49a1 60be 2295 a6bd
00000270: 1d7e 863d 82d8 d5bc a1c1 8b3d db0b 1d3c
00000280: e1ed f1bd a92c c6bd d196 7f3d e890 853b
00000290: c4cb 483d 69a4 e83d 59ac 203d 5a49 03bd
000002a0: 5364 0abe fe41 13be 3ade 62bd 1c38 a43d
000002b0: 3078 ee3c ce17 eebc e3a7 ca3d e378 35bc
000002c0: ff24 b93d 49a9 17bd 3617 d9bd 696c 13be
000002d0: 533b 323d 4f66 6f3d 9be4 093b f8e7 58bb
000002e0: bed4 e5bd 8e00 88bd d851 20bd 3b2b 9dbd
000002f0: f6fc c23d ee60 d43d be7d 5cbd d346 c93d
00000300: 0d67 6dbd dbf7 a13d 2399 96bc 8d4f 40bd
00000310: efe6 a13c 2b0d 0e3e 0024 d13d 8d46 533d
00000320: 30f1 de3d 0ce9 323e 500a 373e adf3 983d
00000330: 3f5e aabd dd83 83bd 285f 5dbd e422 743b
00000340: 7555 983c 6e07 543d b038 8f3d a2f4 a23d
00000350: 5222 953d f813 763d f310 dd3d c362 193d
00000360: ca29 1cbe 9f14 6ebd e57d 0abe 9995 bf3c
00000370: d61b 6c3d 0ec3 a8bd 87dc 633d b90d 73bd
00000380: 9f64 673c 4057 95bd 263a c83b 04a0 c13d
00000390: c95b 86bd 37b6 a53d 0f65 3dbc aaff 80bd
000003a0: 87df 54bc 707e 9b3d e98a 593c 8347 88bc
000003b0: 05fb 393d 9ab1 babc adda eb3d 922f 933d
000003c0: 717f 1fbd c13b 013e 9f6b 173d 9d59 41bd
000003d0: 558c cebd 9a90 c6bd 70ad 1ebd 94d3 90bb
000003e0: 982b 083e b07a 1abe 0cf9 4abe 18a8 80bd
000003f0: d85c c2bd 205b 973d 2a24 9e3d 6bde d7bd
0.071126424 0.087392345 -0.096343696 0.021114292 -0.038337454 -0.01940043 0.040558342 -0.046481356
-0.03387524 -0.1288187 -0.12857747 -0.13489778 0.13022225 0.039550737 -0.017008672 0.06411394
0.085067175 -0.081284426 -0.0048304787 -0.044890486 -0.047801 0.0087017715 -0.02155427 -0.065069415
0.099573575 0.08841418 0.02766955 -0.073428586 0.017566042 0.00087339664 0.010891366 0.027407281
-0.07996571 0.051537964 -0.05661775 -0.07942614 -0.053036436 0.03308255 -0.07443921 0.050272107
0.06658065 0.060911532 0.07905222 0.03822246 -0.06438264 0.068358235 -0.059538946 0.052290615
0.106829576 -0.0044971225 -0.09308857 0.16099511 0.09626541 -0.0033333257 0.03577418 -0.024656989
-0.122108564 -0.020073315 0.002784331 0.21285573 -0.079593845 -0.09214696 -0.09046955 0.10279785
-0.07266708 0.07456448 0.036569726 0.09392417 0.056303214 0.054353848 -0.07567958 0.02923576
0.10838582 0.13840064 0.12147358 0.009335063 -0.010397416 -0.026920084 -0.041553188 -0.13014986
0.042134933 0.11711194 0.11415912 0.065541334 0.104913615 -0.05705416 0.036732446 0.056807466
0.113466375 0.040450703 0.011829023 0.051043667 -0.11057899 -0.014132855 0.059042986 0.049556077
0.037128583 0.017050084 0.06402638 -0.0063820845 0.018675629 -0.039935384 0.096873455 0.06084094
0.089869 0.04647554 0.1350135 0.0075448165 0.016672073 -0.12771836 -0.0060328348 -0.018249175
0.12824382 0.075737394 -0.018849058 0.017398575 -0.012276948 0.013526302 0.1400746 0.13058622
0.006027239 -0.09064677 -0.043101136 0.09487717 -0.074479245 -0.06124525 0.014065184 -0.07987708
0.01745449 0.051689044 0.11454511 0.07146881 0.032228522 0.036981806 0.074512005 -0.0044769067
0.09846389 -0.03275705 -0.037004557 0.10419068 0.06988843 0.1069053 0.046769135 0.07976942
0.043471318 0.05674928 0.046962846 -0.0584618 -0.1647271 -0.1300072 0.114942625 0.019177716
0.08458114 -0.06524701 -0.21936525 -0.081339136 0.06567023 -0.026104216 0.06824041 0.009585346
-0.1181295 -0.09676487 0.06239969 0.004076112 0.04902245 0.11359484 0.039226864 -0.032052375
-0.13514833 -0.14380643 -0.055387713 0.080185145 0.029110044 -0.029064085 0.09895303 -0.011076185
0.090402596 -0.037026677 -0.1060013 -0.14396824 0.043513607 0.05844718 0.00210408 -0.0033097249
-0.11222218 -0.06640731 -0.039140552 -0.07674261 0.09520905 0.1037005 -0.053830855 0.09827962
-0.057959605 0.07908603 -0.018383568 -0.046950866 0.019763438 0.1387221 0.102119446 0.051580954
0.108858466 0.17471713 0.17875028 0.074683525 -0.08318757 -0.06421635 -0.054045826 0.0037252242
0.018595437 0.051764898 0.06993234 0.07956816 0.07281937 0.060077637 0.107942484 0.037447702
-0.15250316 -0.058125135 -0.13524587 0.023386763 0.057643734 -0.08240329 0.055630233 -0.05933926
0.014123111 -0.07292032 0.0061104475 0.09454349 -0.065604754 0.08091395 -0.011559739 -0.06298764
-0.012992746 0.075924754 0.013277748 -0.016635662 0.045405407 -0.022789765 0.115163185 0.07186808
-0.038939897 0.1262045 0.03696787 -0.047204603 -0.1008536 -0.09695549 -0.03873962 -0.0044197533
0.1329788 -0.15085864 -0.19821566 -0.06282061 -0.09490365 0.073904276 0.077217415 -0.1054047

conv1d_3.bias f4 [32]
00000000: 664a 6fbc c09a 733d 0a4e 8f3d fe14 d63d
00000010: 1bac 0b3c 0b7f 843c 9555 71bc 8f44 673b
00000020: f9ee 733c 0a2c 4d3d 3035 bc3d 96de 893d
00000030: 8946 3bbc 7db8 e4ba 1f43 b1bd 8f14 43bc
00000040: d30a 72bd e3d6 1d3c a329 6dbd 8a9e af3d
00000050: b9b6 583c 640b 5bbd dd95 0c3d 79d5 903d
00000060: 3668 9e3c ade0 1bbd b950 1e3c 1b04 04bd
00000070: d3fa 9bbd 6371 6b3b 9b0f 163c e015 ae3d
-0.01460514 0.059473753 0.06997307 0.10453223 0.00852492 0.01617386 -0.014729877 0.0035288667
0.0148885185 0.050090827 0.09189832 0.06731908 -0.011430391 -0.0017450001 -0.086553805 -0.011906757
-0.059092354 0.0096337525 -0.057901036 0.08575161 0.013227158 -0.05347766 0.03432261 0.07071967
0.019336801 -0.038056064 0.0096628005 -0.032230478 -0.076162 0.0035925738 0.009158994 0.08500266

fc.weight f4 [3, 32]
00000000: 21a5 e2bc b8dd a9bd 3808 f1bd 5931 0d3e
00000010: ba1f 323c 9a2d 56be 4da3 bfbc 7e1b f2bd
00000020: 24e0 bb3d c859 ebbd b38b 66bd cfd8 90bd
00000030: e669 ce3d 017b 763d 426b 533e 636d 263c
00000040: 04d3 50be 49db 2b3e 81cb 98bd 7968 dbbc
00000050: 2138 30be 8e44 e23d dcc7 fbbd 2bc2 2f3e
00000060: a535 95bd ed99 1f3d 9d8b f4ba d4cd 7d3d
00000070: 2893 4c3e 26b1 03be fbe7 ca3a caf6 25bd
00000080: bec1 3abe 1e16 ef3d a1d9 653e 1ba2 65be
00000090: ca8b 7d3e a02f d83d 9af4 1c3e 570d 383d
000000a0: 21d3 50be c00c d93d c2d0 70be 236b 203e
000000b0: a3ed b1bd 22aa 2d3e 5b7f e5bd f968 23be
000000c0: d3c7 193d 24da 1bbe c7c7 fa3c 4e3d d8bd
000000d0: 7273 803d 385f b3bd 168a dc3d fb6b c1bd
000000e0: 9f40 733e 73d3 143e 2c93 4dbe 8b95 2f3e
000000f0: ac69 8a3c a98c 103e 81d8 723d 0028 263e
00000100: 57e3 d63d 2066 27be 5552 b4bd bc98 b0bd
00000110: d9d5 0abe 0e96 f3bb b596 14be 0f58 82be
00000120: e994 59bd 2290 d6bc d091 0b3e 5dac 2ebe
00000130: b06d e5bd 6bcd 2cbe eaa9 de3d a075 a23d
00000140: 6bdf 583d 6c68 e53c 5926 e7bd 340b 5abc
00000150: 532c 22be ec31 c13d 4aa8 7cbd c84a 1c3e
00000160: b38a 53be abda 4c3d 2ae1 243e af5f bbbd
00000170: 8aa8 acbd 9e90 7c3d 5e54 3ebe 5448 ee3d
-0.02766663 -0.082942426 -0.11769146 0.13788356 0.010871822 -0.20915833 -0.023393298 -0.1182165
0.09173611 -0.11491734 -0.05628557 -0.07072603 0.10078792 0.0601759 0.20646384 0.010157916
-0.20392996 0.1678287 -0.0746069 -0.026783215 -0.17208911 0.11048232 -0.122939795 0.17163913
-0.072856225 0.038965154 -0.0018657331 0.06196387 0.1997801 -0.12860546 0.0015480513 -0.04051856
-0.1823797 0.116741404 0.224463 -0.2242512 0.24760357 0.10555959 0.15327683 0.044934597
-0.2039304 0.10598135 -0.23517135 0.1566587 -0.08687904 0.16959432 -0.11205932 -0.15958013
0.037544083 -0.15219933 0.03061284 -0.10558568 0.062720194 -0.08758396 0.10768525 -0.09444424
0.2375512 0.14533786 -0.20075673 0.1714689 0.016896091 0.14116158 0.059288505 0.16226196
0.104925804 -0.16347551 -0.08804766 -0.08622882 -0.13558139 -0.0074336594 -0.14510615 -0.25457808
-0.053120527 -0.026191775 0.13629842 -0.17057939 -0.11202562 -0.16875236 0.10872252 0.079325914
0.052947443 0.028003894 -0.11286611 -0.013308335 -0.15837221 0.0943335 -0.06168393 0.15262902
-0.20658378 0.050013226 0.16101518 -0.091491096 -0.08430584 0.061661355 -0.18586871 0.11634889

fc.bias f4 [3]
00000000: 395a 273e a2f0 26bc de96 b4bd
0.16343011 -0.010189207 -0.08817838
