trained_models/CNN/CNN_Zscore_CF1_pred_2.pth (torch, 37564 bytes, 10 tensors)

conv2d.weight f4 [16, 1, 4, 40]
00000000: 3919 3abd adb4 9a3c 25f8 eabc f144 863d
00000010: 752e 963d 1dc5 1e3d 96f2 b43c 35b9 a43c
00000020: 69ce 7c3d 21a3 10bd 89e6 c93c 101a 953d
00000030: 1ed1 0dbd 247b afbd ce2d 5dbd 4e84 283d
00000040: 4075 37bd 5000 033d 4f1e 7f3d 6f72 80bb
00000050: 0f74 833d d70d ecbc f9ae a7bc ee96 03bd
00000060: 5d3c 803d 4986 483d 405e c3bc 7378 ecbb
00000070: 5bc0 1fbd d534 a23d e21f 53bd a7a9 903d
00000080: be05 833d 12b9 af3d 24cd 93bd c65b 8c3d
00000090: d763 3fbc 697a 843d 0c8e 24bd aa87 cd3d
000000a0: 354f 95bd c423 5c3d eb29 543d e162 683b
000000b0: 7a75 613c f1aa 853c ddca 99bd 6afe 923a
000000c0: 0b4a 26bd f524 e4bc b023 8dbd 903f db3c
000000d0: 91bf df3c 7770 9cbb afa2 5b3d 680f 473d
000000e0: 1929 733d b27f efbc 53e3 3bbd 2d4c 42bd
000000f0: 631b 71bd 1efd b1bd 54f3 dcbc 4cd1 653d
00000100: 3da8 0c3d 5646 333d 39ed a7bb 981a 98b9
00000110: 81eb 893d cd82 04bd 4547 87bd 2f87 0dbd
00000120: 4de3 623c 6297 243d a1a8 8bbd 1641 a83d
00000130: c65f bebc 4879 cc3d 98df 383d 7aec e23d
00000140: 22e9 463d e55f 36bc e60e 8cbd 518c d23d
00000150: d8cb 373d 83dc ee3c 2329 32bd 8d96 14bd
00000160: 712d 99bd 8d3d a93d 3099 94bd 3818 02bd
00000170: 523e 37bd 382f cebd a179 74bd ffc3 04bd
00000180: 2cf9 78bd c13b ec3c 1702 043d 839f 4f3d
00000190: 62a1 e33c 567f 0abc 1e97 98bb 8fa6 9fbd
000001a0: 1073 853d 1bf0 d53c d435 fe3c 44ca abbc
000001b0: 1343 97bd 12ec 0f3d 2fd8 f1bc b41f a03d
000001c0: 9372 9bbd 3ec2 aabc e180 dbbc 1f9d 9e3c
000001d0: f629 41bd 3873 543c 7cd1 473d baa5 0a3d
000001e0: f326 51bd 616e 903a cebe 98bc 11c3 7d3d
000001f0: ddd8 a5bd c17e 88bd 3713 9a3d 83a8 86bc
00000200: f727 a6bc a53c fe3b 14d7 403d 367b 853d
00000210: 5a58 a2bb 3cf8 ca3c 2ccf d3bb 8ec5 57bd
00000220: 4bba 903d ec12 20bc 541a 61bd 558f 07bd
00000230: 5ae9 50bd 2e6f 99bd 78a1 223d c7c6 72bd
00000240: aabd 86bd 6b33 fd3d d6f0 8a3d d15f 46bd
00000250: 0b42 89bd c327 d23c 32b6 a2bd 8ee9 903d
00000260: f575 9d38 3faa e73d c0b7 ff3c 3850 2c3d
00000270: 7d4b 30bd 3dcb e23a 8409 a0bd bf35 a23c
00000280: fc9a 283d 10e8 1b3d 1c96 47bd fe72 9c3d
00000290: 10b7 d13c 8fdf 6bbd cdc9 983c 5f65 44bc
000002a0: b5c8 853d 7db4 8abd 1c6a 5fbd 07aa 823c
000002b0: f783 85bd bca5 ebbd 090b 5b3b 42a2 cabd
000002c0: 1cd1 1b3d f25d 51bb d2d8 2bbd a1b8 84bd
000002d0: 81db 693d ecef 05bd 1408 abbd bafb 74bd
000002e0: bcf3 6a3c 1d3e d93d 473c a6bd e78f d63c
000002f0: f6d6 88bc 85e9 9c3c ddb0 65bd 6e65 d43c
00000300: 242f 07bb 9d9f 4c3c 0ce2 b0bd f30b 4abd
00000310: a822 743c e592 74bb 397c 663c d5cd 503d
00000320: 7587 31bd 11dd 14bd 5514 7ebd e9d8 043d
00000330: d587 9dbd 9a2f 453d 7698 3dbd 6086 0c3d
00000340: 1249 42bd 592a 54bd 75dc a7bd d354 5bbd
00000350: ffd9 803d caff e3bd 8c01 223d 09f1 14bd
00000360: 585d 2a3d 6bb8 f5bd 1e74 2d3d 9eb8 45bd
00000370: 1f41 533d bc72 8abd 70c9 15bb a185 81bd
00000380: c686 88bd 4acf be3d e067 2ebd bc96 0dbc
00000390: e814 4ebd 285d 813d ea65 84bc 93f6 643d
000003a0: 9088 b6bd 37df 993d 7132 33bd 50aa 02bd
000003b0: 7cc7 cb3c def1 c03d 577c 133d d69b ac3d
000003c0: 84e0 9a3c 0d62 103d afe3 13bd 06a0 d63d
000003d0: a104 a9bc 4596 72bd 3a13 abbd 8490 c83c
000003e0: 01d1 2a3d 821a b03c e5ea 113c 77e5 883d
000003f0: e46f 03bd c69e 82bd aed4 8cbc 9191 30bb
-0.04543421 0.018884981 -0.028682778 0.06556118 0.0733308 0.0387622 0.02208833 0.020107845
0.061720286 -0.03531182 0.02464606 0.07280362 -0.034623258 -0.08568409 -0.05399876 0.0411418
-0.044789553 0.03198272 0.062284764 -0.0039198915 0.06418621 -0.028815193 -0.020469176 -0.03212636
0.062615134 0.04895619 -0.023848653 -0.007216507 -0.039001804 0.07920233 -0.051544078 0.070636086
0.063975796 0.08580221 -0.07216862 0.06853442 -0.0116815185 0.064686604 -0.04017453 0.100356415
-0.07290498 0.053745046 0.05179779 0.0035459327 0.013760919 0.016316863 -0.07509396 0.0011214737
-0.040597957 -0.027849654 -0.068915725 0.026763707 0.027313026 -0.004774149 0.053621944 0.048598677
0.059365366 -0.029235695 -0.04587109 -0.047435928 -0.05886401 -0.086908564 -0.026971497 0.056107804
0.034340132 0.04376825 -0.0051247147 -0.00029011513 0.06734372 -0.032351304 -0.066053905 -0.03455275
0.013848138 0.040183432 -0.06819273 0.08215539 -0.023239028 0.0998407 0.04513511 0.110802606
0.048562177 -0.0111312615 -0.06838779 0.102806695 0.044872135 0.029157883 -0.043496262 -0.03627639
-0.074793704 0.08263693 -0.07255781 -0.031761378 -0.044737168 -0.100676 -0.059686307 -0.03241348
-0.060784504 0.028837087 0.032228556 0.05068923 0.027786914 -0.008453211 -0.0046566864 -0.077954404
0.06516087 0.026115468 0.031031527 -0.020970471 -0.0738584 0.035137244 -0.02952203 0.07818547
-0.07590213 -0.020844575 -0.026794853 0.01936203 -0.047159158 0.012966923 0.048783764 0.033849455
-0.051062535 0.0011019224 -0.01864567 0.061953608 -0.08098004 -0.066648014 0.07523196 -0.016437775
-0.020282729 0.0077586942 0.047080114 0.06517641 -0.00495438 0.02477657 -0.006463906 -0.052678637
0.070667826 -0.009770136 -0.05495675 -0.033095676 -0.05100379 -0.07491909 0.03970477 -0.0592716
-0.06579144 0.12363323 0.06784217 -0.04843122 -0.0670205 0.025653725 -0.07944907 0.07075797
7.5083146e-05 0.11311769 0.031215549 0.04206869 -0.04304074 0.0017303001 -0.07814315 0.019801019
0.04116343 0.03806311 -0.04872714 0.076391205 0.025599986 -0.05758625 0.018650914 -0.011987059
0.065324225 -0.06772707 -0.054544553 0.015950216 -0.06519311 -0.11506221 0.0033423326 -0.098942295
0.03804122 -0.0031946865 -0.041954823 -0.06480528 0.0570941 -0.03269951 -0.0835115 -0.059810378
0.014340337 0.1060755 -0.08116966 0.026191665 -0.016704064 0.01915432 -0.056076873 0.025927272
-0.0020627463 0.012489227 -0.08636865 -0.049327802 0.014900841 -0.0037319001 0.014067703 0.050977547
-0.043342073 -0.036343638 -0.06203111 0.032433424 -0.076919235 0.0481411 -0.046287976 0.034307837
-0.047432967 -0.0517982 -0.08196346 -0.05354769 0.062915795 -0.11132772 0.039552256 -0.03636268
0.041592926 -0.119980656 0.042347066 -0.048271768 0.051575776 -0.06760165 -0.0022855662 -0.06324316
-0.06666331 0.09316881 -0.04257953 -0.008641895 -0.050312907 0.06316596 -0.016161878 0.055899214
-0.08912766 0.07513278 -0.043749277 -0.031900704 0.024875395 0.094211325 0.03600725 0.08428161
0.018905886 0.03524976 -0.036105808 0.10479741 -0.02063209 -0.05922534 -0.083532766 0.024482973
0.041703228 0.021497015 0.008906101 0.06684392 -0.03208913 -0.0637794 -0.017191257 -0.0026942233

conv2d.bias f4 [16]
00000000: d36d 88bd a994 a7bc ef80 27bd 6848 763d
00000010: aa14 8a3c ea08 77bd 9abe ba3b 5afb 303b
00000020: b504 2cbc aac3 4f3d ec86 41bd ffa1 22bd
00000030: d911 92bd 8161 4d3d 24ef 9f3d 29b5 373c
-0.06661572 -0.020456629 -0.040894445 0.060127646 0.016855557 -0.060311235 0.005698991 0.0027005286
-0.010499169 0.05072371 -0.047247812 -0.039705273 -0.071323104 0.050141815 0.07809284 0.011212626

conv1d_1.weight f4 [16, 16, 4]
00000000: a0ff d13d 4b70 993d 1e35 48bb c5f3 68bd
00000010: 28ca 7a3a 95f1 2b3a f140 d9bc c917 5e3d
00000020: 0819 ba3d 08b8 ca3b c6b9 b5bd 2753 c73d
00000030: 2f34 563d bccf 13bd 1765 a93d 7999 22be
00000040: 8be7 a2bd 7563 7fbc ad87 84bb bb42 01be
00000050: 8b39 24bd 27bb 843d 6b7f a73b d219 ddbc
00000060: c013 e8bd 1f05 26bd 42b4 3dbd 2a78 6dbd
00000070: 8bda 98bd e4d6 d33d 17b6 e43d b384 ef3d
00000080: 297a 0cbe 8be1 0a3d 9039 b33c 5bec a73c
00000090: 35e2 a63d 96b0 4ebd ce2c 8a3c d828 86bd
000000a0: c88d e0bc d3de d43d 5c08 8dbd 4eeb df3c
000000b0: 35f7 ad3d 1be6 1abe 460c cabb 6d71 7ebd
000000c0: fed7 143d dc08 bcbd 587f 913d d687 0d3c
000000d0: 7182 fd3d c9f2 a23d a8dd b83d 10c4 1f3e
000000e0: 1d32 52bd c367 89bd 75a7 30bd 9cc7 0abe
000000f0: ff18 dc3d e10f e3bd bd4a 4b3d 72de 5fbc
00000100: dfde 79bc 76ae d23d 3e4b ee3d 89e7 56bd
00000110: eeb0 7e3c 2304 6f3d 6e63 f83d 1b8d 823d
00000120: 1d41 a8bc 5142 b1bd 5d14 bbbc a3e6 e93d
00000130: a317 b63a b204 263e 7f65 a53c cda3 bebc
00000140: 0a0f a33d 3a68 c23c 887d 88bc 9496 52bd
00000150: f16e 77bd 3767 2cbc f535 913d 9cd6 3a3d
00000160: 9144 a1bc 6874 2cbd 1d4e cfbd d0c2 b7bd
00000170: 1fda d5bc ac94 8e3d c5a6 ebbc 1b7a ff3d
00000180: a3f8 9c3d 7b6e 073e b40f 593c 0433 7c3d
00000190: 8633 cabb 02d3 063e e91b 5e3d d44f b03d
000001a0: 85e8 dd3d 7936 01be e416 9fbd 593b 8fbd
000001b0: 9e69 21bd 9571 d73c d840 5c3d 6c4c 343d
000001c0: 528a 883c 1798 2dbd c27c cc3d fd99 aa3d
000001d0: 802a 16be 19c2 44bd 43e6 c1bc 9c72 9bbd
000001e0: b435 acbc ce89 78bb 7732 973d 4dc5 afbc
000001f0: 4681 353d 0acb dbbd ff4c cc3d a5ee 3ebd
00000200: a8ee 3e3d 847a eb3d 7b59 923d ea9e 8cbd
00000210: 273e 203e 147d b63d caa6 193c 5553 bf3b
00000220: 2148 d03c c894 63bd 662f 443d fb27 7b3d
00000230: 5276 f13d 9a9b 11bc 2410 103e 1f9f 793d
00000240: 176e 1e3d dec6 4fbc be61 8ebd 61a0 b03d
00000250: cd55 acbd a414 9f3d 1230 82bc 9d8b ecbd
00000260: c127 d93b a92c 4cbc 55d6 eb3d 94b3 12bd
00000270: 2265 353d d6dc 7dbd ff6f 9cba e91f 243d
00000280: bbe8 bf3c 9d4f 063e a45b e0bb 13fe 883d
00000290: d840 a03d 5a23 b6bc e5cb be3d 5fb0 6f3d
000002a0: f23f fd3d 5c03 a5bd 7f7b 353b 21d8 8cbd
000002b0: 4a0b cc3d 7b96 ce3b 4df2 e53d ba19 c83c
000002c0: b780 c03d acc6 083c 0719 94bd 0ac8 82bb
000002d0: 3ca3 b73d 4cc0 15bd 0098 07be c72e d93b
000002e0: 7623 5abc 7acd 6e3d 63f4 b9bd 4c83 a6b9
000002f0: 4e12 073e 74e3 a1bd 8164 a73c f990 fc3d
00000300: 5ef4 1b3c a8f8 023e 053c 0e3d 57b7 2fbc
00000310: 0abe 2dbd 0c5b 8f3d 63ad a23c 8f16 8bbd
00000320: a631 943d f0c3 eebc 205e ed3d ab32 c1bd
00000330: e532 72bc 4b61 583d dea0 b5bd 02f6 743d
00000340: a125 0cbe 2a14 e6bc 3f19 d13d ced3 083c
00000350: 26cc 72bd 26d7 033e 48f7 c8bd db00 5d3d
00000360: 6416 cc3d d8a1 273e 8bc9 cd3d 5ffe 193e
00000370: df2c 5a3c e070 e9bc b383 e33d ea5d de3d
00000380: f927 933c c279 06bd 2279 0a3e 67e7 85bd
00000390: bccf 273d 77a0 fdbc 017d c43d 9168 e8bd
000003a0: bc5f 8ebd bad3 da3c 508d 7dbd 3295 eabc
000003b0: 1542 173e 47e0 8a3d df03 babc ef1d 5bbc
000003c0: e9d5 e43d b269 34bd 9ef8 1dbc fd6f eebc
000003d0: c6a4 4ebe 0f6d 1a3d f814 5dbe 8ce1 1fbe
000003e0: 7606 62bd b346 fe3d d2b3 e43d 40ac 84bd
000003f0: 1026 f8bd 391e 16bd 51ca dabc 0fcd 1ebb
0.10253835 0.07492121 -0.0030549238 -0.0568731 0.0009566867 0.0006559131 -0.026520224 0.054221902
0.090868056 0.006186489 -0.08873324 0.09732657 0.05229586 -0.036086783 0.082712345 -0.15878858
-0.079543196 -0.015587677 -0.004044494 -0.12623112 -0.04009394 0.06481009 0.005111625 -0.026989851
-0.11331892 -0.040532228 -0.046314485 -0.057975926 -0.07463559 0.103437215 0.111675434 0.11695232
-0.13718475 0.0339065 0.021878034 0.020498445 0.08148614 -0.050461374 0.016867068 -0.06550759
-0.027411357 0.10394063 -0.0688636 0.027333882 0.084944166 -0.15126841 -0.006166014 -0.06211989
0.0363388 -0.09181377 0.07104367 0.008638343 0.12378395 0.07956464 0.090266526 0.15602136
-0.051317323 -0.06709244 -0.04312845 -0.13552707 0.10746955 -0.11087013 0.049631823 -0.013663875
-0.0152508905 0.10287182 0.11635445 -0.052466903 0.015545113 0.058353554 0.1212834 0.0637457
-0.020538861 -0.08655227 -0.022836858 0.114209436 0.0013892542 0.16212729 0.020189999 -0.023271466
0.07961853 0.02373134 -0.01666142 -0.051413134 -0.060408536 -0.010522655 0.070903696 0.045614824
-0.019686015 -0.0421032 -0.10122321 -0.089727044 -0.026104985 0.06961951 -0.028766045 0.12474462
0.07664611 0.13225739 0.013248373 0.06157209 -0.006170693 0.1316643 0.054225836 0.08608976
0.10835365 -0.12618436 -0.07768038 -0.069937415 -0.039407365 0.026299277 0.053772777 0.044018194
0.016667519 -0.042381372 0.09984733 0.08330152 -0.1466465 -0.04803667 -0.023669368 -0.075902194
-0.021021701 -0.0037923935 0.07382672 -0.021456385 0.044312738 -0.10732086 0.09975623 -0.046614308
0.04661432 0.114979774 0.07145973 -0.06866248 0.15648709 0.089105755 0.0093781445 0.0058387914
0.025425019 -0.05556181 0.047896765 0.061317425 0.11790146 -0.008887196 0.14068657 0.060942765
0.03867921 -0.012681691 -0.069522366 0.0862434 -0.08414803 0.07767609 -0.015892062 -0.115500666
0.0066270535 -0.01246182 0.1151549 -0.03581579 0.0442859 -0.061978184 -0.0011935233 0.040069494
0.023426404 0.13116308 -0.006846862 0.06689086 0.07824868 -0.022233654 0.093162335 0.05851781
0.12365712 -0.080572814 0.0027692018 -0.06877161 0.09963091 0.0063045598 0.11227856 0.02442633
0.093995504 0.008348148 -0.07231336 -0.0039911317 0.08966681 -0.03656034 -0.13241577 0.0066278907
-0.013314119 0.058301426 -0.09079816 -0.0003175981 0.13190576 -0.07904711 0.020433666 0.12332339
0.009518711 0.12790167 0.034725208 -0.010724864 -0.042417563 0.06999788 0.019858068 -0.06791412
0.07236032 -0.029146165 0.115902185 -0.09433492 -0.014782642 0.05282716 -0.088685736 0.059804924
-0.1368623 -0.028085787 0.102098934 0.008351279 -0.059276722 0.12875041 -0.0981279 0.053955894
0.09965208 0.16370332 0.10048207 0.15038441 0.013316362 -0.028496206 0.11109104 0.108577564
0.017963396 -0.03283096 0.13522771 -0.06538277 0.040969595 -0.030960305 0.09594155 -0.113480695
-0.06951854 0.026712287 -0.061902344 -0.028635595 0.14771302 0.06781059 -0.022706924 -0.013373836
0.111736126 -0.04404611 -0.0096417945 -0.029106135 -0.20180044 0.037701663 -0.2159003 -0.15613383
-0.055181943 0.124158286 0.111671105 -0.064781666 -0.12116635 -0.036649916 -0.0267078 -0.0024231111

conv1d_1.bias f4 [16]
00000000: 4223 c4bc ae93 2b3d 3238 8dbc 9dcf 903c
00000010: 324c f8bd 0fc8 a13c e0e6 623b 702a 453c
00000020: 58a9 acbd 0621 b53d 9bd1 dc3d 6ab5 dc3d
00000030: 59a0 0dbe 3369 303d ac70 7fbd 1617 fa3c
-0.023942593 0.041888885 -0.01723871 0.017677123 -0.12123908 0.019748716 0.0034622476 0.012034044
-0.08430737 0.08844189 0.107821666 0.107767895 -0.13830699 0.043069076 -0.06236331 0.030528586

conv1d_2.weight f4 [32, 16, 3]
00000000: 98af 1e3e 58c7 b83d 6907 8cbd 56bf 24be
00000010: 80d9 29be 3220 53bd 87c3 35bd ebfd 6bbc
00000020: 5d8d 973d be5e 28be eba0 aabd 4800 25be
00000030: c533 b9bc 9eba 7c39 07c8 a2bd e33e 913d
00000040: 60ed ef3c 5de9 80bc 1b81 1abe 8c29 cfbd
00000050: c1a0 08be 67f7 16be 22e5 c3bd abf0 efbd
00000060: 1659 ffbc dfdb bb3d 638b 1cbe 4fa3 55bd
00000070: e5d2 f53c c501 ae3d 782f 37be c023 183b
00000080: aa5b 2cbe fd75 ea3d 21b1 a5bc 77f0 3e3e
00000090: a7ae c33c bf39 53be bee4 ecbd 2be4 503d
000000a0: 287c a5bd 71ad c33d a40d 3bbe ec9d 34bc
000000b0: 8351 b73d 281f 143d 485d 00be 9356 0ebe
000000c0: 63c7 69bc 8cc8 20be dc67 b9bd 3030 d3bd
000000d0: d1fb 16be 03b2 a0bd b536 cabb a5b2 103d
000000e0: 2af3 e03c 88bd 943d 1a2e d1bc 5a94 423e
000000f0: bbbc afbd 6f75 e5bd 90a0 2cbe b803 b8bd
00000100: b2a3 07be 3f6f 0ebe ff0a 34be 8e74 18be
00000110: a75f 66bd aea2 20bc 206d cabc 9d77 e3bd
00000120: 5b4d f03d 651f 05be 2d84 c53d 8c0c adbc
00000130: 35c9 733c 695a f93d 92e9 f33d 10be ddbd
00000140: 2ff6 24be 84c4 ed3d 8b29 06be f83c a93c
00000150: ed11 083e 37e2 4f3d 217e b73d ad05 47bd
00000160: 0d15 fa3d e79f c93d 29e0 98bd f8fe e73d
00000170: ce6e b8bd 3256 43bd a65f 95bd 30f7 c0bd
00000180: b6cf 9b3d 6afd f1bd 92a8 babd 52f0 d23d
00000190: 3c1c 143d 5c81 923b 557e a43c 4ae7 b53d
000001a0: 82ff 143e 0e17 6bbd 6d15 7abd 8f48 2fbe
000001b0: d24a 033d 8e5c f9bc 523f ab3d 4710 063e
000001c0: badd 8b3d d84f 0b3e bbf7 163e f6a9 5fbd
000001d0: f247 bc3d 1958 e23d c04a b53d 06e7 943a
000001e0: 7ac8 ff3c 4304 023e 423e 873d 516d 163e
000001f0: 9d5b 0a3e 7c1e 13bd ba48 b1bd 951a 2b3e
00000200: 9407 cabc 3121 4f3d 9d84 f1bd e2ca 4e3c
00000210: bbaf 283e 016b cfbd 26c3 77bd 3d59 1bbd
00000220: 8180 f3bc 0366 1fbe e1d9 aa3c c24d 463d
00000230: 6d64 9fbc 9d09 043e f274 503d 5695 673d
00000240: 0d17 353e 9838 043e 3e7e e2bc 7be9 3b3d
00000250: 364d febc aff6 cf3c 070d e63d 253e ac3d
00000260: 5035 753d 41d9 3a3e 6d8f 1b3d 34b2 923b
00000270: ec9a 74bd a4d0 9a3d 29de ad3d 8cce 7fbc
00000280: b02c 96bd 685d 22be 163f e4bc e5d4 72bd
00000290: aa58 513d e5d5 943d e027 8038 93b7 493d
000002a0: 0d0c 0f3e 61dd 5bbd 1bba a8bd 534b 923d
000002b0: 82d7 dbbc d476 9fbc 3ea2 af3c 17b0 d8bd
000002c0: e38d 11be 3fac 34bd bcc1 0a3e ad68 1d3e
000002d0: 6c9b 973d c894 17be 3b54 8a3c bd4f ed3d
000002e0: d917 313e b7e3 3a3e 071c 823d b0fe 2e3c
000002f0: a654 033e 6053 06be 4da5 0abd 3df8 723d
00000300: bf00 033e 528c 93bc e754 35bd ac54 803d
00000310: de96 f73d 3598 c9bd 4c5e 3dbd e795 babd
00000320: 34a4 1e3e c0fa a73d 39f8 0bbd bc53 4d3c
00000330: 5def 3f3c 651c 413c c9ae 193e 0b4f 3e3e
00000340: 7e84 66bd 2a3d b7bb e556 a33d d200 013e
00000350: bcd9 d1bc fee2 0f3e 16d3 1c3e 02c3 d63d
00000360: b5ca 97bd 5091 f23c 4a4c fb3d 5f9f 103e
00000370: b256 4cbc c6e1 443d 106f b63d b8ae fb3d
00000380: 20fd a93d 75da f7bd 34a1 a43d cc19 253c
00000390: f4ef 9a3c 59ca 763c c60c e1bd f793 b03d
000003a0: 7690 f4bd e51e 0e3c 4c15 02be c153 853d
000003b0: 3766 fcbd 6526 62bd c80a ed3d e890 983d
000003c0: 0dc5 44bb 68bf b1bd 7e77 303d 4855 50bd
000003d0: 6135 023e 77d6 45bd 512c 0c3e 5f26 003e
000003e0: 303f 8f3d 3b42 aabd c8b2 3dbe ac71 29bc
000003f0: 4f42 053d 21fd 80bd 2be8 afbd 84c0 acbc
0.15496671 0.09022397 -0.06837351 -0.16088614 -0.16586876 -0.051544376 -0.044375923 -0.0144038005
0.0740001 -0.16442391 -0.08331474 -0.16113389 -0.022607693 0.00024102113 -0.079483084 0.07092073
0.029287994 -0.015736276 -0.15088312 -0.10115346 -0.13342573 -0.14742814 -0.09565188 -0.11715826
-0.03117041 0.091727965 -0.15287547 -0.052157696 0.030007789 0.08496431 -0.17889202 0.0023214668
-0.16831842 0.11448286 -0.020226063 0.18646418 0.023886992 -0.20627497 -0.115670666 0.050998848
-0.080803216 0.09554566 -0.18266922 -0.01102398 0.08951094 0.036162525 -0.12535584 -0.13900213
-0.014268729 -0.15701503 -0.09053013 -0.103119254 -0.14744498 -0.07846453 -0.0061710724 0.03532662
0.0274597 0.07262713 -0.025534678 0.19001904 -0.08580919 -0.11204039 -0.16858125 -0.08985084
-0.13246039 -0.13909625 -0.1758232 -0.14888212 -0.056243565 -0.009804411 -0.024710238 -0.11106799
0.117335044 -0.13000257 0.09644351 -0.021124147 0.014879514 0.121754475 0.119097844 -0.10827267
-0.16109537 0.11609748 -0.13101785 0.020658955 0.13288088 0.050752845 0.08959604 -0.048589397
0.12211046 0.09844952 -0.0746463 0.11327928 -0.09005509 -0.047689624 -0.07293634 -0.09422147
0.07607977 -0.11815913 -0.091141835 0.10299744 0.03615974 0.0044709872 0.020079771 0.088820055
0.14550593 -0.057395034 -0.06105559 -0.17117523 0.032053776 -0.030439641 0.08361687 0.13092147
0.068294 0.13604677 0.14742939 -0.054605447 0.0919341 0.110519595 0.08852148 0.0011360354
0.031223524 0.12696938 0.066036716 0.14690138 0.1351151 -0.035917744 -0.086564496 0.16709359
-0.024661817 0.050568763 -0.11792872 0.012621613 0.16473286 -0.10127831 -0.060488842 -0.0379269
-0.029724361 -0.15566258 0.020855846 0.048414 -0.019457066 0.12894292 0.050892778 0.056538902
0.17684574 0.12912214 -0.027648088 0.04587696 -0.031042676 0.025386183 0.112329535 0.08410291
0.059865296 0.18246938 0.03797858 0.00447681 -0.059718058 0.07559326 0.08489639 -0.015613209
-0.07332742 -0.15855944 -0.027862113 -0.059285063 0.051109947 0.0726736 6.110943e-05 0.049247336
0.13969441 -0.05367792 -0.08238622 0.07143273 -0.02683616 -0.019465841 0.021439668 -0.105804615
-0.14214282 -0.04410958 0.13550466 0.15371962 0.07402691 -0.1480285 0.016885867 0.115874745
0.17294253 0.18250929 0.06353002 0.010680839 0.1282526 -0.13117743 -0.03384905 0.05931877
0.12793253 -0.018011246 -0.044270422 0.0626615 0.120893225 -0.09843484 -0.046232507 -0.09110623
0.15492326 0.08202124 -0.03417227 0.012532171 0.0117147835 0.011786555 0.15008081 0.1858484
-0.0562787 -0.005592008 0.07975558 0.12597969 -0.02561652 0.14051434 0.15314898 0.104864135
-0.0741171 0.029610306 0.1227041 0.14123295 -0.012471842 0.048066877 0.08907902 0.12289184
0.08300233 -0.12102214 0.080385596 0.010076951 0.018913247 0.015062892 -0.109887645 0.08621972
-0.11941616 0.008674358 -0.12703437 0.065101154 -0.123241834 -0.055212397 0.11574322 0.07449514
-0.0030024678 -0.08679086 0.043082707 -0.05086258 0.12715675 -0.048300233 0.1368878 0.12514637
0.06994474 -0.08313414 -0.18525231 -0.010342043 0.03253394 -0.062982805 -0.085892044 -0.021087892

conv1d_2.bias f4 [32]
00000000: cd5e eb3c 9c1e 653c 2941 493d dd23 e2bd
00000010: 16f6 09be 4aa3 a13c 3191 8b3d 7121 48ba
00000020: 76cd 1e3d dc2c 4a3b 6a30 c2bd 0774 3c3d
00000030: e028 32bd 1bf7 6b3d 310f ad3d f935 ef3b
00000040: 702b 8f3d 6d2d ce3d c37b a53d a3ab ab3d
00000050: 159f 063e 452c 37bd 3007 e93d e547 823c
00000060: 903c 0abe 4dc9 76bc 5077 dabb 7594 01be
00000070: 86fd f9bd 6c46 793c 2f6a f2bd b861 cb3d
0.028731728 0.013984349 0.049134407 -0.11041997 -0.1347278 0.019731183 0.068148024 -0.00076343777
0.03877016 0.0030849492 -0.094818905 0.04600909 -0.043496013 0.057608705 0.08450163 0.007300135
0.06990707 0.10067258 0.08080246 0.083823465 0.13146622 -0.044719953 0.11378324 0.015903423
-0.13499665 -0.015062642 -0.006667055 -0.12654288 -0.12206559 0.015214544 -0.11836659 0.09930748

conv1d_3.weight f4 [32, 32, 3]
00000000: 6523 743b 4b9d db3d 8e0b be3d c31e 46bd
00000010: 539d 7cbd b6e2 70bd 310b 593d 8e80 14bd
00000020: e405 8a3d eeda d43d 7c8d b13d a499 82bd
00000030: c0a4 003c 1f55 b43d dad3 8b3d 60a0 823d
00000040: 87ea e43d 7d5d da3d 40d4 713d 8422 0fbe
00000050: ea29 0e3b 4358 903c e0d7 93bd 08a3 b03d
00000060: fa9e 153d a5f6 d23d 9583 803d a1f8 c2bc
00000070: c430 8d3d 2cbb 34bc 38bd 3cbd 3988 333d
00000080: dce3 03be ec44 96bd ed86 f93d 4171 b33d
00000090: a225 0b3e a2d2 92bc cfe8 ea3d 7bb4 ed3d
000000a0: 4a11 5fbd 4dee 763c aafe ca3c d753 24bd
000000b0: a3bc 153d 3d96 fd3c ef51 523c 75cb 85bd
000000c0: 9ed9 033e ce3f 34bd da53 1c3d b961 843d
000000d0: 97f8 8fbd 8898 9f3d e302 d6bc ef2f 123e
000000e0: 735c e53d 7037 a2bc 91ec a43d cf43 d23d
000000f0: acbb 8dbd 6ad0 53bd df7a 80b8 86aa db3c
00000100: 6616 7abd 4f64 d93d b6e1 9ebd 1869 76bd
00000110: 919f 8a3c a363 10bc f50f e4bb 75d4 36bd
00000120: 5c22 80bd 6d21 013e 1a3d d33d 80ef 9a3b
00000130: 5543 40bb b9cd e93d efae 7fbd a2b2 58bd
00000140: c771 dabc 0e21 b8bd 1b8d 44be ee61 07be
00000150: e830 673d 4793 8cbd b697 86bb 6893 263d
00000160: a526 b6bd 94c0 833d c66c 213c 8a28 963b
00000170: 338a ff3d aec3 233c e099 8a3d d982 ae3c
00000180: 4ba1 a43d e5cc 9b3d b5a1 bdbd eab9 2c3d
00000190: 8d5e 0b3d 8d38 663b f326 a73d 45e2 7cbd
000001a0: 8f66 8ebd 11a7 8c3d c4c4 22bc dbcd cebc
000001b0: 8404 8d3c b9d6 a23d 00b9 abbd 6203 52bc
000001c0: b8e0 8e3d 14fa 98bd f705 47bd 769f a63c
000001d0: 7938 5d3d f9e1 1b3d a077 56bd a21d eabd
000001e0: ffa9 d33d 4bdb 693d 8eea 9d3d 289f 133c
000001f0: 1106 02bd ef42 ccbd 7623 48bc e28a bcbc
00000200: d6fa 11bd da63 623d fab3 e33c 2c83 27bd
00000210: e429 a1bd 4d28 9bbd 757c d13c 96d4 04bc
00000220: a560 bc3d 13c6 af3c e489 60bd a7ae 823d
00000230: 0866 0ebd f3cf 083c e8ed e33d f329 d03d
00000240: 38bd c23d 232c debc 596e 723d e272 113d
00000250: 7860 a03a e987 0f3d 5c30 c33c ef13 9a3d
00000260: 355e 9cbc 31e9 0ebd 924a 443d e63a 703d
00000270: ed8b dbbd e03e 16bd 1ab8 96bd 4c07 b33d
00000280: dd75 883d 26a8 083d e535 233d 113c d6bd
00000290: 48b6 d7bd 6657 a43c 6597 80bd aa03 31bd
000002a0: b13f a13d 3ba7 693d 592f d83b f53c 67bd
000002b0: 9f74 233d e5dd 95bd f00e 5fbd f127 e73d
000002c0: 4ca3 d6bc 80d9 19be 890d 91bd 6960 59be
000002d0: a1e8 a8bd c30f 7cbd e69a cd3c 8725 70bd
000002e0: 473e 913d 61a2 0cbd dee7 69bd a436 e53a
000002f0: 60f9 18bd 6f8f 2abd f1ab b63c 049d df3d
00000300: 6816 e3bc 775e b2bd d0bd bdbb ed90 8abd
00000310: d57e 44bd 1d31 6b3d 3b09 77bd c4c5 963d
00000320: 8fe2 a73d 535e 2d3d 4061 8abd 569d e9bd
00000330: bce5 823c d7e4 79bc 9deb 29bb 0377 bdbd
00000340: 3d25 733d 722a 913d 3f40 ca3d 32ce cabc
00000350: 86f1 8c3d 579d 133d 0728 603d 9e56 9ebd
00000360: e6af 3c3c 4b84 113c eb6b 27bd d3dd c13d
00000370: 8c6b 9abd f034 b8bd 0e82 54bd e7e2 2abd
00000380: 8a6c 9a3c 423a ea3b 4c66 86bb dd5a 9c3c
00000390: e143 d3bd c9f3 2bbd 12a3 1abd b5a2 90bd
000003a0: 6de8 23bc 64bd af3d 7d8b b73d c3e8 793d
000003b0: d431 5e3d 999d 57bd 823e babd e1cf b4bd
000003c0: c006 1dbd 7081 e33c 2282 b0bd a412 8bbc
000003d0: 10b9 64bd 0625 c4bb b69f 5f3b 84c0 afbd
000003e0: 9384 0d3b fc38 c9bd a2a3 acbd 2cf6 a33c
000003f0: 8550 61bd e9da aabd 42bc 16bd 1e5f ab3d
0.0037252542 0.10723361 0.09279548 -0.04836918 -0.061673474 -0.05880996 0.05298919 -0.03625541
0.06739405 0.1039332 0.08669564 -0.06376961 0.007851779 0.08805298 0.06827517 0.06378245
0.11177545 0.10662363 0.059040308 -0.1397801 0.0021692463 0.017620211 -0.07218909 0.08624846
0.036528565 0.1030095 0.06275097 -0.023800196 0.06894067 -0.011030953 -0.04607889 0.043831084
-0.1287989 -0.073373646 0.12183938 0.08761836 0.13588575 -0.017922703 0.11470186 0.116066895
-0.054459848 0.015071464 0.024779636 -0.04011902 0.03655685 0.030955428 0.012836917 -0.06532947
0.12875983 -0.04400616 0.038165905 0.064639516 -0.070298366 0.07792765 -0.026124423 0.14276098
0.11199274 -0.019801825 0.08052934 0.1026684 -0.06920561 -0.05171243 -6.126402e-05 0.02681471
-0.061056517 0.106148355 -0.07757895 -0.06015882 0.01692179 -0.008812818 -0.00695991 -0.04463621
-0.062565535 0.12610407 0.103143886 0.0047282577 -0.0029337008 0.114161916 -0.06242269 -0.052904733
-0.026665581 -0.0899068 -0.19194452 -0.13220951 0.056443125 -0.068640284 -0.004107441 0.04066792
-0.088940896 0.06433216 0.009852594 0.0045824694 0.12477531 0.009995384 0.067676306 0.021302627
0.08038577 0.0760744 -0.09259359 0.04216949 0.034025718 0.0035128922 0.08161726 -0.061739225
-0.06953155 0.06867803 -0.009934608 -0.025244644 0.017214067 0.07951111 -0.08384895 -0.012818189
0.069764555 -0.074695736 -0.048589673 0.020339709 0.054008935 0.0380573 -0.052360177 -0.11431433
0.103351586 0.0570939 0.077107534 0.009010114 -0.031744067 -0.09973704 -0.012215486 -0.023015443
-0.035639606 0.055271007 0.02779578 -0.04089658 -0.07869318 -0.07576046 0.025572041 -0.008107325
0.09198121 0.021456754 -0.054819003 0.063809685 -0.034765273 0.00835036 0.111293614 0.10164251
0.09508747 -0.027120655 0.059187267 0.03550995 0.0012235781 0.035041723 0.02382677 0.07523333
-0.01908789 -0.034890357 0.04792268 0.05864992 -0.10720048 -0.036681056 -0.07359333 0.08741626
0.06663106 0.033363484 0.03984632 -0.104606755 -0.10532814 0.020061206 -0.06278876 -0.043216385
0.07873476 0.05704425 0.006597441 -0.056454618 0.03990614 -0.07317714 -0.054457605 0.11286915
-0.026200913 -0.15024376 -0.0708266 -0.21228184 -0.082474954 -0.06153847 0.025098275 -0.05862954
0.070919566 -0.034334544 -0.05710589 0.0017487598 -0.037347198 -0.041640695 0.022298785 0.1091862
-0.027720645 -0.08709424 -0.0057904497 -0.06765924 -0.04797252 0.057419885 -0.060311537 0.073619395
0.081975095 0.042326283 -0.0675683 -0.114069626 0.015978687 -0.015252314 -0.002592779 -0.09251215
0.059361685 0.07088174 0.09875535 -0.024756525 0.068820044 0.036038723 0.054725673 -0.07731365
0.011516547 0.008881639 -0.040874403 0.09466138 -0.07540044 -0.08994472 -0.051881842 -0.041720297
0.018850584 0.007148058 -0.00410155 0.019086296 -0.10315681 -0.04198054 -0.037753172 -0.07062284
-0.010004145 0.08581045 0.08962152 0.061012994 0.05424674 -0.05264053 -0.09093954 -0.08828712
-0.038336515 0.027771682 -0.08618571 -0.016976662 -0.05584055 -0.005985859 0.0034122295 -0.08581641
0.0021593913 -0.09825322 -0.08429648 0.020014845 -0.05500843 -0.08342535 -0.03680063 0.083677515

conv1d_3.bias f4 [32]
00000000: ed81 923d ab18 acbd c6b3 2b3d 71d1 1bbd
00000010: e12a 13bd fc33 b0bd fb6e 913d f802 8f3c
00000020: d79a 04bd 81de 87bc b7f0 193d f3c9 a13d
00000030: cfb3 843c 3120 a0bd 83fc 743d 44dd 9ebd
00000040: c4ec 933d ae55 00be bdaf fe3d ddb3 10bd
00000050: 8271 99bd 2643 72bb 041b b2bd fd59 f0bc
00000060: e4e9 26bd be32 7bbd ac68 b2bd 3d8c 25bc
00000070: 63f9 4fbd aec4 3c3d a747 873d 85f9 a5ba
0.071536876 -0.084031425 0.041919492 -0.038041536 -0.035929564 -0.08603665 0.07101246 0.01745747
-0.03237423 -0.01658559 0.03758308 0.07899847 0.01619902 -0.0781864 0.059811126 -0.07757047
0.07222894 -0.12532684 0.12435863 -0.03532778 -0.07492353 -0.0036966293 -0.08696559 -0.029339785
-0.0407504 -0.06132769 -0.08711371 -0.010104236 -0.050774943 0.046086006 0.066054635 -0.0012662864

fc.weight f4 [3, 32]
00000000: 44c9 413c 1d92 d2bd 9564 eabd e7fe ba3d
00000010: c101 ca3d a9bd 83bd 7d81 5d3e 6085 e4bd
00000020: b171 183e 4a6f 5f3e b66c c13d f913 313e
00000030: 8688 313d 8ee1 9cbd 01e6 cb3d ba17 cabd
00000040: 1bd8 213e 3435 15be 8666 9abd dae7 263e
00000050: ce8f e73d de6d 483e f030 ed3d 6b6d 9e3d
00000060: 9411 0ebe c017 393b 6a3a 33be 267e ba3d
00000070: 34e7 cbbc fd28 23be e2d7 4cbe f487 c53d
00000080: 8074 7a3d 04bd 0ebd 369d b6bd 68e7 ffbd
00000090: c764 89bd 2588 aebd 8015 6abd f097 343e
000000a0: 06e8 f5bd d84b e7bd 6773 a13d be34 23be
000000b0: ca7a 0fbe 4bcb 6dbd bbd4 393e 5e0b 17be
000000c0: cea2 b43d e68c e33b 2822 1dbe 10eb 15bd
000000d0: dede 323e fe27 a3bd 9b83 02be 36b3 2e3e
000000e0: 90e0 37be 904a 673e 45ad ca3c d134 3cbb
000000f0: 3831 323e d503 3abe b0be b2bd a82a f3bd
00000100: a287 55bd c222 56be 0da5 633d e35e 063b
00000110: d91e 3b3e 8c58 123c 5835 9db9 1fc0 d9bc
00000120: 4d5c 3c3d 7874 f73d 0b70 483e 3765 0bbe
00000130: 331c 5abd b092 2a3e 0009 7c3b 690a 223d
00000140: 64ea 253e 5600 823d 8462 3cbe cdbc 1f3d
00000150: 9a82 c23d f9e4 77bd b2a4 033e 624e d3bd
00000160: d3d8 133d 7fe2 b0bd e1a9 3ebe e89e 153e
00000170: f1e1 10be 540a 5e3c cc57 24be e208 d03c
0.011827771 -0.10281775 -0.11444966 0.0913065 0.09863616 -0.06432659 0.21631427 -0.11158252
0.1488712 0.21819797 0.09444563 0.17292775 0.04334309 -0.07660209 0.09955979 -0.09867807
0.15805094 -0.14571077 -0.07539086 0.16299382 0.113067254 0.19573161 0.115816 0.077357136
-0.13873893 0.0028242916 -0.17502752 0.09106092 -0.02489052 -0.15933605 -0.20004228 0.096450716
0.06114626 -0.034848228 -0.08916704 -0.12495309 -0.06708675 -0.08522061 -0.05714941 0.17636085
-0.120071456 -0.11293763 0.078833394 -0.15938088 -0.14011684 -0.058055203 0.18147556 -0.1475043
0.08820115 0.0069442866 -0.15345061 -0.036601126 0.1746783 -0.07966612 -0.12745516 0.17060551
-0.17956758 0.22587037 0.024740824 -0.0028718004 0.17401588 -0.18165524 -0.08727777 -0.118733704
-0.052131303 -0.20911697 0.055577327 0.0020503334 0.18273486 0.008932244 -0.00029985118 -0.026580868
0.045986462 0.120827615 0.19573991 -0.13612829 -0.05324955 0.1665752 0.0038457513 0.03956071
0.16202694 0.0634772 -0.18396956 0.038998414 0.094975665 -0.0605211 0.12855795 -0.10317685
0.03609545 -0.08636951 -0.18619491 0.14611399 -0.1414869 0.013552267 -0.16049117 0.02539486

fc.bias f4 [3]
00000000: cdd3 ce3d d174 5cbd c180 113e
0.100989915 -0.053822342 0.14209272
